checkpoints/cyp1a2_veith_40_train1_neg/Aug31-14:40:17_200.pth (torch, 471814 bytes, 294 tensors)

layers.0.weight f4 [24, 16]
0.8500059 0.8888682 0.2391211 0.09959482 0.5759017 0.33566216 -0.55460465 0.14667611
0.19932742 -1.2067177 0.88885534 0.5329215 0.16390483 1.0345894 0.44555923 -0.59209126
0.53113407 0.1678258 -0.365045 -0.23920237 -0.5078328 0.45853433 -0.97164226 -0.17941864
-0.38323689 -0.78020334 0.14140189 -0.9442615 -0.2051977 -1.0119662 0.60306364 -1.0774995
0.14725183 0.08215953 0.050501205 0.26348594 -0.12306051 0.17502783 0.019917646 0.034632444
0.020836577 -0.23557141 0.067483455 0.12195334 -0.0778677 -0.15099494 0.13355136 -0.04350866
0.17226444 0.09338098 0.05155576 0.28700584 -0.12612396 0.15254499 0.0011540868 0.034405474
0.04200264 -0.247125 0.0709307 0.13066526 -0.07202644 -0.17363763 0.16216485 -0.022573939
0.13789155 0.056921747 0.08211076 0.24216011 -0.10654702 0.085652344 0.013917456 0.021658504
0.07094532 -0.19823134 0.033455696 0.12084477 -0.063883476 -0.12476023 0.09713456 -0.03254366
-0.030639082 0.055332888 -0.013232708 0.022060517 0.033094525 0.1426564 0.021245211 0.0033067013
-0.015667256 0.045218654 0.049505226 -0.08522134 0.016386874 0.022030942 0.19365224 0.00881122
0.82266146 -0.60803324 -0.10257943 -0.3678701 -0.732974 0.47029078 0.055329844 -0.29930773
-0.1167814 -1.1797916 -0.6038612 -1.4049257 -0.3174554 -1.3235177 0.6279538 0.093698844
-0.00410286 -0.7303445 -0.15144312 -0.15734045 -0.40628144 -0.1918965 -0.9795579 -0.17035939
-0.150252 -0.0037597208 -0.74651456 -0.5868036 -0.16255699 -0.71860176 -0.25379053 -1.0865822
0.7766573 -0.05522633 0.39903787 -0.20517166 -0.19902398 0.7043829 -0.23477194 -0.13105994
0.39052138 -1.108242 -0.046377305 -0.6490421 -0.11202715 -0.3900956 0.8458979 -0.2474185
0.24180828 0.085576214 0.03250025 -0.033635918 0.007214941 0.1331831 -0.0046771215 -0.0025811237
0.024179839 -0.31133038 0.12904303 0.028284991 -0.015427201 -0.012643447 0.14162743 0.0076269223
0.2525041 -0.21218272 0.09390012 -0.11542513 0.35684517 0.0424059 -0.3799744 0.004867806
0.096635304 -0.39344028 -0.21041845 -0.045199744 0.020114165 0.5663837 0.075384215 -0.45591512
-0.83789366 0.09583248 0.038084533 -0.05478917 -0.15259227 0.533944 0.15270737 -0.034198478
0.030368483 1.1874704 0.0890023 -0.20408802 -0.041493963 -0.29338315 0.658311 0.16680874
0.0069078496 0.58775896 -0.2386477 0.04557579 -0.25568652 -0.5303666 -0.62694293 -0.040844336
-0.19927981 -0.04754995 0.5977688 0.054080762 -0.044987123 -0.4529238 -0.59199953 -0.6901863
0.024390832 0.3332408 0.22543897 -0.03637418 -0.14178757 -0.35073796 0.20870481 0.010721383
0.2090353 -0.038003188 0.33762968 0.05645257 -0.0037930452 -0.21871506 -0.45323625 0.23555773
-0.958702 0.23143642 0.05634194 0.09312204 -0.548878 -0.6239669 -0.8976726 0.0413008
0.051791508 1.3850721 0.23401634 0.46457526 -0.02434064 -0.80029047 -0.751329 -0.9979143
-0.2632839 -0.32213992 0.26707044 -0.1272867 -0.20575242 -0.18530068 -1.50191 -0.03828273
0.2638838 0.3966547 -0.3183271 0.0073163016 -0.05473738 -0.32812092 -0.23603031 -1.6193968
00000000: fd99 593f de8c 633f 29dc 743e 5ef8 cb3d
00000010: 4b6e 133f e9db ab3e 92fa 0dbf 4332 163e
00000020: 7d1c 4c3e ba75 9abf 068c 633f 8b6d 083f
00000030: abd6 273e 6d6d 843f 5720 e43e 4b93 17bf
00000040: 67f8 073f 87da 2b3e 2ee7 babe 77f1 74be
00000050: 5501 02bf 03c5 ea3e 8cbd 78bf 85b9 37be
00000060: a037 c4be 68bb 47bf a8cb 103e 1fbb 71bf
00000070: 591f 52be 1c88 81bf 6162 1a3f 81eb 89bf
00000080: 2fc9 163e 4143 a83d 5ada 4e3d a1e7 863e
00000090: 2607 fcbd 7f3a 333e 552a a33c c0da 0d3d
000000a0: 78b1 aa3c a239 71be c434 8a3d acc2 f93d
000000b0: 1a79 9fbd 6b9e 1abe b0c1 083e 2336 32bd
000000c0: 1766 303e 873e bf3d 222c 533d 6ef2 923e
000000d0: a426 01be c134 1c3e ba44 973a c1ec 0c3d
000000e0: f60a 2c3d 560e 7dbe 1d44 913d 1dcd 053e
000000f0: 9982 93bd 10ce 31be 8b0e 263e fbec b8bc
00000100: 7133 0d3e c726 693d b029 a83d d2f8 773e
00000110: 5335 dabd 7f6a af3d 0b06 643c 2d6d b13c
00000120: c84b 913d 28fd 4abe d708 093d 767d f73d
00000130: 57d5 82bd 4b82 ffbd 7cee c63d 804c 05bd
00000140: d0fe fabc bda4 623d 00ce 58bc 42b8 b43c
00000150: 208e 073d 8514 123e 700a ae3c 3eb5 583b
00000160: 9e58 80bc 3237 393d fec5 4a3d 8788 aebd
00000170: c43d 863c 3c7a b43c c64c 463e ef5c 103c
00000180: f199 523f 11a8 1bbf 2a15 d2bd 7859 bcbe
00000190: 2fa4 3bbf f4c9 f03e 8ca1 623d dd3e 99be
000001a0: 162b efbd 6903 97bf a696 1abf 9bd4 b3bf
000001b0: 8489 a2be 0769 a9bf 95c1 203f 2ee5 bf3d
000001c0: 4971 86bb dbf7 3abf e813 1bbe db1d 21be
000001d0: 1f04 d0be 8480 44be 4ec4 7abf b172 2ebe
000001e0: a9db 19be a665 76bb 941b 3fbf c338 16bf
000001f0: 5775 26be 49f6 37bf d5f0 81be 2015 8bbf
00000200: 03d3 463f 0135 62bd b14e cc3e 8518 52be
00000210: f1cc 4bbe 7052 343f 0e68 70be 9434 06be
00000220: 6bf2 c73e e0da 8dbf 21f6 3dbd a027 26bf
00000230: 7e6e e5bd 9cba c7be c48c 583f 465b 7dbe
00000240: 979c 773e 9542 af3d fb1e 053d d1c5 09bd
00000250: 506b ec3b 2761 083e 8a42 99bb 1228 29bb
00000260: cc14 c63c b266 9fbe db23 043e edb5 e73c
00000270: 5fc2 7cbc 7626 4fbc c806 113e 43eb f93b
00000280: 3848 813e 6d46 59be b54e c03d 0364 ecbd
00000290: 69b4 b63e cfb1 2d3d 018c c2be 1e82 9f3b
000002a0: bbe8 c53d 0171 c9be ef77 57be 5e23 39bd
000002b0: 76c6 a43c 86fe 103f 0a63 9a3d b56d e9be
000002c0: 3380 56bf d243 c43d 87fe 1b3d 9c6a 60bd
000002d0: 2641 1cbe 8eb0 083f 525f 1c3e b413 0cbd
000002e0: 53c7 f83c 08ff 973f d646 b63d 73fc 50be
000002f0: 93f5 29bd 5136 96be 1287 283f e9cf 2a3e
00000300: 3e5b e23b 5f77 163f 1060 74be aead 3a3d
00000310: 58e9 82be 1bc6 07bf 557f 20bf 644c 27bd
00000320: 0210 4cbe bdc3 42bd 6007 193f ca83 5d3d
00000330: 6b44 38bd a1e5 e7be 488d 17bf 0db0 30bf
00000340: 48cf c73c 8a9e aa3e 79d9 663e 18fd 14bd
00000350: c330 11be ed93 b3be b7b6 553e bda8 2f3c
00000360: 5a0d 563e 3ba9 1bbd ccdd ac3e cf3a 673d
00000370: bd94 78bb d7f6 5fbe 950e e8be 0c36 713e
00000380: 7f6d 75bf abfd 6c3e cec6 663d c5b6 be3d
00000390: 4583 0cbf 4bbc 1fbf dfcd 65bf 072b 293d
000003a0: 5523 543d 0b4a b13f fba1 6f3e cfdc ed3e
000003b0: 0666 c7bc d6df 4cbf 1957 40bf 5077 7fbf
000003c0: 26cd 86be 86ef a4be 75bd 883e 7257 02be
000003d0: c3b0 52be 76bf 3dbe 963e c0bf 5ace 1cbd
000003e0: c71b 873e 5316 cb3e c5fb a2be 96bd ef3b
000003f0: 4e34 60bd 77ff a7be eeb1 71be 6548 cfbf

layers.0.bias f4 [16]
-0.25168878 0.20213468 0.23308413 -0.28451195 0.19293797 -0.31257877 0.28441194 0.5132049
-0.35211915 -0.2756022 -0.28616983 0.15724501 -0.3859148 -0.3894093 0.3311587 -0.32237202
00000000: 5add 80be 65fc 4e3e 9bad 6e3e 8dab 91be
00000010: 8891 453e 530a a0be 719e 913e 6561 033f
00000020: f648 b4be bb1b 8dbe da84 92be d604 213e
00000030: a096 c5be a860 c7be a28d a93e f20d a5be

layers.1.weight f4 [16, 16]
-0.4191883 0.043977283 -0.07312669 0.26126233 -0.16504054 -0.089894325 -0.012523431 -0.0792484
0.3673073 0.65363663 0.074615024 -0.08191078 -0.2884568 -0.8831852 -0.6233166 -0.05486931
-0.023593584 -0.11706054 0.27798456 0.41651762 -0.05330071 -0.8120738 0.0012603861 0.077421814
-0.5223923 0.91832966 -0.76264536 0.024403952 -0.047567423 0.30112422 0.6554579 -0.045182135
-0.047310214 -0.051742442 -0.6814383 -0.46499023 -0.012851135 -0.23138288 -0.019475348 0.14859605
0.08787011 0.5690187 -0.55440474 -0.10955433 -0.21862662 -0.33602947 0.17289995 -0.12756594
-0.21749847 0.15804128 0.11392572 0.116976894 0.04621827 -0.5478687 -0.17977108 0.21135357
-0.007349974 0.55488324 -0.43349183 -0.16534609 0.20612071 0.015072659 0.43198156 0.20184556
0.3972433 -0.14122999 -0.39227018 -0.8027786 0.09897794 -0.7426554 0.07590771 0.21249482
-0.04597665 0.36851436 -0.21507832 -0.03519464 0.147313 0.21151462 0.75869286 -0.018538551
-0.29695284 -0.048367776 -1.0287634 -0.8859679 -0.007883135 0.39089698 0.0733065 0.007789075
0.8062966 -0.2454804 0.02908205 -0.08057274 -0.039341375 -0.9054124 -0.13400511 0.035150137
0.3947075 -0.10420634 0.029598137 -0.4058971 0.2123174 -1.0869948 0.026480103 0.06071055
0.868303 0.50568086 0.35398245 0.12459175 0.17573957 -0.2595051 0.020655055 0.0759686
0.014457847 1.1307268 -0.58559334 -0.2258005 0.10678482 -0.16611284 -0.7595219 0.5975795
-0.23761901 0.8535502 -0.92897063 -0.5690903 -0.23958816 -0.31502143 0.32515264 -0.25558558
-0.06519869 0.06078611 -0.6985999 -1.0869468 0.1279346 -0.6212098 0.058809247 -0.024713367
0.604362 0.26819125 -0.14013767 0.05105187 0.42367873 -0.2340424 0.61270154 0.07370332
-0.41324773 0.01930916 -0.25249088 0.07666564 -0.31295693 0.77799946 0.0630445 0.05769976
-0.8930015 -0.24362397 -0.58349144 0.055198748 -0.23643814 0.19369794 0.07380604 -0.11007821
0.025958182 -0.05563807 0.6187794 0.6159012 -0.098800614 -0.61673343 0.061354186 -0.08847884
-0.04513229 0.5615866 -0.25920025 -0.005749973 0.028449543 0.14363028 0.46196413 0.078776315
0.14566377 -0.51978314 -0.2129366 -0.39131737 -0.14385802 -0.2241209 0.32750046 -0.13431454
-0.4083142 -0.0037816344 -0.60114735 0.021651618 -0.04553933 0.4855906 1.0168848 0.0126021765
0.010999442 1.0189242 -0.33483317 -0.8977183 0.40293226 -1.0309995 -0.82284766 0.5117804
0.3650002 0.4510345 -0.4961048 -0.36622956 0.4236624 0.18398403 1.1372976 0.2833067
-0.43837908 -0.2708126 -0.5542126 -0.15208027 -0.277436 -0.28331855 0.2547704 -0.071260676
-0.20506264 0.75488216 -0.6104463 -0.044216223 -0.08166181 -0.07391829 0.023508914 -0.15490171
0.26749733 0.07500073 -0.19936664 -0.5238607 0.14728253 0.26583496 0.105476476 -0.0020454212
0.7075539 -0.46940887 0.42661798 0.12062031 0.054103438 -0.30887547 -0.29084048 -0.043698575
-0.40664405 -0.023201656 -0.06396883 0.35379985 -0.20992227 -0.19069262 -0.1413596 -0.07480676
0.30466244 0.75402504 0.12853208 -0.031129878 -0.13864422 -0.6930629 -0.5215764 -0.119873434
00000000: d99f d6be 8621 343d 72c3 95bd 2dc4 853e
00000010: 6300 29be 841a b8bd 142f 4dbc fc4c a2bd
00000020: b40f bc3e bb54 273f c3cf 983d d7c0 a7bd
00000030: 9cb0 93be 6d18 62bf ad91 1fbf a4be 60bd
00000040: 5547 c1bc 70bd efbd fe53 8e3e cc41 d53e
00000050: d851 5abd 12e4 4fbf 8a33 a53a 548f 9e3d
00000060: 80bb 05bf a717 6b3f ba3c 43bf ccea c73c
00000070: 0fd6 42bd f42c 9a3e 17cc 273f e710 39bd
00000080: 5bc8 41bd e2ef 53bd be72 2ebf 3313 eebe
00000090: 918d 52bc a2ef 6cbe c48a 9fbc 9029 183e
000000a0: 3ff5 b33d 36ab 113f 78ed 0dbf 055e e0bd
000000b0: a8df 5fbe 0e0c acbe af0c 313e a5a0 02be
000000c0: ebb7 5ebe 93d5 213e e351 e93d 9591 ef3d
000000d0: 5e4f 3d3d 2041 0cbf e915 38be 126d 583e
000000e0: 0dd8 f0bb d40c 0e3f a4f2 ddbe 7c50 29be
000000f0: 4f11 533e 50f3 763c b02c dd3e 9ab0 4e3e
00000100: 7963 cb3e 989e 10be a3d7 c8be e682 4dbf
00000110: f2b4 ca3d aa1e 3ebf 8075 9b3d 3e98 593e
00000120: 0352 3cbd eaad bc3e 7e3d 5cbe 4128 10bd
00000130: 38d9 163e 4a97 583e b239 423f 29de 97bc
00000140: 340a 98be 4a1d 46bd 85ae 83bf cbce 62bf
00000150: 4428 01bc a623 c83e b821 963d 7f3b ff3b
00000160: 7469 4e3f 375f 7bbe 7b3d ee3c 5203 a5bd
00000170: 6c24 21bd 1bc9 67bf a338 09be 97f9 0f3d
00000180: 1a17 ca3e 226a d5bd cb77 f23c bfd1 cfbe
00000190: bc69 593e a522 8bbf cdec d83c a0ab 783d
000001a0: 1b49 5e3f 4d74 013f 303d b53e f629 ff3d
000001b0: 13f5 333e dadd 84be ca34 a93c 6d95 9b3d
000001c0: 9be0 6c3c a8bb 903f 72e9 15bf 3f38 67be
000001d0: 00b2 da3d 7c19 2abe 0770 42bf f8fa 183f
000001e0: 6652 73be 4482 5a3f 05d1 6dbf e7af 11bf
000001f0: 9956 75be 7d4a a1be 687a a63e 1ddc 82be
00000200: e486 85bd dbfa 783d 71d7 32bf 1321 8bbf
00000210: 4a01 033e 9b07 1fbf f7e1 703d b073 cabc
00000220: 78b7 1a3f 5d50 893e 4080 0fbe c41b 513d
00000230: 6bec d83e d0a8 6fbe 02da 1c3f c4f1 963d
00000240: 3595 d3be 3e2e 9e3c 7c46 81be e002 9d3d
00000250: e43b a0be f92a 473f 7a1d 813d 9556 6c3d
00000260: bf9b 64bf 9078 79be b25f 15bf 1518 623d
00000270: d71c 72be c158 463e 9f27 973d af70 e1bd
00000280: 41a6 d43c bfe4 63bd 5468 1e3f b3ab 1d3f
00000290: fa57 cabd 3ee2 1dbf 874e 7b3d 6534 b5bd
000002a0: a3dc 38bd 24c4 0f3f e5b5 84be 456a bcbb
000002b0: 040f e93c d113 133e 9086 ec3e 7a55 a13d
000002c0: e228 153e 8210 05bf 0d0c 5abe c05a c8be
000002d0: 844f 13be f37f 65be 24ae a73e c089 09be
000002e0: 8f0e d1be 4cd5 77bb cbe4 19bf bc5e b13c
000002f0: 7387 3abd 559f f83e 4829 823f 5c79 4e3c
00000300: 0137 343c 1c6c 823f 416f abbe ded0 65bf
00000310: 234d ce3e cbf7 83bf 25a6 52bf 0a04 033f
00000320: 4ee1 ba3e feed e63e 7301 febe 7182 bbbe
00000330: 47ea d83e 4f66 3c3e f892 913f 930d 913e
00000340: 3973 e0be f3a7 8abe e1e0 0dbf eeba 1bbe
00000350: 170c 8ebe 210f 91be 4471 823e 1ef1 91bd
00000360: f1fb 51be f53f 413f 3546 1cbf 121c 35bd
00000370: 4f3e a7bd 7962 97bd c495 c03c 8e9e 1ebe
00000380: 69f5 883e fc99 993d c526 4cbe bc1b 06bf
00000390: 3bd1 163e 851b 883e 0d04 d83d 790c 06bb
000003a0: 4122 353f 5c56 f0be ac6d da3e c807 f73d
000003b0: 919b 5d3d ed24 9ebe 0be9 94be 47fd 32bd
000003c0: a633 d0be 6611 bebc 1702 83bd 4125 b53e
000003d0: ddf5 56be ed44 43be 92c0 10be 4934 99bd
000003e0: b7fc 9b3e c907 413f ea9d 033e 1604 ffbc
000003f0: c0f8 0dbe 926c 31bf 0886 05bf 3480 f5bd

layers.1.bias f4 [16]
-0.20351426 -0.0730846 -0.113421224 -0.12394215 -0.2724877 0.014852912 0.027362954 -0.201153
0.07644627 0.022815958 -0.055500757 0.06726351 0.2064252 -0.1227454 0.04031776 0.18331082
00000000: 0b66 50be 61ad 95bd 6349 e8bd 62d5 fdbd
00000010: 8283 8bbe a159 733c 4628 e03c 0dfb 4dbe
00000020: dd8f 9c3d 88e8 ba3c c354 63bd 73c1 893d
00000030: 2161 533e f161 fbbd 3c24 253d d5b5 3b3e

final.linears.0.weight f4 [112, 56]
0.03036158 0.013408499 1.2377216 0.9569143 -2.9677472 0.24490398 -0.0024649093 0.036152504
0.007955925 0.35843804 0.18565758 -0.00861142 -0.049919147 0.02623976 -0.036288448 -0.024343606
-0.0065357373 0.004293543 -0.008885684 -0.031400383 -0.014485494 0.01520203 -0.026019143 0.029744584
-0.030291717 0.10854084 0.14123388 -0.06153139 0.020610102 -0.04443812 0.06530947 0.15314387
-0.14173597 -0.046396732 -0.10570035 0.056437973 -0.11904737 -0.03423546 0.04185172 -0.054651007
0.10279262 -0.011212813 -0.051263746 0.04305664 -0.057439037 0.07539084 0.00060167484 0.04818103
-0.0566195 0.06452961 -0.05217646 -0.0043368647 -0.06538986 -0.06898969 -0.07417641 -0.024117462
0.3705059 0.9492106 0.0024472594 -0.047302984 -0.07581474 0.1191077 -0.9910957 -0.6023585
0.5350537 -0.025994485 0.6074506 0.61746615 -0.646058 0.36444205 -0.48677522 0.9466322
0.03613007 -0.46401614 0.74646544 0.15378329 0.36613467 0.27747217 -0.38182935 0.09656914
0.24531657 -0.13937841 0.026045008 0.04574439 0.057259824 0.27253482 0.21251182 -0.12064323
0.17295022 -0.11367605 0.013607592 -0.079954684 -0.045034643 0.27028236 0.0783298 0.28243273
-0.024144063 -0.38650465 0.052191857 0.24290407 -0.2287465 0.20895094 0.10975216 -0.20315377
-0.24594818 -0.08271675 0.000813374 0.08284757 -0.17967395 0.08989122 -0.075214975 0.08190596
-0.23478284 0.052357435 -0.016684214 -0.12214361 -0.089829795 -0.04668223 -0.50489587 0.012513832
0.102061264 -0.14464368 -0.067992255 0.21046537 -0.2200576 -0.25107598 0.02370345 -0.42517117
-0.56106347 0.42119613 -0.03305555 -0.09256544 -0.02303707 -0.23739563 -0.29713792 0.19169755
-0.06297356 0.02029653 0.112041876 -0.0659006 0.029254658 -0.06222419 0.018092245 0.06424773
-0.068207495 -0.072793595 -0.07449833 -0.038998723 -0.026595607 0.03817312 0.04543641 -0.00056550023
0.0029104063 -0.042556595 0.020647 0.0039174454 -0.008195733 0.06697741 -0.03796712 0.027299846
-0.04744749 0.046309575 -0.0382214 0.03508583 0.073362306 -0.015501031 -0.044624038 0.0715515
0.08283859 -0.94401324 0.103904516 0.10761512 0.07362532 0.11856549 0.47892785 -0.96219224
0.76180524 0.12971313 0.5594261 1.1445597 0.8901089 -0.2785455 -0.745005 -0.7567679
-0.84508026 0.6609604 0.7795585 -0.62891275 0.27261433 0.0741125 0.72439307 -1.3737435
-0.029825803 -0.08056698 -0.102817416 0.046824206 -0.0557999 0.12994084 -0.031173658 -0.0892877
0.11639332 -0.012880137 0.06868671 -0.065653466 0.098252974 0.045974888 -0.09489966 0.05900265
0.03686097 0.07390209 0.023131933 -0.0032462454 -0.011200287 0.05809341 -0.0006787499 0.07055288
-0.06880106 0.0007420995 0.009268475 0.05163461 0.03400271 -0.021655293 0.023827804 0.04348819
-0.030288711 -0.080185674 0.6455218 -0.08546316 -0.02954364 -0.068415485 0.043989852 0.09572645
-0.007738527 -0.16465856 -0.06847423 -0.18946573 0.17891966 0.16044006 0.13522856 -0.0649879
0.075105645 0.26829353 0.2023187 0.10418104 0.30730662 0.15966491 0.25875723 -0.065694004
-0.12492516 0.23828359 0.21333423 -0.18938018 0.10003134 -0.21578142 0.13389385 0.2889625
00000000: d9b8 f83c 52af 5b3c a96d 9e3f 56f8 743f
00000010: 92ef 3dc0 1cc8 7a3e 518a 21bb a614 143d
00000020: 9159 023c 3185 b73e 051d 3e3e ea16 0dbc
00000030: 0578 4cbd c4f4 d63c 32a3 14bd 3e6c c7bc
00000040: bd29 d6bb d9b0 8c3b 4395 11bc b09d 00bd
00000050: 9154 6dbc ef11 793c 1926 d5bc eaaa f33c
00000060: 5626 f8bc a94a de3d 9d9f 103e 5708 7cbd
00000070: 84d6 a83c bf04 36bd f9c0 853d bfd1 1c3e
00000080: 3c23 11be 800a 3ebd 6d79 d8bd 812b 673d
00000090: 1ccf f3bd 7b3a 0cbd b66c 2b3d bcd9 5fbd
000000a0: f084 d23d f2b5 37bc eff9 51bd 295c 303d
000000b0: 3245 6bbd 8366 9a3d b7b9 1d3a 7959 453d
000000c0: d9e9 67bd 1a28 843d fcb6 55bd 421c 8ebb
000000d0: 1eeb 85bd 774a 8dbd cde9 97bd fc91 c5bc
000000e0: f3b2 bd3e 77ff 723f 3362 203b c6c0 41bd
000000f0: c244 9bbd bdee f33d 73b8 7dbf 2b34 1abf
00000100: 47f9 083f 63f2 d4bc e281 1b3f 4312 1e3f
00000110: 0f64 25bf 2698 ba3e 9a3a f9be 7d56 723f
00000120: 20fd 133d 8693 edbe 5c18 3f3f 5e79 1d3e
00000130: 0176 bb3e d510 8e3e 237f c3be 0bc6 c53d
00000140: 4434 7b3e 37b9 0ebe 575c d53c 785e 3b3d
00000150: 4789 6a3d af89 8b3e b39c 593e cc13 f7bd
00000160: dd19 313e fdce e8bd 61f2 5e3c 48bf a3bd
00000170: 3f76 38bd 7362 8a3e 606b a03d 069b 903e
00000180: c5c9 c5bc f0e3 c5be 21c7 553d d8bb 783e
00000190: 863c 6abe 3cf7 553e bec5 e03d 8b07 50be
000001a0: d7d9 7bbe 6667 a9bd 9b38 553a fdab a93d
000001b0: 73fc 37be e318 b83d 4f0a 9abd 50be a73d
000001c0: ea6a 70be c074 563d 55ad 88bc 6e26 fabd
000001d0: aff8 b7bd de35 3fbd db40 01bf d106 4d3c
000001e0: 7f05 d13d 791d 14be 863f 8bbd 3c84 573e
000001f0: c856 61be 088d 80be bd2d c23c 09b0 d9be
00000200: dba1 0fbf 05a7 d73e 4265 07bd f392 bdbd
00000210: 3db8 bcbc d717 73be 7622 98be 5d4c 443e
00000220: 48f8 80bd e944 a63c 3676 e53d e5f6 86bd
00000230: 77a7 ef3c cbde 7ebd 3036 943c 5094 833d
00000240: 5fb0 8bbd cf14 95bd 9592 98bd 20bd 1fbd
00000250: 08df d9bc 6b5b 1c3d 871b 3a3d 143e 14ba
00000260: 84bc 3e3b d34f 2ebd e623 a93c ea5d 803b
00000270: 6547 06bc 742b 893d 6983 1bbd eda3 df3c
00000280: 4d58 42bd 1caf 3d3d 0b8e 1cbd 29b6 0f3d
00000290: fa3e 963d 09f8 7dbc b2c7 36bd 9889 923d
000002a0: 47a7 a93d daaa 71bf e4cb d43d 5165 dc3d
000002b0: dfc8 963d 77d2 f23d 0836 f53e 3b52 76bf
000002c0: ab05 433f 85d3 043e 8d36 0f3f ef80 923f
000002d0: 2dde 633f 849d 8ebe a6b8 3ebf 8bbb 41bf
000002e0: 2e57 58bf b334 293f 2591 473f 6d00 21bf
000002f0: 1b94 8b3e 4bc8 973d d371 393f d4d6 afbf
00000300: 3e55 f4bc 4d00 a5bd f091 d2bd bdca 3f3d
00000310: 708e 64bd 360f 053e e65f ffbc 78dc b6bd
00000320: 9f5f ee3d 3607 53bc 9eab 8c3d 5375 86bd
00000330: db38 c93d 2a50 3c3d c15a c2bd c3ac 713d
00000340: 87fb 163d fb59 973d 2e7f bd3c f6be 54bb
00000350: 6981 37bc 5bf3 6d3d 22ee 31ba 077e 903d
00000360: 92e7 8cbd 7489 423a cdda 173c d07e 533d
00000370: 6d46 0b3d 7166 b1bc 8732 c33c ac20 323d
00000380: 0820 f8bc 6338 a4bd eb40 253f 4f07 afbd
00000390: 8105 f2bc 6b1d 8cbd b42e 343d 3b0c c43d
000003a0: 7893 fdbb 419c 28be 383c 8cbd 4e03 42be
000003b0: b736 373e 664a 243e 5b79 0a3e 6018 85bd
000003c0: fdd0 993d c55d 893e a22c 4f3e de5c d53d
000003d0: 4b57 9d3e 337f 233e d47b 843e 948a 86bd
000003e0: c3d8 ffbd 9d00 743e 4a74 5a3e e1ec 41be
000003f0: 3bdd cc3d cef5 5cbe 781b 093e e5f2 933e

final.linears.0.bias f4 [112]
-0.34000814 0.28152898 -0.081100546 0.061101202 -0.041929185 0.3157045 -0.35949826 0.21411201
-0.1916501 0.15578957 0.15934865 -0.21711962 0.017588576 0.1281753 0.097014934 0.4007864
0.23895499 -0.10090763 0.25161254 0.016869258 0.23605114 0.303082 0.32398415 0.35843202
0.24228083 0.35482475 0.031500604 -0.61270154 0.31385353 0.014419322 -0.2135234 0.1615601
0.12638861 -0.3862822 0.13650514 0.075615406 0.12825575 -0.1877753 0.1667013 -0.13308395
0.48838666 0.274287 -0.034726012 -0.031082971 0.20878914 -0.021027027 0.35404173 0.37417373
-0.70963603 0.14838348 0.040769108 0.25222757 0.6328414 0.23725614 0.2757423 -0.2326829
-0.12466463 -0.12332874 0.2593882 -0.042118456 0.33454847 0.05744997 -0.10719885 0.22792354
-0.09314092 0.051898308 0.13000686 0.05666229 0.24334593 0.23505245 -0.08808712 0.2078876
-0.17938076 0.032372817 -0.24531125 0.02697584 -0.027779352 0.12583132 -0.24155933 -0.26524228
0.22204833 0.09900705 0.30471334 0.24378933 -0.25352883 0.02732394 0.022425517 0.12844804
-0.0031199986 -0.0815575 0.27734035 -0.07414171 0.11447021 -0.13326378 0.16396974 0.15917479
0.21068309 -0.14442112 0.16413088 0.15102687 0.12782806 0.26533186 -0.12188282 -0.24871984
-0.08341344 -0.47028604 0.39754352 0.24461813 0.15684049 0.052143864 -0.09548654 0.124706455
00000000: 8c15 aebe 9124 903e 0b18 a6bd 4145 7a3d
00000010: f0bd 2bbd 05a4 a13e 2810 b8be 2e40 5b3e
00000020: ec3f 44be 4d87 1f3e 4b2c 233e 9b54 5ebe
00000030: eb15 903c 6340 033e c4af c63d e033 cd3e
00000040: 9eb0 743e a9a8 cebd 5cd3 803e 6631 8a3c
00000050: 64b7 713e 902d 9b3e 40e1 a53e 6784 b73e
00000060: 7718 783e 97ab b53e c706 013d 02da 1cbf
00000070: 69b1 a03e 053f 6c3c e1a5 5abe 0370 253e
00000080: 046c 013e c8c6 c5be 01c8 0b3e 40dc 9a3d
00000090: 7a55 033e 2b48 40be bfb3 2a3e 2947 08be
000000a0: d10d fa3e 586f 8c3e dd3c 0ebd b7a1 febc
000000b0: d2cc 553e df40 acbc f544 b53e b393 bf3e
000000c0: b5aa 35bf d7f1 173e 82fd 263d f923 813e
000000d0: e501 223f 46f3 723e 182e 8d3e 6d44 6ebe
000000e0: 2b50 ffbd c793 fcbd 88ce 843e 6784 2cbd
000000f0: f049 ab3e a950 6b3d 128b dbbd ca64 693e
00000100: abc0 bebd 5293 543d 8520 053e b816 683d
00000110: ad2f 793e 97b1 703e 0567 b4bd 7de0 543e
00000120: 97af 37be 5c99 043d df32 7bbe 70fc dc3c
00000130: 8691 e3bc edd9 003e 545b 77be d6cd 87be
00000140: a360 633e 35c4 ca3d 6303 9c3e e9a3 793e
00000150: 88ce 81be 75d6 df3c b8b5 b73c e287 033e
00000160: e478 4cbb 9e07 a7bd 8eff 8d3e 9cd7 97bd
00000170: 5c6f ea3d 4d76 08be afe7 273e b7fe 223e
00000180: 4fbd 573e 21e3 13be ed11 283e caa6 1a3e
00000190: 5ce5 023e 94d9 873e b39d f9bd 6ab0 7ebe
000001a0: aad4 aabd 55c9 f0be d38a cb3e 2d7d 7a3e
000001b0: cb9a 203e ce94 553d 728e c3bd 1966 ff3d

final.linears.1.weight f4 [112, 112]
0.049847987 -0.24979244 -0.039469972 -0.43716747 -0.1687531 -0.2716429 -0.22129242 -0.3227191
-0.11618914 -0.28771192 -0.2330433 -0.123690434 -0.18932807 -0.28378016 -0.25158986 -0.2819259
-0.02120562 -0.033010174 -0.19992906 -0.15784046 -0.1825856 -0.294671 -0.2215557 -0.15210468
-0.24501401 -0.23547944 -0.09269473 -0.05731143 -0.21687502 -0.2585295 -0.0032656528 -0.28331047
-0.21552587 0.15128745 -0.37343013 -0.13147262 -0.2078974 -0.2650334 -0.31557977 -0.15894033
-0.16180307 -0.2970624 -0.09365115 -0.16569768 -0.2778424 -0.040270977 -0.20573872 -0.27901664
0.070732675 -0.072410926 -0.078488134 -0.22273341 -0.19866903 -0.31340438 -0.85776824 -0.2117228
-0.0754739 -0.018471817 -0.21567863 -0.1376611 -0.32950625 -0.19413683 -0.07820358 -0.15877289
-0.5444857 -0.21698953 -0.13952553 -0.12164498 -0.10537724 -0.25670624 -0.0040710433 -0.26963535
-0.03912445 -0.31786308 0.0820154 -0.038471695 -0.16773716 -0.22240034 -0.11978248 -0.042282887
-0.11306933 -0.15430015 -0.13077162 -0.015520284 0.048367385 -0.13444303 -0.17084937 -0.022733595
-0.2535197 -0.29678634 -0.08626735 -0.14845069 -0.14388536 -0.12362085 -0.16622306 -0.34335187
-0.121185385 -0.05697734 -0.32806137 -0.18368284 -0.5649611 -0.21816003 -0.15609463 -0.03810482
-0.11985994 -0.078663304 -0.23302098 -0.13980973 -0.2194066 -0.5806101 -0.19959007 -0.39861006
0.17168678 -0.18475953 -0.07921364 -0.52611846 -0.2328823 -0.20003885 -0.053820625 -0.11904228
-0.13785525 -0.1520954 -0.26392925 -0.05400519 -0.11615455 -0.25075355 -0.26640895 -0.30968022
-0.026308147 0.0060408297 -0.20968512 -0.19071554 -0.07863041 -0.21652949 -0.25446114 -0.15267412
-0.09576854 -0.20725115 -0.12578478 0.088239126 -0.18459143 -0.2048475 0.117682 -0.30811223
-0.30631015 0.19147432 -0.22340004 -0.15098944 -0.057833802 -0.23023091 -0.37325445 -0.012303314
-0.2123165 -0.3473394 -0.01574771 -0.12854332 -0.23878467 -0.09146959 -0.31890458 -0.2677242
0.0669518 -0.09162498 -0.007073583 -0.6811086 -0.32534447 -0.35502553 -0.22184837 -0.29366443
0.0054047843 -0.020617118 -0.12746157 -0.5956487 -0.23749998 -0.2532208 0.09240029 -0.19136982
-0.10008333 -0.30934697 -0.17845877 -0.17846929 -0.2592672 -0.2666651 -0.054511867 -0.3152226
-0.043017503 -0.28050348 -0.04095995 0.1008131 -0.18218659 -0.031990662 -0.0713662 -0.08953367
-0.076516666 -0.2400553 0.0181972 -0.17157362 0.17711404 -0.27563795 -0.19736525 -0.14458649
-0.27313554 -0.29990885 -0.09787354 -0.12586573 -0.1859861 -0.03928574 -0.16477789 -0.33721438
-0.03929614 -0.036913976 -0.25548258 -0.1400992 -0.24512668 -0.51735824 -0.110162035 -0.025584737
-0.056414317 -0.041135635 -0.32344443 -0.13868363 -0.3465014 0.002589202 -0.24888091 -0.25530294
0.02474853 -0.040800873 0.05702653 -0.042298786 -0.18957707 -0.04171839 -0.09243305 0.61709976
-0.025958702 -0.071830176 -0.01613516 0.00025580963 -0.048916046 -0.05919248 0.120094724 -0.029978653
0.008509746 0.24625978 -0.04410322 -0.06900665 -0.05689421 -0.090661824 -0.047798943 -0.20366192
0.17296736 -0.06749525 -0.119516455 0.034424312 -0.087140396 -0.062459555 0.014076858 -0.13091545
00000000: 672d 4c3d 97c9 7fbe 44ab 21bd 6ad4 dfbe
00000010: 9dcd 2cbe c714 8bbe 7b9a 62be 703b a5be
00000020: 92f4 edbd fa4e 93be e7a2 6ebe 6951 fdbd
00000030: 38df 41be a24b 91be 63d0 80be 9758 90be
00000040: 69b7 adbc ad35 07bd 34ba 4cbe eea0 21be
00000050: b8f7 3abe 1edf 96be 7fdf 62be 54c1 1bbe
00000060: f4e4 7abe 8621 71be bcd6 bdbd 64bf 6abd
00000070: 7c14 5ebe fb5d 84be 9004 56bb 120e 91be
00000080: d0b2 5cbe 19eb 1a3e 3c32 bfbe c2a0 06be
00000090: 0ee3 54be 75b2 87be ac93 a1be 41c1 22be
000000a0: b4af 25be 9018 98be 2dcc bfbd a7ac 29be
000000b0: 5c41 8ebe 2ef3 24bd 2cad 52be 45db 8ebe
000000c0: 4bdc 903d 2e4c 94bd 63be a0bd 3a14 64be
000000d0: e56f 4bbe 8a76 a0be b396 5bbf ddcd 58be
000000e0: 0f92 9abd 3552 97bc dcda 5cbe 08f7 0cbe
000000f0: 0bb5 a8be cecb 46be 3329 a0bd 5c95 22be
00000100: 6a63 0bbf 8132 5ebe c8df 0ebe 0121 f9bd
00000110: 06d0 d7bd 006f 83be 6366 85bb a50d 8abe
00000120: f640 20bd f3be a2be b1f7 a73d 7f94 1dbd
00000130: 4ac3 2bbe eabc 63be 8450 f5bd d230 2dbd
00000140: e590 e7bd dc00 1ebe ffe8 05be ca48 7ebc
00000150: e11c 463d 6fab 09be 23f3 2ebe ce3b babc
00000160: 56cd 81be 61f4 97be f0ac b0bd 7503 18be
00000170: af56 13be ee2c fdbd 6136 2abe d1cb afbe
00000180: 0b30 f8bd 1261 69bd a9f7 a7be 5b17 3cbe
00000190: 4aa1 10bf 5865 5fbe 45d7 1fbe cd13 1cbd
000001a0: 2179 f5bd 3a1a a1bd 0d9d 6ebe 482a 0fbe
000001b0: 20ac 60be dda2 14bf 5761 4cbe 9e16 ccbe
000001c0: a9ce 2f3e 9a31 3dbe c33a a2bd b3af 06bf
000001d0: b378 6ebe fcd6 4cbe 0473 5cbd 70cc f3bd
000001e0: ed29 0dbe e6be 1bbe bc21 87be 8c34 5dbd
000001f0: 70e2 edbd c562 80be c166 88be 688e 9ebe
00000200: 2f84 d7bc 27f2 c53b b2b7 56be ef4a 43be
00000210: fb08 a1bd e8b9 5dbe bb48 82be 9b56 1cbe
00000220: 4c22 c4bd a539 54be bacd 00be b7b6 b43d
00000230: 8905 3dbe 8bc3 51be 4303 f13d e3c0 9dbe
00000240: afd4 9cbe d811 443e fbc2 64be fa9c 1abe
00000250: 23e3 6cbd a7c1 6bbe 351b bfbe d793 49bc
00000260: 7f69 59be 78d6 b1be 5701 81bc dca0 03be
00000270: f883 74be 6954 bbbd 7647 a3be 2513 89be
00000280: 061e 893d e1a5 bbbd 84c9 e7bb 225d 2ebf
00000290: 8d93 a6be e8c5 b5be 382c 63be 2f5b 96be
000002a0: 9e1a b13b 3be5 a8bc 4985 02be 6f7c 18bf
000002b0: 3233 73be 28a6 81be 5d3c bd3d 73f6 43be
000002c0: 7df8 ccbd ba62 9ebe e5bd 36be a7c0 36be
000002d0: acbe 84be 5488 88be d647 5fbd db64 a1be
000002e0: 1f33 30bd 279e 8fbe 9fc5 27bd 1977 ce3d
000002f0: 1f8f 3abe a408 03bd 7128 92bd 6e5d b7bd
00000300: c5b4 9cbd 0ed1 75be 4b12 953c ffb0 2fbe
00000310: 625d 353e 6b20 8dbe 1e1a 4abe 7b0e 14be
00000320: 6cd8 8bbe a78d 99be ec71 c8bd f2e2 00be
00000330: 2473 3ebe 16ea 20bd 89bb 28be 5da7 acbe
00000340: fdf4 20bd 1c33 17bd 9dce 82be 2a76 0fbe
00000350: 7d02 7bbe 9771 04bf a29c e1bd 1597 d1bc
00000360: b312 67bd d77d 28bd 829a a5be 1503 0ebe
00000370: a268 b1be 9aaf 293b a3da 7ebe 11b7 82be
00000380: 6ebd ca3c d11e 27bd a794 693d 7e41 2dbd
00000390: 7e20 42be e7e0 2abd 8a4d bdbd 40fa 1d3f
000003a0: 58a7 d4bc b31b 93bd e22d 84bc 301e 8639
000003b0: 315c 48bd d073 72bd 39f4 f53d cb95 f5bc
000003c0: 766c 0b3c 862b 7c3e 94a5 34bd 5c53 8dbd
000003d0: e709 69bd e8ac b9bd d3c8 43bd c08c 50be
000003e0: 5b1e 313e f33a 8abd 0bc5 f4bd 8200 0d3d
000003f0: aa76 b2bd 97d5 7fbd 9fa2 663c b30e 06be

final.linears.1.bias f4 [112]
-0.20288184 -0.33017278 -0.021676313 -0.276582 -0.2226942 -0.16244267 -0.21947493 -0.22823407
-0.42303783 -0.24354278 -0.23430061 -0.16837934 -0.19116417 -0.24505986 -0.18352978 -0.038536802
-0.34210995 -0.01577309 0.0142672025 -0.021443129 -0.4019801 -0.27595934 -0.17108166 -0.14425847
-0.24978144 -0.6649168 0.19794989 -0.3075483 -0.333901 -0.06731313 -0.20829338 -0.13407953
-0.17204235 -0.24529058 -0.16137448 -0.10794331 -0.1346344 -0.20896673 0.042531624 -0.2259921
-0.078498945 -0.26455393 -0.39757958 -0.28567216 -0.14844902 -0.36002156 -0.23144218 -0.3134916
-0.10051336 -0.13239394 -0.0063820295 -0.27187952 -0.19660327 -0.030620476 -0.2864149 -0.14779966
-0.2322941 -0.17739533 -0.21163504 -0.20456435 -0.36241502 -0.108878605 -0.7871776 -0.007731643
-0.25455734 -0.24324133 -0.16013792 -0.29181406 -0.10684348 -0.23752765 -0.25766543 -0.3855663
-0.21317403 -0.22931 -0.0867839 -0.15737706 -0.25804514 -0.19195431 0.034995545 0.11269737
-0.12469025 0.009181768 -0.09728124 0.055341408 0.0054285624 -0.34016237 0.13138409 -0.5075942
-0.19256403 -0.18103194 -0.23901233 -0.11158334 -0.27702948 -0.14931919 -0.26996315 -0.4224053
-0.14502099 -0.1025683 -0.13135515 -0.053247463 -0.17674181 -0.029637467 -0.20109478 -0.088952415
0.03260674 0.027191665 -0.3211744 -0.09491574 -0.19294073 -0.041641545 -0.3457697 -0.37087566
00000000: 42c0 4fbe 680c a9be 8692 b1bc 289c 8dbe
00000010: f309 64be 5f57 26be 09be 60be 31b6 69be
00000020: 6a98 d8be 4763 79be 80ec 6fbe a26b 2cbe
00000030: 8ac0 43be f9f0 7abe 3bef 3bbe c4d8 1dbd
00000040: 0929 afbe 9136 81bc fcc0 693c 80a9 afbc
00000050: 56d0 cdbe 8b4a 8dbe 0830 2fbe 7eb8 13be
00000060: b5c6 7fbe fd37 2abf 60b3 4a3e f976 9dbe
00000070: 12f5 aabe 77db 89bd dc4a 55be 254c 09be
00000080: df2b 30be 742d 7bbe 5a3f 25be 6211 ddbd
00000090: 9add 09be 60fb 55be a435 2e3d 796a 67be
000000a0: 0ec4 a0bd 9d73 87be 8d8f cbbe 9f43 92be
000000b0: 0503 18be bf54 b8be 2eff 6cbe f981 a0be
000000c0: f3d9 cdbd 4792 07be 5820 d1bb cb33 8bbe
000000d0: 5e52 49be cbd7 fabc f9a4 92be cb58 17be
000000e0: 81de 6dbe 1fa7 35be dbb6 58be 5179 51be
000000f0: 768e b9be bffb debd 7984 49bf b959 fdbb
00000100: 5755 82be 4114 79be 32fb 23be a768 95be
00000110: c1d0 dabd 733a 73be b9ec 83be f268 c5be
00000120: 4b4a 5abe 3ed0 6abe c2bb b1bd 7427 21be
00000130: 7e1e 84be ac8f 44be 7d57 0f3d e1cd e63d
00000140: 9a5d ffbd 206f 163c 633b c7bd acad 623d
00000150: 15e2 b13b c329 aebe 8d89 063e b2f1 01bf
00000160: 812f 45be 7060 39be a6bf 74be ce85 e4bd
00000170: cfd6 8dbe 21e7 18be 9c38 8abe 8245 d8be
00000180: 6280 14be 540f d2bd f781 06be 031a 5abd
00000190: cefb 34be 46ca f2bc caeb 4dbe af2c b6bd
000001a0: a58e 053d 0ec1 de3c f970 a4be 2f63 c2bd
000001b0: 4192 45be 5390 2abd ba08 b1be 6ae3 bdbe

final.linears.2.weight f4 [24, 112]
0.3333577 0.22303407 -0.07985372 -0.34441417 0.06739097 -0.030435096 0.029168194 -0.11717252
0.078269675 -0.22176471 -0.00021321065 0.2415041 -0.1653318 0.23227067 -0.17801477 -0.05217562
0.15732633 0.18557881 0.21203896 0.061685316 -0.24291919 -0.20186456 -0.35230133 -0.12452567
0.03696393 0.023711765 -0.00013054523 0.23144807 0.31380194 -0.10308341 -0.39210126 0.16693836
-0.085710004 -0.17341827 -0.0017959174 -0.1822648 -0.014734976 0.31973332 0.007855349 0.034178782
-0.18929319 0.6463762 -0.12293403 -0.40257725 0.22866952 0.0012461913 -0.10353877 0.19894202
0.1551316 0.021930413 -0.03799229 0.40202382 -0.0031149345 0.017005378 -0.41117525 -0.17543988
-0.6036432 0.20353672 0.1905327 0.1975222 -0.30853796 0.30949804 -0.010886397 0.021254813
-0.15183567 0.36452052 0.0036519363 0.30374205 0.023513902 -0.11778079 0.16585773 -0.21769981
-0.24776502 -0.24712731 0.042660315 -0.0749647 0.14304028 -0.3382447 -0.28440535 -0.055575106
0.14356442 -0.007709566 0.0028690929 -0.018900756 0.10799929 0.37402305 -0.0068538184 0.01539068
-0.010788315 0.060702298 0.11716978 -0.0049723354 -0.23635158 -0.10168921 -0.079163276 0.00791384
-0.20828016 -0.0372428 0.6748627 -0.05874972 0.03389762 -0.20580997 0.09367645 -0.13088658
0.020509401 -0.10612452 -0.1543666 0.01717067 0.3113678 0.118848756 -0.07412304 -0.257131
0.3967894 0.14132568 -0.15591973 -0.255043 -0.14877859 0.12536387 0.1873891 -0.39155576
-0.0077456576 -0.38258922 -0.002403572 -0.14271922 -0.26867035 0.0032326751 0.16125229 -0.11641633
-0.3293809 0.31009564 -0.04881109 0.08368868 0.14822027 -0.4462343 -0.0007543212 1.948762e-05
-0.24676245 0.014479701 0.0037947204 0.06429377 -0.4119002 -0.1033546 0.09156726 -0.029019818
0.028071636 -0.19816896 0.0077097076 0.034511026 -0.06767021 -0.43901148 -0.00023669277 -0.08763638
0.19503203 -0.47082257 -0.17314367 0.4425988 0.05583043 -0.006807538 -0.037341002 0.43148682
0.05418035 -0.062344976 0.20825414 -0.26812854 -0.01786788 0.009536061 -0.060161818 0.41993618
-0.013921964 0.07707714 0.09553373 -0.081207246 0.2981961 -0.09433478 0.03502099 0.15376845
0.020056983 0.26184177 -0.020335922 0.35225585 0.044331305 -0.118547335 -0.49999663 -0.29645267
-0.048981015 0.24113268 0.034985565 0.39954057 0.5314046 0.2619734 0.015005752 -0.014379436
-0.1598994 0.0133330785 0.17298216 -0.11323462 0.104352884 0.29696712 0.0033599953 -0.004020898
-0.16018228 -0.23316763 0.1950265 -0.33526716 -0.47236764 0.29488048 -0.05242164 0.029613167
0.14283188 -0.048749465 0.36259282 -0.19933783 0.16344555 -0.058944184 -0.057906184 0.1319287
0.0032635494 0.055459768 0.015615714 -0.026727239 0.0026868964 -0.09667042 0.13185681 0.09742646
-0.005987613 0.061871417 0.015452751 -0.1623905 0.025504362 -0.08733489 0.01420194 -0.020047221
0.26248303 -0.074165866 0.13887472 -0.01853943 0.06186281 0.1018965 0.052157298 0.002228687
0.2996333 -0.07427902 -0.082183786 -0.10367154 0.21472456 -0.39579287 -0.0729913 -0.13868508
-0.022544233 0.47404724 1.6503958 0.026481787 -0.0682107 -0.029553767 -0.20182098 -0.0050681345
00000000: dcad aa3e 0b63 643e 598a a3bd 0e57 b0be
00000010: 4704 8a3d 0653 f9bc 23f2 ee3c 25f8 efbd
00000020: da4b a03d 4a16 63be 4c91 5fb9 da4c 773e
00000030: bd4c 29be 5dd8 6d3e 8149 36be 1ab6 55bd
00000040: 271a 213e 5f08 3e3e be20 593e bea9 7c3d
00000050: cfbf 78be 95b5 4ebe d760 b4be 5107 ffbd
00000060: 7d67 173d 2d3f c23c f8e2 08b9 b900 6d3e
00000070: a6aa a03e 651d d3bd 7fc1 c8be e4f1 2a3e
00000080: ba88 afbd 8f94 31be fd64 ebba a0a3 3abe
00000090: f86a 71bc 16b4 a33e b9b3 003c 0dff 0b3d
000000a0: 13d6 41be e978 253f d6c4 fbbd 9b1e cebe
000000b0: 5828 6a3e 3e57 a33a 220c d4bd 75b7 4b3e
000000c0: d1da 1e3e 69a7 b33c ce9d 1bbd 11d6 cd3e
000000d0: ee23 4cbb dd4e 8b3c 9085 d2be 83a6 33be
000000e0: 5c88 1abf ee6b 503e 011b 433e 4243 4a3e
000000f0: b0f8 9dbe 8776 9e3e dc5c 32bc 931e ae3c
00000100: cf7a 1bbe 6fa2 ba3e 5355 6f3b 1484 9b3e
00000110: 3aa0 c03c 0e37 f1bd 9cd6 293e b3ec 5ebe
00000120: 1db6 7dbe f10e 7dbe 95bc 2e3d 1887 99bd
00000130: 2779 123e 692e adbe 949d 91be b9a2 63bd
00000140: 8d02 133e 87a0 fcbb 6407 3c3b c2d5 9abc
00000150: bb2e dd3d f37f bf3e ff95 e0bb 3129 7c3c
00000160: 79c1 30bc f9a2 783d b6f6 ef3d f9ee a2bb
00000170: 2606 72be 6f42 d0bd 5b20 a2bd 0da9 013c
00000180: 6547 55be e88b 18bd cdc3 2c3f 8ca3 70bd
00000190: 3bd8 0a3d d9bf 52be 70d9 bf3d 2207 06be
000001a0: 5503 a83c d057 d9bd 4712 1ebe 81a9 8c3c
000001b0: 9a6b 9f3e fa66 f33d d2cd 97bd ada6 83be
000001c0: fb27 cb3e aeb7 103e 6ca9 1fbe ff94 82be
000001d0: 6a59 18be 635f 003e eee2 3f3e ff79 c8be
000001e0: 49cf fdbb bce2 c3be 3f85 1dbb fd24 12be
000001f0: 298f 89be 4adb 533b 521f 253e af6b eebd
00000200: 9da4 a8be dbc4 9e3e 23ee 47bd f864 ab3d
00000210: 0ec7 173e d278 e4be a4bd 45ba 5879 a337
00000220: 4caf 7cbe 453c 6d3c d8b0 783b 74ac 833d
00000230: 95e4 d2be 94ab d3bd 9e87 bb3d f8ba edbc
00000240: 7df6 e53c ceec 4abe b7a1 fc3b 6f5b 0d3d
00000250: ae96 8abd 1dc6 e0be bb30 78b9 b47a b3bd
00000260: 7ab6 473e a80f f1be 934c 31be 4f9c e23e
00000270: 73ae 643d c511 dfbb e1f2 18bd d7eb dc3e
00000280: 37ec 5d3d 725d 7fbd 9340 553e 2548 89be
00000290: a95f 92bc 243d 1c3c 3d6c 76bd e001 d73e
000002a0: f318 64bc 9fda 9d3d 30a7 c33d fc4f a6bd
000002b0: 29ad 983e 9832 c1bd 2b72 0f3d 7a75 1d3e
000002c0: 8b4e a43c 2010 863e 8597 a6bc e15a b43e
000002d0: be94 353d f2c8 f2bd 8fff ffbe a5c8 97be
000002e0: 51a0 48bd 7ceb 763e 064d 0f3d 9590 cc3e
000002f0: 220a 083f 6121 863e b0da 753c ba97 6bbc
00000300: abbc 23be fc72 5a3c 3c22 313e 8de7 e7bd
00000310: f7b6 d53d 130c 983e 5e33 5c3b bdc1 83bb
00000320: d306 24be 7fc3 6ebe 07b5 473e 23a8 abbe
00000330: 2cda f1be 93fa 963e 13b8 56bd 5097 f23c
00000340: 8542 123e 85ad 47bd c4a5 b93e 371f 4cbe
00000350: 455e 273e 756f 71bd 092f 6dbd 5118 073e
00000360: 46e1 553b c829 633d 0dd9 7f3c 15f3 dabc
00000370: a416 303b 24fb c5bd 7905 073e 8687 c73d
00000380: bd33 c4bb e26c 7d3d 892d 7d3c b249 26be
00000390: 86ee d03c a3dc b2bd 41af 683c 123a a4bc
000003a0: 2d64 863e 46e4 97bd 2d35 0e3e 01e0 97bc
000003b0: dc63 7d3d 1daf d03d e4a2 553d 2a0f 123b
000003c0: 8969 993e 991f 98bd f94f a8bd bf51 d4bd
000003d0: c1e0 5b3e 5da5 cabe 767c 95bd 7603 0ebe
000003e0: afae b8bc 52b6 f23e 2b40 d33f 55f0 d83c
000003f0: 0db2 8bbd be1a f2bc 29aa 4ebe 9812 a6bb

final.linears.2.bias f4 [24]
0.062032435 0.036998417 -0.038823847 -0.037763137 -0.008306736 -0.027105907 0.040159564 -0.053318527
-0.039904315 0.0053954315 0.066994384 -0.018927874 0.0027001314 -0.0031729979 -0.0688532 0.019233279
-0.041774053 -0.055935938 -0.032324128 -0.011384785 -0.0632446 -0.071065955 0.019792758 -0.035313703
00000000: b915 7e3d a78b 173d c105 1fbd 85ad 1abd
00000010: fa18 08bc 350d debc 5b7e 243d 8764 5abd
00000020: b572 23bd 29cc b03b 5a34 893d a10e 9bbc
00000030: b0f4 303b 12f2 4fbb e802 8dbd 1c8f 9d3c
00000040: 451b 2bbd 151d 65bd 4e66 04bd 4087 3abc
00000050: 6386 81bd 078b 91bd 6c24 a23c 1aa5 10bd

layers.0.attn.0.gnn_q.weight f4 [24, 16]
-2.3246735e-17 6.873402e-14 -8.393831e-11 -2.2145085e-12 -1.4876412e-05 -1.9738924e-07 2.9823362e-12 9.860482e-09
-1.7984627e-29 9.52799e-10 -5.5128153e-14 2.2226998e-06 2.1004332e-10 7.1873e-10 6.681388e-06 -1.5622463e-05
3.2848166e-17 4.890813e-14 -2.67386e-12 -8.931664e-14 -3.7668326e-06 -3.181202e-08 1.2871364e-13 1.281934e-09
-2.1200358e-28 1.4909088e-11 -3.460521e-15 3.5677982e-07 7.260833e-12 1.5739864e-11 1.104243e-06 -3.610189e-06
-9.517943e-17 1.0210752e-12 -1.0787323e-10 -3.417477e-12 -5.973699e-05 -3.7253983e-07 3.4051048e-12 2.006675e-08
9.671663e-28 1.3594688e-09 -7.6386936e-14 3.5736803e-06 2.5734423e-10 9.2456826e-10 3.6885947e-05 -7.340756e-05
-9.932971e-17 -1.3146037e-13 -1.0385113e-11 -2.6457252e-13 4.9549194e-06 1.507359e-08 4.7363437e-13 -4.5256104e-10
6.0938127e-29 1.0753877e-10 -1.0240596e-14 -2.2846773e-07 2.920105e-11 8.611183e-11 -1.3928053e-06 4.608868e-06
9.993029e-17 2.0339031e-13 -2.0574311e-11 -9.414685e-13 1.0714042e-06 -4.2924786e-08 9.0445685e-13 3.7778376e-09
-1.5581396e-28 3.6961306e-10 -1.785203e-14 -2.0086915e-07 6.5469366e-11 1.5328183e-10 -6.4405305e-07 1.6714778e-06
-6.488815e-18 -8.0260546e-14 6.9704537e-12 3.6481929e-13 -3.4608233e-06 1.50741e-08 -2.5927497e-13 -9.85247e-10
4.622591e-29 -1.3701289e-10 1.1723578e-14 6.6275936e-07 -1.0562764e-11 -5.9754125e-11 1.0669528e-06 -3.2173502e-06
1.0353236e-17 -3.7187226e-14 3.353329e-12 9.824906e-14 4.085869e-07 2.3589601e-09 -1.1708191e-14 1.02310216e-10
-1.6704761e-29 -9.591723e-12 1.2209251e-15 -4.7627648e-08 -7.513851e-12 -1.4388959e-11 -1.3147915e-07 3.310895e-07
4.8672217e-19 -4.5304018e-14 3.6276614e-11 9.113491e-13 3.5847913e-06 6.5083256e-08 -1.2831951e-12 -3.55288e-09
-1.7821239e-28 -5.1908994e-10 2.4768834e-14 -4.4047152e-07 -8.481558e-11 -2.7901162e-10 -1.5753324e-06 3.4879583e-06
-1.1619642e-16 -1.4333036e-13 -2.4744335e-11 -5.9279524e-13 -4.859462e-06 -4.7479414e-08 9.267951e-13 1.3846967e-09
2.598188e-28 3.5139588e-10 -1.20212695e-14 7.7831874e-07 6.0394925e-11 2.2926011e-10 1.931238e-06 -4.989826e-06
-8.022418e-17 -5.737558e-14 -1.1241149e-11 -3.6000825e-13 -1.0883632e-06 -1.718715e-08 5.353286e-13 6.178877e-10
-5.143103e-29 2.0399622e-10 -8.751824e-15 1.5499329e-07 2.9013887e-11 1.7975789e-10 4.1390496e-07 -9.223661e-07
1.2619272e-17 3.958376e-14 2.5836863e-14 6.89696e-14 2.0848604e-06 1.2525971e-09 1.4760502e-13 5.2841076e-10
2.5668638e-28 -3.616614e-11 -6.716613e-15 -4.0463198e-07 9.199711e-12 -2.3248216e-11 -7.5242144e-07 1.938096e-06
-8.376892e-18 9.675694e-14 -8.065391e-11 -2.1919513e-12 -1.550327e-05 -1.8459563e-07 3.2676815e-12 1.0665649e-08
3.3221283e-28 1.1360419e-09 -6.116751e-14 2.1326316e-06 2.2309325e-10 7.4475043e-10 6.0857933e-06 -1.5360634e-05
1.3296305e-17 6.914071e-14 -2.6320272e-11 -5.380114e-13 -7.0903734e-06 -6.671934e-08 7.96034e-13 2.97685e-09
-1.0940754e-28 2.471017e-10 -1.0962037e-14 1.1040293e-06 6.356631e-11 2.2103733e-10 2.9780495e-06 -7.2587645e-06
-1.3602118e-16 -1.3777004e-13 -4.1879132e-11 -1.3793695e-12 -7.2360267e-06 -1.0320215e-07 2.098977e-12 5.395618e-09
7.315974e-28 7.800881e-10 -4.3797133e-14 1.1297674e-06 1.129622e-10 4.2405177e-10 3.2639168e-06 -7.9409165e-06
-2.4222334e-18 9.1257134e-14 -2.658525e-11 -5.033309e-13 -2.6685912e-06 -5.0965838e-08 5.9459756e-13 2.7735136e-09
5.199853e-29 3.194052e-10 -1.7848133e-14 3.5209598e-07 5.2000144e-11 1.889294e-10 1.4743183e-06 -3.2106334e-06
-7.870754e-17 -1.1335653e-13 -3.740314e-11 -9.942371e-13 -6.505398e-06 -7.5829156e-08 1.3983529e-12 2.7362559e-09
3.9034505e-28 3.4979858e-10 -2.4838965e-14 1.354861e-06 9.645802e-11 3.5593317e-10 3.060779e-06 -7.132375e-06
00000000: cd69 d6a3 77c6 9a29 1195 b8ae 0ad5 1bac
00000010: b495 79b7 f1f1 53b4 fedc 512c dc66 2932
00000020: c362 b68f a2f3 8230 6f46 78a9 b129 1536
00000030: f0f1 662f 2190 4530 b030 e036 fc0c 83b7
00000040: 457c 1724 3c43 5c29 fb27 3cac 8a1f c9a9
00000050: b1c9 7cb6 b0a1 08b3 2eeb 102a 0b30 b030
00000060: 8c5f 8691 4824 832d 585b 79a7 728b bf34
00000070: c577 ff2c 0673 8a2d 8035 9435 9346 72b6
00000080: 0578 dba4 1cb4 8f2b 3b37 edae cb7b 70ac
00000090: 1b8e 7ab8 7c01 c8b4 ea9c 6f2c 405f ac32
000000a0: ed40 9912 0ed8 ba30 1202 aca9 5cd3 6f36
000000b0: fb79 8d2f b524 7e30 fcb5 1a38 62f2 99b8
000000c0: e909 e5a4 df02 14aa 64b2 36ad ebf0 94aa
000000d0: 6f42 a636 2d7b 8132 f450 052b 4ecc f8af
000000e0: 1b7f 9a10 f27a ec2e 6a7a 38a8 bb50 75b4
000000f0: 766d 002e a75c bd2e 6df0 bab5 e0a5 9a36
00000100: 6e6c e624 44ff 642a 3bf9 b4ad fa7f 84ab
00000110: 2bcd 8f35 4d5c 38b3 fc94 7e2b 36ce 8131
00000120: 8584 4591 6a32 cb2f fbcb a0a8 7eae 57b4
00000130: faf7 8f2e 0089 282f fde2 2cb5 8a57 e035
00000140: 2065 efa2 0ebb b4a9 4440 f52c 0060 cd2a
00000150: 7e40 68b6 4c7c 8132 76f5 91aa 4c69 87b0
00000160: a964 6a10 b3a5 16af 7631 5328 7ae8 3135
00000170: 76d2 39ad 9566 83ae 3834 8f35 a8e9 57b6
00000180: c6fb 3e23 f479 27a9 34f8 6b2c ba3c dd29
00000190: c25b db34 441b 2231 80ea 52a8 88fb e02e
000001a0: 0a68 a98f 48bd 28ad 30f4 af26 278f 4cb3
000001b0: 602f 04ad 1c22 7dad b72c 0db4 98c0 b134
000001c0: b0a7 0f21 fa07 4ca9 d68b 1f2e d042 802b
000001d0: 3f92 7036 e6c3 8b33 fa97 b4ab ed26 74b1
000001e0: 3ae9 6191 b5af 0eb0 0b19 df28 f279 ecb4
000001f0: ed82 baae 6563 99af 0270 d3b5 ab12 6a36
00000200: 21f7 05a5 2a60 21aa 4aa7 d9ad 66db 26ab
00000210: 760e a3b6 2bec 4bb3 506f 822b af4f be30
00000220: 03ae a411 932e c12f 528e 58a8 a8ed 5035
00000230: 52cf 842e fc12 7c2f 6b9a 0136 476e a7b6
00000240: fffb b8a4 c532 81a9 a2c1 45ad a8aa caaa
00000250: e013 92b5 f1a2 93b2 7eae 162b fbd7 2930
00000260: a664 8290 d54b 602f aaa8 1da8 3b6c 2634
00000270: 7735 ff2d 59a5 452f aa36 de34 8498 77b5
00000280: d4c8 6823 f844 3229 c0b7 e828 444e 9b29
00000290: a1e9 0b36 d827 ac30 4030 262a 9a3f 1130
000002a0: bfb1 a211 740f 1fae d2fd f1a7 323c d9b4
000002b0: d1d7 212d 547e ccad 02fa 49b5 3c10 0236
000002c0: c186 1aa3 94e0 d929 1d5c b1ae af3e 1aac
000002d0: 050d 82b7 4335 46b4 51f1 652c 053c 3732
000002e0: 9d90 d211 ec22 9c30 abbc 89a9 551e 0f36
000002f0: 2b4b 752f 27b7 4c30 9134 cc36 b6da 80b7
00000300: 0646 7523 e8b0 9b29 fc83 e7ad cf6f 17ab
00000310: d8e9 edb6 5847 8fb3 4b10 602b 4d91 4c31
00000320: c7b0 0a91 79d8 872f 7979 45a8 282e 9435
00000330: a7c8 8b2e 7a08 732f 80da 4736 5090 f3b6
00000340: 5ed2 1ca5 831d 1baa b62f 38ae 0621 c2ab
00000350: ffcc f2b6 fb9f ddb3 cfb3 132c 5c64 b931
00000360: 3cda 6712 d26d 5630 a83e 45a9 83a2 9735
00000370: 1168 f82e fb1f e92f aa09 5b36 fa39 05b7
00000380: b2ba 32a2 287e cd29 a9d8 e9ad d0ac 0dab
00000390: 0c16 33b6 88e5 5ab3 455d 272b 2b98 3e31
000003a0: fad4 8310 4998 af2f fec2 a0a8 b407 bd34
000003b0: f5b2 642e e6ba 4f2f 31e1 c535 4376 57b6
000003c0: bb7c b5a4 9741 ffa9 3180 24ae 2bed 8bab
000003d0: f148 dab6 85d7 a2b3 f9cc c42b b908 3c31
000003e0: 1b69 f711 c64d c02f c1ba dfa8 abd8 b535
000003f0: 0a1d d42e 24ad c32f c867 4d36 a252 efb6

layers.0.attn.0.gnn_q.bias f4 [16]
3.7182293e-14 1.0512773e-10 2.636662e-10 1.5823086e-11 -0.0007436086 -9.221296e-06 -1.0636039e-10 1.0230789e-06
-6.724156e-27 9.8034265e-09 4.2993485e-14 -3.5068573e-05 -7.558473e-11 -1.9398584e-08 0.0002568518 -0.0007169396
00000000: 4474 2729 a72d e72e b8f3 902f 6c2e 8b2d
00000010: baee 42ba 2ab5 1ab7 94e3 e9ae b950 8935
00000020: 862f 0594 ed6b 2832 1da0 4129 9816 13b8
00000030: 6c36 a6ae f0a1 a6b2 11aa 8639 01f1 3bba
