checkpoints/cyp1a2_veith_40_train1_neg/Sep06-05:08:19_400.pth (torch, 471814 bytes, 294 tensors)

layers.0.weight f4 [24, 16]
0	0x3f61e166	0.88234556
1	0x3f88d762	1.069073
2	0x3eb4c702	0.3530808
3	0x3c8bd53b	0.01706945
4	0x3f42e18a	0.76125395
5	0x3f19d20c	0.6008613
6	0xbf249d54	-0.64302564
7	0x3e1ff268	0.15619814
8	0x3eb01e10	0.34397936
9	0xbf9b2b53	-1.2122597
10	0x3f86a1e7	1.0518159
11	0x3f317de0	0.69332695
12	0x3e206161	0.15662147
13	0x3f8d9dc4	1.1063771
14	0x3f393d97	0.72359604
15	0xbf357184	-0.70876336
16	0x3f2bb637	0.6707491
17	0x3e790c64	0.24321133
18	0xbf05c3aa	-0.52251685
19	0xbe2bafa6	-0.16766223
20	0xbf2e98cd	-0.68201905
21	0x3f23b081	0.639412
22	0xbf86a470	-1.0518932
23	0xbe43d9b0	-0.1912601
24	0xbf0685d9	-0.52547985
25	0xbf6892a5	-0.9084876
26	0x3e71e925	0.23624094
27	0xbf5ef7cf	-0.87096876
28	0xbe302549	-0.17201723
29	0xbf84eb1d	-1.0384251
30	0x3f3f161d	0.7464312
31	0xbf8ba006	-1.090821
32	0x3df25ae3	0.118337415
33	0x3d65cd5a	0.05610404
34	0x3d1db8b1	0.038506214
35	0x3e99159a	0.29899293
36	0xbda9504e	-0.0826727
37	0x3dcf8908	0.101335585
38	0x3c2bc641	0.010484279
39	0x3d631522	0.055440076
40	0x3cfb6b62	0.030690853
41	0xbe4c98f1	-0.19980218
42	0x3d3d531a	0.04622183
43	0x3da19c36	0.07891123
44	0xbd7f90e0	-0.062394023
45	0xbe0a5e6e	-0.13512585
46	0x3e041838	0.12899864
47	0xbd46e084	-0.04855396
48	0x3e0f4168	0.13989794
49	0x3d6effe9	0.058349524
50	0x3d6a7767	0.057242777
51	0x3e94e467	0.29080507
52	0xbdc915d2	-0.09818615
53	0x3dc2288b	0.09480389
54	0xbafc5dd2	-0.0019254035
55	0x3cc3da1f	0.02390772
56	0x3cdc351e	0.026880797
57	0xbe516785	-0.20449646
58	0x3d398df4	0.045301393
59	0x3e153ff2	0.14575174
60	0xbcfc270f	-0.030780343
61	0xbe1c68b4	-0.15274316
62	0x3dcd08d3	0.10011449
63	0xbd303927	-0.043023255
64	0x3df48dcd	0.11941109
65	0x3d722065	0.059112925
66	0x3d55b1b5	0.052171428
67	0x3e4a916c	0.19782037
68	0xbd9b61eb	-0.07587036
69	0x3d99e7e8	0.07514936
70	0x3a269350	0.0006354349
71	0x3d081925	0.033227105
72	0x3cdee6cf	0.027209667
73	0xbe366277	-0.17810999
74	0x3d23609b	0.039887052
75	0x3daf5079	0.08560271
76	0xbcaea277	-0.021317704
77	0xbdda738f	-0.10666572
78	0x3dc922bc	0.09821078
79	0xbd01f445	-0.031727094
80	0x3d7d8544	0.06189467
81	0x3d5fcd56	0.054639183
82	0x3d87200d	0.0659791
83	0xbc3ea0bb	-0.011635001
84	0xbd272bee	-0.04081338
85	0x3d89ce83	0.06728842
86	0x3c66f99b	0.0140975965
87	0xbba4c5d3	-0.0050284653
88	0x3dc52b82	0.09627439
89	0xbdea66d3	-0.114453934
90	0x3d2c090a	0.042000808
91	0xbdceff79	-0.10107321
92	0xbceb0037	-0.028686626
93	0xbdb51ad2	-0.08843006
94	0x3de9df07	0.11419492
95	0x3cb6955e	0.02228802
96	0x3f734e3f	0.9504127
97	0xbf58ed7c	-0.8473737
98	0xbd95fab1	-0.07323206
99	0xbe95e165	-0.29273525
100	0xbf82995f	-1.0203055
101	0x3f49f79f	0.78893465
102	0x3dcb60ce	0.099305734
103	0xbea1a623	-0.31572065
104	0xbd885b92	-0.06658091
105	0xbfa1a2bb	-1.2627786
106	0xbf5d3459	-0.86408
107	0xbfc74988	-1.5569315
108	0xbe9c63ff	-0.3054504
109	0xbfc39031	-1.5278379
110	0x3f730edc	0.9494455
111	0x3e1ec182	0.15503505
112	0xbd0f470c	-0.034979865
113	0xbf5906a6	-0.8477577
114	0xbe0ea72f	-0.13930963
115	0xbd00ea56	-0.03147348
116	0xbef67a0d	-0.48139992
117	0xbe9fa373	-0.3117939
118	0xbf87df48	-1.0615015
119	0xbdf5a2ed	-0.11993966
120	0xbdfb665f	-0.12275385
121	0x3b46311a	0.003024167
122	0xbf5a5815	-0.8529065
123	0xbee4a71c	-0.44658744
124	0xbdf74f1b	-0.12075635
125	0xbf2c3b3d	-0.6727789
126	0xbeba7043	-0.36413774
127	0xbf8e0404	-1.1094975
128	0x3f636b23	0.8883535
129	0xbe62204b	-0.22082631
130	0x3ed3e38a	0.41384536
131	0xbe51522f	-0.20441507
132	0xbe8af099	-0.27136686
133	0x3f521455	0.82062274
134	0xbe96607a	-0.2937048
135	0xbdf71dc2	-0.12066223
136	0x3eceb72e	0.4037413
137	0xbf9d70e1	-1.2300073
138	0xbe6a9abd	-0.2291059
139	0xbf4bb89c	-0.79578567
140	0xbe0d22b2	-0.13782766
141	0xbef5117d	-0.47864905
142	0x3f8260d8	1.0185804
143	0xbea132e2	-0.31484133
144	0x3e1996bc	0.14998907
145	0x3e1edc62	0.15513757
146	0x3da6ca7b	0.08144089
147	0x3c2166b5	0.009851147
148	0xbd2c6c51	-0.042095486
149	0x3dac54e6	0.084146306
150	0xbd4cd6ae	-0.050009422
151	0x3b712667	0.0036796571
152	0x3d9874e1	0.07444168
153	0xbe648d66	-0.22319564
154	0x3e0fd388	0.14045537
155	0xbc8d85d2	-0.017275725
156	0xbb7a79b9	-0.0038219525
157	0xbdbf166e	-0.0933045
158	0x3e01eb75	0.12687476
159	0xbda33f17	-0.07971018
160	0x3e82cf96	0.25549
161	0x3b29cc2e	0.0025909054
162	0x3b9ac744	0.0047234613
163	0xbd0f16bf	-0.0349338
164	0x3e4765fa	0.19472495
165	0x3ca9e9cb	0.020741364
166	0xbe541dda	-0.20714512
167	0xbbe5c03a	-0.0070114406
168	0x3d37cd3b	0.044873457
169	0xbeba3185	-0.36365905
170	0xbc59c228	-0.013290919
171	0xbdb1ad51	-0.086756356
172	0x3c55e292	0.013054507
173	0x3e836e2c	0.25669992
174	0x3d22adaa	0.0397164
175	0xbe7ea8cb	-0.24869077
176	0xbf66e0a5	-0.9018653
177	0x3d9393bf	0.07205915
178	0xbbcad0e3	-0.006189452
179	0xbc7fb812	-0.015607851
180	0xbe639d6e	-0.22228023
181	0x3f134121	0.57521254
182	0x3e693251	0.227731
183	0x397b66f0	0.00023975573
184	0xbc4b89be	-0.012422977
185	0x3f9e1bc3	1.2352222
186	0x3da4e57a	0.08051582
187	0x3ccdc5b9	0.025118696
188	0xbb553d13	-0.0032537624
189	0xbe9effda	-0.31054574
190	0x3f2fb755	0.6863912
191	0x3e7de57a	0.2479457
192	0x3d86fc83	0.065911315
193	0x3f1f3a1b	0.62198037
194	0xbf06e06a	-0.5268618
195	0x3da114cb	0.07865294
196	0xbee1c35c	-0.4409436
197	0xbf33a298	-0.70169973
198	0xbf369f9b	-0.7133729
199	0xbc9940d0	-0.018707663
200	0xbf0c6641	-0.5484353
201	0xbdf80af1	-0.12111462
202	0x3f240681	0.64072424
203	0x3d3eca41	0.046579603
204	0xbc83389e	-0.016018208
205	0xbf28a2a1	-0.6587315
206	0xbf4fa51c	-0.8111131
207	0xbf44b04f	-0.76831526
208	0x3b2743f9	0.0025522693
209	0x3ee8e68b	0.4548839
210	0x3e9c4fd6	0.3052966
211	0xbcda5f02	-0.026656631
212	0xbdeae0db	-0.11468669
213	0xbf0d505c	-0.55200744
214	0x3e94972a	0.2902158
215	0x3d46881b	0.048469644
216	0x3e977647	0.29582426
217	0x3c81e075	0.0158541
218	0x3eef9255	0.4679133
219	0x3e905e72	0.28197056
220	0x3d84014e	0.06445561
221	0xbe3e0af6	-0.18558869
222	0xbf2b99ab	-0.67031354
223	0x3e9d2d52	0.3069864
224	0xbf8c64d2	-1.0968268
225	0x3e795f1b	0.24352686
226	0x3d2b1444	0.041767374
227	0x3d18c3fb	0.037296277
228	0xbf24aea6	-0.6432899
229	0xbf46cc74	-0.7765572
230	0xbf7dd76e	-0.99156845
231	0x3d580521	0.052739266
232	0x3d606a27	0.054788735
233	0x3fbb93ce	1.4654481
234	0x3e81829d	0.25294963
235	0x3ef30b6f	0.4746966
236	0x3d3ad266	0.045610808
237	0xbf678204	-0.90432763
238	0xbf647db2	-0.89254296
239	0xbf8dceb0	-1.1078701
240	0xbeb4bab7	-0.35298702
241	0xbefe39bf	-0.49653432
242	0x3eb7966d	0.35856953
243	0xbdab71bd	-0.08371303
244	0xbe960b50	-0.29305506
245	0xbe62b0d3	-0.22137766
246	0xbfe82d47	-1.8138818
247	0x3cbb081f	0.02283102
248	0x3eb2f6c6	0.34953898
249	0x3f024e2d	0.50900537
250	0xbefa6cb7	-0.48911068
251	0x3e809764	0.25115502
252	0x3c7755cf	0.015096142
253	0xbed822a8	-0.4221394
254	0xbe86e3fc	-0.26345813
255	0xbff54bac	-1.9163718

layers.0.bias f4 [16]
0	0xbe71a259	-0.23597087
1	0x3e4859ee	0.19565555
2	0x3e588081	0.2114277
3	0xbe91d0b6	-0.28479546
4	0x3e3e92bb	0.1861066
5	0xbe8e4089	-0.2778361
6	0x3e87aa8c	0.26497304
7	0x3f2e8bdf	0.68182176
8	0xbe9fd724	-0.31218827
9	0xbe86b9f9	-0.2631376
10	0xbe8e63a6	-0.278104
11	0x3d63bdd1	0.055600945
12	0xbf13a189	-0.5766836
13	0xbebe4d37	-0.37168285
14	0x3e971387	0.29507086
15	0xbe943b45	-0.2895147

layers.1.weight f4 [16, 16]
0	0xbefd2227	-0.4944012
1	0x3db2c83f	0.087296
2	0xbcd986eb	-0.026553592
3	0x3eccf537	0.40030834
4	0xbe455277	-0.19269739
5	0xbdd77843	-0.10520985
6	0xbd237a52	-0.039911576
7	0xbe224088	-0.15844929
8	0x3ebafd16	0.36521214
9	0x3f2c2683	0.67246264
10	0x3d03afb7	0.032149997
11	0xbdaae7cf	-0.08344995
12	0xbe859c19	-0.26095656
13	0xbf7e364d	-0.99301606
14	0xbf113a30	-0.5672941
15	0xbd6dfe66	-0.05810394
16	0x3ddac61e	0.10682319
17	0xbe462afa	-0.19352332
18	0x3ebf437e	0.3735618
19	0x3ebf381f	0.37347504
20	0x3d0cec88	0.03440526
21	0xbf665521	-0.89973646
22	0x3d888abc	0.066670865
23	0x3e84d23b	0.25941643
24	0xbecca03e	-0.39966005
25	0x3f57004f	0.83984846
26	0xbf176746	-0.5914196
27	0x3e3d6c87	0.18498431
28	0x3b552e4a	0.003252881
29	0x3eba1bb9	0.36349276
30	0x3f176261	0.5913449
31	0xbd091230	-0.03346461
32	0x3cd3d913	0.025860345
33	0xbe32eebf	-0.17473887
34	0xbf2b5e6c	-0.6694095
35	0xbeedc707	-0.46440908
36	0x3bf581fb	0.0074923015
37	0xbe60359e	-0.21895453
38	0x3dbda3c3	0.09259751
39	0x3e57c34e	0.21070597
40	0x3da78388	0.081793845
41	0x3f069411	0.5256968
42	0xbf04e12a	-0.51906073
43	0x3e140110	0.1445353
44	0xbe51f28b	-0.20502679
45	0xbea3d753	-0.32000217
46	0x3e0ee988	0.13956273
47	0xbe0754db	-0.13215964
48	0xbe26a012	-0.16272
49	0x3da23a92	0.07921328
50	0x3c9c9916	0.019115966
51	0x3da95638	0.08268398
52	0x3a9c97ed	0.0011947133
53	0xbea655db	-0.32487378
54	0xbb2572e2	-0.0025245477
55	0x3db6de9d	0.08929179
56	0xbe0f3cf7	-0.139881
57	0x3ec2b16d	0.3802599
58	0xbedee19e	-0.43531507
59	0xbdf575ea	-0.11985381
60	0x3db6991c	0.08915922
61	0x3d875e23	0.06609752
62	0x3ec298a4	0.3800708
63	0x3e02b34f	0.12763713
64	0x3eebd405	0.46060196
65	0xbe2b22cf	-0.16712497
66	0xbed320e1	-0.41236022
67	0xbf6b8265	-0.9199584
68	0x3dc0cd1e	0.09414123
69	0xbf4b08f0	-0.7931051
70	0x3e7940e1	0.24341156
71	0x3e8e312a	0.27771884
72	0x3e2e9191	0.17047717
73	0x3ea7b627	0.3275616
74	0xbeced3f8	-0.40396094
75	0x3e1ebc55	0.1550153
76	0x3e46d727	0.19418012
77	0x3dd67b0d	0.10472689
78	0x3f8e308d	1.1108567
79	0xb7c60130	-2.3603992e-05
80	0xbece72b4	-0.40321887
81	0x3d115936	0.03548547
82	0xbf9a6607	-1.2062386
83	0xbf596b35	-0.8492921
84	0xbdf05493	-0.11734881
85	0x3f0d119f	0.5510501
86	0x3c9c4723	0.01907689
87	0xbe5387a3	-0.2065721
88	0x3f2f23aa	0.68413794
89	0xbe7079b8	-0.23483932
90	0xbde981a7	-0.11401682
91	0xbe07012c	-0.13184041
92	0xbd9e7b5e	-0.07738374
93	0xbf85aeb8	-1.0443945
94	0xbdf63fc8	-0.12023884
95	0xbd52d210	-0.051469862
96	0x3ef71c19	0.48263624
97	0xbd31c4e0	-0.043400645
98	0x3daa4fc7	0.083159976
99	0xbec54c0f	-0.3853459
100	0x3e717563	0.23579936
101	0xbf97b4c1	-1.1852037
102	0xbba46bc0	-0.0050177276
103	0x3e2d0339	0.1689576
104	0x3f61c044	0.88184
105	0x3f007dc4	0.50191903
106	0x3ea02062	0.31274706
107	0x3de2b5ef	0.11069857
108	0x3e4e7900	0.20163345
109	0xbe83feb4	-0.2578026
110	0x3e06ca65	0.13163145
111	0x3d6c28e1	0.057656173
112	0xbdd2f0e1	-0.1029985
113	0x3fbc1c8e	1.4696214
114	0xbf26d453	-0.6516773
115	0xbe0f4269	-0.13990177
116	0x3dea390e	0.114366636
117	0xbe0a99a5	-0.13535173
118	0xbf7113cc	-0.9417083
119	0x3f4473e2	0.76739323
120	0xbe9ea43a	-0.3098467
121	0x3f617d75	0.8808206
122	0xbf793e70	-0.973609
123	0xbf5bd1ea	-0.8586718
124	0xbea8638e	-0.32888454
125	0xbeb0b619	-0.3451393
126	0x3e97b988	0.29633737
127	0xbed0b9e2	-0.40766817
128	0xbdc147d4	-0.09437528
129	0x3dbb48a3	0.09144714
130	0xbf3391dc	-0.7014444
131	0xbf79ac92	-0.97528946
132	0xbd21a089	-0.03945974
133	0xbf06f866	-0.52722776
134	0x3dd5d76b	0.10441478
135	0xbe4f2cb9	-0.20231904
136	0x3f0a14c2	0.53937924
137	0x3e86a2b0	0.26295996
138	0xbe1efb9d	-0.1552567
139	0xbe294b6a	-0.16532674
140	0x3e9c340d	0.30508462
141	0xbe864461	-0.26224044
142	0x3f013710	0.50474644
143	0x3d72eeba	0.0593097
144	0xbeed86fc	-0.46392047
145	0x3babcf19	0.005243194
146	0xbea3cea4	-0.31993592
147	0x3dc704d1	0.097177155
148	0xbe8ae098	-0.27124476
149	0x3f538fa7	0.8264107
150	0x3db42202	0.08795549
151	0xbe15e26a	-0.14637151
152	0xbf6a5aaa	-0.9154459
153	0xbe687a3b	-0.22702877
154	0xbf1312fb	-0.57450837
155	0xbdb0cea4	-0.086331636
156	0xbe69d951	-0.22836806
157	0x3e5f3497	0.21797405
158	0x3ca4a47b	0.020097962
159	0xbdbecd0d	-0.09316454
160	0xbdf6d18e	-0.12051688
161	0x3cdec6b6	0.027194362
162	0x3f11e274	0.56986165
163	0x3f30a841	0.69006735
164	0xbe18e544	-0.14931208
165	0xbf0c7f54	-0.5488179
166	0x3d96a15f	0.07354998
167	0xbe79f02e	-0.24408028
168	0xbde82190	-0.113345265
169	0x3f2bfb27	0.67180103
170	0xbe948349	-0.29006413
171	0xbe42ea18	-0.19034612
172	0xbd281ed9	-0.041045044
173	0x3da28d7e	0.07937144
174	0x3e80184c	0.25018537
175	0x3dabc704	0.083875686
176	0x3de76ed8	0.11300439
177	0xbf038831	-0.51379687
178	0xbe79c51f	-0.24391602
179	0xbecc0da3	-0.39854154
180	0xbe2eaf2c	-0.1705901
181	0xbe8f7dbf	-0.28025624
182	0x3ec64222	0.3872233
183	0xbc16a6a0	-0.009195
184	0xbec097ac	-0.37615716
185	0x3d9ce849	0.076614924
186	0xbf3387ea	-0.70129263
187	0x3d21e4ae	0.039524727
188	0xbd4c18e0	-0.04982841
189	0x3ef7e115	0.4841391
190	0x3f848766	1.035382
191	0x3ceab038	0.02864848
192	0x3dfe5f18	0.124204814
193	0x3fc6a8e4	1.5520291
194	0xbe878072	-0.26465183
195	0xbf64ab76	-0.8932413
196	0x3ea96200	0.3308258
197	0xbf81ae92	-1.01314
198	0xbf81a8a0	-1.0129585
199	0x3f52869c	0.8223665
200	0x3ec92dc8	0.3929274
201	0x3ec7ee46	0.39048976
202	0xbee9f036	-0.4569108
203	0xbf597413	-0.8494274
204	0x3ee2af03	0.44274148
205	0x3e4f4858	0.2024244
206	0x3f920c56	1.1410015
207	0x3ea49cb3	0.32150802
208	0xbef19db7	-0.4719064
209	0xbe1696ab	-0.14705913
210	0xbf1e8050	-0.6191454
211	0xbe1e0c0a	-0.1543428
212	0xbe74f478	-0.23921382
213	0xbe83a948	-0.2571509
214	0x3e342afc	0.17594522
215	0xbe583db3	-0.21117286
216	0xbe3a6dfc	-0.18206018
217	0x3f4631a6	0.7741951
218	0xbf37e757	-0.7183737
219	0xbe433f2a	-0.19067064
220	0xbde95994	-0.11394039
221	0xbe22d0e3	-0.15899996
222	0x3d9856df	0.07438444
223	0xbe0665ba	-0.13124743
224	0x3ebfc4a4	0.37454712
225	0x3d692b33	0.056925964
226	0xbe6bd316	-0.23029742
227	0xbf32d8aa	-0.69861853
228	0x3e70d19a	0.23517457
229	0x3e51961a	0.20467415
230	0xbd2dcbb1	-0.042430583
231	0x3e39ec2b	0.18156497
232	0x3f48a99c	0.78383803
233	0xbf0feeee	-0.5622395
234	0x3ed72c09	0.42025784
235	0x3e2595ef	0.16170476
236	0x3e006d0b	0.12541597
237	0xbe942c15	-0.28939882
238	0xbe101c40	-0.14073277
239	0x3c37f642	0.011228146
240	0xbef60d79	-0.48057154
241	0x3ce86021	0.02836615
242	0xbd834e3f	-0.06411409
243	0x3ecd90b1	0.40149453
244	0xbe56c2fc	-0.20972818
245	0xbe4e85b2	-0.20168188
246	0xbd491535	-0.04909249
247	0xbe46b107	-0.19403468
248	0x3e8f5413	0.2799383
249	0x3f59ae44	0.85031533
250	0x3d5fd0fc	0.054642662
251	0xbe03b452	-0.12861755
252	0xbe127bb2	-0.14304999
253	0xbf43e6d0	-0.76524067
254	0xbef58498	-0.47952724
255	0xbdfe9ef2	-0.1243266

layers.1.bias f4 [16]
0	0xbe8f04c2	-0.27933317
1	0x3de7843a	0.11304517
2	0xbe03fc08	-0.12889111
3	0xbe0d79ef	-0.13816045
4	0xbeb87f57	-0.36034653
5	0xbc29dea0	-0.010368019
6	0x3ca8eda4	0.020621128
7	0xbf109a52	-0.56485474
8	0x3da2b251	0.079441674
9	0x3ca813c5	0.02051724
10	0xbdfc9a2b	-0.12334093
11	0xbeaa656b	-0.332805
12	0x3e712a81	0.2355137
13	0xbdd45b02	-0.10368921
14	0x3d71671d	0.058936227
15	0x3ea5a781	0.32354358

final.linears.0.weight f4 [112, 56]
0	0x3badb866	0.005301523
1	0xbc62bd22	-0.013839038
2	0x3faf4f35	1.3696047
3	0x3f7400ff	0.9531402
4	0xc04a6506	-3.162416
5	0x3e7e55cf	0.24837421
6	0xbb1bde2a	-0.0023783543
7	0x3cc7985e	0.024364647
8	0x3cb714ec	0.022348844
9	0x3ec191fd	0.37806693
10	0x3e4203d4	0.18946773
11	0xbcacf2cc	-0.021111868
12	0xbc836d91	-0.016043456
13	0x3c1d66f7	0.009607068
14	0x3c7abc6d	0.015303713
15	0x3bda9ae7	0.006671298
16	0x3c0d741c	0.00863364
17	0x3ce1bfcf	0.027557282
18	0xbaae8282	-0.0013314041
19	0xbc1afe0b	-0.009459983
20	0xba4cf7f8	-0.00078189326
21	0x3d76eca7	0.060284283
22	0xbbc0a142	-0.0058785984
23	0x3bae8d9e	0.0053269407
24	0x3b0e0eca	0.0021676295
25	0x3d777871	0.060417596
26	0x3e030180	0.12793541
27	0xbd7b50cd	-0.061356355
28	0xbd1736f3	-0.036917638
29	0xbbae7e12	-0.0053250873
30	0x3d07d1cf	0.033159073
31	0x3e81bbb4	0.2533852
32	0xbe0d1908	-0.1377908
33	0xbbe28171	-0.0069124033
34	0xbd952852	-0.07283081
35	0x3d054229	0.0325338
36	0xbe556eb1	-0.20843007
37	0x3c923e1c	0.017851882
38	0x3c28a03e	0.010292111
39	0xbcae01c0	-0.021241069
40	0x3de5c255	0.112187065
41	0x3d854dab	0.065089546
42	0xbdddc67b	-0.10828873
43	0x3ded09c6	0.1157413
44	0xbdff1971	-0.124560244
45	0x3deff0e3	0.11715867
46	0xba512c2c	-0.00079792994
47	0x38d7fde8	0.000102992926
48	0xbdb319cb	-0.08745154
49	0x3dd5f863	0.10447767
50	0xbd7bc28b	-0.061464828
51	0x3d427038	0.0474703
52	0xbd612725	-0.05496897
53	0xbde21d8c	-0.11040792
54	0xbd9753f3	-0.07389059
55	0xbd05bc55	-0.03265031
56	0xbe18e1bd	-0.14929862
57	0x3f716f8b	0.94310826
58	0x3d816e4f	0.06319868
59	0x3d28e714	0.041236
60	0x3d23352a	0.039845623
61	0x3c82f395	0.01598529
62	0xbf2178ce	-0.6307496
63	0xbeb9bb3f	-0.3627567
64	0x3f204aaa	0.6261393
65	0x3e295790	0.16537309
66	0x3eda99d8	0.42695498
67	0x3f222bfb	0.6334836
68	0xbee3b049	-0.44470432
69	0x3e7bda97	0.24595104
70	0xbeda6bd6	-0.42660397
71	0x3f62af20	0.8854847
72	0x3e243326	0.16035137
73	0xbedc29ca	-0.43000633
74	0x3f8e6c16	1.1126735
75	0x3c88def0	0.016707867
76	0x3e203941	0.1564684
77	0x3f1a481f	0.602663
78	0xbeaf78e6	-0.34271926
79	0x3d22c485	0.039738197
80	0x3e5d1966	0.2159172
81	0xbdf76465	-0.120796956
82	0x3a15e917	0.0005718632
83	0x3e796b20	0.24357271
84	0xbcd8dfd6	-0.02647392
85	0x3e5b33ad	0.21406431
86	0x3e2108d2	0.15726021
87	0xbde87b9e	-0.11351703
88	0x3e4eaca4	0.20183045
89	0xbda3f925	-0.08006505
90	0x3d47c7f8	0.04877469
91	0xbdaad194	-0.08340755
92	0xbc5c830e	-0.01345898
93	0x3e801d43	0.25022325
94	0x3d282450	0.041050255
95	0x3e97ca7d	0.29646674
96	0xbd1f3f41	-0.038878683
97	0xbe71860b	-0.2358629
98	0xbd923372	-0.07138719
99	0x3e4ad32d	0.1980712
100	0xbe82733f	-0.2547855
101	0x3e50e0c4	0.20398241
102	0x3da0707a	0.07833953
103	0xbd7ac4b9	-0.061222766
104	0xbe7b6029	-0.24548401
105	0xbcb3754b	-0.021906516
106	0xbcd0c26a	-0.025483329
107	0x3d5da7dc	0.05411516
108	0xbd4730d6	-0.048630558
109	0x3d60b0a7	0.05485597
110	0xbde34fe4	-0.11099222
111	0xbc1d56fd	-0.009603259
112	0xbdf04f66	-0.11733894
113	0x3df5bf1a	0.1199934
114	0xbd580f0b	-0.05274872
115	0xbdb3bea6	-0.08776598
116	0xbd769f25	-0.060210366
117	0xbd91bb5f	-0.07115816
118	0xbee1f6b8	-0.44133544
119	0xbce10ca1	-0.027471842
120	0x3dc1b622	0.09458567
121	0xbdd3c6e8	-0.10340673
122	0xbcfa4468	-0.030550197
123	0x3e0da2fb	0.13831703
124	0xbdb7b2af	-0.08969628
125	0xbe7c3e6f	-0.24633192
126	0xbd2d60ca	-0.042328633
127	0xbe651252	-0.2237027
128	0xbede162c	-0.4337629
129	0x3eb0da8e	0.34541744
130	0xbd97eb01	-0.0741787
131	0xbe343ddb	-0.17601721
132	0x3c80f232	0.015740488
133	0xbe2d5f49	-0.1693088
134	0xbe2aaeb2	-0.16668203
135	0x3e8ac77d	0.27105322
136	0xbd6b184d	-0.057396222
137	0x3cea740e	0.028619792
138	0x3db3fcd9	0.08788461
139	0x3aa36d0c	0.0012468412
140	0x3d70351f	0.05864441
141	0xbd624da7	-0.055249836
142	0x3d2f6ae3	0.042826544
143	0x3cb1906c	0.021675311
144	0xbd8f25ae	-0.06989609
145	0xbd942a30	-0.07234609
146	0xbdb91f59	-0.09039182
147	0x3c24f6a1	0.010068567
148	0x3b955bcc	0.004558062
149	0xbd055ec9	-0.032561097
150	0x3d9a8c5f	0.07546305
151	0xbd3aeaa9	-0.045633946
152	0x3d69a183	0.057038795
153	0xbb3f983f	-0.0029235033
154	0xbbf95c3b	-0.0076098717
155	0x3d332f87	0.043746497
156	0xbd305c56	-0.04305681
157	0x3d74f4d4	0.0598038
158	0xbbc95124	-0.006143706
159	0x3d72b30f	0.059252795
160	0xbd34e318	-0.044161886
161	0x3d8e15de	0.069377646
162	0xbd02b70a	-0.03191284
163	0x3c776398	0.015099429
164	0x3b20aa76	0.0024515665
165	0xbc73b7bb	-0.014875348
166	0xbd0f8061	-0.03503454
167	0x3d1e377e	0.03862714
168	0xbdefd814	-0.117111355
169	0xbf3c44d8	-0.7354255
170	0x3df460e8	0.11932546
171	0x3dea7fb9	0.114501424
172	0x3dfa42ce	0.12219773
173	0x3c01059e	0.007874874
174	0x3f04831b	0.5176255
175	0xbf590bd4	-0.84783673
176	0x3ef309d3	0.47468433
177	0x3e1e3cd6	0.15452895
178	0x3efaf94f	0.49018332
179	0x3f68bf2f	0.90916723
180	0x3f487d3b	0.78316087
181	0xbe8c7eed	-0.27440587
182	0xbf2ee9d2	-0.6832553
183	0xbf1ba2ab	-0.60795087
184	0xbf36959c	-0.71322036
185	0x3f377567	0.71663517
186	0x3f08e229	0.53470093
187	0xbf24f167	-0.6443085
188	0x3d36cd87	0.0446296
189	0x3e716889	0.23575033
190	0x3eed05cc	0.46293485
191	0xbfca2337	-1.5791997
192	0x3b838bf6	0.0040144874
193	0xbd8f2b41	-0.06990672
194	0xbde7f47b	-0.11325928
195	0x3d7ab165	0.061204333
196	0xbdb79492	-0.089638844
197	0x3dd4496f	0.10365569
198	0xbd07923f	-0.033098456
199	0xbdcba59f	-0.09943699
200	0x3e0113b5	0.12605174
201	0x3d05f65e	0.032705657
202	0x3ddbf4a6	0.10740022
203	0xbd1d7a83	-0.038446914
204	0x3dcc1e7e	0.099667534
205	0x3cd799fc	0.026318543
206	0xbd8e453b	-0.069467984
207	0x3d8a4f6a	0.06753428
208	0x3cdbd32f	0.026834099
209	0x3c98716c	0.018608771
210	0xbcdf5915	-0.027264157
211	0x3cb47d6a	0.022032458
212	0x3c89daca	0.01682796
213	0x3d95d571	0.07316101
214	0x3c9ae472	0.01890776
215	0x3d897e3c	0.067135304
216	0xbd8914d4	-0.06693426
217	0x3aa308f2	0.0012438579
218	0xbce8c9f5	-0.028416613
219	0x3d2462f1	0.04013342
220	0x3d7985fb	0.06091879
221	0xbc635598	-0.013875388
222	0xbc9f61e3	-0.019455856
223	0x3cefb4c7	0.029261006
224	0x3c98fd47	0.01867546
225	0xbaac488e	-0.0013144182
226	0x3f38365d	0.7195795
227	0xbdeec225	-0.11658124
228	0xbc7a5943	-0.015280071
229	0x3c902c47	0.017599238
230	0xbd375cda	-0.044766285
231	0x3de4a991	0.11165155
232	0x3c2d9e9a	0.010596896
233	0xbd6f94de	-0.05849158
234	0x3c860625	0.016360352
235	0xbe5c29ed	-0.21500368
236	0x3e65a58a	0.2242643
237	0x3dd049f8	0.101703584
238	0x3dda51f7	0.10660165
239	0xbd22ba11	-0.039728228
240	0x3dc6b8d3	0.09703221
241	0x3e85e812	0.26153618
242	0x3e446cd9	0.19182147
243	0x3db53765	0.08848456
244	0x3e94dfad	0.290769
245	0x3e590ec1	0.21197034
246	0x3e3ecf1f	0.18633698
247	0xbd96174b	-0.073286615
248	0xbe105319	-0.14094199
249	0x3e692261	0.22767021
250	0x3e6d7ab6	0.23191342
251	0xbe5587a4	-0.20852524
252	0x3dae6a99	0.08516426
253	0xbe2d1e9b	-0.16906206
254	0x3e1076bc	0.14107794
255	0x3ebc0d92	0.36729103

final.linears.0.bias f4 [112]
0	0xbe6597dd	-0.22421212
1	0x3e88d331	0.26723626
2	0xbe194152	-0.14966324
3	0x3d3b998c	0.04580073
4	0x3df1866c	0.11793217
5	0x3ea5922b	0.3233808
6	0xbed4aa27	-0.41536066
7	0x3e3332c0	0.17499828
8	0xbe4cc12f	-0.19995569
9	0x3e328f63	0.1743751
10	0x3e0c92f3	0.13727932
11	0xbe3c9090	-0.18414521
12	0x3e1436e8	0.1447407
13	0x3dadb3b7	0.084815435
14	0x3d84d207	0.06485372
15	0x3ecde277	0.4021184
16	0x3e73551c	0.23762935
17	0xbdd9600c	-0.106140226
18	0x3e72dfe6	0.23718223
19	0xbc23a6d8	-0.009988509
20	0x3e5ed992	0.21762684
21	0x3ec94bfd	0.39315787
22	0x3e8df2a2	0.27724177
23	0x3eaf73bd	0.3426799
24	0x3e738079	0.23779477
25	0x3ead903a	0.338991
26	0xbc6cac07	-0.014445311
27	0xbf3aa06d	-0.7290104
28	0x3eab6d94	0.3348204
29	0xbbfefa98	-0.007781338
30	0xbe83ac87	-0.25717565
31	0x3e3b6d61	0.18303443
32	0x3d94f83c	0.072739094
33	0xbf145d5f	-0.57954973
34	0x3e3c774c	0.18404883
35	0x3ded5221	0.115879305
36	0x3dc9ceb6	0.0985388
37	0xbe64d8a2	-0.22348264
38	0x3e48fc9b	0.19627611
39	0xbe22c702	-0.15896228
40	0x3efb412e	0.49073166
41	0x3e820620	0.25395298
42	0xbd8b0c3c	-0.06789443
43	0xbd330278	-0.043703526
44	0x3e2367c5	0.15957554
45	0xbca14a7a	-0.019688834
46	0x3eb5b946	0.35492915
47	0x3eca673b	0.39531884
48	0xbf78d566	-0.9720062
49	0x3dcfcfce	0.101470575
50	0xbd88a425	-0.06671933
51	0x3e834aba	0.2564295
52	0x3f4ba334	0.79545903
53	0x3e7d3d22	0.24730352
54	0x3e8217af	0.25408694
55	0xbe87f2dc	-0.26552474
56	0xbe13b57d	-0.14424701
57	0xbe081be8	-0.13291895
58	0x3e780f4a	0.24224582
59	0xbd5c98a9	-0.053856526
60	0x3ea4c997	0.3218505
61	0x3d433e1b	0.04766665
62	0xbde03a10	-0.109485745
63	0x3e29e575	0.16591437
64	0xbda45ebd	-0.080258824
65	0x3bddb5ce	0.0067660576
66	0x3db84e00	0.08999252
67	0x3c23c19d	0.0099948915
68	0x3e778a82	0.2417393
69	0x3e66fd97	0.22557674
70	0xbe1099e7	-0.14121209
71	0x3de8d323	0.11368396
72	0xbe1c31df	-0.152534
73	0x3c8175d9	0.015803264
74	0xbe9b8135	-0.30372015
75	0xbcbd535c	-0.023111038
76	0xbd879e5b	-0.06622001
77	0x3e0801aa	0.13281885
78	0xbe7d1de0	-0.24718428
79	0xbe99871c	-0.29985893
80	0x3e5943a2	0.21217206
81	0x3da22eba	0.07919069
82	0x3e80fa4b	0.25190958
83	0x3e3e7014	0.18597442
84	0xbe0d2968	-0.13785326
85	0x3c21d176	0.0098766
86	0x3de0765e	0.10960077
87	0x3db00104	0.08593944
88	0xbd2c791e	-0.042107694
89	0xbe14f1b3	-0.14545326
90	0x3e7d9fae	0.24767944
91	0xbd96c2e0	-0.07361388
92	0x3db51171	0.08841217
93	0xbe283ed7	-0.16430221
94	0x3e437042	0.19085792
95	0x3e44b11e	0.1920819
96	0x3e18286d	0.14859171
97	0xbe5685f1	-0.20949532
98	0x3e1d93c7	0.15388404
99	0x3e8a1a2c	0.26973093
100	0x3ddde0bb	0.108338796
101	0x3e6d3887	0.23166095
102	0xbd00dc50	-0.031460106
103	0xbe81d40c	-0.2535709
104	0xbd8badc5	-0.06820253
105	0xbedb54c8	-0.4283812
106	0x3ed6e180	0.41968918
107	0x3e2e852b	0.17042987
108	0x3e9847e9	0.29742363
109	0x3ccf6081	0.025314571
110	0xbd9bca5f	-0.076069586
111	0x3dc480c2	0.09594871

final.linears.1.weight f4 [112, 112]
0	0x3cd8b731	0.02645454
1	0xbe70c69b	-0.23513262
2	0xbd6a6d04	-0.05723287
3	0xbeb1b28a	-0.34706527
4	0xbe5bfcfc	-0.21483225
5	0xbe755a4a	-0.23960224
6	0xbe123351	-0.14277388
7	0xbdd6192a	-0.104540184
8	0xbe32300a	-0.17401138
9	0xbea83691	-0.3285413
10	0xbe692063	-0.22766261
11	0xbd3602fc	-0.04443644
12	0xbe5c90e5	-0.21539648
13	0xbe9df0fb	-0.30847916
14	0xbd982063	-0.07428052
15	0xbe5eb21d	-0.21747632
16	0x3bc7170a	0.0060757445
17	0x3a540de6	0.0008089229
18	0xbd31a046	-0.04336574
19	0xbcf07ddf	-0.029356895
20	0xbdb8e222	-0.090275064
21	0xbeb6c22d	-0.3569502
22	0xbe83fe8c	-0.2578014
23	0xbe2441c3	-0.16040711
24	0xbe402e61	-0.18767692
25	0xbcf406fe	-0.02978849
26	0x3d268702	0.040656097
27	0x3d3a1cf5	0.04543777
28	0xbe8d577c	-0.27605808
29	0xbe742ffc	-0.2384643
30	0xbbee6624	-0.0072753597
31	0xbe5dbf8d	-0.21655102
32	0xbe8f3119	-0.27967146
33	0x3e44fadd	0.19236322
34	0xbec16b80	-0.37777328
35	0xbde5169f	-0.11185955
36	0xbd6b9a59	-0.057520244
37	0xbe699a82	-0.22812846
38	0xbea21d5e	-0.3166303
39	0xbd23be08	-0.03997615
40	0xbe7a8568	-0.24464953
41	0xbe1a8579	-0.15089978
42	0xbb7e5d8f	-0.003881309
43	0xbd4e8ee7	-0.05042925
44	0xbe85ae9c	-0.2610978
45	0xbd1f0ee7	-0.03883257
46	0xbe93086d	-0.28717366
47	0xbe833ba7	-0.2563145
48	0x3d587cbe	0.05285334
49	0xbd38c9e0	-0.045114398
50	0xbdb66954	-0.089068085
51	0xbe4935b6	-0.19649395
52	0xbe86856c	-0.26273668
53	0xbea4d13f	-0.32190892
54	0xbfa7f317	-1.312106
55	0xbe80d441	-0.25161937
56	0x3cb3b29d	0.021935755
57	0xbd75fe7d	-0.060057152
58	0xbc9ab288	-0.018883958
59	0xbd9daa24	-0.076984674
60	0xbe976fc4	-0.29577458
61	0xbe87ea30	-0.26545858
62	0xbc82bc18	-0.01595883
63	0xbd4ecf02	-0.050490387
64	0xbe23e824	-0.16006523
65	0xbe9ad9fa	-0.30244428
66	0xbcae898b	-0.02130582
67	0x3da820d6	0.08209388
68	0xbd4b7343	-0.04967047
69	0xbea0aa43	-0.313799
70	0xbc8b5806	-0.017009746
71	0xbea661d0	-0.324965
72	0xbd24fe9d	-0.04028188
73	0xbe8e9c22	-0.27853495
74	0x3dde4198	0.10852355
75	0xbc933b20	-0.017972529
76	0xbe4d6eb2	-0.20061758
77	0xbe20d833	-0.15707473
78	0xbd7661c8	-0.060151845
79	0x3d85ef0a	0.06539734
80	0xbe0475ed	-0.1293561
81	0xbe7d358d	-0.24727459
82	0xbd241bc2	-0.040065534
83	0x3d518494	0.051151827
84	0x3c7cdd52	0.015433626
85	0xbd41308a	-0.04716543
86	0xbe4cb59a	-0.1999115
87	0xbb9f73fd	-0.004866122
88	0xbea95e68	-0.3307984
89	0xbe97a82d	-0.29620495
90	0x3bd793f7	0.006578918
91	0xbe7f03cd	-0.24903794
92	0x3c16af4c	0.0091970675
93	0xbd780c5a	-0.060558654
94	0xbc8b6014	-0.017013587
95	0xbeb0371d	-0.34417048
96	0xbd023e95	-0.031797964
97	0x3caccf72	0.021095011
98	0xbeb1f062	-0.3475371
99	0xbe41d1fd	-0.1892776
100	0xbf0d6a8b	-0.55240697
101	0xbea3770d	-0.31926766
102	0xbe178a9c	-0.14798969
103	0x3b07cb01	0.0020720365
104	0xbe514d03	-0.20439534
105	0xbd16b9f0	-0.036798418
106	0xbe489301	-0.19587328
107	0xbd86500d	-0.06558237
108	0xbe88cef8	-0.26720405
109	0xbe3893c2	-0.18025115
110	0xbe63d2fb	-0.22248451
111	0xbed1a8d8	-0.4094913
112	0x3d8bbad4	0.06822744
113	0xbe4ce7f6	-0.20010361
114	0x3d5b7482	0.053577907
115	0xbed0eec5	-0.40807167
116	0xbe867e7a	-0.2626837
117	0xbe79c5b5	-0.24391825
118	0x3d04252c	0.032262012
119	0xbd3bb955	-0.045831043
120	0xbd6057c1	-0.05477119
121	0xbe1a8899	-0.1509117
122	0xbe83fc39	-0.25778368
123	0xbc91edd5	-0.017813602
124	0xbd99101f	-0.07473778
125	0xbe8c9925	-0.2746059
126	0xbd25b655	-0.04045709
127	0xbe74d27d	-0.2390842
128	0xbd346349	-0.04404
129	0x3c34ccb9	0.011035138
130	0x3cf590e3	0.029976314
131	0xbe61450a	-0.21998993
132	0x3b7a99fc	0.0038238754
133	0xbea0934d	-0.31362382
134	0xbe470d92	-0.1943877
135	0xbd3e9b8d	-0.046535064
136	0xbdb9c510	-0.0907079
137	0xbd904580	-0.07044506
138	0x3cba0efe	0.022712227
139	0x3db8ed31	0.09029616
140	0xbe5ed20c	-0.21759814
141	0xbde3f6c2	-0.1113105
142	0x3e6b9752	0.23006943
143	0xbe46986b	-0.1939408
144	0xbe9a183d	-0.30096617
145	0x3e70e387	0.23524295
146	0xbe33e655	-0.17568333
147	0xbdc17cb2	-0.09447612
148	0x3c705244	0.014668051
149	0xbe3b105a	-0.18267956
150	0xbeb559ed	-0.3542017
151	0x3e924348	0.28566957
152	0xbde2431d	-0.11047957
153	0xbe656cb3	-0.22404747
154	0x3d926094	0.07147327
155	0xbca3e103	-0.020004755
156	0xbe6dd0fc	-0.23224252
157	0xbc3046fd	-0.010759112
158	0xbebd8aba	-0.37019902
159	0xbe5b4e9c	-0.21416706
160	0xbd7d4582	-0.061833866
161	0xbccb80b4	-0.024841644
162	0x3dbee92f	0.0932182
163	0xbf49de71	-0.78855044
164	0xbe9b50b1	-0.30335
165	0xbeb08a69	-0.344806
166	0xbe81d3c1	-0.25356868
167	0xbe949dbb	-0.2902659
168	0x3dab11dd	0.083530165
169	0xbd2ff225	-0.042955536
170	0xbdaef0bf	-0.085420124
171	0xbf01c401	-0.50689703
172	0xbe39f906	-0.18161401
173	0xbe8f9a5b	-0.2804745
174	0x3db02ea6	0.086026475
175	0xbd3c99c8	-0.046045095
176	0xbd921b20	-0.0713408
177	0xbeb23c99	-0.34811857
178	0xbdcb2d19	-0.09920711
179	0xbd965d86	-0.07342057
180	0xbe1c9dbf	-0.1529455
181	0xbe9467a5	-0.28985325
182	0xbc662e95	-0.014049192
183	0xbe947dbe	-0.29002184
184	0xbcf93796	-0.030422013
185	0xbe543c70	-0.2072618
186	0x3ba31078	0.0049763285
187	0x3d1247f7	0.035713162
188	0xbe6cdf05	-0.2313195
189	0x3dfd5f33	0.123716734
190	0xbd2c015d	-0.041993488
191	0xbd10b6ac	-0.03533046
192	0xbe0f513e	-0.13995835
193	0xbea4f019	-0.3221443
194	0x3c3259db	0.010885681
195	0xbd8d94c7	-0.06913143
196	0x3da2900d	0.07937632
197	0xbe68dc7a	-0.22740355
198	0xbe3bf371	-0.18354584
199	0xbd989bd3	-0.07451596
200	0xbe982328	-0.29714322
201	0xbecb6f38	-0.3973329
202	0x3c971c67	0.01844616
203	0xbe4d233c	-0.20032972
204	0xbd7cfb65	-0.061763186
205	0x3bc3d3da	0.0059761824
206	0x3c099ba6	0.008398926
207	0xbeabae53	-0.33531436
208	0xbd747219	-0.059679125
209	0x3d2f8179	0.042848084
210	0xbe8ffa52	-0.28120667
211	0xbdf8a440	-0.12140703
212	0xbe904fec	-0.28185976
213	0xbf068fd3	-0.5256321
214	0xbdafe186	-0.08587937
215	0xbb02f653	-0.0019983246
216	0xbe184222	-0.14868978
217	0xbcfd5178	-0.030922636
218	0xbe4ea107	-0.20178615
219	0xbd8a4fd0	-0.06753504
220	0xbe9a7e32	-0.30174404
221	0x3ca8217a	0.020523775
222	0xbe8bfdb8	-0.2734201
223	0xbe704ad1	-0.2346604
224	0x3d5acc6c	0.05341761
225	0xbcea007a	-0.02856468
226	0x3be2484e	0.006905592
227	0xbd698c1f	-0.057018396
228	0xbe219ece	-0.15783235
229	0xbd2dfcdd	-0.042477477
230	0xbd8edf17	-0.06976145
231	0x3f5d94f6	0.8655542
232	0xbcbc60cd	-0.022995377
233	0xbca4ce32	-0.020117853
234	0xbd40c8b5	-0.04706641
235	0xbc8a23fc	-0.016862862
236	0xbca50536	-0.020144086
237	0xbd24d6d5	-0.040243942
238	0x3cf1062a	0.029421885
239	0xbb7a4963	-0.0038190715
240	0xbd5bd097	-0.053665724
241	0x3db930aa	0.09042485
242	0xbd9eb1fe	-0.07748793
243	0xbb6a3b75	-0.0035741006
244	0xbc6c9c5e	-0.014441578
245	0xbd834d16	-0.06411187
246	0xbd193b75	-0.03741022
247	0xbe2f4ebd	-0.1711988
248	0x3ddb86cb	0.10719069
249	0xbd54471a	-0.05182562
250	0xbdf7fc23	-0.12108638
251	0x3e4b976b	0.1988198
252	0xbd0ff145	-0.035142202
253	0xbc096d8d	-0.008387935
254	0x3d57b836	0.05266591
255	0xbddb614c	-0.10711917

final.linears.1.bias f4 [112]
0	0xbe7cb283	-0.24677472
1	0xbe9ae826	-0.3025524
2	0xbca2cd81	-0.019873383
3	0xbe8fa08b	-0.28052172
4	0xbe8d97ef	-0.2765498
5	0xbe4262bc	-0.18982977
6	0xbe81ccab	-0.25351462
7	0xbe8b9915	-0.2726523
8	0xbee98095	-0.45605913
9	0xbe7ccb58	-0.24686944
10	0xbe968281	-0.29396442
11	0xbe1fde63	-0.15612178
12	0xbe428517	-0.18996082
13	0xbe8c6c55	-0.274264
14	0xbe383d8d	-0.1799223
15	0xbcd252e1	-0.025674285
16	0xbec0581a	-0.37567216
17	0xbd011291	-0.031511847
18	0x3d4cbdfb	0.049985867
19	0xbd11a0f3	-0.035553884
20	0xbed51f30	-0.41625357
21	0xbea14c39	-0.31503466
22	0xbe52a0d7	-0.20569168
23	0xbdf10d76	-0.117701456
24	0xbe6db2bc	-0.23212713
25	0xbf1e525b	-0.61844414
26	0x3dd1ad42	0.102381244
27	0xbeaf2cbd	-0.3421382
28	0xbeb5dc49	-0.35519627
29	0xbdd06f2c	-0.10177454
30	0xbe6afac1	-0.22947218
31	0xbe06b70b	-0.13155763
32	0xbe7c585a	-0.24643078
33	0xbe82f91e	-0.25580686
34	0xbe0056e6	-0.12533149
35	0xbd8793be	-0.066199765
36	0xbe2f8940	-0.171422
37	0xbe649de3	-0.22325854
38	0x3dbcb85c	0.09214851
39	0xbe5b2a94	-0.21402961
40	0xbd955dca	-0.072932795
41	0xbe8acd02	-0.27109534
42	0xbedf5042	-0.4361592
43	0xbea623f9	-0.3244932
44	0xbe6dd877	-0.23227106
45	0xbee09c17	-0.43869087
46	0xbe870059	-0.26367453
47	0xbeaeb9db	-0.3412617
48	0xbdad2437	-0.08454173
49	0xbe48ebde	-0.19621226
50	0xbd868c08	-0.065696776
51	0xbe8fce9e	-0.28087324
52	0xbe587898	-0.21139753
53	0x3bab1d29	0.005221982
54	0xbe9e57a2	-0.30926234
55	0xbe4fc6e7	-0.20290719
56	0xbe88ef50	-0.2674508
57	0xbe1a5905	-0.15073021
58	0xbe80f7f0	-0.2518916
59	0xbe5546bb	-0.20827763
60	0xbeb672a2	-0.35634333
61	0xbe2dcc03	-0.16972356
62	0xbf4770a9	-0.7790628
63	0x3d753008	0.05986026
64	0xbe728069	-0.23681797
65	0xbe7d1541	-0.24715139
66	0xbe643e3f	-0.2228937
67	0xbe96a2c5	-0.29421058
68	0xbe0b87f6	-0.13626084
69	0xbe4f15e1	-0.2022319
70	0xbe7d226f	-0.24720167
71	0xbebf7436	-0.3739335
72	0xbe84090b	-0.2578815
73	0xbe89d6b4	-0.26921618
74	0xbe8f362b	-0.27971014
75	0xbe49285c	-0.19644302
76	0xbe89326e	-0.26796287
77	0xbe4ff626	-0.20308742
78	0x3c91723d	0.017754668
79	0x3e0672fe	0.13129804
80	0xbdf63a06	-0.12022786
81	0xbd02262a	-0.031774677
82	0xbd9f8974	-0.07789889
83	0x3d2b1698	0.041769594
84	0xbd3a3f2e	-0.04547041
85	0xbebcc29f	-0.36867234
86	0x3dffe3fb	0.12494656
87	0xbefd7927	-0.49506494
88	0xbe34a550	-0.17641187
89	0xbe739220	-0.23786211
90	0xbe943155	-0.28943887
91	0xbe0ca369	-0.13734211
92	0xbea44412	-0.32083184
93	0xbe36f1f6	-0.17865738
94	0xbe8cf746	-0.27532405
95	0xbef64b1e	-0.48104185
96	0xbe16efac	-0.14739865
97	0xbe401b90	-0.18760514
98	0xbe10a955	-0.14127095
99	0xbdd4dc42	-0.10393573
100	0xbe2c02cb	-0.1679794
101	0xbd9f8576	-0.077891275
102	0xbe507ebc	-0.20360845
103	0xbe36eaec	-0.17863053
104	0xbcc04ccd	-0.023474121
105	0x3d15f8d4	0.036614254
106	0xbeea409b	-0.45752415
107	0xbe1c0fb9	-0.15240373
108	0xbe628e9f	-0.22124718
109	0xbda7f727	-0.082014374
110	0xbebb31e7	-0.3656151
111	0xbeb70139	-0.3574312

final.linears.2.weight f4 [24, 112]
0	0x3ebd77c6	0.37005442
1	0x3e96a75a	0.29424554
2	0xbe2367ee	-0.15957615
3	0xbe9af14b	-0.30262217
4	0x3d5ef3d7	0.054431763
5	0xbc1ac16b	-0.0094455285
6	0xbd94840a	-0.07251747
7	0xbddb9cf5	-0.107232966
8	0x3c756b6b	0.014979224
9	0xbe2710f3	-0.1631506
10	0xb9e53f8e	-0.00043725636
11	0x3ea8696d	0.32892933
12	0xbe5201d5	-0.20508511
13	0x3e980307	0.2968981
14	0xbe3b70cf	-0.18304752
15	0xbde32552	-0.11091103
16	0x3e5674e7	0.20943032
17	0x3e8326c5	0.25615516
18	0x3e7fe74c	0.24990577
19	0x3c611f1b	0.013740326
20	0xbe9cab7f	-0.3059959
21	0xbe82803d	-0.25488463
22	0xbedf2efe	-0.4359054
23	0xbdc5db96	-0.09661023
24	0x3bdcf509	0.0067430777
25	0x3c83f664	0.0161087
26	0x3b3a76bb	0.0028452117
27	0x3e39d6f9	0.18148412
28	0x3e8d9dd1	0.27659467
29	0xbdb48265	-0.08813933
30	0xbf0c1877	-0.5472483
31	0x3e796b50	0.24357343
32	0xbda481ac	-0.080325454
33	0xbe838f95	-0.25695482
34	0xbb9a6097	-0.0047112214
35	0xbe8004ec	-0.25003755
36	0x3ca46353	0.020066893
37	0x3ec1966e	0.3781008
38	0x3b96ca13	0.004601726
39	0x3d3897a7	0.045066502
40	0xbe94df21	-0.29076484
41	0x3f4c1a12	0.7972728
42	0xbe23b0d1	-0.15985419
43	0xbecbb400	-0.39785767
44	0x3e8143d6	0.25247067
45	0x3bbd2361	0.0057720398
46	0xbd5bc651	-0.053655926
47	0x3e9da305	0.30788437
48	0x3d4e99dc	0.0504397
49	0x3c703562	0.014661165
50	0xbbead1db	-0.00716613
51	0x3ed388ab	0.41315207
52	0xbc6bfd3e	-0.014403639
53	0x3c3a1e1b	0.011359717
54	0xbef6cbce	-0.48202366
55	0xbe5c3ae9	-0.21506847
56	0xbf225ab6	-0.63419664
57	0x3e7cfb26	0.2470518
58	0x3e1ec468	0.1550461
59	0x3dfceb82	0.12349607
60	0xbec350fc	-0.38147724
61	0x3ef946c1	0.48686793
62	0xbd073a1d	-0.033014406
63	0x3cee3d80	0.02908206
64	0xbe56af47	-0.209653
65	0x3efe863f	0.49711797
66	0x3bcd457f	0.006264388
67	0x3edd0041	0.43164256
68	0x3ba63885	0.0050726556
69	0xbdb907d7	-0.090346985
70	0x3e22755c	0.15865082
71	0xbe68bc2f	-0.22728036
72	0xbe8fa0dd	-0.28052416
73	0xbe4dcdc9	-0.20098032
74	0xbc4547d7	-0.012041054
75	0xbd6567c7	-0.056007173
76	0x3e5e7d85	0.2172757
77	0xbed6cae8	-0.4195168
78	0xbeabf5d7	-0.33585998
79	0xbce25b51	-0.027631434
80	0x3e6926ca	0.22768703
81	0x3c2598dd	0.010107246
82	0x3d0d6569	0.03452054
83	0xbc4b3fb8	-0.012405328
84	0x3da7d249	0.081944056
85	0x3eb24ded	0.34825078
86	0xbb8a89ad	-0.004227838
87	0x3c5026be	0.012704549
88	0xbd404557	-0.046941128
89	0x3dc2f83d	0.09520004
90	0x3e58abb9	0.21159257
91	0xbd64eaf7	-0.055888142
92	0xbe3a979a	-0.18221894
93	0xbe40a6db	-0.1881365
94	0xbe101fb3	-0.14074592
95	0xbc0b1b8c	-0.008490454
96	0xbe8ffdeb	-0.28123412
97	0xbaaedea0	-0.0013341494
98	0x3f4cc827	0.7999291
99	0xbdfd55ef	-0.12369906
100	0x3da93494	0.082619816
101	0xbe66d767	-0.22543107
102	0x3e11d7dc	0.142425
103	0xbe266250	-0.1624844
104	0xbbb095ed	-0.0053889663
105	0xbe2123d1	-0.15736319
106	0xbc84da49	-0.016217368
107	0x3c9826c6	0.018573176
108	0x3ea5dfc9	0.32397297
109	0x3ded00f2	0.11572446
110	0xbe66d590	-0.22542405
111	0xbe99502a	-0.29943973
112	0x3ee36aac	0.44417322
113	0x3e26945c	0.16267532
114	0xbe27d645	-0.16390331
115	0xbe9a57d5	-0.30145136
116	0xbe7a464e	-0.24440882
117	0x3e0dd19c	0.13849491
118	0x3e64e374	0.22352391
119	0xbf01fd3a	-0.5077702
120	0x3c2e188b	0.010625969
121	0xbee94b97	-0.45565483
122	0xbaaf11dc	-0.0013356763
123	0xbe58a03e	-0.21154878
124	0xbeaa059c	-0.33207405
125	0xbc002edc	-0.007823672
126	0x3e114810	0.14187646
127	0xbe4968ed	-0.19668932
128	0xbed115c1	-0.4083691
129	0x3edb9178	0.4288442
130	0xbdeee762	-0.116652265
131	0xbb5a1819	-0.0033278523
132	0x3e82cdab	0.25547537
133	0xbf067e06	-0.52536047
134	0x3da0a5bf	0.078441136
135	0xbae4582a	-0.0017421294
136	0xbeab20ff	-0.33423612
137	0x3bcb16f2	0.0061978037
138	0x3c5eee74	0.013606656
139	0x3dddc2de	0.108281836
140	0xbedb842b	-0.42874274
141	0xbe1861e8	-0.14881098
142	0x3e01dd60	0.12682104
143	0x3d66b7b2	0.05632753
144	0x3dce5a51	0.1007582
145	0xbe917161	-0.28406814
146	0x3bbc5c2c	0.0057482924
147	0xbd6e4328	-0.058169514
148	0xbd99669d	-0.07490275
149	0xbee51e0d	-0.4474949
150	0x3ba4dbf0	0.0050311014
151	0xbd305607	-0.043050792
152	0x3e47a781	0.19497491
153	0xbefc692e	-0.49298996
154	0xbe4c7bd1	-0.19969107
155	0x3f0f00d4	0.5586064
156	0x3de03a97	0.10948675
157	0x3870fca8	5.7455763e-05
158	0x3d78a583	0.06070472
159	0x3ef7641e	0.4831857
160	0x3ca770e3	0.02043957
161	0xbda3f8a9	-0.080064125
162	0x3e9f2f6c	0.31090868
163	0xbe935e38	-0.2878282
164	0xbb673cfd	-0.0035284155
165	0x3cbf0083	0.023315674
166	0xbdf10b76	-0.11769764
167	0x3eeb65f0	0.4597621
168	0xbd02b5cc	-0.031911656
169	0x3de0f619	0.109844394
170	0x3e033d40	0.12816334
171	0xbddc2cc2	-0.107507244
172	0x3eaaccfc	0.33359516
173	0xbe40215f	-0.1876273
174	0x3ce157d9	0.02750771
175	0x3e45536d	0.19270106
176	0x3d02e0c7	0.031952646
177	0x3e792556	0.24330649
178	0xbcf6d910	-0.0301328
179	0x3eda38d0	0.4262147
180	0x3d2edf65	0.042693514
181	0xbe017f1b	-0.12646143
182	0xbf14d588	-0.5813832
183	0xbec5a983	-0.3860589
184	0xbd4ecf19	-0.050490472
185	0x3ea037dc	0.31292617
186	0xb9ed8c5c	-0.00045308738
187	0x3edad010	0.42736864
188	0x3ef65195	0.48109117
189	0x3e8fe379	0.28103235
190	0x3c8a6041	0.0168916
191	0xbb85056a	-0.0040594833
192	0xbe29b438	-0.16572654
193	0xbb70c647	-0.0036739276
194	0x3e338a85	0.1753331
195	0xbda90153	-0.08252206
196	0x3de4d087	0.11172586
197	0x3ea55d67	0.32297823
198	0x3af993e7	0.0019041271
199	0x3a4e9fda	0.0007882096
200	0xbe1f01ff	-0.15528105
201	0xbe868288	-0.26271462
202	0x3e55c410	0.20875573
203	0xbea224f4	-0.31668818
204	0xbf07d0b3	-0.53052825
205	0x3ec605f1	0.38676408
206	0xbd4bb0f2	-0.049729295
207	0x3cf08cb2	0.029363964
208	0x3e4995ed	0.19686098
209	0xbcc9983b	-0.024608722
210	0x3ed27e7a	0.4111212
211	0xbe618e8d	-0.22027035
212	0x3e312038	0.17297447
213	0xbd8a4319	-0.06751079
214	0xbe0070a5	-0.1254297
215	0x3e3e4421	0.18580677
216	0xbbdc2f06	-0.006719473
217	0x3e01b35e	0.1266608
218	0xbb79e200	-0.0038129091
219	0xbd737c2b	-0.059444588
220	0x3ca170f1	0.019707175
221	0xbda0d2d5	-0.07852713
222	0x3e3e95dd	0.18611856
223	0x3e250830	0.16116405
224	0x3d079d74	0.033109143
225	0x3d85328c	0.06503782
226	0xbc15c98a	-0.009142289
227	0xbe04df35	-0.12975772
228	0x3d92f859	0.07176275
229	0xbdf3f061	-0.11911083
230	0x3d3b374c	0.045707032
231	0xbce85804	-0.028362282
232	0x3ea5a4be	0.3235225
233	0xbdf98ed8	-0.121854484
234	0x3e6cef5b	0.23138182
235	0xbbd2bae5	-0.006430971
236	0x3dc88af9	0.09792132
237	0x3dc575d3	0.09641614
238	0x3db6e9d0	0.08931315
239	0xbd463e3c	-0.048399195
240	0x3e957aca	0.29195243
241	0xbdde04fd	-0.10840795
242	0xbd96a8dd	-0.07356427
243	0xbe146170	-0.14490294
244	0x3e843481	0.25821307
245	0xbec3b714	-0.38225615
246	0xbdbe9c9b	-0.09307214
247	0xbdcd7907	-0.1003285
248	0xbbf5973e	-0.007494836
249	0x3edb3da5	0.4282047
250	0x4000bdfc	2.0115957
251	0x3ccca3e0	0.024980485
252	0xbcc41651	-0.023936423
253	0xbc1fe8b7	-0.009760073
254	0xbe3e3835	-0.18576129
255	0xbc9caa22	-0.019124094

final.linears.2.bias f4 [24]
0	0x3d850165	0.064944066
1	0x3dbe1f61	0.09283329
2	0x3ddee3c2	0.10883285
3	0xbdb6864f	-0.08912336
4	0xbd92db5e	-0.07170747
5	0x3d52824e	0.0513938
6	0x3d751f9d	0.059844602
7	0xbb46afc4	-0.0030317167
8	0xbd5c1a98	-0.0537363
9	0x3c50b482	0.012738349
10	0x3d8fddfc	0.07024762
11	0xbcf4d319	-0.029885815
12	0x3c7b51d3	0.015339333
13	0x3bf0861b	0.0073402054
14	0xbdaa32df	-0.08310484
15	0x3d0a8239	0.033815596
16	0xbc825f48	-0.015914574
17	0xbcdf22ba	-0.027238239
18	0x3b288162	0.0025711884
19	0xbcfe1d40	-0.031019807
20	0xbd9b74d9	-0.07590646
21	0xbdbcd0b3	-0.09219494
22	0x3c7e36fa	0.015516037
23	0xbcce17f0	-0.025157899

layers.0.attn.0.gnn_q.weight f4 [24, 16]
0	0x08aa7097	1.0257973e-33
1	0x88a8531c	-1.0130671e-33
2	0x88a7baff	-1.00949095e-33
3	0x0884a002	7.982079e-34
4	0x139a1b02	3.8901697e-27
5	0x88a82b8c	-1.012137e-33
6	0x88aec8df	-1.0519469e-33
7	0x08ad5157	1.0431182e-33
8	0x08b04799	1.0609447e-33
9	0x88b59ed1	-1.0930879e-33
10	0x88b05044	-1.0611485e-33
11	0x88ac9a6d	-1.0388179e-33
12	0x089979b4	9.236965e-34
13	0x88b2503a	-1.07318465e-33
14	0x89af33f0	-4.217856e-33
15	0x1292af74	9.257148e-28
16	0x08a90572	1.0172598e-33
17	0x8808f1fc	-4.1210463e-34
18	0x08a219b4	9.756063e-34
19	0x88ae4a63	-1.0489732e-33
20	0x93243927	-2.0727888e-27
21	0x08b0b523	1.06352e-33
22	0x88adfe67	-1.04718685e-33
23	0x883adf7f	-5.6235057e-34
24	0x88ac4139	-1.0367207e-33
25	0x88ad914e	-1.044622e-33
26	0x08a3d8b7	9.861155e-34
27	0x089fe394	9.622968e-34
28	0x088eae4a	8.587289e-34
29	0x08a28773	9.781864e-34
30	0x09ca9e9c	4.8778887e-33
31	0x920972cf	-4.337109e-28
32	0x08af57fc	1.0553114e-33
33	0x873127fd	-1.3327752e-34
34	0x88a235a7	-9.762634e-34
35	0x889f2f1f	-9.5805425e-34
36	0x1291ac76	9.193301e-28
37	0x88a80782	-1.0112897e-33
38	0x08a59421	9.965401e-34
39	0x08adb509	1.045462e-33
40	0x08abc3ec	1.0337749e-33
41	0x88adabf2	-1.0452483e-33
42	0x88a9685a	-1.019585e-33
43	0x05a8cbe7	1.5873546e-35
44	0x872b86ff	-1.2904282e-34
45	0x08ae5c49	1.049394e-33
46	0x8934c25b	-2.1758097e-33
47	0x11adb3f4	2.7405492e-28
48	0x08a642e0	1.0006484e-33
49	0x88b0c88e	-1.0639765e-33
50	0x08b09886	1.0628473e-33
51	0x88ae0462	-1.04732745e-33
52	0x134d7852	2.593396e-27
53	0x88acdd75	-1.0403938e-33
54	0x88a97856	-1.0199608e-33
55	0x08aab701	1.0274527e-33
56	0x88885d24	-8.2070995e-34
57	0x083074cc	5.3100368e-34
58	0x08a91eed	1.0178588e-33
59	0x88af43b7	-1.0548349e-33
60	0x08a875a8	1.0138793e-33
61	0x88a64a2d	-1.00082e-33
62	0x89f32eb6	-5.854405e-33
63	0x1256985e	6.77143e-28
64	0x88b087bc	-1.0624526e-33
65	0x08ac6818	1.0376346e-33
66	0x88a61e3c	-9.99787e-34
67	0x088fd21c	8.655896e-34
68	0x117bd052	1.9864602e-28
69	0x88ade18a	-1.0465083e-33
70	0x88b06ccb	-1.0618192e-33
71	0x08a76056	1.0073595e-33
72	0x8887f7b3	-8.183251e-34
73	0x08af55c4	1.0552593e-33
74	0x8880bf68	-7.748719e-34
75	0x0653b02c	3.981412e-35
76	0x073cd51f	1.4206179e-34
77	0x08a0553f	9.649691e-34
78	0x081bc832	4.6878944e-34
79	0x104a353d	3.987849e-29
80	0x88b2b778	-1.0756119e-33
81	0x08b0f49d	1.0650123e-33
82	0x88b0614b	-1.0615488e-33
83	0x88a2b578	-9.792683e-34
84	0x93973e03	-3.8178907e-27
85	0x089f350f	9.581938e-34
86	0x889ea0f4	-9.547119e-34
87	0x889baaf8	-9.368918e-34
88	0x08afcba9	1.058031e-33
89	0x88b00a1c	-1.0594991e-33
90	0x08a41fce	9.877868e-34
91	0x88ab5af8	-1.0313075e-33
92	0x888e2c5c	-8.556743e-34
93	0x889ad97a	-9.319666e-34
94	0x09ef44a7	5.7601717e-33
95	0x92990cca	-9.65881e-28
96	0x0857ced9	6.4942357e-34
97	0x88901ab1	-8.67296e-34
98	0x88a7fb09	-1.0109965e-33
99	0x08abd471	1.0341633e-33
100	0x93fbe3e4	-6.3586025e-27
101	0x886cefa7	-7.1300377e-34
102	0x8841933d	-5.8251903e-34
103	0x88b0f6f9	-1.0650678e-33
104	0x88a44f0f	-9.888978e-34
105	0x88af7a7d	-1.0561226e-33
106	0x08adb352	1.0454217e-33
107	0x08aa5e3c	1.0253657e-33
108	0x88b01816	-1.0598277e-33
109	0x08b3c5b1	1.0819648e-33
110	0x0a5d4514	1.0653755e-32
111	0x9300ebd2	-1.627214e-27
112	0x88ac3bc3	-1.0365923e-33
113	0x0890ee36	8.722688e-34
114	0x08a39279	9.844641e-34
115	0x88ad728e	-1.043899e-33
116	0x120db852	4.4718947e-28
117	0x888677e1	-8.093015e-34
118	0x88adb2ca	-1.0454092e-33
119	0x08b30ea3	1.0776612e-33
120	0x88b284aa	-1.07441745e-33
121	0x08ae42fa	1.048799e-33
122	0x08a9aad3	1.0211478e-33
123	0x88aeb034	-1.0513669e-33
124	0x88b09dd9	-1.06297245e-33
125	0x08b23e6a	1.0727659e-33
126	0x8937f589	-2.2143274e-33
127	0x109d9234	6.215084e-29
128	0x88a4adec	-9.91128e-34
129	0x070c88d4	1.057264e-34
130	0x08a825d6	1.0120027e-33
131	0x88af3c12	-1.0546552e-33
132	0x92264406	-5.246421e-28
133	0x88b0a144	-1.0630528e-33
134	0x889f2814	-9.578887e-34
135	0x08aa41fe	1.02470175e-33
136	0x88b4e3b7	-1.0886891e-33
137	0x88afb1ff	-1.0574276e-33
138	0x089d0fd6	9.452817e-34
139	0x07d20b93	3.160409e-34
140	0x08afc3ea	1.0578489e-33
141	0x08add5ca	1.046232e-33
142	0x879cc702	-2.3589237e-34
143	0x90822ef1	-5.1348284e-29
144	0x88b046d3	-1.0609265e-33
145	0x88ae0406	-1.047319e-33
146	0x88ad7ffd	-1.0442149e-33
147	0x08aeb1e1	1.0514063e-33
148	0x93490e14	-2.5376708e-27
149	0x8899fbbd	-9.267536e-34
150	0x88b1279a	-1.066211e-33
151	0x8837ad98	-5.527362e-34
152	0x08b002b2	1.0593248e-33
153	0x88a962a9	-1.0194512e-33
154	0x88b1de2c	-1.0705032e-33
155	0x88b3bfd5	-1.081827e-33
156	0x08b1c20d	1.0698421e-33
157	0x88a5758d	-9.958212e-34
158	0x09e01e62	5.395461e-33
159	0x9236a715	-5.763502e-28
160	0x88af1c18	-1.0539034e-33
161	0x08af0d49	1.0535553e-33
162	0x88ac29f7	-1.0361739e-33
163	0x08a0a711	9.668927e-34
164	0x91d7c496	-3.4042174e-28
165	0x088f709f	8.6329765e-34
166	0x08ac58c0	1.03727385e-33
167	0x88985656	-9.168465e-34
168	0x88af2ae7	-1.0542516e-33
169	0x88b091e5	-1.0626914e-33
170	0x88ac832d	-1.0382713e-33
171	0x88aed0e7	-1.0521357e-33
172	0x88a7b399	-1.009317e-33
173	0x08a3186e	9.815949e-34
174	0x88a62564	-9.999552e-34
175	0x113d4065	1.4929314e-28
176	0x08b0c278	1.0638334e-33
177	0x88af0589	-1.0533731e-33
178	0x08a7464f	1.0067476e-33
179	0x88abdc44	-1.0343472e-33
180	0x1408e6b0	6.9117404e-27
181	0x08529a62	6.3376052e-34
182	0x08b2c0ed	1.0758342e-33
183	0x88ab1be3	-1.0298244e-33
184	0x88a6b240	-1.0032668e-33
185	0x886304a3	-6.831578e-34
186	0x88b002f4	-1.0593309e-33
187	0x089c94b7	9.423871e-34
188	0x88afa49e	-1.0571131e-33
189	0x88af73a7	-1.0559619e-33
190	0x8a5aa4e8	-1.05273336e-32
191	0x1306592e	1.6957147e-27
192	0x07a523d8	2.4847508e-34
193	0x88b0bd3b	-1.0637103e-33
194	0x88aa2016	-1.0239046e-33
195	0x8813ff60	-4.4536395e-34
196	0x9205e9ad	-4.225543e-28
197	0x08b0264b	1.0601617e-33
198	0x08abf6ab	1.03496795e-33
199	0x08afde5e	1.0584708e-33
200	0x88a7b558	-1.0093581e-33
201	0x88b25634	-1.0733252e-33
202	0x88a6d6d6	-1.0041269e-33
203	0x88b34579	-1.0789504e-33
204	0x08a4d802	9.921174e-34
205	0x88ae37f7	-1.0485401e-33
206	0x884b11c0	-6.1108955e-34
207	0x91369c73	-1.4405478e-28
208	0x08a6ad9d	1.0031578e-33
209	0x08254bcb	4.9741976e-34
210	0x08a02fe6	9.640911e-34
211	0x88ae45c2	-1.0488644e-33
212	0x1292ca32	9.26374e-28
213	0x872189ca	-1.2152786e-34
214	0x08af8795	1.0564305e-33
215	0x08b24d27	1.0731124e-33
216	0x08b22eee	1.0724018e-33
217	0x88b1f6a2	-1.0710783e-33
218	0x08b20837	1.0714917e-33
219	0x88add7c4	-1.0462785e-33
220	0x88af2cac	-1.0542932e-33
221	0x88aaf0a6	-1.0288079e-33
222	0x89940f6c	-3.5644207e-33
223	0x11e917ac	3.6775507e-28
224	0x082270de	4.8882776e-34
225	0x08a78870	1.0083023e-33
226	0x08adb82f	1.045536e-33
227	0x077e49f0	1.9130564e-34
228	0x939def58	-3.9868383e-27
229	0x08ad2f99	1.0423249e-33
230	0x089c73a4	9.416095e-34
231	0x88b21073	-1.07168525e-33
232	0x08aa1f71	1.0238895e-33
233	0x88a4b4cf	-9.912899e-34
234	0x08a28d16	9.7831895e-34
235	0x08a0faf9	9.688653e-34
236	0x88a941e8	-1.0186812e-33
237	0x88a73ef7	-1.006575e-33
238	0x0a01d59e	6.251301e-33
239	0x929102b9	-9.151458e-28
240	0x88b1647b	-1.0676423e-33
241	0x08ac10f6	1.0355861e-33
242	0x88af6c52	-1.0557895e-33
243	0x88b2170e	-1.0718405e-33
244	0x93bead42	-4.813359e-27
245	0x08920457	8.788076e-34
246	0x086b94e0	7.089274e-34
247	0x0886a9ed	8.104781e-34
248	0x88b2e43c	-1.0766643e-33
249	0x88ad6327	-1.0435369e-33
250	0x888c41e2	-8.4414325e-34
251	0x08adfb9c	1.0471212e-33
252	0x088cdff4	8.478595e-34
253	0x88b23e70	-1.0727664e-33
254	0x0a393390	8.917124e-33
255	0x92c69a98	-1.2533667e-27

layers.0.attn.0.gnn_q.bias f4 [16]
0	0x88ab19d7	-1.0297763e-33
1	0x88a7387d	-1.0064227e-33
2	0x88a5c3b8	-9.9765895e-34
3	0x88a5dc0a	-9.982307e-34
4	0x9ccaf930	-1.3431652e-21
5	0x08abb9d3	1.0335375e-33
6	0x08a75751	1.0071475e-33
7	0x88a174a5	-9.717258e-34
8	0x089b1f03	9.336014e-34
9	0x08a550d9	9.9495835e-34
10	0x88a2c46a	-9.796197e-34
11	0x089e8228	9.539879e-34
12	0x08a4082e	9.872314e-34
13	0x08a96c6e	1.0196809e-33
14	0x1a7d6243	5.239855e-23
15	0x9da60156	-4.3941215e-21
