checkpoints/cyp1a2_veith_40_train1_neg/Sep06-05:08:19_600.pth (torch, 471814 bytes, 294 tensors)

layers.0.weight f4 [24, 16]
0.90334296 1.2229581 0.3744689 -0.15095022 0.8120307 0.6730544 -0.72288454 0.13899626
0.365053 -1.1838472 1.2249084 0.4206555 0.13968295 1.0839466 0.760591 -0.781491
0.74757135 0.29604912 -0.6445732 -0.09552981 -0.78218395 0.7051568 -0.94002175 -0.1844971
-0.64615905 -0.95502913 0.2982056 -0.6638396 -0.1656536 -1.0769961 0.8329476 -1.0298147
0.09395559 0.06082095 0.06361571 0.35160282 -0.04669705 0.06742601 0.0014570742 0.06673674
0.047473766 -0.1757297 0.034903392 0.014443595 -0.048490595 -0.120580204 0.113591634 -0.05218919
0.104670316 0.050233115 0.08347002 0.38113913 -0.06877535 0.07847268 0.00504684 0.029915348
0.028571768 -0.17987706 0.03670668 0.020439774 -0.024083458 -0.12185692 0.11851032 -0.02983964
0.098713435 0.061436377 0.051880725 0.22916505 -0.046288412 0.06582235 -0.013559923 0.025916448
0.030540213 -0.14995967 0.033045504 0.062929176 -0.014630046 -0.09911284 0.09984141 -0.032012444
0.07094244 0.05797266 0.058472764 -0.02751348 -0.05092532 0.06770299 0.018439407 -0.00085564126
0.064804554 -0.112528525 0.0423265 -0.033643313 -0.021550069 -0.06396617 0.10921577 -0.015296452
1.0351579 -0.9895497 -0.06034658 -0.18565443 -1.1747026 0.8790925 0.13598803 -0.3098284
-0.059273005 -1.3080968 -0.9948518 -1.2647352 -0.3001226 -1.5920634 1.0490752 0.18672189
0.036672533 -0.9497193 -0.12713239 -0.015727935 -0.45159632 -0.31466532 -0.9294204 -0.0991839
-0.14796472 -0.05518813 -0.96306056 -0.37940744 -0.11389243 -0.6161439 -0.3780246 -1.0241868
0.92491376 -0.31326577 0.515712 -0.2635108 -0.41341352 0.92878294 -0.33546898 -0.13359115
0.5160664 -1.1707411 -0.3116279 -0.61053085 -0.119569205 -0.5528481 1.0667107 -0.3376983
0.12348031 0.13594715 0.039122205 0.038960416 -0.051585898 0.106514044 -0.06814079 -0.01765169
0.04380832 -0.18390965 0.12676018 -0.07010237 -0.018278914 -0.098678224 0.13643865 -0.09086693
0.183735 0.06001359 0.02067866 -0.119185895 0.098697305 0.034543846 -0.1496715 -0.004140946
0.031969618 -0.24422595 0.04808773 -0.071896315 -0.004455528 0.115562126 0.032728836 -0.14329477
-0.9882677 0.12810878 -0.09703944 -0.016460465 -0.27352428 0.60829157 0.18569039 -0.008360392
-0.09955232 1.2932057 0.10698926 0.037041727 -0.0022233392 -0.3411312 0.7005732 0.18999043
0.13521525 0.62062943 -0.6448916 0.10699844 -0.56605947 -0.7376375 -0.7282118 -0.036722224
-0.66508555 -0.16809033 0.6105503 0.05702964 -0.033457663 -0.72605443 -0.84319884 -0.7618749
0.026769996 0.5350937 0.3510963 -0.024119213 -0.14381291 -0.5956154 0.31808242 0.020194925
0.37502325 -0.008520994 0.5471268 0.22743738 0.042344905 -0.18047258 -0.6988895 0.34234786
-1.1347914 0.2611063 0.09587983 -0.003110756 -0.6678832 -0.8818984 -1.0718249 0.06277115
0.112650245 1.4721127 0.26850787 0.521554 0.08401623 -0.9110367 -1.0320354 -1.1790985
-0.41632304 -0.50196856 0.3361014 -0.030742206 -0.32598022 -0.2486678 -1.8469738 0.053416315
0.33832642 0.5384864 -0.51724946 0.40003312 0.06457015 -0.44905147 -0.28601706 -2.0162473
00000000: 7c41 673f e489 9c3f 63ba bf3e b292 1abe
00000010: 3ee1 4f3f 4b4d 2c3f f60e 39bf 0955 0e3e
00000020: 3ae8 ba3e 4e88 97bf ccc9 9c3f 2860 d73e
00000030: 0c09 0f3e c3be 8a3f 17b6 423f cb0f 48bf
00000040: d660 3f3f c093 973e c002 25bf 22a5 c3bd
00000050: 353d 48bf 2885 343f 44a5 70bf cfec 3cbe
00000060: ae6a 25bf ca7c 74bf 68ae 983e 64f1 29bf
00000070: 19a1 29be 02db 89bf 0e3c 553f f8d0 83bf
00000080: ca6b c03d 631f 793d f448 823d 4905 b43e
00000090: 6845 3fbd a616 8a3d 4cfb be3a 46ad 883d
000000a0: da73 423d 7df2 33be dcf6 0e3d d4a4 6c3c
000000b0: 139e 46bd c1f2 f6bd bba2 e83d 55c4 55bd
000000c0: 645d d63d 3dc1 4d3d 54f2 aa3d ab24 c33e
000000d0: 17da 8cbd 49b6 a03d f65f a53b 0811 f53c
000000e0: 570f ea3c b131 38be be59 163d 5071 a73c
000000f0: ac4a c5bc 1f90 f9bd 8ab5 f23d 4372 f4bc
00000100: 452a ca3d b6a4 7b3d e280 543d 3eaa 6a3e
00000110: eb98 3dbd decd 863d 702a 5ebc bb4e d43c
00000120: 782f fa3c 078f 19be b95a 073d 03e1 803d
00000130: dcb2 6fbc acfb cabd a779 cc3d 7b1f 03bd
00000140: 454a 913d bd74 6d3d 2381 6f3d f363 e1bc
00000150: 1197 50bd dda7 8a3d 3d0e 973c 1d4d 60ba
00000160: 40b8 843d 5b75 e6bd 8d5e 2d3d 92cd 09bd
00000170: c589 b0bc b200 83bd 85ac df3d f89d 7abc
00000180: 0e80 843f 2153 7dbf fa2d 77bd 321c 3ebe
00000190: a85c 96bf 350c 613f 7240 0b3e d4a1 9ebe
000001a0: 40c8 72bd b76f a7bf 9cae 7ebf d8e2 a1bf
000001b0: aba9 99be bcc8 cbbf 1948 863f 0634 3f3e
000001c0: f035 163d ce20 73bf fe2e 02be dfd7 80bc
000001d0: a237 e7be d01b a1be 7fee 6dbf ee20 cbbd
000001e0: 1084 17be f30c 62bd 238b 76bf b141 c2be
000001f0: 6f40 e9bd 9bbb 1dbf 718c c1be 8e18 83bf
00000200: 26c7 6c3f 5f64 a0be b405 043f e3ea 86be
00000210: f0aa d3be b8c4 6d3f 97c2 abbe 1ecc 08be
00000220: ed1c 043f d8da 95bf b18d 9fbe c04b 1cbf
00000230: b3e0 f4bd 7487 0dbf fa89 883f cbe6 acbe
00000240: 3fe3 fc3d bb35 0b3e 9b3e 203d f594 1f3d
00000250: bc4b 53bd 0924 da3d 668d 8bbd 479a 90bc
00000260: 5a70 333d d052 3cbe 6ccd 013e d591 8fbd
00000270: a9bd 95bc cf17 cabd 93b6 0b3e 7118 babd
00000280: 0725 3c3e cfd0 753d 4b66 a93c bc17 f4bd
00000290: d021 ca3d d97d 0d3d 7c43 19be c6b0 87bb
000002a0: 93f2 023d 5e16 7abe a4f7 443d 603e 93bd
000002b0: aeff 91bb d6ab ec3d ac0e 063d ddbb 12be
000002c0: 1dff 7cbf f32e 033e 9dbc c6bd 19d8 86bc
000002d0: 600b 8cbe ffb8 1b3f 9f25 3e3e 07fa 08bc
000002e0: 16e2 cbbd c487 a53f 2f1d db3d 11b9 173d
000002f0: 71b5 11bb c0a8 aebe c458 333f da8c 423e
00000300: de75 0a3e 92e1 1e3f 9e17 25bf 0022 db3d
00000310: 46e9 10bf d0d5 3cbf 176c 3abf 0b6a 16bd
00000320: 0c43 2abf df1f 2cbe 064d 1c3f e997 693d
00000330: e70a 09bd b4de 39bf e1db 57bf 3c0a 43bf
00000340: c04c db3c e7fb 083f e5c2 b33e a895 c5bc
00000350: b143 13be 407a 18bf b3db a23e d46f a53c
00000360: 0c03 c03e a49b 0bbc 8110 0c3f 58e5 683e
00000370: da71 2d3d cecd 38be 6cea 32bf 3848 af3e
00000380: d840 91bf baaf 853e a55c c43d d3dd 4bbb
00000390: 65fa 2abf 18c4 61bf 8f31 89bf 298e 803d
000003a0: 2cb5 e63d 306e bc3f dd79 893e 9084 053f
000003b0: b410 ac3d b339 69bf bc19 84bf b3ec 96bf
000003c0: 4b28 d5be 0381 00bf 7c15 ac3e 14d7 fbbc
000003d0: e1e6 a6be c6a2 7ebe a369 ecbf 11cb 5a3d
000003e0: 1f39 ad3e 3fda 093f 766a 04bf 24d1 cc3e
000003f0: 5b3d 843d 13ea e5be d470 92be 320a 01c0

layers.0.bias f4 [16]
-0.22718185 0.2050028 0.20621207 -0.34386098 0.1842928 -0.26814732 0.2538456 0.79331034
-0.30761534 -0.2591984 -0.28444454 -0.009149913 -0.7212275 -0.3447066 0.28253478 -0.27265406
00000000: 5ca2 68be 41ec 513e 4229 533e 8c0e b0be
00000010: 40b7 3c3e 9b4a 89be 0df8 813e 6316 4b3f
00000020: c27f 9dbe a7b5 84be b7a2 91be 84e9 15bc
00000030: 5ea2 38bf 627d b0be 66a8 903e 5099 8bbe

layers.1.weight f4 [16, 16]
-0.54084975 0.070930585 0.017377 0.47714663 -0.12973198 -0.12358274 -0.095063016 -0.22186568
0.39961836 0.757026 0.009507042 -0.15924361 -0.22008197 -1.0602796 -0.5685385 -0.082705736
0.24432337 -0.19559754 0.44503638 0.33343336 0.08929999 -0.96864814 0.02398273 0.29383346
-0.33594385 0.794408 -0.4537417 0.2082982 0.052360814 0.40682098 0.5861916 -0.049801685
0.09953226 -0.21004897 -0.6423966 -0.49457306 0.069452494 -0.23575248 0.045603838 0.2416332
0.091121085 0.4757072 -0.42466772 0.20665194 -0.1582763 -0.28026593 0.14030148 -0.13947569
-0.11552824 -0.007991393 0.04762439 0.11759718 -0.048530836 -0.15791552 -0.0020566243 -0.020708162
-0.23280801 0.2612228 -0.22617 -0.06305749 0.0067910524 0.1072092 0.19666834 0.083597526
0.51485395 -0.15897612 -0.43782857 -1.0012844 0.035777215 -0.8423931 0.261926 0.2554046
0.30427647 0.3018351 -0.46240208 0.21105848 0.26087207 0.08907536 1.2833953 0.0052974224
-0.4955584 0.05702227 -1.3268315 -0.86522585 -0.13008942 0.6357583 -0.004885864 -0.22487588
0.63557404 -0.22299068 -0.1294762 -0.1801907 -0.08360132 -1.0873896 -0.17244287 -0.08802795
0.53337455 -0.022410871 0.1381748 -0.3634085 0.18385836 -1.2396849 -0.011708044 0.21695045
0.8992926 0.5478526 0.27806446 0.16239995 0.20659558 -0.27685237 0.17113131 0.06726799
-0.20103617 1.6362576 -0.6863863 -0.090315 0.10109409 -0.09849852 -0.9483232 0.796587
-0.36310583 0.8952498 -0.99819934 -0.78187823 -0.37611923 -0.3662862 0.292162 -0.4513018
-0.15282996 0.06986956 -0.7094342 -0.9049273 -0.14031857 -0.46915603 0.105060086 -0.2711391
0.47051105 0.26754645 -0.12679687 -0.19840065 0.25288925 -0.2804382 0.4028 0.06585384
-0.50349206 -0.04579747 -0.36629653 0.09357685 -0.20118462 0.8382308 0.07969903 -0.20615561
-0.93269724 -0.25990558 -0.54479384 -0.15827306 -0.21199484 0.25139907 0.0049300585 -0.08901081
-0.25458962 0.026236137 0.53250194 0.72754735 -0.21069779 -0.52357656 0.099558875 -0.27773723
-0.17475554 0.7613436 -0.28297752 -0.2202118 -0.06323886 0.0457823 0.15019253 0.06447116
0.041426796 -0.39421803 -0.29530188 -0.35448822 -0.19775568 -0.27539396 0.3819597 0.01721624
-0.44112653 0.16964109 -0.8498042 -0.061300408 -0.053782526 0.5048358 0.9841991 0.048462942
0.21149509 1.8023522 -0.2064222 -0.902516 0.3820574 -1.0109655 -1.0611843 0.90672904
0.41640604 0.33335504 -0.40835673 -0.83451796 0.4381604 0.23761794 1.1418846 0.3538238
-0.49047673 -0.14344892 -0.66029155 -0.18049018 -0.1896671 -0.2521803 0.06488068 -0.20159118
-0.1662652 0.7878991 -0.8100452 -0.24625444 -0.102192156 -0.2226704 0.09655112 -0.16023427
0.45385212 0.02637576 -0.27826393 -0.8280098 0.21719481 0.19122191 -0.041639253 0.22286922
0.81956524 -0.6061377 0.40023872 0.18911058 0.15419815 -0.29511002 -0.083814256 0.027108505
-0.52471 0.0101617435 -0.046887707 0.41941458 -0.174952 -0.24941556 -0.0659726 -0.2222546
0.2915608 0.92642856 0.031016925 -0.13792072 -0.12956847 -0.810661 -0.446738 -0.13315469
00000000: 2175 0abf 0e44 913d 365a 8e3c 904c f43e
00000010: 76d8 04be f318 fdbd 66b0 c2bd c230 63be
00000020: c79a cc3e 75cc 413f 6dc3 1b3c c210 23be
00000030: 2b5d 61be 3eb7 87bf bd8b 11bf a061 a9bd
00000040: e82f 7a3e b94a 48be cfdb e33e c7b7 aa3e
00000050: eae2 b63d 53f9 77bf 6e77 c43c 5771 963e
00000060: d500 acbe 535e 4b3f d550 e8be 204c 553e
00000070: 4b78 563d d74a d03e a710 163f dafc 4bbd
00000080: 92d7 cb3d 1417 57be 1b74 24bf ae38 fdbe
00000090: 1c3d 8e3d 1969 71be 17cb 3a3d b26e 773e
000000a0: b19d ba3d e58f f33e 0c6e d9be 919c 533e
000000b0: 2f13 22be 047f 8fbe 31ab 0f3e b7d2 0ebe
000000c0: 129a ecbd 55ee 02bc cb11 433d cad6 f03d
000000d0: 45c8 46bd 9bb4 21be 6ec8 06bb 2aa4 a9bc
000000e0: 3965 6ebe ffbe 853e 1c99 67be 4924 81bd
000000f0: 7a87 de3b 7f90 db3d 6d63 493e 2e35 ab3d
00000100: 78cd 033f a3ca 22be 112b e0be 162a 80bf
00000110: 218b 123d 13a7 57bf 2a1b 863e 64c4 823e
00000120: 20ca 9b3e 218a 9a3e f7bf ecbe b71f 583e
00000130: 0691 853e 246d b63d 4c46 a43f 0096 ad3b
00000140: d5b9 fdbe 2f90 693d 9dd5 a9bf 717f 5dbf
00000150: 2936 05be 0ec1 223f 9919 a0bb dd45 66be
00000160: fbb4 223f ab57 64be 6995 04be e983 38be
00000170: 2b37 abbd 952f 8bbf dd94 30be ff47 b4bd
00000180: 3c8b 083f 0197 b7bc b27d 0d3e ae10 babe
00000190: 5e45 3c3e ffad 9ebf 19d3 3fbc 4228 5e3e
000001a0: 0a38 663f 1140 0c3f 775e 8e3e 2c4c 263e
000001b0: cb8d 533e 98bf 8dbe 0c3d 2f3e cdc3 893d
000001c0: 6ddc 4dbe e470 d13f 03b7 2fbf 12f7 b8bd
000001d0: 6b0a cf3d 98b9 c9bd 4fc5 72bf 20ed 4b3f
000001e0: 02e9 b9be 172f 653f fe89 7fbf 2c29 48bf
000001f0: b392 c0be dd89 bbbe 4296 953e 0811 e7be
00000200: 757f 1cbe c617 8f3d 7b9d 35bf 51a9 67bf
00000210: acaf 0fbe 3835 f0be be29 d73d bed2 8abe
00000220: d3e6 f03e d9fb 883e 0ad7 01be 8a29 4bbe
00000230: b37a 813e 9995 8fbe cd3b ce3e 61de 863d
00000240: dbe4 00bf 2196 3bbd 388b bbbe 38a5 bf3d
00000250: 5703 4ebe 4b96 563f 3f39 a33d 751a 53be
00000260: 3fc5 6ebf 5812 85be 9c77 0bbf 5512 22be
00000270: 2d15 59be 61b7 803e 548c a13b 4d4b b6bd
00000280: 9259 82be 2bed d63c 0c52 083f 8b40 3a3f
00000290: 29c1 57be 1d09 06bf 86e5 cb3d 9333 8ebe
000002a0: 1ef3 32be 6ae7 423f 6ee2 90be 347f 61be
000002b0: 6083 81bd 3986 3b3d 12cc 193e 7509 843d
000002c0: 25af 293d f2d6 c9be cf31 97be 7b7f b5be
000002d0: 7780 4abe 7000 8dbe 3990 c33e 1209 8d3c
000002e0: 56db e1be 65b6 2d3e c58c 59bf 2316 7bbd
000002f0: 114b 5cbd eb3c 013f 79f4 7b3f 1481 463d
00000300: 2b92 583e 7ab3 e63f 5760 53be 4a0b 67bf
00000310: 079d c33e 5167 81bf e3d4 87bf 651f 683f
00000320: 2c33 d53e 83ad aa3e 2214 d1be f8a2 55bf
00000330: 8f56 e03e 1e52 733e 4629 923f 6528 b53e
00000340: c41f fbbe 46e4 12be de08 29bf 6bd2 38be
00000350: 1838 42be c71d 81be 29e0 843d eb6d 4ebe
00000360: 6d41 2abe c1b3 493f 1f5f 4fbf 202a 7cbe
00000370: 1f4a d1bd b603 64be 98bc c53d 7414 24be
00000380: 4e5f e83e fa11 d83c 9c78 8ebe 73f8 53bf
00000390: 5168 5e3e adcf 433e ec8d 2abd d437 643e
000003a0: 07cf 513f d72b 1bbf 17ec cc3e 34a6 413e
000003b0: 1fe6 1d3e a918 97be cfa6 abbd a812 de3c
000003c0: 6553 06bf 717d 263c 530d 40bd 82bd d63e
000003d0: 9e26 33be cb66 7fbe a41c 87bd b696 63be
000003e0: 7547 953e 6c2a 6d3f 3517 fe3c 173b 0dbe
000003f0: 99ad 04be 7b87 4fbf d8ba e4be b459 08be

layers.1.bias f4 [16]
-0.3614634 0.09544366 -0.12918185 -0.14427742 -0.30492985 -0.013801873 -0.010349063 -0.60127366
0.074298926 0.019459948 -0.16165994 -0.5431155 0.2657932 -0.088410705 0.06913582 0.4000895
00000000: bb11 b9be f777 c33d 3f48 04be 76bd 13be
00000010: c41f 9cbe 4021 62bc 1e8f 29bc 12ed 19bf
00000020: 092a 983d 786a 9f3c 2f8a 25be 9e09 0bbf
00000030: 0c16 883e ac10 b5bd 1597 8d3d 88d8 cc3e

final.linears.0.weight f4 [112, 56]
-0.0052689216 0.00316457 1.4255029 0.95949 -3.218952 0.24486353 0.012813281 -0.004721458
0.015684364 0.37099257 0.19930395 -0.010058741 0.008987019 0.01275441 0.012357617 -0.00019792735
0.0012781576 0.0010433362 0.022041062 0.0072275912 -0.014465186 0.031225 -0.0020726714 -0.006341226
0.007564824 0.03449715 0.092568845 -0.017151846 -0.033914197 0.0066316933 0.009435054 0.25489852
-0.08986633 -0.0022078606 -0.034453902 0.028842522 -0.22628988 0.024592103 0.014909075 -0.009533296
0.081641264 0.042518992 -0.110536054 0.1216301 -0.13103348 0.13163868 -0.010845168 -0.045950968
-0.10115218 0.1173152 -0.059904024 0.021145811 -0.10280655 -0.11402774 -0.075472526 -0.0709797
-0.32463452 0.86113197 0.11158058 0.0944474 0.117408946 0.094553664 -0.41736194 -0.26946947
0.5104172 0.21354827 0.3160101 0.62260777 -0.34255788 0.28960472 -0.38692528 0.7545668
0.08500627 -0.2269221 1.1385398 -0.03318883 0.06832581 0.6810697 -0.34686482 0.017502993
0.16603182 -0.093257174 -0.025342312 0.35723674 -0.0072057503 0.112126596 0.10375766 -0.103270814
0.1944816 -0.04486585 0.07985608 -0.033580534 0.0045277905 0.23164178 -0.033165008 0.26181576
-0.025756594 -0.16920756 -0.1445855 0.16027951 -0.15250678 0.2055282 0.12905033 -0.004616547
-0.19807793 0.013022347 -0.04684043 0.025176726 -0.14999259 -0.024878014 -0.1192665 -0.11558476
-0.13821939 0.20627555 -0.05883636 -0.08339742 -0.059732545 -0.06965947 -0.3888065 -0.048548676
0.089349404 -0.09623355 0.0025880393 0.116179794 0.03269489 -0.21643656 -0.05012834 -0.14463061
-0.4095535 0.29970503 -0.10705349 -0.18864605 0.017625047 -0.15647498 -0.08959319 0.33320472
-0.07489794 0.052920472 0.07744472 0.036319513 0.09150585 -0.093327336 0.07648028 -0.011704917
-0.056012295 -0.091458865 -0.09937035 0.021878077 0.015765348 -0.07290486 0.09791734 -0.06976039
0.07890579 -0.004610388 -0.011380313 0.017332286 -0.0439459 0.03371725 0.02653188 0.015165327
-0.02515153 0.042925444 -0.03116782 -0.013318912 -0.026207276 -0.009336602 -0.036234114 0.0038171187
-0.081756435 -0.599394 0.1456798 0.12972617 0.15863536 0.02812337 0.5608328 -0.69139904
0.28724864 0.12090326 0.38553357 0.7356849 0.6202023 -0.1441473 -0.6853686 -0.55533206
-0.5042264 0.6932437 0.37623605 -0.583283 -0.08801859 0.2175049 0.3972626 -1.4669033
0.043427728 -0.045060463 -0.09491666 0.056207355 -0.058520917 0.085334405 -0.032377608 -0.10206328
0.13444898 0.03718516 0.11655667 -0.03410737 0.101242535 0.022652386 -0.06187223 0.0708686
0.03118397 0.0059371945 -0.049476646 0.023198763 0.027246784 0.07027701 0.02945753 0.065571785
-0.060279705 -0.014186156 -0.027366176 0.042880204 0.031996913 -0.02060803 -0.031082688 0.041422747
0.031111825 0.019286938 0.7426508 -0.08021147 0.01712336 0.057278838 -0.046890464 0.14309412
0.032937285 -0.053917527 0.06811833 -0.21505377 0.29420778 0.07766932 0.077483565 -0.04519594
0.058601625 0.24941345 0.20856223 0.07612695 0.19632745 0.20686787 0.18993618 -0.042096898
-0.14323467 0.21340826 0.22197507 -0.18503277 0.07996287 -0.15113959 0.1366308 0.40133157
00000000: eba6 acbb ad64 4f3b e176 b63f 23a1 753f
00000010: 4f03 4ec0 81bd 7a3e ccee 513c 76b6 9abb
00000020: 7f7c 803c bdf2 bd3e 5616 4c3e 6bcd 24bc
00000030: 4a3e 133c dff7 503c 9a77 4a3c b88a 4fb9
00000040: da87 a73a 8ec0 883a 758f b43c 6ed5 ec3b
00000050: 63ff 6cbc 92cb ff3c a8d5 07bb 0fca cfbb
00000060: 58e2 f73b e24c 0d3d bc94 bd3d 0782 8cbc
00000070: 9de9 0abd ad4e d93b 7c95 1a3c 0f82 823e
00000080: d70b b8bd c1b1 10bb 891f 0dbd 2747 ec3c
00000090: 89b8 67be 6175 c93c 3145 743c 8b31 1cbc
000000a0: 8933 a73d 6528 2e3d ba60 e2bd 3419 f93d
000000b0: a42d 06be 4acc 063e eeaf 31bc 1537 3cbd
000000c0: e028 cfbd f442 f03d ec5d 75bd fb39 ad3c
000000d0: 3e8c d2bd 6087 e9bd 5791 9abd ce5d 91bd
000000e0: 7f36 a6be 2573 5c3f 5c84 e43d a36d c13d
000000f0: 1a74 f03d 5aa5 c13d 77b0 d5be e7f7 89be
00000100: b4aa 023f 66ac 5a3e 13cc a13e 3963 1f3f
00000110: bf63 afbe 1247 943e 121b c6be 4a2b 413f
00000120: c417 ae3d 445e 68be acbb 913f 03f1 07bd
00000130: 67ee 8b3d 955a 2e3f 4498 b1be 7062 8f3c
00000140: 3f04 2a3e 9efd bebd ae9a cfbc bce7 b63e
00000150: 371e ecbb a1a2 e53d e57e d43d a67f d3bd
00000160: 2f26 473e 41c5 37bd 968b a33d be8b 09bd
00000170: dc5d 943b 8133 6d3e 08d8 07bd b70c 863e
00000180: 7eff d2bc bf44 2dbe 390e 14be 5020 243e
00000190: bd2a 1cbe fc75 523e c525 043e 6746 97bb
000001a0: f1d4 4abe af5b 553c c0db 3fbd 6c3f ce3c
000001b0: a897 19be facc cbbc ff41 f4bd b4b7 ecbd
000001c0: 6289 0dbe e639 533e 65fe 70bd 44cc aabd
000001d0: 1daa 74bd a0a9 8ebd a511 c7be fada 46bd
000001e0: d2fc b63d 1816 c5bd 189c 293b acef ed3d
000001f0: 14eb 053d 8ca1 5dbe 6053 4dbd 0c1a 14be
00000200: ffb0 d1be f072 993e dc3e dbbd 6e2c 41be
00000210: 6762 903c fa3a 20be a27c b7bd cf99 aa3e
00000220: 1764 99bd 23c3 583d 569b 9e3d c5c3 143d
00000230: 6b67 bb3d 6722 bfbd b1a1 9c3d fbc5 3fbc
00000240: 266d 65bd c94e bbbd af82 cbbd a739 b33c
00000250: 5526 813c 254f 95bd e388 c83d 89de 8ebd
00000260: 5c99 a13d bd12 97bb 7e74 3abc 70fc 8d3c
00000270: 9e00 34bd 191b 0a3d 6359 d93c fe77 783c
00000280: 950a cebc 97d2 2f3d a853 ffbc 9137 5abc
00000290: a4b0 d6bc 8cf8 18bc 396a 14bd a028 7a3b
000002a0: eb6f a7bd e371 19bf 162d 153e f0d6 043e
000002b0: 4f71 223e fb62 e63c bd92 0f3f 87ff 30bf
000002c0: 4112 933e 219c f73d a864 c53e d855 3c3f
000002d0: 94c5 1e3f 5a9b 13be 5174 2fbf 3e2a 0ebf
000002e0: fb14 01bf 6b78 313f 03a2 c03e 0952 15bf
000002f0: 1743 b4bd 9bb9 5e3e 0166 cb3e 7dc3 bbbf
00000300: 46e1 313d 5291 38bd aa63 c2bd af39 663d
00000310: a1b3 6fbd cec3 ae3d 629e 04bd 8e06 d1bd
00000320: feac 093e 774f 183d 43b5 ee3d 2bb4 0bbd
00000330: 3f58 cf3d 7f91 b93c bc6d 7dbd 8e23 913d
00000340: 8675 ff3c cc8c c23b 06a8 4abd 550b be3c
00000350: a634 df3c 65ed 8f3d eb50 f13c 804a 863d
00000360: dae7 76bd 0d6d 68bc 082f e0bc 27a3 2f3d
00000370: 320f 033d 2cd2 a8bc 1fa1 febc e6aa 293d
00000380: 3ade fe3c a4ff 9d3c 5d1e 3e3f e945 a4bd
00000390: 4a46 8c3c 379d 6a3d 3710 40bd 4487 123e
000003a0: 3fe9 063d a0d8 5cbd 9f81 8b3d 0e37 5cbe
000003b0: 67a2 963e 1811 9f3d b4af 9e3d 611f 39bd
000003c0: 4208 703d 3d66 7f3e 5691 553e 72e8 9b3d
000003d0: 100a 493e 2cd5 533e a17e 423e cc6d 2cbd
000003e0: 1cac 12be b287 5a3e 6f4d 633e 3b79 3dbe
000003f0: 93c3 a33d 56c4 1abe f2e8 0b3e 557b cd3e

final.linears.0.bias f4 [112]
-0.17653468 0.2500127 -0.19384386 0.039782785 0.19962832 0.3316384 -0.43312445 0.1404013
-0.177036 0.18904988 0.13465078 -0.15015152 0.22137606 0.062211145 0.046462536 0.39677203
0.22929807 -0.10778619 0.14740485 -0.019333875 0.1459511 0.44504428 0.25264797 0.31518105
0.24056612 0.30078903 -0.049202576 -0.6490012 0.36447564 -0.031845767 -0.28581694 0.16058765
0.043830864 -0.5925025 0.21204111 0.101369366 0.09217429 -0.22655386 0.22675805 -0.17023827
0.47379282 0.23356107 -0.09513528 -0.0445155 0.117669 -0.028980687 0.36140066 0.41233316
-1.1765497 0.071467444 -0.17791036 0.25725308 0.8897842 0.25594687 0.24184719 -0.26737836
-0.14731121 -0.14174065 0.21320677 -0.05849407 0.31541952 0.048133574 -0.119432665 0.12898651
-0.084031515 -0.021202896 0.0886034 -0.01609036 0.22943504 0.21953888 -0.13784009 0.06072648
-0.16231807 0.006506359 -0.35107547 -0.06847006 -0.08097075 0.123234876 -0.24404109 -0.2966388
0.2255064 0.08828162 0.21633498 0.14347021 -0.07525434 -0.011236508 0.13765348 0.04110234
-0.057375617 -0.16620965 0.22475427 -0.059537683 0.041798554 -0.1565646 0.21246895 0.21988869
0.08942385 -0.24625252 0.14756848 0.31587914 0.098724656 0.208495 -0.010483264 -0.25377706
-0.06977459 -0.42393517 0.45210096 0.08747029 0.3728109 0.0044193766 -0.06517624 0.0910649
00000000: 82c5 34be aa01 803e 017f 46be 46f3 223d
00000010: 5e6b 4c3e 82cc a93e 7dc2 ddbe 5cc5 0f3e
00000020: ed48 35be 4b96 413e e5e1 093e 52c1 19be
00000030: 68b0 623e 1dd1 7e3d 804f 3e3d b425 cb3e
00000040: 1dcd 6a3e 02bf dcbd 4cf1 163e 1362 9ebc
00000050: 3574 153e d8dc e33e 135b 813e 695f a13e
00000060: f756 763e 0501 9a3e a488 49bd f124 26bf
00000070: 8d9c ba3e b570 02bd 9956 92be 1771 243e
00000080: fe87 333d 3eae 17bf 4e21 593e be9a cf3d
00000090: e0c5 bc3d bcfd 67be 4333 683e f152 2ebe
000000a0: f994 f23e a22a 6f3e 49d6 c2bd e355 36bd
000000b0: 72fc f03d e868 edbc 8209 b93e 551d d33e
000000c0: 2e99 96bf 865d 923d 222e 36be adb6 833e
000000d0: e6c8 633f 780b 833e caa6 773e d1e5 88be
000000e0: c0d8 16be 7624 11be e052 5a3e 7a97 6fbd
000000f0: ab7e a13e b627 453d 1d99 f4bd 0a15 043e
00000100: b718 acbd b2b1 adbc b375 b53d eecf 83bc
00000110: 05f1 6a3e cdce 603e f425 0dbe 54bc 783d
00000120: b536 26be 4c33 d53b 2ac0 b3be 083a 8cbd
00000130: fed3 a5bd 9162 fc3d e8e5 79be 0ae1 97be
00000140: 26eb 663e fecc b43d eb86 5d3e dbe9 123e
00000150: f31e 9abd 5519 38bc 09f5 0c3e ed5a 283d
00000160: b202 6bbd dd32 2abe fc25 663e c9dd 73bd
00000170: f634 2b3d 7852 20be 7691 593e 802a 613e
00000180: da23 b73d 9f29 7cbe 311c 173e e9ba a13e
00000190: 2730 ca3d b77f 553e ffc1 2bbc 11ef 81be
000001a0: fbe5 8ebd 080e d9be c779 e73e a023 b33d
000001b0: 12e1 be3e 6bd0 903b 1f7b 85bd 3c80 ba3d

final.linears.1.weight f4 [112, 112]
0.020323634 -0.2044301 -0.03295458 -0.30195603 -0.23618118 -0.22193456 -0.1086222 -0.1283918
-0.11167722 -0.34247825 -0.07446447 -0.038473 -0.22172846 -0.33578688 -0.020636776 -0.14759134
-0.030849867 0.002791256 -0.020070832 0.07039485 -0.07692437 -0.3734696 -0.21547055 -0.1351648
-0.12189139 0.039264917 0.00707355 0.019492425 -0.30197167 -0.177729 0.018110061 -0.13103773
-0.28422037 0.20840032 -0.3886686 -0.0755305 -0.030133316 -0.1843786 -0.34969312 0.009350089
-0.31455588 -0.14843467 0.022555612 0.0021041671 -0.25452626 -0.010435873 -0.3458437 -0.28900054
0.058733296 -0.013844815 -0.021071786 -0.24901159 -0.29560533 -0.37070757 -1.551191 -0.33826703
0.04283158 -0.13919029 0.03915156 -0.05641795 -0.2846984 -0.30687279 -0.008514516 -0.009830121
-0.05705561 -0.36590794 -0.023597177 0.15463321 -0.027023267 -0.30531716 0.008629307 -0.3851781
-0.017150816 -0.24136284 0.09989542 -0.008635846 -0.23555419 -0.16987929 -0.05208546 0.10478337
-0.13674262 -0.3136015 -0.051650878 0.023211539 0.019904688 -0.008742255 -0.18813518 0.010573172
-0.35931093 -0.299157 -0.001599368 -0.30829692 0.022634702 -0.035323806 -0.011419674 -0.3490974
-0.012631433 0.031142231 -0.3813767 -0.17185225 -0.5260674 -0.3683125 -0.13079685 0.013433968
-0.2554733 -0.029481137 -0.2162294 -0.041546375 -0.29008043 -0.047517363 -0.25047946 -0.41226265
0.06530067 -0.16258404 0.09784106 -0.35291278 -0.27811122 -0.23147558 0.11663116 -0.034997977
-0.013974832 -0.14424351 -0.19420984 -0.003100189 -0.06276889 -0.25453028 -0.024184683 -0.21213557
-0.051910028 0.03465665 0.063409254 -0.21284235 0.040049057 -0.3125863 -0.22020128 -0.050869823
-0.048856527 -0.0021269226 0.018417243 0.041026868 -0.21359031 0.00059834705 0.20338416 -0.107539825
-0.30687055 0.2408635 -0.16965581 -0.064880565 0.035248216 -0.13242282 -0.3658936 0.23295705
-0.22802943 -0.17258473 0.08576977 0.0135575505 -0.22861677 -0.022704832 -0.3736511 -0.21359134
-0.039632462 -0.022626277 0.11238511 -0.8167502 -0.3053626 -0.32435885 -0.2988454 -0.30631602
0.087361515 -0.050265208 -0.046519525 -0.321756 -0.13821296 -0.29476458 0.09278905 -0.020436903
-0.0043143695 -0.3645001 -0.116909705 -0.052364204 -0.07857437 -0.29206908 0.0077854283 -0.2662758
-0.019023312 -0.14527695 -0.0073521794 0.008078338 -0.21990983 0.28199768 -0.047042627 0.015847912
-0.17690633 -0.32333985 -0.026055988 -0.038649987 0.07236432 -0.18836348 -0.17334181 -0.019178923
-0.31586173 -0.4223544 0.014008099 -0.23608293 -0.019568594 -0.058696322 0.013043858 -0.30753255
-0.02957247 0.04464942 -0.29373866 -0.10667523 -0.29590535 -0.5419359 -0.06760916 -0.014524984
-0.21844326 -0.011910524 -0.23158616 -0.041091874 -0.29468265 0.03000942 -0.27932632 -0.23619914
0.03330567 -0.023378888 -0.015513289 -0.054054692 -0.11532715 -0.042533092 -0.0335145 0.97578734
-0.03778191 -0.007372731 -0.07162323 -0.019491795 -0.0059067337 -0.02425849 -0.019956214 -0.009886906
-0.101423934 0.015335366 -0.057228256 -0.0042704935 -0.017782513 -0.06496883 -0.054443225 -0.18825138
0.023674523 -0.022397626 -0.085211925 0.22383171 -0.05287842 0.006867734 0.045007415 -0.08793218
00000000: c07d a63c 2056 51be 62fb 06bd fb99 9abe
00000010: 7bd9 71be d042 63be 5175 debd 2479 03be
00000020: 07b7 e4bd 4f59 afbe d480 98bd dd95 1dbd
00000030: c90c 63be 42ec abbe 750e a9bc 2f22 17be
00000040: dcb8 fcbc 81ed 363b 966b a4bc 2d2b 903d
00000050: 868a 9dbd 6837 bfbe 50a4 5cbe a468 0abe
00000060: 31a2 f9bd 40d4 203d 3dc9 e73b 94ae 9f3c
00000070: 089c 9abe 97fe 35be 8d5b 943c c12e 06be
00000080: 5585 91be e566 553e 92ff c6be bcaf 9abd
00000090: 25da f6bc becd 3cbe fa0a b3be 1e31 193c
000000a0: 780d a1be 42ff 17be 8cc6 b83c 11e6 093b
000000b0: 4451 82be 39fb 2abc 6d12 b1be e1f7 93be
000000c0: 5392 703d 5dd5 62bc bd9e acbc e5fc 7ebe
000000d0: 9559 97be 62cd bdbe 6d8d c6bf 5631 adbe
000000e0: 2b70 2f3d e687 0ebe 635d 203d 8216 67bd
000000f0: fdc3 91be 6e1e 9dbe 7880 0bbc 840e 21bc
00000100: 25b3 69bd 4958 bbbe de4e c1bc 2b58 1e3e
00000110: e65f ddbc 8852 9cbe f061 0d3c 1036 c5be
00000120: de7f 8cbc d227 77be f895 cc3d 5d7d 0dbc
00000130: 1e35 71be d6f4 2dbe 9057 55bd aa98 d63d
00000140: 4206 0cbe 6090 a0be df8f 53bd 2026 be3c
00000150: 280f a33c ad3b 0fbc 82a6 40be 193b 2d3c
00000160: 9af7 b7be 1b2b 99be e3a1 d1ba 18d9 9dbe
00000170: 696c b93c b2af 10bd 9619 3bbc e5bc b2be
00000180: 12f4 4ebc fe1d ff3c cf43 c3be 09fa 2fbe
00000190: 5aac 06bf 7593 bcbe 9cef 05be 251a 5c3c
000001a0: 65cd 82be 6d82 f1bc 3d6b 5dbe 882c 2abd
000001b0: 6c85 94be 91a1 42bd d83e 80be 1714 d3be
000001c0: 5cbc 853d 6e7c 26be e560 c83d fcb0 b4be
000001d0: 9864 8ebe ef07 6dbe 51dc ee3d 0a5a 0fbd
000001e0: b2f6 64bc 92b4 13be f2de 46be 8a2c 4bbb
000001f0: fa8c 80bd cb51 82be f51e c6bc 113a 59be
00000200: 9c9f 54bd 22f4 0d3d b6dc 813d 58f3 59be
00000210: 7b0a 243d 500b a0be 727c 61be e05c 50bd
00000220: c81d 48bd d763 0bbb c2df 963c ca0b 283d
00000230: 6bb7 5abe 64da 1c3a f043 503e d73d dcbd
00000240: 231e 9dbe eca4 763e 41ba 2dbe 1ae0 84bd
00000250: 6f60 103d d999 07be 6856 bbbe 4b8c 6e3e
00000260: 8c80 69be 0dba 30be 10a8 af3d 7d20 5e3c
00000270: 841a 6abe 7cff b9bc 324f bfbe b0b7 5abe
00000280: a655 22bd be5a b9bc 2a2a e63d 8b16 51bf
00000290: 7d58 9cbe 5d12 a6be 4402 99be 74d5 9cbe
000002a0: 98ea b23d e4e2 4dbd 428b 3ebd 34bd a4be
000002b0: b387 0dbe 62eb 96be 2f08 be3d 4b6b a7bc
000002c0: 8e5f 8dbb c29f babe 5b6e efbd d97b 56bd
000002d0: 99eb a0bd 148a 95be e81c ff3b 4d55 88be
000002e0: c7d6 9bbc 7bc3 14be 8dea f0bb 015b 043c
000002f0: 0b30 61be 0062 903e c5af 40bd 7bd3 813c
00000300: ef26 35be cd8c a5be 5e73 d5bc 734f 1ebd
00000310: bf33 943d 5be2 40be 8480 31be 1e1d 9dbc
00000320: a1b8 a1be d63e d8be 3a82 653c b9bf 71be
00000330: 514e a0bc 8e6b 70bd e8b5 553c e874 9dbe
00000340: f741 f2bc 4fe2 363d ea64 96be 8b78 dabd
00000350: e880 97be 50bc 0abf ac76 8abd 33fa 6dbc
00000360: 97af 5fbe 5c24 43bc ec24 6dbe f44f 28bd
00000370: a5e0 96be 51d6 f53c dc03 8fbe 30de 71be
00000380: 876b 083d 1585 bfbc 732b 7ebc 7468 5dbd
00000390: a430 ecbd 2e37 2ebd 8046 09bd 33cd 793f
000003a0: 34c1 1abd f396 f1bb 33af 92bd 42ad 9fbc
000003b0: 468d c1bb beb9 c6bc 377b a3bc b0fc 21bc
000003c0: 5ab7 cfbd 3041 7b3c 2d68 6abd 7fef 8bbb
000003d0: a2ac 91bc 610e 85bd dcff 5ebd f8c4 40be
000003e0: 13f1 c13c 3a7b b7bc 9783 aebd 2434 653e
000003f0: 0b97 58bd ba0a e13b b259 383d c915 b4bd

final.linears.1.bias f4 [112]
-0.26283902 -0.28209808 -0.046906337 -0.26245046 -0.30755058 -0.20173371 -0.25535223 -0.2823899
-0.4442458 -0.22831358 -0.31292784 -0.14880781 -0.16991307 -0.24102777 -0.17448168 -0.041120768
-0.3842263 -0.0341785 0.06489553 -0.05613514 -0.4091668 -0.30917576 -0.19532235 -0.04615615
-0.2081718 -0.61673373 0.03398366 -0.30479062 -0.35650697 -0.1332545 -0.22952923 -0.10508373
-0.25075102 -0.23615947 -0.1335716 -0.041129746 -0.17662773 -0.20157674 0.107029274 -0.18931524
-0.0678046 -0.26052862 -0.44874543 -0.3316271 -0.25589624 -0.41248128 -0.25865734 -0.33995607
-0.18754297 -0.21134111 -0.073091015 -0.27052018 -0.21024586 0.0074705547 -0.31446755 -0.2187673
-0.2660989 -0.11944267 -0.2608306 -0.20244883 -0.32063067 -0.17483997 -0.72393185 0.114320174
-0.19159362 -0.24727207 -0.28667566 -0.2885224 -0.14010336 -0.1848832 -0.23653747 -0.35200652
-0.23458047 -0.25192672 -0.34848535 -0.20794638 -0.27184036 -0.20601875 -0.021532347 0.18172014
-0.102600135 -0.05125427 -0.07679365 0.05732057 -0.05062034 -0.35248926 0.1346157 -0.46772584
-0.15469168 -0.2572568 -0.30875632 -0.14296566 -0.31363916 -0.17251506 -0.24311407 -0.49067417
-0.14335173 -0.23144422 -0.14999445 -0.10785639 -0.16125692 -0.1062162 -0.1719233 -0.18554851
-0.047682982 0.038089283 -0.43222937 -0.15730868 -0.21865478 -0.09100673 -0.36092305 -0.31051075
00000000: d692 86be 296f 90be dc20 40bd e85f 86be
00000010: 4577 9dbe 4893 4ebe 87bd 82be 6995 90be
00000020: 2f74 e3be 09cb 69be 1438 a0be 1361 18be
00000030: b1fd 2dbe fccf 76be 53ab 32be 406e 28bd
00000040: 4fb9 c4be c1fe 0bbd f3e7 843d f6ed 65bd
00000050: 507e d1be 494c 9ebe 9502 48be 3b0e 3dbd
00000060: fd2a 55be 43e2 1dbf 7332 0b3d 840d 9cbe
00000070: 1588 b6be de73 08be b609 6bbe 2336 d7bd
00000080: 7062 80be cad3 71be fec6 08be aa77 28bd
00000090: e6dd 34be 226a 4ebe 2a32 db3d dbdb 41be
000000a0: 23dd 8abd 0264 85be f6c1 e5be 07cb a9be
000000b0: d504 83be bf30 d3be bc6e 84be b90e aebe
000000c0: 440b 40be ce69 58be beb0 95bd 9f81 8abe
000000d0: b14a 57be 8ecb f43b e401 a1be 8904 60be
000000e0: 1d3e 88be 5c9e f4bd 978b 85be bf4e 4fbe
000000f0: b429 a4be 4009 33be 9953 39bf b220 ea3d
00000100: 1e31 44be e434 7dbe 27c7 92be 35b9 93be
00000110: 4177 0fbe 0652 3dbe e136 72be 333a b4be
00000120: dd35 70be 8afc 80be ac6c b2be e5ef 54be
00000130: a92e 8bbe 94f6 52be 9b64 b0bc d814 3a3e
00000140: 0520 d2bd ffef 51bd fd45 9dbd f9c8 6a3d
00000150: 4657 4fbd 7979 b4be b3d8 093e c379 efbe
00000160: 7f67 1ebe 2ab7 83be 4f15 9ebe 9765 12be
00000170: 5095 a0be caa7 30be e5f2 78be a539 fbbe
00000180: ccca 12be b7ff 6cbe 2598 19be d0e3 dcbd
00000190: 8920 25be e187 d9bd a90c 30be 6e00 3ebe
000001a0: 3b4f 43bd 8203 1c3d 2b4d ddbe 8715 21be
000001b0: 0ae7 5fbe bd61 babd e8ca b8be 44fb 9ebe

final.linears.2.weight f4 [24, 112]
0.35938674 0.31679717 -0.1935161 -0.2640255 0.06273844 -0.02185463 -0.12340188 -0.11911476
-0.013473033 -0.109794125 0.0014874995 0.3444493 -0.20053583 0.33424813 -0.24087732 -0.115176395
0.22624876 0.27481303 0.26667985 -0.021427704 -0.31934065 -0.2764961 -0.4483602 -0.047527406
-0.016233526 0.007086239 0.013546416 0.15982458 0.26692834 -0.0696746 -0.63514036 0.3016726
-0.043735463 -0.29777873 -0.0011268464 -0.29608178 0.017834574 0.41067955 0.010231096 0.042398237
-0.3602421 0.8394769 -0.17509659 -0.43028224 0.28422654 0.0028774058 -0.008393364 0.33074656
0.019565564 -0.010242911 0.015312245 0.404417 -0.053520966 0.00858549 -0.50818914 -0.22008993
-0.6090547 0.23982751 0.14991459 0.05957302 -0.3901162 0.5571701 -0.039213646 0.021688862
-0.25082266 0.5861156 -0.0057178847 0.54449046 0.013791315 -0.10270062 0.13663402 -0.23319566
-0.24695209 -0.15766504 -0.028052628 -0.06840386 0.27675077 -0.47092545 -0.39014846 0.0063333525
0.28577805 0.034946274 0.10816893 -0.015348406 0.08214343 0.3188359 0.0032091164 -0.0028539067
-0.08941507 0.09627839 0.27110362 -0.05088412 -0.13242848 -0.23776227 -0.1732119 0.00033833252
-0.2571852 0.013269059 0.8547237 -0.1852637 0.13644275 -0.20233732 0.1542314 -0.16334318
0.004522623 -0.18122196 -0.019107606 0.027474182 0.30916137 0.17679846 -0.33467934 -0.30878544
0.45674813 0.1972722 -0.13838033 -0.3074591 -0.30202106 0.12497419 0.224983 -0.57058835
0.009472531 -0.4911593 -0.00037250514 -0.24566177 -0.35309276 0.0054492927 0.098700754 -0.22861224
-0.4493243 0.49877626 -0.15476803 -0.05716955 0.30959192 -0.57112867 0.13167083 0.061794803
-0.35462743 0.009909243 0.019488595 0.15233418 -0.42513758 -0.1907085 0.16463788 0.095471136
0.1952791 -0.31809023 0.010819367 -0.1007249 -0.0893158 -0.42890593 0.0082821725 -0.0059026065
0.24183127 -0.475105 -0.20529178 0.6103375 0.15097001 -0.0018359182 0.120669544 0.51480216
-0.0052540777 -0.07131454 0.32388717 -0.26853386 -0.05391625 0.01118589 -0.1555726 0.46833125
-0.079985596 0.124553695 0.12700403 -0.11795035 0.35482463 -0.22653504 0.0021521521 0.18987292
0.029558422 0.22429152 -0.024578253 0.44469365 0.051748868 -0.15757963 -0.6236629 -0.43180212
-0.08220144 0.37295762 -0.014294356 0.4226287 0.43552193 0.24712925 0.004913822 0.015377831
-0.19689964 0.019889887 0.13204226 -0.09230285 0.15187803 0.32024598 0.018228903 -0.0005696571
-0.10729561 -0.28221637 0.21121436 -0.27761686 -0.5709947 0.43571278 -0.014569399 0.02033203
0.19747029 0.0057468237 0.4444646 -0.23727524 0.17259894 -0.08354359 -0.17408468 0.25545207
0.014957851 0.1787333 0.0018399429 -0.043705307 0.011585442 -0.047158036 0.23689042 0.19662105
0.060335744 0.052587073 -0.016882794 -0.12649687 0.095013954 -0.11124069 0.061715398 -0.046387233
0.35301405 -0.16134585 0.20425181 -0.0036137532 0.12939543 0.10310874 0.07913259 -0.06768017
0.28850368 -0.12097125 -0.07535209 -0.16754393 0.264832 -0.36536542 -0.10353501 -0.06737055
0.010791948 0.38371697 2.1505678 0.0122649465 -0.0017273594 -0.0029171412 -0.18502831 -0.025484808
00000000: 8a01 b83e 3d33 a23e 1629 46be 5a2e 87be
00000010: 037d 803d 7b08 b3bc 20ba fcbd 70f2 f3bd
00000020: ffbd 5cbc bedb e0bd 33f8 c23a a95b b03e
00000030: 4459 4dbe 9222 ab3e 8ba8 76be 9ae1 ebbd
00000040: c1ad 673e 4bb4 8c3e 438a 883e 2789 afbc
00000050: 9e80 a3be e690 8dbe 788f e5be 19ac 42bd
00000060: 2cfc 84bc ae33 e83b c9f1 5d3c 0ea9 233e
00000070: d5aa 883e 8fb1 8ebd 8f98 22bf d574 9a3e
00000080: f523 33bd 7476 98be b1b2 93ba 0898 97be
00000090: d019 923c 9744 d23e 54a0 273c c6a9 2d3d
000000a0: a771 b8be f5e7 563f 854c 33be f44d dcbe
000000b0: 2486 913e dc92 3c3b 5284 09bc 9d57 a93e
000000c0: f647 a03c e2d1 27bc 36e0 7a3c bf0f cf3e
000000d0: cd38 5bbd 28aa 0c3c af18 02bf 415f 61be
000000e0: 02eb 1bbf 5895 753e 3683 193e d702 743d
000000f0: 50bd c7be b3a2 0e3f 7d9e 20bd d7ac b13c
00000100: d46b 80be ac0b 163f 185d bbbb ba63 0b3f
00000110: f8f4 613c b454 d2bd cae9 0b3e d8ca 6ebe
00000120: 02e1 7cbe f272 21be a0ce e5bc 5317 8cbd
00000130: 47b2 8d3e 241d f1be 8ac1 c7be 0388 cf3b
00000140: 8051 923e d323 0f3d ac87 dd3d e177 7bbc
00000150: d13a a83d 763e a33e 0a50 523b 9c08 3bbb
00000160: 401f b7bd 9b2d c53d 18ce 8a3e de6b 50bd
00000170: 559b 07be f477 73be 765e 31be 3962 b139
00000180: c7ad 83be 7866 593c 2ccf 5a3f c4b5 3dbe
00000190: a6b7 0b3e 8431 4fbe d6ee 1d3e 6f43 27be
000001a0: 8332 943b 4092 39be 8e87 9cbc 8911 e13c
000001b0: 664a 9e3e a80a 353e 175b abbe 2019 9ebe
000001c0: e4da e93e b901 4a3e 93b3 0dbe 476b 9dbe
000001d0: 81a2 9abe 78f2 ff3d f261 663e 1412 12bf
000001e0: ad32 1b3c 3b79 fbbe cb4c c3b9 c28e 7bbe
000001f0: 93c8 b4be fb8f b23b 9f23 ca3d 5419 6abe
00000200: d60d e6be 9a5f ff3e 837b 1ebe 9e2a 6abd
00000210: d582 9e3e 7d35 12bf b8d4 063e 8c1c 7d3d
00000220: ba91 b5be 615a 223c 8ca6 9f3c 7efd 1b3e
00000230: a2ab d9be 1749 43be d596 283e 5f86 c33d
00000240: 3ff7 473e b9dc a2be b743 313c db48 cebd
00000250: 34eb b6bd 8f99 dbbe f3b1 073c a76a c1bb
00000260: 9ea2 773e f640 f3be 0238 52be 143f 1c3f
00000270: e297 1a3e 31a3 f0ba 9821 f73d 13ca 033f
00000280: 662a acbb 5c0d 92bd 8ad4 a53e 457d 89be
00000290: 49d7 5cbd 0645 373c 6c4e 1fbe 1dc9 ef3e
000002a0: 7dcf a3bd 0216 ff3d 580d 023e f48f f1bd
000002b0: 93ab b53e cdf8 67be 1f0b 0d3b 0c6e 423e
000002c0: 8124 f23c adac 653e 5558 c9bc e3ae e33e
000002d0: 9ff6 533d 8e5c 21be 5fa8 1fbf 2b15 ddbe
000002e0: 3b59 a8bd 4df4 be3e e032 6abc ca62 d83e
000002f0: bbfc de3e 730f 7d3e 2004 a13b 4cf3 7b3c
00000300: 0fa0 49be 1ef0 a23c 1636 073e 4709 bdbd
00000310: ea85 1b3e 48f7 a33e c854 953c 0a55 15ba
00000320: cdbd dbbd aa7e 90be 9448 583e cc23 8ebe
00000330: b52c 12bf bf15 df3e 7db4 6ebc 5b8f a63c
00000340: a735 4a3e da4f bc3b dd90 e33e 48f8 72be
00000350: c7bd 303e e718 abbd 4143 32be 9dca 823e
00000360: c611 753c dd05 373e 3d2a f13a 5604 33bd
00000370: ded0 3d3c c928 41bd 6793 723e 0757 493e
00000380: 9d22 773d 8b65 573d c94d 8abc 6588 01be
00000390: ad96 c23d 29d2 e3bd 49c9 7c3d 8a00 3ebd
000003a0: 42be b43e d937 25be 6327 513e b8d4 6cbb
000003b0: 3c80 043e ad2a d33d 4410 a23d e79b 8abd
000003c0: c1b6 933e c6bf f7bd 3252 9abd a390 2bbe
000003d0: 0f98 873e 2d11 bbbe 2a0a d4bd 92f9 89bd
000003e0: b6d0 303c 8d76 c43e e7a2 0940 eaf2 483c
000003f0: 9068 e2ba 822d 3fbb 1078 3dbe 84c5 d0bc

final.linears.2.bias f4 [24]
0.058880374 0.120025195 0.18209217 -0.10826292 -0.1237976 0.103264354 0.064237475 0.021915026
-0.040618785 0.0027026 0.05662422 -0.0111070145 0.02847477 0.028293686 -0.08564254 0.036229715
0.0068813637 -0.014331596 0.01421814 -0.01575988 -0.07543514 -0.093161546 -0.0007503099 -0.0066973246
00000000: 8c2c 713d c5cf f53d 5f76 3a3e f3b8 ddbd
00000010: 9989 fdbd 437c d33d f08e 833d 2487 b33c
00000020: e25f 26bd 1b1e 313b ccee 673d 32fa 35bc
00000030: ec43 e93c 29c8 e73c 5b65 afbd 9c65 143d
00000040: 107d e13b 12cf 6abc 34f3 683c dd1a 81bc
00000050: bd7d 9abd 7bcb bebd 72b0 44ba 3b75 dbbb

layers.0.attn.0.gnn_q.weight f4 [24, 16]
1.0257973e-33 -1.0130671e-33 -1.00949095e-33 7.982079e-34 1.0575829e-33 -1.012137e-33 -1.0519469e-33 1.0431182e-33
1.0609447e-33 -1.0930879e-33 -1.0611485e-33 -1.0388179e-33 9.236965e-34 -1.07318465e-33 -1.0603088e-33 -1.0905674e-33
1.0172598e-33 -4.1210463e-34 9.756063e-34 -1.0489732e-33 -9.828016e-34 1.06352e-33 -1.04718685e-33 -5.6235057e-34
-1.0367207e-33 -1.044622e-33 9.861155e-34 9.622968e-34 8.587289e-34 9.781864e-34 -1.0051035e-33 -1.06093995e-33
1.0553114e-33 -1.3327752e-34 -9.762634e-34 -9.5805425e-34 -1.0376935e-33 -1.0112897e-33 9.965401e-34 1.045462e-33
1.0337749e-33 -1.0452483e-33 -1.019585e-33 1.5873546e-35 -1.2904282e-34 1.049394e-33 -9.809765e-34 -2.0519291e-35
1.0006484e-33 -1.0639765e-33 1.0628473e-33 -1.04732745e-33 1.11407505e-33 -1.0403938e-33 -1.0199608e-33 1.0274527e-33
-8.2070995e-34 5.3100368e-34 1.0178588e-33 -1.0548349e-33 1.0138793e-33 -1.00082e-33 7.0578343e-34 1.0380794e-33
-1.0624526e-33 1.0376346e-33 -9.99787e-34 8.655896e-34 1.2228616e-34 -1.0465083e-33 -1.0618192e-33 1.0073595e-33
-8.183251e-34 1.0552593e-33 -7.748719e-34 3.981412e-35 1.4206179e-34 9.649691e-34 1.6689033e-34 8.944029e-34
-1.0756119e-33 1.0650123e-33 -1.0615488e-33 -9.792683e-34 1.0743454e-33 9.581938e-34 -9.547119e-34 -9.368918e-34
1.058031e-33 -1.0594991e-33 9.877868e-34 -1.0313075e-33 -8.556743e-34 -9.319666e-34 -1.041055e-33 -1.0811067e-33
6.4942357e-34 -8.67296e-34 -1.0109965e-33 1.0341633e-33 -1.0531043e-33 -7.1300377e-34 -5.8251903e-34 -1.0650678e-33
-9.888978e-34 -1.0561226e-33 1.0454217e-33 1.0253657e-33 -1.0598277e-33 1.0819648e-33 -1.053493e-33 1.0706206e-33
-1.0365923e-33 8.722688e-34 9.844641e-34 -1.043899e-33 -1.0915999e-33 -8.093015e-34 -1.0454092e-33 1.0776612e-33
-1.07441745e-33 1.048799e-33 1.0211478e-33 -1.0513669e-33 -1.06297245e-33 1.0727659e-33 9.031702e-34 9.136736e-34
-9.91128e-34 1.057264e-34 1.0120027e-33 -1.0546552e-33 1.0610826e-33 -1.0630528e-33 -9.578887e-34 1.02470175e-33
-1.0886891e-33 -1.0574276e-33 9.452817e-34 3.160409e-34 1.0578489e-33 1.046232e-33 -4.8376166e-34 -1.0847569e-33
-1.0609265e-33 -1.047319e-33 -1.0442149e-33 1.0514063e-33 1.05697385e-33 -9.267536e-34 -1.066211e-33 -5.527362e-34
1.0593248e-33 -1.0194512e-33 -1.0705032e-33 -1.081827e-33 1.0698421e-33 -9.958212e-34 -1.0392675e-33 1.0791104e-33
-1.0539034e-33 1.0535553e-33 -1.0361739e-33 9.668927e-34 -8.346323e-34 8.6329765e-34 1.03727385e-33 -9.168465e-34
-1.0542516e-33 -1.0626914e-33 -1.0382713e-33 -1.0521357e-33 -1.009317e-33 9.815949e-34 -1.0400687e-33 1.0829963e-33
1.0638334e-33 -1.0533731e-33 1.0067476e-33 -1.0343472e-33 -8.754191e-34 6.3376052e-34 1.0758342e-33 -1.0298244e-33
-1.0032668e-33 -6.831578e-34 -1.0593309e-33 9.423871e-34 -1.0571131e-33 -1.0559619e-33 -1.02461745e-33 1.0737195e-33
2.4847508e-34 -1.0637103e-33 -1.0239046e-33 -4.4536395e-34 -2.3592888e-34 1.0601617e-33 1.03496795e-33 1.0584708e-33
-1.0093581e-33 -1.0733252e-33 -1.0041269e-33 -1.0789504e-33 9.921174e-34 -1.0485401e-33 -1.078322e-33 -1.0678636e-33
1.0031578e-33 4.9741976e-34 9.640911e-34 -1.0488644e-33 1.0697529e-33 -1.2152786e-34 1.0564305e-33 1.0731124e-33
1.0724018e-33 -1.0710783e-33 1.0714917e-33 -1.0462785e-33 -1.0542932e-33 -1.0288079e-33 1.8354424e-34 -1.0447056e-33
4.8882776e-34 1.0083023e-33 1.045536e-33 1.9130564e-34 -1.03356645e-33 1.0423249e-33 9.416095e-34 -1.07168525e-33
1.0238895e-33 -9.912899e-34 9.7831895e-34 9.688653e-34 -1.0186812e-33 -1.006575e-33 2.9032066e-34 6.606692e-34
-1.0676423e-33 1.0355861e-33 -1.0557895e-33 -1.0718405e-33 1.2689018e-34 8.788076e-34 7.089274e-34 8.104781e-34
-1.0766643e-33 -1.0435369e-33 -8.4414325e-34 1.0471212e-33 8.478595e-34 -1.0727664e-33 -9.459389e-34 4.850307e-34
00000000: 9770 aa08 1c53 a888 ffba a788 02a0 8408
00000010: 9ab8 af08 8c2b a888 dfc8 ae88 5751 ad08
00000020: 9947 b008 d19e b588 4450 b088 6d9a ac88
00000030: b479 9908 3a50 b288 8c2c b088 9b33 b588
00000040: 7205 a908 fcf1 0888 b419 a208 634a ae88
00000050: c24b a388 23b5 b008 67fe ad88 7fdf 3a88
00000060: 3941 ac88 4e91 ad88 b7d8 a308 94e3 9f08
00000070: 4aae 8e08 7387 a208 6000 a788 6547 b088
00000080: fc57 af08 fd27 3187 a735 a288 1f2f 9f88
00000090: 9a6a ac88 8207 a888 2194 a508 09b5 ad08
000000a0: ecc3 ab08 f2ab ad88 5a68 a988 e7cb a805
000000b0: ff86 2b87 495c ae08 20fe a288 d332 da85
000000c0: e042 a608 8ec8 b088 8698 b008 6204 ae88
000000d0: 831b b908 75dd ac88 5678 a988 01b7 aa08
000000e0: 245d 8888 cc74 3008 ed1e a908 b743 af88
000000f0: a875 a808 2d4a a688 6a89 6a08 047b ac08
00000100: bc87 b088 1868 ac08 3c1e a688 1cd2 8f08
00000110: d38b 2207 8ae1 ad88 cb6c b088 5660 a708
00000120: b3f7 8788 c455 af08 68bf 8088 2cb0 5306
00000130: 1fd5 3c07 3f55 a008 d6d5 5d07 b19b 9408
00000140: 78b7 b288 9df4 b008 4b61 b088 78b5 a288
00000150: 9981 b208 0f35 9f08 f4a0 9e88 f8aa 9b88
00000160: a9cb af08 1c0a b088 ce1f a408 f85a ab88
00000170: 5c2c 8e88 7ad9 9a88 95f9 ac88 31a1 b388
00000180: d9ce 5708 b11a 9088 09fb a788 71d4 ab08
00000190: 1afa ae88 a7ef 6c88 3d93 4188 f9f6 b088
000001a0: 0f4f a488 7d7a af88 52b3 ad08 3c5e aa08
000001b0: 1618 b088 b1c5 b308 a30a af88 2ae3 b108
000001c0: c33b ac88 36ee 9008 7992 a308 8e72 ad88
000001d0: 865f b588 e177 8688 cab2 ad88 a30e b308
000001e0: aa84 b288 fa42 ae08 d3aa a908 34b0 ae88
000001f0: d99d b088 6a3e b208 9d10 9608 60cf 9708
00000200: ecad a488 d488 0c07 d625 a808 123c af88
00000210: 764d b008 44a1 b088 1428 9f88 fe41 aa08
00000220: b7e3 b488 ffb1 af88 d60f 9d08 930b d207
00000230: eac3 af08 cad5 ad08 e4c1 2088 753c b488
00000240: d346 b088 0604 ae88 fd7f ad88 e1b1 ae08
00000250: b29e af08 bdfb 9988 9a27 b188 98ad 3788
00000260: b202 b008 a962 a988 2cde b188 d5bf b388
00000270: 0dc2 b108 8d75 a588 8dad ac88 484c b308
00000280: 181c af88 490d af08 f729 ac88 11a7 a008
00000290: 55ad 8a88 9f70 8f08 c058 ac08 5656 9888
000002a0: e72a af88 e591 b088 2d83 ac88 e7d0 ae88
000002b0: 99b3 a788 6e18 a308 a1cf ac88 91f1 b308
000002c0: 78c2 b008 8905 af88 4f46 a708 44dc ab88
000002d0: 3674 9188 629a 5208 edc0 b208 e31b ab88
000002e0: 40b2 a688 a304 6388 f402 b088 b794 9c08
000002f0: 9ea4 af88 a773 af88 683e aa88 fa66 b208
00000300: d823 a507 3bbd b088 1620 aa88 60ff 1388
00000310: 38cd 9c87 4b26 b008 abf6 ab08 5ede af08
00000320: 58b5 a788 3456 b288 d6d6 a688 7945 b388
00000330: 02d8 a408 f737 ae88 bf2a b388 e56d b188
00000340: 9dad a608 cb4b 2508 e62f a008 c245 ae88
00000350: 42be b108 ca89 2187 9587 af08 274d b208
00000360: ee2e b208 a2f6 b188 3708 b208 c4d7 ad88
00000370: ac2c af88 a6f0 aa88 def8 7307 dd94 ad88
00000380: de70 2208 7088 a708 2fb8 ad08 f049 7e07
00000390: 0ebb ab88 992f ad08 a473 9c08 7310 b288
000003a0: 711f aa08 cfb4 a488 168d a208 f9fa a008
000003b0: e841 a988 f73e a788 80f3 c007 858b 5b08
000003c0: 7b64 b188 f610 ac08 526c af88 0e17 b288
000003d0: 7eaa 2807 5704 9208 e094 6b08 eda9 8608
000003e0: 3ce4 b288 2763 ad88 e241 8c88 9cfb ad08
000003f0: f4df 8c08 703e b288 ca2b 9d88 d92d 2108

layers.0.attn.0.gnn_q.bias f4 [16]
-1.0297763e-33 -1.0064227e-33 -9.9765895e-34 -9.982307e-34 9.9397e-34 1.0335375e-33 1.0071475e-33 -9.717258e-34
9.336014e-34 9.9495835e-34 -9.796197e-34 9.539879e-34 9.872314e-34 1.0196809e-33 -9.52415e-34 1.0359904e-33
00000000: d719 ab88 7d38 a788 b8c3 a588 0adc a588
00000010: cf26 a508 d3b9 ab08 5157 a708 a574 a188
00000020: 031f 9b08 d950 a508 6ac4 a288 2882 9e08
00000030: 2e08 a408 6e6c a908 413f 9e88 2822 ac08
