checkpoints/cyp1a2_veith_40_train1_neg/Sep06-05:08:19_100.pth (torch, 471814 bytes, 294 tensors)

layers.0.weight f4 [24, 16]
00000000: 35c9 273f 5f1d 103f 216f 0d3e 5766 ca3e
00000010: 39bf fe3e 7185 0cbd 8a9e d6be aded 063e
00000020: 0a90 063e 7266 82bf 9ce8 1f3f 5e9c 983e
00000030: 664e 153e 622f 573f 7d65 ad3d bf1e e7be
00000040: d1b9 de3e 196a 13bd 2993 70be ed74 6ebe
00000050: 681d e9be 8b54 173e 82fb 56bf 0f03 1ebe
00000060: 2e9b 6bbe 42df 3abf 1e2b bd3c 4cf6 32bf
00000070: 4acd 5abe be20 51bf 4d00 913e 27db 69bf
00000080: 272b 383e 163c da3d 8a26 153d a896 733e
00000090: f430 11be 83f1 8b3e 51d1 433d 1873 b63d
000000a0: ee4c 683d 07df 8dbe 7f54 813d 8e04 fd3d
000000b0: aa6f 59bd 2721 36be b722 003e 167d 08bd
000000c0: 63a5 3b3e c668 263e 55ba c73d 88e4 223e
000000d0: def0 10be 3ed3 7b3e 06bb 0b3d 6a5b e73b
000000e0: 4b2a 213e a7ad 8cbe 16bc 0c3e 2091 fd3d
000000f0: fa9c f5bd da4a 39be 4ee0 183e ea02 f73a
00000100: 7c12 333e c4b7 793d 9587 403e effd 5c3e
00000110: 2e58 2ebe 3477 bd3d 4d53 9d3c 07ef 733b
00000120: 8887 443e 5889 72be 0133 d6bc 0408 c33d
00000130: 8f36 a8bd a578 29be fa86 7c3d ca87 13ba
00000140: 33c2 56be 4eb7 123d bd52 10bd 21fb 8d3b
00000150: 289e 583e 7bcb 983d 248f 6d3d 4a1d 6e3d
00000160: 3119 24bc 789a a73e ec6c d23c 18c9 eabc
00000170: bff4 ae3d 2822 a23e 0f2a cb3d 0220 ad39
00000180: f43f 343f 2b67 10bf 3093 43be f83a 18bf
00000190: e873 07bf a462 ea3e 2c47 e83c 3e9b 4abe
000001a0: 5987 60be 530a 88bf c22f 13bf d848 92bf
000001b0: 2ca2 7cbe d2d8 81bf 5d62 183f 54d8 8a3d
000001c0: c7cf debc 501f ddbe a1ce 89be a06c d3be
000001d0: ccf1 9fbe c982 28bd 164d 5abf cc0c 3bbe
000001e0: 745b 8dbe cd95 273d 3b91 02bf 7047 c6be
000001f0: 60fb 3bbe eb99 06bf 894d aabd 5c2e 75bf
00000200: df2d 243f 1dcb 25be c27b 0e3e 3d23 38be
00000210: 90e2 69be 759f ff3e 399e 11be 2ff1 8dbc
00000220: 60d1 113e b073 80bf b49e 3cbe 9bb1 0dbf
00000230: 1689 adbd a5ed f1be e9d5 303f f1d8 19be
00000240: fb3d a03e 0c32 843c 284d 973b d68a fe3d
00000250: fa6d 573d 6155 0f3e 56f7 9e3b 33da c03c
00000260: 9f4d 553c f7e0 f6be ac68 493d 8538 0dbe
00000270: 59d4 86bc 752b 373c 9cec 1b3e 99b7 38bd
00000280: 3669 483e b977 9bbe f6e4 533e 6e74 3ebe
00000290: 9857 063f 21f1 763e 8fd3 03bf 501e 2d3d
000002a0: 10de 033e 6d38 adbe ebf9 acbe 3e4a 9abd
000002b0: 469e 293e c8f1 633f 537e 333e f850 1abf
000002c0: ee4d 29bf 25ad 19bc 08e7 643e 935e 95bd
000002d0: 99d4 80bd 223b af3e 9329 653e d76f 1bbd
000002e0: 14c3 6c3e 0b88 883f 2bb7 0abd 976e 1fbe
000002f0: f67c a1bc 7714 16be cbe6 c33e 43a1 593e
00000300: c95e 96bc 8b6c dc3e 28aa 2ebe 42d9 323e
00000310: d557 40be d31c 08bf 455b 10bf 47c0 d5bd
00000320: fa7d 13be 6dcf 8f3b 045b fb3e 136d dc3d
00000330: 41e2 bbbd 48ca aabe 9be9 08bf 6765 1abf
00000340: 90b8 f83b b8a3 cc3e 12dc 883d 800b 003e
00000350: 9573 76bd 76a8 a8be b927 073e 3aea c0bc
00000360: e60a 263d c664 6bbc e17e ce3e 64f3 8ebd
00000370: 9da0 0e3d c2c0 23be 0ea9 c8be 351c e53d
00000380: 1083 51bf 926e 663e 4421 a3bd 5409 753e
00000390: ee9e dfbe 66d7 06bf a23d 55bf dc8d ae3d
000003a0: 00e3 78bd 4e52 a03f 3970 673e 4b99 da3e
000003b0: 4a09 8abb 7fa7 3dbf a87b 27bf 8482 68bf
000003c0: 2123 77be afc2 48be df97 343c a946 1fbe
000003d0: dff1 2dbe acd4 a2bd 1ddb a0bf 32c4 0dbe
000003e0: de5a 93bc 7243 bd3e 201f 4fbe dc55 53bd
000003f0: ffa7 dcbd 3f32 94be 0687 a0bd 7489 aebf
0.6554139 0.56294817 0.13811924 0.39531204 0.49755266 -0.034306947 -0.4191783 0.13176604
0.13140884 -1.0187514 0.6246431 0.298068 0.14580688 0.84056675 0.08466623 -0.45140645
0.43501142 -0.035989854 -0.23493637 -0.23286791 -0.45530248 0.14778344 -0.8397752 -0.15430854
-0.23008415 -0.72996914 0.023091849 -0.6990707 -0.21367374 -0.81690586 0.28320542 -0.91350025
0.17985211 0.10655992 0.036413707 0.2378794 -0.1417883 0.27332696 0.04780704 0.08908671
0.05671399 -0.2770922 0.063149445 0.12354384 -0.053085007 -0.17786084 0.12513243 -0.033322416
0.18324809 0.16250905 0.09752337 0.1590749 -0.14154384 0.24592301 0.034113906 0.007060458
0.1573879 -0.27476236 0.13743624 0.12381196 -0.119928315 -0.1809496 0.14929315 0.0018845473
0.1748752 0.06096627 0.1880172 0.21581243 -0.17025825 0.09251252 0.01920476 0.0037221329
0.19192326 -0.23685205 -0.026147367 0.09523013 -0.08213531 -0.16549928 0.06165216 -0.0005627839
-0.20972519 0.035819344 -0.035235155 0.0043329154 0.21154082 0.07460686 0.057997838 0.0581334
-0.010015772 0.32735038 0.025686704 -0.028660342 0.08542775 0.31666684 0.099201314 0.0003302098
0.70410085 -0.5640742 -0.19099116 -0.5946498 -0.52911234 0.45778382 0.02835425 -0.19785783
-0.21926631 -1.0628151 -0.5749475 -1.142848 -0.24671239 -1.0144293 0.5952509 0.067795426
-0.027198685 -0.43187952 -0.26915458 -0.41293812 -0.31239164 -0.04114035 -0.85273874 -0.182666
-0.27608836 0.040914346 -0.51002854 -0.38726377 -0.1835761 -0.5257861 -0.0831557 -0.95773864
0.64132494 -0.16190763 0.13914397 -0.17982192 -0.22840333 0.49926344 -0.14220513 -0.01732692
0.14240026 -1.0035305 -0.18419915 -0.5534913 -0.08473413 -0.4725162 0.690764 -0.15024163
0.31297287 0.016137145 0.004617352 0.124288246 0.052595116 0.13997413 0.004851262 0.023541545
0.013018995 -0.4821851 0.04917209 -0.13791092 -0.016458677 0.011179795 0.15226978 -0.045096967
0.19571385 -0.3036478 0.2069281 -0.18599102 0.5247741 0.24115421 -0.5149469 0.042265236
0.12877679 -0.33832112 -0.33784422 -0.07533692 0.16564283 0.89040804 0.17528658 -0.602798
-0.66134536 -0.00937966 0.22353756 -0.07293429 -0.0629055 0.34224802 0.2237914 -0.037948456
0.23121291 1.0666517 -0.03386609 -0.1556953 -0.019712906 -0.14656244 0.3826202 0.21252923
-0.018355744 0.43051562 -0.17057097 0.1746569 -0.18783505 -0.5316898 -0.56389266 -0.104370646
-0.14403525 0.0043887408 0.49092877 0.10762992 -0.09174014 -0.33357453 -0.53481454 -0.6031098
0.007590361 0.39968657 0.066826 0.12504387 -0.06016882 -0.32941025 0.13198747 -0.023549188
0.040537737 -0.014367288 0.40331176 -0.06980017 0.03482114 -0.159915 -0.39191478 0.11187021
-0.8184061 0.22503117 -0.07965329 0.2392934 -0.4367594 -0.5267242 -0.8329717 0.08523151
-0.06076336 1.2525117 0.22601403 0.42695078 -0.004212533 -0.74083704 -0.6542306 -0.9082415
-0.24134494 -0.19605516 0.011022537 -0.15554298 -0.16986798 -0.0795072 -1.2566868 -0.13844374
-0.017987665 0.3696552 -0.20226717 -0.051595554 -0.1077423 -0.28944585 -0.07838254 -1.3635697

layers.0.bias f4 [16]
00000000: 65d6 89be dff3 3d3e 1d53 123e 3055 86be
00000010: 8b5a 533e ce94 aebe bc26 983e 2899 c33e
00000020: 9593 99be 2ca0 95be aeeb 87be 4d1c 663e
00000030: c985 aebe e55e dabe 2a80 b53e 86ca b2be
-0.26921383 0.1855006 0.14289518 -0.26236868 0.20640008 -0.34097904 0.29717052 0.38202786
-0.2999541 -0.29223764 -0.26546997 0.22471733 -0.34086445 -0.42650524 0.35449344 -0.34920138

layers.1.weight f4 [16, 16]
00000000: dbd0 acbe 6cac 6e3e beb6 07be fe11 063e
00000010: 8744 403d f269 90bd ee22 b23c da95 97bd
00000020: b766 f43e c117 1e3f 31b2 993d 4642 89bd
00000030: e794 92be 5870 51bf 6b48 17bf d370 ccbb
00000040: 4780 60bd 1be9 3c3e b83c 5a3e e1c7 de3e
00000050: c16b d5bd 04ca 41bf e07d 67be 27eb b53d
00000060: afbf 20bf 2052 7c3f f8c3 61bf a84f 88bd
00000070: 50af 0abd d82f 893e 4dcb 2c3f 8b6e e2bd
00000080: 1bf0 39bc ed91 743d 8a59 2cbf 85e6 f9be
00000090: e70c 503e 0848 72be a052 10be 423d 2e3e
000000a0: ed70 e13d 68f8 1a3f 52ed 0dbf 3acf a7be
000000b0: f42f 2bbe 55fa a3be 9c2b 453e f8cd 28be
000000c0: 94bc 51be 7a44 cc3d a630 a33d 8b70 673e
000000d0: 29b0 b7bd 56d3 23bf 6a71 a93b 4bdc a83d
000000e0: 1cbf b83d 7091 193f a6c2 abbe 633c 753d
000000f0: e37f d73d 954b 41bd 3524 aa3e f5df 273e
00000100: 7060 bf3e f14f e5bd 47ac d1be 780a 43bf
00000110: d83d c9bd 5658 2ebf 3e27 a63d 157a ef3d
00000120: 1b8f 34be b5e6 d53e 5180 febd be2f 2e3c
00000130: 9bee b13d ae30 753e 994d 2c3f a76b 0abe
00000140: f05a 7abe ed2c 29be 2072 6abf c375 6dbf
00000150: 7344 973e ea50 7e3e feb0 093e 2951 d13d
00000160: 4357 773f 3f33 6abe 05f7 f53d 365e f33b
00000170: dc92 88bd 08da 55bf 2bf6 2fbe c5da 563d
00000180: 1e2d a13e 3a3f 0cbe 9cef 44bc 3f31 d3be
00000190: 6565 723e 2183 82bf adff 0e3e 4cd0 803d
000001a0: 1ef0 573f a056 083f a359 a73e 91f3 1e3e
000001b0: 2980 033e 4d8f 73be dd86 afbc c134 003d
000001c0: 16c5 d83d c2b7 e93e 08db 06bf d6c5 91be
000001d0: 9ec4 1ab9 b977 47be 3528 49be a82d 963e
000001e0: 3c41 30be 0b26 553f 4133 6dbf 76b9 98be
000001f0: 2881 79be cafa 8abe ed0a bb3e 9840 e5bd
00000200: 8a08 70bd e798 f83c e6c8 38bf e553 94bf
00000210: 80a9 d93e cc9f 22bf 7233 313e 428c e8bc
00000220: b177 1f3f 4aef a63e 8f7d 00be 71af 2b3d
00000230: 2205 ef3e 8b4b 82be cdc8 1f3f e29e 6e3c
00000240: 95f3 b3be e287 3dbc b9b9 52be 3f28 813d
00000250: 2938 b7be d2a4 3f3f e6b6 6a3d 74c8 0a3c
00000260: c674 62bf 0ff2 7cbe 24df 11bf fd97 383d
00000270: c523 6abe 00db 3d3e 9c3b a03d af86 f4bd
00000280: f485 a13d 755f 62bd aed8 213f 8f49 0d3f
00000290: 4129 0a3d ea32 22bf cd43 b73c bd33 613d
000002a0: 9867 59bd b823 073f aabf 84be ceb6 c2bd
000002b0: 0404 833d d584 183e 499e 083f 3095 f73d
000002c0: 0be6 093e cea9 bfbd c5e9 42be 086f cbbe
000002d0: 6679 e2bd eb62 41be 449e 19be 5d53 15bd
000002e0: 12b1 eebe 1609 29bc b26d 18bf d34f 85be
000002f0: cac3 51bd 27d3 e83e 7f28 7d3f 5ceb 1f3d
00000300: 00b5 45bd b20d e23e 78d8 afbe 28da 6cbf
00000310: f991 9c3e 0f14 85bf d238 99be c0fb 153e
00000320: 1964 bc3e bffd fa3e 4a02 06bf 62d7 02be
00000330: b785 a03e 0a8e 393e ad7a 923f f3fe 833e
00000340: ec0b bebe 58da dfbd 99ad 03bf d827 41be
00000350: 4e1e 82be 64d1 a1be 8872 633e 9e2b ee3b
00000360: 27e4 50be 59d6 393f d5ce 0cbf fe35 96bd
00000370: 4a94 e9bc 2ce5 7abd 357c c63c a2ae 35be
00000380: 0751 5b3e 5171 d03d d059 4bbe cbd4 d5be
00000390: ecb2 cd3d f4c9 983e 75f8 723e 1ed2 83bd
000003a0: 8553 273f ebd1 d5be f99c c93e 219d 833e
000003b0: b793 9dbb f278 a8be 19e9 c2be 1d30 03be
000003c0: 4c7b a8be 9935 85bd 6c3d 8bbd b280 a23e
000003d0: 650e 42be ec8d 42be cc42 4ebe 2110 c6bd
000003e0: 67f4 ba3e d91d 323f 24ff 243e 44fc 80bd
000003f0: c77a 04be abf0 1abf 1a15 02bf 85b6 04be
-0.33753094 0.23307961 -0.13253304 0.13092801 0.046940353 -0.070514575 0.021745171 -0.07401629
0.47734615 0.61754996 0.075046904 -0.06702094 -0.28629228 -0.8181205 -0.59094876 -0.0062390356
-0.054809835 0.18448298 0.21312225 0.4351187 -0.10420943 -0.75698876 -0.22606611 0.088827424
-0.62792486 0.9856281 -0.8818965 -0.06655818 -0.033858597 0.26794314 0.6749771 -0.11056241
-0.0113487495 0.05970948 -0.67324126 -0.48808685 0.20317422 -0.2366029 -0.14094019 0.17015556
0.11007867 0.6053529 -0.5544025 -0.3277529 -0.16717511 -0.32026926 0.19254917 -0.16484821
-0.20482093 0.09973998 0.07968263 0.22601525 -0.08969147 -0.6399435 0.0051709907 0.082451425
0.09020826 0.59987545 -0.33546942 0.059872042 0.10522439 -0.04719122 0.3323075 0.16394027
0.37378263 -0.11196888 -0.4095175 -0.7618785 -0.09826249 -0.6810354 0.081129536 0.11693207
-0.17632715 0.41777578 -0.12426818 0.0106315 0.086880885 0.23944351 0.67305905 -0.13517629
-0.24448752 -0.16521044 -0.9158039 -0.92757815 0.2954441 0.24835554 0.13446423 0.10220558
0.96617526 -0.22871111 0.12010006 0.0074270023 -0.06668636 -0.83535814 -0.1718375 0.05245473
0.31479734 -0.13695994 -0.012020018 -0.4124851 0.23671491 -1.0196267 0.1396472 0.062897295
0.84350765 0.5325718 0.32685575 0.155226 0.12841858 -0.23785134 -0.021426613 0.03130031
0.10584466 0.4564801 -0.52677965 -0.2847125 -0.0001475983 -0.19479264 -0.19644244 0.29331708
-0.17212385 0.83261174 -0.9265633 -0.29828995 -0.24365675 -0.27144462 0.36531773 -0.11193961
-0.058601893 0.030346347 -0.72181547 -1.1588103 0.4251213 -0.6352508 0.17304781 -0.028387193
0.6229201 0.32604438 -0.12547897 0.04191536 0.46683604 -0.2544826 0.6241577 0.014564248
-0.35146776 -0.0115680415 -0.2057866 0.063065045 -0.35785034 0.7486087 0.05730333 0.008470643
-0.8845943 -0.24701713 -0.5698111 0.045066822 -0.22865207 0.18540573 0.078238696 -0.11939751
0.07886878 -0.055266816 0.6322125 0.55190367 0.03373075 -0.6335894 0.022371197 0.054980982
-0.05307731 0.5278888 -0.25927478 -0.095075235 0.0639725 0.14894421 0.53366524 0.12089002
0.1346666 -0.093585595 -0.19034488 -0.39733148 -0.11058311 -0.1888539 -0.1500178 -0.036456455
-0.4661947 -0.010317108 -0.5954238 -0.26037464 -0.05121211 0.45473596 0.9888992 0.039042816
-0.04826832 0.44151074 -0.3434484 -0.9252038 0.30580118 -1.0396746 -0.29926163 0.14646816
0.36795118 0.49021718 -0.5234724 -0.12777475 0.31352016 0.1812059 1.1443688 0.25780448
-0.3711847 -0.10930318 -0.51436764 -0.18862855 -0.25413746 -0.31605065 0.22211659 0.007268383
-0.20399533 0.72592694 -0.550031 -0.07334517 -0.028513093 -0.06125371 0.024229148 -0.17742398
0.21417628 0.101778634 -0.1985848 -0.4176391 0.10043892 0.29841578 0.23727591 -0.06436561
0.65361816 -0.41761717 0.39377573 0.25705817 -0.0048088687 -0.32904774 -0.38068464 -0.12811323
-0.32906568 -0.065043636 -0.06798825 0.31738812 -0.18950804 -0.18999451 -0.20142668 -0.09671045
0.3651459 0.69576794 0.16112953 -0.06298116 -0.12937461 -0.6052348 -0.5081345 -0.1296025

layers.1.bias f4 [16]
00000000: 1d20 33be cfb9 11be 0613 8fbd 8206 1cbe
00000010: c444 68be 8cfe 953c 9f69 ac3d 253a edbd
00000020: 80ba 9f3d 4495 d63c 8053 f3bc 73d8 473d
00000030: b1c5 163e fa59 f2bd 488d 453d b8b9 c53d
-0.17492719 -0.14231037 -0.0698605 -0.15236858 -0.22682482 0.018309854 0.08418583 -0.11583356
0.07799244 0.026194222 -0.029702902 0.048790406 0.14723851 -0.11833568 0.04823044 0.09654564

final.linears.0.weight f4 [112, 56]
00000000: dd8a 013d 879c a23b 8a9e 863f 1155 5d3f
00000010: 0915 2ac0 5b89 203e 4e11 9f3b 32c0 a83c
00000020: 799a a7bc 00cb 8e3e 6997 053e ca38 1cbd
00000030: 17c2 fbbb caa2 113c 1f43 08bd 41a1 c0bc
00000040: 79b2 38bd d0a0 6c3d 7efc 0cbc c0c1 fabc
00000050: a6cf bcbc 8fb8 fe3c cbdb 87bd fc0f 27bd
00000060: 8a61 1a3d 21fc 9d3c f7d6 4cbc 1154 4e3c
00000070: db49 4fbc 7ac5 4e3d dff0 293c 5c24 8dbd
00000080: 383b 253d 0e3a 86bc 0ef0 c53c 0686 103d
00000090: 609e 843c b8f1 fbbc e9c0 d5bb f300 6dbc
000000a0: e1b8 a63d 2398 84bc 70d4 24bc 605f 953c
000000b0: 3927 0bbd 86cb ab3c 45ef 173d 6101 cb3d
000000c0: 8ce2 07bd dc81 013d c43b 14ba 5eba 19bc
000000d0: 74ac 9cbd a9cb babc 0517 0abd 9d5f 6cbd
000000e0: 800b 053f 3d31 633f e1e8 d6bc de1b 6fbd
000000f0: 2852 fcbd 111c 763e 9a40 6bbf 2338 23bf
00000100: 1f3c 183e 0978 fdbd e057 083f c175 0a3f
00000110: f7e9 35bf 7a0a 413f 6cf3 bebe ce8e 543f
00000120: ea5d 803b 3a08 d7be 462f ff3e 367c d13e
00000130: e1cf b73e 8fe7 343e 85fe d2be ef2a 993d
00000140: b88c 4e3e 22bd adbd 63c3 583c 7036 e43c
00000150: 267d 323d 6164 7f3e 81e8 483e 157d e0bd
00000160: 1fd0 a73d 4eb1 ddbd 53ee c13c 3d0b b4bd
00000170: 7982 93bd c053 823e 5e95 9f3d 1d3e 723e
00000180: b565 d7bc 1afc ebbd 5ee0 1c3c 5e75 443e
00000190: 89ec 65bd 5c0f 313e 5bdf d7bc 4231 87bd
000001a0: 6c1c 4dbe 4de6 a1bd 1989 94bb ff8a adbc
000001b0: e665 54be d6f7 8b3d 1a22 b4bc c014 8e3d
000001c0: 5794 adbe 93de 8dbd 4737 843d 059f 4ebd
000001d0: ce71 f8bc baf1 21bc 1398 11bf acbc 833e
000001e0: 1800 4dbc 4043 0abe 57a0 f1bd ac09 a83e
000001f0: 2275 03bf 9286 34be 9557 963d 5614 0abf
00000200: ea30 35bf 7302 243f 0360 d83d bbb1 383c
00000210: 5e6a 1fbe c16e a6be b30a a7be 254e 133b
00000220: c552 22bd e72f 06bc 3a04 b63d ab11 ddbd
00000230: e3b7 35bc 16f6 22bd e56a 9fbb c5e0 903d
00000240: 2c18 e7bc 88cf dfbd b7f5 cabb 7380 1abd
00000250: 446c ffbc d0c7 a23d 7f16 943c 0342 3e3d
00000260: 5d13 f13c 9b0e 30bd b5bf c73c 8ef5 89bd
00000270: 6ba6 6b3b dd60 403d 4bd2 1cbd 32e0 363d
00000280: 3284 3ebd b24c e13c 305f 85bd d757 b43d
00000290: 3f73 be3d 1a69 e9bc b28e e7bb a9fd 0f3e
000002a0: f6bd ad3e 2b4d 6bbf c04b 913d 369a 883d
000002b0: 1d29 a73c 2c7c 443e 07eb 893e cb9e 4abf
000002c0: 2c18 3c3f 21e4 cf3d ebcd 0f3f 3d88 773f
000002d0: 0042 6d3f 4cc2 f4bd 5fc8 2dbf 99b9 53bf
000002e0: 5986 45bf 713b cb3e 950b 433f 842d 13bf
000002f0: eabd e73e c5b2 23be fcac 3d3f ec6a 77bf
00000300: dd61 87bd 0258 98bd 0bbb c3bd e73c fd3c
00000310: 0d95 65bd 1f0e 0d3e 05d8 c5bc ec96 a7bd
00000320: 8fb5 873d 0fc6 61bd e692 a73b b211 e0bd
00000330: 5011 8e3d 1600 393d 925b d0bd dc28 1d3d
00000340: 86ed 9b3d 3b15 8e3d 2235 dd3c c6d0 d9bc
00000350: 3678 f3bc 5293 293d 3f00 bcbb 0067 a53d
00000360: 8ef2 26bd 1f81 c83c 31cd a13c 1cea bb3d
00000370: de76 e63c bb07 66bd 929d 553d a634 603d
00000380: 034f d0bd 6ee6 b9bd 73b0 b83e 8431 813d
00000390: 5741 253c 25c9 a7bd 7c30 ce3c f3c5 2a3e
000003a0: 65ba 21bd b347 a7bd 2a08 4cbd 25a4 67be
000003b0: f1dc 863e 7014 5f3e 7cd0 773e 7dcb 1cbe
000003c0: 6ba7 f03d ab2a b13e c107 823e e8d8 083e
000003d0: 9589 803e 7107 ae3e af65 b03e 4a4e 56bd
000003e0: 92b7 d2bd 8741 253e fc3e c83d 2881 e4bd
000003f0: 52aa cf3d efc6 15be acb4 d23d 278d 343e
0.03162657 0.004962507 1.0517132 0.86457926 -2.657534 0.15677397 0.004854358 0.020599458
-0.0204594 0.27889252 0.1304604 -0.038140096 -0.0076830494 0.00888891 -0.033267137 -0.023514392
-0.04509208 0.05777055 -0.008605121 -0.030609965 -0.023048233 0.031093864 -0.06633719 -0.04078673
0.037690677 0.019285263 -0.0125024235 0.012593285 -0.012651886 0.050481297 0.01037237 -0.068917006
0.04033968 -0.016385105 0.024162319 0.035284065 0.0161888 -0.030754909 -0.006523241 -0.014465558
0.081407316 -0.016185826 -0.010060415 0.018233955 -0.033972953 0.020971071 0.03709342 0.099123724
-0.033175036 0.031617984 -0.0005654658 -0.009382812 -0.0765008 -0.02280219 -0.03371336 -0.05770837
0.5197067 0.88747007 -0.026234092 -0.058376186 -0.123203576 0.24034144 -0.9189545 -0.6375753
0.14866684 -0.123764105 0.53259087 0.5408593 -0.7106013 0.7540661 -0.3729509 0.830304
0.0039174454 -0.41998464 0.49840754 0.40915078 0.35900787 0.17666458 -0.41209808 0.07478892
0.20170867 -0.0848334 0.013230178 0.02785799 0.043576382 0.24940635 0.19619943 -0.109613575
0.08193993 -0.10824834 0.023673212 -0.08791206 -0.0720262 0.2545452 0.077921614 0.23656507
-0.026293615 -0.11522694 0.009574978 0.19185397 -0.05613378 0.17291015 -0.026351621 -0.06601192
-0.20030373 -0.079052545 -0.004532945 -0.021184443 -0.20741996 0.0683438 -0.021988917 0.069375515
-0.33902237 -0.06927218 0.06455856 -0.05044462 -0.030327704 -0.009884292 -0.5687267 0.25729883
-0.012512229 -0.13502216 -0.117981605 0.3281988 -0.51350605 -0.1762946 0.07340924 -0.5393728
-0.7077776 0.6406624 0.10565188 0.011272843 -0.1556792 -0.32506374 -0.3262535 0.0022476998
-0.039629716 -0.008190132 0.08887525 -0.107943855 -0.011091205 -0.039785467 -0.0048650377 0.070741214
-0.028209768 -0.10928255 -0.0061938423 -0.037720155 -0.031179555 0.079482675 0.018077133 0.046449672
0.029428178 -0.04298268 0.024383405 -0.06736289 0.0035957347 0.046967376 -0.03828649 0.044647403
-0.04651279 0.027502391 -0.06512296 0.088058166 0.09299325 -0.0284925 -0.007066571 0.14061607
0.3393399 -0.91914624 0.07094526 0.066700384 0.020405347 0.19187993 0.26937124 -0.7914855
0.73474383 0.10150934 0.5617358 0.9669226 0.92678833 -0.11951122 -0.6788387 -0.82705075
-0.77158123 0.39693788 0.7618955 -0.57491326 0.4526208 -0.15986164 0.7409208 -0.96647525
-0.06610463 -0.07438661 -0.0955716 0.03091283 -0.05605035 0.13774918 -0.024150858 -0.08183083
0.066264264 -0.055120524 0.005113947 -0.10940875 0.06936896 0.045166098 -0.10173716 0.038369045
0.076136634 0.06937643 0.027002875 -0.026588809 -0.029720407 0.04140026 -0.005737334 0.08076286
-0.040758662 0.024475632 0.019751163 0.09175512 0.028132852 -0.056159716 0.052152224 0.05473771
-0.1017132 -0.09077154 0.3607212 0.063082725 0.010086379 -0.08192662 0.025169604 0.16677074
-0.0394844 -0.081679724 -0.049812473 -0.2262121 0.2634044 0.2178514 0.24200624 -0.15312
0.117506824 0.34602866 0.2539654 0.13363993 0.25104967 0.33990052 0.34452578 -0.052320756
-0.102889195 0.16138278 0.09777638 -0.11157447 0.10139908 -0.14626668 0.10288367 0.1763197

final.linears.0.bias f4 [112]
00000000: 7409 10bf 70a8 8d3e 22ad 59bd ea7d 8d3d
00000010: 7d22 4dbe d259 923e 6a83 94be b0cd 5b3e
00000020: 32e7 33be 7c99 093e 12a9 323e 4a80 5cbe
00000030: f71b a8bd 019a 083e 8800 d43d 083a bd3e
00000040: 366a 453e dbff 6dbd e543 6c3e 218c c23c
00000050: 11c3 6d3e 385c 4b3e d335 ac3e 3cbd b43e
00000060: bf95 7b3e 064c b63e 9660 603d abbf e4be
00000070: e300 893e 1fb0 0e3d 3014 2abe a48c 043e
00000080: d072 003e 593c 6eba 30b3 bc3d 78fe 9e3c
00000090: c5da e23d 1de8 1fbe 41dd 263e 8ba0 e3bd
000000a0: 21f8 de3e eed8 8d3e b2a2 21bd ed21 a9bc
000000b0: 4e36 6c3e ebc2 47bc c024 ae3e 2bb7 af3e
000000c0: c0ce 0ebf 0a76 053e 332b 0d3e 69b4 813e
000000d0: 229a df3e b97a 6b3e 9518 8d3e 2fb6 52be
000000e0: 0415 f9bd d348 b9bd c14a 863e 0fd7 46bd
000000f0: 64ed a33e 82af 7c3d 32e3 cdbd 0a8e 4b3e
00000100: dbd9 bfbd 6f3a 9f3d 4c1e 083e 92bd 683d
00000110: 752b 3a3e df26 6b3e 5947 26bd 1f9c 7f3e
00000120: 8f1f 44be 098d 423d 8e89 42be 62c0 153d
00000130: b317 a9bb ac38 e53d 32c8 6bbe 66ee 4ebe
00000140: f1a2 323e fc1c ed3d ac67 8e3e b8a6 673e
00000150: 4ab8 d2be 3a5c 853c 31a9 9cbd 1ad9 f43d
00000160: 2d52 c03c 701f 22bd da5e 803e b552 63bd
00000170: 8dea eb3d 63cc eebd 3120 0b3e 4658 0e3e
00000180: b326 5e3e 548c 93bd 4eb8 283e 007d 353c
00000190: 0fab 073e 56c0 8b3e f281 51be 488b 25be
000001a0: 6b0e 8cbd a653 dbbe 6b82 c03e c9cf 713e
000001b0: b0c8 a73c de75 753d 6f70 d2bd 4085 113e
-0.56264424 0.2766757 -0.053143628 0.06908782 -0.20032687 0.28584152 -0.2900651 0.21465182
-0.17568663 0.13437456 0.17447308 -0.21533313 -0.08208459 0.13339998 0.10351664 0.36958337
0.19278798 -0.05810533 0.23072775 0.02374846 0.23218943 0.19859397 0.33634815 0.35300624
0.24568842 0.35604876 0.05477961 -0.4467748 0.2675849 0.03483593 -0.16609263 0.12944275
0.12543797 -0.0009087972 0.09213865 0.01940845 0.11076883 -0.15615888 0.16295339 -0.111146055
0.43548682 0.27704567 -0.0394618 -0.02064606 0.2306759 -0.012192468 0.34012413 0.34319434
-0.55784225 0.1303331 0.1378601 0.25332955 0.43672282 0.22996034 0.27557817 -0.2057731
-0.121622115 -0.09047093 0.26228908 -0.04854494 0.32017052 0.061690815 -0.100531 0.19878402
-0.093677245 0.07774817 0.13292807 0.056821413 0.1818064 0.22964047 -0.040595386 0.24961899
-0.19152664 0.047497783 -0.18997785 0.036560424 -0.005160296 0.1119245 -0.23025587 -0.2020813
0.1744497 0.11577794 0.2781347 0.22622192 -0.41156226 0.016279329 -0.07649458 0.11955471
0.023476684 -0.039580762 0.25072366 -0.055498797 0.115193464 -0.116600774 0.13586499 0.13900861
0.2169445 -0.072045 0.16476557 0.011077166 0.13248847 0.27295178 -0.20459726 -0.16166413
-0.068386875 -0.42837256 0.375995 0.2361442 0.020481437 0.05992686 -0.10275351 0.14210987

final.linears.1.weight f4 [112, 112]
00000000: 8dc3 9abd 581f 95be 6468 83be c236 00bf
00000010: 9d5d adbd a7cf 99be f748 99be 05fc fbbe
00000020: 42c0 01be 78ef 99be 98f1 91be f517 6cbe
00000030: 77d0 d3bd c7db b9be 56b4 81be 00cc 8dbe
00000040: 9b21 7cbd 8498 d2bd 4c30 a3be d7be 5abe
00000050: f4de 46be 6d7c 47be 06b5 86be 7cda 39be
00000060: 961b adbe 29b7 95be 02a5 30be db00 4abc
00000070: 94bb 4ebe a95a abbe f3b4 70bd e299 86be
00000080: 7498 54be 4149 24bd 075d babe 5185 64be
00000090: fa2f bdbe d072 9bbe 97a9 abbe 4d43 93be
000000a0: 0fd7 5cbd f0f4 a4be 6cc0 0fbe d1cb a0be
000000b0: abda 9fbe 2142 00be 3ee9 8ebe 95a4 aabe
000000c0: 165f 8f3d 4811 48be 6120 43bd d6c1 9ebe
000000d0: 44aa 1ebe 1570 b7be 11d4 42bf bfe4 4ebe
000000e0: 1fe5 21be 0fa2 a4bd df03 9bbe cd07 0ebe
000000f0: 1bf9 d8be d5b2 34be af5b edbd 39da 96be
00000100: 00ef 15bf 6f15 64be 4b69 3fbe e1ad 41be
00000110: 8477 3bbe 6817 95be 39b3 da3c f32a c4be
00000120: 1111 8ebc b1f3 afbe a622 10bd dc41 9ebd
00000130: bf59 0bbe 5086 5abe 7b64 47be cbd4 fbbd
00000140: cd89 22be 5a1f 46be 89e8 59be 9b7c d0bd
00000150: 3ca8 b33d 8f56 6dbe a4be b7bd 404e 01be
00000160: a046 85be 8e26 b9be de92 6fbe 111c 3cbe
00000170: 5005 c2be 0aaa 43be 97db 5abe 8a62 afbe
00000180: b865 65be cb30 c8bd 6de2 b7be 996d 2cbe
00000190: 619d 19bf 4a9d 9dbe 9ee8 48be d649 85bd
000001a0: d839 c9bd e97c 79bc f1d9 7bbe 867e 79be
000001b0: 2a93 30be e50d 22bf 9eea 0dbe d852 d2be
000001c0: 3bbf 283e aec0 23be 320c 08be 65cb fdbe
000001d0: 052f bcbd 5295 46be 0aec 13bd e509 45be
000001e0: ed15 89be 699a 31be 22c7 b8be dee1 5bbd
000001f0: 0ed0 b0bd bd12 90be 7ffb cbbe 4aa1 ffbe
00000200: 9a2e a4bc 5b0d babd 46d6 6ebe cfc1 39be
00000210: 6e85 26be a975 0cbe f91b a3be 0549 8cbe
00000220: 632a d8bd 1dfb a0be ab02 60be 8355 61bc
00000230: 2961 03be 59fb 60be 410f b9bd 48ed b3be
00000240: df33 99be 3bbd 23bc ab16 8bbe 4daa 6bbe
00000250: edd2 37be 57a2 54be 22af c7be 81bb 16be
00000260: b193 09bf 8692 c9be 4b4b 3ebc 4177 00be
00000270: 23d6 8dbe e3d5 04be b358 99be b6a5 98be
00000280: 918d 9f3d 4913 22be e693 18be c812 21bf
00000290: a40c afbe ea17 aebe 4989 6bbe 8271 64be
000002a0: 989a 5ebc 8ea9 99bd 3bcd eebd 6136 c8be
000002b0: 8590 79be 9528 53be a3ba 923c 5bc7 79be
000002c0: cdba 20be d949 92be f1ea 9fbe 16ee 93be
000002d0: f251 abbe 8db0 93be 05a7 5dbe 0158 c3be
000002e0: 9d85 053d 6158 86be c8b3 4bbe bb8a f9bc
000002f0: 1c2f 5fbe 2ab3 23bd 2d85 85bd 007b dbbd
00000300: 1e08 e0bd 317a 89be 3403 8bbd 40cc 95be
00000310: a9ac 013e 3b64 a6be a8a7 aebd 7cd0 33be
00000320: 8875 73be 32f9 68be 17c4 70be 9d20 25be
00000330: a225 a5be 11f6 e9bd d27d 8bbe 6df8 bebe
00000340: 8122 41be 1ad3 5cbd 3df2 56be 40c4 9abd
00000350: 235f 77be be04 e8be 3731 7bbd 25b1 06be
00000360: 7d97 91bd 39f0 3a3d b86f aabe 6351 3bbe
00000370: 55c0 9ebe 134e 71bd 3c47 f2bd a5bf 67be
00000380: dcec f43b cb72 92bd d9c1 873c b935 59bd
00000390: a635 72be e117 a13b ad21 38be 1b37 fc3e
000003a0: 43d5 56bc f6f6 17be 7979 69bc 251b c0bd
000003b0: 4ab9 6ebd e5ec b7bd a249 323e aba4 8cbd
000003c0: 4780 b13d d49a 553e 04c3 96bd 2d73 e9bd
000003d0: eb0a bbbd 25a8 eabd a4eb 1abd a314 84be
000003e0: 0bd7 313e 3c04 02be 7b5d 24be 3178 46bc
000003f0: 30ee cbbd 3120 bebd 2b5c 2abd 042a 50be
-0.075568296 -0.29125476 -0.2566558 -0.50083554 -0.08465121 -0.3004124 -0.2993848 -0.49215713
-0.12670997 -0.30065513 -0.28504634 -0.23056014 -0.10342496 -0.3630049 -0.25332898 -0.27694702
-0.061555486 -0.10282996 -0.31872785 -0.21361862 -0.19420987 -0.19481058 -0.26309985 -0.18149751
-0.3381011 -0.29241303 -0.17250445 -0.0123293055 -0.20188743 -0.33467606 -0.058766317 -0.26289278
-0.20761281 -0.040108923 -0.363991 -0.22316481 -0.36950666 -0.30361032 -0.33527824 -0.28762284
-0.053916033 -0.32218122 -0.14038247 -0.314055 -0.31221518 -0.12525226 -0.27912325 -0.3332869
0.07000558 -0.19537842 -0.0476383 -0.3100726 -0.15494639 -0.358277 -0.7610484 -0.20204447
-0.15810059 -0.08038723 -0.3027639 -0.13870163 -0.42377552 -0.17646344 -0.11589753 -0.29463366
-0.5856781 -0.22273801 -0.1869251 -0.18913986 -0.1830731 -0.2911942 0.026696788 -0.38314018
-0.017342122 -0.3436561 -0.035189293 -0.077274054 -0.13608454 -0.21340299 -0.19471924 -0.122964464
-0.1587288 -0.19347897 -0.21280111 -0.101800166 0.087723225 -0.2317755 -0.08971909 -0.12627506
-0.26030445 -0.36162227 -0.23395869 -0.18370081 -0.37894678 -0.19107834 -0.2137283 -0.34254867
-0.22402084 -0.097749315 -0.35914937 -0.16838683 -0.60005766 -0.30784065 -0.19619986 -0.06508224
-0.09825486 -0.015227535 -0.24594857 -0.24364671 -0.17243639 -0.6330245 -0.1385903 -0.4107883
0.16479199 -0.1599147 -0.13285902 -0.4956924 -0.09188656 -0.19392899 -0.036113776 -0.19242056
-0.2677454 -0.17344059 -0.36089426 -0.0536822 -0.08633433 -0.28139296 -0.39840314 -0.4992774
-0.020041753 -0.090845786 -0.23323926 -0.18140338 -0.16261837 -0.13716759 -0.3185728 -0.2739946
-0.105549596 -0.31441584 -0.21876018 -0.013753298 -0.12830032 -0.21970882 -0.090361126 -0.3514197
-0.29922387 -0.0099938465 -0.27165732 -0.23014183 -0.17951556 -0.20765053 -0.39000803 -0.14719965
-0.53740984 -0.393696 -0.011614631 -0.12545492 -0.27702436 -0.12972216 -0.29950485 -0.29813927
0.077906735 -0.15827669 -0.14900169 -0.6291928 -0.34189332 -0.3400262 -0.23001589 -0.22308925
-0.013586663 -0.07503043 -0.11660238 -0.39103988 -0.24371536 -0.2062095 0.017911261 -0.24392454
-0.15696259 -0.28571966 -0.31233934 -0.28892583 -0.33460957 -0.28845635 -0.21645744 -0.3815308
0.032598127 -0.26239303 -0.198928 -0.03046166 -0.21795315 -0.039965786 -0.06519542 -0.1071682
-0.10939048 -0.26851037 -0.0678772 -0.29257393 0.12663521 -0.32498345 -0.08528072 -0.17559999
-0.23775303 -0.2275131 -0.23512302 -0.16125722 -0.32255274 -0.114238866 -0.2724443 -0.3729891
-0.18860818 -0.05391226 -0.20990844 -0.07556963 -0.24157386 -0.45316118 -0.06132623 -0.13153513
-0.07108972 0.04563925 -0.3328836 -0.18292765 -0.31006113 -0.058912348 -0.11829993 -0.226317
0.007474525 -0.07150801 0.016571926 -0.05302975 -0.23653278 0.0049161767 -0.17981596 0.49260792
-0.013112369 -0.14840302 -0.014250153 -0.093801774 -0.058282174 -0.08980731 0.17410901 -0.068673454
0.08667045 0.20859843 -0.07361415 -0.11398921 -0.09132942 -0.11457852 -0.03782238 -0.25796995
0.17367189 -0.12696928 -0.16051285 -0.012113617 -0.0995754 -0.09283484 -0.041591804 -0.20328528

final.linears.1.bias f4 [112]
00000000: 3edd 08be 2733 85be 2dec 613d 370d 5dbe
00000010: 2d27 e1bd 0911 02bd 885e 93bd 6a13 1dbe
00000020: 4166 9ebe 6bb5 41be 6385 cdbd 67b0 bfbd
00000030: 315b abbd efef f2bd 7425 04be f9da bd3c
00000040: c21f 81be 4b78 5b3c 351f 9a3c 2766 e63c
00000050: af37 a5be a105 54be 9ada c6bd 79cf 04be
00000060: 82c7 07be 90d6 03bf d843 883e bb2f 42be
00000070: ad8a 77be 47a0 cbbb cad5 11be b987 77bd
00000080: 3e48 9fbd de2f 59be 7f19 37be 3806 7bbd
00000090: e592 9abd 8827 2bbe 3886 a83d 47d7 0abe
000000a0: d3f5 fcbc af0b 4bbe 587b a1be 2ef0 57be
000000b0: 0f2c abbd 1fbc 39be 54e5 1bbe 46e1 7bbe
000000c0: 05f7 e6bd 1a52 2fbd 60f5 743d 28f0 5fbe
000000d0: f750 ebbd 15fa da3c dfa9 6bbe 783d 9ebd
000000e0: 88b1 2bbe a7bd f5bd 1d2a 1cbe 6a00 1cbe
000000f0: 2dd1 a4be 8a6e 45bd d319 24bf 5f41 21bd
00000100: 404c 4ebe a9c1 61be 34ac 8fbd cee4 6ebe
00000110: 0d11 a0bc 3408 21be c25d 4dbe 24e8 abbe
00000120: c0ce 05be ecb0 24be e3e3 5ebd 36e2 aabd
00000130: 6f4b 59be 2328 11be 0858 863d 81e8 e73c
00000140: dc55 98bd b8b2 943d 0f74 46bd 7fcb b23d
00000150: a323 393d 0ab0 89be 7696 613d 2cea c9be
00000160: c7fc e2bd 7605 d3bd ff83 43be 7616 78bd
00000170: 609c 3ebe 0c75 d3bd 5cc0 51be 50c8 92be
00000180: e905 80bd c4b4 613c 886a b4bd 5771 c13c
00000190: c916 03be 9ff2 b13c 5f3d 92bd fe3f 5a3c
000001a0: fdaa 0c3e deb9 d63c 71a8 5abe f710 44bd
000001b0: 9f44 d0bd d139 b83c 663a 91be a1a5 77be
-0.13365647 -0.2601559 0.055156875 -0.21587072 -0.109938 -0.031754527 -0.07195765 -0.15339437
-0.3093739 -0.18916862 -0.10035207 -0.09359818 -0.08367003 -0.1186217 -0.12904912 0.023175703
-0.25219542 0.013395379 0.018813709 0.028124882 -0.32269046 -0.20705272 -0.09709664 -0.1296977
-0.132597 -0.5149927 0.2661426 -0.1896352 -0.24173994 -0.006214175 -0.1424171 -0.06043217
-0.07777451 -0.21209666 -0.1788082 -0.061285228 -0.07547549 -0.16714299 0.08228725 -0.13558684
-0.030878937 -0.19828676 -0.31539416 -0.21087715 -0.08358013 -0.18138169 -0.152242 -0.24597654
-0.11277584 -0.042802908 0.05980432 -0.21868956 -0.11490052 0.026730577 -0.2301402 -0.07726568
-0.16766942 -0.11999064 -0.1525044 -0.15234533 -0.32190838 -0.04820112 -0.64101905 -0.039368983
-0.20146275 -0.22046532 -0.07015267 -0.2332947 -0.01953938 -0.15725785 -0.20055297 -0.33575547
-0.1306715 -0.16083115 -0.05441655 -0.083439276 -0.21220182 -0.14175467 0.065597594 0.028309109
-0.074382514 0.072606504 -0.048450526 0.0873022 0.0452 -0.2689212 0.05507513 -0.3943647
-0.1108337 -0.10303776 -0.19093321 -0.060568295 -0.1861434 -0.10325059 -0.20483536 -0.2866845
-0.06251127 0.013776008 -0.08809382 0.023613615 -0.1280166 0.021722136 -0.07140612 0.013320921
0.13737102 0.026211675 -0.21353318 -0.04786774 -0.101693384 0.022488507 -0.28364867 -0.24184276

final.linears.2.weight f4 [24, 112]
00000000: 7063 853e 23f0 123e 1295 4ebd 2046 a9be
00000010: 7691 1a3d b51e 04bd 46f1 5e3d fc4d 03be
00000020: 6b98 c73d c432 5dbe 5e99 52ba 1c00 1d3e
00000030: 8d1a 1abe 52ce 4d3e 6f39 3dbe 29d1 d43c
00000040: 5586 d63d 4c89 2a3e 009a 233e ecf2 d03c
00000050: ee42 2dbe 61fd 0cbe 3d98 9cbe feea fbbd
00000060: 63f4 483d cfbd dd3c c5aa ce3b 5187 5f3e
00000070: 87c7 973e 1a39 02be db34 90be 7eb1 033e
00000080: d7f9 83bd 2033 97bd e8c6 8bbc 0e30 18be
00000090: 42f7 40bc f2e4 743e a3d4 013d 7b63 083c
000000a0: 18ac 70bd 6aa2 f83e 5e88 ddbd 95f7 c3be
000000b0: 993f 503e e9f3 9cbb bbbc 2bbd 6d9d 023e
000000c0: 8b21 193e 541b cf3c b80f 4bbd f349 b33e
000000d0: 085b 8c3b 3485 a03c 5b57 a8be 7a70 b7bd
000000e0: 9d0c 02bf d40c 103e f627 453e d4c5 523e
000000f0: e388 3fbe bc41 1b3e 44ce f1bb d0c9 333d
00000100: 114f 21be 6567 763e 9303 9d3c 8635 6a3e
00000110: e5ca 9b3c 82b3 9ebd 0c12 f83d 162b 59be
00000120: 63e7 48be f6cb 4abe 4ee9 193d fd95 b8bd
00000130: 8fe1 503d ff75 78be 0ab4 79be b22c c1bd
00000140: 32a3 183d 5517 acbc 9839 3a3d a81e 91bd
00000150: 0458 b13d dcdf a43e d757 253d e4dc a43c
00000160: 4db7 03bd 0c17 103d b683 9d3d 2d49 8c3c
00000170: 20df 5abe 7f4a 8fbd 7af5 11bc ae5f c23c
00000180: 6ec9 16be 0d5a 83bd 540e 0b3f 7f9d 2abd
00000190: 8fc8 c63c dfe4 1ebe ea15 623d c0ac 6abd
000001a0: a8a3 1f3d 01ba a6bd c4c5 0fbe 88bc 893c
000001b0: f116 713e 6ace 103e 151e 36bd 9087 40be
000001c0: b129 963e 19e0 023e 5fa5 0bbe 9337 4abe
000001d0: 637e ccbd 890d 383d bc8c 053e c697 a4be
000001e0: 2620 42bc 63f0 a7be 2c43 56bb 8d1f fcbd
000001f0: 8b32 69be bc61 d93b 0527 153e cd60 d0bd
00000200: 1ab7 55be 9e23 6f3e 7488 96bc 0e69 e23d
00000210: b15b bd3d f6c9 adbe fae1 90bd 1e38 8d3c
00000220: afa7 1fbe e09b 0c3d 1b6d b93c ee9b 8e3b
00000230: 6b68 a3be f221 97bc c9b1 d93d caa2 a9bd
00000240: 5021 ab3d f6f5 00be 006c 2cbc 9a26 c83d
00000250: 74df 72bd 29e1 dabe f271 823c 5f3f edbc
00000260: 4372 3d3e c6b4 c4be e541 1abe 8209 a83e
00000270: 15b3 463c e994 aabb 06f9 b2bd e6e5 ba3e
00000280: 4208 f6bb 55e5 46bc f56f 113e 9dd3 56be
00000290: d62b 6b3b 9f95 9dbb 2be6 7abc c0e6 b63e
000002a0: 5fc0 c1bc ab2b 893d e598 5e3d 3110 c2bc
000002b0: 1f45 883e ef1e 65bd c3cf 30bc 5fb8 cc3d
000002c0: 7c10 293d e076 703e 4dd6 c6bc ba2c 943e
000002d0: 33d3 533d bf4e b4bd 8d32 d6be 8908 55be
000002e0: 2e07 e2bd 1608 463e e32e 743d cfeb b73e
000002f0: 61d6 ec3e 96e4 423e 1d39 ae3c 80af 5dbd
00000300: 4e72 1bbe 4e68 0e3c 79b1 f53d 64cd 14be
00000310: 0fd7 9e3d e26d 863e d7f0 3f3d 6b6f 723c
00000320: 5a8d e2bd 01df 3ebe bca9 223e c321 a0be
00000330: fd27 c6be 5f18 603e 9763 2cbd 1088 283b
00000340: b435 f73d 0c6f c5bd 91e6 9f3e 9170 30be
00000350: 7eb4 0c3e 9599 4abd aedc f4bc 22eb 0c3e
00000360: 8b50 113d 02f7 343d 5050 043d 9776 983c
00000370: 957e 40bd 0c02 e5bd cd93 a13d 8426 973d
00000380: b6e8 0a3c 6be6 c33d 1a38 6d3c 9bf3 0ebe
00000390: 2ba9 1f3d 1eb9 58bd 27b3 5c3c 3303 71bd
000003a0: 0692 743e 88ad 3dbd 594e ee3d 8fd1 edbc
000003b0: 5e6e 1d3d e461 bd3d c8ed 873d b1f8 abbc
000003c0: c127 923e b609 0bbd 462b a5bd 85e1 86bd
000003d0: d44d 713e e8bf 99be d526 5abd 20fa d4bd
000003e0: 0498 a7bc 4bdd b83e 08aa 873f adc6 193d
000003f0: 3a01 cebd e537 a1bc b815 68be da57 993b
0.26052427 0.14349417 -0.050435133 -0.33061314 0.03773638 -0.032255847 0.054429315 -0.12822717
0.09745868 -0.21601397 -0.0008033718 0.15332073 -0.15049191 0.20098236 -0.1847894 0.025978642
0.104748406 0.16653937 0.15976715 0.02550646 -0.16920063 -0.13768531 -0.305849 -0.123006806
0.04906119 0.027068047 0.0063069784 0.21828963 0.29644415 -0.12717095 -0.28165326 0.12860677
-0.064441375 -0.07382798 -0.01706262 -0.14862081 -0.011777701 0.2391546 0.031696927 0.008324499
-0.05875787 0.48561412 -0.108170256 -0.38274828 0.2033676 -0.0047898185 -0.041928034 0.12755366
0.14954202 0.025281586 -0.049575537 0.35017356 0.0042833127 0.019594766 -0.32879147 -0.08957
-0.50800496 0.14067394 0.19253525 0.20583278 -0.18704562 0.15161794 -0.007379325 0.043893635
-0.15752818 0.2406288 0.019166743 0.2287198 0.019017646 -0.07749082 0.12112817 -0.21207842
-0.19619517 -0.19804367 0.037576012 -0.09012983 0.05099636 -0.24263762 -0.24385086 -0.09432353
0.03726501 -0.02100722 0.045465082 -0.07085925 0.08659366 0.3220204 0.040366974 0.02012486
-0.03215723 0.03517823 0.076911375 0.017124737 -0.21374178 -0.06996631 -0.008908624 0.023727264
-0.14725277 -0.0641366 0.5431874 -0.041654106 0.024265556 -0.15516995 0.05519668 -0.057293653
0.038974434 -0.08140946 -0.14040285 0.016813532 0.23543908 0.1414124 -0.044462282 -0.18801713
0.29328683 0.12780799 -0.13637303 -0.19747762 -0.09985044 0.044934783 0.13041967 -0.32147044
-0.011848485 -0.32800588 -0.0032693846 -0.12310705 -0.22773187 0.0066339653 0.14565666 -0.10174713
-0.20870629 0.2335343 -0.018375613 0.11055194 0.092460044 -0.33943146 -0.070743516 0.017238673
-0.1559131 0.03432834 0.022635033 0.0043520844 -0.31915602 -0.018448804 0.10629613 -0.08283003
0.08355963 -0.12593827 -0.010523796 0.09772988 -0.059295133 -0.4274991 0.015923474 -0.028960882
0.18500619 -0.3841917 -0.150642 0.32819754 0.012127657 -0.0052057398 -0.08738904 0.36503524
-0.0075083086 -0.012139638 0.14202864 -0.20979162 0.0035884283 -0.004809096 -0.015313665 0.35722923
-0.0236513 0.06697782 0.05434503 -0.023689361 0.26615235 -0.055937704 -0.010791722 0.099961035
0.041275486 0.23482847 -0.024272108 0.28940374 0.051715087 -0.08804082 -0.41835442 -0.20804037
-0.11036526 0.19339022 0.059615027 0.35922095 0.46257308 0.19032511 0.021267468 -0.054122448
-0.15180323 0.00869186 0.11996741 -0.14531475 0.07755863 0.2625571 0.046860542 0.014797072
-0.11062117 -0.18639757 0.15885061 -0.31275758 -0.38702384 0.21884297 -0.042087164 0.0025715865
0.1207079 -0.09640321 0.31230596 -0.1723044 0.13740727 -0.049462873 -0.029890385 0.13761571
0.035477202 0.044180878 0.032303154 0.018611236 -0.046995718 -0.11182031 0.07889519 0.07380393
0.008478334 0.09565433 0.014478708 -0.13960116 0.03897969 -0.052910917 0.013470448 -0.05884094
0.23883829 -0.04630807 0.116360374 -0.02903059 0.038435332 0.09247187 0.0663715 -0.020992609
0.28545955 -0.033944808 -0.080648944 -0.06585983 0.23564845 -0.30029225 -0.05325969 -0.1039927
-0.020458229 0.36106333 1.0598764 0.037542988 -0.10058828 -0.019679973 -0.22664535 0.004679662

final.linears.2.bias f4 [24]
00000000: 4e24 c83c 6a4d d9bc a19b efbd 0419 b63c
00000010: d475 213b 9295 75bd 4d1c 02bc 953c 84bd
00000020: 4a12 573b 865d 4cbb 04f1 643d c847 68bc
00000030: 970c 5abc dbfd bb3b 99b6 f7bc 4bd3 2f3c
00000040: e5c1 a2bc 7c88 84bd 2980 44bd 8024 2e3b
00000050: 38a4 26bd f074 0fbd 2b8f bb3c b4ea 0cbc
0.024431374 -0.026526172 -0.11699606 0.022228725 0.0024636881 -0.059957094 -0.007941318 -0.064568676
0.0032817298 -0.0031183674 0.055893913 -0.01417727 -0.013308666 0.005737049 -0.030238437 0.0107315285
-0.019867847 -0.06471345 -0.047973786 0.0026572049 -0.040683955 -0.03502363 0.022895416 -0.008600879

layers.0.attn.0.gnn_q.weight f4 [24, 16]
00000000: 2827 93b9 3b5d 33b9 a11c f3ba 900a 333a
00000010: 4c39 2ebc fc86 1cbb 2398 993a dee7 b23a
00000020: 16c9 9136 ed50 833a 4d79 c0b9 34d3 b23c
00000030: 5c1f 033b 9bb0 4f3b f3d9 923c eaa3 67bc
00000040: 1eff 2eb9 39bd aeb8 3a3f 48ba b9df 8839
00000050: 6339 0dbc bc01 c0ba a433 e839 f802 ee39
00000060: 91ab 3436 e5c1 bb39 9024 28b9 861b 063c
00000070: 1c44 493a 46c8 ad3a 586c 1f3c 2677 22bc
00000080: ad36 56ba 9a92 9c3a d4a7 923b 177d 8ebb
00000090: 726e a3bc 4b50 0f39 da2b dcbb 1132 0a3a
000000a0: 49c4 2a37 91fe 2a39 cfff c3ba 689e 89bb
000000b0: 53a2 a4bb 160b 08bc 16a5 c23c 6aaf cebc
000000c0: 4f9f 7639 95f7 0fba 792b 0fbb ebad 033b
000000d0: 164a 6dbc 0b12 14bb 8da7 343b fbb8 9f38
000000e0: da08 4db6 413b 8cb8 cf41 ed39 3d29 2f3c
000000f0: 93ef 0f3b f50f 823b 0f4b 1a3c b545 65bc
00000100: 66c5 ccb7 c683 7f39 fd90 a93a 7b79 4aba
00000110: 3ac7 623b 895a 9639 acfa 9dba 3de1 8337
00000120: 6e6f 3bb4 5db0 14b9 56a7 72b8 8f53 2abc
00000130: b132 b2ba 2008 17bb 8674 9dbb f094 963b
00000140: 57ba c038 74d2 8938 860f 7439 b837 1cb8
00000150: 703a 963b 784f ba39 8474 44b8 b4bb 3bb9
00000160: 0790 d8b5 ec05 fab8 9bfa 0139 22e4 a7bb
00000170: 3259 5cb9 3848 a4b9 1c2f 9fbb ed65 aa3b
00000180: 9684 03b9 f62b 4db9 7c2f 50ba b6f8 b039
00000190: d427 2dbb a6b3 92b8 637e 703a 825f cc37
000001a0: 341c ab35 08f6 7239 c382 01b9 71e4 2f3c
000001b0: 01c4 573a 3a47 df3a 27aa d83b 490f a1bb
000001c0: 14b4 91b9 4921 7e38 04ae 2aba bc38 7db8
000001d0: 9867 67bb d9d9 a6b9 0601 f1b8 cfcf 003a
000001e0: 5e36 8636 ffdf 203a 2870 e6b9 eef1 923c
000001f0: 90ae 363a 307f 933a c84a 2e3c 78eb d5bb
00000200: a77a 1339 4c8f 4537 6db8 3638 3f1b 9039
00000210: 5238 923b 84aa 643a aea1 fd38 ced7 c1b9
00000220: 2c74 0fb6 9b8f 77b9 2c60 1939 6631 adbb
00000230: 5927 43b8 ae0e 40b8 7278 c4bb 99e1 b03b
00000240: b900 4ab7 d9fa ce37 f3e9 293a 1299 d0b9
00000250: f852 1e3c c2c1 073b 5ac3 0aba eea8 5cba
00000260: 5167 93b4 40e7 99b9 76f6 cb36 d47a e6bb
00000270: 30a2 2dba c3cb 95ba 7ede 14bc c31c 2c3c
00000280: 2007 d2b8 9cdc 7a39 5810 a13a 815f 83ba
00000290: 90f4 1d3c 2929 193b 7c5c c1ba 7a06 40ba
000002a0: c606 ac34 c84c 94b9 2dd5 32b9 80c1 30bb
000002b0: bb4c acba 50f4 0ebb e2a9 c2bb 6b71 173c
000002c0: f676 fc38 3343 b9b9 1f9f f7ba a533 c03a
000002d0: 9077 f0bb 5815 dbba 40f8 193b 8ff9 033a
000002e0: 2f66 bab5 07fb be39 9017 8a39 6eb3 073c
000002f0: d685 093b 9d41 5c3b fd24 c63b 425f eebb
00000300: b9f8 7b39 ba0f 1d39 4f1d 8139 6cb8 8cb8
00000310: 693e 12bc 310b 36bb a4cf c137 9a94 913a
00000320: d433 8cb6 b772 2b39 c3fb b939 7898 c1bb
00000330: 0f15 6bb9 8edf e3b9 7ec5 4b3b a9ed f7bb
00000340: 4a46 4239 dac7 57b9 1dfe 34ba 75b0 663a
00000350: 448e ddba 10f1 54ba 7ef8 ac3a 9302 8138
00000360: 713e 2eb6 8f3f 9bb8 1518 b639 d842 1cbb
00000370: 965d 583a 0e75 b83a d747 a8ba c8ff 6dba
00000380: d6aa 0ab6 f5e3 cdb8 94f2 6aba fe96 0b3a
00000390: 79c1 36bb 6593 40ba 47d8 5d3a 5458 4f39
000003a0: 3d69 95b4 f8f7 3239 1210 4738 e210 163b
000003b0: f373 613a abc4 cb3a 3951 403b 7bed 51bb
000003c0: f81f 62b8 bf1f 06b9 265a 0aba a158 8039
000003d0: b7e3 89bb f2bc 87ba b57a 0d3a 60ad 073a
000003e0: 9ea3 8235 9d92 af39 020f 8ab8 6c7b 543b
000003f0: aeb8 fd39 b04b 4b3a 273b b93b fca7 b1bb
-0.000280672 -0.00017105501 -0.0018547961 0.0006829882 -0.010633778 -0.0023884168 0.0011718314 0.0013649424
4.3447462e-06 0.0010018625 -0.0003671147 0.021829225 0.0020007705 0.0031690958 0.017926192 -0.014138201
-0.00016688972 -8.332212e-05 -0.0007638816 0.00026106628 -0.008619639 -0.0014648954 0.00044288964 0.0004539711
2.6921955e-06 0.00035811882 -0.00016035349 0.008185273 0.00076776906 0.0013258539 0.009730421 -0.0099161025
-0.00081715995 0.0011945546 0.004475573 -0.004348408 -0.019950125 0.00013667454 -0.0067190947 0.00052717427
1.0178491e-05 0.00016307297 -0.0014953556 -0.0041997917 -0.0050242334 -0.008303424 0.02376036 -0.025230128
0.00023519735 -0.00054919097 -0.002184598 0.0020092677 -0.0144829955 -0.0022593762 0.0027565688 7.616166e-05
-3.0552533e-06 -6.686757e-05 0.00045253194 0.010690984 0.0021962866 0.0039691874 0.009417309 -0.01399367
-2.4410616e-05 0.00024367784 0.0012936887 -0.00077237905 0.0034603612 0.00028677683 -0.0012052855 1.5721302e-05
-1.745627e-07 -0.0001418008 -5.785314e-05 -0.0103958985 -0.001359543 -0.0023045614 -0.0048051504 0.0045953915
9.189982e-05 6.571869e-05 0.00023275436 -3.724519e-05 0.004584603 0.00035535893 -4.6838555e-05 -0.00017903635
-1.6135172e-06 -0.00011922032 0.00012395756 -0.005123631 -0.00021014063 -0.00031334325 -0.004857911 0.005200139
-0.00012542526 -0.000195667 -0.0007941646 0.0003375464 -0.0026421444 -6.995285e-05 0.00091741065 2.436317e-05
1.2748701e-06 0.00023170572 -0.00012351111 0.010735617 0.0008230806 0.0017034777 0.0066120806 -0.004915152
-0.00027790724 6.058932e-05 -0.00065109157 -6.037274e-05 -0.003530955 -0.00031824296 -0.00011491966 0.00049137784
3.9998404e-06 0.00061368936 -0.00043952581 0.017937627 0.0006968761 0.0011253115 0.010637946 -0.006528314
0.00014064704 1.1775479e-05 4.356394e-05 0.0002748612 0.0044622803 0.00087229186 0.00012094095 -0.00036972616
-2.1376281e-06 -0.00023609253 0.00014627044 -0.00528543 -4.652827e-05 -4.579004e-05 -0.0059958035 0.005397987
-1.20403065e-05 2.4673924e-05 0.00064816995 -0.00039786898 0.009663336 0.0020714854 -0.0005293392 -0.00084175065
-2.7456056e-07 -0.0002935473 6.0785633e-06 -0.007033685 -0.0006623594 -0.0011428524 -0.009086249 0.010504904
-0.000100149075 0.00023924041 0.0012288196 -0.0010022969 0.009640828 0.002337048 -0.0014752294 -0.0007325184
3.2042425e-07 -0.00028285966 -0.00017054817 -0.0026970804 -0.0013145426 -0.0021813102 -0.0059406618 0.00924335
0.000120384546 -0.00035336017 -0.0018892026 0.0014663829 -0.0073384717 -0.0016714735 0.0023493916 0.00050344405
-1.3887819e-06 0.00036426654 0.00026338967 0.008282525 0.0020984313 0.0033608445 0.00604689 -0.007274539
0.00024029882 0.00014978545 0.00024626634 -6.7100715e-05 -0.008926013 -0.0027777667 2.3104083e-05 0.0011106909
-4.1783587e-06 0.00016350565 0.00035473527 -0.0059080683 -0.00022419191 -0.00043463375 0.0031093056 -0.007566173
0.00018527466 -0.00020578448 -0.0006904321 0.0008800098 -0.001690336 -0.00081230793 0.0013196615 6.151679e-05
-2.5964366e-06 -7.402815e-05 0.00034731688 -0.0023843553 0.00082536915 0.0014072971 -0.0012838793 -0.0009078947
-2.0663042e-06 -9.817622e-05 -0.00089625386 0.0005324929 -0.0027886315 -0.0007346182 0.0008462709 0.00019773963
-2.7829984e-07 0.00017067778 4.7460264e-05 0.0022898247 0.00086003466 0.0015546283 0.0029345287 -0.0032032419
-5.3912372e-05 -0.00012791062 -0.00052777154 0.00024480096 -0.004208054 -0.0010355993 0.0005397008 0.0005175676
9.733374e-07 0.00033487836 -6.583148e-05 0.0032422198 0.00048393517 0.0007755114 0.0056528035 -0.0054216366

layers.0.attn.0.gnn_q.bias f4 [16]
00000000: d385 9f39 e3fc 483a cd55 2d3b 0bf3 d5ba
00000010: a7f1 4bbd cfb0 85bc acf1 15bb 9aac 033c
00000020: 2585 b0b6 0d97 123b a041 fc39 6797 28bd
00000030: d4d8 11bb 0373 b3bb c455 b83c 8951 32bd
0.0003042655 0.00076670776 0.0026448846 -0.0016323043 -0.049791005 -0.01631966 -0.0022879643 0.008036757
-5.260709e-06 0.0022367865 0.0004811408 -0.041160014 -0.0022254484 -0.005476357 0.022501834 -0.04353479
