checkpoints/cyp1a2_veith_40_train1_neg/Sep06-05:08:19_900.pth (torch, 471814 bytes, 294 tensors)

layers.0.weight f4 [24, 16]
000000 2f 36 6b 3f cd 7c b0 3f 12 b5 e5 3e 4f 12 89 be
       0.9187955 1.3788086 0.44864708 -0.2677178
000010 fe ce 57 3f c0 8d 34 3f 06 9f 3b bf 84 50 eb 3d
       0.8430022 0.70528793 -0.73289526 0.114899665
000020 c3 8a e3 3e 5e 39 94 bf 1e 0d ac 3f c9 3a 89 3e
       0.44441804 -1.1580007 1.3441503 0.26802662
000030 4e 8c 0b 3e 8d 0a 90 3f 46 45 48 3f dd 1a 44 bf
       0.1362774 1.125322 0.782307 -0.7660349
000040 10 0c 4e 3f 5f 2f 83 3e 7d 8b 44 bf 56 a0 26 bc
       0.80487156 0.2562208 -0.7677534 -0.010170063
000050 d6 16 68 bf 4f 29 2f 3f c8 7b 64 bf 40 67 13 be
       -0.90659845 0.68422407 -0.89251375 -0.14394855
000060 45 b0 44 bf 05 b3 7a bf 4f 0b 84 3e c0 6b e7 be
       -0.76831466 -0.9792941 0.25789878 -0.45199394
000070 d5 b5 23 be 15 51 93 bf 4b 97 4b 3f 2e 6a 78 bf
       -0.15987332 -1.1509119 0.7952773 -0.9703702
000080 7d a8 90 3d 75 54 88 3d e1 88 9f 3d 11 3f d6 3e
       0.070633866 0.06656734 0.077897795 0.4184499
000090 b8 75 c2 bc 26 6b 36 3d 0f 58 cd bb d7 97 6e 3d
       -0.023737773 0.04453578 -0.006266601 0.058250275
0000a0 0d 9b 80 3d 85 a0 17 be 3a e0 fb 3c 14 50 c4 3c
       0.062795736 -0.14807327 0.030746568 0.023963965
0000b0 9e 73 1e bd 03 a7 c9 bd 7f ed d2 3d bd 1d 7b bd
       -0.03868448 -0.09846308 0.10299205 -0.061307658
0000c0 26 9b a3 3d fc a4 18 3d 93 f0 c2 3d ca c2 ef 3e
       0.079885766 0.037266716 0.09518542 0.468283
0000d0 0a f0 2a bd 56 33 4a 3d 74 22 f6 b8 da 4f 14 3d
       -0.041732825 0.049365364 -0.000117366115 0.036208965
0000e0 25 01 89 3d 75 20 1c be f9 31 dc 3c 3d a3 96 3d
       0.066896714 -0.15246756 0.026879298 0.07355354
0000f0 56 21 45 3a 66 76 d3 bd 85 33 cc 3d 16 f9 27 bd
       0.0007519921 -0.10325317 0.09970764 -0.04100903
000100 1c d0 ac 3d fe 4f 10 3d 36 53 1a 3d 06 7b 56 3e
       0.08438131 0.035232536 0.037677012 0.20945367
000110 f9 b3 e3 bc 72 e2 43 3d 0c 77 18 bc fe ea 1e 3d
       -0.027795779 0.047823377 -0.009305727 0.038798325
000120 63 c9 d0 3c 96 f3 05 be 76 89 07 3d d6 3c 00 3e
       0.025486654 -0.13081202 0.033090077 0.12523207
000130 93 8d 49 bc c0 cc 95 bd 14 11 9d 3d 87 0a 28 bd
       -0.01230182 -0.073144436 0.07669273 -0.041025665
000140 29 b8 90 3d 23 6d 7a 3d d6 4c de 3c da bb d5 3c
       0.07066376 0.061139237 0.027136248 0.026090551
000150 cb 8e e0 bc ab 7a 2e 3d a0 22 b7 bc c8 2c 2e 3c
       -0.027411839 0.042597454 -0.022355378 0.010630794
000160 0f c7 85 3c 6e 36 df bd 58 c4 6c 3d 4a d4 4c 3b
       0.01633027 -0.108990535 0.057804435 0.0031254464
000170 94 2e c6 bb 09 87 74 bd 34 68 5a 3d 95 f6 f5 bc
       -0.006048033 -0.059699092 0.053322032 -0.030024806
000180 d8 49 83 3f 23 34 8e bf ba 58 ee bc f5 6d 7c be
       1.025691 -1.1109661 -0.029095042 -0.2465132
000190 fe e4 a5 bf 71 a8 85 3f e7 46 5a 3e de f3 b6 be
       -1.2960508 1.0442029 0.2131611 -0.3573293
0001a0 b6 2c ac bc 70 57 a3 bf 82 db 88 bf 07 71 99 bf
       -0.021017414 -1.2761059 -1.0691988 -1.1987618
0001b0 17 1b b4 be f8 e8 d5 bf 38 63 98 3f b5 d1 78 3e
       -0.35176918 -1.6711721 1.1905279 0.24298747
0001c0 f1 84 65 3d 2c ca 8d bf 3f 86 d9 bc c3 84 84 bd
       0.056034986 -1.1077323 -0.026553271 -0.06470635
0001d0 1e d9 b8 be 91 c4 b8 be 52 bc 5b bf 0c e7 b0 bd
       -0.36103147 -0.36087468 -0.8583423 -0.08637819
0001e0 67 d6 da bc 4f a7 14 bd 81 40 8b bf d5 f3 73 be
       -0.026713563 -0.03629237 -1.087906 -0.23823483
0001f0 1d 7c 94 bd 53 3b e1 be c8 14 e4 be 4c bc 68 bf
       -0.07250235 -0.43990573 -0.44547105 -0.9091232
000200 32 76 5f 3f 1b f5 bc be d7 1c 0d 3f 5a 71 9c be
       0.87289727 -0.3690575 0.5512213 -0.3055523
000210 3e 9c e9 be 5b 09 70 3f 96 1c a7 be 83 c1 2f be
       -0.45627016 0.93764275 -0.32638997 -0.17163663
000220 1f d0 0a 3f 8e d3 87 bf ee 73 b5 be d5 f1 1b bf
       0.5422382 -1.0611436 -0.3544001 -0.6091588
000230 c8 f4 16 be de c7 18 bf 2a 96 83 3f b1 c0 b5 be
       -0.14741814 -0.59679973 1.0280201 -0.35498574
000240 bb b9 cf 3d a7 3b ce 3d d7 24 7d 3c 0a d5 08 3e
       0.10142847 0.100699715 0.015450678 0.13362518
000250 7b d9 0e bd be 6c 96 3d 76 12 c1 bc e3 b1 83 3c
       -0.034875374 0.0734496 -0.023568373 0.016076034
000260 36 10 5d 3c 5a af 20 be c9 3f 9a 3d 48 ed 19 3d
       0.0134926345 -0.15691891 0.07531697 0.037579805
000270 0c a9 62 3c e0 d4 51 bd 47 98 c6 3d 52 ee 4d bd
       0.013834249 -0.051228404 0.09697013 -0.050276108
000280 f4 16 07 3e 0c 26 c6 3d d2 65 3e 3d 80 dc eb bd
       0.1319235 0.096752256 0.046483822 -0.115166664
000290 21 3e ae 3c dc 1c dc 3c c1 b0 ed bd 16 4a 96 bb
       0.02126986 0.02686923 -0.11605979 -0.0045864685
0002a0 79 2e 56 3d d6 11 31 be a7 72 be 3d c7 12 15 3d
       0.052290414 -0.1729196 0.09299212 0.03639486
0002b0 45 71 61 bc d1 8a eb 3c 8c 3e 04 3d f4 ca f6 bd
       -0.013759916 0.028752716 0.03228621 -0.12050429
0002c0 21 bf 79 bf 8c fe f1 3d ee af 9e bd b8 da ad bc
       -0.97557265 0.11816129 -0.077484 -0.021222457
0002d0 31 19 9c be 21 0e 22 3f b1 a1 18 3e 39 88 14 3c
       -0.3048797 0.6330281 0.1490543 0.009065681
0002e0 71 50 a5 bd 3a 1e 9f 3f 65 71 ea 3d aa 94 2c 3d
       -0.080719836 1.24311 0.114474095 0.042133965
0002f0 3a f3 8a 3b c9 a5 c4 be e1 f7 35 3f 32 d0 0b 3e
       0.0042404206 -0.38407734 0.7108136 0.13653639
000300 76 7c 23 3e b6 00 1e 3f 02 78 3c bf f6 89 07 3e
       0.15965447 0.61719835 -0.7362062 0.13236222
000310 cb 65 29 bf 4a db 56 bf 1c 2a 38 bf e8 66 e5 bc
       -0.6617095 -0.8392836 -0.71939254 -0.028003171
000320 76 48 3b bf 4a b8 65 be 0b 51 18 3f cd 7e c2 3d
       -0.7315744 -0.22433582 0.5949866 0.094968416
000330 2a 02 54 ba 9a df 50 bf 65 1f 76 bf c6 3e 47 bf
       -0.00080874807 -0.8159119 -0.96141654 -0.7783016
000340 d5 b9 da bc 65 95 19 3f 05 0c fa 3e b6 14 3b bd
       -0.02669994 0.5999358 0.48837295 -0.04567405
000350 74 19 19 be 76 1e 30 bf 6c 54 95 3e fe fc 89 3d
       -0.14951116 -0.6879648 0.2916597 0.067377076
000360 51 6c fe 3e f7 95 a6 3c 46 f8 1a 3f c8 25 9e 3e
       0.49692014 0.02033518 0.60535085 0.308882
000370 d9 3c a1 3d 78 6a 4d be de 7b 43 bf 2c ca 97 3e
       0.07872934 -0.20060146 -0.7636088 0.29646432
000380 97 77 98 bf a5 42 d1 3e f8 30 08 3e 64 35 1f 3d
       -1.1911496 0.40871158 0.1329993 0.038869277
000390 54 16 3b bf 44 e1 72 bf 38 62 87 bf 7e d9 06 3e
       -0.73080945 -0.9487498 -1.0576849 0.13168904
0003a0 1b f2 ec 3d 70 35 bd 3f 1e e2 cf 3e 01 40 1d 3f
       0.115696155 1.4781933 0.406022 0.6142579
0003b0 21 b8 fb 3d 06 04 6b bf b4 c3 8a bf 20 32 95 bf
       0.12290979 -0.91803014 -1.0840974 -1.1655922
0003c0 14 99 f2 be b4 88 14 bf 3e f7 9a 3e 52 10 ed 3c
       -0.47382414 -0.5802109 0.30266756 0.028938446
0003d0 a6 17 c7 be 71 58 31 be 47 2f f4 bf 4a dc 96 3d
       -0.3888523 -0.17318894 -1.9076928 0.073662356
0003e0 60 c6 93 3e c3 ff 18 3f d3 71 0f bf f3 d5 f9 3e
       0.28862286 0.5976526 -0.56033057 0.48796043
0003f0 ee b2 a1 3d 9e 92 f5 be 14 76 46 be aa 97 05 c0
       0.07895456 -0.47963423 -0.1938098 -2.0873818

layers.0.bias f4 [16]
000000 c2 dd 66 be a0 51 5c 3e 15 34 49 3e 43 ea c8 be
       -0.22545531 0.21515512 0.19648774 -0.39241228
000010 df 5a 42 3e dc d1 86 be d1 1a 82 3e e1 25 6c 3f
       0.18979977 -0.26331985 0.25411084 0.922453
000020 ff 1a 9d be 5d e7 84 be bf a6 96 be 46 d0 25 bd
       -0.3068466 -0.25957766 -0.29424092 -0.04048183
000030 54 3e 61 bf fa 48 a7 be f5 b4 8a 3e 93 b5 88 be
       -0.8798573 -0.32672864 0.27091184 -0.2670103

layers.1.weight f4 [16, 16]
000000 8a de 1a bf d0 3c 3b 3d 15 2a 59 3d a4 80 13 3f
       -0.6049582 0.045712292 0.05301865 0.57618165
000010 f3 20 91 bd 48 99 17 be e3 56 01 be 4b 24 6b be
       -0.07086363 -0.14804566 -0.12630801 -0.22963063
000020 9e 32 e8 3e e2 ab 44 3f 78 91 3c bd 9c 14 4d be
       0.45351118 0.7682477 -0.046037167 -0.20027393
000030 e4 15 27 be ea 26 92 bf d8 72 04 bf 7c 88 ee bd
       -0.16316944 -1.1418126 -0.5173774 -0.11647126
000040 f5 a9 c4 3e d9 12 38 be 48 96 01 3f d9 10 98 3e
       0.38410917 -0.1797594 0.50619936 0.29700354
000050 27 ae ba 3d 8a 2a 86 bf a4 56 0b 3d 7e 2b 9a 3e
       0.09115248 -1.0481732 0.034018174 0.30111307
000060 0b 4c 85 be 3b f8 3b 3f 19 48 a3 be bd bc 35 3e
       -0.2603458 0.73425645 -0.31890944 0.17747779
000070 0e da 8c 3d c2 c4 ea 3e 81 06 0e 3f 09 b2 b2 bc
       0.06877528 0.4585324 0.55478674 -0.02181341
000080 2b 2d 5b 3e 89 d9 2a be 00 48 18 bf 63 3b 0c bf
       0.21403949 -0.16684546 -0.59484863 -0.54778117
000090 9f 64 1b 3e 8c b2 91 be e7 87 ac 3c 1b 1a 81 3e
       0.15175103 -0.28456533 0.021060897 0.2521523
0000a0 66 dd ee 3d 74 c2 d3 3e 3a c4 a0 be 91 30 2f 3e
       0.11663322 0.41359293 -0.3139971 0.1710837
0000b0 61 f7 06 be c6 0c 52 be ca f4 2a 3e e0 c7 e2 bd
       -0.13180305 -0.20512685 0.16694942 -0.110732794
0000c0 5a a6 17 be 72 24 42 bd ad 34 1b 3d e1 55 59 3e
       -0.14809552 -0.04739804 0.037892032 0.21224166
0000d0 25 8d 7f bd f3 be 86 bc 03 58 61 3c 6e a6 f1 bc
       -0.062390465 -0.016448474 0.013753894 -0.029498305
0000e0 9f d5 88 be fa 48 19 3e 78 22 37 be 1e 85 56 bd
       -0.2672548 0.14969245 -0.17884243 -0.052373044
0000f0 f7 5f 6d bd 28 a1 02 3e 89 7c b0 3d 68 15 97 3d
       -0.057952847 0.12756789 0.08617503 0.0737713
000100 0d 0b 13 3f 35 4a f4 bd 31 59 f6 be c9 db 88 bf
       0.5743874 -0.11928216 -0.48114923 -1.0692073
000110 29 a5 7b bc a6 e0 5f bf bc f2 82 3e 1f 94 80 3e
       -0.0153592015 -0.8745216 0.25575817 0.25113007
000120 57 96 c6 3e 8b f9 94 3e ba 2a ef be 1c a8 53 3e
       0.38786575 0.29096636 -0.46712285 0.20669597
000130 ac de 9f 3e 72 cf 9f 3d aa ec ad 3f 20 88 ca 3b
       0.31224573 0.07803239 1.3587849 0.006180778
000140 bb 43 0e bf b4 48 46 3d 5b 8e b5 bf 93 3f 5a bf
       -0.555721 0.04840918 -1.4184068 -0.85253257
000150 04 dc b9 bd 5e 5d 33 3f e3 31 3e bd 64 7c 72 be
       -0.09075168 0.7006434 -0.046434294 -0.23680264
000160 f2 97 17 3f 62 a6 6e be f7 3b 06 be bc 44 53 be
       0.59216225 -0.23305658 -0.13108812 -0.20631689
000170 42 09 b2 bd a3 6f 8f bf 32 9a 58 be ff 41 e6 bd
       -0.08693172 -1.1205944 -0.21152571 -0.112430565
000180 5b 99 16 3f 28 b7 45 3d 81 b0 2b 3e e6 69 aa be
       0.5882775 0.048270375 0.1676655 -0.3328392
000190 b0 90 12 3e 36 ab a6 bf a7 81 06 bd 1e 36 6c 3e
       0.14313006 -1.3021 -0.03283849 0.23067519
0001a0 7b be 6d 3f db 40 13 3f c3 95 89 3e 83 d2 3d 3e
       0.92868775 0.57520837 0.26872072 0.18537335
0001b0 c2 5b 55 3e b1 3e 94 be 85 a3 1e 3e 90 4a 16 3d
       0.20835784 -0.2895408 0.15492065 0.036692202
0001c0 35 9e 88 be 93 0c e6 3f 1b 90 35 bf 46 05 51 bd
       -0.26683202 1.7972587 -0.7092301 -0.05103042
0001d0 e9 03 03 3e 4f 7f 81 bd 73 5d 7d bf 75 a3 4c 3f
       0.1279446 -0.0632311 -0.9897072 0.79936916
0001e0 c0 55 cb be 5f f7 65 3f cb 10 80 bf bc 1a 43 bf
       -0.3971386 0.89830583 -1.0005125 -0.7621267
0001f0 2f d7 d4 be af da c1 be e9 44 8b 3e e6 3e fc be
       -0.41570422 -0.37862155 0.27201012 -0.49266738
000200 24 29 80 be 30 09 ad 3d d2 b5 3c bf 50 ee 50 bf
       -0.25031388 0.08449018 -0.73714936 -0.81613636
000210 7e 63 47 be c3 fd cf be 3d 8b a2 3d f5 01 8d be
       -0.19471547 -0.40623292 0.07936714 -0.27540556
000220 31 cf b9 3e 35 81 98 3e 30 2a 13 be e2 78 3d be
       0.36290887 0.29786077 -0.14371562 -0.18503144
000230 e2 dd 44 3e d8 a8 93 be 43 3f 96 3e 79 5e 80 3d
       0.19225267 -0.28839755 0.2934514 0.06268019
000240 ee 08 0b bf fb 83 41 bd 2c a1 d2 be 21 db 85 3d
       -0.543105 -0.047245007 -0.4113859 0.06535936
000250 6d ba 00 be 03 ea 59 3f 08 69 89 3d da 49 63 be
       -0.12571116 0.851227 0.06709486 -0.22196141
000260 87 ee 79 bf ea 46 8a be 60 2b fb be 83 59 55 be
       -0.9762959 -0.27007228 -0.4905653 -0.20834927
000270 9d dd 49 be bf 6b 9c 3e de bd 16 bc 85 21 94 bd
       -0.19713445 0.30550954 -0.009200541 -0.07232956
000280 f3 ae cc be 57 47 8f 3b ff c0 f4 3e 48 d8 42 3f
       -0.39977226 0.004372518 0.47803494 0.7611127
000290 b5 0c 66 be 9b 60 01 bf 3e 0c c0 3d 0a 2a 8f be
       -0.22465785 -0.50538033 0.09377335 -0.2796176
0002a0 27 51 80 be 4a 25 57 3f f2 35 96 be 59 a2 5c be
       -0.25061914 0.84041274 -0.29338032 -0.21546306
0002b0 0b 69 8e bd 5b f4 83 3c fa 74 65 3d 91 8a 07 3d
       -0.06953629 0.016107729 0.05601976 0.03309113
0002c0 2d d2 1e bc be 00 ac be 8e c6 94 be d2 79 a5 be
       -0.0096936645 -0.33594316 -0.29057735 -0.32319504
0002d0 04 6e 4c be 60 43 83 be 89 01 b4 3e 8d 6f 0c 3d
       -0.19963843 -0.2563734 0.3515742 0.03428607
0002e0 38 45 17 bf 12 7a 73 3e d9 bf 4f bf 8c 7b b8 bd
       -0.59089994 0.23777035 -0.8115211 -0.0900794
0002f0 5f 0f 36 bd c7 31 20 3f f5 cb 66 3f 98 a9 56 3d
       -0.044448253 0.62575954 0.90154964 0.05240783
000300 98 cf 8a 3e b8 9c fb 3f 4f 27 20 be da 91 66 bf
       0.27111506 1.9657202 -0.15639995 -0.900663
000310 60 06 c9 3e 9c 66 80 bf 04 d9 8b bf fa 5e 6f 3f
       0.39262676 -1.0031314 -1.0925603 0.935043
000320 58 37 d9 3e 01 59 8f 3e 48 f2 b7 be 30 f6 49 bf
       0.42425036 0.27997592 -0.35927033 -0.7889128
000330 fa 24 e8 3e f7 8b 8a 3e 35 cf 92 3f 5b 00 be 3e
       0.4534071 0.2705991 1.1469485 0.37109646
000340 7f 2c 05 bf c8 b8 1c be bc f7 35 bf ba 69 61 be
       -0.5202102 -0.15304863 -0.7108114 -0.22012988
000350 03 d5 27 be 42 7a 82 be f0 7a 30 3d b8 05 4e be
       -0.16389851 -0.254839 0.043085992 -0.20119369
000360 4c 1a 21 be cd ae 4a 3f e6 f6 65 bf 56 b6 82 be
       -0.15732688 0.79172975 -0.8982986 -0.25529736
000370 ae 6c d1 bd e7 0a 8d be 89 a8 06 3e e1 f1 2b be
       -0.10225807 -0.2754738 0.13150229 -0.16791488
000380 92 7f 05 3f 25 97 21 3d 65 81 aa be 2d 53 70 bf
       0.5214778 0.039450783 -0.33301845 -0.93876916
000390 1f 69 45 3e c8 8f 45 3e 23 eb 09 bd 4d af 71 3e
       0.19278382 0.1929313 -0.03367151 0.23602028
0003a0 45 33 5d 3f 4f 82 24 bf f0 8b c2 3e cb 47 5d 3e
       0.86406356 -0.64261335 0.3799739 0.21609418
0003b0 59 be 16 3e 1f 04 9f be 08 f7 43 bd bd 63 cc 3c
       0.1472105 -0.31057832 -0.04784301 0.024949903
0003c0 76 18 10 bf 17 25 8d 3c be a8 48 bd ae 14 dc 3e
       -0.56287324 0.0172296 -0.04898905 0.42984527
0003d0 55 08 db bd dd 47 9f be 93 aa a8 bd 55 a1 81 be
       -0.106949486 -0.31109515 -0.082356595 -0.253184
0003e0 35 b4 99 3e 74 a9 7c 3f 2e b4 e9 3c de 14 22 be
       0.300203 0.98696065 0.0285283 -0.15828273
0003f0 64 1e b9 bd 87 9b 5a bf cf 97 dc be 92 07 16 be
       -0.09039 -0.85393566 -0.4308457 -0.14651325

layers.1.bias f4 [16]
000000 2d 38 dd be 41 f5 d4 3d 16 0e 01 be 43 14 17 be
       -0.4320692 0.10398341 -0.1260303 -0.14753823
000010 27 74 63 be 2e 15 de bc ac 20 91 bd 20 e0 1f bf
       -0.22212277 -0.027109709 -0.0708631 -0.6245136
000020 22 ff a3 3d c4 6f 32 3c 1f 9f 30 be a6 47 1f bf
       0.08007647 0.010890905 -0.172482 -0.622187
000030 d5 93 a9 3e bd 4c 86 bd 3e 93 9a 3d b4 2b eb 3e
       0.331206 -0.065576054 0.075476155 0.4593178

final.linears.0.weight f4 [112, 56]
000000 ec f3 de ba 95 0b 7e ba dd 53 ba 3f 25 d0 78 3f
       -0.001700995 -0.0009691057 1.4556843 0.97192603
000010 d2 eb 52 c0 c1 bf 85 3e ca b1 e4 ba ed d6 ae 39
       -3.2956433 0.2612286 -0.0017448005 0.00033347998
000020 e3 a6 2b 3d 27 99 ca 3e 6b 81 51 3e 27 d1 9d 3b
       0.041907202 0.3956997 0.20459525 0.0048161927
000030 66 dc c5 3b 8d 45 f7 ba ba 1c e2 bb 60 81 43 3c
       0.0060382364 -0.0018865332 -0.006900397 0.011932701
000040 3c 75 9b bc ec 37 e0 bb 7e ce bd ba 22 5c 19 3c
       -0.0189768 -0.006842604 -0.0014481095 0.009360345
000050 e7 c9 53 bc c3 b4 01 3d 70 23 99 3c d0 62 2c 3b
       -0.012926555 0.03166653 0.018693656 0.0026304014
000060 e2 47 f5 3b 0b 88 09 3d a5 01 88 3d 0e 1f 84 bc
       0.0074853757 0.033577006 0.06640939 -0.01612809
000070 b1 d7 75 bc 07 78 0d bc 21 8d 5d 3c 13 cc 77 3e
       -0.015005038 -0.008634574 0.013522417 0.24198942
000080 9c 6e 84 bd 1f b4 97 bb e5 74 fe bc 85 fd d8 3c
       -0.064664096 -0.0046296264 -0.031061599 0.026488075
000090 60 d2 67 be 0a 06 75 3c 27 42 d0 3c b9 f6 d0 bb
       -0.22638845 0.014955053 0.025422169 -0.006377068
0000a0 37 49 a0 3d e8 e8 8d 3c ce 00 e9 bd d6 46 06 3e
       0.078264646 0.017322972 -0.113771066 0.1311296
0000b0 1a 5b d1 bd 9a e7 0e 3e bc e8 22 bc de c8 ac bd
       -0.10222454 0.13955536 -0.0099431835 -0.0843675
0000c0 04 a8 f5 bd c5 0f f5 3d 41 17 80 bd cd ac ec bc
       -0.11994937 0.119658984 -0.06254435 -0.028890992
0000d0 db 5f fb bd ed e5 fb bd 62 ff a6 bd a4 73 f5 bd
       -0.12274142 -0.12299714 -0.08154179 -0.11984947
0000e0 23 d1 d8 be c1 37 36 3f a8 f4 1d 3e a9 46 0e 3e
       -0.4234706 0.71178824 0.1542536 0.13894142
0000f0 ad 12 3c 3e aa 94 06 3e 91 76 8c be f3 cb 37 be
       0.18366499 0.13142648 -0.2743421 -0.17948894
000100 36 ae b2 3e 74 a1 49 3e 1f a7 8a 3e 00 f9 18 3f
       0.34898537 0.19690496 0.27080628 0.59754944
000110 e3 bc 5f be 99 ce 99 3e 26 99 8b be 28 64 21 3f
       -0.21849398 0.30040434 -0.2726528 0.6304345
000120 4f 83 d0 3c 27 1e 53 bd 63 71 8b 3f 4b db a8 bd
       0.025453238 -0.051542427 1.0893978 -0.08244952
000130 63 6a 48 3d 31 38 27 3f 86 e5 a0 be 03 3e 69 3d
       0.048929583 0.65320116 -0.31425112 0.056943905
000140 e5 95 ed 3d 24 52 8b bd fc 63 54 bd de ff 8a 3e
       0.11600856 -0.068027765 -0.051853165 0.27148336
000150 58 1d fc bb 2a 67 c1 3d 27 27 60 3c cb cd c3 bd
       -0.0076939277 0.09443505 0.01368121 -0.09560736
000160 b6 91 21 3e 53 61 ad bb 55 01 c8 3d 4a 13 c9 bc
       0.1577824 -0.005291143 0.09765879 -0.02454533
000170 3a 46 e5 3c 6f a0 39 3e f8 eb 3c bd 99 51 35 3e
       0.027987588 0.18127607 -0.046123475 0.17706908
000180 6a c6 04 3b d5 75 d7 bd 4a 3f 09 be 1b 43 0a 3e
       0.0020259866 -0.105205216 -0.13403049 0.13502161
000190 ea 45 88 bd e0 d2 26 3e 76 62 04 3e 2f a1 9a 3c
       -0.0665396 0.1629138 0.12928185 0.018875686
0001a0 51 35 25 be 76 39 6e 3d 62 26 52 bd 1e 32 f7 3b
       -0.1613362 0.058160268 -0.051306136 0.007543816
0001b0 d7 17 7a bd 33 f7 94 bd 7a 1f d0 bd 5d 76 04 be
       -0.06105789 -0.07273712 -0.10162254 -0.12935777
0001c0 87 e5 20 be 36 b2 6f 3e c6 d8 7b bd 82 b6 a0 bd
       -0.15712558 0.23407826 -0.061486028 -0.078473106
0001d0 95 8f 79 bd 92 79 8e bd 5f 7c b6 be e3 84 bc bd
       -0.060927946 -0.069567814 -0.35641763 -0.09205034
0001e0 17 9f a0 3d 5a 0d ad bd 46 5c b8 bc e7 a7 b6 3d
       0.07842844 -0.08449812 -0.022504937 0.089187436
0001f0 60 79 02 3e 1c 31 66 be 58 65 69 bc f4 ed eb bd
       0.12741613 -0.22479671 -0.014245354 -0.11519995
000200 dd 62 ce be 90 4c a1 3e 73 5d a9 bd 3c c0 46 be
       -0.40309802 0.31503725 -0.08269777 -0.19409269
000210 39 a8 a4 3c 9c f6 0a be a3 5d e6 bd a8 ff a5 3e
       0.020099746 -0.13570637 -0.112483285 0.32421613
000220 06 50 d2 bd 9b 94 b7 3d a0 bb 88 3d 4c 5f c8 3a
       -0.102691695 0.08963891 0.06676412 0.001528719
000230 5f fa fd 3d e0 ae e9 bd df f0 e2 3d b4 be 46 bd
       0.1240127 -0.11410308 0.11081099 -0.048521712
000240 7d fd 93 bd cd 04 f9 bd 46 d3 ee bd 22 3a c0 3c
       -0.072260834 -0.12159119 -0.11661391 0.02346522
000250 84 75 30 3d ca 06 db bd c0 ac ef 3d e9 bb ca bd
       0.04308082 -0.10694654 0.11702871 -0.09899122
000260 a0 a7 a5 3d 93 f8 1d bb bd cd e5 3b c8 ac 83 bc
       0.080886126 -0.002410446 0.0070130513 -0.0160736
000270 7d 34 11 bc 39 5b e1 ba 55 41 50 3d 27 56 59 bc
       -0.008862612 -0.0017193324 0.050843555 -0.013265169
000280 3c 1c cb 3b c0 a0 46 ba e1 46 a8 bc db f5 e1 bc
       0.006198434 -0.0007577054 -0.02054161 -0.027583053
000290 76 1c 2b bd 5f 58 03 3c 4a 1c 9a bc 7e 07 96 bc
       -0.04177519 0.008016675 -0.018812317 -0.01831412
0002a0 b1 41 46 3d be 18 e1 be 31 fd 1c 3e c7 8f 1b 3e
       0.048402492 -0.4396419 0.1533096 0.15191565
0002b0 45 ca 20 3e 0a cb 17 3d fc db f6 3e 52 44 0a bf
       0.1570216 0.037058868 0.4821471 -0.540105
0002c0 f9 69 02 3e f7 79 d1 3d 39 d3 73 3e 43 c1 11 3f
       0.12735738 0.10228341 0.23811044 0.5693552
0002d0 43 c0 d0 3e bf 98 87 bd 03 50 25 bf ef 7e fd be
       0.40771684 -0.06620931 -0.64575213 -0.49510905
0002e0 02 6c 83 be ac ec 0d 3f d2 2f 6e 3e 6c 6b f7 be
       -0.2566834 0.5543926 0.2326043 -0.48324144
0002f0 b0 ee 0d be 98 72 c0 3d c2 aa b5 3e 86 c3 9d bf
       -0.13860583 0.09396857 0.3548184 -1.2325294
000300 f1 85 13 3d f5 d6 25 bd de c6 a0 bd 0c 03 3b 3c
       0.03601641 -0.040488202 -0.07850431 0.011414301
000310 83 7a 09 bd 8c 6f 2d 3d 76 c2 1a bd 44 82 d8 bd
       -0.033564102 0.042342708 -0.03778311 -0.10571721
000320 3d 74 d9 3d 46 b0 ef 3c b7 d3 a7 3d ff 75 18 bd
       0.10617874 0.029258858 0.08194678 -0.037221905
000330 3d 2f cd 3d c8 dd 98 3c b4 7d 56 bd d7 84 40 3d
       0.100187756 0.018660441 -0.052365974 0.047001686
000340 09 0e b2 3c 10 93 af 3b 45 66 19 bd 8a ac a6 3b
       0.021735208 0.0053581074 -0.037451047 0.005086486
000350 fe a8 86 3c 66 d2 12 3d ee 25 c1 3c 41 a8 ad 3d
       0.016438004 0.035845183 0.023577657 0.084793575
000360 33 d7 16 bd 6a c2 ba bc e7 8a 39 bc 15 54 81 3d
       -0.036826324 -0.022797782 -0.011324621 0.063148655
000370 b7 63 49 3c a8 cf 4f bb 0e 5c 4e bb 2c c4 10 3d
       0.01229184 -0.0031709466 -0.0031487974 0.035343334
000380 3b 0c cf 3c 20 55 88 3c 98 fb 3f 3f dc ce 79 bc
       0.025274387 0.016642153 0.74993277 -0.015247073
000390 42 e1 ad 3d 9d 40 9b 3d e0 69 6a bd 11 6c 23 3e
       0.0849023 0.075806834 -0.057229877 0.15959193
0003a0 21 4d 3b 3d b7 2a 9b bd 83 62 cf 3d 54 d7 27 be
       0.045727853 -0.075765066 0.101262115 -0.16390735
0003b0 f1 a7 b8 3e e3 1c 13 3d eb 9f 9a 3d 23 3c 77 bd
       0.3606563 0.03591622 0.07550033 -0.060360085
0003c0 64 26 06 ba 0e ef 74 3e e5 f9 69 3e 37 57 b1 3d
       -0.0005117415 0.23919317 0.22849233 0.08659213
0003d0 50 ed 26 3e 43 6e 5f 3e 2f 4a 45 3e fa 3c 58 3b
       0.16301465 0.21819405 0.1926658 0.003299533
0003e0 4a 0d 07 be 9e 45 5a 3e f2 47 4d 3e 21 0a 2a be
       -0.13188663 0.2131562 0.20046976 -0.16605426
0003f0 ae 96 c7 3d e5 dc 25 be 0c 94 10 3e eb 32 df 3e
       0.09745537 -0.16197546 0.14118975 0.43593535

final.linears.0.bias f4 [112]
000000 5e c2 08 be 38 7f 5e 3e 1c 33 73 be 88 aa 1a 3d
       -0.13355395 0.21728218 -0.23749965 0.037760288
000010 78 fa 8c 3e 5e b4 a8 3e 7e e9 d6 be 05 e6 e2 3d
       0.27534842 0.3295011 -0.41975015 0.11079029
000020 75 fb 36 be 34 f0 43 3e ce fa d8 3d 6a d4 02 be
       -0.1786936 0.19134599 0.10594712 -0.12776342
000030 0c 42 91 3e 0a 5f 22 3d 3c 2f 4d 3d 8a 98 bb 3e
       0.28370702 0.039641418 0.050093874 0.36639816
000040 17 1c 70 3e 33 cc cc bd c3 99 3e 3d 65 5d 1e bd
       0.23448215 -0.099998854 0.046533357 -0.038663287
000050 19 9b 9d 3d ba ab f2 3e 52 b4 66 3e ae d4 96 3e
       0.07695598 0.47396642 0.22529724 0.29459137
000060 7c 4c 89 3e b3 be 85 3e bb 66 91 bd 07 55 05 bf
       0.26816165 0.26122054 -0.070996724 -0.52082866
000070 12 d2 c8 3e 88 e3 6b bd 65 3a a1 be 93 24 08 3e
       0.3922277 -0.057590038 -0.31489864 0.13295202
000080 d6 c7 c0 3c 8d 8a 14 bf 92 b8 69 3e df 5d 87 3d
       0.02353279 -0.5802391 0.22824314 0.06609701
000090 7d bc b3 3d b6 91 62 be 91 53 81 3e cd 42 3b be
       0.08776186 -0.22125897 0.2525907 -0.18287201
0000a0 95 01 eb 3e 73 89 49 3e b0 03 e5 bd f8 60 a7 bc
       0.45899644 0.19681339 -0.11182344 -0.02043198
0000b0 3a 5b 87 3d ec de 16 bd 28 64 bb 3e 07 5c d8 3e
       0.06609197 -0.03683369 0.3659985 0.4225771
0000c0 77 a8 ad bf 07 9e 35 3d e9 d4 97 be c5 7a 79 3e
       -1.3567036 0.04434016 -0.29654625 0.24363239
0000d0 5d 69 7a 3f b8 38 83 3e 59 1b 6c 3e 08 8e 8b be
       0.9781702 0.2562921 0.23057307 -0.272568
0000e0 39 e3 19 be 7d cb 13 be c3 fc 4b 3e 9b b7 82 bd
       -0.15028085 -0.14433093 0.1992064 -0.06382676
0000f0 ab e2 94 3e da d3 3d 3d 37 56 f4 bd ff de cf 3d
       0.29079184 0.046344616 -0.11930507 0.10149955
000100 1c 75 eb bd 92 96 43 bd 73 0c c6 3d c9 02 b4 bc
       -0.11496946 -0.047751017 0.09670343 -0.021973984
000110 f0 3a 59 3e 59 4b 52 3e 34 61 b7 bd 62 fb 0c 3c
       0.21213889 0.20536555 -0.08954087 0.008604856
000120 65 17 52 be fe 86 94 bc 96 e9 bf be d0 48 b7 bd
       -0.20516737 -0.018130776 -0.374829 -0.08949435
000130 3a 0c d0 bd b5 b2 f3 3d 35 77 74 be 5c 1a 8d be
       -0.10158582 0.1189932 -0.23873599 -0.27559173
000140 52 e6 7b 3e 99 88 c2 3d 4c 93 37 3e 56 4d 03 3e
       0.24599579 0.0949871 0.17927283 0.1282247
000150 cc f3 c1 bb cb c5 b3 bc 05 fe 29 3e c4 2b f8 3b
       -0.0059189554 -0.021944901 0.16600807 0.0075735766
000160 0e 73 a0 bd 13 31 3b be b1 6e 5f 3e 7f e8 45 bd
       -0.07834445 -0.18280439 0.21819569 -0.04831743
000170 f9 b5 0c 39 60 5e 0c be 29 2a 3e 3e 50 77 72 3e
       0.0001341923 -0.13707876 0.1857077 0.23678327
000180 54 71 7f 3d 32 39 94 be 47 a4 0d 3e 96 65 b3 3e
       0.062363937 -0.28949887 0.13832198 0.3503844
000190 af fd 96 3d a0 eb 40 3e 0d b9 7a ba 65 a7 85 be
       0.07372605 0.18839884 -0.0009564318 -0.26104274
0001a0 1f 82 e0 bd 60 49 e3 be e3 20 f1 3e a6 3f 64 3d
       -0.10962319 -0.44391918 0.47095403 0.055724762
0001b0 e0 24 e0 3e 58 7f f8 ba 47 cf 72 bd fc 16 97 3d
       0.43778133 -0.001895885 -0.059279706 0.07377431

final.linears.1.weight f4 [112, 112]
000000 4d 29 ff 3c 13 5c 06 be a0 a4 c6 bc 27 25 72 be
       0.031147623 -0.13121061 -0.024248421 -0.23646985
000010 89 0e 89 be 73 60 53 be 68 b0 f6 bd 45 c9 4c be
       -0.26768902 -0.20642261 -0.120453656 -0.19998653
000020 10 31 39 bd c7 c7 c0 be b7 cc 72 bc 3f c8 a0 bc
       -0.045212805 -0.37652418 -0.014819316 -0.019626735
000030 31 4f 6a be b5 f5 ba be b1 ca 60 3c 6e 63 d0 bc
       -0.22881772 -0.36515585 0.0137202 -0.025438037
000040 67 56 65 bd d9 78 53 3c 55 4b 96 3c bd 2f a8 3d
       -0.055990603 0.01290723 0.018346468 0.0821223
000050 4a 61 d1 bc dd bb c4 be 37 a5 6a be 12 e4 0b be
       -0.025559086 -0.38424578 -0.22914587 -0.1366122
000060 0a eb c4 bd 92 03 22 3d 4a 7f d3 3c 5a 8d 63 bd
       -0.09615143 0.039554186 0.025817532 -0.055554725
000070 7a c6 a7 be f0 71 f7 bd 90 26 78 3d c5 da 91 bd
       -0.32768613 -0.12082279 0.06058365 -0.07121805
000080 f9 4e 9b be 93 93 63 3e a1 74 d2 be 89 84 a3 bc
       -0.3033369 0.22224264 -0.41104606 -0.019960659
000090 c8 b3 41 bd 6d 1a 01 be c7 6a c4 be cb 89 95 3d
       -0.047290593 -0.12607737 -0.38362715 0.073016725
0000a0 6b 33 b6 be 53 e4 2c be 91 d8 fa bc b9 ae 1d 3d
       -0.35586104 -0.16883974 -0.030620845 0.038496707
0000b0 ab 6c 77 be 7e 4a ea bc 9c b0 d1 be b7 94 b4 be
       -0.24162547 -0.028599974 -0.40955055 -0.3526971
0000c0 bf bf d7 3c ec af 18 bc e1 c7 54 3d f5 8a 96 be
       0.026336549 -0.009319287 0.051948432 -0.2940289
0000d0 e1 76 ab be 30 ee d1 be 97 fc d6 bf 9e 71 cd be
       -0.33489135 -0.41002035 -1.6795834 -0.40125746
0000e0 ee 86 c4 3b 16 98 34 be b1 98 94 3d e5 51 4b bd
       0.00599753 -0.17636141 0.07255686 -0.049638648
0000f0 06 45 49 be a1 dd aa be c0 0e 9e bb cd 00 0c bb
       -0.19655237 -0.33372214 -0.0048235357 -0.0021362782
000100 60 df 7e bc fc 75 cf be b9 e4 7b ba 05 86 19 3e
       -0.015556186 -0.40519702 -0.00096089725 0.1499253
000110 b6 90 73 ba f1 43 a3 be 14 03 d1 3b 83 f3 d6 be
       -0.0009291278 -0.31887773 0.006378541 -0.4198266
000120 d1 ef 7e 3a 27 1b 59 be b0 36 a5 3d 03 5b 96 bb
       0.00097250665 -0.21201764 0.080670714 -0.004588486
000130 7c 82 80 be a3 c1 40 be 9f a3 c8 bc 1b b2 00 3e
       -0.25099552 -0.18823867 -0.024492083 0.12567942
000140 a8 7f 0f be c7 15 d9 be cd 8a 12 bd 45 cb 14 bc
       -0.1401354 -0.42399427 -0.035776902 -0.009081666
000150 61 fd 08 3d 47 60 37 bb dd 4e 37 be ca 2a 74 3d
       0.033444766 -0.002798097 -0.17901178 0.05961112
000160 2c 6c cd be 38 21 ba be dd 0a 5c 3b fe 61 b4 be
       -0.4012159 -0.3635347 0.003357581 -0.35231012
000170 61 09 cd 3a 59 43 1e bd 5b cd 69 bc 6b 7c c5 be
       0.0015643054 -0.038638446 -0.014270152 -0.38571486
000180 29 d3 14 bd 59 1e 75 3d 81 cc d3 be 52 5f 11 be
       -0.03633419 0.059843395 -0.41366962 -0.14196518
000190 46 53 01 bf 53 0d cb be 1b ac 96 bd ec ef 7e 3d
       -0.5051769 -0.39658603 -0.07357045 0.062240526
0001a0 bd 34 96 be 34 46 ac bc 47 8a 75 be 5b 2f 61 bd
       -0.2933711 -0.02102957 -0.2397853 -0.054976802
0001b0 9b ad a2 be b1 43 56 bd a5 7a 99 be dd 56 d7 be
       -0.31773075 -0.05231065 -0.29976383 -0.4205846
0001c0 4d ca 8b 3d 75 66 c7 bd 16 02 a9 3d 04 83 a1 be
       0.06825695 -0.09736339 0.08252351 -0.3154527
0001d0 5e e1 89 be e1 ca 48 be 5f 89 47 3e 37 7e 4d bd
       -0.26929754 -0.19608642 0.19485997 -0.050169196
0001e0 cc 41 03 3a 40 97 1e be 51 4b dc bd d3 03 16 39
       0.0005007058 -0.15487385 -0.10756553 0.0001430654
0001f0 25 f0 1f bd c5 b4 60 be 1c 46 21 bd 07 dd 3d be
       -0.03904738 -0.21943958 -0.039373502 -0.18541346
000200 44 05 19 bd db 2a 86 3d ef f3 a2 3d 18 85 4a be
       -0.037358537 0.06551143 0.07956683 -0.19777334
000210 4c a9 98 3d f5 56 90 be 17 22 4c be 9c a5 b4 bd
       0.07454166 -0.28191343 -0.19934879 -0.0882065
000220 90 64 5d bd f9 5d e3 bc 3e 80 8c bc cc 4d 53 3c
       -0.054050982 -0.02775477 -0.017150994 0.012896966
000230 0e ea 54 be 2e 82 ae 3b 40 b9 49 3e 39 74 8a bd
       -0.2079241 0.005325577 0.19699574 -0.06760449
000240 de cf 9c be 5f e6 63 3e 51 0d 03 be c1 2e 2a bd
       -0.3062734 0.22255848 -0.12798049 -0.041548494
000250 99 85 99 3d 9e bf ba bd 89 14 b1 be 16 c4 47 3e
       0.07496185 -0.09118579 -0.3458598 0.19508395
000260 5f 0b 8f be 99 c4 3d be b2 62 96 3d ca 88 dd 3c
       -0.27938363 -0.18532027 0.073430434 0.027042765
000270 eb 1d 45 be c8 ec 3f bd f2 66 ba be c2 3d 6f be
       -0.19249694 -0.04685667 -0.36406666 -0.23363402
000280 0a 17 33 bd 97 66 26 bd e2 cc fd 3d 8a ce 25 bf
       -0.043723144 -0.04062518 0.12392594 -0.6476828
000290 49 a8 94 be ec 57 97 be 56 c4 95 be 2e cb a1 be
       -0.2903464 -0.29559267 -0.29251355 -0.31600326
0002a0 08 70 5b 3d 5b 31 8a bd e2 bb 3b bd 37 1f 4e be
       0.05357364 -0.06747695 -0.045833476 -0.20129095
0002b0 d0 f5 96 bd 17 c4 98 be 2b b1 50 3d b8 67 3f 3b
       -0.07371104 -0.29837105 0.05095021 0.0029206108
0002c0 52 16 2c 3d ba df be be f0 04 f9 bd 37 1a 74 bd
       0.042013474 -0.37280065 -0.12159145 -0.059595313
0002d0 c3 5b 2a 3d cf fd 8b be 9e a6 74 3b ce 6c 6d be
       0.041591417 -0.27342078 0.0037330757 -0.23186037
0002e0 75 99 bd bc b2 46 e6 bd 64 ab fa 3b 6d 93 4e bc
       -0.023144463 -0.11243953 0.007649826 -0.012608391
0002f0 13 14 59 be c6 36 d3 3e d5 fe 95 bd 64 a6 63 3d
       -0.21199064 0.41252726 -0.07323996 0.055578604
000300 96 3a 2e be 82 48 9b be 34 71 ea bd b0 48 e9 bb
       -0.17014536 -0.30328757 -0.11447373 -0.0071192607
000310 d0 f4 a6 3d 72 55 9b bd 3b 2f 0e be 2b f3 27 bd
       0.08152163 -0.07584657 -0.13885204 -0.041003387
000320 31 49 a8 be 3a 37 db be c9 a5 fe 3c 00 e4 8b be
       -0.3286834 -0.42815572 0.031084912 -0.27322388
000330 a4 96 b2 3a c4 d1 ae bd 71 9c 02 bd 0d 43 76 be
       0.0013625217 -0.08536103 -0.031887475 -0.24049015
000340 2a 3c 2a ba 19 d6 82 3c 36 40 99 be 37 8d 7a bd
       -0.00064939505 0.01597123 -0.29931802 -0.06116983
000350 05 76 83 be a6 38 12 bf 7d 42 cd bc 58 45 97 bc
       -0.2567598 -0.5711769 -0.025056118 -0.018465683
000360 99 a3 8b be 77 ed ec 3c 97 cd 63 be 5b 49 9c bd
       -0.27273253 0.028921826 -0.22246395 -0.07631179
000370 14 49 8d be 41 60 e3 3c 5a 14 89 be 69 c8 82 be
       -0.27594817 0.027755858 -0.2677334 -0.25543526
000380 a1 5d 00 3d 6c d7 a7 bc 46 64 99 bc a4 18 4d bd
       0.03133929 -0.020488463 -0.018724572 -0.050072327
000390 f2 4a a9 bd 44 b0 f2 bc ae 4c 9a bc f9 8e 79 3f
       -0.08266248 -0.029625066 -0.018835392 0.97483784
0003a0 57 8a 44 bd 67 49 ad bc 6a 1f c6 bd 83 f8 bf bc
       -0.047983494 -0.021153165 -0.096739605 -0.02343393
0003b0 39 e7 da bb 08 85 b4 bc 33 f6 41 bd b3 1f eb bc
       -0.006680396 -0.02203609 -0.047353934 -0.028701639
0003c0 9b 91 0b be 84 80 57 bc 15 b5 03 bd 2f 95 12 bc
       -0.13629763 -0.013153199 -0.032155115 -0.008946701
0003d0 22 45 44 bc 41 b1 52 bd 8f 75 34 bd 61 38 f1 bd
       -0.011979373 -0.051438574 -0.044057425 -0.117783315
0003e0 d9 d5 36 bd b9 dd 94 bc ac 4f 61 bd 45 19 5b 3e
       -0.044637535 -0.018172132 -0.05500762 0.21396358
0003f0 0d ca 50 bd 88 e0 b0 3a de c8 fa 3c 05 40 82 bd
       -0.05097394 0.001349465 0.030613359 -0.06359867

final.linears.1.bias f4 [112]
000000 57 70 89 be 46 33 74 be 8c fe ed bd 1b 69 68 be
       -0.2684352 -0.23847684 -0.116208166 -0.22696345
000010 84 07 a9 be 84 a9 49 be 3a ce 86 be c6 7c 8d be
       -0.33013546 -0.19693571 -0.26329213 -0.27634257
000020 f3 0e d8 be bb c4 46 be 4a c5 96 be 3f d3 18 be
       -0.42198905 -0.19410984 -0.29447395 -0.14924334
000030 c8 78 10 be 76 cb 51 be 5a d6 26 be 85 3b 54 bd
       -0.14108574 -0.2048777 -0.16292706 -0.051814575
000040 7a 68 c1 be 0a 32 16 bd 1a 42 74 3d e5 7c 82 bd
       -0.37775022 -0.036668815 0.05963335 -0.06371478
000050 e6 ea c4 be 4a 4c 92 be 6c 2f 33 be 39 c6 f2 3c
       -0.38460463 -0.2857383 -0.17498559 0.029635536
000060 c2 6a 4e be 00 cb 1a bf 85 c7 b9 bc f5 5e 8a be
       -0.20157912 -0.60466003 -0.022678146 -0.2702557
000070 3c 64 ad be c2 6f 2e be b9 23 55 be 66 69 a4 bd
       -0.33865535 -0.1703482 -0.20814408 -0.08027916
000080 04 63 77 be cf cc 55 be e7 e1 2a be ea ac 7e bb
       -0.24158865 -0.2087891 -0.16687737 -0.003886039
000090 c8 41 2b be 74 c7 2e be f7 fc e3 3d 25 20 33 be
       -0.16724312 -0.17068273 0.111322336 -0.17492731
0000a0 7d bf 7d bd a3 01 7a be 83 75 e0 be 51 f4 a6 be
       -0.061950196 -0.24414687 -0.43839654 -0.32608274
0000b0 5e e8 70 be 88 8d c6 be b1 98 84 be 58 7b 9f be
       -0.23526141 -0.38779855 -0.25897744 -0.3114879
0000c0 c4 73 83 be 34 8c 5c be fe 98 94 bd f5 c7 82 be
       -0.2567426 -0.21537858 -0.072557434 -0.2554318
0000d0 8a 48 51 be 9c 91 c6 bb b5 81 9b be 5b c7 58 be
       -0.20437828 -0.0060598385 -0.30372396 -0.21169798
0000e0 a0 03 82 be 3d 58 c0 bd 1b a7 85 be 61 63 38 be
       -0.2539339 -0.0939183 -0.26104054 -0.1800666
0000f0 d9 88 8d be 5c 59 1f be 1b f1 2c bf 38 df 2a 3e
       -0.2764347 -0.15561432 -0.675554 0.16686714
000100 49 a3 1b be 13 6d 72 be 54 6d 90 be e7 10 89 be
       -0.15199007 -0.23674421 -0.2820841 -0.26770708
000110 ef 9e 07 be cc 7a 3a be 7e b5 66 be 23 d4 a4 be
       -0.13244222 -0.18210906 -0.22530171 -0.32193097
000120 ce 7e 54 be 1a 0c 58 be 04 2a bc be f1 ce 5a be
       -0.20751497 -0.21098366 -0.36750805 -0.21368004
000130 47 df 8b be 16 48 4d be f7 2b 64 bd e6 0a 6b 3e
       -0.27318785 -0.2004703 -0.05570599 0.22953376
000140 2c 79 b4 bd 63 f4 6d bd 93 83 95 bd ea 01 c6 3d
       -0.08812174 -0.058094393 -0.073004864 0.09668334
000150 fe 1e 7f bd 59 52 9c be 08 63 30 3e dd 4c e5 be
       -0.062285416 -0.30531576 0.17225277 -0.44785205
000160 b5 e4 0c be 6c c4 85 be c6 75 a0 be 50 29 0c be
       -0.1375912 -0.2612642 -0.31339854 -0.13687634
000170 7c 0e 96 be cd d6 2b be e1 64 57 be cd 28 f0 be
       -0.29307926 -0.16781159 -0.21034576 -0.4690613
000180 dc e1 0a be 9d 4b 83 be 60 14 1b be ce 0c c6 bd
       -0.13562721 -0.25643626 -0.15144491 -0.09670411
000190 76 4a 27 be ba 28 fd bd c6 f7 12 be 90 4e 3a be
       -0.16336998 -0.123612836 -0.1435233 -0.18194032
0001a0 0b ff 8c bd d9 13 13 3d 74 50 bc be 59 f0 14 be
       -0.06884583 0.0359076 -0.3678013 -0.1454481
0001b0 c8 57 4d be ea db cd bd b6 0d ad be 4e b7 88 be
       -0.20053017 -0.10051711 -0.33799523 -0.2670235

final.linears.2.weight f4 [24, 112]
000000 53 8d b2 3e 21 0b a1 3e 41 ee 55 be fc c3 6f be
       0.34873447 0.31453803 -0.20891668 -0.23414606
000010 79 20 95 3d c2 e8 a2 bd 0f c2 2a be 13 2f 0f be
       0.07281584 -0.07954551 -0.1667559 -0.13982801
000020 b3 fe 5c bc 74 35 99 bd 48 bb 04 39 39 c2 af 3e
       -0.013488459 -0.074808985 0.00012658269 0.34327868
000030 c1 b5 55 be f6 d3 c0 3e 76 31 90 be f5 bf e4 bd
       -0.20870115 0.37661713 -0.28162736 -0.111694254
000040 5b e0 62 3e 3e 08 98 3e 57 2f af 3e 83 6e 9b bc
       0.22155897 0.29693788 0.34215805 -0.018973595
000050 63 8f 9c be aa 58 94 be b9 55 da be c3 0c ff bb
       -0.30578145 -0.28973895 -0.42643526 -0.0077835037
000060 d9 97 a8 bd 1e 31 5c bb b3 63 43 3c 3a bf e7 3d
       -0.08232088 -0.0033598612 0.011925626 0.113157704
000070 73 59 87 3e ea 62 d6 bc f8 ee 33 bf 8b 75 ad 3e
       0.26435432 -0.026170213 -0.7028651 0.3387874
000080 f7 70 00 3d 02 7e ad be 38 4f cb b9 08 00 a2 be
       0.03135773 -0.338852 -0.000387782 -0.3164065
000090 bb 1a f8 bb 9e 61 d2 3e 3f 98 e8 3b e7 50 cf 3c
       -0.007571546 0.410901 0.0070982273 0.025307132
0000a0 1b ad e8 be fc 34 5a 3f 20 51 3a be fc 66 f9 be
       -0.4544457 0.852371 -0.18195009 -0.48711383
0000b0 17 62 95 3e 83 9c ed 3a 3f 5b 21 3b d4 66 a7 3e
       0.291764 0.0018128309 0.0024621037 0.3269564
0000c0 e3 2f 92 3c f4 7c cd bc 92 ca 76 3d 73 95 c3 3e
       0.0178451 -0.025083996 0.06025178 0.38199958
0000d0 c5 3e bb bd 35 28 0b 3c 7d 12 05 bf 54 dc 61 be
       -0.09142832 0.008493473 -0.51981336 -0.22056705
0000e0 f0 a2 0e bf 60 24 5b 3e 1b 9f 1b 3e a7 13 8d bb
       -0.5571737 0.21400595 0.15197413 -0.0043053213
0000f0 45 3f bf be 1c 7f 18 3f 73 a4 13 bd e9 32 83 3c
       -0.37352958 0.59568954 -0.036045503 0.016015487
000100 f9 4e 92 be bc 53 28 3f 62 bf 11 bc f3 6a 29 3f
       -0.28575876 0.6575277 -0.008895727 0.66178817
000110 9e da 01 3d fe 35 a9 bd b8 59 c0 3d 76 fb 75 be
       0.03170263 -0.08262251 0.093921125 -0.24021706
000120 85 6b 3f be d3 9c 00 be 5a 11 a1 bc fd dc 9f bd
       -0.18693359 -0.12559824 -0.019661594 -0.07805822
000130 37 6b b2 3e 48 53 01 bf b3 f8 de be c5 de 84 3b
       0.34847423 -0.505177 -0.43549117 0.0040548765
000140 6d 8e a9 3e 0b 7a 86 3d f9 60 36 3e ae da 79 bc
       0.33116475 0.065662466 0.1781043 -0.015249891
000150 7a f1 7f 3d 20 a9 93 3e 05 65 f1 ba fa c9 4a bc
       0.06248615 0.2883997 -0.0018416947 -0.0123772565
000160 7e 40 03 be cb 9d ad 3d 65 85 91 3e c6 57 5b bd
       -0.1281757 0.08477362 0.28422084 -0.053550504
000170 b7 a4 a2 bd 7e cb 8f be 07 33 43 be a2 65 26 3c
       -0.07941573 -0.2808494 -0.19062434 0.010156067
000180 76 32 72 be c3 24 71 3b c6 57 64 3f 21 05 63 be
       -0.23652062 0.0036795593 0.8919643 -0.22169925
000190 b0 11 21 3e e2 b4 3f be 33 c6 49 3e c2 af 2c be
       0.15729403 -0.18721345 0.19704513 -0.16863921
0001a0 99 70 9c 3a e3 be 60 be 2d 96 79 bc be 12 72 3d
       0.0011935412 -0.21947818 -0.015233559 0.059099905
0001b0 2e f9 8d 3e 05 94 5a 3e e5 a3 d0 be dd 93 a1 be
       0.27729172 0.21345527 -0.40750042 -0.31558123
0001c0 78 8b f1 3e 93 d2 76 3e c7 f4 fd bd c0 5a 98 be
       0.4717672 0.24103765 -0.12400203 -0.29756737
0001d0 76 ab a8 be b3 21 07 3e c9 d4 59 3e 5b af 1f bf
       -0.32943314 0.13196449 0.21272577 -0.62376946
0001e0 d3 c5 2c 3c d8 e6 fc be bd c5 a0 ba 7d 5e 83 be
       0.010545212 -0.4939487 -0.0012265962 -0.25658026
0001f0 e7 ed d0 be ee b9 a2 3c 84 99 b0 3d d5 41 6a be
       -0.40806505 0.019864049 0.08623031 -0.22876675
000200 49 f1 fb be e7 7c 18 3f cb 5a 6a be dd 50 f8 bd
       -0.49207523 0.59565586 -0.22886197 -0.121247984
000210 e6 5a ae 3e 25 61 23 bf ad 5a 46 3e a8 6b fc 3d
       0.34053725 -0.63820106 0.19370528 0.12325221
000220 91 8f a4 be 2f 99 40 3c 12 8f 51 3c 09 ed 61 3e
       -0.32140782 0.011755272 0.012790458 0.22063078
000230 cd 37 c5 be 3e 06 75 be ee 24 3f 3e 17 4f 04 3e
       -0.38519135 -0.23928162 0.18666431 0.12920795
000240 30 ef 9a 3e 7a 28 b2 be fa e2 00 3c a5 a5 10 be
       0.3026061 -0.34796506 0.007866615 -0.14125688
000250 a6 88 d4 bd 32 36 cf be 11 99 37 3c 22 e8 fb bb
       -0.10377626 -0.40471035 0.0112059275 -0.0076875845
000260 ea 9d 90 3e 89 21 e1 be 66 ab 2a be 35 fc 26 3f
       0.2824548 -0.43970898 -0.16666946 0.6522859
000270 5c d3 31 3e b2 21 bf 3a c1 45 22 3e 3c 77 09 3f
       0.17365783 0.0014582186 0.15846922 0.5369756
000280 05 52 b1 bb 90 b1 4f bd 50 7a 90 3e c6 6d 78 be
       -0.005411389 -0.050706446 0.28218317 -0.24260625
000290 72 7e dc bd b8 24 00 ba b0 1b 4a be 93 50 f1 3e
       -0.10766305 -0.0004888284 -0.19737124 0.47131786
0002a0 9d 2b 1a be d1 e6 04 3e af 6d e1 3d cb be f3 bd
       -0.150557 0.12978674 0.110072486 -0.11901625
0002b0 25 2d b9 3e 48 d6 85 be 80 a3 74 bc e9 8e 37 3e
       0.36167255 -0.26140046 -0.01493156 0.1792561
0002c0 f8 a0 a5 3c 38 f0 3c 3e b9 89 a6 bc da dd e7 3e
       0.020218357 0.18451011 -0.020329343 0.45286447
0002d0 0b 54 5c 3d a6 bb 2c be 57 fa 29 bf 66 56 f3 be
       0.053791087 -0.16868457 -0.66397613 -0.47526854
0002e0 b3 cc fa bd 35 19 e1 3e 4c 70 ff bb bc 6a ce 3e
       -0.122460745 0.43964544 -0.0077953693 0.40315807
0002f0 32 4c c1 3e 89 07 51 3e d1 f6 fd bc fb 86 43 3c
       0.37753445 0.2041303 -0.03100148 0.011934037
000300 08 d3 72 be e4 62 92 3d 34 86 09 3d 3b 46 db bd
       -0.23713315 0.07147768 0.03357525 -0.10706755
000310 3a 4d 24 3e b4 fb a2 3e 3a 20 6d 3c 01 7c db 3b
       0.16045085 0.3183266 0.014473015 0.006698132
000320 f1 0e 08 bd b3 d5 9e be 02 aa 42 3e 63 f5 64 be
       -0.033217374 -0.31022415 0.19010165 -0.22359233
000330 bb 4d 15 bf 2f 29 e9 3e 9b 5b 10 3d 09 66 aa 3c
       -0.5832173 0.45539233 0.03524361 0.020800607
000340 60 f2 37 3e b3 59 19 3d 50 77 ef 3e 0d a9 7a be
       0.17963552 0.03743906 0.46770716 -0.2447855
000350 7a db 20 3e f5 6f d8 bd 3a 15 3c be d5 be a6 3e
       0.15708724 -0.10568229 -0.18367472 0.32567468
000360 7c 48 ce 3c 16 7f 47 3e 6c 53 3d 3b a0 d9 37 bd
       0.025181048 0.19482073 0.0028888835 -0.044885278
000370 fc 21 11 bc c9 ec 18 bd bc 26 93 3e 1d 73 54 3e
       -0.0088582 -0.03733519 0.2874049 0.20747037
000380 d4 4d 8c 3d 43 98 1a 3d 59 6b d9 bb a7 61 04 be
       0.06850782 0.037742864 -0.0066351113 -0.12927876
000390 91 0e e2 3d 99 fa d9 bd e6 b0 9f 3d 01 e0 63 bd
       0.110379346 -0.10643501 0.077974126 -0.05563355
0003a0 cd 0a ba 3e d2 a5 43 be 48 d3 44 3e a6 ba aa ba
       0.36336365 -0.19106224 0.19221222 -0.0013025596
0003b0 0d df 12 3e 0a 6f c6 3d c0 f1 b6 3d 9b 93 82 bd
       0.143429 0.09689148 0.08932829 -0.0637581
0003c0 18 cb 92 3e 83 62 12 be a6 31 c0 bd e9 82 37 be
       0.28670573 -0.14295392 -0.0938447 -0.17921032
0003d0 c1 0b 84 3e 49 16 b6 be 7c 38 ec bd b7 e8 87 bd
       0.25790218 -0.35563877 -0.11534211 -0.06636184
0003e0 c3 b3 c1 3c 92 92 ae 3e cc 84 10 40 c8 d8 e6 3b
       0.023645287 0.340962 2.2581053 0.0070448853
0003f0 1e c3 7b 3c 53 f8 ce bb d4 f5 3c be d4 d0 ba bc
       0.015366344 -0.0063162236 -0.18453151 -0.022804655

final.linears.2.bias f4 [24]
000000 d4 3c 66 3d 7a 9d 05 3e d9 8c 5e 3e 01 1a e9 bd
       0.056210354 0.13048354 0.21733417 -0.11381913
000010 6d 5a 23 be ad 6a f8 3d a2 21 8f 3d 2b 8d 98 3c
       -0.15952463 0.12129722 0.06988837 0.018622002
000020 4b 6a 0e bd 45 93 a7 bb 89 c1 bd 3c 1e 0e 17 3b
       -0.034769338 -0.0051139914 0.023163574 0.0023049186
000030 ba 93 30 3d a0 4a 41 3d 79 8a 96 bd 2d 07 87 3c
       0.043109633 0.04719031 -0.0735063 0.016482914
000040 46 e0 25 3c c8 5f cc 3a dd af be 3b 70 41 b4 3c
       0.010124272 0.001559251 0.0058193044 0.02200386
000050 ce 83 8a bd 39 aa c0 bd 0d 0f ba bc 56 ca a6 3b
       -0.06763421 -0.094074674 -0.022712255 0.0050900383
