checkpoints/cyp1a2_veith_40_train1_pos/Aug31-10:43:50_200.pth (torch, 421766 bytes, 294 tensors)

layers.0.weight f4 [17, 16]
0	0x3ca02846	0.019550454
1	0x3efddeae	0.49583954
2	0xbf51ca0f	-0.8194894
3	0x3ef229e3	0.47297582
4	0xbf1bc235	-0.6084321
5	0x3f9750ab	1.1821493
6	0xbf04a5b3	-0.51815337
7	0x3ef8bb9a	0.4858063
8	0xbcf8b4c1	-0.030359628
9	0xbcfdad69	-0.030966477
10	0x3f146844	0.57971597
11	0x3e750040	0.23925877
12	0x3f31fd4c	0.69527125
13	0x3cede2f7	0.02903889
14	0x3f4f772a	0.81041205
15	0xbbb772b9	-0.005598393
16	0x3ed277ae	0.41106933
17	0x3e07fcc7	0.1328002
18	0xbeab5e9a	-0.33470613
19	0xbe0c7681	-0.1371708
20	0xbeae92f5	-0.34096494
21	0x3d490c64	0.049084082
22	0xbea7c756	-0.3276927
23	0x3e8d121c	0.2755288
24	0xbec63a67	-0.38716432
25	0xbf039175	-0.51393825
26	0xbe0d1167	-0.1377617
27	0xbdf23e89	-0.11828334
28	0x3e7f8729	0.24953903
29	0xc0142bf1	-2.315182
30	0x3ea096c6	0.3136503
31	0xc00e9c55	-2.2282917
32	0x3e23f6ed	0.16012163
33	0xbd028988	-0.03186944
34	0xbe66afc7	-0.22527991
35	0x3e30ab96	0.17252955
36	0x3ded723e	0.115940556
37	0x3eb68d3d	0.3565463
38	0x3da15b90	0.07878792
39	0xbe287f6a	-0.16454855
40	0x3dbc8736	0.09205477
41	0xbecbff0d	-0.39843026
42	0x3e7dc996	0.2478393
43	0x3e48ca98	0.19608533
44	0xbd1c26b3	-0.038122844
45	0xbe60b45f	-0.21943806
46	0x3e4fc888	0.2029134
47	0x3db2c083	0.08728125
48	0x3dd7ad09	0.10531051
49	0x3c9d1b45	0.019178042
50	0xbe89216c	-0.2678331
51	0x3e2f7936	0.17136082
52	0x3dfbb62f	0.12290608
53	0x3eaeb8d6	0.34125394
54	0x3d9d5f76	0.07684223
55	0xbd417fab	-0.047240894
56	0x3d8354a1	0.06412626
57	0xbec06202	-0.37574774
58	0x3e6e933b	0.23298351
59	0x3dfc60ee	0.12323175
60	0xbe8ae750	-0.27129602
61	0xbe3dafe2	-0.18524125
62	0x3e83da39	0.25752428
63	0x3d628cd9	0.055310104
64	0x3dae200f	0.085022084
65	0x3c3670db	0.011135305
66	0xbe3346f2	-0.17507532
67	0x3e1e0f3c	0.15435499
68	0x3e03076c	0.127958
69	0x3e9bb7e5	0.30413738
70	0x3dfdbbcc	0.12389335
71	0xbd6c664d	-0.05771475
72	0x393ff41e	0.0001830612
73	0xbe4eac90	-0.20183015
74	0x3e3f4716	0.18679461
75	0x3dbf5015	0.09341446
76	0xbd816da3	-0.0631974
77	0xbe193c16	-0.14964327
78	0x3e532801	0.20620729
79	0x3cccaed0	0.0249857
80	0xbb6f5b3d	-0.0036522888
81	0xbd6151e6	-0.055009745
82	0x3e29103e	0.16510102
83	0x3d590ccd	0.052990723
84	0xbdf51b26	-0.11968069
85	0x3db254cf	0.08707582
86	0xbd8f8476	-0.07007687
87	0xbd75f6da	-0.06004987
88	0x3b90cda6	0.0044190465
89	0x3d541de9	0.051786337
90	0x3ce7823c	0.028260343
91	0xba47b544	-0.0007618258
92	0x3dff35c9	0.124614306
93	0xbcc35f4c	-0.023849152
94	0xbe2bcd17	-0.16777454
95	0xbd090ede	-0.033461444
96	0x3e0a96a0	0.13534021
97	0xbede698d	-0.43439904
98	0xbf6094f5	-0.8772729
99	0xbfd9e6b2	-1.7023528
100	0xbdc8d759	-0.09806699
101	0xbec40ead	-0.38292447
102	0xbd54fead	-0.05200069
103	0xbefc0af3	-0.49227104
104	0xbdbe364e	-0.092877015
105	0xbd92b8db	-0.07164165
106	0xc009ab42	-2.1510777
107	0xbe45d949	-0.19321169
108	0xbdfc7552	-0.123270646
109	0xbf42f9dc	-0.76162505
110	0x3f5e4f73	0.8683998
111	0xbf213da1	-0.62984663
112	0x3e31ddba	0.17369738
113	0xbf028517	-0.5098433
114	0x3e687134	0.22699434
115	0x3e7b7de0	0.24559736
116	0x3eb9b745	0.36272636
117	0xbfd5988d	-1.668718
118	0x3e988a9b	0.29793248
119	0xbea291f0	-0.31751966
120	0xbe1ffeae	-0.15624496
121	0xbe5bafdc	-0.21453804
122	0x3ee265ad	0.44218197
123	0xbed37c40	-0.41305733
124	0xbed6ecf2	-0.4197765
125	0xbf89d91b	-1.076938
126	0xbe3988e7	-0.1811863
127	0xbf5f36a4	-0.8719275
128	0x3ecba8f1	0.3977733
129	0x3f1352d8	0.57548285
130	0x3f25890e	0.64662254
131	0xbd831502	-0.06400491
132	0xbdfe07ee	-0.12403856
133	0x3fca9d08	1.5829172
134	0xbd96e0ea	-0.07367118
135	0x3ef4a00d	0.4777836
136	0xbed277e9	-0.4110711
137	0xbf0c322b	-0.5476405
138	0xbe69c356	-0.22828421
139	0x3e9ddd1f	0.30832765
140	0x3e8be781	0.2732506
141	0xbfed91f9	-1.8560172
142	0xbf1e334a	-0.6179701
143	0xc004a8a9	-2.0727942
144	0x3da54522	0.08069827
145	0xbbd75e03	-0.0065724864
146	0xbec68254	-0.38771307
147	0x3ee281a3	0.4423953
148	0x3e055a22	0.13022664
149	0x3dceea6e	0.10103308
150	0x3dd75957	0.10515087
151	0x3d5d92e3	0.05409516
152	0xbd1d5dc5	-0.038419504
153	0xbdfe180b	-0.124069296
154	0x3f093aed	0.5360554
155	0xbd2388b6	-0.0399253
156	0x3db08637	0.086193494
157	0xbe7d394b	-0.24728887
158	0x3edf8b1f	0.43660828
159	0xbda91131	-0.08255232
160	0x3d69b9ca	0.057061948
161	0x3eb4151c	0.35172355
162	0x3d4a6a70	0.049417913
163	0xbecd4fcc	-0.40099943
164	0x3efcca76	0.49373215
165	0x3e0ca730	0.13735652
166	0x3eb8af3e	0.360712
167	0x3ef878f7	0.4852979
168	0xbd2e12a0	-0.04249823
169	0xbda25fc2	-0.079284206
170	0xbf0b4b9c	-0.54412246
171	0xbb95c8f2	-0.0045710737
172	0x3e05489f	0.13015984
173	0xbe85ea25	-0.261552
174	0xbcfefbc7	-0.031125916
175	0xbe1713ad	-0.147536
176	0x3c03a2f4	0.0080344565
177	0x3e35e91e	0.17764708
178	0x3f5e4a88	0.86832476
179	0x3ecd2a9c	0.4007157
180	0x3f161ff6	0.5864252
181	0x3f3590af	0.70923895
182	0x3ef4207a	0.47681028
183	0x3d938cdf	0.072046034
184	0xbca99b90	-0.02070406
185	0xbe1818e5	-0.14853247
186	0x3ec5df47	0.3864691
187	0x3e47badf	0.1950488
188	0xbea0664f	-0.31328055
189	0x3c737681	0.0148597965
190	0xbf590321	-0.847704
191	0xbe020f8b	-0.12701242
192	0x3ed10e7c	0.40831363
193	0x3e58b412	0.21162441
194	0x3e30006b	0.1718766
195	0x3f33e39a	0.7026917
196	0x3dacf2aa	0.08444722
197	0x3e9f4a2a	0.3111127
198	0x3cf46e5b	0.029837778
199	0x3e9d972b	0.30779395
200	0xbec03d78	-0.37546897
201	0xbf0813e1	-0.5315533
202	0x3f666b2f	0.900073
203	0x3bd9dc94	0.0066486094
204	0x3d2b3856	0.041801773
205	0xc0045bb6	-2.0680976
206	0xbe23121f	-0.15924881
207	0xc005529c	-2.083167
208	0xbd93c921	-0.07216097
209	0xbeb93267	-0.36171266
210	0x3eaa8497	0.33304283
211	0x3f63692a	0.8883234
212	0xbf355d10	-0.7084513
213	0xbf7c46ee	-0.9854573
214	0xbf0723e2	-0.5278913
215	0xbe63eb89	-0.22257818
216	0x3d9e4e91	0.07729829
217	0x3e7dc0f5	0.24780639
218	0x3f9b4177	1.2129353
219	0xbe62b549	-0.22139467
220	0x3d81bce8	0.06334859
221	0x3e9ff296	0.31239766
222	0xbea003ee	-0.31252998
223	0x3eb1263d	0.34599486
224	0x3e1a3ccd	0.15062256
225	0x3e213ab8	0.15745056
226	0x3ebef965	0.37299648
227	0x3f28c94a	0.6593214
228	0xbf2b24c6	-0.66852987
229	0xbe1f2140	-0.15540028
230	0xbf153b3d	-0.58293515
231	0x3ebbc852	0.3667627
232	0xbe2ce819	-0.16885413
233	0xbe419530	-0.18904567
234	0x3f6f1e01	0.9340516
235	0xbcf1b2aa	-0.029504139
236	0x3eae34de	0.3402471
237	0xbf695ed9	-0.9116035
238	0xbeb4b2b2	-0.35292584
239	0xbf6499fe	-0.89297473
240	0x3e98573f	0.29754063
241	0xbea4b260	-0.3216734
242	0x3e9af6f2	0.3026653
243	0xbf6c7671	-0.9236823
244	0xbf1fafd6	-0.6237768
245	0xbf4ecb52	-0.8077899
246	0xbf013c48	-0.50482607
247	0xbe705ba8	-0.23472464
248	0xbe61036f	-0.21973966
249	0xbea15749	-0.31511906
250	0xbf91b32a	-1.1382802
251	0xbe7cbbf5	-0.24681075
252	0x3e059f10	0.13048959
253	0xbfbc1aba	-1.4695656
254	0xbe7029ea	-0.23453489
255	0xbfc01436	-1.5006168

layers.0.bias f4 [16]
0	0x3e7e84be	0.24855325
1	0xbe999377	-0.2999532
2	0x3ee7a0ef	0.4523997
3	0xbec40ff1	-0.38293412
4	0x3ec93d26	0.39304465
5	0x3eda9417	0.4269111
6	0xbe45238a	-0.19251838
7	0x3e83dbbf	0.2575359
8	0xbcf0c5cb	-0.02939119
9	0x3f0c3488	0.54767656
10	0x3e49c4b2	0.1970394
11	0x3e965169	0.29358986
12	0x3d9a164b	0.07523783
13	0xbe6fee43	-0.23430733
14	0x3d4a48f8	0.049385995
15	0x3e9a1753	0.3009592

layers.1.weight f4 [16, 16]
0	0xbed522d1	-0.41628125
1	0x3da9a9ae	0.08284317
2	0x3f96312c	1.1733756
3	0xbedafda7	-0.42771646
4	0xbf45451d	-0.77058583
5	0x3dc1053d	0.09424827
6	0x3ef65f36	0.48119515
7	0xbf016185	-0.5053943
8	0x3ef41673	0.47673377
9	0xbedd0f0b	-0.4317554
10	0x3e6cf876	0.23141655
11	0xbd43b7b2	-0.047782607
12	0xbf374849	-0.71594673
13	0x3f196444	0.5991862
14	0xbf50aa6c	-0.81510043
15	0xbe1857e4	-0.14877278
16	0x3fa49fd3	1.2861274
17	0xbe069c9c	-0.13145679
18	0xbeb7c9ee	-0.35896248
19	0xbe4ae93f	-0.19815539
20	0xbd9bec3e	-0.07613419
21	0xbd23f53a	-0.04002879
22	0x3e92e429	0.28689697
23	0xbe3bdf98	-0.18347013
24	0xbf138e59	-0.5763908
25	0x3dd106b5	0.102063574
26	0x3ddb638e	0.10712348
27	0xbd2e0da8	-0.042493492
28	0xbb819ed3	-0.003955701
29	0xbe11a102	-0.14221576
30	0xbd255ae2	-0.040369876
31	0xbf997c89	-1.199113
32	0xbe3ee7d2	-0.1864312
33	0x3e8baa53	0.27278385
34	0xbeda5f74	-0.4265095
35	0x3e42d297	0.19025646
36	0xbe3021ab	-0.17200343
37	0x3eccafd4	0.39977896
38	0x3d941a98	0.07231635
39	0x3df99c7b	0.121880494
40	0xbfa19383	-1.2623142
41	0x3e94cbe1	0.29061797
42	0x3f835e19	1.0263091
43	0x3e7efdc9	0.24901499
44	0xbe03f294	-0.12885505
45	0x3eb55a3c	0.35420406
46	0x3d12c118	0.03582868
47	0x3e7ce2c0	0.24695873
48	0x3e032565	0.12807234
49	0xbed95e73	-0.42454872
50	0xbe043f98	-0.12914884
51	0xbc79d46f	-0.015248402
52	0xbd7dad33	-0.061932754
53	0xbf138627	-0.57626575
54	0xbc58571c	-0.013204362
55	0xbdca562b	-0.098797165
56	0xbf1a88a7	-0.60364765
57	0x3ea0ffdf	0.31445214
58	0x3faeccbd	1.3656231
59	0xbd844ec2	-0.06460334
60	0xbcb9359f	-0.022608576
61	0xbdb98a79	-0.09059615
62	0x3de6b878	0.11265653
63	0xbf145ce2	-0.5795423
64	0xbf0eaa7d	-0.55728894
65	0x3e453aff	0.19260786
66	0x3d0d4a5e	0.03449475
67	0x3e39f617	0.18160282
68	0xbe792712	-0.2433131
69	0xbeda3141	-0.42615703
70	0xbecb9436	-0.39761513
71	0xbe5aad6e	-0.2135522
72	0xbf5132d8	-0.81718206
73	0xbb613348	-0.0034362841
74	0x3f572d7d	0.84053785
75	0xbdfacadc	-0.122457236
76	0xbd68e79d	-0.05686151
77	0xbe3c45dc	-0.18386024
78	0x3dadb17d	0.08481119
79	0x3f0c60f8	0.5483546
80	0x3f3c17dc	0.73473907
81	0x3e876fea	0.2645257
82	0xbe88ef8d	-0.26745263
83	0x3df95acf	0.121755235
84	0x3d837a0a	0.064197615
85	0xbd453438	-0.048145503
86	0xbe33a46f	-0.17543195
87	0x3e30ddfc	0.1727218
88	0xbd7f189b	-0.062279325
89	0xbd85b1cd	-0.065280534
90	0xbec7c98a	-0.3902095
91	0xbdf27af3	-0.11839857
92	0x3e6a999b	0.22910158
93	0xbea3b938	-0.31977248
94	0xbd13f68e	-0.036123805
95	0xbe8aa75c	-0.2708081
96	0xbf8168f4	-1.0110154
97	0xbe0f4b7f	-0.13993643
98	0xbd6de99c	-0.058084115
99	0x3dc23513	0.09482779
100	0x3dd021e0	0.10162711
101	0xbe939d43	-0.2883092
102	0xbda706a6	-0.08155565
103	0xbe95eeec	-0.29283845
104	0xbf2f7d56	-0.6855062
105	0x3cba474d	0.022739077
106	0x3f47f066	0.78101194
107	0xbea789e0	-0.32722378
108	0x3e98ad21	0.29819587
109	0xbecf39c5	-0.40473762
110	0xbd81d934	-0.06340256
111	0x3f6b81b1	0.9199477
112	0x3f8aa71d	1.0832249
113	0x3dc99a2f	0.09843861
114	0xbc2c3e88	-0.0105129555
115	0xbc098b13	-0.008394974
116	0xbcb8d3dd	-0.022561962
117	0x3d102094	0.03518732
118	0xbc7dc52f	-0.015488907
119	0x3e01a572	0.12660769
120	0x3e8c75ec	0.27433717
121	0x3e1781c3	0.14795594
122	0x3e17c90a	0.14822784
123	0x3d32bfd8	0.043639988
124	0xbe638cc8	-0.22221673
125	0x3e2e20a2	0.17004636
126	0x3d89ac64	0.06722334
127	0xbf8d9d92	-1.1063712
128	0xbe4475d0	-0.19185567
129	0xbdc41b84	-0.09575561
130	0xbf13f5ae	-0.5779675
131	0x3f316b87	0.693047
132	0x3ed7498c	0.420483
133	0xbfaf8775	-1.3713213
134	0xbf91f31b	-1.1402315
135	0x3ef40cc2	0.47665983
136	0x3e3bbd92	0.18334034
137	0x3ef1d425	0.47232166
138	0xbbc1ac70	-0.0059104487
139	0xbeb618bb	-0.35565743
140	0x3f5b276a	0.85607016
141	0xbeff7c77	-0.49899647
142	0x3f8b8875	1.0901018
143	0xbd13b898	-0.036064714
144	0xbea390a4	-0.3194629
145	0x3e8b1887	0.2716715
146	0xbf026668	-0.5093751
147	0x3e4bab81	0.19889642
148	0x3eaf1a46	0.34199733
149	0xbf059d5a	-0.52193224
150	0xbf15c3dc	-0.5850198
151	0x3ea09943	0.3136693
152	0x3ea42928	0.3206265
153	0x3eeda760	0.4641676
154	0xbe4dc7b2	-0.20095709
155	0x3d6aa6bc	0.057287917
156	0x3e66c0b9	0.22534455
157	0xbea3c198	-0.31983638
158	0xbc61ee59	-0.013789737
159	0x3e628900	0.22122574
160	0x3e7c49a8	0.24637473
161	0x3eb9c5a4	0.362836
162	0xbf2a9fb5	-0.66649944
163	0x3e0908d6	0.13382277
164	0xbe9b7e6d	-0.30369893
165	0x3e408a55	0.1880277
166	0x3dfda801	0.1238556
167	0x3d2525ae	0.040319137
168	0xbf7668b9	-0.96253544
169	0x3e8e76cd	0.27825013
170	0x3ea5dc5c	0.32394683
171	0x3e9dded1	0.30834058
172	0x3e688790	0.22707963
173	0xbe50138b	-0.20319955
174	0xbd34acb0	-0.04411
175	0x3e59b88b	0.21261804
176	0x3f0b50dd	0.5442026
177	0xbeb0b88f	-0.34515807
178	0xbd782044	-0.060577646
179	0xbe32dd12	-0.17467144
180	0xbea2a56a	-0.31766826
181	0xbed2e17d	-0.4118766
182	0xbdfb486d	-0.122696735
183	0x3d9984c1	0.07496024
184	0x3ebfc980	0.3745842
185	0x3f1744d4	0.590894
186	0x3f2a199d	0.6644533
187	0x3e075c6d	0.13218851
188	0xbe297564	-0.16548687
189	0x3e72a574	0.23695928
190	0x3e82fbec	0.25582826
191	0xbfa2d2a0	-1.2720528
192	0x3f21764f	0.6307115
193	0xbcce0018	-0.02514653
194	0xbe8f1d18	-0.27951884
195	0xbc0c5262	-0.0085645635
196	0x3df17677	0.117901735
197	0x3e7b5ad0	0.24546361
198	0x3d51c518	0.051213354
199	0x3e4d0903	0.20022969
200	0x3eb28b8e	0.34872097
201	0x3e651484	0.22371107
202	0xbebd75ba	-0.3700388
203	0x3e922835	0.285463
204	0xbd22ffbf	-0.03979468
205	0x3e1ec140	0.15503407
206	0x3aca1188	0.0015416602
207	0xbf12c41d	-0.57330495
208	0xbe124d03	-0.1428719
209	0xbee771bf	-0.4520397
210	0xbeba6248	-0.36403108
211	0xbe9badd3	-0.30406055
212	0xbe13cf3c	-0.14434522
213	0xbf7a1625	-0.9769004
214	0x3e646e83	0.22307782
215	0xbdd9dddf	-0.10638022
216	0x3ed7f25e	0.421771
217	0x3f3a76bd	0.7283743
218	0x3e376d64	0.17912823
219	0x3ea4e5f4	0.3220669
220	0xbe5162ee	-0.20447895
221	0xbe06fd77	-0.13182627
222	0xbef55e67	-0.47923586
223	0xbe9a49c7	-0.30134413
224	0x3e51e719	0.20498313
225	0x3e37c936	0.1794785
226	0x3dcdb1e1	0.10043693
227	0xbd61feb3	-0.05517454
228	0xbe067cf2	-0.131336
229	0xbeae5631	-0.34050134
230	0xbdc49c48	-0.09600121
231	0x3e4e4086	0.20141801
232	0x3f787b93	0.9706356
233	0xbdafeb6f	-0.08589827
234	0xbf9ff43b	-1.2496408
235	0xbe8090c2	-0.2511044
236	0x3d6b6f1d	0.057479013
237	0xbe0c9ddc	-0.13732094
238	0x3db47d1b	0.088129245
239	0xbe349be9	-0.176376
240	0x3e191a19	0.14951362
241	0x3ecd80b4	0.40137255
242	0xbf132c3b	-0.57489365
243	0xbf06a1e3	-0.5259077
244	0xbafccfec	-0.001928804
245	0xbe844c52	-0.25839478
246	0x3e975798	0.29559016
247	0xbed7488e	-0.42047542
248	0xbcad8da1	-0.021185698
249	0x3e312aa1	0.17301418
250	0xbf063f9a	-0.524408
251	0x3e1423bf	0.14466761
252	0xbdf26abe	-0.11836766
253	0xbf8bd1f0	-1.0923443
254	0xbee0e67f	-0.43925855
255	0x3e8bfdc8	0.27342057

layers.1.bias f4 [16]
0	0xbcd0729b	-0.025445273
1	0xbe7bb3cb	-0.24580304
2	0xbd8ed1a7	-0.06973582
3	0xbdb91214	-0.09036651
4	0x3ef50722	0.47857004
5	0x3d96b6d9	0.07359094
6	0x3eaabd68	0.3334763
7	0xbd83e3e0	-0.06439948
8	0x3da7f0a9	0.08200199
9	0xbcebe9d9	-0.02879803
10	0xbdc01f96	-0.093810245
11	0x3c26b5bf	0.010175168
12	0x3dd8b7d1	0.10581935
13	0x3eab1588	0.33414865
14	0x3db7e2cc	0.08978805
15	0x3d69a753	0.05704434

final.linears.0.weight f4 [98, 49]
0	0x3ec766d0	0.38945627
1	0xbd5e1b8e	-0.054225497
2	0x3c7dc176	0.015488019
3	0xbdae7232	-0.08517875
4	0xbe1645cf	-0.14675067
5	0xbe438648	-0.19094193
6	0x3e6d0ac5	0.2314864
7	0xbbeac914	-0.0071650837
8	0xbe1de5ed	-0.15419741
9	0xbd8d80c6	-0.06909327
10	0xbe9f2d20	-0.31089115
11	0x3e82ecef	0.2557139
12	0xbe9f24cb	-0.31082758
13	0x3cc06eee	0.023490395
14	0xbeb11efb	-0.3459395
15	0x3e4fa1f4	0.20276624
16	0x3eff7725	0.49895588
17	0xbc216ea8	-0.009853043
18	0xbc439cee	-0.01193927
19	0x3d7b0bc6	0.061290525
20	0xbe02d403	-0.12776189
21	0x3c12ee7c	0.008967992
22	0xbd716e18	-0.058942884
23	0xbd1c5231	-0.03816432
24	0x3ce2df6d	0.027694428
25	0xbba84df3	-0.0051362454
26	0x3e042198	0.1290344
27	0xbd699081	-0.057022575
28	0x3dab1e11	0.08355344
29	0x3d71eadd	0.059061874
30	0x3d4f8b07	0.050669696
31	0x3e04dc32	0.12974623
32	0x3df5a8ad	0.11995063
33	0x3d840d6f	0.06447875
34	0x3dfa847f	0.12232303
35	0xbb4844e4	-0.003055864
36	0xbd2833aa	-0.041064896
37	0xbd1b454d	-0.037907887
38	0xbc57cef8	-0.013171904
39	0x3c4af9a5	0.012388621
40	0xbd95b0ef	-0.07309138
41	0xbd9b653e	-0.0758767
42	0xbd9e0dd7	-0.077174835
43	0xbbc06f8d	-0.005872673
44	0xbc46afab	-0.012126843
45	0xbd4ccf11	-0.05000216
46	0x3e151391	0.14558245
47	0xbd90d453	-0.07071748
48	0x3dc0456d	0.09388242
49	0x3d99c955	0.07509104
50	0xbe876e55	-0.26451364
51	0xbf87f280	-1.062088
52	0x40538936	3.3052497
53	0xbf51dffc	-0.819824
54	0xbef62987	-0.48078558
55	0x3d81e3b0	0.06342256
56	0xbd13fb5c	-0.036128387
57	0x3d4ec8ba	0.050484397
58	0xbf196e11	-0.59933573
59	0xbec94639	-0.39311388
60	0x3d91c144	0.071169406
61	0xbd416859	-0.047218654
62	0xbe077480	-0.13228035
63	0x3e29235f	0.16517399
64	0xbdc30e9d	-0.09524272
65	0xbdbc57b2	-0.09196414
66	0x3c8b68ee	0.017017808
67	0xbe68ea1c	-0.22745556
68	0x3dd4165d	0.10355828
69	0xbe264fb5	-0.16241343
70	0x3e514219	0.2043537
71	0x3e0b5a16	0.13608584
72	0xbdfd9e3e	-0.12383698
73	0xbb0c03b4	-0.0021364512
74	0xbcebe464	-0.028795429
75	0x3e09c685	0.13454635
76	0x3e501bdb	0.20323126
77	0x3c6202c2	0.013794603
78	0x3ccede94	0.025252618
79	0xbe4389b3	-0.19095497
80	0x3e415a0d	0.18882008
81	0x3e1d3e10	0.15355706
82	0x3e53c520	0.20680666
83	0xbdaf5827	-0.085617356
84	0xbd942779	-0.07234091
85	0xbd4c0026	-0.04980483
86	0xbd3b506a	-0.045730986
87	0x3ddd6142	0.10809566
88	0x3df7fbdf	0.121085875
89	0xbcd765c1	-0.026293637
90	0xbe4dd95c	-0.20102447
91	0xbe16b6c0	-0.14718151
92	0xbe38f51c	-0.18062252
93	0xbcef756c	-0.029230796
94	0xbb496123	-0.0030728064
95	0xbe0bfb9a	-0.13670197
96	0x3d12a3c3	0.035800707
97	0x3e528220	0.20557451
98	0x3ef26160	0.47339916
99	0x3d2d4f9f	0.04231226
100	0xbf2e2c4e	-0.68036354
101	0xbf343fdf	-0.7040996
102	0xbf38d556	-0.72200525
103	0xbf2961b2	-0.66164696
104	0x3dd9a704	0.10627559
105	0xbe6f4669	-0.23366703
106	0xbb5d4267	-0.0033761503
107	0xbf5d058d	-0.86336595
108	0xbf29f006	-0.6638187
109	0xbf4020c6	-0.7505001
110	0xbf627f3e	-0.88475406
111	0x3ed86697	0.4226577
112	0x3ece4463	0.4028655
113	0xbf8e9568	-1.1139345
114	0x3f818013	1.011721
115	0x3d1ec9d3	0.038766693
116	0xbd984e8c	-0.074368566
117	0x3d9a0e22	0.07522227
118	0x3d6ab861	0.057304744
119	0x3d117ecc	0.035521314
120	0x3ba1a10a	0.0049325274
121	0x3d292c64	0.0413021
122	0xbba489b7	-0.0050212997
123	0x3b95560a	0.004557376
124	0x3d46da08	0.048547775
125	0x3d24b1f6	0.04020878
126	0xbc6d4064	-0.014480684
127	0xbbe6c055	-0.0070419707
128	0x3d81c414	0.06336227
129	0xbd76802e	-0.060180835
130	0xbbef0779	-0.007294592
131	0x3cc5f9d3	0.024166977
132	0x3de6228d	0.11237059
133	0x3d0fa6e2	0.03507126
134	0xbdd38c29	-0.10329468
135	0xbcb9fe41	-0.022704246
136	0xbc2d7454	-0.010586817
137	0x3ddd1878	0.10795683
138	0xbccff76e	-0.025386538
139	0xbd4ba5bc	-0.049718603
140	0x3a94a146	0.0011339567
141	0xbde2b74c	-0.11070117
142	0xbd6ecf39	-0.05830309
143	0xbcdbe87b	-0.026844254
144	0x3e01b1ce	0.12665483
145	0xbd6615fe	-0.056173317
146	0xbcf82b67	-0.030294133
147	0x3ec52e94	0.385121
148	0x3edcacaa	0.43100482
149	0xbd833cd7	-0.06408089
150	0xbe6d449f	-0.23170708
151	0xbe006803	-0.12539677
152	0x3f91f49d	1.1402775
153	0x3fac1ef7	1.344695
154	0xbf220455	-0.6328786
155	0x3f4140e4	0.7548964
156	0xbe9e1f48	-0.3088324
157	0x3e36c9aa	0.17850366
158	0xbf97b910	-1.1853352
159	0xbe7ecb94	-0.24882346
160	0xbf61392f	-0.8797788
161	0xbfbfe60f	-1.4992083
162	0x3f858129	1.0430042
163	0x3f38b9d2	0.7215854
164	0xbd4b8a81	-0.049692634
165	0x3e0e4d9f	0.13896798
166	0x3d905fce	0.07049523
167	0x3e96c7a3	0.29449186
168	0x3c8390dd	0.016060287
169	0x3cf23f66	0.029571246
170	0x3c80eb7f	0.015737293
171	0x3a81e4a2	0.0009910057
172	0x3aba1e37	0.0014199679
173	0xbdb448de	-0.08802961
174	0x3d56701c	0.05235301
175	0xbdd47049	-0.10372979
176	0xbd34b65e	-0.04411923
177	0xbd0b46a0	-0.0340029
178	0xbdcc6feb	-0.09982284
179	0x3c2abcf4	0.0104210265
180	0xbde08b56	-0.10964076
181	0x3d8443fa	0.06458278
182	0xbb60f83f	-0.0034327654
183	0x3d920e3d	0.07131622
184	0x3ce82cde	0.028341707
185	0xbe39401a	-0.18090859
186	0xbdcf2094	-0.10113636
187	0x3cc7f09e	0.024406727
188	0x3d64c668	0.055853277
189	0xbd07533f	-0.033038374
190	0xbd10c4cd	-0.035343934
191	0xbd0e95d1	-0.034810845
192	0x3d9efddd	0.07763264
193	0x3d46f4d2	0.048573323
194	0x3d0b986c	0.034080908
195	0xbc10bb14	-0.008833665
196	0x3f2d21ae	0.67629516
197	0x3f8804e3	1.0626491
198	0xbe0349c5	-0.1282111
199	0xbe1a014b	-0.15039556
200	0xbe7fa0ea	-0.24963728
201	0xbf4a01ec	-0.7890918
202	0x3fecb08b	1.8491377
203	0xbf7fd627	-0.99936146
204	0xbfc7b614	-1.5602441
205	0xbe2ddeb7	-0.1697949
206	0xbdf80c25	-0.121116914
207	0x3f63952e	0.88899505
208	0xbf8f24bf	-1.1183089
209	0xbf92ef6a	-1.1479313
210	0x3f34faa4	0.7069495
211	0x3f275778	0.6536784
212	0x3f357c6c	0.7089298
213	0xbe0218ac	-0.12704724
214	0x3dd32ee2	0.103116766
215	0x3e00e9c6	0.12589177
216	0x3838c180	4.404923e-05
217	0xbe46fcf2	-0.19432428
218	0xbbb1c850	-0.0054254904
219	0x3dc1b804	0.09458926
220	0xbda7aa50	-0.081867814
221	0xbd19ce83	-0.03755046
222	0xbd4b705d	-0.049667705
223	0x3d9be503	0.0761204
224	0xbdc57a69	-0.096424885
225	0xbdce55ab	-0.100749336
226	0x3da05c1c	0.078300685
227	0xbe881ecf	-0.26586005
228	0xbd91c00e	-0.0711671
229	0x3d12290a	0.03568367
230	0x3d2765f8	0.04086873
231	0x3d8a6bd2	0.06758846
232	0x3ddf01bc	0.10889003
233	0xbc957f54	-0.018249191
234	0xbd3f281d	-0.046669114
235	0xbd5d0e4a	-0.053968705
236	0x3d2786d9	0.040900085
237	0xbd0320ed	-0.032013822
238	0x3e30229a	0.172007
239	0xbdcd3044	-0.100189716
240	0xbc55556f	-0.013020857
241	0x3e05838b	0.13038461
242	0xbcc2cd2a	-0.02377947
243	0x3e1669da	0.14688817
244	0xbc0b789f	-0.008512645
245	0xbf013bfd	-0.5048216
246	0xbee26cad	-0.44223538
247	0x3e90ade7	0.28257677
248	0x3da2c7f6	0.07948296
249	0x3d4c5519	0.049885843
250	0x3e8ea7b4	0.27862322
251	0x3dd9a298	0.106267154
252	0x3efd4e59	0.49473837
253	0x3d4fc7f4	0.0507278
254	0x3ee23f8d	0.4418911
255	0x3dfaa5ae	0.12238632

final.linears.0.bias f4 [98]
0	0xbd15479a	-0.036445238
1	0xbc32dcd2	-0.0109169055
2	0x3edfc4bc	0.43704784
3	0x3d9a9eee	0.07549845
4	0x3e761206	0.24030313
5	0x3e7878a8	0.24264777
6	0x3e972e00	0.29527283
7	0x3eb7aa8f	0.35872313
8	0xbe91a905	-0.28449264
9	0xbe9a8cf4	-0.30185664
10	0x3e245cc6	0.16051015
11	0xbe2be70d	-0.16787358
12	0x3e04d144	0.12970454
13	0x3e1e7c3b	0.15477078
14	0x3ea62f12	0.32457787
15	0xbcd236a0	-0.025660813
16	0xbdf43380	-0.11923885
17	0xbe6109be	-0.21976373
18	0x3e818284	0.25294888
19	0x3d6134ae	0.05498188
20	0x3d7efcf9	0.062252972
21	0xbe037580	-0.12837791
22	0xbb2eab0a	-0.002665224
23	0x3ed89bbe	0.42306322
24	0x3e16dd52	0.14732864
25	0x3ec7a880	0.38995743
26	0x3d2a4596	0.04157027
27	0xbf2d17b3	-0.6761429
28	0xbe05d54a	-0.13069645
29	0xbd8c60ed	-0.068544246
30	0x3e605aa2	0.21909574
31	0x3dabf3aa	0.083960846
32	0xbd752cd7	-0.059857216
33	0x3cee9a5d	0.02912634
34	0x3e6ee5b4	0.23329812
35	0x3ef022f3	0.46901664
36	0xbe751857	-0.23935066
37	0x3e6f3044	0.23358256
38	0x3dad3fed	0.084594585
39	0xbde68e10	-0.11257565
40	0x3f2a9ee0	0.66648674
41	0x3ec2761d	0.37980738
42	0xbc921bfe	-0.017835613
43	0x3e96c2dc	0.2944554
44	0x3e339363	0.17536692
45	0xbc8550bb	-0.016273847
46	0x3e89566c	0.26823747
47	0xbe005a95	-0.12534554
48	0x3e8e2144	0.27759755
49	0x3e2f993c	0.17148298
50	0x3e327fdc	0.17431587
51	0x3e9479ef	0.28999278
52	0x3e0e795b	0.13913481
53	0x3e401cb4	0.1876095
54	0x3db05e88	0.086117804
55	0x3e8b620a	0.27223235
56	0x3ebd9bdc	0.37032974
57	0x3e8e261d	0.27763453
58	0x3eb27445	0.34854332
59	0xbea450b4	-0.32092822
60	0x3e569421	0.20954944
61	0x3e0688cb	0.1313812
62	0xbd33adb1	-0.043866817
63	0xbebd544e	-0.36978382
64	0x3e89b596	0.26896352
65	0xbd1c9baf	-0.03823441
66	0xbe8e1f58	-0.27758288
67	0x3e867ffb	0.26269516
68	0xbf655dfd	-0.8959654
69	0xbd47007b	-0.048584443
70	0x3dbd6a74	0.0924882
71	0x3ec99388	0.3937037
72	0x3e6b1ffb	0.22961418
73	0x3e769ce0	0.2408328
74	0x3dca1e6d	0.098690845
75	0x3da881b4	0.08227864
76	0x3ced515f	0.028969465
77	0xbe981004	-0.2969972
78	0xbe592483	-0.21205334
79	0x3e90e349	0.28298405
80	0x3e82c693	0.25542125
81	0xbe09f01a	-0.13470498
82	0x3e8bcc4c	0.27304304
83	0x3ceb2b68	0.028707221
84	0x3e7d5bfd	0.24742122
85	0xbd9747c6	-0.073867366
86	0x3ec63623	0.38713178
87	0xbec339f8	-0.38130164
88	0xbed9589f	-0.42450425
89	0xbed819d0	-0.42207193
90	0x3d97585c	0.073899
91	0xbeab3e39	-0.3344591
92	0x3ebc3100	0.36756134
93	0xbf2b3988	-0.6688466
94	0xbe0af722	-0.13570836
95	0xbdc00d3e	-0.09377526
96	0xbd214952	-0.039376564
97	0xbf0e71e5	-0.5564254

final.linears.1.weight f4 [98, 98]
0	0xbe2ba8f9	-0.16763677
1	0xbe8f2475	-0.27957502
2	0xbe84a58a	-0.25907546
3	0xbea5668f	-0.32304808
4	0xbec782f4	-0.38967097
5	0xbeaac95c	-0.3335675
6	0xbe8aadb2	-0.27085644
7	0xbe90bfb3	-0.28271255
8	0x3ca92b8e	0.020650651
9	0xbd904da4	-0.07046059
10	0xbc92138a	-0.017831583
11	0xbe8df33c	-0.27724636
12	0xbe76deed	-0.24108477
13	0xbe189abf	-0.14902781
14	0xbe599907	-0.21249782
15	0xbcf755f6	-0.030192357
16	0xbe145670	-0.14486098
17	0xbe49d2a7	-0.19709264
18	0xbe3f904a	-0.18707386
19	0xbeaee938	-0.34162307
20	0xbddfda0f	-0.10930263
21	0xbdf5f231	-0.12009085
22	0xbe7dcad8	-0.2478441
23	0xbe3198fa	-0.17343512
24	0xbe06949f	-0.13142632
25	0xbdf14844	-0.11781362
26	0xbe96c684	-0.2944833
27	0x3e23db61	0.16001655
28	0xbeb5703a	-0.35437185
29	0xbe8d40f2	-0.27588612
30	0xbdcdc1ae	-0.10046707
31	0xbea6cd24	-0.32578385
32	0xbe66bf9c	-0.2253403
33	0xbe4ddc20	-0.20103502
34	0xbeb56ac7	-0.35433027
35	0xbea1957b	-0.31559357
36	0xbea82fb4	-0.32848895
37	0xbedb39b0	-0.4281745
38	0xbe6338e9	-0.22189678
39	0xbee3d8ce	-0.44501346
40	0xbe9e24df	-0.30887505
41	0xbe188e0f	-0.14897941
42	0xbe92acf2	-0.28647572
43	0xbe835601	-0.25651553
44	0xbea2bc85	-0.31784454
45	0xbe35f01c	-0.17767376
46	0xbe96c64e	-0.2944817
47	0xbe97cbbc	-0.29647624
48	0xbf027e39	-0.5097385
49	0xbe505a58	-0.20346963
50	0xbdc1b1fd	-0.09457777
51	0xbed8f113	-0.42371425
52	0xbeb0d7f4	-0.3453976
53	0xbe9fbb36	-0.31197518
54	0xbe157f00	-0.14599228
55	0xbeae9906	-0.34101123
56	0xbf9caa97	-1.223956
57	0xbe9f7c13	-0.3114935
58	0xbe26c2e6	-0.16285285
59	0xbe92ac4c	-0.28647077
60	0xbe209c9a	-0.15684739
61	0xbc3861df	-0.011253803
62	0xbed1fa65	-0.41011348
63	0xbe2804a8	-0.16408026
64	0xbe1418c3	-0.14462571
65	0xbe122865	-0.14273222
66	0xbd80f06d	-0.062958576
67	0xbe990a02	-0.29890448
68	0x3e2850ec	0.16437119
69	0xbc929f65	-0.01789827
70	0xbd7e3c2c	-0.062069103
71	0xbe259b77	-0.16172586
72	0xbe9c19ec	-0.30488527
73	0xbdcef811	-0.10105909
74	0xbe951c4b	-0.29123148
75	0xbecb26a4	-0.39677918
76	0xbe3edd13	-0.1863902
77	0xbe4450da	-0.19171467
78	0xbedf0264	-0.4355651
79	0xbe224f9d	-0.15850683
80	0xbe9cb85a	-0.306094
81	0xbe241905	-0.16025169
82	0xbe44200f	-0.19152854
83	0xbe435e32	-0.19078901
84	0xbdf98e3d	-0.12185333
85	0xbda79816	-0.08183305
86	0xbe9c5b52	-0.30538422
87	0x3d80774e	0.062727556
88	0x3da97b67	0.0827549
89	0x3dd9babf	0.10631322
90	0xbd4a45b2	-0.049382873
91	0x3e676367	0.22596513
92	0xbe4d6f65	-0.20062025
93	0x3e0517cb	0.12997358
94	0xbe964c03	-0.29354867
95	0x3db7d4d0	0.08976138
96	0xbe5b5983	-0.21420865
97	0x3e38173d	0.17977615
98	0x3db2d27c	0.08731553
99	0xbc8cf6f2	-0.017207596
100	0x3ec068fb	0.37580094
101	0xbc4fbf3e	-0.012679873
102	0x3cbcc659	0.023043798
103	0xbcfd5463	-0.030924028
104	0x3cbb334c	0.022851609
105	0xbd029d81	-0.03188849
106	0x3da94b16	0.08266275
107	0x3d93ce69	0.07217104
108	0x3e877e0a	0.26463348
109	0xbdcd9556	-0.10038249
110	0xbd98ba57	-0.074574165
111	0xbdd8627c	-0.105656594
112	0x3c07c6eb	0.008287172
113	0x3d924a26	0.07143049
114	0xbccfb284	-0.025353678
115	0x39f0295e	0.00045807188
116	0x3c6439d3	0.013929802
117	0xbb9a8cb2	-0.004716479
118	0xbd443c65	-0.04790916
119	0x3d5ba569	0.053624544
120	0xbd06095c	-0.03272377
121	0xbd6a3efd	-0.057188977
122	0xbd068d68	-0.0328497
123	0xbdea0ca2	-0.11428191
124	0x3cc355c8	0.023844615
125	0x3ce40923	0.027836388
126	0xbc3d75a7	-0.011563695
127	0x3d5311a3	0.05153049
128	0xbd2cc330	-0.042178333
129	0x3cada221	0.021195473
130	0xbd8fa850	-0.07014525
131	0x3c0c9e80	0.008582711
132	0x3cdd02c2	0.026978854
133	0xbdc6c63d	-0.0970578
134	0xbc1b89cc	-0.009493303
135	0xbc74ebbd	-0.0149487825
136	0x3e0189a9	0.1265017
137	0xbe0d9ca7	-0.1382929
138	0xbcc5d993	-0.024151599
139	0x3cba5631	0.022746177
140	0xbcf36ecb	-0.029715916
141	0x3b39beb5	0.002834243
142	0x3d59e6c8	0.053198606
143	0xbd8203ba	-0.06348367
144	0x3dc77a0e	0.09740077
145	0xbe329e8b	-0.17443292
146	0xbcb81a96	-0.022473615
147	0xbd5e1fef	-0.054229673
148	0x3d841fa1	0.06451345
149	0xbb63650a	-0.0034697675
150	0xbdb3778b	-0.087630354
151	0xbda4683e	-0.08027695
152	0xbcf29899	-0.02961378
153	0x3d5543cc	0.05206661
154	0x3cc2363f	0.023707507
155	0xbe0368ed	-0.12832995
156	0x3ccf275b	0.02528732
157	0x3dda66ca	0.10664137
158	0x3b1e49aa	0.0024152794
159	0x3dea4df8	0.114406526
160	0x3d490645	0.049078245
161	0x3ab5f960	0.0013883524
162	0xbd0af022	-0.033920415
163	0xbd911878	-0.07084745
164	0x3bb881a9	0.005630691
165	0x3e17d033	0.14825515
166	0x3bca617b	0.0061761714
167	0xbcbef102	-0.02330828
168	0xbe028e66	-0.12749633
169	0xbdd82a05	-0.105548896
170	0xbd7657dc	-0.060142383
171	0x3d57a9d1	0.052652184
172	0x3b38340a	0.002810719
173	0x3c039e6b	0.008033375
174	0xbd3755c6	-0.044759534
175	0x3dcb5fab	0.099303566
176	0x3e4267b1	0.18984868
177	0xbcbda6ab	-0.023150763
178	0xbdf64406	-0.12024693
179	0xbdc25548	-0.09488922
180	0x3d413011	0.04716498
181	0x394705d2	0.00018980287
182	0xbd35c37f	-0.044375893
183	0xbca7e2d2	-0.020493899
184	0xbca93dd9	-0.020659374
185	0xbd9b8603	-0.0759392
186	0xbe10b3cb	-0.14131086
187	0xbc18f3e5	-0.009335493
188	0x3db3b9e8	0.08775693
189	0xbd31bb79	-0.04339168
190	0xbca58a85	-0.020207653
191	0x3d859020	0.0652163
192	0x3d60d04c	0.054886147
193	0x3d3591a5	0.04432835
194	0x3e399b44	0.18125635
195	0x3d0614b8	0.032734603
196	0x3d145914	0.036217764
197	0xbf00490c	-0.5011146
198	0xbe497ced	-0.19676562
199	0xbddac940	-0.10682917
200	0xbe0eef2e	-0.13958427
201	0xbe6626d1	-0.22475745
202	0xbe17e540	-0.14833546
203	0xbe28a868	-0.16470492
204	0xbf08958f	-0.5335321
205	0xbc6803b2	-0.014161037
206	0xbda3714a	-0.079805925
207	0xbe685d4f	-0.22691844
208	0xbc898cd4	-0.016790785
209	0xbe0659ff	-0.13120268
210	0xbdac6efc	-0.08419606
211	0x3cd87ac7	0.026425732
212	0xbe0131ae	-0.12616608
213	0xbd817091	-0.063202985
214	0xbdcf8b3f	-0.10133981
215	0xbe0d5d16	-0.1380504
216	0xbe404890	-0.1877768
217	0xbe38edde	-0.18059489
218	0xbe350889	-0.17679037
219	0xbee75b72	-0.45186955
220	0x3ea9f3e7	0.33193895
221	0xbeb3dad0	-0.35127878
222	0xbe2090e3	-0.1568027
223	0x3e2260bd	0.15857215
224	0xbe2aa3b4	-0.1666401
225	0x3def7e2f	0.116939895
226	0xbe3bda2a	-0.18344942
227	0xbe2cc8de	-0.168735
228	0xbf0a1829	-0.53943115
229	0xbe080ddf	-0.13286541
230	0xbe66fff4	-0.22558576
231	0xbd5e8ad6	-0.054331623
232	0xbdcb00b1	-0.09912241
233	0xbe81cab5	-0.25349966
234	0xbe2e64f1	-0.17030694
235	0xbd26d12d	-0.04072683
236	0xbef05619	-0.46940687
237	0xbebc6714	-0.36797392
238	0xbe12f170	-0.14349914
239	0xbde80839	-0.11329693
240	0xbe2efcd8	-0.1708864
241	0xbe131b2d	-0.14365835
242	0xbe0c7cb3	-0.13719444
243	0xbd0f0643	-0.03491808
244	0xbdf08a6f	-0.11745154
245	0xbd508fc5	-0.05091836
246	0xbe3e0a8e	-0.18558714
247	0xbe37b193	-0.17938833
248	0xbe064593	-0.13112478
249	0xbdfe0a03	-0.12404253
250	0xbe00a04e	-0.12561151
251	0xbe59da2f	-0.21274637
252	0xbdea1e33	-0.11431541
253	0xbe00eae3	-0.12589602
254	0xbe967419	-0.2938545
255	0x3d65c27a	0.05609367

final.linears.1.bias f4 [98]
0	0xbe906705	-0.28203598
1	0x3d73cdf5	0.059522588
2	0xbd46d6f8	-0.048544854
3	0xbdf9a381	-0.12189389
4	0x3ce108d1	0.027470024
5	0xbda82e1a	-0.08211918
6	0xbee3201a	-0.4436043
7	0xbdf312db	-0.11868831
8	0xbdb556c5	-0.088544406
9	0xbe8de5f6	-0.2771451
10	0xbe945c11	-0.2897649
11	0xbe9d9a5b	-0.30781826
12	0xbe409fe8	-0.18811
13	0xbdc4e4c4	-0.09613946
14	0xbe53acaf	-0.20671342
15	0xbe917693	-0.28410777
16	0xbe8a173a	-0.26970845
17	0xbe09082b	-0.13382022
18	0x3dfbc79f	0.12293934
19	0xbc8692e1	-0.01642746
20	0xbe19d242	-0.15021613
21	0xbdee3ad3	-0.116323136
22	0xbd74cc51	-0.059765164
23	0xbe57f3d8	-0.21089113
24	0xbd7472ba	-0.059679724
25	0xbc9812d4	-0.018563665
26	0xbdbced55	-0.09224955
27	0xbdf9b855	-0.12193362
28	0xbe816960	-0.25275707
29	0xbe381dae	-0.17980072
30	0xbdaf8796	-0.08570783
31	0xbd9d6841	-0.076859005
32	0xbe9f05ae	-0.3105902
33	0xbe9c719d	-0.3055543
34	0xbe4d0b35	-0.20023806
35	0x3db37186	0.08761887
36	0xbe85e316	-0.26149815
37	0xbe476c90	-0.19475007
38	0xbcad1415	-0.02112774
39	0xbe04f1ef	-0.12982915
40	0x3cd0aca6	0.02547295
41	0xbe1a6340	-0.15076923
42	0xbd3ff5d2	-0.046865292
43	0x3d040f1b	0.03224097
44	0xbe7aa3d6	-0.24476561
45	0xbd7c1dbd	-0.061551798
46	0xbe59f4dd	-0.21284814
47	0xbdcf2a10	-0.10115445
48	0xbe992f54	-0.2991892
49	0xbb37f856	-0.0028071604
50	0xbe618fc3	-0.22027497
51	0xbcec31b0	-0.028832287
52	0xbe2207e0	-0.15823317
53	0xbe125a3d	-0.14292236
54	0x3f1b0d4a	0.6056715
55	0xbd32c2b0	-0.0436427
56	0xbe2efc3b	-0.17088406
57	0xbdd9dc77	-0.106377535
58	0xbecd59ef	-0.40107676
59	0xbe8401c7	-0.25782606
60	0xbe1c52b8	-0.1526593
61	0xbe03c900	-0.12869644
62	0xbe633661	-0.22188713
63	0xbeacf29f	-0.33778855
64	0xbe128b24	-0.1431089
65	0xbe5d6e3c	-0.21624082
66	0xbe7a5b95	-0.24448998
67	0x3e049daa	0.12950769
68	0xbebdf975	-0.37104383
69	0xbeaceab9	-0.3377283
70	0xbe823ae2	-0.2543555
71	0xbef81dca	-0.48460227
72	0xbe0eb630	-0.13936687
73	0x3cf449c8	0.029820338
74	0xbe2667a8	-0.16250479
75	0xbe969115	-0.29407564
76	0xbdfffeca	-0.12499769
77	0xbefa11c4	-0.4884168
78	0xbc4b1524	-0.012395177
79	0xbca4ce6a	-0.020117957
80	0x3d0c726a	0.0342888
81	0xbde35364	-0.1109989
82	0xbeae4114	-0.34034026
83	0x3bf84d88	0.007577602
84	0xbeb997f0	-0.36248732
85	0xbe415c14	-0.18882781
86	0xbdeb8cf1	-0.11501492
87	0xbd6d63a2	-0.057956345
88	0xbd855004	-0.065094024
89	0xbe24eceb	-0.16106002
90	0xbe89af0a	-0.26891357
91	0xbd273c09	-0.04082874
92	0xbe7dd71d	-0.2478909
93	0xbe895f15	-0.26830354
94	0x3c09fd9e	0.008422283
95	0x3d9c5348	0.07633072
96	0xbe85ecf7	-0.26157352
97	0xbe9a05a4	-0.30082428

final.linears.2.weight f4 [17, 98]
0	0x3e8dd95d	0.27704898
1	0x3a7cd7b9	0.0009645182
2	0x3bafa7b6	0.005360569
3	0xbe773117	-0.2413982
4	0xbe3a3fe7	-0.1818844
5	0xbdcdeacb	-0.10054549
6	0xbe4748eb	-0.1946141
7	0x3b4671d6	0.0030280254
8	0x3df54474	0.11975947
9	0x3e86ae95	0.2630507
10	0x3edc9691	0.43083623
11	0xbe57d9c8	-0.2107917
12	0x3db98c68	0.090599835
13	0x3cd9a690	0.026568681
14	0x3eb3695e	0.35041326
15	0x3e043a63	0.12912898
16	0xbd34c514	-0.04413326
17	0xbca24b41	-0.019811274
18	0x3c3acdc5	0.011401598
19	0xbd55ce83	-0.052198898
20	0xbdd64dc9	-0.10464055
21	0x3c9458ea	0.018108804
22	0x3d277799	0.04088554
23	0x3ebe788b	0.37201342
24	0xbb5e8f93	-0.0033960089
25	0x3e34580b	0.1761171
26	0xbd5821a8	-0.052766472
27	0x3d285fad	0.04110687
28	0xbd8f39c4	-0.0699344
29	0x3dd74eac	0.10513052
30	0x3d27beab	0.04095332
31	0xbe7239cf	-0.23654865
32	0x3ebed743	0.37273607
33	0xbd066cca	-0.032818593
34	0x3d4472b9	0.04796097
35	0xbdd4b348	-0.10385758
36	0x3bd4802f	0.0064850072
37	0x3e7894c2	0.24275497
38	0x3e15b931	0.14621426
39	0x3c20f5ce	0.009824229
40	0x3d015171	0.03157181
41	0xbd89d3fa	-0.067298844
42	0x3dc34991	0.09535516
43	0x3d98ed11	0.07467092
44	0xbea23e7f	-0.31688306
45	0xbe23fb0b	-0.16013734
46	0xbeed743b	-0.4637774
47	0x3e12ad10	0.1432383
48	0x3f4caa25	0.7994712
49	0x3cd04144	0.025421746
50	0xbee9d2d4	-0.45668662
51	0x3cdfdfdd	0.027328426
52	0xbd9b73c4	-0.0759044
53	0xbd0f0cb5	-0.034924228
54	0x3c13bd47	0.009017295
55	0xbc5844de	-0.013200013
56	0xbe949ca4	-0.29025757
57	0x3be990dd	0.0071278648
58	0x3c0f6626	0.008752381
59	0xbee51562	-0.44742876
60	0xbc119d00	-0.008887529
61	0xbe236564	-0.15956646
62	0x3d4600a2	0.048340447
63	0x3eb3b181	0.35096362
64	0xbcb444af	-0.022005407
65	0xbe66c92e	-0.22537681
66	0x3e3da30c	0.18519229
67	0x3cc3090e	0.023808029
68	0x3daec723	0.08534076
69	0x3e1fbf54	0.1560033
70	0xbe5736df	-0.21017025
71	0xbcc94ed0	-0.024573714
72	0xbc843b4c	-0.016141556
73	0x3cffc121	0.03122002
74	0xbd1e40ac	-0.038635895
75	0xbc287954	-0.010282833
76	0xbcfe5a1d	-0.031048829
77	0xbcfaccb1	-0.030615183
78	0x3e6be892	0.23037937
79	0x3d7411e5	0.059587378
80	0x3be48fe8	0.006975163
81	0x3d352c5f	0.04423177
82	0xbee88041	-0.4541035
83	0xbdf2b833	-0.118515395
84	0x3e70a619	0.23500861
85	0xbdc0f098	-0.094208896
86	0xbdfa0ad0	-0.122090936
87	0x3dd4724d	0.10373364
88	0xbd411c0e	-0.047145896
89	0xbd9b5886	-0.07585244
90	0xbe3d67b1	-0.18496586
91	0x3e4f8a7e	0.20267674
92	0xbdb773e4	-0.08957651
93	0xbec91c31	-0.3927932
94	0x3c9d8674	0.019229151
95	0xbdb9142f	-0.09037053
96	0x3e01a111	0.12659098
97	0xba89551a	-0.0010477633
98	0x3f1c4c5a	0.61054003
99	0xbda318ba	-0.079637006
100	0xbc98bc83	-0.018644577
101	0xbd2a12c9	-0.04152182
102	0xbd5a6c9a	-0.053326227
103	0x3e21c44e	0.1579754
104	0x3e35386e	0.17697307
105	0xbbce3bab	-0.006293734
106	0x3d6dc8dd	0.058052886
107	0x3d9460ae	0.07245003
108	0xbe2b41d9	-0.16724338
109	0x3d3db7b4	0.04631777
110	0x3cdfe0db	0.0273289
111	0xbe0017df	-0.12509106
112	0x3d268fab	0.040664356
113	0x3989354a	0.0002617038
114	0x3ea3e973	0.32014045
115	0x3d3d6926	0.046242855
116	0x3dd5e885	0.1044474
117	0x3da4d4ba	0.08048387
118	0xbe39031b	-0.18067591
119	0xbd6fac9d	-0.058514226
120	0xbb37f18a	-0.0028067552
121	0xbf215c43	-0.63031405
122	0x3c1901da	0.00933882
123	0x3b8c45fa	0.004280803
124	0x3d033efe	0.032042496
125	0x3e805a62	0.25068957
126	0x3d9db029	0.076996155
127	0x3de4c4b2	0.11170329
128	0xbdb93005	-0.09042362
129	0x3e12d7e1	0.14340164
130	0xbe9f0d29	-0.31064728
131	0x3d2534fe	0.04033374
132	0xbce2c2fe	-0.02768087
133	0x3cd0c239	0.025483238
134	0xbdc0fe1b	-0.09423467
135	0x3cda302d	0.0266343
136	0xbd9b6430	-0.075874686
137	0xbd3af20f	-0.045641
138	0xbd661aa5	-0.056177754
139	0x3e800fe5	0.25012127
140	0xba66e204	-0.00088074827
141	0xbe880c19	-0.2657173
142	0xbd6cba28	-0.05779472
143	0x3db911ef	0.09036624
144	0xbc41014f	-0.011780097
145	0x3f034107	0.512711
146	0xbe127056	-0.14300665
147	0x3e4940d0	0.1965363
148	0xbf5a8352	-0.8535663
149	0xbc9a5418	-0.018838927
150	0xbd8afdca	-0.06786688
151	0x3d335204	0.043779388
152	0xbc82f702	-0.015986923
153	0xbdb08d49	-0.08620698
154	0xbceee741	-0.029163005
155	0xbe4887da	-0.19583073
156	0xbc0455e0	-0.008077115
157	0xbdf55626	-0.11979322
158	0xbd4fe8b4	-0.050759032
159	0x3a8e1d0c	0.0010842397
160	0xbd201dbf	-0.039090868
161	0x3eae92f9	0.34096506
162	0x3d0424c3	0.03226162
163	0x3e4111f0	0.18854499
164	0xbe316af5	-0.17325957
165	0x3ce1cd48	0.027563706
166	0x3d085514	0.03328426
167	0xbe605f71	-0.21911408
168	0xbe30088b	-0.17190759
169	0x3cb2a478	0.02180694
170	0x3ae36156	0.0017347734
171	0xbcae03a3	-0.021241968
172	0x3e31bdab	0.17357509
173	0xbc7e3679	-0.015515917
174	0x3e156288	0.14588368
175	0x3d03944a	0.03212384
176	0x3d4a3da6	0.0493752
177	0xbd09de9e	-0.03365957
178	0xbbec40e3	-0.0072098835
179	0xbda88d61	-0.08230091
180	0x3e839e5d	0.2570676
181	0xbd3517d9	-0.044212196
182	0xbcebebc1	-0.02879894
183	0xbe70beb6	-0.2351025
184	0xbc805794	-0.01566676
185	0x3cd476ed	0.025935614
186	0xbe829c2c	-0.25509775
187	0xbd27f64f	-0.041006383
188	0xbe91be95	-0.28465715
189	0x3e045f76	0.1292704
190	0x3db1b3ba	0.08676858
191	0x3f3afe4e	0.7304429
192	0xbe1e7302	-0.1547356
193	0xbc7441e8	-0.014908291
194	0xbda6d444	-0.08145955
195	0xbb893628	-0.004187364
196	0x3d3f4221	0.046693925
197	0xbd43849f	-0.0477339
198	0x3f9e2d48	1.2357569
199	0x3d4e155d	0.050313342
200	0xbcef2278	-0.02919124
201	0xbeccdc0a	-0.40011626
202	0x3ec624e1	0.3870001
203	0x3deb6573	0.11493959
204	0x3b014b8f	0.0019728874
205	0xbd425d3f	-0.047452208
206	0x3e07cb43	0.13261132
207	0x3d4f27fc	0.05057524
208	0x3d725ad4	0.05916865
209	0xbbeaeeb0	-0.007169567
210	0xbe99076d	-0.29888478
211	0x3dea17d6	0.114303276
212	0x3e216d04	0.15764242
213	0x3e128a04	0.14310461
214	0xbe071e6c	-0.13195199
215	0x3c15dedc	0.009147372
216	0xbe335d70	-0.17516112
217	0x3d2328d8	0.039833874
218	0xbcaffb73	-0.021482205
219	0xbe8b34f2	-0.27188832
220	0x3e34dba8	0.17661917
221	0x3d11d812	0.03560645
222	0x3e0fc624	0.14040428
223	0x3bdb2733	0.0066880225
224	0x3d994a4e	0.074848756
225	0x3d96babf	0.07359838
226	0xbd0d5d32	-0.034512706
227	0xbeab98b4	-0.3351494
228	0x3e9086dc	0.2822789
229	0x3e503764	0.2033363
230	0xbd118812	-0.035530157
231	0xbde551bc	-0.1119723
232	0x3dea692d	0.11445842
233	0x3d2e3331	0.04252929
234	0xbcd8ecd9	-0.026480125
235	0xbd719016	-0.0589753
236	0xbe05e0f4	-0.13074094
237	0xbc5ece17	-0.01359894
238	0x3d37b1ed	0.044847418
239	0x3c865e21	0.016402306
240	0x3d93742a	0.07199891
241	0x3c87f34c	0.016595505
242	0xbe53c3e9	-0.20680203
243	0xbea6df21	-0.3259211
244	0xbd4dc553	-0.05023701
245	0xbd426684	-0.047461048
246	0xbe161af7	-0.14658724
247	0x3e0a6c50	0.1351788
248	0x3dbdb190	0.09262383
249	0x3d448182	0.04797507
250	0xbe2e61cb	-0.17029493
251	0x3c83520f	0.01603034
252	0xbd8c0a10	-0.06837857
253	0x3d47f95a	0.048821785
254	0xbece1f28	-0.40258145
255	0x3e1b985f	0.15194844

final.linears.2.bias f4 [17]
0	0x3c93f828	0.018062666
1	0xbd2cd78b	-0.042197745
2	0x3da14976	0.0787534
3	0xbe061539	-0.13094033
4	0xbe9f20bf	-0.3107967
5	0x3d3cf27c	0.04612969
6	0xbc2db626	-0.01060251
7	0xbb53f40c	-0.0032341508
8	0x3d372f98	0.044723123
9	0x3e15b513	0.14619856
10	0x3d3f0edf	0.04664504
11	0xbcbda04a	-0.02314772
12	0xbca97eeb	-0.020690402
13	0x3cefd107	0.029274477
14	0x3ca319c7	0.019909753
15	0xbc868579	-0.016421067
16	0x3c4094c0	0.011754215

layers.0.attn.0.gnn_q.weight f4 [17, 16]
0	0x3cde7cbc	0.027159087
1	0x3764abd0	1.3629862e-05
2	0xb404ad26	-1.2356449e-07
3	0xb49b146f	-2.8885867e-07
4	0xb685851f	-3.979206e-06
5	0xb6e0ea14	-6.7029705e-06
6	0xb86446d2	-5.4425393e-05
7	0xbb058aaa	-0.002037684
8	0xb50f7597	-5.3442767e-07
9	0x2d846fa6	1.5056244e-11
10	0xbc0b3d9d	-0.0084985765
11	0x3b511bd8	0.0031907465
12	0xb2fbe998	-2.9326472e-08
13	0x31fb8532	7.320204e-09
14	0x32c35151	2.2737966e-08
15	0x387761ac	5.8980353e-05
16	0xbcf93238	-0.030419454
17	0xb6dc1abc	-6.559623e-06
18	0x3348dd37	4.6767322e-08
19	0x36001c8c	1.9090103e-06
20	0xb4c0bdd0	-3.5900894e-07
21	0x370a34e8	8.237759e-06
22	0x390e0cf4	0.00013547
23	0x3b93dd4b	0.004512464
24	0x35e39a98	1.6957811e-06
25	0xb0b6c3fc	-1.3297945e-09
26	0x3c555607	0.013020999
27	0xbb14a710	-0.0022682585
28	0x3341c3fa	4.5114554e-08
29	0x32967e12	1.7519628e-08
30	0xb39cd250	-7.302572e-08
31	0xb89a5e6a	-7.360878e-05
32	0xbcd9abc4	-0.026571162
33	0xb8039bce	-3.137794e-05
34	0x35167391	5.6047526e-07
35	0x3570bfa8	8.9685864e-07
36	0x37015860	7.709576e-06
37	0xb71b6f44	-9.264626e-06
38	0x3778dcf4	1.4833397e-05
39	0xbe37c579	-0.17946424
40	0x36463246	2.9533562e-06
41	0x309e4772	1.1516319e-09
42	0xbd857bb2	-0.06517734
43	0x3e19266a	0.1495606
44	0xb30f8203	-3.3413027e-08
45	0x321b794f	9.04977e-09
46	0x3398292f	7.085543e-08
47	0xb8fe0adb	-0.00012113686
48	0xbc7c984f	-0.015417173
49	0x374f587d	1.2358764e-05
50	0x346715fa	2.1521547e-07
51	0xb5635d23	-8.469962e-07
52	0xb75d7c7c	-1.320161e-05
53	0xb7412fae	-1.1514798e-05
54	0x3724970b	9.810329e-06
55	0xbe7248fa	-0.23660651
56	0xb7011dc7	-7.695932e-06
57	0xb1315101	-2.5802935e-09
58	0xbda64ae4	-0.08119753
59	0x3e5aabcf	0.21354602
60	0xb1bf0d91	-5.560374e-09
61	0x33e127ae	1.0484597e-07
62	0xb1de6fbc	-6.473753e-09
63	0xb80c32c6	-3.3425888e-05
64	0x3c47c9da	0.012194121
65	0x378a6680	1.6498612e-05
66	0x3459dc76	2.0289903e-07
67	0xb3d438ed	-9.882374e-08
68	0xb71bcca2	-9.286365e-06
69	0xb5b0a97a	-1.3162346e-06
70	0x38a2de94	7.7662204e-05
71	0x3dde2cbf	0.108483784
72	0xb6919405	-4.3385685e-06
73	0xb184e9fd	-3.868307e-09
74	0x3d0c3011	0.034225527
75	0xbdf16379	-0.11786551
76	0x3324a465	3.833374e-08
77	0x33fa2636	1.1648483e-07
78	0x32131ce2	8.563093e-09
79	0x379b8ee6	1.8543982e-05
80	0xbbff1836	-0.0077848686
81	0xb7ac47d4	-2.0537445e-05
82	0x34776e9e	2.304391e-07
83	0x359a9aab	1.1518908e-06
84	0x359bcd3f	1.1608134e-06
85	0x375494fd	1.2670874e-05
86	0x382ee3dc	4.1697043e-05
87	0x3df6bd6c	0.12047848
88	0x368c8acb	4.1884828e-06
89	0x3115a6db	2.17772e-09
90	0x3d4d2bdd	0.05009066
91	0xbdfbf790	-0.12303078
92	0x32508547	1.2137497e-08
93	0x3336efe1	4.2593346e-08
94	0xb350305f	-4.8472767e-08
95	0xb8c7f034	-9.533801e-05
96	0x3c73b838	0.014875464
97	0x3703ea57	7.86277e-06
98	0x3288ba30	1.5917152e-08
99	0xb5d80074	-1.6093386e-06
100	0xb497100e	-2.8137623e-07
101	0x3661f0ce	3.366778e-06
102	0x37ef2821	2.8509707e-05
103	0x3d48df87	0.049041297
104	0xb5fc827c	-1.8813439e-06
105	0x2fbc932a	3.4301567e-10
106	0x3c9e0c3f	0.019292949
107	0xbd4c0874	-0.04981275
108	0xb30bf4ca	-3.2586094e-08
109	0x32853982	1.550939e-08
110	0xb32831db	-3.916089e-08
111	0x3860aa4a	5.3564356e-05
112	0x3d2964ee	0.04135602
113	0x371f180a	9.482736e-06
114	0xb411d5c2	-1.3581942e-07
115	0xb53d5800	-7.0536043e-07
116	0x367dad09	3.7800658e-06
117	0xb60b84e1	-2.078996e-06
118	0x381118b1	3.459369e-05
119	0x3d77e569	0.060521517
120	0xb36b036c	-5.4718313e-08
121	0xafbf1683	-3.4758693e-10
122	0x3d16e75e	0.036841743
123	0xbd624f48	-0.05525139
124	0x32d1e62c	2.4435472e-08
125	0x324ab65e	1.1799413e-08
126	0xb223368e	-9.500253e-09
127	0x3890586d	6.882926e-05
128	0xbd7e33e0	-0.06206119
129	0xb87691fa	-5.878692e-05
130	0x349bbc04	2.90078e-07
131	0x36aed1ae	5.210014e-06
132	0x379598b9	1.7833301e-05
133	0x37972c32	1.8021183e-05
134	0x387e6785	6.065473e-05
135	0x3b082d5c	0.002077899
136	0x3780aeba	1.5340152e-05
137	0x31b90669	5.3849374e-09
138	0xbba12fb5	-0.004919017
139	0xbbceef32	-0.0063151354
140	0x3284df11	1.5468261e-08
141	0x33ead2f2	1.0934845e-07
142	0xb30ef90c	-3.3288458e-08
143	0xb96584a6	-0.00021888557
144	0xbca9eaae	-0.020741787
145	0xb6995560	-4.5696943e-06
146	0x340eb96a	1.3292234e-07
147	0x35045466	4.929665e-07
148	0xb64267b3	-2.8968614e-06
149	0xb664a5da	-3.4071186e-06
150	0xb88930fd	-6.541794e-05
151	0xbc10a807	-0.008829123
152	0x3520795c	5.9781246e-07
153	0x30235b7d	5.9429067e-10
154	0xbc43178b	-0.011907469
155	0x3ae61dba	0.0017556467
156	0x31fdf0ec	7.3906588e-09
157	0x338bf90f	6.5179954e-08
158	0xb1ccb281	-5.957475e-09
159	0xb78f9c80	-1.7119804e-05
160	0xbc0c0a2c	-0.008547347
161	0xb644492a	-2.9248863e-06
162	0x34754cc9	2.2845337e-07
163	0x33bedbae	8.887524e-08
164	0xb6ad2c87	-5.1609854e-06
165	0x36ee39d6	7.0996857e-06
166	0x381aee95	3.6938658e-05
167	0x3dfb6327	0.12274771
168	0xb3bcf63a	-8.7992206e-08
169	0x2f98fbec	2.782764e-10
170	0x3d44d3ac	0.04805343
171	0xbdf6fcea	-0.12059958
172	0xb2a199ff	-1.8812896e-08
173	0xb333108c	-4.1691735e-08
174	0xb232e68c	-1.0413384e-08
175	0xb800eed2	-3.0739997e-05
176	0x3c9529d5	0.018208424
177	0x37d95da8	2.5912028e-05
178	0xb44d376d	-1.9112277e-07
179	0xb5510420	-7.786457e-07
180	0xb7030113	-7.808459e-06
181	0xb73eb8d1	-1.1367913e-05
182	0xb85a01e3	-5.1977007e-05
183	0x3cbee76e	0.023303714
184	0xb65127f8	-3.1166692e-06
185	0xb11c93ed	-2.2785074e-09
186	0x3c762570	0.015023574
187	0xbcbf6e1d	-0.023367936
188	0x32b40ef1	2.0961552e-08
189	0x33d75e93	1.00289206e-07
190	0x322d9610	1.0104046e-08
191	0x38f14e4b	0.00011506359
192	0x3d0314e1	0.032002334
193	0x37a68446	1.9850337e-05
194	0xb520928a	-5.981789e-07
195	0xb5d50ced	-1.5873499e-06
196	0x3668f985	3.4715933e-06
197	0x36756114	3.6564352e-06
198	0x38dbfa87	0.00010489398
199	0x3c9d0e00	0.019171715
200	0xb60c3fa3	-2.0898667e-06
201	0xb07df482	-9.238833e-10
202	0x3c897eae	0.016784038
203	0xbc8d541f	-0.017252026
204	0xb1770371	-3.5945187e-09
205	0x3391fb78	6.7978306e-08
206	0xb35a841c	-5.0877233e-08
207	0x38ba5c71	8.88639e-05
208	0x3d3e1068	0.046402365
209	0x368eca38	4.255471e-06
210	0xb4478ce1	-1.858457e-07
211	0xb51c7b2e	-5.829378e-07
212	0x36700c57	3.576997e-06
213	0xb704d426	-7.917208e-06
214	0xb7d92f2f	-2.5890387e-05
215	0x3d20be13	0.03924377
216	0x3600e962	1.9209333e-06
217	0x309585bc	1.0879186e-09
218	0x3cc7bfc0	0.024383426
219	0xbd0b135b	-0.033954006
220	0xb2b45459	-2.0993115e-08
221	0x344886e0	1.8675519e-07
222	0xb383891a	-6.1251015e-08
223	0x3900d991	0.00012288081
224	0xbbfe819d	-0.007766916
225	0xb67acd84	-3.7372529e-06
226	0x33e15f3c	1.0494702e-07
227	0xb5b65591	-1.358496e-06
228	0xb5582548	-8.052052e-07
229	0x37bbf29d	2.2405113e-05
230	0xb839ae40	-4.426972e-05
231	0x3c47b11a	0.01218822
232	0x359d2a6c	1.1709758e-06
233	0x317f6b8e	3.7168522e-09
234	0x3b5ee298	0.0034009572
235	0xbc7340c0	-0.014846981
236	0xb2b0d4d9	-2.0585889e-08
237	0xb426a00c	-1.551818e-07
238	0xb36d7d61	-5.5294894e-08
239	0xb6a46555	-4.8993775e-06
240	0x3cbcf984	0.023068197
241	0x371ac7fb	9.225677e-06
242	0xb4ae25f6	-3.2437646e-07
243	0xb560e92e	-8.3785824e-07
244	0x36953ebf	4.4478506e-06
245	0x35c75391	1.4850976e-06
246	0xb8a7906c	-7.990081e-05
247	0x3d0b7430	0.034046352
248	0x35d7d4bd	1.6080663e-06
249	0x30e34277	1.6535314e-09
250	0x3ae1ecbf	0.0017236694
251	0xbd17601f	-0.036956903
252	0xb2493a3c	-1.1712981e-08
253	0xb4177ab3	-1.4107609e-07
254	0x32c08b11	2.2414982e-08
255	0x38d01cfd	9.9236124e-05

layers.0.attn.0.gnn_q.bias f4 [16]
0	0xbd15ff5a	-0.036620475
1	0xb86da60c	-5.6659846e-05
2	0x359ec72e	1.1829886e-06
3	0x365bf0bf	3.2773676e-06
4	0x37911656	1.7295748e-05
5	0x35bbc2eb	1.3989314e-06
6	0xb84d34cb	-4.8924976e-05
7	0xbe230917	-0.15921436
8	0x36ff170c	7.602275e-06
9	0x300433b6	4.8094806e-10
10	0xbd9ad377	-0.07559865
11	0x3dfb5bd1	0.12273372
12	0x330ba2e1	3.2511597e-08
13	0xb319801c	-3.5739603e-08
14	0x32d5f66c	2.4908523e-08
15	0xb9884f9a	-0.0002599925
