checkpoints/cyp1a2_veith_40_train1_pos/Sep06-00:56:26_300.pth (torch, 421766 bytes, 294 tensors)

layers.0.weight f4 [17, 16]
00000000: cac1 933c e94d ff3e 24e9 84bf 5fe8 1b3f
00000010: b51f 0abf fb7f 983f 7696 f7be c8b4 0d3f
00000020: 977f 70bd 99f2 88bd f59e 4a3f a11e 853e
00000030: 59ae 283f a0e4 05bd 30c8 823f 00ad 83bc
00000040: 04af c23e 810b 073c ac13 e1be 2f67 22be
00000050: 0c55 9abe f986 c2bd e46e a1be 9cd7 903e
00000060: 482b b5be c817 f0be 1586 c6bd 63e2 1bbe
00000070: d4ed c83e 6a75 16c0 68cf e83e b9a7 14c0
00000080: 6cd4 ba3d 0931 5d3b 4afb 55be aca0 2d3e
00000090: 7f89 db3d 5ea3 8e3e 72e9 993d 5ecd 43be
000000a0: 17f6 7d3d 0541 c4be 7859 653e 983b 553e
000000b0: 2b61 86bd 3bed 29be afc3 5b3e 4e78 623d
000000c0: 2848 193d 0abc 503d 3d8f 64be c8d1 183e
000000d0: 47fe c43d a6d8 8c3e 13bc 8e3d e869 49bd
000000e0: 557a 1b3d 91c3 babe 0800 493e f3cf 193e
000000f0: fb90 acbe e5ea 05be 60e7 7c3e 1fc4 2a3d
00000100: 1f3d b33c c727 f03c 1f9f 2ebe 48b4 1c3e
00000110: 1283 d33d 3611 6d3e d69a b33d 161e 6ebd
00000120: c93b 2db9 f52a efbd 3874 2f3e 4572 9d3d
00000130: 02a5 753c 43ae 09be 1a66 473e bdfb 84bc
00000140: 9aa2 85bb 1bd9 b7bc 2975 30bd ba80 b23d
00000150: 55f2 e6bc 790d 3a3e 5614 3fbc 8b19 40bd
00000160: d610 d2ba 06e5 893d 45e0 f33d 36b2 953c
00000170: ac9a 2a3e d181 21bc 3d9b d4bb 123c 37bd
00000180: 160c b73d 30c6 c9be e5fb 6cbf 271b e8bf
00000190: 5ec6 37bd d051 febe 502b dabc 09a1 05bf
000001a0: d84c 28bd 2273 353b 9ecf 12c0 ace6 15be
000001b0: 4459 05bd 3cd2 45bf 98c1 723f 9175 28bf
000001c0: 9fd9 203e 0824 2cbf 9714 0a3e ebf2 883e
000001d0: d92a f93e e9ed e8bf b9dd c43e a7a6 d0be
000001e0: b69c fabd 3279 3bbe b8c7 e33e 7820 e7be
000001f0: baa4 c9be 8b6d 8fbf 5ef2 a0bd 52ba 7dbf
00000200: e90d a03e d5f1 2a3f 9548 513f c62e 6dbe
00000210: b501 d1bd d4b1 e13f 5a31 a7bd 6cae 0a3f
00000220: 4850 95be 6fe6 cbbe 3698 e1be ca77 a43e
00000230: 2412 6a3e 364c fbbf 0ff8 53bf f0d2 0cc0
00000240: 0e9b 4a3d 5cd8 1d3d ae47 b2be 96b5 ad3e
00000250: 3952 143e 685e 0d3e 50dd 1a3e 85a5 d93d
00000260: 10c7 4bbc 6506 59bd a690 de3e d81d 0b3c
00000270: 6a53 d53c 2d7f 4fbe d0c5 b53e 0f7b f2bd
00000280: df41 c53b 9a98 843e 10bb cbbd 0364 6ebe
00000290: b167 d93e 921b 6e3e a227 a53e d20c da3e
000002a0: ddf8 bebc 84a8 913b 0eac 95be 55ad 953c
000002b0: acc1 993e 00d0 28be 6360 953d 1aeb 2cbe
000002c0: 586a 4bbb f441 7b3e e291 803f c6a3 bc3e
000002d0: 01a4 343f d0d8 3d3f 92be 203f 0b2b 843d
000002e0: 7f02 313c 9436 f7bc 6504 c33e ebe7 313e
000002f0: 4595 d4be 6c2b 923d e05f 86bf fe36 58bd
00000300: 38ec af3e f458 003e 6a12 dd3d 1c27 5e3f
00000310: e58f c13d cf84 863e cb05 823d e4cd aa3e
00000320: d582 97be e174 d2be a014 843f 3c29 4ebd
00000330: 444f 9f3d f720 0cc0 a10a a4bd dc8a 0cc0
00000340: d102 16bd e462 02bf 6ba4 b23e 741e 843f
00000350: 6c54 53bf 6978 99bf 8a98 2abf 0117 d8be
00000360: 738a 183d 0d5a 793e 7b6f aa3f 7989 57be
00000370: 44ab 323d c912 a83e 43c5 c1be cbde ad3e
00000380: 6024 2a3e d52b 173e e838 e73e fc1f 453f
00000390: f229 57bf e8d1 f93d e105 38bf 4d5b cd3e
000003a0: 9dfa 1bbe 334e 0dbe acbb 783f 2188 40bc
000003b0: e0c8 de3e 3f1b 62bf ee47 d6be 5e42 7cbf
000003c0: 3b10 533e 5c99 a7be 9a17 e63e b258 6fbf
000003d0: f45d 3bbf 8e7a 34bf a8db 1cbf 961d 70be
000003e0: 21be 47be 3275 c7bd 8e4e 8dbf 0cc6 6bbe
000003f0: a76c 4a3e e688 aebf f6fd cfbe 1eba b7bf
0.018036742 0.49864128 -1.0383649 0.60901445 -0.5395463 1.1914057 -0.4835698 0.55353975
-0.05871543 -0.06686897 0.791488 0.2599993 0.65891033 -0.032688737 1.0217342 -0.016073704
0.3802415 0.008242489 -0.4396032 -0.15859674 -0.3014301 -0.094984 -0.31529915 0.28289497
-0.35384583 -0.46893144 -0.09693543 -0.15223078 0.39243948 -2.3509164 0.45470738 -2.322737
0.091225475 0.003375115 -0.2089664 0.16955823 0.10719585 0.27859014 0.07515229 -0.1912131
0.062002268 -0.38330856 0.22397411 0.20823514 -0.06561502 -0.16594402 0.21461366 0.055290513
0.03742233 0.050960578 -0.22320266 0.14923775 0.09618812 0.2750904 0.06969466 -0.049173266
0.03795846 -0.3647733 0.19628918 0.15020733 -0.3370436 -0.13077886 0.24697638 0.041690942
0.02187973 0.029315842 -0.17052887 0.15303147 0.10327734 0.23151097 0.08769767 -0.05813416
-0.00016520837 -0.11678115 0.17134178 0.07687811 0.014992954 -0.13445382 0.19472542 -0.01623332
-0.0040782215 -0.022442391 -0.043080483 0.08715959 -0.028191725 0.18169202 -0.011662563 -0.04689936
-0.0016026746 0.06733136 0.119080104 0.018273454 0.16660565 -0.009857611 -0.0064882324 -0.044735022
0.08937852 -0.39409018 -0.9257186 -1.8133286 -0.044866912 -0.49671793 -0.026631981 -0.52198845
-0.04108891 0.0027687033 -2.293922 -0.14638776 -0.032555833 -0.7727392 0.9482665 -0.6580439
0.15708016 -0.6724248 0.13484417 0.26747832 0.48665503 -1.8197604 0.3845041 -0.40752146
-0.122369215 -0.18307951 0.4448831 -0.4514196 -0.3938349 -1.1205305 -0.07858728 -0.9911243
0.31260613 0.66775256 0.81751376 -0.23162374 -0.10205404 1.7632394 -0.0816371 0.54172397
-0.29162812 -0.39824244 -0.4406144 0.32122642 0.22858483 -1.9632633 -0.8280038 -2.2003746
0.049464278 0.038536415 -0.34820312 0.33927602 0.1448449 0.13805544 0.15123487 0.106272735
-0.012437597 -0.052984614 0.43469733 0.008491002 0.026040751 -0.20263357 0.3550248 -0.11839878
0.0060198153 0.25897676 -0.09947789 -0.23280339 0.42461923 0.23252705 0.322568 0.42587906
-0.023312027 0.0044451375 -0.2923283 0.018271128 0.30030572 -0.16485596 0.07293775 -0.16886559
-0.0031038728 0.24536878 1.004452 0.368437 0.7056275 0.74158955 0.6279079 0.06453522
0.010803818 -0.030177392 0.3808929 0.17373626 -0.41520134 0.07137188 -1.0498009 -0.05278682
0.34359908 0.12533933 0.10794528 0.86778426 0.09451274 0.262732 0.06348761 0.33360207
-0.29592004 -0.41104797 1.0318794 -0.050332293 0.077787906 -2.189512 -0.0800984 -2.1959753
-0.03662378 -0.50932145 0.34891066 1.0321794 -0.8255069 -1.1989871 -0.66639006 -0.4220505
0.03724141 0.24350758 1.3315271 -0.21048535 0.043620363 0.32826832 -0.3784581 0.3395904
0.16615438 0.14762814 0.45160604 0.7700193 -0.8404838 0.121982396 -0.7188397 0.4010872
-0.1523232 -0.13799362 0.97161365 -0.011751206 0.4351263 -0.88322824 -0.41851753 -0.9853877
0.2061166 -0.3273419 0.44939882 -0.93494713 -0.73190236 -0.70499504 -0.6127267 -0.23448786
-0.19506122 -0.0973915 -1.1039598 -0.23024768 0.1976801 -1.3635528 -0.40623444 -1.4353673

layers.0.bias f4 [16]
00000000: a2eb a43e b687 9cbe f382 ef3e 68f9 c1be
00000010: 2cd9 c43e 7f6a e23e 4999 3fbe 0b96 773e
00000020: 4475 403d 43ca 023f 2494 453e 6ca3 9e3e
00000030: d663 853d ab67 76be 23ff 6f3d d9ba 9b3e
0.32211024 -0.3057229 0.46779594 -0.37885594 0.3844694 0.44221875 -0.18710817 0.2417833
0.046986833 0.51089877 0.19294792 0.30984056 0.06513183 -0.24062984 0.058592927 0.3041599

layers.1.weight f4 [16, 16]
00000000: 18b2 e5be 180b 2a3d 6c07 8f3f 80bb d8be
00000010: e2ed 40bf 9563 c23d 54ff 043f 06a5 fabe
00000020: e283 013f d741 bfbe e452 893e c6ce 0d3d
00000030: 50a3 63bf 2eb8 213f 2e41 61bf ca32 43be
00000040: 6525 9b3f 7cbf 20be e126 87be cdfa 61be
00000050: 4741 f53d c69b ccbc 7b45 993e 8747 06be
00000060: 043b 07bf a82e c23d 8486 173e ceaa 3a3c
00000070: 5a80 9c3d ad92 fbbd c13d c9bc 1c7a 9ebf
00000080: c767 1fbe 3393 823e 149c ccbe af7b 143e
00000090: 005c 82be 9a5d c13e 8887 f8bd 2220 dc3d
000000a0: 2c57 a6bf 05e9 473e e3ab 7a3f 900c 193e
000000b0: ac69 34be 0380 863e 6688 ef3d 21d7 8b3e
000000c0: e2ee 0d3e cc68 edbe 32d1 d7bc 8b1b cdba
000000d0: d851 0f3e c180 00bf aa30 21bc 4eaf b4bd
000000e0: d651 16bf b488 893e cbfc ae3f 9e81 bb3c
000000f0: 8d94 953c bef4 e9bc 6483 953d 6f5a 15bf
00000100: 1209 07bf 0185 433e 1a4a 463d e9d9 363e
00000110: 4167 57be 5bb5 bfbe 823b b8be 3d38 37be
00000120: db6f 53bf 0fe5 36bd efd7 4b3f e665 50bd
00000130: 66de c1bd 1457 46be 24d0 513d 91a4 123f
00000140: 6734 453f 3ed0 903e a26a 7bbe b943 1e3e
00000150: edd3 16bd 51d4 0fbd ddd9 90bd 217c cf3d
00000160: 8959 37bd 14f7 e9bd 0591 babe a934 22be
00000170: 0839 203e 42c0 a3be d9e9 00be c38d 89be
00000180: c81b 6abf 97f6 05be 2ef1 9f3d b4fd 833c
00000190: 327c 773e 3102 62be 5c6d 483e 01ff a3be
000001a0: 430b 29bf 54d2 4bba baa4 3d3f c150 9cbd
000001b0: dc56 5f3e b89b 96be 61e7 17be ef54 513f
000001c0: ff14 843f b8c9 743d e4a1 a33d 5713 8d3d
000001d0: fa71 89bd df55 bc3d 849e 45bd 81f7 503e
000001e0: 3f2b 623e 0f74 bf3d 1fbf 283e fd91 e33d
000001f0: 109f 32be f1ec 553e 778a 183e 7d0f 88bf
00000200: f0b5 3ebe e900 a8bd 6dd8 dcbe a8da 413f
00000210: b855 3e3f 633d b3bf 024c a9bf 9808 123f
00000220: 47b2 703e ab30 e03e 9e4a 533d f42f 7abe
00000230: 71ec 963f d981 eabe 8204 993f 4354 b4bc
00000240: 407c b1be 0d7a 623e f6ab bcbe 5850 493d
00000250: bd2b 703e eee0 12bf 37c7 c6be 923a 7d3e
00000260: 797e 9f3e 9fc7 e93e 2dc5 3bbe 3e6a 303e
00000270: b55e 723e cb4f babe 8e5a 45be 8d30 4c3e
00000280: 4b02 8a3e 47ef d73e fff9 0cbf b5f1 a63d
00000290: ef7c b6be 72b1 653e 69ed 703d 9585 ae3c
000002a0: fad7 7dbf fb28 6e3e 1f83 993e 70f6 6c3e
000002b0: 9ed0 2c3e fb19 38be b216 b3bc 11ff 553e
000002c0: bce1 fc3e 3d95 b5be ecad adbc 6f14 9abe
000002d0: 1859 c4bd 74f6 dabe d322 72be 9670 f03d
000002e0: 9337 cd3e 7f45 0d3f b8c6 2d3f 2871 503e
000002f0: 404f e5bd 4a4e 7d3e f624 823e 70e5 a3bf
00000300: 3b17 283f 4cee f5bc 5bb5 53be 0bda 33bd
00000310: 6869 263c 01f3 7b3e 36f1 143c 1b61 263e
00000320: a1f5 9d3e 5194 393e cf9a c2be f26b 473e
00000330: dfaf a0bd 29ef 0e3e 968f 9f3d 4e16 15bf
00000340: a21a 26be 01c3 f7be e656 8fbe 5c68 83be
00000350: 7cab edbd 2639 88bf 8d26 4c3e 55e9 c6bd
00000360: 3f20 d73e 5a9c 303f b6b9 4b3e 64d7 0f3e
00000370: cb26 79be 73e2 02be 79bf 04bf 2431 9dbe
00000380: c033 7f3e e548 533e f103 853d 9050 ab38
00000390: dc55 80be 5609 70be 5edc 08be 1ead 533e
000003a0: 194d 6a3f fa0a 01be 339c a8bf 9858 47be
000003b0: 2107 26bd 3d5c 20be 3928 a63d 91bd f2bd
000003c0: 3277 203e e209 fa3e c3fb 01bf 2e3e e0be
000003d0: 583b afbd ef1d 82be bf41 a03e cc1c 9ebe
000003e0: 7d0d 18bd 30ba d33d 5291 0bbf 2f67 253d
000003f0: 57e8 1dbe 049a 94bf 1209 d1be 6f7e 913e
-0.44862437 0.041514486 1.117414 -0.4233055 -0.7536298 0.0949165 0.519521 -0.48954028
0.5059186 -0.3735492 0.26821053 0.034621023 -0.8892107 0.6317166 -0.8799008 -0.19062343
1.2120787 -0.15698045 -0.2639685 -0.22068329 0.11975341 -0.024976622 0.29935822 -0.13113223
-0.52824426 0.09481555 0.14797407 0.011393262 0.076416686 -0.122838356 -0.02456558 -1.2381015
-0.15566932 0.2550293 -0.39962828 0.14500307 -0.25460815 0.37766725 -0.121352255 0.10748316
-1.2995353 0.19522484 0.9791853 0.14946198 -0.17618436 0.2626954 0.11695938 0.27312568
0.13860658 -0.46369016 -0.02634487 -0.0015648467 0.13996065 -0.5019646 -0.009838263 -0.08822499
-0.5871862 0.2686211 1.3670896 0.022888955 0.018259311 -0.028559085 0.073004514 -0.58341116
-0.52748215 0.19093706 0.048410513 0.17856564 -0.21035482 -0.3744305 -0.359829 -0.17892547
-0.8259255 -0.04465204 0.79626364 -0.050878428 -0.09466247 -0.19369155 0.05122389 0.5728236
0.77033085 0.28283876 -0.24552396 0.15455522 -0.036823202 -0.03511459 -0.07072804 0.101310976
-0.04476312 -0.114240795 -0.36438766 -0.15840401 0.15646756 -0.3198262 -0.12589206 -0.26865968
-0.9144864 -0.13082348 0.07809673 0.016112186 0.2416847 -0.22071148 0.19572967 -0.3203049
-0.6603281 -0.0007775177 0.7407948 -0.0763259 0.21810478 -0.2941568 -0.14834358 0.81770223
1.0318907 0.059762686 0.079898626 0.068884544 -0.067111924 0.09196066 -0.048246875 0.20406915
0.2208681 0.09348308 0.16479157 0.111118294 -0.1744349 0.20891167 0.1489657 -1.0629727
-0.18624091 -0.082032986 -0.4313387 0.7572427 0.74349546 -1.4003109 -1.3226321 0.57044363
0.23505507 0.4378713 0.051584832 -0.24432355 1.1790906 -0.4580219 1.1954501 -0.022012835
-0.34665108 0.22116871 -0.36849946 0.049148887 0.23454185 -0.57374465 -0.38823864 0.24729374
0.31151178 0.4566011 -0.18336935 0.17228028 0.2366894 -0.36389002 -0.19272825 0.19940396
0.26954874 0.42174742 -0.55068964 0.08151571 -0.35642192 0.22430971 0.058820162 0.021303931
-0.9915768 0.2325782 0.2998285 0.23140883 0.16876456 -0.17978661 -0.021861408 0.20898081
0.49390972 -0.35465422 -0.021201096 -0.30093715 -0.09587306 -0.42766154 -0.23646097 0.11740224
0.40081462 0.5518417 0.67881346 0.20355666 -0.11196756 0.24736896 0.25418824 -1.2804394
0.65660447 -0.030020855 -0.2067465 -0.043909114 0.010156967 0.24604417 0.009090712 0.1624798
0.30851462 0.18122984 -0.38008735 0.19474772 -0.07846045 0.1395842 0.07791059 -0.5823716
-0.16221097 -0.48390964 -0.27995986 -0.25665557 -0.11604974 -1.064244 0.19936581 -0.09712473
0.4201679 0.68988574 0.19895062 0.14047009 -0.24331205 -0.12781696 -0.51854664 -0.30701554
0.24922085 0.20633276 0.064948924 8.168921e-05 -0.25065506 -0.23441061 -0.13365313 0.20671508
0.9152389 -0.12601843 -1.3172668 -0.1946739 -0.040534142 -0.15660186 0.081131406 -0.11852563
0.1567047 0.48835665 -0.5077478 -0.4379744 -0.08556241 -0.25413463 0.3130016 -0.30881345
-0.03712224 0.10338247 -0.54518616 0.040381607 -0.15420662 -1.1609502 -0.40827233 0.28416774

layers.1.bias f4 [16]
00000000: 1cae 38bd df89 8fbe 39f9 0fbc 0fb2 2abd
00000010: bccc 1f3f 2e6c 9f3d 2dc1 bc3e 655f a2bd
00000020: 4102 c63d 2395 9b3c b844 aebd 5dc0 edbc
00000030: 011f 4b3e fb45 ab3e fe50 bc3d eee8 3d3d
-0.04508792 -0.28034875 -0.008787447 -0.041673716 0.62421775 0.077843055 0.3686613 -0.07928351
0.09668399 0.018992012 -0.08509201 -0.02902239 0.19836046 0.33451828 0.091951355 0.046364717

final.linears.0.weight f4 [98, 49]
00000000: 99d4 ae3e 6810 8b3d 56cc c0bc 7ba5 81bd
00000010: 2f99 c8bd aae5 39be f4fd 4e3e 02c4 993b
00000020: bccc c0bd 2296 f2bd b1c1 2ebe 1601 583e
00000030: 9b25 97be 46e4 313e 7f42 9bbe 0f43 413d
00000040: 795c dc3e ea49 f9bb 9fe1 8cbc b48d 21bb
00000050: 1c07 87bd f09b 343a bd1a 9bbd e631 093c
00000060: 66a6 1e3d 56a7 00bd 048e e13d 314a 3fbd
00000070: a91b fa3c c2b3 3b3d a7f7 253d 268a f43d
00000080: 88e9 b53d 26aa df3c c6ae 8a3d db7d 6fbc
00000090: 2a1f 86bc f1de 2c3c 0df7 cf3c c0f6 393d
000000a0: 60e8 6cbd 237b 14bd 986e 7abd 6ec3 d63c
000000b0: c191 65bc fed7 1abd 09cc d43d 04a9 1dbd
000000c0: 733e 563d 5b4b 383d b5bb 26be aaee 77bf
000000d0: de79 6440 799e 6abf ce77 13bf 0348 4f3d
000000e0: 79ab 35bc 90a0 483d fe27 33bf 3dec 0cbf
000000f0: c568 963d cce4 77bd 9f79 b0bd fc8f bb3d
00000100: 3dbe 58bd 1bdc 35bd 2268 143c 3306 56be
00000110: c914 ea3d 2e17 19be ac3c 453e 9e7d f03d
00000120: 4e8d bebd 78c1 94bd dc28 693d 0209 873d
00000130: c6d6 213e 3102 043d a3d1 8a3c 7e5d 0fbe
00000140: 0274 143e 4dfc 073e a19b 113e 68c0 8bbd
00000150: 7d55 35bd 01b8 f9bc 2d2b 68bd 44fa 5c3d
00000160: bacc 5cbc c358 293d 00d1 01be 6851 adbd
00000170: edfe e7bd 7366 dc3c e123 31bd 31a4 b5bd
00000180: af31 3a3d f605 fd3d 68bd d13e e46e bdbb
00000190: 5013 3dbf 7f74 40bf d356 48bf aff2 3cbf
000001a0: 4b57 923c 2f02 bcbe d505 c13d c9f7 5ebf
000001b0: 4a29 42bf 0fea 66bf c5b4 40bf 22f7 ae3e
000001c0: d744 ed3e 8c22 8ebf 4726 6f3f f271 bd3c
000001d0: 7e45 82bd 9abd 913d b98a b83c 5b6a 063d
000001e0: 72fa 433b d05f 293c 3db6 2cbc 69b0 8d3c
000001f0: bcb7 5a3d 338f a53c fe46 aebc cba0 d9bb
00000200: 8700 5c3d f5cf 69bd bc91 cebc e52c 3f3c
00000210: 9235 c33d a905 1a3c 4fb0 b4bd 4c5e 91bc
00000220: 6e50 0d3b 15b4 ba3d b2fe 943c 76cd f3bc
00000230: 595b eebb 6108 72bd 3431 01bd 8981 fbbc
00000240: f7d2 9f3d 5b23 343b b04d 5dbd 29bc 023e
00000250: a373 f53e 80a4 b3bd 9633 1fbe 063d e7bd
00000260: 817f 913f 0c31 ad3f 41f3 33bf 1ee9 5f3f
00000270: 680d 97be 6901 183e 2e86 adbf 281e 22be
00000280: ff31 75bf 5377 d2bf 80f4 943f cd2d 3f3f
00000290: d96c 52bd 70d4 e83d 8341 363d fdcc 4c3e
000002a0: b83f b7bb d0af b9ba efc2 d93c ac4b 39bd
000002b0: fb74 4bbc 05fd bdbd 78db 1d3c b6ac bbbd
000002c0: 5acb 99bc 5236 093c 4c73 b1bd 68ed abbb
000002d0: cc1d c2bd 9bc6 9a3d d5ab 913b d4d9 343d
000002e0: 9038 333c 9a58 10be 5cc8 94bd f2ea 5e3a
000002f0: d7e1 6f3d 5084 bbbc a9a3 793b dad7 f5ba
00000300: bb70 783d a49c 673d 565c 8e3c fb57 56bd
00000310: 60d6 473f 2930 923f 8731 0abe 4eb7 08be
00000320: afb8 6dbe a20a 12bf e8ee 0540 24a9 72bf
00000330: 2950 e8bf b38f 19be 016c 4bbe dff3 823f
00000340: af77 a6bf 63d7 9ebf a0e6 6b3f ffeb 1b3f
00000350: 3831 5f3f 1db2 0dbe 87d5 e03d 016a 8c3d
00000360: f598 843c 611d 3bbe 627f cebc 737e 313e
00000370: aeef 99bd 304d a0bd 99ea 4ebd dea2 893c
00000380: 93b6 ecbd d947 a6bd 5065 a33d 0f80 7cbe
00000390: 29fa 99bd 42a6 3f3d 7af1 5f3d 8dcc ab3c
000003a0: 9d39 bd3d b312 8ebd cfd1 62bd 7e8c 4fbd
000003b0: 04bc 0d3d da39 1ebd cca6 0a3e 0557 96bd
000003c0: 40f4 b53c 57da 1a3e 63c7 65bd b94b 2f3e
000003d0: 0758 ccbc be35 b5be bdbf 07bf 907f 8f3e
000003e0: 03a9 223e 36b3 e03d 1cbb cf3d 038c 353b
000003f0: 4ff7 fa3e 3917 dfbd 4a0f 873e 3927 043d
0.34146574 0.067902386 -0.023534935 -0.06330391 -0.097948425 -0.18154016 0.20214063 0.0046925554
-0.0941405 -0.11845042 -0.17066075 0.21094164 -0.29520878 0.17372236 -0.3032417 0.047183093
0.430393 -0.007607688 -0.017197428 -0.0024651112 -0.06593153 0.00068896916 -0.07573459 0.008373713
0.03873291 -0.031409584 0.110134155 -0.046701614 0.030530768 0.045825727 0.040519383 0.11940412
0.08882433 0.027302813 0.06771617 -0.014617409 -0.016372282 0.0105512 0.025386358 0.045401335
-0.057838798 -0.036250245 -0.061140627 0.026216235 -0.014011801 -0.037803642 0.10390479 -0.038491264
0.05230565 0.04499374 -0.16282542 -0.9684855 3.5699382 -0.9164806 -0.5760468 0.050605785
-0.011088246 0.04898125 -0.699829 -0.5504797 0.07344202 -0.060520932 -0.086169474 0.09158322
-0.0529158 -0.044399362 0.00905803 -0.20900802 0.11429746 -0.14950249 0.19261426 0.117427096
-0.093042955 -0.07263464 0.056923732 0.06593515 0.15804586 0.032228652 0.016945666 -0.14000508
0.14497378 0.13279839 0.14219524 -0.06823808 -0.04427098 -0.030483248 -0.0566818 0.05394961
-0.013476545 0.041344415 -0.12677383 -0.08462793 -0.1132792 0.02690432 -0.043247107 -0.08869208
0.04545754 0.123546526 0.40964818 -0.0057810415 -0.73857594 -0.7517776 -0.78257483 -0.73807806
0.01786389 -0.36720416 0.094249405 -0.8709684 -0.7584425 -0.90200895 -0.7527583 0.34172922
0.46341583 -1.1104293 0.9341778 0.023125622 -0.06360911 0.07116242 0.022527086 0.032816272
0.0029903916 0.010337785 -0.010541496 0.017296033 0.05339788 0.020209884 -0.021274086 -0.0066414825
0.05371144 -0.05708309 -0.025215976 0.0116684185 0.09531702 0.009400764 -0.08822691 -0.01774516
0.0021562832 0.09116379 0.018187854 -0.029761057 -0.007274073 -0.059090022 -0.031541064 -0.030701416
0.0780391 0.0027486894 -0.054029167 0.1276709 0.47939786 -0.0877161 -0.15547022 -0.11290936
1.1367036 1.3530593 -0.7029305 0.87465084 -0.29502416 0.14844288 -1.3556573 -0.15831816
-0.95779413 -1.6442665 1.1637115 0.7467926 -0.051373336 0.11368644 0.04449607 0.20000072
-0.0055923127 -0.0014166776 0.02658221 -0.045238182 -0.012418027 -0.09276775 0.009634845 -0.09163801
-0.018773723 0.008374767 -0.08664569 -0.005246807 -0.094783396 0.07557412 0.004445533 0.04415305
0.0109387785 -0.14096299 -0.07264778 0.00085036375 0.058564987 -0.02289024 0.0038091934 -0.0018756345
0.060654383 0.05654587 0.017378014 -0.05233 0.78061485 1.1420947 -0.13495456 -0.13351175
-0.23214982 -0.57047474 2.0927067 -0.9478934 -1.8149463 -0.14996223 -0.19865419 1.0230674
-1.3005275 -1.2409481 0.9214878 0.60906976 0.87184477 -0.13837476 0.10978227 0.06856156
0.016186217 -0.18272926 -0.025207225 0.17333393 -0.075164184 -0.07827222 -0.0505167 0.016801294
-0.11558261 -0.081191726 0.07978308 -0.24658225 -0.075184174 0.046789415 0.05467365 0.02097156
0.092395045 -0.0693716 -0.05537587 -0.050671093 0.034603134 -0.03862939 0.1354019 -0.073408164
0.022211194 0.15122353 -0.056098353 0.1711873 -0.024944318 -0.35392565 -0.53026944 0.2802701
0.15884785 0.10971682 0.1014311 0.0027701862 0.49016806 -0.10893101 0.26378852 0.03226397

final.linears.0.bias f4 [98]
00000000: cc63 0fbc 66db 703c 20d6 f13e 3370 b93d
00000010: e2c2 723e c762 523e 85eb 983e 1d32 b53e
00000020: ee67 a4be 2324 a1be c6ba 3b3e 61f8 36be
00000030: e7a6 0d3e f035 1f3e 3dd7 a13e a053 f1bc
00000040: 0c13 04be 7209 80be 988c 833e ee5c 083d
00000050: ae25 253d b86d 1fbe 0c79 f13b da8e e43e
00000060: 0306 5e3e 5c42 db3e 4da7 4f3d 5a5c 3bbf
00000070: 4872 19be d9e4 a5bd b3e2 803e a312 a03d
00000080: 9dca 09bd 6160 3f3c 4630 603e c65e f03e
00000090: ee3c 81be 7d74 633e 48d4 cc3d 2af6 a0bd
000000a0: 586a 423f 0fcc c53e 7f0d 09bd aa47 8d3e
000000b0: a953 4c3e d19a febc e11a 893e 4f3b 19be
000000c0: c60f 993e c071 413e eb46 2b3e 1935 903e
000000d0: 2dca 113e 7d00 2e3e ebde a63d 3bc9 8d3e
000000e0: 9e0f c73e 4092 933e a6f2 b03e e71f a9be
000000f0: b95f 713e bca8 ca3d 226e 09bd fc00 ccbe
00000100: b09f 893e 012d dcbc 3ea7 97be 5a2f 873e
00000110: e30a 8bbf 5bcb 5fbd 56ba b03d 3353 ca3e
00000120: f999 563e 2a1d 703e 98ff bf3d 1b62 9e3d
00000130: a7b2 d73b 7b77 97be b5cc 5abe 1d47 903e
00000140: 77e9 7d3e de6e 1cbe ab6f 8d3e f1cc 483c
00000150: 0070 7e3e 4727 60bd 7b87 d53e 2dc7 b0be
00000160: 71d9 e7be 4c36 d9be ef58 a03d 1a2d d3be
00000170: c68b cc3e 3a54 29bf dce5 14be 005b c4bd
00000180: cf1a 39bd 964a fdbe
-0.008751821 0.014700746 0.47233677 0.090546034 0.23707154 0.20545493 0.29867187 0.35389796
-0.32110542 -0.31472883 0.18332967 -0.17868187 0.138332 0.1554792 0.31609526 -0.02945882
-0.12897891 -0.25007206 0.25693202 0.03329175 0.040319137 -0.15569198 0.0073691662 0.44640237
0.21681981 0.42824066 0.05069666 -0.7318779 -0.14985001 -0.0810029 0.25172958 0.07816055
-0.033640493 0.011680693 0.21893415 0.46947306 -0.25241798 0.22212406 0.10001427 -0.07859452
0.7594352 0.38632247 -0.033460137 0.27593738 0.19953789 -0.031079682 0.2677832 -0.1496403
0.29894847 0.18891048 0.16726272 0.2816551 0.1423728 0.16992374 0.08147987 0.2769259
0.38879102 0.28822517 0.34560126 -0.33032152 0.23571672 0.09895465 -0.033552296 -0.398445
0.26879644 -0.026876928 -0.29619783 0.26403314 -1.0862697 -0.054637294 0.08629291 0.395166
0.20957173 0.23448625 0.093749225 0.07733556 0.0065825763 -0.29583344 -0.21367152 0.28179255
0.24796091 -0.15276667 0.27624258 0.012255893 0.24847412 -0.054724958 0.41704926 -0.3452696
-0.45283082 -0.42424238 0.07829463 -0.41245347 0.3995039 -0.66144145 -0.1454081 -0.095876694
-0.045191582 -0.49470967

final.linears.1.weight f4 [98, 98]
00000000: 4921 93bd 6919 9dbe 5077 8ebe cbfe 96be
00000010: 0d22 c5be b751 bbbe b8e7 86be 50f0 8dbe
00000020: 9256 033d 3d36 b0bd db59 e43c cdf0 72be
00000030: 6fb5 72be 7420 5dbe cd6e 0ebe 4b73 e1bc
00000040: 5dd4 09be ee67 bfbd 5ec9 1cbe 7e90 acbe
00000050: 7b17 06be 4199 67bd 2c85 84be 04b9 e8bd
00000060: 6bbd 1dbe b222 87bc abe9 a1be d878 573e
00000070: 4194 9bbe f3eb 71be 2bf5 34be 7bfa 88be
00000080: c9a7 86be 27f0 4fbe 6a11 b0be 3e64 96be
00000090: 2395 86be c089 c6be b28c 33be c88b c5be
000000a0: 0453 a4be 71a0 e9bd 1641 50be 8c83 76be
000000b0: d7ea a2be 33d8 57be 9221 89be 31bb 2cbe
000000c0: c240 e5be 1412 aabd 812f d5bc ae11 cfbe
000000d0: f0b9 adbe 6289 a7be f5be 25be f0a2 92be
000000e0: ab68 93bf 26dc 62be 3a3e eebd a21e 47be
000000f0: c426 cebd 529b cc3b 4020 8bbe ecee 16be
00000100: 752c e9bd e443 fdbd d1f0 f9bd 0bac 7ebe
00000110: 20b5 313e 5148 e43c 7f45 40bc a966 fabd
00000120: 3b72 96be e858 9fbd 3d9f 86be 6250 d0be
00000130: f278 27be 724a 68be 8e25 7dbe 2f46 28be
00000140: d9d2 afbe ca9d 2ebe 8c41 56be 68a8 02be
00000150: f779 a6bd 33b6 ecbd 1983 a9be e8b8 d73d
00000160: 02d3 603d c406 973d 6a1f 123c 6407 863e
00000170: d106 32be ad92 083e 42da 2abe 9c2c 1c3e
00000180: f439 6fbe 1d21 093e 471c 4c3d f493 f6bc
00000190: f0c1 b53e b4d3 ebbb 06cf d53c 6832 053c
000001a0: ab70 d43c 2ca2 ddbc d042 b83d e70c 853d
000001b0: d6a4 6f3e 4dc7 b3bd 90c7 8bbd ff73 d3bd
000001c0: 60d6 1fbd 573c 9f3d 112a 9fba 3c40 e7bc
000001d0: 89ee a1bc 12fb 0f3c f1c7 4bbd ff78 833c
000001e0: 1853 05bd 9563 9cbb eb6f 2dbc 03eb dfbd
000001f0: 3da0 903c e8c2 1e3d 73b9 8e3b 70e0 eb3b
00000200: dd4e 75bb cf51 563d fafc 95bd e88f b83c
00000210: 36e7 01bc e95b 85bd d06a 8cbc 6612 acbc
00000220: 453a 313e 59d8 05be 2b4f 8dbc 6ba1 263d
00000230: a35d 1cbd 14be 96bc 5bab 263e 72d1 09bd
00000240: 5555 2b3d 1794 40be 7048 2abd bbf2 61bd
00000250: 53b5 2c3d 9028 b5bb eb1b 35bd ba63 b5bd
00000260: d7ec 8ebc 6448 883c a828 e539 7123 b5bd
00000270: 3640 cc3c 4743 593e 46ff 233d e0ff 7d3d
00000280: f77a 7a3d f1f3 6ebc bd28 d1bb a21a 8abd
00000290: 9bb7 16bb 5ec4 d63d 7913 b5bb 8c08 0abd
000002a0: 85d2 c9bd 4980 9cbd 727d 64bc 04af e63c
000002b0: d70b 663c 9470 e43c c63f d13c e936 dd3d
000002c0: aa37 2d3e 586a 64bc 9d52 bcbd 9297 c4bd
000002d0: 225d 533c 5995 a9bb a000 78b7 a086 86bc
000002e0: 4919 75bc bbcc 02be fccf debd 4912 cebc
000002f0: 69a5 6c3d 9dce 86bc 245f 053b 1442 3e3d
00000300: 1d83 a03d a282 053c 874e 053e b0d9 1d3c
00000310: 4814 6cbb f23b 91be 52b3 58be adff 01be
00000320: e7d8 24be 19e6 6abe d716 d7bd 8e7d 0dbe
00000330: 81cf e8be 6041 d13c fa5b cebd abad 62be
00000340: 85c8 01bc 3d0f 10be 58f2 4fbd 5c25 513d
00000350: dd8c 9fbd 7f87 0bbe 792d 3ebd eb71 1cbe
00000360: 530d 3bbe edcb 10be 720c 1fbe 8360 bfbe
00000370: 411a b73e cfa8 87be b8dc 20be e006 913d
00000380: 8e83 32be 7279 973d 623c 16be b3c6 15be
00000390: 052c a5be 2551 1ebe 5ae2 6bbe f036 a8bd
000003a0: f373 c0bd 47ba 6fbe 5df5 2fbe 75db bdbd
000003b0: c3ee e6be 2ab5 70be 6d1a 14be 3d7a fabd
000003c0: ac7e 4bbe 0009 12be 8ec7 21be de6e 1ebd
000003d0: ab9f dfbd 3694 71bd ac28 29be 3be9 20be
000003e0: e368 f0bd f1a5 a2bd 5a40 86bd a29c 4abe
000003f0: e482 09be 8e12 a9bd 72e3 33be 9032 04bd
-0.07184083 -0.3068345 -0.27825403 -0.29491267 -0.3850254 -0.3658578 -0.26348662 -0.27722406
0.03206498 -0.08604095 0.027874878 -0.2372467 -0.23702024 -0.21594411 -0.13909455 -0.027520796
-0.13459916 -0.09345995 -0.1531119 -0.3370399 -0.13094895 -0.05654264 -0.25882852 -0.11363414
-0.15404288 -0.016496036 -0.31623587 0.21042192 -0.30386546 -0.23625164 -0.17671649 -0.267536
-0.26299885 -0.20306455 -0.34388286 -0.29373354 -0.26285657 -0.3877697 -0.1753414 -0.38583207
-0.32094586 -0.11407555 -0.20337328 -0.24073619 -0.31819794 -0.21078567 -0.26783425 -0.16868283
-0.4477597 -0.083042294 -0.026023628 -0.40443176 -0.33930922 -0.32722002 -0.16186126 -0.28639936
-1.1516317 -0.22154292 -0.116329625 -0.19445279 -0.10065988 0.0062441016 -0.27173042 -0.14739579
-0.11385433 -0.12366465 -0.12204135 -0.24870317 0.1735425 0.027866514 -0.011735319 -0.12226612
-0.29384026 -0.077806294 -0.26293364 -0.40686327 -0.1635473 -0.22684649 -0.24721357 -0.16433023
-0.34340551 -0.17052379 -0.20923442 -0.12759554 -0.08128732 -0.11558189 -0.33107832 0.10533315
0.054888733 0.07374337 0.0089186225 0.26177514 -0.17385413 0.13337202 -0.16684821 0.15251392
-0.23361951 0.13391538 0.049831655 -0.030099846 0.35499525 -0.007196868 0.026099693 0.008129694
0.02593263 -0.027054869 0.089971185 0.064966016 0.23402724 -0.08778248 -0.06825173 -0.10324859
-0.039022803 0.07775181 -0.0012143274 -0.028228872 -0.019767063 0.008787887 -0.049751226 0.016048906
-0.032549948 -0.0047726133 -0.010585765 -0.10933497 0.017654533 0.038760096 0.0043556034 0.007198386
-0.003743104 0.052324113 -0.07323642 0.022529557 -0.00792866 -0.06511671 -0.017140776 -0.021004867
0.17307384 -0.13070811 -0.017249664 0.040681284 -0.038175236 -0.018401183 0.16276304 -0.03364701
0.041829426 -0.18806492 -0.041572988 -0.055163126 0.04216511 -0.005528517 -0.044216078 -0.08856912
-0.017446918 0.016636081 0.00043708575 -0.088446505 0.024932962 0.2121707 0.04003837 0.0620116
0.061152425 -0.014584527 -0.00638303 -0.06743361 -0.002299762 0.10486673 -0.005526003 -0.033699557
-0.098546065 -0.07641656 -0.013945924 0.028159626 0.014040909 0.027885713 0.025543105 0.10801489
0.16915765 -0.01394137 -0.09195445 -0.09599222 0.012900623 -0.0051752743 -1.4782097e-05 -0.016421616
-0.014959642 -0.12773411 -0.108795136 -0.025155203 0.057774935 -0.016455943 0.0020350898 0.046449736
0.07837508 0.008148821 0.13018237 0.00963442 -0.003602283 -0.28366047 -0.21162155 -0.12695189
-0.16098367 -0.22939338 -0.10502403 -0.13817427 -0.45470813 0.025543869 -0.10076137 -0.22136562
-0.007921343 -0.14068313 -0.050768226 0.05106102 -0.077905394 -0.13625906 -0.046430085 -0.15277831
-0.18266802 -0.14140292 -0.15532091 -0.3737832 0.35762218 -0.26495978 -0.15709198 0.070813894
-0.17432997 0.07396211 -0.14671472 -0.14626579 -0.32260147 -0.15460642 -0.23035565 -0.082136035
-0.093971156 -0.23410903 -0.17183442 -0.09270374 -0.45104036 -0.23506609 -0.14463206 -0.12230346
-0.1987254 -0.14261246 -0.1579878 -0.03867995 -0.10919126 -0.058979236 -0.16519421 -0.1571397
-0.117387556 -0.07941807 -0.06555243 -0.19786313 -0.13428837 -0.08255492 -0.17567232 -0.032274783

final.linears.1.bias f4 [98]
00000000: 31ac 9cbe e9bf a83d 9583 c93c db43 33be
00000010: 3cf0 973c d918 14be b9da efbe 2834 fcbd
00000020: 8393 81bd 61eb 9cbe db5b 95be 316d a6be
00000030: 4dba 80be 0c86 babd 229a 68be 6ec5 90be
00000040: 0495 85be b2c1 20be 5089 193e b91e 52bd
00000050: d93c 0cbe 6849 30be 347f b0bd 7aaa 64be
00000060: c6b3 09be 5525 d5bc da3f 09be 0c78 f9bd
00000070: 9794 83be b2b5 37be 53d6 cbbd 0329 d7bd
00000080: d57e 98be 0824 a5be f261 4fbe 4f06 723d
00000090: ff77 9dbe 4767 4fbe d4c3 3bbd 8412 a7bd
000000a0: 1443 e8bb 345e 20be a519 d3bd 3931 b53c
000000b0: 44d2 88be c104 83bd 7ef7 74be 1cfd 09be
000000c0: 4b0c a8be 05c8 6cbd aed3 67be 39f5 0dbe
000000d0: 02ee 35be 9dfa 4bbe c2eb 2d3f 8907 11be
000000e0: 963b 3bbe 08d7 cebd 26c9 e3be f2a5 8ebe
000000f0: cd6f 2bbe 4d6f 03be 1674 51be 62ee babe
00000100: f6b1 52be ee85 7fbe f407 86be 0248 133e
00000110: b70b bdbe 9117 bcbe 6e43 88be ae9f 0cbf
00000120: dccc dbbd 5d3a b2bd 580b 48be 6184 a5be
00000130: 05e6 ecbd 0f96 febe 28b4 c43c 1ec3 eb3b
00000140: 61b2 893d 7545 05be 0225 b8be f60c a9bc
00000150: 1e7d b7be 4589 5ebe 9b5a e3bd f50f c8bd
00000160: 831d d1bd ce9f 34be 6750 98be b21c 84bd
00000170: 55fd 98be 8e70 8dbe bc01 7abb c811 f03d
00000180: 664f 8cbe ec30 5abe
-0.30600122 0.08239729 0.024598876 -0.17506354 0.01854717 -0.14462604 -0.4684656 -0.123146355
-0.06326964 -0.3064833 -0.29171643 -0.3250518 -0.25142136 -0.09107599 -0.22715047 -0.28275627
-0.26090252 -0.15698889 0.14993787 -0.05129883 -0.13695087 -0.17215502 -0.08618012 -0.22330657
-0.13447484 -0.026018778 -0.13403264 -0.121811 -0.25699303 -0.17940405 -0.099529885 -0.10505869
-0.29784265 -0.32254052 -0.20252207 0.059088048 -0.30755612 -0.20254241 -0.045841053 -0.081578285
-0.0070880745 -0.15660936 -0.10307626 0.022118198 -0.2672292 -0.06397391 -0.23922536 -0.1347546
-0.3282188 -0.05780794 -0.22639343 -0.13863076 -0.17766574 -0.1991982 0.6793786 -0.1416303
-0.18284449 -0.10099608 -0.44489402 -0.2786098 -0.16741867 -0.12835427 -0.2045444 -0.36509997
-0.20575699 -0.24953434 -0.26177943 0.14382938 -0.36923 -0.3673673 -0.26613945 -0.5493115
-0.10732433 -0.08702538 -0.19535577 -0.3232756 -0.1156731 -0.4972386 0.024011686 0.0071948906
0.06723476 -0.13014777 -0.35965735 -0.020636063 -0.35837644 -0.21732052 -0.11101266 -0.097686686
-0.10210707 -0.17639086 -0.29748842 -0.06450786 -0.29880777 -0.27624935 -0.0038148006 0.117221415
-0.27404326 -0.21307725

final.linears.2.weight f4 [17, 98]
00000000: 4c9c 9d3e 244d d93a d06a 20bb cd3a 78be
00000010: f7ae 51be e277 28bd 1d98 3fbe befc 1d3a
00000020: deee 013e 1b26 8b3e 53ce 043f 2757 77be
00000030: 2c1d f83d d100 703c ec61 bb3e a7ab 093e
00000040: 8c22 88bd 429a febb f9e0 443b 575f a6bc
00000050: f353 0cbe 3302 ee3c c51c 973c 7a58 d53e
00000060: 5582 633a c27d 343e c253 64bd ba5c 443d
00000070: f593 4abd c79f c53d 2c95 053d 11b0 2fbe
00000080: d329 c33e c601 57bd 7973 1a3d 7f57 d6bd
00000090: 1212 173c 4214 993e 0984 443e cc79 573c
000000a0: 9396 013d 24e0 a7bc 4715 ba3d af3e 763c
000000b0: 9e9a a5be ad85 5cbe 338b 01bf 950d 203e
000000c0: 9974 723f d6af eb3b e28f f8be 8fd8 2b3d
000000d0: 4e13 acbd c8b5 07bd ebc4 f53a d2dd 22bd
000000e0: 36bf d5be 84f3 ea3c c0c2 4f3c 84af 01bf
000000f0: 58e9 3bbc a298 35be 8eb7 923d 885e bc3e
00000100: 7f1e 08bd 017f 89be c036 613e 92f6 563d
00000110: 8141 903d eb2f df3d b7c8 50be 0772 31bd
00000120: e802 51bc aed4 c33c 6abd f1bc 2b10 0cbd
00000130: 4458 2dbd cb1e 9dbc b3f3 6a3e 9c5b 843d
00000140: 6b79 7a3c 8789 ee3b bfa5 f2be 580f dabd
00000150: dcc1 943e bda6 d8bd f246 2fbe f0a5 173e
00000160: 58ad 31bd 312d debd 6931 54be 45d5 603e
00000170: e8d0 aabd 7627 e4be 9565 c53c 1191 e5bd
00000180: fe5a bf3d eaf6 9bbb 00b0 2f3f 0f8d 93bd
00000190: 9ec2 0cbc bcf6 29bd 1634 00bd 118e 6d3d
000001a0: 55e8 213e 6372 8fb9 16cf e13c 23ca d83d
000001b0: d55c 3cbe 7808 573d 5860 fb3c 24e0 febd
000001c0: 8356 c43d e116 5a3d c5b7 b03e 747e 063d
000001d0: e1a8 133e 2394 a63d 6590 26be c20a 7fbd
000001e0: 4a5b 1abb 05c3 28bf e49c 4a3b d0b4 73bc
000001f0: 5c21 263d a31f 833e c538 733d 35ef 0f3e
00000200: d81d d8bd c7e4 253e 0296 a9be ceff 463c
00000210: cec1 3bbd 2dab 1dbc f467 03be 7092 cdba
00000220: 32cb c6bd b97c 00bd 77fb 18bd 07a6 943e
00000230: 26bb 8b3b 2302 a1be ed06 92bd ff5d d33d
00000240: a7bf 39bd b1d1 1a3f a7be f4bd a3c1 7c3e
00000250: 8aab 76bf 2c4f bf3c 74a9 4fbd 1a37 e63c
00000260: dd6c cbbb f02a d9bd 4b24 be3c a3ac 65be
00000270: ea91 01bc bfc5 06be 3b7e 71bd c265 be3c
00000280: 980a 49bd eb29 a83e 9d48 c43c 2273 5c3e
00000290: 15c1 64be 3b74 563d b73e a03b 70e6 95be
000002a0: 0a48 4abe 0e26 bc3c c1bb c6bb 0010 8bba
000002b0: ee26 313e babc 19bd 1178 213e c215 933c
000002c0: 916b 4f3d f43d 1dbd f077 16bc 2873 b2bd
000002d0: 6400 933e cef4 efbc 073b 6cbb 358f 85be
000002e0: 676a efbb 6b42 4f3c 31a4 88be f915 9ebc
000002f0: 4feb a6be f9bb 203e baaa 903d 3c31 523f
00000300: fd95 1ebe d7eb b1bc 6d16 5fbd cbf1 983b
00000310: 88ac 5b3d bf7a 53bd e6f1 b63f abe9 503d
00000320: 10d9 1bbd 2c05 f6be a1a4 c93e b28c 053e
00000330: e7e8 603c 99cb 1fbd ebe1 f23d 399e 653d
00000340: b1ef 8d3d fbb2 973a 43f1 9bbe 48ea 023e
00000350: 5cf5 0b3e 23ed 2a3e 0bc3 04be 99a1 90bb
00000360: d391 46be ce29 f83c 104c 3bbd b46b 98be
00000370: a473 493e 524b f33c 2714 0e3e 7460 153c
00000380: 44a3 bd3d 18a2 a23d 3fb3 83bd bd69 bcbe
00000390: 20e4 913e 039a 4c3e 055c 1abd 841b 09be
000003a0: cc67 ea3d 0d20 863d 2f11 a5bc 3ee9 bcbd
000003b0: 7b58 15be 8493 d0bb fce9 533d 407e eb3b
000003c0: f280 be3d d5e0 043d b3bd 53be e1d4 c0be
000003d0: 9a33 d2bc 961f 4bbd 15b4 2ebe b113 6d3e
000003e0: d42b a33d 1372 713d dfd1 4fbe 30e7 d53c
000003f0: c049 aebd 90f3 3c3d 3cc8 fcbe 8313 133e
0.30783308 0.0016578776 -0.0024477728 -0.2424118 -0.204769 -0.041129954 -0.1871037 0.0006026736
0.12688777 0.2717751 0.51877326 -0.2415434 0.12114939 0.014648632 0.36598146 0.13444386
-0.06647214 -0.007769854 0.003004132 -0.020309133 -0.13703899 0.029053783 0.018446336 0.41669065
0.0008678784 0.17626098 -0.05574394 0.047939993 -0.04945751 0.09649616 0.032612965 -0.17157008
0.38117847 -0.052491926 0.03770778 -0.10465907 0.009220617 0.29898268 0.19190992 0.013151597
0.03163774 -0.02049262 0.090860896 0.015029593 -0.32344526 -0.21535368 -0.50603026 0.15630181
0.94709164 0.007192592 -0.48547274 0.041954573 -0.084021196 -0.033132344 0.0018750703 -0.039762326
-0.41747445 0.02868057 0.012680709 -0.5065844 -0.011469208 -0.17734006 0.071639165 0.36790872
-0.03323221 -0.2685471 0.21993542 0.05248124 0.07043744 0.108978115 -0.20389067 -0.043321636
-0.012757041 0.023905125 -0.029509265 -0.034195106 -0.042320505 -0.019179722 0.22944526 0.064627856
0.015287737 0.007279578 -0.4739208 -0.10647458 0.29054153 -0.10578678 -0.17116907 0.14809394
-0.043378204 -0.10848463 -0.20721973 0.21956356 -0.08340627 -0.44561356 0.02409629 -0.1120931
0.09343527 -0.004759659 0.6862793 -0.07204639 -0.008591322 -0.04149507 -0.031299673 0.057996813
0.15811284 -0.0002736031 0.027564567 0.105854295 -0.18394788 0.05249831 0.030685589 -0.12445095
0.09586813 0.053244475 0.34515205 0.03283544 0.14419891 0.081337236 -0.1626602 -0.06226612
-0.0023552948 -0.65922576 0.0030916268 -0.014874652 0.040559158 0.25610074 0.05938031 0.14056094
-0.10552567 0.16200553 -0.3312226 0.0121459495 -0.045839123 -0.009623331 -0.12832624 -0.00156839
-0.09706725 -0.031368945 -0.03734919 0.2903292 0.004264253 -0.31446943 -0.07130227 0.10320663
-0.04534879 0.60476214 -0.119504265 0.24683242 -0.963555 0.023353182 -0.050698712 0.028102446
-0.006208046 -0.10603893 0.023210665 -0.22429137 -0.007908324 -0.13161372 -0.058958273 0.023241881
-0.04908237 0.3284448 0.023960406 0.21528295 -0.2233928 0.05235694 0.0048902887 -0.29277372
-0.19754043 0.022967365 -0.0060648625 -0.0010609627 0.17300007 -0.0375335 0.15768458 0.01795471
0.050639693 -0.03838916 -0.009183869 -0.087133706 0.28711236 -0.029291537 -0.0036045925 -0.2608582
-0.0073063853 0.012650113 -0.26687768 -0.019297587 -0.326014 0.15696706 0.070638135 0.82106376
-0.15486903 -0.021718903 -0.054464746 0.004667496 0.053631335 -0.05163073 1.4292572 0.051004093
-0.038048804 -0.4805082 0.39383414 0.13041952 0.013727403 -0.039012525 0.11859497 0.056059096
0.06930483 0.0011573726 -0.30457506 0.12784684 0.13667816 0.16692023 -0.12965028 -0.004413795
-0.19391565 0.030293372 -0.045726836 -0.2976967 0.1967302 0.029699001 0.13874875 0.0091172345
0.09259656 0.07941073 -0.06430673 -0.36799422 0.28494358 0.19980626 -0.037685413 -0.13389403
0.11445579 0.06549082 -0.020149795 -0.09224175 -0.14584534 -0.0063652415 0.051736817 0.007186681
0.09301938 0.03244098 -0.20677833 -0.37662414 -0.025659371 -0.04959067 -0.17060883 0.23152043
0.07967344 0.05894668 -0.20294903 0.026111215 -0.085101604 0.046130717 -0.49371517 0.14362912

final.linears.2.bias f4 [17]
00000000: e006 9d3c 107b 58bd ea42 073e 2ca7 d7bd
00000010: 68f3 acbe 1820 5d3c 4048 38bc 97f8 293b
00000020: 15c2 573d 341e 083e ebf4 12bb 2514 b3bc
00000030: 7a95 c9bb 7367 c93c 004f b33c 87b2 02bd
00000040: 2e2e b0ba
0.019168317 -0.052851737 0.1320912 -0.105299324 -0.33779454 0.013496421 -0.0112476945 0.0025935525
0.052675325 0.13292772 -0.0022423815 -0.021860192 -0.006151852 0.024585461 0.021888256 -0.03190854
-0.0013441497

layers.0.attn.0.gnn_q.weight f4 [17, 16]
00000000: 3c18 17b6 6256 c537 0957 1abb c48c ab3a
00000010: 154b c235 4584 a2b7 d615 9db0 5eeb 8fbb
00000020: 409b e0b4 7e9c 653a 5275 f4bb 8ff5 123c
00000030: ea31 043c c6b9 113a 59f8 90b4 77ea 42b5
00000040: 2481 fc36 9093 83b8 fac3 feba d5b7 a73b
00000050: cfd9 a836 fe9d 8eb7 cbf4 6432 08b3 3abc
00000060: b0dd 8837 d952 9dba e62e b4bb 514e 513c
00000070: 0eb8 a33b fd74 14bb b609 0835 f69c b5b5
00000080: 3ac1 0436 dbf3 5ab7 1fc9 72bb 8419 783b
00000090: 616e a636 f4ef b8b6 79c2 4e32 bf22 82be
000000a0: ac4a df36 512a 883a ad64 bfbd 8e53 503e
000000b0: 2261 0bbc e33a 35ba 1a57 a734 fb13 0a36
000000c0: 5f2b 03b4 ec83 b4b7 38df 77bb ac68 47bb
000000d0: 3b72 7eb6 00ce 8db7 b651 c1b2 4962 a9be
000000e0: f8cd cfb6 77ee 3dba bb09 a7bd ba22 a33e
000000f0: ca94 113d 8754 7bba ed44 9234 defd b234
00000100: 0cc9 3135 fe3f c8b7 e70a a0bb 8839 5d3a
00000110: 20ef 31b4 d4e7 25b7 20bb 28b2 cf49 ad3d
00000120: 44b7 a435 be7c a23a 6a81 163c 07d5 d6bd
00000130: 349d b9bb 0807 91ba 2f92 5934 821d b235
00000140: be96 ac36 dcd7 40b8 eae2 843a 0f26 d43b
00000150: d09e 0137 ccde f5b7 294f 6433 00b4 ca3d
00000160: 8db4 6d37 6c2c 2e37 1792 06bb 0ef0 d2bd
00000170: 8bf4 9abc 7963 98ba 7d5b 2435 2dc4 c4b5
00000180: d3d2 aeb6 e249 6838 05aa 143b ef2f 97ba
00000190: 9308 1237 109b 41b8 6109 4732 535f f13c
000001a0: 3441 4db7 251e 5bb9 96ee 393c 9ee9 d6bc
000001b0: 5182 6f3c d2e1 a639 5e9a 70b4 9e89 4b36
000001c0: d680 0337 ef77 79b7 ccb7 de3b b537 e33b
000001d0: 001b 8234 392b c637 83be ba31 2e65 fc3b
000001e0: d6cf 6637 ab6f a83a c5bc 9bbb 2a46 b9bb
000001f0: 46dc 49bc 39a5 ab39 e5e5 bbb3 bcb1 47b6
00000200: 2ff9 6bb7 548f f438 53c7 05bc 290b 98bc
00000210: 9507 9f35 44ae 1eb8 2ca0 c7b0 0074 773c
00000220: 0e5b 2bb8 ddd6 523a 5285 f23c b10e 88bc
00000230: 2bed abbc 20e1 45b9 425c f434 e167 b936
00000240: 1949 f9b6 f596 7f38 0ec1 bdbb df2b 40bc
00000250: 0a11 2fb7 dca8 e034 227a 95b2 11ab ec3c
00000260: cd9a b2b7 4d36 0f3a 301d bb3c 327a 0dbd
00000270: c6a1 993b 8c85 bc3a ce7e b0b3 2a9e 8ab5
00000280: 8436 07b6 48f4 4237 6e0b 143a 88ae e1bb
00000290: 5e99 4bb5 5872 2cb7 03ce d1b2 c73b 1a3e
000002a0: ec1c beb6 22b5 6338 5d4c 063d bc6c 19be
000002b0: de78 28bc 8f1a bdba a456 c834 00c4 bdb1
000002c0: 9f11 3c36 0e2e 8eb7 bab3 8c3a 5369 1d3c
000002d0: 091b 9637 9e78 bb36 3642 a333 9719 5c3c
000002e0: c9a5 4737 a2bc 7aba 1ce5 f73b 773d 62bc
000002f0: b693 f03b e9b5 f939 a6f3 8332 36d0 7936
00000300: 3a82 2836 ddb9 a537 dcce e03b 1467 c13b
00000310: c65a 0037 f7c9 31b7 8461 0532 8e4f 27bb
00000320: 80ca 0f37 c919 28ba e5e4 95bb 9efa 8fbb
00000330: a77d fcbc d7cf fbba 9539 fe34 4a1d 2fb5
00000340: 164f 52b7 b85e 8838 ad81 50bc 3aba 9ebc
00000350: a497 20b7 c82d 29b8 f100 efb2 b7d2 1ebc
00000360: 12a6 13b8 7b86 993a 969a b6bb 93bc 9f3b
00000370: 6ab0 08ba 69bc c2ba cb31 1f35 826d c536
00000380: 0c8e f5b4 401e ddb6 144e 7b3a 89bd 86bb
00000390: 3706 edb6 3336 9937 1098 60b2 a0f6 c23c
000003a0: ee38 00b6 1f85 11ba 0298 183c 69a2 a4bc
000003b0: 7ca3 243a c4e6 9e3a 4a1c 6fb3 5d27 c9b5
000003c0: 94e6 3e35 79af 4a38 8eef ee3b 151b cf3b
000003d0: 33a5 91b6 cbf6 f337 8040 fbb2 90a8 3e3d
000003e0: 522c c135 5646 8ab9 6e96 c23c 0377 5dbd
000003f0: ea48 a33c 7c64 b939 2b41 28b5 3db4 20b6
-2.251486e-06 2.3524455e-05 -0.0023550412 0.0013088216 1.4475978e-06 -1.9373498e-05 -1.142946e-09 -0.0043920716
-4.183621e-07 0.0008758976 -0.0074602747 0.008969679 0.008068541 0.00055589934 -2.7002787e-07 -7.2611823e-07
7.525219e-06 -6.2740524e-05 -0.0019437068 0.00511835 5.0321464e-06 -1.700129e-05 1.3327006e-08 -0.011395223
1.6315695e-05 -0.001200284 -0.005498755 0.01277502 0.0049963063 -0.0022652738 5.067808e-07 -1.3531233e-06
1.9782005e-06 -1.305059e-05 -0.0037046147 0.0037857005 4.9600353e-06 -5.5115615e-06 1.2034996e-08 -0.25417134
6.654611e-06 0.0010388588 -0.09345374 0.20344374 -0.008507045 -0.0006913377 3.116955e-07 2.0575233e-06
-1.2216104e-07 -2.1519103e-05 -0.0037822258 -0.003042738 -3.791544e-06 -1.6904436e-05 -2.2505315e-08 -0.33082798
-6.1930587e-06 -0.0007245312 -0.08156153 0.31862432 0.035542287 -0.00095874857 2.724477e-07 3.3339796e-07
6.62302e-07 -2.3871657e-05 -0.004884112 0.0008439054 -1.6571403e-07 -9.888743e-06 -9.821434e-09 0.084613435
1.227229e-06 0.0012396795 0.009186128 -0.104898505 -0.005664492 -0.0011064718 2.0262881e-07 1.3270621e-06
5.143548e-06 -4.5977402e-05 0.0010138426 0.0064742635 7.725976e-06 -2.9310024e-05 5.3157382e-08 0.098976135
1.4168339e-05 1.0381551e-05 -0.0020533854 -0.10299693 -0.018915435 -0.0011626325 6.1227894e-07 -1.4660233e-06
-5.2101473e-06 5.538192e-05 0.0022684347 -0.0011534671 8.7042745e-06 -4.61592e-05 1.1585457e-08 0.0294644
-1.22341335e-05 -0.00020896697 0.011348387 -0.026234444 0.014618472 0.00031830237 -2.24079e-07 3.032946e-06
7.838205e-06 -1.4869481e-05 0.0067968126 0.006934131 2.4234032e-07 2.3623566e-05 5.434971e-09 0.0077024912
1.3757459e-05 0.0012850662 -0.0047527277 -0.005654116 -0.012320584 0.00032738762 -8.7496836e-08 -2.9756766e-06
-1.4065109e-05 0.000116615236 -0.008165198 -0.01856001 1.184863e-06 -3.7832433e-05 -1.4524679e-09 0.01510334
-4.085438e-05 0.00080428814 0.029604588 -0.016608568 -0.020987114 -0.0001887125 4.5515668e-07 5.5255227e-06
-7.429288e-06 6.0937327e-05 -0.005790836 -0.01172921 -1.043478e-05 4.1846113e-07 -1.7401423e-08 0.028890165
-2.1291338e-05 0.00054631085 0.022841066 -0.034540363 0.0046884743 0.0014383062 -8.218704e-08 -1.0327833e-06
-2.01483e-06 1.1620177e-05 0.0005647455 -0.006887261 -7.584657e-07 -1.0278622e-05 -2.4424486e-08 0.15061866
-5.665808e-06 5.428971e-05 0.03278767 -0.14982885 -0.010282723 -0.0014427471 3.7315942e-07 -5.5229066e-09
2.802444e-06 -1.6949165e-05 0.0010734715 0.009607631 1.7893983e-05 5.587076e-06 7.602323e-08 0.0134338355
1.1899924e-05 -0.00095648516 0.0075651538 -0.0138086 0.0073418273 0.00047628515 1.5361206e-08 3.7225086e-06
2.5109753e-06 1.9756082e-05 0.006860597 0.0059021804 7.650529e-06 -1.0597046e-05 7.763791e-09 -0.0025529596
8.570612e-06 -0.00064125337 -0.0045744055 -0.0043938896 -0.030821634 -0.0019211721 4.7353083e-07 -6.52352e-07
-1.2535389e-05 6.502628e-05 -0.01272623 -0.01937591 -9.57205e-06 -4.0335377e-05 -2.782369e-08 -0.009693793
-3.5202196e-05 0.0011713052 -0.0055726273 0.0048747747 -0.0005214276 -0.0014857176 5.9304574e-07 5.883806e-06
-4.573816e-07 -6.589835e-06 0.00095865247 -0.00411195 -7.063874e-06 1.826426e-05 -1.3073091e-08 0.02379924
-1.9106624e-06 -0.00055511476 0.009313585 -0.020096974 0.00062804646 0.0012123217 -5.5672253e-08 -1.4987123e-06
7.111605e-07 4.8323975e-05 0.0072917407 0.006320367 -4.3405685e-06 2.908278e-05 -2.9249577e-08 0.046547472
1.439252e-06 -0.00026373815 0.023753371 -0.054068577 0.01993223 0.00035360816 -6.267971e-07 -2.394677e-06

layers.0.attn.0.gnn_q.bias f4 [16]
00000000: ffde 8735 2c90 f136 e453 113c 12ff 00bb
00000010: 4858 bcb6 96e5 27b7 5682 3db2 3688 43be
00000020: b0cc 9635 9b76 a7ba 8b2f 8ebd 2272 0a3e
00000030: 7fe6 a8bb 0415 aeb9 6a6c 2db3 175c 85b6
1.0123184e-06 7.1991435e-06 0.008870099 -0.0019683284 -5.613114e-06 -1.000743e-05 -1.1030883e-08 -0.19094929
1.1235443e-06 -0.0012776436 -0.06942662 0.135201 -0.0051544304 -0.00033203524 -4.0378303e-08 -3.9744295e-06
