checkpoints/cyp1a2_veith_40_train1_pos/Sep06-00:56:26_400.pth (torch, 421766 bytes, 294 tensors)

layers.0.weight f4 [17, 16]
0	0x3c6e9af4	0.014563311
1	0x3f0b61a3	0.54445857
2	0xbf935616	-1.1510646
3	0x3f51e45d	0.8198908
4	0xbeed2a7e	-0.4632148
5	0x3fa8b604	1.3180547
6	0xbeddbe89	-0.4330943
7	0x3f25cc0d	0.6476448
8	0xbd12bfb8	-0.03582737
9	0xbd958d1f	-0.07302307
10	0x3f78ebf8	0.9723506
11	0x3e9dd3aa	0.3082555
12	0x3f192a55	0.5983022
13	0xbd71abe9	-0.059001837
14	0x3f94f11e	1.1636083
15	0xbd85ce34	-0.06533471
16	0x3eb7c6d0	0.3589387
17	0xbd1777f1	-0.03697962
18	0xbeff2e14	-0.49839842
19	0xbdd43681	-0.10361958
20	0xbe83e18f	-0.25758025
21	0xbe090216	-0.13379702
22	0xbe8b3d86	-0.27195376
23	0x3ef712ba	0.48256475
24	0xbea07a5e	-0.3134336
25	0xbebb7bf1	-0.36617997
26	0xbde96b31	-0.11397398
27	0xbdc283e5	-0.09497813
28	0x3ef52a4b	0.4788383
29	0xc01d49b9	-2.4576247
30	0x3f0e9a0d	0.5570381
31	0xc01b5b18	-2.427435
32	0x3d85e52a	0.0653785
33	0x3d332569	0.04373685
34	0xbe459c24	-0.19297844
35	0x3e2c73a6	0.16840991
36	0x3dca16a9	0.09867603
37	0x3e7b083d	0.24514861
38	0x3d7b7cb3	0.06139822
39	0xbe6e80df	-0.23291348
40	0x3d4fde3f	0.05074906
41	0xbecf1031	-0.4044204
42	0x3e52268c	0.20522517
43	0x3e5b1bd9	0.21397342
44	0xbd10484c	-0.035225198
45	0xbe063294	-0.13105232
46	0x3e5dee43	0.21672921
47	0x3d09b0de	0.03361594
48	0x3cf99101	0.030464651
49	0x3dac57d9	0.08415193
50	0xbe4b2d1b	-0.19841425
51	0x3e11bdd7	0.14232574
52	0x3d9e4454	0.07727876
53	0x3e7c5eba	0.2464551
54	0x3d4d8d08	0.050183326
55	0xbda91efd	-0.08257864
56	0x3d25a9c4	0.040445104
57	0xbed3edf9	-0.41392496
58	0x3e3d2143	0.1846972
59	0x3e256b1f	0.16154145
60	0xbe951d86	-0.29124087
61	0xbdefcbc5	-0.11708788
62	0x3e62b11d	0.22137876
63	0x3cdfff3c	0.027343385
64	0x3d1e4c20	0.038646817
65	0x3d13dd97	0.036099996
66	0xbe170eec	-0.14751786
67	0x3e2a80c8	0.16650689
68	0x3dcddaea	0.1005152
69	0x3e269f27	0.1627165
70	0x3dcc6977	0.09981053
71	0xbd273a44	-0.04082705
72	0x3c0a99b3	0.008459496
73	0xbe04a189	-0.12952246
74	0x3e29375e	0.16525027
75	0x3dc5c163	0.09656026
76	0xbdbfbd0b	-0.09362229
77	0xbdf36ba2	-0.11885764
78	0x3e337ead	0.17528792
79	0xbc5af96f	-0.013365134
80	0x3c8ceb6d	0.017202104
81	0xbcccad93	-0.02498511
82	0xbd7cdf1f	-0.061736222
83	0x3e06c037	0.13159262
84	0x3d355acc	0.044276044
85	0x3da9c9e6	0.08290462
86	0x3d0158fd	0.031579006
87	0xbc08259f	-0.008309751
88	0x3c248781	0.010042072
89	0x3d616270	0.055025518
90	0x3e0a592c	0.13510579
91	0xbc89e8fa	-0.016834725
92	0x3dfa090e	0.12208758
93	0xbd9bb7db	-0.07603427
94	0x3d61636f	0.055026468
95	0xbdab39cb	-0.083606325
96	0x3d585b42	0.052821405
97	0xbec4b4b2	-0.3841911
98	0xbf7074cd	-0.93928224
99	0xbffaf421	-1.9605752
100	0xbde56f4b	-0.11202868
101	0xbf34cbb9	-0.70623356
102	0xbd819400	-0.06327057
103	0xbee64c9a	-0.44980317
104	0xbca10c34	-0.01965914
105	0x3d4d1814	0.05007179
106	0xc019f36f	-2.405483
107	0xbe704d47	-0.23466979
108	0xbd8eaf37	-0.06967013
109	0xbf3020dc	-0.6880014
110	0x3f75c8f0	0.9600973
111	0xbf259134	-0.6467469
112	0x3e21307a	0.15741149
113	0xbf499550	-0.7874346
114	0x3db3de79	0.08782668
115	0x3e9581e1	0.29200652
116	0x3f061cc8	0.52387667
117	0xbff382bb	-1.9024271
118	0x3ee2c5cf	0.4429154
119	0xbec821d6	-0.39088315
120	0xbdc08796	-0.09400861
121	0xbe4abf13	-0.19799452
122	0x3edb3a66	0.42817992
123	0xbeeabe23	-0.45848188
124	0xbec1bacb	-0.37837824
125	0xbf955256	-1.1665752
126	0xbd6f776e	-0.058463506
127	0xbf85d8a5	-1.045674
128	0x3ea15627	0.31511042
129	0x3f3c6d4a	0.7360426
130	0x3f6ed3e5	0.93292075
131	0xbeb014b9	-0.3439081
132	0xbe122621	-0.14272358
133	0x3fe5ef3d	1.7963635
134	0xbe3364dc	-0.17518944
135	0x3f48cc15	0.78436404
136	0xbea2500a	-0.3170169
137	0xbed229f7	-0.41047642
138	0xbef6b0d7	-0.48181793
139	0x3ea57d03	0.3232194
140	0x3ee86161	0.45386794
141	0xc00106dd	-2.016044
142	0xbf718d26	-0.94356
143	0xc00e413a	-2.222731
144	0x3d05e081	0.032684807
145	0x3c5d2f68	0.013500072
146	0xbea4bd39	-0.32175615
147	0x3e93ee33	0.2889267
148	0x3e411c12	0.18858364
149	0x3e0202d1	0.12696387
150	0x3e2f310b	0.17108552
151	0x3de9cf38	0.11416477
152	0xba67bca8	-0.00088400627
153	0xbd8287df	-0.063735716
154	0x3eaa1847	0.33221647
155	0x3ca8c221	0.02060038
156	0xbce26615	-0.027636567
157	0xbdf4677d	-0.11933801
158	0x3eaa0834	0.33209383
159	0xbdc86d6b	-0.09786495
160	0x3d351438	0.044208735
161	0x3e15d9b2	0.14633825
162	0xbdc7b5d6	-0.09751479
163	0xbde6cfda	-0.11270113
164	0x3eb9e924	0.36310685
165	0x3e565284	0.20929915
166	0x3eaa75f2	0.3329311
167	0x3ead7551	0.33878568
168	0xbd1aab15	-0.037760813
169	0xbb4d8516	-0.0031359843
170	0xbdde3713	-0.10850348
171	0xbc14c18f	-0.009079351
172	0x3e7c4138	0.24634254
173	0xbe29b13c	-0.16571516
174	0x3deaaaf0	0.11458385
175	0xbe02c3b4	-0.12769967
176	0xbc6de155	-0.014519055
177	0x3ea6e97e	0.32600015
178	0x3f96ec05	1.1790777
179	0x3edbe490	0.42947817
180	0x3f4644ab	0.7744853
181	0x3f3ea7c5	0.74474746
182	0x3f337085	0.70093566
183	0x3e147909	0.14499296
184	0xbc50616a	-0.012718538
185	0xbdfb74c1	-0.122781284
186	0x3ed7a37d	0.4211692
187	0x3e3bc31a	0.18336144
188	0xbec48e2e	-0.38389724
189	0x3d9a093f	0.07521295
190	0xbf9ebf0b	-1.2402052
191	0xbce95a53	-0.028485453
192	0x3ea8cbb7	0.32967922
193	0x3ded01d3	0.115726136
194	0x3cdae775	0.026721695
195	0x3f5d6395	0.86480075
196	0x3dd3fee4	0.10351351
197	0x3e92b959	0.28657034
198	0x3da189ca	0.07887609
199	0x3f0c4de2	0.5480634
200	0xbe937c1c	-0.28805625
201	0xbed90ad2	-0.42391068
202	0x3f856781	1.0422212
203	0xbcf8bb34	-0.030362703
204	0x3e24bdbb	0.16088001
205	0xc008bfc6	-2.136705
206	0x3c5fe0fd	0.013664481
207	0xc00cbd6c	-2.1990614
208	0xbcb36433	-0.021898365
209	0xbf09d6ce	-0.5384339
210	0x3ec44412	0.38333184
211	0x3f8c9c89	1.0985271
212	0xbf859093	-1.0434746
213	0xbfa30bda	-1.2737992
214	0xbf5b2daf	-0.8561658
215	0xbee09a3e	-0.43867677
216	0x3d5a9db5	0.053373057
217	0x3e617766	0.22018203
218	0x3fb10a2b	1.3831228
219	0xbe8e9b07	-0.2785265
220	0xbda86c4b	-0.0822378
221	0x3eb9bd50	0.36277246
222	0xbec311aa	-0.38099414
223	0x3ed855ae	0.42252868
224	0x3e2f3c92	0.1711295
225	0x3e011f36	0.12609562
226	0x3f0e7bcd	0.55657655
227	0x3f4ea556	0.8072103
228	0xbf64a4ff	-0.89314264
229	0x3e8d9596	0.27653188
230	0xbf4ba59e	-0.79549587
231	0x3eb0736c	0.3446306
232	0xbe284db6	-0.16435894
233	0xbd868530	-0.06568372
234	0x3f83e6a8	1.0304766
235	0xbb8922c0	-0.0041850507
236	0x3ebb6ee9	0.36608055
237	0xbf690e98	-0.91037893
238	0xbf04fbe8	-0.5194688
239	0xbf7cdce1	-0.98774534
240	0x3e3a8ab8	0.1821698
241	0xbea2fa26	-0.31831473
242	0x3f0eeb89	0.5582815
243	0xbf4dba7f	-0.80362695
244	0xbf2f9fd2	-0.6860324
245	0xbf251873	-0.6449043
246	0xbf1a8519	-0.6035934
247	0xbe7485c5	-0.23879154
248	0xbe159953	-0.1460927
249	0xbcead56c	-0.02866622
250	0xbf76bdcb	-0.9638335
251	0xbe616dfc	-0.22014612
252	0x3df7834a	0.12085588
253	0xbf95e80f	-1.1711444
254	0xbf1b9fee	-0.6079091
255	0xbf9bcb24	-1.2171369

layers.0.bias f4 [16]
0	0x3ec5507c	0.38537967
1	0xbe958df6	-0.2920987
2	0x3ef112de	0.47084707
3	0xbebf72a1	-0.37392142
4	0x3ec0bc52	0.37643677
5	0x3edeb546	0.43497676
6	0xbe3c8246	-0.1840907
7	0x3e6d7f70	0.23193145
8	0x3e02bcad	0.12767287
9	0x3efe71ef	0.496963
10	0x3e3e1897	0.18564068
11	0x3ea38894	0.31940138
12	0x3d6d6454	0.05795701
13	0xbe79fa63	-0.24411921
14	0x3d87cf9e	0.06631397
15	0x3e9cb859	0.30609396

layers.1.weight f4 [16, 16]
0	0xbef8eab1	-0.48616555
1	0x3c67e901	0.014154674
2	0x3f8240f5	1.0176073
3	0xbeb59f5c	-0.35473144
4	0xbf3c91da	-0.7366005
5	0x3db73ba2	0.08946921
6	0x3f0f69a3	0.56020564
7	0xbed67d12	-0.41892296
8	0x3f08ee4c	0.5348861
9	0xbe9cddce	-0.30637974
10	0x3e9b825d	0.30372897
11	0x3d8e8195	0.069583096
12	0xbf7e2a32	-0.99283135
13	0x3f2bbfe0	0.67089653
14	0xbf60e5d4	-0.8785069
15	0xbe6a93d8	-0.2290796
16	0x3f939897	1.1530942
17	0xbe3ea7e3	-0.18618731
18	0xbe1f3e4c	-0.15551108
19	0xbe858392	-0.26076943
20	0x3e2d11f8	0.16901386
21	0xbd28b154	-0.04118474
22	0x3e8a2d4e	0.2698769
23	0xbd9f255f	-0.077708
24	0xbefb2161	-0.49048904
25	0x3e0c59e7	0.1370617
26	0x3e3bd062	0.1834121
27	0x3da58567	0.08082085
28	0x3dc8f09d	0.09811518
29	0xbddfe2fc	-0.10931966
30	0xbcac0d36	-0.021002393
31	0xbfa4b081	-1.2866365
32	0xbddefed7	-0.108884506
33	0x3e881a87	0.2658274
34	0xbebf862f	-0.3740706
35	0x3e00b66a	0.12569585
36	0xbe899d3d	-0.26877776
37	0x3eb05150	0.34437037
38	0xbe3e64cc	-0.18593138
39	0x3d9553f6	0.07291405
40	0xbfacd447	-1.3502282
41	0x3e0dbfbb	0.1384267
42	0x3f6d2004	0.92626977
43	0x3de85046	0.11343436
44	0xbe3f6f24	-0.1869474
45	0x3e50f5db	0.20406286
46	0x3df4ec52	0.11959137
47	0x3e96e200	0.294693
48	0x3e1569f7	0.14591204
49	0xbf034a12	-0.512849
50	0x3dafd6f6	0.085859224
51	0x3c9f3d3a	0.019438375
52	0x3e4fce19	0.20293464
53	0xbee5fc79	-0.44919184
54	0x3b65335e	0.0034973244
55	0xbdda3c1f	-0.106559984
56	0xbf11c644	-0.56943154
57	0x3e51bc11	0.20481898
58	0x3faf90f4	1.3716111
59	0x3e09198d	0.13388653
60	0x3d76074d	0.060065556
61	0x3abe7d9e	0.0014533286
62	0x3ca850cc	0.02054634
63	0xbf1aa24c	-0.60403895
64	0xbf01d34f	-0.50713056
65	0x3e527eb1	0.20556141
66	0x3cf2f2b4	0.029656745
67	0x3e1717d4	0.14755183
68	0xbe6f111b	-0.23346369
69	0xbea075fe	-0.3134002
70	0xbeb0f4fd	-0.3456191
71	0xbe1e1e59	-0.15441264
72	0xbf5442a6	-0.829142
73	0xbdcc0e27	-0.09963637
74	0x3f439ce7	0.7641129
75	0xbd22f622	-0.03978551
76	0xbdfba858	-0.122879684
77	0xbe46a00d	-0.19396992
78	0x3d84eb53	0.06490197
79	0x3f16890a	0.58802855
80	0x3f51a3ab	0.8189036
81	0x3e9ae2f9	0.3025129
82	0xbe7ec862	-0.24881127
83	0x3e8d16fb	0.27556595
84	0xbe1124c7	-0.14174186
85	0xbd2d9d0a	-0.042386092
86	0xbd682075	-0.05667158
87	0x3d823cf9	0.06359286
88	0xbd307388	-0.04307893
89	0xbe091422	-0.13386586
90	0xbeb3cd39	-0.3511751
91	0xbe53f000	-0.20697021
92	0x3dc5b74c	0.09654102
93	0xbea03627	-0.31291315
94	0xbe36b145	-0.1784106
95	0xbe8601fb	-0.26173386
96	0xbf598336	-0.84965837
97	0xbe17c7b3	-0.14822273
98	0x3e3857da	0.18002263
99	0xbce17122	-0.027519766
100	0x3e7a7940	0.24460316
101	0xbe05e446	-0.1307536
102	0x3e82c947	0.25544187
103	0xbe86bd02	-0.26316077
104	0xbf2140c9	-0.6298948
105	0xbd158556	-0.036504112
106	0x3f3b2ecb	0.73118275
107	0xbd2147be	-0.03937506
108	0x3e25e46a	0.16200414
109	0xbe40737f	-0.18794058
110	0xbde573cf	-0.11203729
111	0x3f3d3a7b	0.7391736
112	0x3f76d193	0.96413535
113	0x3cf56777	0.029956562
114	0x3da0ac87	0.07845407
115	0x3dea1af9	0.11430926
116	0xbc58af44	-0.01322538
117	0x3e1f06a9	0.15529884
118	0xbd53c604	-0.051702514
119	0x3e814d8b	0.25254473
120	0x3e131979	0.14365186
121	0x3d13af92	0.03605611
122	0x3e1728b2	0.14761618
123	0x3e105f96	0.14098963
124	0xbdec0abe	-0.115254864
125	0x3e7723b8	0.2413472
126	0x3e899089	0.26868084
127	0xbf8b326b	-1.0874761
128	0xbe81db89	-0.25362805
129	0xbd81f6db	-0.06345912
130	0xbe782d89	-0.2423612
131	0x3f50b363	0.8152372
132	0x3f6f1582	0.93392193
133	0xbfb4ac0e	-1.4115007
134	0xbfa7ee2f	-1.3119563
135	0x3f0407db	0.51574486
136	0x3e956407	0.29177877
137	0x3ef42d3d	0.47690764
138	0x3dc2db62	0.095145
139	0xbdd5a85b	-0.10432502
140	0x3fa933b2	1.3218901
141	0xbed343ba	-0.4126261
142	0x3f9bea4a	1.2180874
143	0xbd85d384	-0.06534484
144	0xbeab429d	-0.3344926
145	0x3e387c12	0.18016079
146	0xbe34fdcd	-0.17674942
147	0xbcf09606	-0.029368412
148	0x3df010a0	0.11721921
149	0xbf150c6b	-0.58222073
150	0xbe926fda	-0.2860096
151	0x3e67ac94	0.22624427
152	0x3e998f32	0.29992062
153	0x3eb836aa	0.35979205
154	0xbe4884b7	-0.19581877
155	0x3e87dd41	0.2653599
156	0x3e208c3d	0.15678497
157	0xbec6419d	-0.38721934
158	0xbe93b61d	-0.2884988
159	0x3e63a685	0.22231491
160	0x3e905d58	0.28196216
161	0x3ee54655	0.44780222
162	0xbee92075	-0.45532575
163	0x3d624e86	0.055250667
164	0xbec00a8c	-0.37508047
165	0x3e7fee84	0.2499333
166	0x3d386faf	0.045028385
167	0xbc3a483b	-0.01136976
168	0xbf7f4156	-0.9970907
169	0x3e151f8a	0.14562812
170	0x3e967238	0.29384017
171	0x3e3bd3be	0.18342492
172	0x3e187405	0.14888008
173	0xbe28b31d	-0.16474576
174	0xbcd2afdf	-0.025718627
175	0x3e48c24d	0.1960537
176	0x3ee4a65e	0.44658178
177	0xbeb78813	-0.35846004
178	0xbce54153	-0.02798525
179	0xbef847cb	-0.48492274
180	0xbd941458	-0.07230443
181	0xbedc61c5	-0.43043342
182	0xbe8a02c8	-0.26955247
183	0x3e3bd3a6	0.18342456
184	0x3ed59830	0.41717672
185	0x3f0496ff	0.517929
186	0x3f2f08e8	0.68372965
187	0x3eb328ce	0.3499207
188	0xbdcb87bb	-0.09937998
189	0x3e7e4af7	0.24833284
190	0x3e8ce508	0.27518487
191	0xbfa5d42c	-1.2955375
192	0x3f230952	0.63686097
193	0xbcc9a8db	-0.02461665
194	0xbddfc75c	-0.10926697
195	0xbca8078c	-0.020511411
196	0x3cf1e77c	0.029529326
197	0x3e6e0b6a	0.23246542
198	0xbd1c75ad	-0.038198162
199	0x3e352133	0.17688446
200	0x3e9478fc	0.28998554
201	0x3e0a74f0	0.1352117
202	0xbebe804e	-0.37207264
203	0x3e3bbbd3	0.18333368
204	0xbd72693a	-0.059182383
205	0x3dfdc7d3	0.12391629
206	0x3e0a6a98	0.13517225
207	0xbf1e7fe2	-0.61913884
208	0xbe2d2964	-0.1691032
209	0xbf00e5b1	-0.5035048
210	0xbe08020e	-0.13282034
211	0xbe55668e	-0.20839903
212	0xbd8d9187	-0.06912523
213	0xbf91235b	-1.1338915
214	0x3e2f1b59	0.17100276
215	0xbdb551f8	-0.08853525
216	0x3ed4c044	0.41552937
217	0x3f13c694	0.5772488
218	0x3e5930ef	0.21210073
219	0x3d9e5719	0.07731456
220	0xbe6ad659	-0.2293333
221	0xbdf44c7a	-0.11928649
222	0xbeef7aa0	-0.46773243
223	0xbea24efc	-0.31700885
224	0x3e824cfe	0.25449365
225	0x3e6ed438	0.23323143
226	0x3c2973cf	0.010342552
227	0xbbdf0273	-0.006805712
228	0xbea0ba9b	-0.3139237
229	0xbe03a848	-0.12857163
230	0xbe18a9e8	-0.14908564
231	0x3e2c5751	0.16830184
232	0x3f625eef	0.8842611
233	0xbe3693e2	-0.1782985
234	0xbfae7e82	-1.3632357
235	0xbe47e5a0	-0.19521189
236	0xbdb8a305	-0.090154685
237	0xbe37aa2f	-0.17936014
238	0x3d16e9bd	0.036844004
239	0xbd945ba8	-0.072440445
240	0x3e21d72f	0.15804742
241	0x3f05cadf	0.5226268
242	0xbecc89b0	-0.39948797
243	0xbec9f502	-0.3944474
244	0xbe05b441	-0.13057043
245	0xbe7fcd0b	-0.24980561
246	0x3e8cff81	0.27538684
247	0xbe71d0fc	-0.23614877
248	0xbd3cfac8	-0.0461376
249	0xbc9d1bed	-0.019178355
250	0xbf0b3dee	-0.5439137
251	0x3c374c07	0.01118756
252	0xbe2c8222	-0.16846517
253	0xbf9a6713	-1.2062706
254	0xbeab2c61	-0.33432296
255	0x3e9439f0	0.28950453

layers.1.bias f4 [16]
0	0xbd50f730	-0.051016986
1	0xbe9b7a79	-0.30366877
2	0x3d04bda3	0.032407414
3	0xbd2f982c	-0.04286973
4	0x3f30bf41	0.6904183
5	0x3dbeeba8	0.093222916
6	0x3ed8624e	0.422625
7	0xbda9c906	-0.08290295
8	0x3dc07943	0.09398129
9	0x3d81898e	0.063250646
10	0xbdbd2d32	-0.09237136
11	0xbd77fb61	-0.060542468
12	0x3e81cc7a	0.25351316
13	0x3eab4cb1	0.33456948
14	0x3d1e28b4	0.038613036
15	0x3d4be587	0.04977944

final.linears.0.weight f4 [98, 49]
0	0x3e9a3499	0.30118254
1	0x3e36eeaa	0.1786448
2	0xbd629ea0	-0.055327058
3	0xbd8178cc	-0.06321868
4	0xbdb6951f	-0.08915161
5	0xbe3fa65a	-0.18715802
6	0x3e18a1da	0.14905491
7	0x3d992949	0.07478578
8	0xbcdc48c2	-0.026890162
9	0xbe00b66c	-0.12569588
10	0xbde2a05c	-0.110657424
11	0x3e565811	0.20932032
12	0xbe78dce2	-0.2430301
13	0x3e869fdf	0.26293847
14	0xbe84b3b6	-0.2591836
15	0xbc7ba3d3	-0.015358883
16	0x3ec87694	0.39152968
17	0x3c0326a6	0.00800482
18	0xbd20cd2e	-0.039258175
19	0xbbe6ae55	-0.007039825
20	0xbd733a5b	-0.059381824
21	0x3c2811bb	0.0102581335
22	0xbd87d097	-0.06631582
23	0x3c879c69	0.016554074
24	0x3d4b7e70	0.049681127
25	0xbc96fc6d	-0.018430913
26	0x3e033e6c	0.12816781
27	0xbca9c798	-0.020725057
28	0xbc007dc1	-0.007842482
29	0x3d24a3a7	0.040195134
30	0x3c5f5b01	0.013632537
31	0x3de865e1	0.11347557
32	0x3dc9a89d	0.098466136
33	0x3c2d6f29	0.010585585
34	0x3d0b0200	0.033937454
35	0xbd258508	-0.04041007
36	0xbb1ca174	-0.0023899944
37	0x3b3e3726	0.002902457
38	0x3d16d981	0.03682852
39	0x3d99d7c5	0.07511858
40	0xbc89037e	-0.016725298
41	0xbcbc7d62	-0.023009006
42	0xbd86c1d6	-0.0657994
43	0x3c9c4cca	0.019079585
44	0xbae76dd1	-0.0017656629
45	0xbcad6292	-0.021165166
46	0x3d8943f1	0.06702412
47	0xbcaa6c6d	-0.020803655
48	0x3caad4f1	0.020853492
49	0x3c396d02	0.011317493
50	0xbd4e20cd	-0.05032425
51	0xbf71721e	-0.94314754
52	0x406f3c52	3.7380567
53	0xbf755690	-0.9583521
54	0xbf12bbce	-0.5731782
55	0x3d5e8ae8	0.05433169
56	0xbd1a1ff5	-0.037628133
57	0x3c377e05	0.011199479
58	0xbf318bb3	-0.6935379
59	0xbf1926ac	-0.59824634
60	0x3d9a9423	0.07547786
61	0xbcc459c6	-0.023968589
62	0xbd26ea5b	-0.040750843
63	0x3d6c5e50	0.05770713
64	0xbd3c7a64	-0.04601516
65	0xbba73342	-0.005102546
66	0x3c61a2cc	0.013771724
67	0xbe355a66	-0.17710266
68	0x3e00cd49	0.1257831
69	0xbdfd88a7	-0.1237958
70	0x3e395f90	0.1810286
71	0x3de547a9	0.11195309
72	0xbdc2b676	-0.09507458
73	0xbdb0204a	-0.08599909
74	0x3d8a154a	0.06742342
75	0x3bcf12d6	0.006319384
76	0x3e100d20	0.14067507
77	0x3d4a6922	0.04941667
78	0x3d1ce397	0.038302984
79	0xbdf061b8	-0.11737388
80	0x3e01de53	0.12682466
81	0x3df65c16	0.12029283
82	0x3dc3775e	0.09544252
83	0xbcbabafd	-0.022794241
84	0xbd27403f	-0.040832754
85	0xbca8f3d2	-0.020624075
86	0xbd573261	-0.05253828
87	0x3c8f5441	0.01749623
88	0xbd810178	-0.06299108
89	0x3cf60ec9	0.030036347
90	0xbd8bee5e	-0.06832574
91	0xbd48a0dc	-0.048981532
92	0xbda137c0	-0.078719616
93	0x3d4c0c36	0.049816333
94	0xbcfb4c44	-0.030676015
95	0xbd4b6b52	-0.049662896
96	0x3ca46000	0.020065308
97	0x3da5e0fa	0.080995515
98	0x3ebc3303	0.3675767
99	0x3cd7d6c6	0.02634753
100	0xbf43fba8	-0.7655587
101	0xbf472e5a	-0.778051
102	0xbf4c1b7d	-0.79729444
103	0xbf3cf201	-0.7380677
104	0xbd2b0310	-0.041750968
105	0xbeddc938	-0.4331758
106	0x3e3df51d	0.18550535
107	0xbf62f902	-0.88661206
108	0xbf4fc0cd	-0.81153566
109	0xbf798ea0	-0.97483253
110	0xbf17350a	-0.59065306
111	0x3e828da1	0.2549868
112	0x3f122053	0.5708057
113	0xbf8d33dc	-1.1031451
114	0x3f699d66	0.91255796
115	0x3c514efd	0.01277518
116	0xbd5457fa	-0.051841713
117	0x3d59f6e8	0.053213984
118	0x3a656ff2	0.0008752338
119	0x3c9c1d3e	0.019056913
120	0xbb34ea62	-0.0027605523
121	0xbcfabbf8	-0.030607209
122	0xbc4e21fa	-0.012581343
123	0x3cb1ed36	0.021719556
124	0x3d884b7f	0.06655025
125	0x3c937c11	0.018003495
126	0xbcfa0d9e	-0.030524071
127	0x3c84c47c	0.016206972
128	0x3d2afeb1	0.0417468
129	0xbd227d67	-0.039670374
130	0xbd0263ec	-0.031833574
131	0xbc0290a6	-0.007969057
132	0x3da75665	0.08170775
133	0xbcd1a540	-0.025591493
134	0xbdc15fb7	-0.09442084
135	0xbd3d22ac	-0.046175644
136	0xbb178fa4	-0.0023126388
137	0x3d71388f	0.05889183
138	0x3c573075	0.013134112
139	0xbbc39b07	-0.0059694084
140	0xbc89f22d	-0.016839111
141	0xbc8a849d	-0.016908938
142	0xbc96058f	-0.018313197
143	0xbc482907	-0.012216813
144	0x3d462eb2	0.048384376
145	0x3d0571c8	0.032579213
146	0xbd87ae75	-0.06625072
147	0xba909b46	-0.0011032603
148	0x3f07735b	0.52910393
149	0xbdde5d35	-0.108576216
150	0xbe1aca53	-0.15116243
151	0xbdc957c4	-0.09831193
152	0x3f89a403	1.0753177
153	0x3fa72bad	1.3060204
154	0xbf329f14	-0.69773984
155	0x3f7353fa	0.95050013
156	0xbe8d6774	-0.2761799
157	0x3dc48af3	0.09596815
158	0xbfb62ac8	-1.4231806
159	0xbdabb665	-0.08384398
160	0xbf836df2	-1.0267928
161	0xbfdb4845	-1.713143
162	0x3f9d3f19	1.2284881
163	0x3f45a687	0.77207226
164	0xbd80012b	-0.06250223
165	0x3dc91b54	0.098196656
166	0x3c9d00c5	0.019165406
167	0x3dfebfa0	0.12438893
168	0xbca1e119	-0.019760655
169	0xbcd8e8c3	-0.026478177
170	0x3cc6f916	0.024288695
171	0xbd640adb	-0.055674415
172	0xbd0338d7	-0.03203663
173	0xbda90127	-0.08252173
174	0xbcb80c55	-0.022466818
175	0xbdbf57a0	-0.09342885
176	0xbce2676e	-0.02763721
177	0x3cbeb0e9	0.023277717
178	0xbd957377	-0.07297414
179	0xbcf17acb	-0.029477498
180	0xbdbd36e9	-0.09238989
181	0x3dad5f95	0.084654965
182	0xbd336511	-0.043797556
183	0xbb0870b5	-0.0020819132
184	0xbd014b2f	-0.03156584
185	0xbdcedc6d	-0.10100637
186	0xbd264493	-0.04059274
187	0xba2555d4	-0.000630704
188	0x3d6d9881	0.058006767
189	0xbc72c107	-0.014816529
190	0x3d23268b	0.03983168
191	0x3d4b30c9	0.049607072
192	0x3d0f1ed3	0.034941506
193	0x3d80e436	0.06293528
194	0xbc69edc3	-0.014277878
195	0xbda944bd	-0.08265064
196	0x3f5af019	0.8552261
197	0x3f9025e1	1.126156
198	0xbe00fc50	-0.1259625
199	0xbdfb087d	-0.122574784
200	0xbe57bfad	-0.21069212
201	0xbef01d68	-0.46897435
202	0x400dbd51	2.21468
203	0xbf5710a0	-0.8400974
204	0xbff314f7	-1.8990773
205	0xbe1f57b5	-0.15560801
206	0xbe4a9707	-0.19784175
207	0x3f8e854e	1.1134431
208	0xbfaf61e9	-1.3701755
209	0xbf9d0a81	-1.226883
210	0x3f7d996e	0.9906224
211	0x3ef60905	0.48053756
212	0x3f692168	0.910666
213	0xbe15bfa5	-0.14623888
214	0x3deabd8e	0.11461936
215	0x3d13f620	0.036123395
216	0x3d23aa85	0.039957542
217	0xbe37602c	-0.1790778
218	0xbd34faca	-0.044184484
219	0x3e3dbd17	0.18529163
220	0xbd6fd389	-0.058551345
221	0xbddeb8af	-0.10875069
222	0xbd47789f	-0.048699018
223	0xbc84f9ac	-0.016232334
224	0xbe08f96b	-0.13376395
225	0xbd2e9bdd	-0.04262911
226	0x3d9c3845	0.0762792
227	0xbe6a7c87	-0.22899066
228	0xbda519fe	-0.08061598
229	0x3d1ce690	0.03830582
230	0x3d750cb0	0.059826553
231	0xbced5359	-0.028970407
232	0x3dbc259f	0.09186863
233	0xbd84d4d8	-0.06485909
234	0xbd4b230f	-0.04959398
235	0xbd2545ad	-0.04034965
236	0x3c379b23	0.011206421
237	0xbd1a0ce2	-0.037609942
238	0x3da1b43b	0.07895704
239	0xbd3bdc3f	-0.04586434
240	0x3d943dae	0.07238327
241	0x3e1eccb7	0.1550778
242	0xbd233037	-0.039840903
243	0x3e4285de	0.18996379
244	0xbd1abf19	-0.0377799
245	0xbe56efde	-0.2098994
246	0xbf0eeae0	-0.5582714
247	0x3e874bf8	0.26425147
248	0x3e580959	0.21097316
249	0x3e0ace72	0.13555315
250	0x3cdac697	0.026706023
251	0xbdebb55f	-0.11509203
252	0x3ed61d87	0.41819403
253	0xbe6fbdd9	-0.23412265
254	0x3e415694	0.18880683
255	0xbc60a84c	-0.013712

final.linears.0.bias f4 [98]
0	0x3a2ccdd5	0.00065919507
1	0x3d19e34f	0.037570294
2	0x3f00811a	0.50196993
3	0x3dcaff00	0.09911919
4	0x3e71da2f	0.23618387
5	0x3e3eabf7	0.18620287
6	0x3e998f85	0.2999231
7	0x3eb11f7b	0.3459433
8	0xbeac3ca3	-0.33640012
9	0xbe9cc381	-0.30617908
10	0x3e4400e5	0.19140966
11	0xbe3d0618	-0.18459356
12	0x3e0ca1ee	0.13733646
13	0x3e2278b1	0.15866353
14	0x3e9bf439	0.30459765
15	0xbd10f224	-0.035387173
16	0xbe03a155	-0.12854512
17	0xbe875999	-0.26435545
18	0x3e8808b8	0.26569152
19	0x3c8f167b	0.017466774
20	0x3cc1e07e	0.023666617
21	0xbe302302	-0.17200854
22	0x3c14a40f	0.009072318
23	0x3eef992f	0.46796557
24	0x3e860876	0.2617833
25	0x3eed5e3b	0.46360955
26	0x3d7f8288	0.062380344
27	0xbf462fd2	-0.7741672
28	0xbe22396b	-0.15842216
29	0xbda5fcef	-0.08104884
30	0x3e8a8f8e	0.2706265
31	0x3d97d925	0.07414464
32	0xbca2d6cd	-0.019877816
33	0x3afdcf6c	0.0019364185
34	0x3e51d813	0.20492582
35	0x3eeb2d1f	0.45932862
36	0xbe84c46b	-0.25931105
37	0x3e59ea3e	0.21280763
38	0x3dd5f87b	0.104477845
39	0xbd6a8024	-0.05725111
40	0x3f54bb0a	0.830979
41	0x3ec47771	0.38372377
42	0xbd3569b4	-0.04429026
43	0x3e8748e1	0.2642279
44	0x3e535523	0.20637946
45	0xbd0f02dc	-0.034914836
46	0x3e89033f	0.2676029
47	0xbe26cb5a	-0.1628851
48	0x3ea0188b	0.31268725
49	0x3e4e6528	0.20155776
50	0x3e273f61	0.16332771
51	0x3e90e971	0.28303102
52	0x3e19e7a5	0.15029772
53	0x3e208a80	0.15677834
54	0x3d96f660	0.07371211
55	0x3e8e83d1	0.27834943
56	0x3ecc5cec	0.39914644
57	0x3e954059	0.29150656
58	0x3eaa9a9e	0.3332109
59	0xbea6d236	-0.32582253
60	0x3e82a456	0.25516003
61	0x3d84c8c7	0.06483608
62	0xbcc542ee	-0.024079766
63	0xbec3d8e3	-0.3825141
64	0x3e86fdcd	0.2636551
65	0xbc39b9f3	-0.011335838
66	0xbe9d105f	-0.30676553
67	0x3e88b4fb	0.26700577
68	0xbf99a0d7	-1.200221
69	0xbd74327a	-0.05961845
70	0x3d9b2161	0.07574726
71	0x3eca7dc6	0.39549083
72	0x3e445aac	0.19175214
73	0x3e5a2c65	0.21305998
74	0x3dbcc8bd	0.09217975
75	0x3d9b146f	0.07572257
76	0xbb775eba	-0.003774567
77	0xbe994703	-0.2993699
78	0xbe47792d	-0.19479819
79	0x3e8f758b	0.28019366
80	0x3e74e888	0.23916829
81	0xbe1800d2	-0.14844063
82	0x3e8e49d8	0.27790713
83	0x3aa2b513	0.0012413583
84	0x3e8528cc	0.26007688
85	0xbd132f1d	-0.035933603
86	0x3ee049c9	0.43806294
87	0xbe9ce069	-0.3063996
88	0xbef506cc	-0.47856748
89	0xbed59686	-0.41716403
90	0x3db0ae36	0.08626978
91	0xbede5b1c	-0.43428886
92	0x3edcc9c8	0.43122697
93	0xbf1c16c2	-0.60972226
94	0xbe0f412b	-0.13989703
95	0xbdc71855	-0.09721438
96	0xbd469d03	-0.04848958
97	0xbee15b7c	-0.4401511

final.linears.1.weight f4 [98, 98]
0	0xbcf7c25a	-0.030244041
1	0xbeab6277	-0.3347356
2	0xbe8cd88d	-0.27508965
3	0xbe9e6911	-0.30939534
4	0xbebfec08	-0.37484765
5	0xbeb97ef8	-0.36229682
6	0xbe85013e	-0.2597751
7	0xbe7762d1	-0.24158789
8	0x3c43cfe8	0.011951424
9	0xbcff4380	-0.031160116
10	0x3cf2e293	0.029649055
11	0xbe477175	-0.19476874
12	0xbe7343ac	-0.23756284
13	0xbe843d6e	-0.25828117
14	0xbd88f592	-0.06687464
15	0xbcf4a729	-0.029864864
16	0xbe0a9d07	-0.13536464
17	0x3c7414b0	0.01489751
18	0xbdcfbe01	-0.10143662
19	0xbeb1762d	-0.34660473
20	0xbe2513b0	-0.16120791
21	0xbd31707a	-0.043320157
22	0xbe974453	-0.29544315
23	0xbdaec396	-0.08533399
24	0xbe2a214d	-0.16614266
25	0x3d763381	0.06010771
26	0xbe9e2350	-0.30886316
27	0x3e524c34	0.20536882
28	0xbe9d34d8	-0.3070438
29	0xbe310ded	-0.17290469
30	0xbe53dd4e	-0.2068989
31	0xbe879aa7	-0.26485178
32	0xbe9579d9	-0.29194525
33	0xbe2bed82	-0.16789821
34	0xbea737c8	-0.32659745
35	0xbe8e7b7c	-0.27828586
36	0xbe74edfb	-0.23918907
37	0xbeaea5f4	-0.34110987
38	0xbe24bf78	-0.16088665
39	0xbeb7787d	-0.35834113
40	0xbea75908	-0.32685113
41	0xbdb014d1	-0.085977204
42	0xbe067f79	-0.13134564
43	0xbe881f13	-0.26586208
44	0xbeb9c86f	-0.3628573
45	0xbe5c7170	-0.21527648
46	0xbe70d32e	-0.23518059
47	0xbdbe1bdd	-0.09282658
48	0xbec7bdda	-0.39012033
49	0x39b6a598	0.00034837122
50	0xbbb94638	-0.0056541227
51	0xbec2b516	-0.38028783
52	0xbe9875a0	-0.2977724
53	0xbe9f9bb7	-0.31173488
54	0xbe165f30	-0.14684749
55	0xbe92ce1b	-0.2867287
56	0xbf8a9492	-1.082659
57	0xbdf44279	-0.11926741
58	0xbd975715	-0.073896565
59	0xbe049ddf	-0.12950848
60	0xbda74927	-0.081682496
61	0x3cc80183	0.024414783
62	0xbe327aa4	-0.17429596
63	0xbe051669	-0.1299683
64	0xbe087107	-0.13324367
65	0xbdbeee7b	-0.0932283
66	0xbe20cb41	-0.15702535
67	0xbe471d2b	-0.1944472
68	0x3e36b726	0.17843303
69	0x3d8a6967	0.06758385
70	0x3d15b2ca	0.03654746
71	0xbd36d260	-0.044634223
72	0xbe9f6cd9	-0.31137732
73	0xbc8ad680	-0.016947985
74	0xbe7a0308	-0.24415219
75	0xbec572fb	-0.38564286
76	0xbdf0b37b	-0.11752983
77	0xbe6767ed	-0.22598238
78	0xbdaa8c34	-0.08327523
79	0xbe409362	-0.18806222
80	0xbeb3bfca	-0.3510726
81	0xbe424887	-0.1897298
82	0xbe50dc92	-0.20396641
83	0xbdd5f7dc	-0.10447666
84	0xbd05f184	-0.03270103
85	0xbe002984	-0.12515837
86	0xbeb231ed	-0.34803715
87	0x3dd0d600	0.10197067
88	0x3b20c31f	0.0024530364
89	0x3d300e02	0.04298211
90	0x3c5cccdf	0.013476579
91	0x3e7ebe39	0.24877252
92	0xbe1682a8	-0.14698279
93	0x3de34006	0.11096196
94	0xbdf55acb	-0.11980208
95	0x3e22257e	0.15834615
96	0xbe83819a	-0.25684816
97	0x3db9bec5	0.090695895
98	0x3d64797c	0.05577992
99	0xbcdb83b2	-0.026796196
100	0x3ea1fc01	0.31637576
101	0x3bcbdf1f	0.0062216665
102	0x3d02d629	0.03194252
103	0x3c8efefe	0.017455574
104	0xbb985015	-0.0046482184
105	0xbbf66934	-0.0075198654
106	0x3d697d41	0.057004217
107	0x3d481ad9	0.04885373
108	0x3e45ada4	0.1930452
109	0xbd569ec5	-0.05239751
110	0xbd6aba33	-0.05730648
111	0xbdf92662	-0.12165524
112	0xbd254e6c	-0.040357992
113	0x3da58ded	0.08083711
114	0xbc617c8e	-0.013762606
115	0xbd2af2c1	-0.041735414
116	0xbc9bf479	-0.019037472
117	0x3bdc5830	0.00672438
118	0xbd4819f4	-0.048852876
119	0xbb9eae80	-0.0048425794
120	0xbc4b6b2c	-0.0124156885
121	0x3ce05f3d	0.027389163
122	0x3ace5332	0.0015741347
123	0xbd8035f4	-0.06260291
124	0x3bd915d6	0.0066249175
125	0x3d0b5e4d	0.03402548
126	0xbb79304a	-0.0038023167
127	0xbccb0117	-0.024780793
128	0x3bdec9f9	0.0067989794
129	0x3d92fa40	0.07176638
130	0xbdb71948	-0.08940369
131	0x3cd711fb	0.026253691
132	0xbb9554fc	-0.00455725
133	0xbd371774	-0.0447001
134	0xbc88631c	-0.016648822
135	0xbc6be83d	-0.014398632
136	0x3e1d90e1	0.15387298
137	0xbdcf11f6	-0.10110848
138	0xbc313e95	-0.010818143
139	0x3cca9569	0.024729447
140	0xbce2a6e2	-0.027667467
141	0xbca407bc	-0.02002322
142	0x3e627d60	0.2211814
143	0xbd0ddba7	-0.034633305
144	0x3d2aeef2	0.041731782
145	0xbe45884d	-0.19290276
146	0xbd680a73	-0.05665059
147	0xbd1c5836	-0.038170062
148	0x3cb67feb	0.022277793
149	0xbcbd00f7	-0.02307175
150	0xbd30c8c1	-0.043160204
151	0xbdc7d6c6	-0.09757762
152	0xbc3ef396	-0.011654755
153	0xbc88e1d9	-0.016709255
154	0xbbc9cbb9	-0.006158319
155	0xbd5ba22c	-0.053621456
156	0xbbe41cc5	-0.0069614374
157	0x3e835c95	0.25656572
158	0x3d8f7ede	0.0700662
159	0x3d058ae4	0.03260316
160	0x3d88d5a0	0.06681371
161	0xbc3ba0bc	-0.011451896
162	0x3d23f119	0.04002485
163	0xbdc36e8d	-0.0954257
164	0xbc85e1f3	-0.016343093
165	0x3dac565d	0.0841491
166	0xbca19955	-0.019726435
167	0xbc270110	-0.010193124
168	0xbd1dd5ca	-0.038533963
169	0xbd860ffb	-0.06546017
170	0xbcdd6cf8	-0.0270295
171	0xbc596f9c	-0.013271239
172	0x3b9fc5ba	0.0048758658
173	0x3d099411	0.033588473
174	0x3cfdbf94	0.03097514
175	0x3db13edd	0.08654568
176	0x3e099d44	0.13438898
177	0x3b25ef76	0.0025319732
178	0xbd765885	-0.060143013
179	0xbdb119c2	-0.08647491
180	0xbbd77788	-0.0065755285
181	0xbabcd540	-0.0014406815
182	0x3c4f25a4	0.012643252
183	0xbd3acd00	-0.04560566
184	0xbbd5aa69	-0.0065205586
185	0xbe1f5c22	-0.1556249
186	0xbd8c6af6	-0.06856339
187	0xbd231ca3	-0.039822232
188	0x3d26dff4	0.040740922
189	0xb83acf00	-4.453864e-05
190	0xbc98bf8e	-0.018646028
191	0x3cca3b3f	0.024686454
192	0x3dd0482a	0.10170014
193	0x3c5efaf3	0.013609636
194	0x3dac1f82	0.08404447
195	0x3bf0ec2d	0.007352373
196	0xbca82303	-0.020524507
197	0xbe097260	-0.13422537
198	0xbe2ced68	-0.16887438
199	0xbe253a7f	-0.16135596
200	0xbe3efa09	-0.18650068
201	0xbe854a2e	-0.26033157
202	0xbdf61b1b	-0.12016889
203	0xbe16a8cb	-0.14712827
204	0xbe8971c1	-0.268446
205	0x3d86118d	0.06546316
206	0xbd99515a	-0.0748622
207	0xbe615868	-0.2200638
208	0xbbbf97f0	-0.00584697
209	0xbe00c82d	-0.12576361
210	0xbd511989	-0.051049743
211	0x3ccd2f66	0.025047015
212	0xbd96cb98	-0.07363051
213	0xbe09fdbf	-0.13475703
214	0xbc273e70	-0.010207757
215	0xbe223684	-0.15841109
216	0xbe3cfed1	-0.1845658
217	0xbde6ee7a	-0.112759545
218	0xbe13c861	-0.14431907
219	0xbe961c35	-0.29318395
220	0x3e9aa067	0.30200502
221	0xbe4ba647	-0.19887649
222	0xbe010c9f	-0.12602471
223	0x3e0cd055	0.13751347
224	0xbdd98816	-0.106216595
225	0x3d5d326c	0.054003164
226	0xbdff328e	-0.124608144
227	0xbdf83786	-0.12119965
228	0xbe6076c4	-0.21920305
229	0xbe09b971	-0.13449647
230	0xbe601b7c	-0.21885484
231	0xbdf95058	-0.121735275
232	0xbcce5fa2	-0.025192086
233	0xbe8b13b1	-0.2716346
234	0xbe042b1c	-0.1290707
235	0xbe005d98	-0.12535703
236	0xbeeb4e73	-0.4595829
237	0xbe38861d	-0.1801991
238	0xbe1e26aa	-0.15444437
239	0xbe1d8e32	-0.15386274
240	0xbe3b5f89	-0.18298163
241	0xbdf185c0	-0.11793089
242	0xbe0c176b	-0.13680808
243	0xbcd715a8	-0.026255444
244	0xbda67fe6	-0.081298634
245	0xbd83da3d	-0.0643811
246	0xbe0c8190	-0.13721299
247	0xbe2c5a6e	-0.16831371
248	0xbe20e9a8	-0.15714133
249	0xbdb03348	-0.08603531
250	0xbd223c5c	-0.039608344
251	0xbe2f60e8	-0.1712681
252	0xbe07975b	-0.13241331
253	0xbd6c44e5	-0.05768289
254	0xbe118c64	-0.14213711
255	0xbd3fcd2b	-0.046826523

final.linears.1.bias f4 [98]
0	0xbe9e3e4f	-0.30906913
1	0x3dcb5f33	0.09930267
2	0x3d25b3b0	0.040454566
3	0xbe3e205b	-0.1856703
4	0x3ba75082	0.005106033
5	0xbe344c88	-0.1760732
6	0xbef9320f	-0.48671004
7	0xbe057287	-0.1303197
8	0xbd5a4673	-0.05328984
9	0xbea48ea3	-0.32140073
10	0xbe95f00f	-0.29284713
11	0xbeaa45d4	-0.332564
12	0xbe89c9ae	-0.26911682
13	0xbda137a6	-0.07871942
14	0xbe6fdbc7	-0.23423682
15	0xbe8c8932	-0.27448422
16	0xbe8b42fb	-0.2719954
17	0xbe0ac64f	-0.13552211
18	0x3e1b7a36	0.15183339
19	0xbd3ba0b9	-0.045807574
20	0xbe08cf43	-0.13360314
21	0xbe459082	-0.19293407
22	0xbdb0d2ae	-0.08633934
23	0xbe5f6c11	-0.21818568
24	0xbe300608	-0.171898
25	0xbd03c0f2	-0.03216643
26	0xbe122a1c	-0.14273876
27	0xbde2223e	-0.110416874
28	0xbe8722a8	-0.26393628
29	0xbe4a63f2	-0.19764689
30	0xbdc9d2fe	-0.09854697
31	0xbdeceaff	-0.115682594
32	0xbe8de374	-0.27712595
33	0xbea49159	-0.3214214
34	0xbe50c922	-0.20389226
35	0x3d1cb092	0.038254328
36	0xbea354b3	-0.31900558
37	0xbe467c21	-0.19383289
38	0xbd3fa17e	-0.04678487
39	0xbd4b4244	-0.049623743
40	0xbd4fc866	-0.050728224
41	0xbe1d279f	-0.15347145
42	0xbe06385e	-0.1310744
43	0x3c8844b8	0.01663433
44	0xbe89f488	-0.26944375
45	0xbd8c66b6	-0.06855528
46	0xbe83276a	-0.25616008
47	0xbe1aebdc	-0.15129036
48	0xbeaf67d8	-0.34258914
49	0xbd99f6cf	-0.07517778
50	0xbe6c9053	-0.2310193
51	0xbe64269f	-0.22280358
52	0xbe2ed7ba	-0.1707448
53	0xbe711de5	-0.2354656
54	0x3f384792	0.7198421
55	0xbe3f428a	-0.18677726
56	0xbe3897ec	-0.18026704
57	0xbdc5f413	-0.09665694
58	0xbedf0d61	-0.43564895
59	0xbe8b3b2c	-0.27193582
60	0xbe204a0d	-0.15653248
61	0xbdfff49d	-0.12497828
62	0xbe4837d6	-0.1955255
63	0xbec3ba53	-0.38228092
64	0xbe7b9af3	-0.24570827
65	0xbe8a9874	-0.27069438
66	0xbe8a7add	-0.27046862
67	0x3e1ac25e	0.15113208
68	0xbeb954ae	-0.36197418
69	0xbebd2807	-0.369446
70	0xbe89d5eb	-0.2692102
71	0xbf13834b	-0.5762221
72	0xbdd06cdf	-0.101770155
73	0xbe2a7ba1	-0.16648723
74	0xbe697ef6	-0.22802338
75	0xbea61cb6	-0.3244378
76	0xbdd8e5ed	-0.1059073
77	0xbeffebba	-0.49984533
78	0x3cce6507	0.025194658
79	0x3addf062	0.0016932602
80	0x3d869646	0.06571631
81	0xbe1545ab	-0.14577357
82	0xbebe0395	-0.37112108
83	0xbd044fff	-0.032302853
84	0xbeb23b5f	-0.34810922
85	0xbe6993eb	-0.22810332
86	0xbdc6f7c7	-0.097152285
87	0xbe009af6	-0.12559113
88	0xbe0b52d0	-0.13605809
89	0xbe26387c	-0.16232485
90	0xbe9dc0dd	-0.30811206
91	0xbd8165e1	-0.0631826
92	0xbea07680	-0.31340408
93	0xbe961a98	-0.29317164
94	0xbb91035b	-0.004425449
95	0x3e038c6d	0.12846537
96	0xbe9432f1	-0.28945115
97	0xbe1784eb	-0.14796798

final.linears.2.weight f4 [17, 98]
0	0x3ea6f8ed	0.3261179
1	0x3cc08871	0.02350256
2	0xbbbb1163	-0.00570886
3	0xbe77d8bd	-0.24203773
4	0xbe447380	-0.19184685
5	0xbcb6fad3	-0.0223364
6	0xbe1fd74d	-0.15609474
7	0xbb3adf7b	-0.0028514552
8	0x3dcf595c	0.10124466
9	0x3e90fd39	0.28318194
10	0x3f1373a8	0.5759835
11	0xbe770475	-0.24122794
12	0x3e08a2c8	0.13343346
13	0x39ad0420	0.00033000205
14	0x3ebe1dc7	0.37132093
15	0x3e0ba84d	0.1363842
16	0xbdb4ea7c	-0.08833787
17	0x36aa26c8	5.0709095e-06
18	0xba826203	-0.0009947423
19	0x3cc608ad	0.024174059
20	0xbe1b5bf2	-0.15171793
21	0x3d1656d2	0.036703892
22	0xbc99ee4c	-0.018790387
23	0x3ee4de7b	0.4470099
24	0xba13c6ed	-0.0005637247
25	0x3e396ead	0.18108626
26	0xbd82beb5	-0.06384031
27	0x3d04a13f	0.03238034
28	0xbcee841f	-0.029115735
29	0x3d0d7f40	0.034545183
30	0x3c326adf	0.010889738
31	0xbde66bde	-0.11251043
32	0x3ebfee00	0.37486267
33	0xbd8b2424	-0.06794003
34	0x3d330efc	0.043715462
35	0xbdd90188	-0.10595995
36	0x3c9e72ac	0.01934179
37	0x3ea6b688	0.32561135
38	0x3e5e59c7	0.21713935
39	0x3c14c579	0.009080284
40	0x3c5a354b	0.01331837
41	0x3d253467	0.040333178
42	0x3d8afe09	0.067867346
43	0xbd780c14	-0.060558394
44	0xbea82814	-0.32843077
45	0xbe6a3ade	-0.22874019
46	0xbf0809ea	-0.5314013
47	0x3e2d7d50	0.16942334
48	0x3f857d89	1.0428935
49	0xbb8df38e	-0.0043320125
50	0xbefbd2a5	-0.49184147
51	0x3cd70de4	0.02625174
52	0xbdaa86e8	-0.083265126
53	0xbcb66ef4	-0.022269703
54	0x3b516cbd	0.0031955682
55	0xbd87a852	-0.066239014
56	0xbf000452	-0.5000659
57	0x3d57fe19	0.05273256
58	0x3c411d3b	0.011786754
59	0xbf0a5a53	-0.54044074
60	0x3ba3fae5	0.005004274
61	0xbe3c6307	-0.18397151
62	0x3dbd4fda	0.09243746
63	0x3eb3f0d6	0.3514468
64	0xbd2ccc0f	-0.042186793
65	0xbe978b6b	-0.29598555
66	0x3e8062e7	0.25075457
67	0x3d80e54b	0.06293734
68	0x3dab8cd5	0.08376471
69	0x3d7f2a6d	0.06229632
70	0xbe43f929	-0.19138016
71	0xbd42b772	-0.04753823
72	0xbbcd9e7a	-0.0062749954
73	0x3c8652be	0.016396876
74	0xbca2ada4	-0.019858189
75	0xbd310ad2	-0.04322321
76	0xbd9a2d85	-0.075282134
77	0xbc2e484b	-0.010637353
78	0x3e704bab	0.23466365
79	0x3d8c306d	0.06845174
80	0x3c79f79d	0.0152567895
81	0xbd1fa98a	-0.038980044
82	0xbef43d7f	-0.47703168
83	0xbd9b47ba	-0.0758204
84	0x3eaae960	0.33381176
85	0xbde0e695	-0.1098148
86	0xbe71cec1	-0.23614027
87	0x3e632353	0.22181444
88	0xbb96e825	-0.0046053105
89	0xbe0307a7	-0.12795888
90	0xbe7bd253	-0.24591951
91	0x3e6864b6	0.22694668
92	0xbdc42613	-0.095775746
93	0xbef84c3c	-0.48495662
94	0x3d56a032	0.052398868
95	0xbdfac049	-0.12243707
96	0x3d850546	0.064951465
97	0xbb24d201	-0.0025149586
98	0x3f3c9b12	0.7367412
99	0xbd3a5379	-0.045489762
100	0xbc50e62e	-0.012750192
101	0xbd330a89	-0.04371122
102	0xbcb7707f	-0.02239251
103	0x3cc990ab	0.024605116
104	0x3e075076	0.13214287
105	0x3ad38db5	0.0016140254
106	0x3c9814f7	0.018564684
107	0x3df41364	0.11917761
108	0xbe437380	-0.19087029
109	0x3d54ed52	0.05198414
110	0x3b6655fb	0.0035146463
111	0xbdf7609d	-0.120789744
112	0x3dfe4638	0.12415737
113	0x3d91829b	0.07104989
114	0x3eaae376	0.33376664
115	0x3cc83d10	0.02444318
116	0x3e3a37e0	0.18185377
117	0x3d95b032	0.07308997
118	0xbe082cc5	-0.13298328
119	0xbd98d968	-0.07463342
120	0xbc5bc54f	-0.013413741
121	0xbf28cd5e	-0.65938365
122	0x3aa260da	0.0012388483
123	0xbc6f89b2	-0.014620231
124	0x3d4b1466	0.04958
125	0x3e85a2a5	0.2610065
126	0x3d1e1e33	0.03860302
127	0x3e63b754	0.22237903
128	0xbdf17c8c	-0.117913336
129	0x3e17f00d	0.14837666
130	0xbeab5e33	-0.33470306
131	0xbb347b77	-0.002753941
132	0xbd1a207e	-0.037628643
133	0xbcce03be	-0.025148269
134	0xbe231840	-0.1592722
135	0xbd142ace	-0.036173634
136	0xbdd948b3	-0.106095694
137	0xbcffffbd	-0.031249875
138	0xbc8b9727	-0.017039848
139	0x3ea2d47a	0.31802732
140	0x3c1ce1ab	0.009575288
141	0xbeb56e59	-0.3543575
142	0xbda9fd81	-0.08300305
143	0x3de241b4	0.11047688
144	0xbd94b615	-0.07261292
145	0x3f2aae52	0.6667224
146	0xbddb4631	-0.10706747
147	0x3e8ac52b	0.27103552
148	0xbf84f4f7	-1.0387257
149	0x3d406497	0.04697093
150	0xbc8aedc0	-0.016959071
151	0x3c99ef71	0.018790932
152	0xba54ff98	-0.00081252446
153	0xbdf548cd	-0.11976776
154	0x3d7818aa	0.060570396
155	0xbe657fec	-0.2241208
156	0xbba6807b	-0.005081234
157	0xbe16d7e4	-0.14730793
158	0xbdbc0d1b	-0.09182187
159	0x3d140137	0.03613397
160	0xbd5b6028	-0.0535585
161	0x3ea16ec4	0.3152982
162	0x3c8eb29b	0.01741915
163	0x3e80ad77	0.25132343
164	0xbe89fb6e	-0.26949638
165	0x3db06661	0.08613277
166	0xbcd5f47c	-0.026117556
167	0xbeaddd94	-0.33958113
168	0xbe5e8f94	-0.21734458
169	0x3c3dec25	0.011591946
170	0xbbcf3ddc	-0.006324513
171	0xba249014	-0.0006277573
172	0x3e2bf9aa	0.16794458
173	0xbd7cb227	-0.061693337
174	0x3e2cc9b7	0.16873823
175	0x3c4b26fc	0.012399431
176	0x3d671f4e	0.05642634
177	0xbd63c7aa	-0.055610336
178	0xbc0d1700	-0.008611441
179	0xbdafd7cd	-0.085860826
180	0x3e9439aa	0.28950244
181	0xbce2579a	-0.027629662
182	0x3c43f253	0.01195963
183	0xbe8c7fe3	-0.2744132
184	0x3c08c31b	0.008347298
185	0xbb8b2c00	-0.0042471886
186	0xbe85b414	-0.2611395
187	0x3bc3daab	0.005976995
188	0xbeb454b7	-0.35220882
189	0x3e2d0059	0.16894664
190	0x3d44924e	0.04799109
191	0x3f642ecf	0.89133924
192	0xbe1b45b0	-0.15163302
193	0x3a8a9b8c	0.0010574921
194	0xbd0191c7	-0.031633165
195	0x3b4a6de8	0.0030888263
196	0x3d88deac	0.06683096
197	0xbd421485	-0.04738285
198	0x3fccefbb	1.601066
199	0x3d223781	0.039603714
200	0xbd058565	-0.032597918
201	0xbf0dd8c9	-0.5540891
202	0x3ed36ab5	0.41292349
203	0x3e1c3014	0.15252715
204	0x3d23539f	0.03987467
205	0xbcf7a511	-0.030230077
206	0x3ddae64f	0.10688459
207	0x3d8cd4f7	0.06876557
208	0x3d8ea8d2	0.06965794
209	0xbb0ddf37	-0.002164794
210	0xbe9bb70e	-0.30413097
211	0x3e05158b	0.12996499
212	0x3e05169e	0.12996909
213	0x3e35f945	0.1777087
214	0xbe01c5a5	-0.12673052
215	0xbc15b7d4	-0.009138066
216	0xbe48968b	-0.19588678
217	0x3d0642f5	0.0327787
218	0xbd1eb914	-0.038750723
219	0xbea3782a	-0.31927615
220	0x3e51d08d	0.20489712
221	0x3bc07b77	0.005874093
222	0x3e0b52e5	0.1360584
223	0x3c3255f8	0.010884754
224	0x3dd11956	0.102099106
225	0x3d9ca3a3	0.07648399
226	0xbd97439e	-0.07385944
227	0xbecde4d3	-0.40213642
228	0x3e907012	0.28210503
229	0x3e4ef8b3	0.20212059
230	0xbd2c8b27	-0.042124894
231	0xbe149e4d	-0.14513512
232	0x3dcf49fc	0.10121533
233	0x3d9672af	0.07346093
234	0xbcf00b77	-0.029302342
235	0xbdf63de8	-0.120235264
236	0xbe3689e0	-0.17826033
237	0x3beca608	0.007221941
238	0x3d5d2d9a	0.053998567
239	0xbc2c2b8f	-0.010508432
240	0x3de2fec5	0.1108375
241	0x3d071cc3	0.032986414
242	0xbe5a8964	-0.21341473
243	0xbed29266	-0.41127318
244	0xbb9bf937	-0.0047599333
245	0xbd3045fa	-0.043035485
246	0xbe4541ef	-0.19263433
247	0x3e89eeed	0.26940098
248	0x3d8f7cdf	0.07006239
249	0x3d564a27	0.05231681
250	0xbe5d880d	-0.2163393
251	0x3caa5b3a	0.020795453
252	0xbdb20deb	-0.08694061
253	0x3d2cc772	0.042182393
254	0xbf1a14b0	-0.60187817
255	0x3e05cdb8	0.13066757

final.linears.2.bias f4 [17]
0	0x3c50572c	0.012716096
1	0xbd5d6e67	-0.054060366
2	0x3e47183f	0.19442843
3	0xbdd7f1d5	-0.10544173
4	0xbea79376	-0.3272969
5	0xbcedb766	-0.029018115
6	0xbc6d224d	-0.01447351
7	0x39b25eb2	0.0003402136
8	0x3d5735de	0.052541606
9	0x3e00c34e	0.12574503
10	0xbd5e16c5	-0.054220933
11	0xbc7d8588	-0.015473731
12	0x3c5dcb3f	0.013537227
13	0x3ccdc034	0.025116064
14	0x3ce0426b	0.02737542
15	0xbd209b2f	-0.039210495
16	0xbc903b2f	-0.017606346

layers.0.attn.0.gnn_q.weight f4 [17, 16]
0	0x3b548057	0.003242513
1	0xbc80fbb0	-0.015745014
2	0x381035ef	3.4382505e-05
3	0xb9005e49	-0.00012242155
4	0xb1d43fde	-6.177273e-09
5	0x3d469a0c	0.048486754
6	0x32c0ef80	2.2460654e-08
7	0xbd58389b	-0.05278836
8	0xb9b9e68c	-0.0003545772
9	0xb4ac9fd6	-3.2153793e-07
10	0x3d17309f	0.036911603
11	0x3ccbaf93	0.024863994
12	0xb938a694	-0.00017609663
13	0xbcde22a6	-0.027116131
14	0xbbc4e44d	-0.006008661
15	0x381350b9	3.512271e-05
16	0x3b2c90c9	0.0026331416
17	0x3c4af999	0.01238861
18	0xb92764ba	-0.00015963885
19	0xb9783488	-0.00023670692
20	0xb273c2de	-1.4188769e-08
21	0x3d13854f	0.036015805
22	0xb7cfb160	-2.475892e-05
23	0x3a9326bf	0.0011226757
24	0xb9dca44f	-0.0004208409
25	0x32908e13	1.6828414e-08
26	0xbbac9261	-0.005266473
27	0xbb2da92d	-0.0026498542
28	0xb9d690a3	-0.00040925023
29	0x39c20e6c	0.0003701331
30	0xbbcbfb25	-0.006225007
31	0x3914c4b1	0.00014187653
32	0x39e05c37	0.00042793315
33	0x3bee26dc	0.007267816
34	0x3660c490	3.3493016e-06
35	0xb933d30a	-0.00017149388
36	0x31c4f71a	5.732443e-09
37	0x3adc433a	0.0016804703
38	0x37031050	7.8120065e-06
39	0xbe196b3c	-0.14982313
40	0x39e28810	0.00043207454
41	0x3585de13	9.973904e-07
42	0xbe133a2c	-0.1437766
43	0x3d8b910c	0.06814775
44	0x39b6db5b	0.00034877178
45	0x3e2419a2	0.16025403
46	0x3be0aaf9	0.006856319
47	0x39bd10e6	0.0003606148
48	0xb99acf32	-0.00029527541
49	0x3b7d34a2	0.0038636108
50	0xb6a8b7ec	-5.0282015e-06
51	0x3706a2c7	8.024922e-06
52	0x31ed04a9	6.8981376e-09
53	0x3b1c6875	0.0023865972
54	0x36710357	3.5913743e-06
55	0xbe8a5ca9	-0.2702382
56	0x374b4432	1.2115621e-05
57	0xb4932e28	-2.7414467e-07
58	0x3dd05ff4	0.101745516
59	0x3e99e4f9	0.30057505
60	0x3a588896	0.0008260099
61	0xbe3a87c3	-0.18215851
62	0xbb254936	-0.002522064
63	0x397e5fca	0.00024259012
64	0x3b027d92	0.0019911272
65	0xbbd4c1ed	-0.0064928443
66	0x39283a07	0.00016043345
67	0xb8a4253d	-7.8270656e-05
68	0x3153d15e	3.0823553e-09
69	0x3bcd4ea8	0.00626548
70	0x37a6f9a6	1.9904994e-05
71	0x3da6be03	0.081417106
72	0x3912165f	0.00013931979
73	0x3562622f	8.4334437e-07
74	0xbd41ff5c	-0.04736267
75	0xbe00e73a	-0.12588206
76	0x39d9fe42	0.00041578902
77	0x3dc56227	0.09637862
78	0x3b790e2c	0.0038002832
79	0x3996b52a	0.00028745207
80	0x3a7535ce	0.0009354026
81	0x3bf91752	0.007601657
82	0xb90e3d36	-0.00013564978
83	0xb844d678	-4.692978e-05
84	0xb298443c	-1.7726158e-08
85	0x3c87899c	0.01654511
86	0xb89c451f	-7.4515345e-05
87	0x3d62f1f3	0.055406522
88	0xba2d3ca4	-0.00066084624
89	0xb4a1d378	-3.014245e-07
90	0x3b48ff28	0.0030669663
91	0xbd5cafbe	-0.05387854
92	0xb9deb1ac	-0.00042475516
93	0x3c0950b6	0.008381059
94	0xbc031074	-0.007999528
95	0x3828588c	4.0136787e-05
96	0x3b25cea3	0.0025300167
97	0x3afda082	0.0019350203
98	0xb7cf17b4	-2.468736e-05
99	0xb9541796	-0.00020226682
100	0xb1b69ade	-5.3145035e-09
101	0x3c374212	0.011185186
102	0x36b2046a	5.3053272e-06
103	0x3beefcbf	0.0072933133
104	0xb9bab242	-0.00035609497
105	0x3433f6ee	1.6760507e-07
106	0xbcc9d9cb	-0.024639985
107	0xbcba4b2a	-0.02274092
108	0xb9cd852f	-0.00039199876
109	0x3d207f9e	0.039184205
110	0xbbda0d78	-0.0066544376
111	0xb872e41e	-5.7909747e-05
112	0x3a8da966	0.0010807931
113	0x3a920125	0.0011139257
114	0x38bbb43c	8.950426e-05
115	0xb8175245	-3.6077825e-05
116	0xb29e4d1d	-1.8428688e-08
117	0xbb7b0ddd	-0.0038307824
118	0xb87492d3	-5.8310874e-05
119	0x3d1d0163	0.0383314
120	0xb9dd63c8	-0.00042226748
121	0x35286d2a	6.274373e-07
122	0xbc896820	-0.016773283
123	0xbc9e717c	-0.019341223
124	0xb9993aa7	-0.00029226133
125	0x3c87e381	0.016587975
126	0xbc1fac34	-0.009745646
127	0x38ebe595	0.00011248436
128	0x38f1f7bd	0.0001153792
129	0xbad1b50e	-0.0015999393
130	0xb6e904a2	-6.9444804e-06
131	0xb77f3476	-1.5211399e-05
132	0xb1207064	-2.334695e-09
133	0xbb667797	-0.0035166496
134	0x35ed13b7	1.7663614e-06
135	0xbc8f362c	-0.017481886
136	0xb92c9748	-0.00016459555
137	0xb54eb98e	-7.7011e-07
138	0xbb464148	-0.0030251313
139	0x3c9907c2	0.018680457
140	0xb9cb51cb	-0.00038780118
141	0xbba3714e	-0.004987872
142	0xbb47e9ba	-0.0030504302
143	0xb9715c34	-0.000230179
144	0x39a18d96	0.00030813803
145	0x3b0fe910	0.0021958984
146	0xb8e01d7f	-0.000106866464
147	0x38c13020	9.211921e-05
148	0xb0e270a4	-1.6475679e-09
149	0x3c2475f7	0.010037891
150	0x363fe566	2.8594745e-06
151	0xbd948908	-0.07252699
152	0xb910b2d8	-0.00013799535
153	0xb4edf4ba	-4.4322752e-07
154	0x3d0a1002	0.033706672
155	0x3d8497bb	0.06474253
156	0xb9a8a07d	-0.0003216303
157	0xbd7dab59	-0.061930988
158	0xb9792d3c	-0.00023763342
159	0xb929cc4c	-0.00016193202
160	0xbb11b1c6	-0.0022231205
161	0xba0706e5	-0.00051508687
162	0xb8b4dfc3	-8.624748e-05
163	0x38e702fe	0.00011015496
164	0xb1d30cf4	-6.142381e-09
165	0xbc81c08d	-0.015838886
166	0xb865b636	-5.476755e-05
167	0x3daa2034	0.083069235
168	0xb845d06a	-4.716256e-05
169	0xb556a7ca	-7.996538e-07
170	0xbd5c2b55	-0.053752262
171	0xbdbebfe3	-0.09313943
172	0xb88a5ee1	-6.598025e-05
173	0x3d91f3bb	0.07126566
174	0xba93e8c6	-0.0011284582
175	0xb994b2f9	-0.00028362105
176	0xbaded8ee	-0.0017001906
177	0xbb87734c	-0.0041336175
178	0x388e4440	6.7838e-05
179	0x3930a685	0.00016846701
180	0x325f1eac	1.2987282e-08
181	0xbcaf01f6	-0.02136324
182	0x37f3f73c	2.9082985e-05
183	0x3b8e1a73	0.004336649
184	0xb9a44dcc	-0.0003133848
185	0x34101bd8	1.3421175e-07
186	0xbc802428	-0.01564224
187	0x3b3ca469	0.002878452
188	0xb8eec268	-0.00011384935
189	0x3c60cedb	0.013721193
190	0xbc1c0c15	-0.009524365
191	0x36e0b3b4	6.6966404e-06
192	0x3936694d	0.000173961
193	0xbacae7cc	-0.0015480458
194	0xb94d3d63	-0.00019573192
195	0xb901f1fe	-0.00012392548
196	0xb2423cd7	-1.130612e-08
197	0x3c9f104b	0.019416949
198	0xb80753da	-3.22646e-05
199	0x3d32ec5c	0.04368244
200	0xb9f397e6	-0.00046461745
201	0xb584e748	-9.902078e-07
202	0x3c7f505c	0.015583124
203	0xbd030cab	-0.031994503
204	0xba3a71ca	-0.0007112293
205	0xbbc3fcda	-0.00598107
206	0xbc2a0772	-0.010377752
207	0xb97837a7	-0.00023671855
208	0xba91974d	-0.0011107713
209	0x3b3a7f2b	0.0028457146
210	0xb81101ae	-3.457226e-05
211	0xb7f5c68f	-2.9298737e-05
212	0x31a13fb6	4.69296e-09
213	0xbb91c0d2	-0.004448035
214	0x378309b1	1.562093e-05
215	0x3b903363	0.004400657
216	0xb9747140	-0.00023311842
217	0xb4ea7c92	-4.3676533e-07
218	0xbb8b2ddd	-0.0042474107
219	0x3ba4093c	0.0050059836
220	0x396286c0	0.00021603238
221	0x3b3ca1d7	0.0028782988
222	0x3abdcfe5	0.0014481513
223	0xb9423eac	-0.00018524629
224	0xba681890	-0.0008853758
225	0x3a9c6da9	0.0011934537
226	0x3838e4f8	4.4082262e-05
227	0xb62cd008	-2.5751087e-06
228	0xb1344b90	-2.62364e-09
229	0xbc5b4a8a	-0.013384471
230	0xb76a657d	-1.39711165e-05
231	0xbc0df5a5	-0.008664523
232	0x3998a964	0.00029117905
233	0x33b39468	8.362332e-08
234	0xbc87d0c7	-0.016579045
235	0xb99e844a	-0.0003023467
236	0xb9bc816e	-0.00035954587
237	0x3c7109d6	0.014711818
238	0x3b3f5b21	0.0029198604
239	0xb8be0e46	-9.062565e-05
240	0xbb295053	-0.002583523
241	0xbc082d68	-0.008311607
242	0x38b45d91	8.600497e-05
243	0x39521a10	0.0002003687
244	0x3227814e	9.75008e-09
245	0xbd1e8b55	-0.038707096
246	0x382ca263	4.115923e-05
247	0x3c7ba47a	0.0153590385
248	0xba04f6e0	-0.00050721876
249	0x34a36c13	3.043975e-07
250	0x3c62634a	0.013817618
251	0xbc8a6d9d	-0.01689797
252	0xba63ae76	-0.00086853595
253	0xbc63515c	-0.013874378
254	0xbc288b52	-0.010287123
255	0xb9c96579	-0.0003841331

layers.0.attn.0.gnn_q.bias f4 [16]
0	0xb9cb8f44	-0.00038825918
1	0xbbec04a5	-0.007202702
2	0x38342204	4.2947024e-05
3	0x39013356	0.00012321523
4	0x31cad7fe	5.903529e-09
5	0x3b7f11f2	0.0038920608
6	0x376edf55	1.4237904e-05
7	0xbe2576bc	-0.16158575
8	0xb8388429	-4.3992102e-05
9	0xb4610ff8	-2.0960567e-07
10	0xbe1e3902	-0.15451434
11	0x3d9afd46	0.07567839
12	0x39d50665	0.0004063129
13	0x3e201411	0.15632655
14	0x3a8c6ad8	0.0010712994
15	0x37b20cb8	2.1225176e-05
