checkpoints/cyp1a2_veith_40_train1_pos/Sep06-00:56:26_900.pth (torch, 421766 bytes, 294 tensors)

layers.0.weight f4 [17, 16]
0.0253709 0.8841003 -1.5733151 1.0732623 -0.31976396 1.4427552 -0.31321388 1.1686249
-0.11869544 -0.023170311 1.2262574 0.31693858 0.31819683 -0.073340885 1.667481 -0.08528816
0.3720546 -0.105691 -0.6381999 -0.17976278 -0.3127269 -0.14586824 -0.29367584 1.0340928
-0.30843332 -0.21105227 -0.16687156 -0.056261253 0.1314055 -2.369341 0.6679293 -2.3949463
0.094394065 0.10601447 -0.15522142 0.122838825 0.056289136 0.20291483 0.02667102 -0.31116778
0.049951296 -0.5384552 0.18096073 0.096768916 -0.027417174 -0.114010535 0.2156039 0.018602453
0.05291845 0.109295025 -0.17069928 0.123320244 0.051055737 0.21137692 0.011621014 -0.32573453
0.018489102 -0.56095874 0.18384075 0.11088296 -0.1065683 -0.096925184 0.22164589 0.0048799017
0.014434726 0.08848258 -0.13681933 0.10641757 0.060402002 0.18069108 0.050304875 -0.22171383
0.0022747458 -0.2880295 0.13004175 0.08115968 -0.07810301 -0.08438622 0.20092745 -0.013027887
0.0042841095 0.052416097 -0.11074065 0.11991713 0.06952473 0.124338694 0.08043538 0.108287476
-0.018048469 -0.0170549 0.11284617 0.012777884 -7.957721e-05 -0.062444367 0.112738065 -0.062380016
0.09430866 -0.6264724 -0.893559 -2.1483169 -0.24587533 -0.9965592 -0.20572412 -0.50411004
-0.014829866 0.053434204 -2.441859 -0.2552809 -0.1775633 -0.72567225 0.9292469 -0.72418725
0.19835936 -1.4028975 0.05005215 0.27060992 0.6446444 -2.2357454 0.5853727 -0.32917514
-0.056848187 -0.08831463 0.3387206 -0.44466305 -0.26946992 -1.1954453 -0.045620687 -1.1414739
0.2508689 0.9927203 1.1239197 -0.48045686 -0.30221578 1.6542753 -0.3149957 0.9959404
-0.2955923 -0.49905777 -0.53002083 0.27056044 0.21406707 -2.0024934 -1.1697283 -2.066292
0.0181239 0.117574506 -0.18037945 0.14572713 0.09357482 0.2084682 0.06535187 -0.23324384
-0.01097206 -0.21965605 0.1646913 0.057125743 -0.047343712 -0.08578988 0.23037107 -0.060966942
0.011324659 0.030178864 -0.16310109 0.050967015 0.20584993 0.048063718 0.22989042 0.36781007
-0.035661444 0.14398736 0.05168976 -0.014371836 0.05799032 -0.077909864 0.15862864 -0.069583
-0.023829306 0.4034867 1.5118421 0.48572883 0.9917127 0.62401444 0.89399254 0.41997626
-0.023608072 -0.15619798 0.53793645 0.11343638 0.091609836 0.044859596 -1.5926365 0.009455346
0.30128992 0.10785524 -0.19030261 0.8519558 0.07405712 0.19544592 0.041294355 0.8996362
-0.26354814 -0.33694407 0.988882 0.051745325 0.12045547 -1.9465888 0.17996305 -1.9323236
-0.0030213632 -0.8612393 0.595955 1.1778417 -1.192204 -1.3161389 -1.0394312 -0.57742304
0.05487458 0.13758267 1.3340828 -0.19172652 -0.14003722 0.29730138 -0.62758833 0.30709034
0.13915168 0.2766162 0.5489649 0.7253742 -1.2121001 0.4881398 -1.0875468 0.52283734
-0.15645076 -0.15586202 0.8474568 0.13408351 0.12417334 -0.8817161 -0.55012125 -0.90059674
0.0992485 -0.3546996 0.48084998 -0.5531265 -0.51126266 -0.53325796 -0.456043 -0.09476358
-0.07510429 0.03310188 -0.6143105 -0.14718081 -0.07049414 -0.6903025 -0.49180666 -0.6862971
00000000: a2d6 cf3c 6654 623f 6462 c9bf a960 893f
00000010: 1ab8 a3be 34ac b83f 925d a0be 8095 953f
00000020: 9816 f3bd aacf bdbc 01f6 9c3f c645 a23e
00000030: b2ea a23e bf33 96bd 0470 d53f 8fab aebd
00000040: f17d be3e 8674 d8bd 1261 23bf bc13 38be
00000050: be1d a0be 7c5e 15be ae5c 96be 275d 843f
00000060: f9ea 9dbe 161e 58be 61e0 2abe 3372 66bd
00000070: 2a8f 063e 48a3 17c0 6afd 2a3f cd46 19c0
00000080: ad51 c13d 1d1e d93d 5df2 1ebe ec92 fb3d
00000090: 708f 663d e8c8 4f3e 2f7d da3c 6251 9fbe
000000a0: bb99 4c3d 33d8 09bf c54d 393e c82e c63d
000000b0: fb99 e0bc 5b7e e9bd 45c7 5c3e 2c64 983c
000000c0: 04c1 583d 12d6 df3d cbcb 2ebe 538f fc3d
000000d0: d21f 513d 3173 583e 1166 3e3c adc6 a6be
000000e0: 7576 973c fe9a 0fbf c040 3c3e 9b16 e33d
000000f0: 7b40 dabd b680 c6bd 24f7 623e 95e7 9f3b
00000100: a17f 6c3c 5b36 b53d 5e1a 0cbe 74f1 d93d
00000110: 1768 773d 1507 393e 7c0c 4e3d f308 63be
00000120: e713 153b 9a78 93be aa29 053e 0c37 a63d
00000130: 79f4 9fbd afd2 acbd edbf 4d3e eb72 55bc
00000140: b761 8c3b 43b2 563d fecb e2bd 1d97 f53d
00000150: fb62 8e3d 49a5 fe3d 4ebb a43d d3c5 dd3d
00000160: 62da 93bc b8b6 8bbc e51b e73d 545a 513c
00000170: b0e2 a6b8 aac5 7fbd 37e3 e63d 3082 7fbd
00000180: e624 c13d 7f60 20bf 48c0 64bf 067e 09c0
00000190: bec6 7bbe 811e 7fbf 58a9 52be 5b0d 01bf
000001a0: f7f8 72bc d3dd 5a3d 6b47 1cc0 2eb4 82be
000001b0: 27d3 35be a8c5 39bf 20e3 6d3f 5664 39bf
000001c0: b71e 4b3e 2592 b3bf 7c03 4d3d 628d 8a3e
000001d0: 6a07 253f 7416 0fc0 fcda 153f a589 a8be
000001e0: a5d9 68bd 4dde b4bd c96c ad3e e0aa e3be
000001f0: f6f7 89be 5a04 99bf c2dc 3abd d11b 92bf
00000200: e371 803e eb22 7e3f 9adc 8f3f 71fe f5be
00000210: 07bc 9abe 4bbf d33f 1e47 a1be f3f5 7e3f
00000220: e057 97be 8084 ffbe 72af 07bf e686 8a3e
00000230: 6634 5b3e da28 00c0 a8b9 95bf 213e 04c0
00000240: 9378 943c e7ca f03d 64b5 38be 7e39 153e
00000250: 28a4 bf3d b078 553e 34d7 853d 79d7 6ebe
00000260: 28c4 33bc 84ed 60be d6a4 283e affc 693d
00000270: 7beb 41bd 9bb2 afbd 65e6 6b3e 79b8 79bd
00000280: 108b 393c aa39 f73c f903 27be cac2 503d
00000290: 53ca 523e 76de 443d 6568 6b3e 9a51 bc3e
000002a0: bc11 12bd 6c71 133e a4b8 533d d977 6bbc
000002b0: 4287 6d3d 358f 9fbd 8c6f 223e 8881 8ebd
000002c0: ad35 c3bc cf95 ce3e 0b84 c13f 73b1 f83e
000002d0: e2e0 7d3f 69bf 1f3f b2dc 643f 2107 d73e
000002e0: b765 c1bc 5df2 1fbe 34b6 093f 5551 e83d
000002f0: f09d bb3d b2be 373d 83db cbbf 98ea 1a3c
00000300: ac42 9a3e 35e3 dc3d b0de 42be c619 5a3f
00000310: 42ab 973d fa22 483e 4524 293d 8f4e 663f
00000320: c8ef 86be ef83 acbe 5f27 7d3f e8f2 533d
00000330: 5cb1 f63d d229 f9bf 3c48 383e 6156 f7bf
00000340: 1002 46bb 2e7a 5cbf 8290 183f 84c3 963f
00000350: 249a 98bf 3d77 a8bf 150c 85bf ffd1 13bf
00000360: 2bc4 603d 79e2 0c3e 3ac3 aa3f f553 44be
00000370: eb65 0fbe e337 983e a1a9 20bf f23a 9d3e
00000380: c77d 0e3e a3a0 8d3e f788 0c3f 20b2 393f
00000390: 1926 9bbf 76ed f93e bc34 8bbf abd8 053f
000003a0: a134 20be 4b9a 1fbe eef2 583f 304d 093e
000003b0: 984e fe3d 25b8 61bf bfd4 0cbf 828d 66bf
000003c0: cc42 cb3d 309b b5be f831 f63e b399 0dbf
000003d0: 1ce2 02bf 9883 08bf 787e e9be 6813 c2bd
000003e0: 47d0 99bd d695 073d 7443 1dbf 91b6 16be
000003f0: 3b5f 90bd aab7 30bf 15ce fbbe 2bb1 2fbf

layers.0.bias f4 [16]
0.61939746 -0.2659096 0.47100008 -0.3483073 0.37820318 0.32824585 -0.19083372 0.24489199
0.39261845 0.5371181 0.15628786 0.4153006 0.02960271 -0.24308124 0.08705391 0.29034573
00000000: d590 1e3f 4e25 88be ec26 f13e 5655 b2be
00000010: d9a3 c13e d70f a83e ea69 43be f7c4 7a3e
00000020: 4905 c93e 9280 093f ed09 203e 48a2 d43e
00000030: 6281 f23c 4aea 78be 5249 b23d 32a8 943e

layers.1.weight f4 [16, 16]
-0.55473053 -0.11131314 0.83623344 0.024307314 -0.92716 0.09766368 0.6159128 -0.31199944
0.57251054 -0.19750834 0.37055787 -0.03726476 -1.2589009 0.7378041 -1.1765949 -0.29515606
0.9482745 -0.309316 0.0038040373 0.048519053 0.22422469 -0.21931453 0.24798824 0.00070101384
-0.19696793 0.37614888 0.38182285 -0.24300925 -0.03534837 -0.03032771 -0.09948111 -1.602917
-0.011044841 0.3940123 -0.20162688 0.037223488 -0.26999334 0.23127091 -0.22163273 -0.03311328
-1.4939535 -0.08576599 0.86405885 0.0010730866 -0.16063684 -0.029393567 0.055284712 0.31729433
0.115288384 -0.52970177 0.11589311 0.040641747 0.3001038 -0.39678204 0.11041924 -0.3173072
-0.502689 0.21256493 1.2983414 0.042989243 0.07352658 0.05330553 -0.079990745 -0.6003992
-0.39481193 0.27745327 -0.10523139 0.024719706 -0.29593506 -0.098863736 -0.31414893 -0.1332701
-0.8761075 -0.09257203 0.63975084 0.009582382 -0.13596083 -0.22829193 0.035112847 0.6399808
0.98263675 0.39772913 -0.2998175 0.40113243 -0.23384967 -0.07915777 -0.0641033 -0.13809858
-0.05905505 -0.028287692 -0.31105882 -0.51270413 -0.052236047 -0.30343473 -0.2630426 -0.28081498
-0.69861853 -0.25588104 0.113969475 -0.14093739 0.3033613 -0.021689752 0.28702164 -0.1106317
-0.48054853 0.08437964 0.72070783 0.09614736 0.082726024 0.089382336 -0.081361406 0.49019563
0.93642926 0.043271374 0.0023502063 0.4706216 0.02716226 0.41771874 -0.014502424 0.09821167
0.041010547 0.11027005 0.06642503 -0.23312543 -0.010044677 0.42009938 0.3306861 -1.0328914
-0.3770817 -0.15395667 -0.15803218 1.2172103 1.0889424 -1.3960707 -1.3554027 0.34015614
0.3803438 0.59702617 0.2384465 -0.24024038 1.4667017 -0.36784405 0.8663967 -0.15285447
-0.24907747 0.1405656 -0.009275165 -0.023233138 -0.08961447 -0.3737465 -0.046818294 0.004601497
0.16155669 0.073700815 -0.18599147 0.15130311 0.052405063 -0.3348522 -0.27317578 0.2660426
0.29174444 0.49369535 -0.24577416 0.067960665 -0.4219319 0.2601767 -0.041116018 -0.2695299
-1.011061 -0.05054855 0.27164233 -0.00018844867 0.13756606 -0.14358495 0.07076626 0.20614943
0.37310576 -0.39928216 -0.50610274 -0.94824404 -0.049377397 -0.3812502 -0.20763262 0.651851
0.4165821 0.5206718 0.6747992 1.1888996 -0.31858465 0.2150318 0.6700175 -1.3170342
0.6266657 -0.083190605 -0.398144 -0.43657285 -0.0741675 0.372717 0.120736256 0.3655078
0.079389624 0.13656572 -0.3780204 0.73189765 -0.50485647 0.1264185 0.20676832 -0.51678896
-0.12378833 -0.524242 0.09695723 -0.04388961 -0.020884562 -1.3099743 0.1329284 -0.023545878
0.35292742 0.42498922 0.26393557 -0.06222466 -0.21980576 -0.096370466 -0.40849718 -0.35720354
0.24568373 0.35220784 -0.09298986 0.0010497986 -0.37977317 0.12872729 -0.17481525 0.026708238
0.8382563 -0.15099956 -1.4944503 -0.12506658 -0.017497381 -0.08514021 0.08715063 0.04670724
0.17455041 0.5523709 -0.22257838 -0.3460634 -0.17052548 -0.19201182 0.15642199 -0.05059267
-0.09991138 -0.27081928 -0.43778557 -0.09172727 -0.14791214 -1.298498 -0.21818396 0.24136275
00000000: d202 0ebf 25f8 e3bd 6513 563f 2220 c73c
00000010: 5c5a 6dbf e503 c83d 76ac 1d3f 64be 9fbe
00000020: 0d90 123f a03f 4abe c3b9 bd3e efa2 18bd
00000030: aa23 a1bf bbe0 3c3f a99a 96bf b21e 97be
00000040: 1ec2 723f ab5e 9ebe 284d 793b eabb 463d
00000050: 289b 653e fd93 60be a1f0 7d3e 3ec4 373a
00000060: f6b1 49be 9696 c03e 497e c33e 6bd7 78be
00000070: 74c9 10bd d171 f8bc c1bc cbbd 622c cdbf
00000080: 6cf5 34bc fbbb c93e 4777 4ebe a877 183d
00000090: 913c 8abe 48d2 6c3e b1f3 62be caa1 07bd
000000a0: de39 bfbf 14a6 afbd f632 5d3f d0a6 8c3a
000000b0: fc7d 24be c7ca f0bc 3972 623d 6774 a23e
000000c0: 511c ec3d 899a 07bf 5e59 ed3d f677 263d
000000d0: 35a7 993e 0427 cbbe 7c23 e23d 1776 a2be
000000e0: 3ab0 00bf 9faa 593e 0d30 a63f 7d15 303d
000000f0: 1b95 963d e656 5a3d 30d2 a3bd c3b3 19bf
00000100: ca24 cabe 5b0e 8e3e 8e83 d7bd fb80 ca3c
00000110: cd84 97be 1279 cabd 21d8 a0be f577 08be
00000120: 9548 60bf 6896 bdbd b6c6 233f 6cff 1c3c
00000130: 5139 0bbe 5cc5 69be 7dd2 0f3d c8d5 233f
00000140: 158e 7b3f 27a3 cb3e ae81 99be 3b61 cd3e
00000150: 4a76 6fbe 781d a2bd 9748 83bd b769 0dbe
00000160: b5e3 71bd 97bb e7bc 1a43 9fbe 9440 03bf
00000170: 77f5 55bd cc5b 9bbe 85ad 86be fbc6 8fbe
00000180: aad8 32bf d702 83be d468 e93d e451 10be
00000190: 2c52 9b3e b5ae b1bc 80f4 923e df92 e2bd
000001a0: 750a f6be 3ccf ac3d 4f80 383f e8e8 c43d
000001b0: 436c a93d 160e b73d cfa0 a6bd ecfa fa3e
000001c0: d4b9 6f3f 533d 313d eb05 1a3b 50f5 f03e
000001d0: 6383 de3c 3bdf d53e 939b 6dbc 3323 c93d
000001e0: adfa 273d 44d5 e13d d909 883d 6fb8 6ebe
000001f0: 6e92 24bc 4417 d73e b04f a93e c935 84bf
00000200: da10 c1be d1a6 1dbe 30d3 21be 8ccd 9b3f
00000210: 7762 8b3f 72b2 b2bf d67d adbf f228 ae3e
00000220: 6cbc c23e b5d6 183f 522b 743e 9301 76be
00000230: e2bc bb3f 0e56 bcbe 2dcc 5d3f e285 1cbe
00000240: 2a0e 7fbe 6ef0 0f3e ddf6 17bc 6c53 bebc
00000250: cb87 b7bd b45b bfbe 8ac4 3fbd 28c8 963b
00000260: 1e6f 253e 74f0 963d 8c74 3ebe 34ef 1a3e
00000270: b1a6 563d bf71 abbe b2dd 8bbe bc36 883e
00000280: 875f 953e a3c5 fc3e 39ac 7bbe f62e 8b3d
00000290: 7507 d8be e135 853e 4569 28bd d3ff 89be
000002a0: 726a 81bf ff0b 4fbd b414 8b3e 4e9a 45b9
000002b0: 1ede 0c3e ef07 13be e7ed 903d d618 533e
000002c0: b807 bf3e b66e ccbe f38f 01bf 1fc0 72bf
000002d0: f43f 4abd 3a33 c3be a59d 54be b5df 263f
000002e0: 404a d53e bf4a 053f a4bf 2c3f dd2d 983f
000002f0: 871d a3be 4c31 5c3e 4486 2b3f 9494 a8bf
00000300: 2a6d 203f d65f aabd 88d9 cbbe 7a86 dfbe
00000310: 21e5 97bd c3d4 be3e 9244 f73d d723 bb3e
00000320: 0797 a23d e2d7 0b3e e48b c1be a55d 3b3f
00000330: 463e 01bf da73 013e 13bb 533e 484c 04bf
00000340: bc84 fdbd b934 06bf 8391 c63d 97c5 33bd
00000350: 1a16 abbc 3dad a7bf 621e 083e 49e3 c0bc
00000360: e7b2 b43e 3098 d93e 9022 873e 49df 7ebd
00000370: c314 61be e15d c5bd 8b26 d1be 62e3 b6be
00000380: 8494 7b3e 9654 b43e 7871 bebd 6599 893a
00000390: a171 c2be 16d1 033e c502 33be 3ccb da3c
000003a0: f797 563f a19f 1abe 264a bfbf 7411 00be
000003b0: ab56 8fbc fe5d aebd 087c b23d 1750 3f3d
000003c0: 58bd 323e 2e68 0d3f 96eb 63be 392f b1be
000003d0: 3b9e 2ebe bf9e 44be 162d 203e 423a 4fbd
000003e0: 569e ccbd d3a8 8abe 6e25 e0be 82db bbbd
000003f0: 4876 17be 2f35 a6bf 9e6b 5fbe cc27 773e

layers.1.bias f4 [16]
-0.065304816 -0.36477947 0.2065052 -0.17898542 0.76603156 0.12769456 0.62381727 -0.11632487
0.05844284 0.095871136 -0.11346079 -0.17312723 0.34448552 0.3433852 0.0074809417 0.060854293
00000000: 88be 85bd 60c4 babe 1976 533e f447 37be
00000010: a51a 443f 5dc2 023e 7db2 1f3f bc3b eebd
00000020: c261 6f3d 1658 c43d 215e e8bd 4448 31be
00000030: 6860 b03e 2fd0 af3e b022 f53b 5a42 793d

final.linears.0.weight f4 [98, 49]
0.15284362 0.4415505 -0.07531489 -0.09820516 -0.12249923 -0.21811226 0.16493236 0.09242431
0.024502713 -0.1458615 -0.13687871 0.29004094 -0.18089364 0.30938026 -0.17829053 0.015313763
0.28903702 -0.011312973 -0.08545559 0.059518825 -0.05915698 0.029416438 0.034648746 -0.05191616
0.06373522 -0.018141575 0.1164538 0.06856924 -0.05543623 0.02196593 -0.045148578 0.059937343
0.081125826 -0.010777575 -0.005426055 -0.036680855 -0.046765883 0.0249765 0.0470621 -0.058048896
0.042376403 -0.0071528507 -0.04739311 -0.0048627043 0.024527658 0.005906569 0.023404518 0.0047735237
0.03614808 -0.016427277 0.017075922 -0.9476601 3.9316888 -0.9767118 -0.55109036 -0.018220764
0.008470839 -0.02890792 -0.65733856 -0.5445167 0.043560296 -0.02377061 0.0027559751 -0.034972925
-0.02935344 0.002103625 0.046956792 -0.11375709 0.1488556 -0.09974749 0.14270498 0.110505655
-0.115663595 -0.06271034 0.08280341 0.0017399506 0.14788085 0.07779233 0.07276524 -0.081930466
0.10350681 0.09472263 0.0028344113 0.13993683 -0.048826966 0.02968199 0.0052190274 0.0059732636
0.0422074 0.056793135 0.0029271082 -0.049802244 -0.007851276 0.03457685 0.04414944 0.04309121
-0.018622432 0.0023768663 0.3248431 0.012849654 -0.8108716 -0.82193804 -0.82335633 -0.6121974
-0.15189175 -0.77532583 0.16018891 -0.8141406 -0.73863065 -0.89210576 -0.27185556 0.27448547
0.66933656 -0.8671086 0.7667321 0.0074014943 -0.016027184 0.013433943 -0.008253062 -0.01933148
-0.015255634 -0.08773983 -0.0035487937 0.04255782 0.008909051 0.029938636 -0.029137408 0.036711436
0.031950884 -0.021736005 -0.02922001 -0.06878614 0.042773288 -0.08058071 -0.059618775 -0.03389533
0.0049481713 0.03640363 -0.04233302 0.03291793 -0.045866795 0.04761027 -0.03449643 0.035246994
0.017520884 0.019991865 -0.059454173 -0.13964595 0.5506313 -0.142912 -0.13881576 -0.12393712
0.64839727 1.1086581 -1.0162954 1.0952243 -0.2822121 -0.06609934 -1.4037008 -0.096346125
-1.1170769 -1.8792028 1.5000877 1.1811652 -0.05486944 0.081954345 -0.047055796 0.052702844
-0.059872407 -0.048043035 0.0016771412 -0.032873336 -0.013110117 -0.08433191 -0.05154484 -0.060504057
0.019341238 0.040888116 -0.041055635 -0.07005058 -0.12135225 0.066610575 -0.08669026 -0.079475924
-0.03716787 -0.07363133 0.02903285 -0.086140886 0.0737974 0.06331707 0.10810731 0.07395964
0.010875224 0.085093446 -0.06254391 -0.13006192 1.0665616 0.8845328 -0.05497577 -0.06994623
-0.10200379 -0.289263 2.2056518 -0.7670527 -1.8333187 -0.115018554 -0.19316405 1.234056
-1.5753386 -1.1574162 1.1562097 0.20943339 0.8998987 -0.15669253 0.12868242 -0.0076706177
0.050897174 -0.16324537 -0.06900041 0.16767175 -0.0039747627 -0.1255096 -0.032181744 -0.073681414
-0.15758196 0.030055644 0.10323448 -0.19396128 -0.05940291 -0.00067964086 0.061831687 -0.11452482
0.037165225 -0.063109584 -0.056239173 -0.008725203 -0.1075313 0.011935175 -0.059707664 -0.0039688316
0.06814377 0.097120136 0.026629396 0.15458685 -0.050415665 -0.118288904 -0.38070214 0.20613255
0.11006364 0.024100648 -0.040705096 -0.34324896 0.097647145 -0.32024896 0.052032635 0.009047427
00000000: 0a83 1c3e e812 e23e b13e 9abd c91f c9bd
00000010: e0e0 fabd d258 5fbe 07e4 283e f548 bd3d
00000020: eab9 c83c b85c 15be ef29 0cbe 3f80 943e
00000030: 2f3c 39be 1767 9e3e cb91 36be 94e6 7a3c
00000040: a9fc 933e 0c5a 39bc 5703 afbd 03ca 733d
00000050: 974e 72bd befa f03c d8eb 0d3d 0aa6 54bd
00000060: 9c87 823d a49d 94bc 547f ee3d 086e 8c3d
00000070: 1a11 63bd e5f1 b33c b7ed 38bd dc80 753d
00000080: 4c25 a63d 6d94 30bc 0ccd b1bb aa3e 16bd
00000090: 958d 3fbd 849b cc3c 30c4 403d aec4 6dbd
000000a0: e192 2d3d 7662 eabb 471f 42bd 5257 9fbb
000000b0: 3aee c83c e48b c13b d5ba bf3c 386b 9c3b
000000c0: 0210 143d 7f92 86bc cee2 8b3c da99 72bf
000000d0: caa0 7b40 c909 7abf 4214 0dbf b643 95bc
000000e0: 46c9 0a3c 4dd0 ecbc 5747 28bf 7265 0bbf
000000f0: 486c 323d 95ba c2bc 979d 343b c53f 0fbd
00000100: a076 f0bc f9dc 093b c455 403d 7af9 e8bd
00000110: 9a6d 183e 6948 ccbd 4121 123e ca50 e23d
00000120: 09e1 ecbd 476e 80bd d694 a93d 0e0f e43a
00000130: 146e 173e 9651 9f3d f105 953d 29cb a7bd
00000140: 61fb d33d f0fd c13d 88c1 393b 9a4b 0f3e
00000150: c9fe 47bd a527 f33c 6004 ab3b 5ebb c33b
00000160: abe1 2c3d eb9f 683d bad4 3f3b 70fd 4bbd
00000170: a3a2 00bc 74a0 0d3d 0bd6 343d 6980 303d
00000180: 128e 98bc 33c5 1b3b d651 a63e 5b87 523c
00000190: 4895 4fbf 886a 52bf 7bc7 52bf f8b8 1cbf
000001a0: 8389 1bbe c17b 46bf 9008 243e 856b 50bf
000001b0: e616 3dbf 0b61 64bf a730 8bbe 5c89 8c3e
000001c0: a459 2b3f d4fa 5dbf 8e48 443f 3c88 f23b
000001d0: 714b 83bc 0a1a 5c3c da37 07bc 0d5d 9ebc
000001e0: c4f2 79bc f1b0 b3bd e192 68bb 1c51 2e3d
000001f0: 45f7 113c df41 f53c 93b1 eebc bb5e 163d
00000200: eede 023d b50f b2bc cd5e efbc bfdf 8cbd
00000210: 0b33 2f3d 8007 a5bd d132 74bd d4d5 0abd
00000220: 4524 a23b f91b 153d 6465 2dbd f4d4 063d
00000230: d2de 3bbd fd02 433d 214c 0dbd 275f 103d
00000240: f587 8f3c fbc5 a33c 3886 73bd 59ff 0ebe
00000250: 2cf6 0c3f 8657 12be b825 0ebe bfd2 fdbd
00000260: 5dfd 253f 82e8 8d3f f815 82bf 4f30 8c3f
00000270: 1b7e 90be 175f 87bd 78ac b3bf 1e51 c5bd
00000280: 60fc 8ebf b889 f0bf e002 c03f 6c30 973f
00000290: c7be 60bd aed7 a73d 94bd 40bd f0de 573d
000002a0: c53c 75bd c6c8 44bd 85d3 db3a 31a6 06bd
000002b0: d1cb 56bc 35b6 acbd af20 53bd 1ad3 77bd
000002c0: 8471 9e3c 4c7a 273d f429 28bd ae76 8fbd
000002d0: 8787 f8bd 206b 883d aa8a b1bd 46c4 a2bd
000002e0: 563d 18bd 06cc 96bd 4dd6 ed3c a26a b0bd
000002f0: 1723 973d 61ac 813d 5e67 dd3d 2778 973d
00000300: ff2d 323c 7945 ae3d 0617 80bd f42e 05be
00000310: 1785 883f be70 623f 462e 61bd f83f 8fbd
00000320: 5de7 d0bd 481a 94be 6629 0d40 915d 44bf
00000330: 30aa eabf d98e ebbd cccc 45be 8cf5 9d3f
00000340: b2a4 c9bf 3726 94bf aefe 933f b575 563e
00000350: c35f 663f 0274 20be 53c5 033e ce59 fbbb
00000360: 8e79 503d cb29 27be 1650 8dbd 25b2 2b3e
00000370: ba3e 82bb 9785 00be 01d1 03bd 48e6 96bd
00000380: 2a5d 21be 4137 f63c 996c d33d c99d 46be
00000390: 7750 73bd ed29 32ba 3943 7d3d fd8b eabd
000003a0: 903a 183d 993f 81bd 0c5b 66bd 27f4 0ebc
000003b0: 5f39 dcbd c18b 433c 0690 74bd f90c 82bb
000003c0: f68e 8b3d ece6 c63d e425 da3c 044c 1e3e
000003d0: a880 4ebd 7441 f2bd 64eb c2be 6914 533e
000003e0: 0c69 e13d b96e c53c 63ba 26bd 54be afbe
000003f0: 3afb c73d acf7 a3be 2c20 553d a93b 143c

final.linears.0.bias f4 [98]
-0.027728427 0.09548792 0.5861558 0.13851252 0.24916491 0.123597324 0.24018207 0.27138266
-0.40210643 -0.22531527 0.16398539 -0.19169208 0.120810084 0.17643675 0.2890333 -0.047955297
-0.11741381 -0.26018408 0.2545334 -0.021779433 -0.015463273 -0.20627466 0.010664988 0.4438615
0.38304755 0.516121 0.091894135 -0.7638855 -0.12421392 -0.014934235 0.31788164 0.075457655
0.04943082 0.00059325167 0.17022586 0.39927334 -0.25233635 0.15603718 0.11376665 -0.008609495
1.0472021 0.37167686 -0.04992647 0.23677823 0.22415435 0.002586561 0.28260297 -0.15931217
0.31872332 0.19250034 0.17906934 0.2832534 0.18755312 0.10951797 0.019498844 0.3144965
0.39227003 0.22346966 0.28856194 -0.25847828 0.28539214 -0.009673305 0.009238377 -0.48904535
0.26039484 -0.014891211 -0.30574444 0.26114702 -1.4206461 -0.06702392 0.08435844 0.28384703
0.13549878 0.06996854 0.10158462 0.07286032 -0.01445228 -0.32534853 -0.14725444 0.2558568
0.18811809 -0.057270803 0.26538947 -0.023143189 0.3019828 -0.042750806 0.5075803 -0.071515225
-0.52714366 -0.39276314 0.06852793 -0.5264324 0.4451245 -0.37293395 -0.0939699 -0.0876144
-0.04372886 -0.32068545
00000000: ba26 e3bc 2c8f c33d 4e0e 163f 3ad6 0d3e
00000010: 1625 7f3e 9820 fd3d 4af2 753e abf2 8a3e
00000020: e5e0 cdbe 0cb9 66be c9eb 273e ee4a 44be
00000030: 476b f73d d6ab 343e 2cfc 933e c66c 44bd
00000040: a776 f0bd d936 85be 3452 823e c86a b2bc
00000050: ab59 7dbc aa39 53be 34bc 2e3c d141 e33e
00000060: cf1e c43e 8120 043f fe32 bc3d 008e 43bf
00000070: de63 febd b9ae 74bc 62c1 a23e 8b89 9a3d
00000080: f977 4a3d 7284 1b3a b04f 2e3e 8e6d cc3e
00000090: 3b32 81be 36c8 1f3e 7dfe e83d d70e 0dbc
000000a0: b80a 863f 6e4c be3e b37f 4cbd fe75 723e
000000b0: b888 653e 4b83 293b 56b1 903e bb22 23be
000000c0: b42f a33e cf1e 453e f45d 373e 9706 913e
000000d0: ed0d 403e f54a e03d 0abc 9f3c af05 a13e
000000e0: 9ed7 c83e 3bd5 643e 64be 933e 4457 84be
000000f0: eb1e 923e c87c 1ebc 905c 173c 2764 fabe
00000100: 7952 853e 44fa 73bc 898a 9cbe 10b5 853e
00000110: bbd7 b5bf d643 89bd 1ec4 ac3d 6654 913e
00000120: 31c0 0a3e aa4b 8f3d 990b d03d cb37 953d
00000130: 41c9 6cbc 1594 a6be dec9 16be aaff 823e
00000140: 07a2 403e ca94 6abd 21e1 873e c996 bdbc
00000150: 7d9d 9a3e 781b 2fbd c8f0 013f 9376 92bd
00000160: e3f2 06bf 4018 c9be 5f58 8c3d 46c4 06bf
00000170: 5ce7 e33e 33f1 bebe 4a73 c0bd 2e6f b3bd
00000180: 081d 33bd e230 a4be

final.linears.1.weight f4 [98, 98]
-0.059789855 -0.29564434 -0.14446917 -0.2285749 -0.29778337 -0.3788126 -0.20516177 -0.3041422
-0.033285253 0.0061107534 -0.04255802 -0.15021576 -0.06926269 -0.23491947 0.010289242 0.026579438
-0.23092993 0.20033969 -0.054870512 -0.26652238 -0.34038204 0.006004873 -0.25129327 0.030278359
-0.12981643 0.12735996 -0.2172732 0.1635551 -0.10294759 0.078117564 -0.16663373 -0.18808131
-0.2491176 -0.15070735 -0.21994129 -0.23536809 -0.092033654 -0.24904822 0.0210816 -0.17807299
-0.294001 -0.07964154 -0.027130602 -0.24936813 -0.3370159 -0.17418791 -0.1911237 0.047513194
-0.08022778 0.10964664 -0.0022797484 -0.26160133 -0.09731269 -0.2541422 -0.20652044 -0.25793627
-0.56622607 -0.023520228 0.061495047 0.010498467 -0.049077302 0.009868385 0.010170043 -0.057371687
-0.22986926 -0.031947177 -0.09505524 -0.19779398 0.14326209 0.15231577 0.020045783 0.04471841
-0.1925212 0.04107752 -0.11816203 -0.26318875 0.0154509 -0.09145327 0.15233211 -0.23639892
-0.25426 -0.22446038 -0.10693985 0.010720896 0.06736967 -0.09460055 -0.275345 0.14024965
0.004002629 0.018751279 0.08376186 0.13652804 -0.008827837 0.11296805 -0.11423285 0.1350107
-0.23658882 0.03289783 0.06315708 0.0028378223 0.0694395 0.06047542 0.04508611 0.062132508
0.023544926 0.041102998 -0.08664169 0.01665859 0.008010646 0.022503292 -0.023296187 -0.46792588
-0.05024037 -0.0311405 -0.0020686067 0.1310912 -0.025720442 0.03469005 0.03335493 0.036050722
0.034383878 0.13727961 0.07331384 -0.07187403 0.0014115055 -0.16006385 -0.011883994 0.010947077
0.034120012 0.06618336 0.0024458857 0.0078446455 0.013475519 0.056991596 0.0101770805 0.019034732
0.039844852 0.17655188 0.034041923 -0.084187694 -0.027352298 0.026512215 0.41029713 -0.012722457
0.010597294 -0.029854678 0.044223316 -0.017103646 -0.08429229 -0.004858167 0.040587317 -0.00069281127
0.0033054585 0.020341279 0.058294803 -0.059773996 -0.013688768 0.1385919 0.15314187 -0.10895728
0.01674886 0.0518192 0.0334966 -0.0115279835 0.0047282386 0.012259609 -0.052164856 0.05464477
0.0031233872 -0.09265814 0.023747185 -0.070586994 0.03299561 0.06116379 -0.007315296 0.081143536
0.09653437 0.032265835 0.0034210917 -0.083503164 -0.03554895 -0.01287263 -0.041636128 -0.12170825
0.06251533 -0.28001967 -0.047287688 -0.020224884 -0.020984674 0.057870936 -0.016537918 -0.0017412906
0.04856589 0.043738086 0.02096796 0.0065125166 0.013578156 0.09899915 -0.14136684 -0.1510217
-0.19517513 -0.3016152 -0.18397656 -0.25801194 -0.0016562374 0.06955361 -0.021075645 -0.16260472
0.031123048 -0.10782269 -0.02244113 0.007100544 0.013228204 -0.089515656 0.008636302 -0.16659573
-0.17451975 -0.07028168 -0.18857843 -0.14191993 0.101346426 -0.06579333 -0.1393504 0.17979619
-0.0452929 -0.024725283 -0.16669743 -0.14035445 -0.026739078 -0.11081918 -0.21033335 -0.18360488
-0.023847785 -0.21650128 -0.060967874 -0.11490911 -0.4863852 -0.037021544 -0.05902824 -0.17536932
-0.1429213 -0.12242953 -0.1476009 0.005433647 -0.023632927 0.014422374 -0.031287204 -0.15173319
-0.050155643 -0.0970844 -0.04353894 -0.18029241 -0.18094651 -0.094177805 -0.06293163 -0.029606294
00000000: 35e6 74bd b25e 97be baef 13be 8a0f 6abe
00000010: 1077 98be baf3 c1be ed15 52be 87b8 9bbe
00000020: 1e56 08bd b73c c83b 5251 2ebd 29d2 19be
00000030: 99d9 8dbd bb8e 70be 3594 283c 1fbd d93c
00000040: e578 6cbe d925 4d3e e7bf 60bd 9f75 88be
00000050: 8e46 aebe 87c4 c43b 83a9 80be 520a f83c
00000060: 99ee 04be a66a 023e de7c 5ebe fd7a 273e
00000070: 30d6 d2bd 1afc 9f3d 08a2 2abe 6398 40be
00000080: af18 7fbe 0753 1abe 4a38 61be 5504 71be
00000090: 247c bcbd 7f06 7fbe 52b3 ac3c c458 36be
000000a0: 4d87 96be 1b1b a3bd ff40 debc 5c5a 7fbe
000000b0: 598d acbe 515e 32be eeb5 43be 329d 423d
000000c0: 764e a4bd 6b8e e03d d567 15bb 9cf0 85be
000000d0: e04b c7bd ed1e 82be 187a 53be 3910 84be
000000e0: 31f4 10bf 7ead c0bc 3be2 7b3d c301 2c3c
000000f0: 4805 49bd 02af 213c 41a0 263c 93fe 6abd
00000100: d962 6bbe 0bdb 02bd 52ac c2bd 818a 4abe
00000110: 4cb3 123e aaf8 1b3e 0e37 a43c a72a 373d
00000120: 4724 45be e740 283d effe f1bd adc0 86be
00000130: c625 7d3c da4b bbbd f3fc 1b3e 8f12 72be
00000140: 5e2e 82be f1d8 65be 4803 dbbd b2a6 2f3c
00000150: 1cf9 893d efbd c1bd 05fa 8cbe 9b9d 0f3e
00000160: 7c28 833b 489c 993c 578b ab3d 02ce 0b3e
00000170: a2a2 10bc cb5b e73d eaf2 e9bd 3f40 0a3e
00000180: 5744 72be e0bf 063d 8058 813d c2fa 393b
00000190: 4c36 8e3d 13b5 773d 36ac 383d a87e 7e3d
000001a0: 4ae1 c03c 9e5b 283d 3371 b1bd 9877 883c
000001b0: 163f 033c d358 b83c a5d7 bebc fb93 efbe
000001c0: d9c8 4dbd 5d1a ffbc 7691 07bb c63c 063e
000001d0: adb3 d2bc 2717 0e3d 2e9f 083d eca9 133d
000001e0: 1cd6 0c3d 0793 0c3e 9125 963d b132 93bd
000001f0: 4402 b93a c7e7 23be 15b5 42bc 5e5b 333c
00000200: 6dc1 0b3d 248b 873d 274b 203b d486 003c
00000210: 6cc8 5c3c 0570 693d c5bd 263c baee 9b3c
00000220: 5b34 233d 04ca 343e 8b6f 0b3d 996a acbd
00000230: ed11 e0bc 2530 d93c 7712 d23e da71 50bc
00000240: 46a0 2d3c cc91 f4bc 8223 353d f21c 8cbc
00000250: 70a1 acbd 4231 9fbb e33e 263d c79d 35ba
00000260: 64a0 583b c1a2 a63c 88c6 6e3d 94d5 74bd
00000270: db46 60bc 09eb 0d3e 39d1 1c3e ff24 dfbd
00000280: e834 893c 5f40 543d bb33 093d dedf 3cbc
00000290: 57ef 9a3b 87dc 483c d1aa 55bd 32d3 5f3d
000002a0: beb1 4c3b 8dc3 bdbd 7589 c23c ea8f 90bd
000002b0: 6826 073d e286 7a3d 27b5 efbb 952e a63d
000002c0: d0b3 c53d 2e29 043d 6534 603b b503 abbd
000002d0: c79b 11bd b9e7 52bc a58a 2abd 2d42 f9bd
000002e0: 0a08 803d bd5e 8fbe bcb0 41bd a8ae a5bc
000002f0: 0de8 abbc 130a 6d3d 877a 87bc 043c e4ba
00000300: 07ed 463d b526 333d 00c5 ab3c f366 d53b
00000310: ea76 5e3c 11c0 ca3d 78c2 10be 6fa5 1abe
00000320: fddb 47be 4f6d 9abe 5a64 3cbe 241a 84be
00000330: 1b16 d9ba 2072 8e3d d5a6 acbc da81 26be
00000340: c3f5 fe3c 24d2 dcbd 76d6 b7bc aeab e83b
00000350: 1cbb 583c fc53 b7bd 477f 0d3c 1298 2abe
00000360: 4eb5 32be d7ef 8fbd b41a 41be 7553 11be
00000370: b78e cf3d a7be 86bd dfb1 0ebe 7e1c 383e
00000380: 0c85 39bd ad8c cabc bbb2 2abe 14b9 0fbe
00000390: e90b dbbc 2bf5 e2bd a061 57be eb02 3cbe
000003a0: 6e5c c3bc 83b2 5dbe 73b9 79bd 7855 ebbd
000003b0: 7b07 f9be e7a3 17bd 99c7 71bd 0494 33be
000003c0: f659 12be 55bc fabd b124 17be bc0c b23b
000003d0: d799 c1bc d24b 6c3c 0327 00bd f25f 1bbe
000003e0: 0170 4dbd 30d4 c6bd e355 32bd 939e 38be
000003f0: 0b4a 39be 4be0 c0bd 4ce2 80bd e688 f2bc

final.linears.1.bias f4 [98]
-0.22549474 0.08906763 0.02757255 -0.114243865 -0.05730228 -0.22120945 -0.50112796 -0.16803019
0.054617546 -0.33736947 -0.28708076 -0.35767204 -0.22489308 -0.04705561 -0.23130025 -0.1855784
-0.30537283 -0.035309296 0.13647617 -0.06696031 -0.043208215 -0.22345662 -0.06969346 -0.16020341
-0.25078163 -0.066064894 -0.16353822 -0.029270831 -0.14926963 -0.22200418 -0.05636058 -0.112248845
-0.21059446 -0.26964906 -0.19724058 -0.06252088 -0.26550978 -0.19336066 -0.003512203 -0.017069802
-0.088935934 -0.15430045 -0.1958186 0.010779588 -0.27449656 -0.09801762 -0.2973898 -0.16049471
-0.348837 -0.123620346 -0.2604955 -0.35368454 -0.14186838 -0.23163931 0.79929066 -0.21040878
-0.18900976 -0.112938605 -0.4065039 -0.21627107 -0.065308146 -0.10414567 -0.1366555 -0.40413526
-0.26893753 -0.30680037 -0.28511456 0.11360649 -0.35132584 -0.34964955 -0.24346665 -0.49472043
-0.02954103 -0.33643377 -0.28351578 -0.23486109 -0.07031937 -0.48787388 -0.04983218 0.010794105
0.089966655 -0.1495115 -0.38329777 0.042615313 -0.27205297 -0.14529085 -0.062692896 -0.2037527
-0.16779278 -0.12824196 -0.30621308 0.0014926828 -0.2807222 -0.33178854 -0.040747225 0.11071687
-0.25226098 -0.020897157
00000000: 18e8 66be 1769 b63d d4df e13c b0f8 e9bd
00000010: ccb5 6abd bb84 62be ec49 00bf 1b10 2cbe
00000020: a6b6 5f3d b1bb acbe 40fc 92be ca20 b7be
00000030: 5f4a 66be 62bd 40bd f9d9 6cbe 4408 3ebe
00000040: d459 9cbe 7ba0 10bd 69c0 0b3e 7d22 89bd
00000050: 19fb 30bd d0d1 64be 72bb 8ebd 5d0c 24be
00000060: 7366 80be 084d 87bd 9076 27be 62c9 efbc
00000070: 23da 18be 1055 63be 5ada 66bd b9e2 e5bd
00000080: 13a6 57be 710f 8abe 6ff9 49be f20a 80bd
00000090: e6f0 87be 5600 46be fd2c 66bb f8d5 8bbc
000000a0: 0b24 b6bd f000 1ebe ac84 48be de9c 303c
000000b0: d08a 8cbe 76bd c8bd 7a43 98be ba58 24be
000000c0: c39a b2be aa2c fdbd ab5f 85be 2416 b5be
000000d0: f245 11be db32 6dbe 509e 4c3f 6675 57be
000000e0: c68b 41be 5b4c e7bd 4721 d0be 2a76 5dbe
000000f0: 47c0 85bd 534a d5bd 6bef 0bbe d1ea cebe
00000100: 2eb2 89be f014 9dbe 89fa 91be 85aa e83d
00000110: fbe0 b3be 4405 b3be 524f 79be ff4b fdbe
00000120: 0800 f2bc 0c41 acbe fb28 91be 6d7f 70be
00000130: 9a03 90bd 9bca f9be d41c 4cbd c2d9 303c
00000140: 7040 b83d 8b19 19be 9b3f c4be 658d 2e3d
00000150: 874a 8bbe 20c7 14be 2265 80bd 8ca4 50be
00000160: dfd1 2bbe dc51 03be f6c7 9cbe 20a6 c33a
00000170: d2ba 8fbe 30e0 a9be 90e6 26bd 87bf e23d
00000180: 5a28 81be 8430 abbc

final.linears.2.weight f4 [17, 98]
0.33280396 0.025919093 -0.001660592 -0.24755643 -0.19735047 0.005314789 -0.051174223 -0.004795294
0.02472579 0.3853492 0.6416662 -0.1282949 0.029296355 -0.0581318 0.35365456 0.07730626
-0.141681 0.004980829 -0.027219178 0.16859949 -0.05816192 0.024703862 -0.23033138 0.4667902
-0.0048653 0.124871 -0.009499171 -0.13306591 0.004422689 -0.14865057 -0.12932867 0.007837826
0.3153902 -0.065787934 0.042325407 -0.021491284 0.029456506 0.307683 0.21465734 0.021091742
-0.016515248 0.1418031 0.05489871 -0.1800694 -0.35701302 -0.18092453 -0.6452497 0.24080229
1.2450936 -0.044704437 -0.5488899 -0.015179172 -0.058992345 0.017721636 0.0072186165 -0.11137579
-0.63378096 0.16688672 -0.008368133 -0.59506035 0.09772846 -0.12835084 0.11535735 0.17675401
-0.021872168 -0.33254796 0.3351675 0.06075714 0.12603669 -0.064416386 -0.11314499 -0.019621424
0.002030301 -0.0045589223 0.06040968 -0.035336323 -0.16817005 -0.012702171 0.22682104 0.013894435
0.008896072 -0.15309125 -0.42314035 -0.031587668 0.3423044 -0.071454234 -0.44928756 0.45552695
0.10202202 0.0088510765 -0.42187437 0.18922785 -0.0973313 -0.59506834 0.12932973 -0.010409624
-0.060394168 0.028847154 0.7991939 0.0073809065 -0.02009311 -0.15216725 0.030935122 0.023173807
0.062119767 -0.0025967166 0.027898027 0.173383 -0.18430583 0.07321926 -0.04945103 -0.06527482
0.1527018 0.09383639 0.2839438 0.0038727985 0.259435 0.08075446 -0.038200114 -0.07985819
-0.076140076 -0.54798234 -0.0014203794 -0.030109359 0.05103236 0.32279515 0.028576033 0.41567782
-0.21435525 0.06234606 -0.29962662 0.024966475 0.035869073 -0.039264493 -0.20133542 -0.08740441
-0.106135696 -0.02454057 -0.0050484794 0.37203977 0.005000051 -0.42500055 -0.12547661 0.08551459
-0.18732473 0.7724186 -0.12724973 0.32237422 -1.2252028 0.034095977 0.048297614 -0.013814934
0.0002752749 -0.12089636 0.09898564 -0.13795972 -0.0070387237 -0.18307906 -0.3321457 0.06074079
-0.044128597 0.26950783 -0.0057382328 0.42636532 -0.43926442 0.1966885 -0.10323066 -0.39253396
-0.24465387 0.0021430715 -0.0061499244 -0.010792964 0.10154384 -0.14859848 0.09784608 0.0014206264
0.15478624 -0.063239604 -0.007362902 -0.0891458 0.24999762 0.0015131246 0.059322886 -0.21576208
0.05830604 -0.06679261 -0.25026795 0.010710621 -0.39888087 0.17241058 0.016142316 1.0609337
-0.059981603 0.06681641 0.08390799 0.028919784 0.082194716 -0.08204512 2.0377822 0.01868013
-0.04081052 -0.694475 0.56416905 0.24853611 0.043622423 -0.06649734 0.059327997 0.14754751
0.0935085 -0.005165639 -0.26716718 0.11255805 0.16611199 0.2136341 -0.12245526 -0.02335338
-0.22179182 0.017221669 -0.014664036 -0.39030573 0.218634 -0.05043949 0.1357757 0.019113407
0.11884142 0.045616735 -0.08137953 -0.522933 0.21172793 0.19714285 -0.0054498087 -0.22722085
0.082740545 0.06054591 -0.046518207 -0.18036647 -0.13238151 0.0396225 0.034153204 -0.047241088
0.10211215 0.029623965 -0.25240546 -0.5613817 0.041791536 -0.08907844 -0.27818814 0.3796967
0.07530883 0.0138107175 -0.25608253 0.0009072553 -0.081654936 0.008970348 -0.82050437 0.07057124
00000000: 4865 aa3e 4754 d43c 39a8 d9ba 6f7f 7dbe
00000010: 3e16 4abe ae27 ae3b 109c 51bd d721 9dbb
00000020: bd8d ca3c 7e4c c53e 3c44 243f bd5f 03be
00000030: e9fe ef3c 9c1b 6ebd 3612 b53e bf52 9e3d
00000040: d314 11be 3936 a33b c1fa debc 58a5 2c3e
00000050: 323b 6ebd c15f ca3c fddb 6bbe 20ff ee3e
00000060: 186d 9fbb 5ebc ff3d 69a2 1bbc 6e42 08be
00000070: 34ec 903b db37 18be bc6e 04be 3a6a 003c
00000080: d37a a13e d3bb 86bd 685d 2d3d 7d0e b0bc
00000090: c54e f13c a088 9d3e 22cf 5b3e 97c8 ac3c
000000a0: fc4a 87bc d534 113e 78dd 603d 1d64 38be
000000b0: 69ca b6be 4844 39be 162f 25bf e094 763e
000000c0: 3a5f 9f3f 001c 37bd 0c84 0cbf 10b2 78bc
000000d0: f5a1 71bd f72c 913c 258a ec3b fd18 e4bd
000000e0: 783f 22bf 5ae4 2a3e 7e1a 09bc e055 18bf
000000f0: dc25 c83d 676e 03be 7940 ec3d 01ff 343e
00000100: 432d b3bc ba43 aabe 139b ab3e 7bdc 783d
00000110: c30f 013e bdec 83bd 8fb8 e7bd 1cbd a0bc
00000120: cc0e 053b 0363 95bb 2470 773d d2bc 10bd
00000130: c534 2cbe c41c 50bc c643 683e 7ca5 633c
00000140: d5c0 113c f4c3 1cbe daa5 d8be 1262 01bd
00000150: 8642 af3e 9956 92bd 0509 e6be d43a e93e
00000160: ecf0 d03d 1b04 113c ebff d7be f2c4 413e
00000170: a255 c7bd 6656 18bf 036f 043e 218d 2abc
00000180: e05f 77bd de50 ec3c f997 4c3f 88db f13b
00000190: 4e9a a4bc bbd1 1bbe a76b fd3c ffd6 bd3c
000001a0: 4c71 7e3d ad2d 2abb 678a e43c 508b 313e
000001b0: abba 3cbe fbf3 953d 2a8d 4abd ceae 85bd
000001c0: dc5d 1c3e 4b2d c03d 1561 913e c7ce 7d3b
000001d0: aad4 843e 9862 a53d b977 1cbd b18c a3bd
000001e0: 54ef 9bbd 9248 0cbf 062c baba e7a7 f6bc
000001f0: 4f07 513d 6845 a53e 4918 ea3c b9d3 d43e
00000200: f17f 5bbe 955e 7f3d a968 99be 7e86 cc3c
00000210: 73eb 123d ced3 20bd df2a 4ebe 1501 b3bd
00000220: ac5d d9bd 4e09 c9bc b76d a5bb ff7b be3e
00000230: 78d7 a33b ac99 d9be f17c 00be 4622 af3d
00000240: 0ed2 3fbe 3abd 453f c14d 02be 3c0e a53e
00000250: 72d3 9cbf 39a8 0b3d b8d3 453d 0858 62bc
00000260: c652 9039 8398 f7bd fcb8 ca3d 5045 0dbe
00000270: 18a5 e6bb 1479 3bbe 000f aabe 56cb 783d
00000280: 30c0 34bd eefc 893e c907 bcbb 8e4c da3e
00000290: 44e7 e0be b668 493e 996a d3bd 36fa c8be
000002a0: 8b86 7abe c672 0c3b 4e85 c9bb f9d4 30bc
000002b0: 37f6 cf3d 332a 18be 8763 c83d 5034 ba3a
000002c0: 4980 1e3e c483 81bd 8044 f1bb 1392 b6bd
000002d0: 60ff 7f3e 0954 c63a 8efc 723d bcf0 5cbe
000002e0: 50d2 6e3d 90ca 88bd 1f23 80be 9a7b 2f3c
000002f0: 1d3a ccbe 668c 303e e43c 843c adcc 873f
00000300: 45af 75bd 0bd7 883d f4d7 ab3d 2fe9 ec3c
00000310: b455 a83d 4607 a8bd 066b 0240 1207 993c
00000320: ef28 27bd 1dc9 31bf 626d 103f 4080 7e3e
00000330: 6dad 323d c22f 88bd ea01 733d b216 173e
00000340: 6281 bf3d 8544 a9bb 23ca 88be d684 e63d
00000350: 4319 2a3e e6c2 5a3e d3c9 fabd 964f bfbc
00000360: 651d 63be 7514 8d3c 6d41 70bc 27d6 c7be
00000370: 97e1 5f3e a399 4ebd c908 0b3e b893 9c3c
00000380: 2163 f33d 9dd8 3a3d 50aa a6bd f0de 05bf
00000390: 35cf 583e d1df 493e 4f94 b2bb 95ac 68be
000003a0: e073 a93d fdfe 773d e089 3ebd fdb1 38be
000003b0: 058f 07be 344b 223d 3be4 0b3d df7f 41bd
000003c0: 2d20 d13d f5ad f23c 4a3b 81be b6b6 0fbf
000003d0: 9a2d 2b3d c26e b6bd ad6e 8ebe 9b67 c23e
000003e0: 843b 9a3d 5946 623c 401d 83be dfd4 6d3a
000003f0: b43a a7bd 5ef8 123c 930c 52bf a787 903d

final.linears.2.bias f4 [17]
-0.008823526 -0.061058033 0.3882728 -0.20683591 -0.26019156 -0.11590562 -0.013409246 -0.022965241
0.042338323 0.13744321 -0.13025032 -0.015165604 0.09718868 0.050766185 0.0059389723 -0.03464392
-0.05640645
00000000: 8d90 10bc fd17 7abd b1cb c63e cbcc 53be
00000010: d437 85be ed5f edbd 74b2 5bbc 9a21 bcbc
00000020: f36a 2d3d eabd 0c3e 5760 05be 2779 78bc
00000030: dc0a c73d 34f0 4f3d b69b c23b c8e6 0dbd
00000040: 730a 67bd

layers.0.attn.0.gnn_q.weight f4 [17, 16]
-0.000119356555 -0.0061278692 -0.00011332609 0.0006327497 1.0300698e-06 3.5154986e-05 -0.00073051197 0.0018338445
0.00032689178 -6.367388e-05 0.013399869 0.004000739 0.0004750475 -0.01796878 -6.714323e-05 -3.281059e-07
-0.00015186539 -0.0048242914 -0.00037244876 -0.0014226642 5.7946477e-06 2.0299787e-05 0.0005567717 0.0012429095
-0.00029101377 9.2660244e-05 -0.015693417 -0.005127671 -0.00062935706 0.02277367 -0.000103323444 3.2951408e-07
-5.4792392e-05 -0.0020003025 -0.0002602672 -0.00070753996 2.8220088e-06 1.3038634e-05 0.00030658924 -0.0951063
2.0992313e-05 3.331191e-05 -0.09129692 0.011820744 -0.0007178731 0.13563491 -0.00022279989 1.0056035e-06
-7.303538e-06 -0.0011206544 0.00036393796 0.00037281762 -1.2344175e-06 4.7682697e-05 -0.0031708335 -0.08530883
0.0012143512 -2.4882349e-05 0.08648034 0.08163449 0.003451223 -0.20049861 0.00015662712 -5.974036e-07
5.9265745e-05 0.0030187338 0.00022495688 -0.0020479762 -2.2827078e-06 -5.2086096e-05 -0.0015417606 0.06385218
0.0007748803 0.00012654843 -0.052761905 -0.056402955 0.0014906224 0.15470132 7.8779754e-05 -7.704126e-07
0.00011810582 0.0048541804 2.2358181e-05 0.00012309958 -1.3283013e-06 1.8229889e-06 0.0010879233 0.026909024
-0.00016066407 -3.4037454e-05 -0.033127263 -0.024608621 -0.0006753542 0.061525732 -5.5624787e-05 5.3616964e-07
1.5955065e-06 0.00068949943 3.720817e-05 0.000592467 -4.5228044e-06 -3.0608884e-05 0.0010561113 0.004268854
-0.00060849567 -2.5535246e-05 -0.019353053 -0.008154992 -0.001235226 0.021818973 4.1633895e-05 -6.881639e-07
6.79447e-05 0.0029195126 0.00020194097 -5.404056e-05 -3.0875765e-06 -6.5513987e-06 0.00018210613 0.011790741
0.00012847237 -4.0172165e-07 -0.0098647 -0.008596201 -6.5828935e-05 0.0038895144 2.6940954e-05 -7.831821e-07
-9.335386e-06 0.0011739262 -6.649899e-05 -0.00047695174 1.5318718e-06 2.3416798e-05 0.0013575397 0.015098627
-0.00034867192 4.4917826e-05 -0.02269223 -0.014209334 -0.0010589219 0.023032721 0.00011780301 5.037549e-07
1.1661801e-05 -0.00096245506 0.00024006618 0.0005302347 2.101265e-06 4.1785494e-05 -0.0027358043 -0.009926693
0.00124538 -1.6653968e-05 0.018492242 0.012411385 0.0030324375 -0.032905154 0.000117241114 -1.2275535e-06
-4.9082926e-05 -0.00016167987 -9.7917284e-05 0.0015059639 1.1931332e-06 1.9271349e-05 0.00090615393 0.010020806
-0.00040898848 -0.0001126165 0.0008720671 -0.00492883 -0.0009883204 0.033138823 -5.4657525e-05 1.0866486e-06
1.7670915e-05 -0.0034694525 -0.00010303215 0.0004943456 -3.2941525e-06 -1.6974076e-05 -0.0004138156 -0.0009269897
0.00022508668 -3.004072e-06 0.01246639 0.0028848571 -0.000100452395 -0.011073458 -3.110771e-05 -4.4489123e-08
9.234511e-05 -0.0002515152 -8.194239e-05 -0.00046699026 -2.468586e-06 -4.043781e-05 -9.8038116e-05 -0.013854418
0.00031713597 3.893937e-05 0.0072403084 0.008175457 -0.00014500221 -0.007906587 -8.731368e-05 1.786761e-07
1.4648331e-05 -0.0012758537 0.00036858194 0.004009762 -3.3546348e-06 3.736318e-05 -0.0012579462 -0.009103066
0.00040495826 -0.00026844634 0.0067238426 0.00569571 0.001202279 -0.017886199 0.00018923415 -1.0382175e-06
-7.071072e-05 0.00075968576 -2.2958448e-06 0.0016084188 3.302534e-06 -3.0381705e-06 -0.00052296487 0.018859081
4.7721027e-05 -6.343665e-05 -0.02148313 -0.015952056 0.00031588506 0.02640311 2.526186e-05 6.371824e-07
6.986711e-05 0.00029263803 0.00020190373 0.0004171915 -3.6579138e-08 -2.2958122e-05 0.00032809773 0.00070682075
0.000343857 2.3473684e-05 -0.017553642 -0.008524548 -9.5573065e-05 0.011612086 0.00023540723 -1.8098184e-07
00000000: 104f fab8 4bcc c8bb 7ba9 edb8 1ddf 253a
00000010: ee40 8a35 6173 1338 d47f 3fba 9c5d f03a
00000020: ac62 ab39 a788 85b8 208b 5b3c a218 833b
00000030: cc0f f939 4333 93bc 3fcf 8cb8 8826 b0b4
00000040: 0e3e 1fb9 1715 9ebb 3a45 c3b9 b078 baba
00000050: a56f c236 7649 aa37 51f4 113a 1fe9 a23a
00000060: 3593 98b9 9752 c238 7b8f 80bc 0606 a8bb
00000070: 70fb 24ba d98f ba3c 5aaf d8b8 12e8 b034
00000080: e2d0 65b8 8217 03bb 7974 88b9 347a 39ba
00000090: be61 3d36 82c0 5a37 b6bd a039 18c7 c2bd
000000a0: a618 b037 64b8 0b38 e1f9 babd cbab 413c
000000b0: a62f 3cba e1e3 0a3e 649f 69b9 46f8 8635
000000c0: ea10 f5b6 ece2 92ba edce be39 bc76 c339
000000d0: 43ae a5b5 e8fe 4738 c2cd 4fbb 65b6 aebd
000000e0: dd2a 9f3a 70ba d0b7 9b1c b13d fc2f a73d
000000f0: ea2d 623b 824f 4dbe 463c 2439 435d 20b5
00000100: 1c94 7838 f3d5 453b 67e2 6b39 5737 06bb
00000110: 9f30 19b6 0577 5ab8 e714 caba efc4 823d
00000120: 5621 4b3a 16b2 0439 de1c 58bd c906 67bd
00000130: fd60 c33a 066a 1e3e 8f36 a538 5ace 4eb5
00000140: 94af f738 d10f 9f3b d48d bb37 4b14 0139
00000150: 1648 b2b5 6cad f435 a698 8e3a 5070 dc3c
00000160: ef77 28b9 70c3 0eb8 74b0 07bd 0598 c9bc
00000170: 410a 31ba 6802 7c3d a94e 69b8 4ced 0f35
00000180: 3025 d635 86bf 343a f80f 1c38 ca4f 1b3a
00000190: 98c2 97b6 0a62 00b8 376d 8a3a bee1 8b3b
000001a0: 7483 1fba 8634 d6b7 4b8a 9ebc 849c 05bc
000001b0: 4fe7 a1ba b4bd b23c 0ea0 2e38 43ba 38b5
000001c0: 887d 8e38 4b55 3f3b 1ec0 5339 9ca9 62b8
000001d0: 2934 4fb6 16d4 dbb6 bef3 3e39 f42d 413c
000001e0: 8ab6 0639 34ac d7b4 8d9f 21bc 15d7 0cbc
000001f0: a40d 8ab8 39e7 7e3b 42ff e137 dd3b 52b5
00000200: 2d9f 1cb7 6dde 993a 6075 8bb8 610f fab9
00000210: b79a cd35 316f c437 79ef b13a 3b60 773c
00000220: f4cd b6b9 2666 3c38 0ee5 b9bc 44ce 68bc
00000230: 86cb 8aba 1eaf bc3c 020d f738 c639 0735
00000240: 0ea7 4337 444d 7cba 46ba 7b39 73ff 0a3a
00000250: 7503 0d36 d542 2f38 2e4b 33bb 91a3 22bc
00000260: 053c a33a 20b4 8bb7 0b7d 973c 1f59 4b3c
00000270: dcbb 463b 8ec7 06bd 58df f538 6bc2 a4b5
00000280: 64de 4db8 9c88 29b9 f158 cdb8 c363 c53a
00000290: bf23 a035 e8a8 a137 f68a 6d3a 4f2e 243c
000002a0: 816d d6b9 862c ecb8 6f9b 643a 0682 a1bb
000002b0: 888a 81ba 93bc 073d 1240 65b8 f6d8 9135
000002c0: 003c 9437 c15f 63bb f712 d8b8 f996 013a
000002d0: 1c11 5db6 8d63 8eb7 64f5 d8b9 3a01 73ba
000002e0: 3f05 6c39 9099 49b6 d43f 4c3c df0f 3d3b
000002f0: f8a9 d2b8 736d 35bc a679 02b8 4f14 3fb3
00000300: 67a9 c138 ccdd 83b9 7cd8 abb8 5fd6 f4b9
00000310: fca9 25b6 c59b 29b8 d099 cdb8 a4fd 62bc
00000320: 4545 a639 d552 2338 1c40 ed3b 5af2 053c
00000330: bc0b 18b9 a18a 01bc 2d1c b7b8 1dda 3f34
00000340: 1ac2 7537 8c3a a7ba 3b3e c139 5264 833b
00000350: 3020 61b6 69b6 1c38 ace1 a4ba 0725 15bc
00000360: 9450 d439 42be 8cb9 ae53 dc3b 14a3 ba3b
00000370: ca95 9d3a 1486 92bc 286d 4639 e258 8bb5
00000380: 874a 94b8 a625 473a 5012 1ab6 94d1 d23a
00000390: 1aa1 5d36 5fe3 4bb6 9417 09ba 5c7e 9a3c
000003a0: 1028 4838 4b09 85b8 64fd afbc e3ad 82bc
000003b0: 609d a539 564b d83c 6ee9 d337 d70a 2b35
000003c0: 9e85 9238 366d 9939 1fb6 5339 7fba da39
000003d0: 301b 1db3 3196 c0b7 8804 ac39 f049 393a
000003e0: b547 b439 5ae9 c437 a8cc 8fbc 8caa 0bbc
000003f0: 666e c8b8 9e40 3e3c a6d7 7639 e953 42b4

layers.0.attn.0.gnn_q.bias f4 [16]
-1.291425e-05 0.00053597294 0.00021975572 0.0006912151 -4.4913878e-07 3.70645e-06 -0.00071348407 -0.081861906
0.00015142091 -4.2153308e-05 -0.11512625 -0.007912972 0.00093553134 0.17713982 0.00021592568 -3.8390453e-07
00000000: 48aa 58b7 8980 0c3a 3a6e 6639 a932 353a
00000010: 2a21 f1b4 53bc 7836 1b09 3bba 37a7 a7bd
00000020: bec6 1e39 c5cd 30b8 50c7 ebbd 69a5 01bc
00000030: 723e 753a 2464 353e 1c6a 6239 701b ceb4
