checkpoints/lipophilicity_astrazeneca_50_train1_pos/Aug30-16:00:37_200.pth (torch, 389766 bytes, 294 tensors)

layers.0.weight f4 [12, 16]
2.7591736 -0.6069042 -0.33531654 0.9498384 0.13194904 0.3673377 -0.3774387 -0.09037413
-0.17567158 -2.2922702 2.6524346 -0.37117004 2.1724052 -0.23706868 0.13862254 -0.4565536
0.32673618 -0.12031744 0.0025374433 0.12938331 -0.020405022 0.019923894 -0.110597625 0.0051425076
-0.15753767 -0.15615843 0.02164506 0.020854292 -0.006126566 0.022725487 0.0024854438 0.04531914
0.3050526 -0.07991993 -0.07619957 0.1435518 0.11299083 0.115485474 -0.06676048 -0.027059227
-0.064919606 -0.1598511 0.006187665 0.010669841 -0.0013220701 0.14809649 -0.012844443 0.004111243
0.2917374 0.009719026 0.014054491 -0.07765348 -0.05374938 -0.05434421 -0.04735027 0.00044360326
0.022776658 -0.19941641 0.054378804 0.010217471 0.009080693 0.07666057 -0.02792296 -0.15403444
0.33573326 -0.0077810893 0.007611354 -0.065847956 -0.07469707 -0.024701694 -0.033842694 0.009255128
0.0044172592 -0.25973868 -0.006636363 -0.03668532 -0.003695891 -0.026278727 -0.0013667418 -0.03501853
-1.1510761 -2.0180986 0.17116217 -0.87634563 1.4388161 -1.7912835 0.23373264 -0.3694833
-0.3027931 0.90151924 0.7885023 0.20776421 0.6020231 -0.30952084 -0.38621846 0.068574935
2.9139402 -1.8790869 -0.35170883 -0.21096042 0.14357404 1.0988407 -0.33609918 -0.278871
-0.34656826 -2.3499851 -1.5482229 -0.35396373 -1.3063633 -0.40865612 -0.025908899 -0.42096737
0.42772266 -0.17341566 -0.010192235 0.010544636 0.023536826 0.07306787 -0.05163656 -0.025676645
-0.029858047 -0.31478763 0.014020566 -0.03725608 0.031336028 -0.06891082 0.0017793197 -0.048676018
0.36812562 0.044677984 -0.02803146 0.07776475 -0.15044002 0.03395212 -0.041748945 0.012256055
0.06804323 -0.3186651 -0.002596383 -0.041519113 -0.046441756 -0.028780742 0.027980179 -0.07611469
0.027823526 0.4490549 -0.009773815 0.43594605 0.019305626 -0.2844022 -0.027982518 0.044298243
0.061894584 -0.0013999204 1.5327065 -0.01588329 1.2823529 0.102076106 0.056975972 -0.012848705
0.61841565 0.8993907 0.046224143 1.3458138 0.24170353 -1.5982122 -0.006773347 0.14176421
0.17299174 -0.54761964 -1.1156204 -0.020194812 -0.9070037 0.16194762 0.116920084 -0.004688901
-1.0326222 -1.2460285 0.07710435 -1.029842 0.60962415 -0.21598808 0.13580155 -0.2240619
-0.21936709 0.82199806 0.44612852 0.12096231 0.36570954 -0.17954203 -0.2433116 0.08067198
00000000: 4d96 3040 135e 1bbf 9cae abbe 9c28 733f
00000010: a61d 073e b013 bc3e a53f c1be 1216 b9bd
00000020: 40e3 33be 8eb4 12c0 7dc1 2940 000a bebe
00000030: b008 0b40 22c2 72be 11f3 0d3e 65c1 e9be
00000040: f749 a73e fd68 f6bd 3c4b 263b 0f7d 043e
00000050: 6f28 a7bc 6f37 a33c 0281 e2bd 7b82 a83b
00000060: 8e51 21be ffe7 1fbe fb50 b13c 9fd6 aa3c
00000070: 5cc1 c8bb cd2a ba3c d4e2 223b 90a0 393d
00000080: db2f 9c3e 0fad a3bd 850e 9cbd 3eff 123e
00000090: bc67 e73d a683 ec3d b8b9 88bd 50ab ddbc
000000a0: 92f4 84bd 02b0 23be e5c1 ca3b 8fd0 2e3c
000000b0: 5049 adba 9ba6 173e 8071 52bc 9bb7 863b
000000c0: 9b5e 953e 8d3c 1f3c cf44 663c ca08 9fbd
000000d0: 4f28 5cbd 0998 5ebd 5bf2 41bd 6c93 e839
000000e0: 1d96 ba3c d133 4cbe 4fbc 5e3d 2e67 273c
000000f0: 30c7 143c 3800 9d3d b1be e4bc 34bb 1dbe
00000100: 3be5 ab3e 82f8 febb aa68 f93b 4bdb 86bd
00000110: c7fa 98bd 355b cabc a39e 0abd d2a2 173c
00000120: a8be 903b 78fc 84be d975 d9bb 5943 16bd
00000130: c336 72bb 7c46 d7bc 3f24 b3ba 976f 0fbd
00000140: 7656 93bf 8728 01c0 2345 2f3e 3058 60bf
00000150: 202b b83f c748 e5bf 9c57 6f3e ea2c bdbe
00000160: b207 9bbe f7c9 663f 49db 493f 24c0 543e
00000170: 301e 1a3f 8479 9ebe 6dbe c5be 0471 8c3d
00000180: ff7d 3a40 eb85 f0bf 2e13 b4be 0206 58be
00000190: 1305 133e d0a6 8c3f 3115 acbe 2ec8 8ebe
000001a0: 6571 b1be 2866 16c0 2b2c c6bf bc3a b5be
000001b0: ea36 a7bf 603b d1be e63e d4bc 0989 d7be
000001c0: 77fe da3e e093 31be 55fd 26bc 69c3 2c3c
000001d0: 4dd0 c03c 9ca4 953d dc80 53bd d457 d2bc
000001e0: dd98 f4bc d82b a1be 84b6 653c d599 18bd
000001f0: 355a 003d 1e21 8dbd 1038 e93a 8160 47bd
00000200: f67a bc3e 4300 373d 3ba2 e5bc 2043 9f3d
00000210: f30c 1abe 6111 0b3d f100 2bbd 9fcd 483c
00000220: 405a 8b3d 1228 a3be 1428 2abb f20f 2abd
00000230: b639 3ebd 97c5 ebbc b036 e53c 05e2 9bbd
00000240: 2aee e33c 86ea e53e 5a22 20bc 5234 df3e
00000250: d526 9e3c 2a9d 91be 983b e5bc 1372 353d
00000260: 2d85 7d3d 897d b7ba ba2f c43f ac1d 82bc
00000270: 2424 a43f 470d d13d a35f 693d 6083 52bc
00000280: 7d50 1e3f 783e 663f 8755 3d3d a043 ac3f
00000290: 2181 773e 3892 ccbf f4f2 ddbb a32a 113e
000002a0: bf24 313e cd30 0cbf a6cc 8ebf 976f a5bc
000002b0: 6531 68bf 99d5 253e cc73 ef3d 5aa5 99bb
000002c0: f72c 84bf dd7d 9fbf e3e8 9d3d ddd1 83bf
000002d0: 5410 1c3f fb2b 5dbe 900f 0b3e 7c70 65be
000002e0: c4a1 60be 776e 523f f56a e43e 16bb f73d
000002f0: 483e bb3e ded9 37be ad26 79be 5a37 a53d

layers.0.bias f4 [16]
0.036185026 0.07517545 0.0025381488 -0.11012987 0.031062441 -0.028733075 -0.30832702 -0.019510644
0.11612464 0.386247 0.42249298 0.5636461 -0.2521188 -0.06934154 0.022746408 -0.03840189
00000000: c036 143d 96f5 993d 1257 263b c58b e1bd
00000010: a976 fe3c a061 ebbc 0add 9dbe c9d4 9fbc
00000020: c1d2 ed3d 2bc2 c53e 0051 d83e 1c4b 103f
00000030: b715 81be f002 8ebd ad56 ba3c 4d4b 1dbd

layers.1.weight f4 [16, 16]
0.96780914 0.11150561 -0.1541946 0.33436418 -0.120467946 -0.15406244 0.3069526 0.3059882
-0.40941703 0.11636678 0.12473306 0.0759179 0.2748773 -0.47147623 -0.38318697 -0.37463114
-0.22697587 -0.6827051 0.14044268 0.08919844 0.43641564 -0.6107336 -0.6064842 0.49718446
-0.26546302 0.07256365 -0.069144435 0.6688911 -0.009785413 0.35384917 0.0035680193 -0.021023476
-0.6109315 0.10740059 -0.007217292 -0.1729408 -0.5333834 -0.17349072 -0.17891361 -0.43440896
-0.63297015 0.047950324 0.14540201 0.19568974 0.83656234 -0.63305444 0.066196136 -0.024676643
0.2765755 -0.19248264 -0.015656402 -0.0041300096 -0.07904889 -0.5185907 -0.6219829 0.66691566
0.32437837 0.2683729 -0.02774719 0.4960351 0.004078344 -0.305301 0.3967044 -0.3740642
-0.081661455 0.2729697 -0.06884672 -0.006413905 0.093642674 0.62625605 0.6671215 -0.67336553
-0.13630024 0.09483307 -0.0802835 -0.2422307 0.09130133 0.033310313 0.44506735 -0.45449218
0.3622996 0.097457714 0.14845991 -0.0067219925 -0.14039578 -0.006462603 -0.017368548 0.21787418
0.35608768 -0.33108833 0.24952535 0.2327618 0.16384743 -0.37796974 -0.6535052 0.59267026
-0.23896034 0.0070303176 -0.25746438 -0.032553148 -0.53927976 -0.47211143 0.012692358 -0.5529572
-1.0366179 0.15957458 0.4188672 0.4369602 1.1421349 -0.84919447 -0.29128546 -0.48359233
-0.23455136 0.9019314 -0.21698846 -0.15421781 -0.71536994 -0.74207926 -0.7989806 0.5982353
-0.32811332 -0.150443 -0.055607095 -1.1952517 -0.24393949 -0.3075255 -0.08250513 0.059011016
-0.34740508 0.3437585 0.110885635 0.1347099 -0.6409898 -0.74097735 -0.7179471 0.42179343
-0.47269347 0.018677775 -0.18920201 -0.55978334 0.1055074 -0.24314114 0.087542064 -0.08731796
0.035508532 -0.13955583 -0.06037606 0.37326348 0.2511882 -0.37889946 0.046793006 -0.40139452
-1.5272256 -0.032309152 0.18444723 -0.17053016 -0.32844922 0.41160712 -0.44876423 -0.3812596
0.5364983 0.116522014 -0.16431095 0.43975535 0.15724006 -0.15753172 0.15057276 0.10934009
-0.06254684 -0.018308531 -0.017619625 -0.019999696 -0.08625322 -0.063062795 0.35634387 -1.4310428
-1.1799293 0.38001284 0.62996256 0.26042736 -0.41734323 0.118400775 -0.34487203 -0.4375871
-0.03879981 0.47259954 -0.17903705 0.44110262 0.6926048 -0.93361163 0.3241233 0.6615588
-0.3534148 -0.08599221 0.112776004 -0.4437516 -0.17725593 0.116517395 -0.24843334 -0.011828104
0.24534918 -0.016859144 -0.11467241 -0.030073468 0.21334812 -0.046836883 1.6169444 -0.5003305
-0.6847538 0.1580964 -0.19714716 -0.106619164 -0.6021352 -0.7206226 -0.7483861 0.32145727
-0.50565445 -0.06758353 0.037924513 -0.5254996 0.044373352 -0.17071754 0.11240638 -0.121462576
0.385314 0.52828914 0.029698754 0.060532473 -0.28708825 -0.48461425 -0.5400944 0.81892776
0.50710714 -0.18151058 -0.20062886 -0.9765913 -0.7751162 0.24994317 0.17639732 -0.052514166
-0.6148143 0.002852766 -0.01576746 -0.05386125 -0.44079256 -0.2881678 -0.3468065 -0.30952471
-0.7551922 0.058970388 0.053226076 -0.08107859 0.69306594 -0.26512104 -0.1936537 0.08687531
00000000: 57c2 773f 0e5d e43d 30e5 1dbe c831 ab3e
00000010: e6b7 f6bd 8bc2 1dbe e428 9d3e 7caa 9c3e
00000020: 1c9f d1be b551 ee3d 0c74 ff3d d87a 9b3d
00000030: b8bc 8c3e 5565 f1be 1531 c4be a7cf bfbe
00000040: 5d6c 68be c3c5 2ebf 35d0 0f3e acad b63d
00000050: df71 df3e 0a59 1cbf 8c42 1bbf f68e fe3e
00000060: c5ea 87be 409c 943d 999b 8dbd 723c 2b3f
00000070: ff52 20bc b82b b53e 6ed5 693b 6d39 acbc
00000080: 0266 1cbf d7f4 db3d 097f ecbb 6517 31be
00000090: d18b 08bf 8da7 31be 2135 37be da6a debe
000000a0: 550a 22bf 8f67 443d 44e4 143e e462 483e
000000b0: f328 563f db0f 22bf d791 873d ac26 cabc
000000c0: 4e9b 8d3e 2b1a 45be db41 80bc 0855 87bb
000000d0: 62e4 a1bd 5cc2 04bf 453a 1fbf fcba 2a3f
000000e0: ec14 a63e 2c68 893e 134e e3bc 50f8 fd3e
000000f0: a1a3 853b 6a50 9cbe d71c cb3e 5885 bfbe
00000100: 1f3e a7bd afc2 8b3e 82ff 8cbd bc2b d2bb
00000110: bbc7 bf3d 5152 203f 7ac8 2a3f af61 2cbf
00000120: 4a92 0bbe d737 c23d ad6b a4bd 530b 78be
00000130: 31fc ba3d 6570 083d dedf e33e 33b3 e8be
00000140: 557f b93e e997 c73d e005 183e 2944 dcbb
00000150: e9c3 0fbe 3ec4 d3bb 7c48 8ebc 691a 5f3e
00000160: 2051 b63e 6984 a9be 9383 7f3e 1c59 6e3e
00000170: 9fc7 273e 4085 c1be 1e4c 27bf 3db9 173f
00000180: 05b2 74be 945e e63b 5fd2 83be 7356 05bd
00000190: 3d0e 0abf 97b8 f1be 9cf3 4f3c 9a8e 0dbf
000001a0: e5af 84bf 8567 233e c375 d63e 3fb9 df3e
000001b0: 7a31 923f cf64 59bf 5e23 95be 6a99 f7be
000001c0: 3b2e 70be fae4 663f 3932 5ebe 46eb 1dbe
000001d0: 7c22 37bf e8f8 3dbf fe89 4cbf f325 193f
000001e0: 78fe a7be bb0d 1abe 44c4 63bd 02fe 98bf
000001f0: 46cb 79be fb73 9dbe 73f8 a8bd 89b5 713d
00000200: 14df b1be 1d01 b03e 0218 e33d 64f1 093e
00000210: e817 24bf b1b0 3dbf 62cb 37bf 4ff5 d73e
00000220: e104 f2be 2202 993c 2cbe 41be f64d 0fbf
00000230: 4414 d83d fef9 78be 4149 b33d c2d3 b2bd
00000240: 6571 113d b9e7 0ebe e34c 77bd 641c bf3e
00000250: bd9b 803e 1cff c1be 06aa 3f3d 9583 cdbe
00000260: 217c c3bf 9a56 04bd bcdf 3c3e 759f 2ebe
00000270: 7f2a a8be 2bbe d23e 6dc4 e5be 7534 c3be
00000280: f457 093f 18a3 ee3d 2141 28be 9d27 e13e
00000290: 8a03 213e ff4f 21be bf2f 1a3e b2ed df3d
000002a0: 8f18 80bd c6fb 95bc 0857 90bc 67d6 a3bc
000002b0: 87a5 b0bd 1127 81bd b472 b63e 692c b7bf
000002c0: ec07 97bf 0b91 c23e 3a45 213f bc56 853e
000002d0: 03ae d5be 1b7c f23d 1193 b0be 6b0b e0be
000002e0: 8dec 1ebd 91f8 f13e 7d55 37be 34d8 e13e
000002f0: 8c4e 313f 2c01 6fbf 7df3 a53e eb5b 293f
00000300: c9f2 b4be af1c b0bd 1bf7 e63d 6933 e3be
00000310: 9482 35be aca0 ee3d 4f65 7ebe aaca 41bc
00000320: d13c 7b3e 301c 8abc 5ed9 eabd a25c f6bc
00000330: ee77 5a3e 08d8 3fbd 09f8 ce3f a915 00bf
00000340: 064c 2fbf 06e4 213e f2e0 49be 265b dabd
00000350: 8825 1abf b97a 38bf 3b96 3fbf 0c96 a43e
00000360: 9272 01bf 3c69 8abd bc56 1b3d 2487 06bf
00000370: d5c0 353d 94d0 2ebe 5135 e63d 5fc1 f8bd
00000380: e047 c53e f53d 073f cd4a f33c e6f0 773d
00000390: 3bfd 92be 5c1f f8be a043 0abf 40a5 513f
000003a0: c6d1 013f e9dd 39be a771 4dbe e301 7abf
000003b0: 046e 46bf 1af1 7f3e 80a1 343e 1819 57bd
000003c0: 7864 1dbf 79f5 3a3b c32a 81bc 9d9d 5cbd
000003d0: 90af e1be bb8a 93be 9f90 b1be 067a 9ebe
000003e0: 4754 41bf ef8a 713d 9603 5a3d 880c a6bd
000003f0: c56c 313f f2bd 87be 284d 46be afeb b13d

layers.1.bias f4 [16]
-0.07911715 -0.2671257 -0.27367035 -0.5107326 -0.13736825 -0.22026677 0.109067775 -0.092873156
0.018460084 -0.19801113 0.1646826 -0.024414819 0.18604666 0.19159591 -0.00732958 -0.003966632
00000000: 2c08 a2bd b3c4 88be 851e 8cbe 5fbf 02bf
00000010: 43aa 0cbe 9d8d 61be ed5e df3d 4834 bebd
00000020: 9a39 973c 6ec3 4abe 8ea2 283e 9601 c8bc
00000030: 0483 3e3e b831 443e f92c f0bb 85fa 81bb

final.linears.0.weight f4 [88, 44]
0.83979475 -0.923392 -0.9988965 -1.0783812 -1.2833258 -0.7019505 0.1208962 -1.3110706
-1.2019142 1.8690894 0.16735037 -0.14173992 0.054157108 -0.06089188 0.004584365 -0.10310423
0.110615395 -0.17012946 -0.12057638 -0.07196819 0.19527692 0.035593122 0.13314313 0.09356474
0.020191288 -0.11560139 -0.017623093 -0.13867302 -0.055956222 0.08908184 -0.063052244 0.10364885
-0.11013435 -0.09249238 -0.0034511448 0.059992038 0.018253416 -0.07764967 0.11905538 -0.15433848
-0.03963457 0.011868328 -0.08156633 0.16784294 0.2048224 0.14147009 0.121132426 0.11932536
0.15661535 0.07556785 -0.29591626 0.1026186 0.15521301 -0.09322945 0.16556165 0.008431236
-0.0021615396 -0.045716975 -0.024806224 -0.008032924 -0.013276567 0.049655918 0.07655411 -0.02694249
0.053067997 0.0368836 0.05857268 -0.042843472 0.0007451777 0.00032930519 -0.030248202 -0.043485727
0.0117581105 -0.05338951 -0.028500283 0.09017709 -0.017981013 -0.0329609 0.008686826 -0.02461671
0.017201407 0.03766614 -0.12697421 -0.0064152386 -0.059338827 0.062256567 -0.0075186947 -0.0309598
-0.071639426 -0.0067027863 -0.02923812 -0.0069326134 -0.034463495 -0.015619357 0.016534014 0.003913707
-0.001186236 -0.039173875 -0.040490236 -0.024961889 -0.020124655 -0.014078323 0.0069009652 -0.047357682
-0.062938 0.052704014 0.10638853 -0.012293756 0.063037135 -0.019039107 0.096799016 -0.111283496
0.18616639 -0.058908097 -0.02610376 -0.0450656 -0.048451826 -0.047895372 -0.10390175 -0.10365755
0.00951628 -0.0500225 0.024875442 0.042876795 0.05846356 -0.0074006156 -0.110023536 0.0010853161
0.026821457 -0.008884521 0.08936002 -0.095781446 0.32968983 0.053595416 0.025226288 0.09037997
-0.070062 0.26476392 -0.39165518 -0.046159644 -0.021966668 0.16572466 0.41614372 0.57857597
-0.03435052 -0.00033024547 0.014479203 0.03986178 0.08081062 -0.17792913 0.07632585 -0.013726014
0.018079454 -0.04568352 -0.018737722 -0.12317778 0.13329558 0.03485974 -0.07326912 -0.04237131
-0.10868719 0.08688034 0.13779666 0.07199561 0.062270068 0.064769536 -0.09191229 0.11294153
0.12422301 -0.11116912 0.0646423 -0.040122725 0.016684605 0.06495122 0.00020759119 0.12670846
-0.0011004743 -1.211151 -0.90562665 4.23645 -0.53362375 0.07816789 0.03912013 -0.5679917
-0.6012353 0.012444698 0.053963214 0.035550248 0.24410425 0.005733979 0.054305237 0.02040489
0.05007128 -0.021416657 -0.051061578 0.045805383 0.009589123 0.31246895 0.2498082 0.04732928
-0.24708922 -0.12579305 0.088259965 0.024878925 0.24351071 0.00824701 -0.15624532 -0.08411807
-0.018749762 -0.29999888 0.2795485 0.020065589 -0.26681107 -0.041241728 0.06703746 -0.012082822
-0.019798098 0.021121228 -0.2631958 -0.24798936 0.2207572 -0.76615304 -0.6344926 0.50036085
0.06606578 0.15228342 -0.11630833 0.58435947 0.38230908 -0.1676651 -0.14115593 -0.13892011
0.037428387 -0.0098734815 -0.0034435194 0.015296955 -0.009760713 0.013018983 -0.11918964 0.04116537
0.017366698 0.034703024 0.038543966 0.20273648 -0.042931724 -0.06502789 0.05268824 0.012236637
-0.0126917185 -0.034739554 0.016121382 -0.07885866 0.011668703 -0.03565231 0.048091386 0.0123190535
00000000: cafc 563f 6b63 6cbf aeb7 7fbf 6508 8abf
00000010: 0544 a4bf 07b3 33bf 6d98 f73d 29d1 a7bf
00000020: 53d8 99bf 523e ef3f e55d 2b3e 4524 11be
00000030: d8d3 5d3d c469 79bd 7138 963b 4f28 d3bd
00000040: 538a e23d 6b36 2ebe c0f0 f6bd 0f64 93bd
00000050: acf6 473e 18ca 113d ac56 083e df9e bf3d
00000060: 3368 a53c 6cc0 ecbd 4e5e 90bc 4d00 0ebe
00000070: 5a32 65bd 8a70 b63d 8921 81bd d945 d43d
00000080: 1e8e e1bd a56c bdbd 9a2c 62bb 36ba 753d
00000090: 3088 953c ca06 9fbd 4fd3 f33d e80a 1ebe
000000a0: dc57 22bd 6073 423c 3f0c a7bd 05df 2b3e
000000b0: f7bc 513e 89dd 103e 4714 f83d db60 f43d
000000c0: c65f 203e 51c3 9a3d 5682 97be b329 d23d
000000d0: 29f0 1e3e 15ef bebd fe88 293e 2b23 0a3c
000000e0: 9ea8 0dbb b941 3bbd 6c36 cbbc 869c 03bc
000000f0: f585 59bc 0164 4b3d 67c8 9c3d 7fb6 dcbc
00000100: d45d 593d 4213 173d e8e9 6f3d a37c 2fbd
00000110: 0758 433a 98a6 ac39 14cb f7bc 171e 32bd
00000120: 17a5 403c f5ae 5abd 6d79 e9bc c4ae b83d
00000130: eb4c 93bc 0202 07bd 3053 0e3c fca8 c9bc
00000140: f7e9 8c3c cf47 1a3d 8705 02be ec36 d2bb
00000150: 450d 73bd be00 7f3d 625f f6bb 689f fdbc
00000160: b1b7 92bd 0ca3 dbbb c884 efbc fa2a e3bb
00000170: 9829 0dbd 55e8 7fbc 5772 873c 8e3e 803b
00000180: 7a7b 9bba c974 20bd 17d9 25bd e07c ccbc
00000190: 76dc a4bc c4a8 66bc 7e21 e23b 21fa 41bd
000001a0: a3e5 80bd 2ae0 573d 3be2 d93d c06b 49bc
000001b0: 9d19 813d e7f7 9bbc 903e c63d 9ae8 e3bd
000001c0: 67a2 3e3e 9e49 71bd 8dd7 d5bc b596 38bd
000001d0: 6c75 46bd f02d 44bd 71ca d4bd 694a d4bd
000001e0: 2cea 1b3c 65e4 4cbd 95c7 cb3c 949f 2f3d
000001f0: 7c77 6f3d dd80 f2bb 0554 e1bd 2a41 8e3a
00000200: acb8 db3c 6290 11bc 6302 b73d 1029 c4bd
00000210: 1bcd a83e de86 5b3d 5ca7 ce3c 2219 b93d
00000220: aa7c 8fbd 238f 873e 0787 c8be e511 3dbd
00000230: 71f3 b3bc bab3 293e ca10 d53e 8e1d 143f
00000240: 22b3 0cbd cc24 adb9 2e3a 6d3c 1b46 233d
00000250: 0a80 a53d 0e33 36be ba50 9c3d 13e3 60bc
00000260: 5d1b 943c a51e 3bbd da7f 99bc a244 fcbd
00000270: a37e 083e 16c9 0e3d 1f0e 96bd 8a8d 2dbd
00000280: 6497 debd 52ee b13d 911a 0d3e 6f72 933d
00000290: e60e 7f3d e4a5 843d 833c bcbd e44d e73d
000002a0: a268 fe3d a3ac e3bd 2f63 843d ba57 24bd
000002b0: 27ae 883c 2505 853d d6ac 5939 ddbf 013e
000002c0: ca3d 90ba ff06 9bbf 26d7 67bf 0091 8740
000002d0: 919b 08bf 7d16 a03d 6e3c 203d e767 11bf
000002e0: 8eea 19bf d9e4 4b3c 8808 5d3d 239d 113d
000002f0: 77f6 793e 1ae4 bb3b 2b6f 5e3d 2828 a73c
00000300: 8b17 4d3d fc71 afbc f225 51bd 6d9e 3b3d
00000310: b21b 1d3c eefb 9f3e b9cd 7f3e 59dc 413d
00000320: f504 7dbe e5cf 00be a4c1 b43d e3ce cb3c
00000330: df5a 793e 781e 073c c6fe 1fbe 1846 acbd
00000340: 1a99 99bc 7499 99be fb20 8f3e 9760 a43c
00000350: 769b 88be 16ed 28bd f04a 893d 07f7 45bc
00000360: 9f2f a2bc 6d06 ad3c 9ac1 86be ecf0 7dbe
00000370: 2d0e 623e 9b22 44bf 1b6e 22bf a617 003f
00000380: 7f4d 873d 2ff0 1b3e 1033 eebd 9598 153f
00000390: 04be c33e 66b0 2bbe 2e8b 10be 1341 0ebe
000003a0: 824e 193d 62c4 21bc abac 61bb 14a0 7a3c
000003b0: 66eb 1fbc 934d 553c b319 f4bd 059d 283d
000003c0: 9b44 8e3c c224 0e3d 47e0 1d3d 279a 4f3e
000003d0: 2dd9 2fbd 582d 85bd a0cf 573d 2d7c 483c
000003e0: edf0 4fbc 104b 0ebd fd10 843c a680 a1bd
000003f0: 162e 3f3c 2808 12bd 79fb 443d dbd5 493c

final.linears.0.bias f4 [88]
0.45667303 -0.14425026 0.11994463 0.14137062 0.14672127 0.4635427 0.090806395 0.2114721
-0.33723104 0.100710705 -0.048597913 0.2099398 -0.20953318 0.42430335 -0.3092389 -0.33261678
-0.087483756 -0.25769246 -0.18899797 -0.052273445 0.28167626 0.15742059 0.10181049 0.035912655
0.30102018 0.16292685 0.19238283 -0.20934209 0.021412594 0.65810555 -0.14985014 -0.14517158
0.29710963 0.37122792 -0.659107 -0.73554474 0.18034735 -0.037885264 -0.18181404 -0.39349565
-0.24666251 0.06263866 0.113582455 -0.037917815 -0.31917942 -0.15944463 0.18917054 -0.45122075
-0.83815795 0.075776085 0.13482195 0.00500174 -0.56686616 0.549594 0.05106358 0.061537404
0.21914534 -0.18235649 -0.208807 -0.42139605 -0.13753869 0.332141 -0.23831269 0.6619103
0.05047703 -0.27721527 -0.038217843 -0.2625965 0.06329445 -0.08675177 0.109702505 0.25164023
0.21478112 0.14068209 0.23224859 -0.18812868 0.10837687 0.3986503 -0.04944235 0.35809603
-0.5308839 0.0664293 -0.1487983 0.005943158 -0.15409283 -0.23548031 0.32783103 0.017130358
00000000: 0cd1 e93e 57b6 13be 88a5 f53d 76c3 103e
00000010: 1a3e 163e 7855 ed3e b4f8 b93d 248c 583e
00000020: 8ca9 acbe 6a41 ce3d 9b0e 47bd 75fa 563e
00000030: de8f 56be 4a3e d93e 9054 9ebe bf4c aabe
00000040: af2a b3bd 44f0 83be af88 41be ae1c 56bd
00000050: df37 903e dd32 213e 0582 d03d 2619 133d
00000060: 511f 9a3e 4cd6 263e 0100 453e c65d 56be
00000070: 7769 af3c 9b79 283f 5172 19be dca7 14be
00000080: c11e 983e 9611 be3e 3dbb 28bf a94c 3cbf
00000090: faac 383e 942d 1bbd 762d 3abe 4378 c9be
000000a0: 1995 7cbe b348 803d eb9d e83d b64f 1bbd
000000b0: 7c6b a3be 7445 23be ecb5 413e 6806 e7be
000000c0: 8591 56bf 7e30 9b3d c40e 0a3e a3e5 a33b
000000d0: 241e 11bf 31b2 0c3f 0b28 513d a50e 7c3d
000000e0: a367 603e a9bb 3abe 81d1 55be 39c1 d7be
000000f0: f1d6 0cbe 630e aa3e 3e08 74be f472 293f
00000100: 01c1 4e3d 29ef 8dbe 508a 1cbd 0c73 86be
00000110: 85a0 813d e9aa b1bd b5ab e03d fdd6 803e
00000120: 95ef 5b3e f70e 103e 93d2 6d3e cea4 40be
00000130: b1f4 dd3d e41b cc3e 1084 4abd 5d58 b73e
00000140: 02e8 07bf 160c 883d 955e 18be d3be c23b
00000150: 83ca 1dbe c021 71be 78d9 a73e f754 8c3c

final.linears.1.weight f4 [88, 88]
-0.52086246 -0.06251059 -0.11023527 0.006354597 -0.48832965 -0.0909 -0.074458174 -0.0070284116
0.26695666 -0.24794681 -0.4621555 -1.653094 0.006932565 0.024347745 -0.01918914 0.019099863
-0.16879874 0.20667696 -0.51471215 -0.071887575 -0.2677059 0.17659502 -0.10146278 -0.21782279
-0.014722292 -0.24260922 -0.35096234 -0.5337193 -0.4626915 -0.43427265 -0.0034985323 0.09269282
-0.004352727 -0.0021576593 0.24960315 0.21097042 -0.3772598 -0.051721975 0.22778772 -0.11561534
-0.06536997 0.08891682 -0.019390339 -0.0046704803 -0.02208131 -0.034966264 -0.05044185 -0.14878395
0.20334677 -0.1734065 -0.39891186 -0.2934569 -0.35800895 -0.10179815 0.037485555 -0.28988823
-0.2084501 -0.5147267 -0.038873475 -0.011815043 -0.32970098 -0.5506745 -0.4876503 -0.42232367
-0.59797496 -0.17405184 -0.065600604 -0.07260747 -0.15921642 -0.48552376 -0.008527243 -0.37959182
-0.26177046 -0.4987473 0.023350997 -0.09708958 0.0038713191 -0.4823109 -0.44928637 0.065312855
0.063870125 0.0025738315 -0.3167656 -0.4213264 -0.05092738 0.17933379 -0.4793378 -0.4454724
-0.44546244 -0.006160099 -0.016890215 -0.03223653 -0.42395535 0.011994003 -0.021516245 0.025633695
0.16258858 -0.17069623 -0.39962086 -0.4474251 0.0208823 -0.024900988 0.014245793 0.038029484
-0.20398691 0.22703786 -0.45347682 -0.05511788 -0.24547261 0.09634943 -0.00687311 -0.35084707
-0.09282824 -0.8963172 -0.2926447 -0.4127307 -0.33828577 -0.39719582 -0.016823035 0.21240927
-0.049480047 0.02804794 0.17827134 0.24005608 -0.3677465 0.0021545494 0.31990436 -0.08033052
-0.018600175 0.006159033 -0.01044616 0.012105931 -0.02864987 -0.04107794 0.0030374601 -0.1380091
0.21899153 -0.14453399 -0.26988384 -0.22583523 -0.44030464 -0.12353133 -0.6272662 -0.23421483
-0.16273133 -0.4545143 -0.0011911984 0.005160269 -0.3090623 -0.88628906 -0.42731485 -0.35450992
-0.34714118 0.006043952 -0.0010705292 -0.03470172 -0.036023173 -0.37420934 -0.04330394 -0.17929673
-0.121791504 -0.16079658 -0.0007546798 0.1283068 -0.016603082 -0.440389 -0.36859074 -0.057434645
0.1267551 -0.057737235 -0.082820244 -0.47517225 -0.02820423 0.15064734 -0.22086176 -0.3914796
0.22221118 -0.04604901 -0.064933784 0.05019127 -0.05114324 -0.06564691 0.031315412 0.045588773
0.032647133 -0.034384537 -0.06016356 -0.10461682 -0.038129315 0.24900696 -0.04728311 -0.0011831708
-0.08422241 0.1293654 -0.05827143 0.016327742 -0.07169478 0.01988751 -0.12095553 -0.041056953
-0.02188202 -0.07861716 -0.13647594 -0.046663653 -0.054186963 -0.04794591 -0.025212148 0.05468154
-0.026375838 0.07309353 0.017066125 0.034364417 -0.06027158 -0.036649577 0.053856988 -0.0015611809
-0.03491683 0.21232702 0.07401175 -0.07095936 -0.11479231 -0.05541654 0.13865598 -0.14236964
0.043142233 -0.0400882 0.0964875 -0.07100874 -0.21493335 -0.0178927 0.10790009 -0.072802514
-0.033101417 -0.04353013 0.00038918643 -0.00060507667 -0.09378529 -0.04300949 -0.074835874 -0.0474113
0.049615595 -0.17960957 0.0007498466 -0.21354336 -0.012353447 -0.26708224 0.07113372 0.019118557
-0.0104044955 -0.060806215 0.13845001 0.017534913 -0.078596 0.3651878 -0.042095814 0.27473772
00000000: 3e57 05bf 8d05 80bd 07c3 e1bd 393a d03b
00000010: 5806 fabe c729 babd 877d 98bd 974e e6bb
00000020: 8bae 883e c5e5 7dbe a59f ecbe 9698 d3bf
00000030: 922a e33b ec74 c73c 8b32 9dbc 5177 9c3c
00000040: 94d9 2cbe 20a3 533e 2dc4 03bf cb39 93bd
00000050: bf10 89be 53d5 343e b8cb cfbd f00c 5fbe
00000060: c535 71bc 8d6e 78be 56b1 b3be d4a1 08bf
00000070: e6e5 ecbe fc58 debe a247 65bb bcd5 bd3d
00000080: 52a1 8ebb 8467 0dbb f897 7f3e a108 583e
00000090: 3228 c1be 6cda 53bd 2f41 693e bcc7 ecbd
000000a0: b1e0 85bd 061a b63d 7dd8 9ebc d40a 99bb
000000b0: dde3 b4bc c938 0fbd 1d9c 4ebd d25a 18be
000000c0: 233a 503e 7991 31be 2d3e ccbe fc3f 96be
000000d0: f34c b7be 8c7b d0bd 748a 193d 3b6c 94be
000000e0: f173 55be 21c5 03bf cb39 1fbd e293 41bc
000000f0: 91ce a8be 01f9 0cbf 4dad f9be cf3a d8be
00000100: e314 19bf a53a 32be 9c59 86bd 3ab3 94bd
00000110: a109 23be 9296 f8be d9b5 0bbc dc59 c2be
00000120: c706 86be ce5b ffbe 974a bf3c e7d6 c6bd
00000130: f5b5 7d3b 74f1 f6be dd08 e6be bfc2 853d
00000140: 57ce 823d baad 283b 1a2f a2be 18b8 d7be
00000150: 3a99 50bd 47a3 373e c46b f5be f514 e4be
00000160: a713 e4be a8da c9bb 595d 8abc 740a 04bd
00000170: ad10 d9be 7f82 443c d642 b0bc c1fd d13c
00000180: 9f7d 263e feca 2ebe 1b9b ccbe e714 e5be
00000190: 5b11 ab3c 28fd cbbc 3067 693c cec4 1b3d
000001a0: f2e1 50be 9d7c 683e 1d2e e8be 49c3 61bd
000001b0: 2c5d 7bbe da52 c53d d337 e1bb 3aa2 b3be
000001c0: bb1c bebd 0b75 65bf 87d5 95be 7051 d3be
000001d0: cb33 adbe 405d cbbe 76d0 89bc d181 593e
000001e0: 97ab 4abd cbc4 e53c c38c 363e 43d1 753e
000001f0: 4549 bcbe 5733 0d3b 81ca a33e 5484 a4bd
00000200: 655f 98bc b7d1 c93b 5f26 2bbc f457 463c
00000210: 22b3 eabc 5841 28bd 2010 473b 4252 0dbe
00000220: 513f 603e b800 14be 372e 8abe 5a41 67be
00000230: 9c6f e1be fefd fcbd 8594 20bf 03d6 6fbe
00000240: 0ba3 26be 19b6 e8be fc21 9cba 7917 a93b
00000250: 6a3d 9ebe d7e3 62bf 03c9 dabe 5382 b5be
00000260: 7dbc b1be 580c c63b 0051 8cba 6423 0ebd
00000270: 098d 13bd 5e98 bfbe 795f 31bd 9099 37be
00000280: d36d f9bd dca7 24be b4d5 45ba dc62 033e
00000290: 3003 88bc ab7a e1be edb7 bcbe 9740 6bbd
000002a0: 17cc 013e e17d 6cbd a99d a9bd c749 f3be
000002b0: 8f0c e7bc 4c43 1a3e 9629 62be 0470 c8be
000002c0: 548b 633e e39d 3cbd 01fc 84bd 5c95 4d3d
000002d0: 937b 51bd e371 86bd 9744 003d 4bbb 3a3d
000002e0: 00b9 053d cdd6 0cbd 116e 76bd 5841 d6bd
000002f0: 7c2d 1cbd aefb 7e3e efab 41bd a014 9bba
00000300: cd7c acbd 5d78 043e 06ae 6ebd c2c1 853c
00000310: b6d4 92bd 22eb a23c 88b7 f7bd 562b 28bd
00000320: ec41 b3bc 0902 a1bd 59c0 0bbe 6322 3fbd
00000330: 26f3 5dbd ee62 44bd b589 cebc c0f9 5f3d
00000340: 2412 d8bc 10b2 953d 42ce 8b3c b4c1 0c3d
00000350: 55df 76bd de1d 16bd 2599 5c3d 8aa0 ccba
00000360: f304 0fbd 416c 593e 7993 973d 2453 91bd
00000370: 3b18 ebbd 74fc 62bd d5fb 0d3e 59c9 11be
00000380: e9b5 303d 8633 24bd 3d9b c53d 086d 91bd
00000390: 7d17 5cbe b693 92bc b9fa dc3d 7c19 95bd
000003a0: 5a95 07bd a64c 32bd b80b cc39 029e 1eba
000003b0: 8112 c0bd b82a 30bd 8d43 99bd 5a32 42bd
000003c0: b939 4b3d 92eb 37be 5a91 443a 1cab 5abe
000003d0: 1d66 4abc 01bf 88be 8eae 913d 859e 9c3c
000003e0: 9e77 2abc f00f 79bd d7c5 0d3e 61a5 8f3c
000003f0: f1f6 a0bd e5f9 ba3e a96c 2cbd 6caa 8c3e

final.linears.1.bias f4 [88]
-0.25786173 -0.2521583 0.12849407 -0.3342929 -0.24449901 -0.18768334 -0.056265652 0.03687047
0.044975005 -0.007176823 0.02318832 0.070403144 -0.1614589 -0.10531191 0.0673654 -0.2895846
-0.5201313 0.63283104 -0.0043222825 -0.37007117 0.008010648 -0.13762432 -0.023805862 -0.015964
-0.51055366 -0.1208994 -0.30932963 -0.034917194 -0.052854877 -0.5805298 -0.32145423 0.024574209
-0.21397649 -0.052601382 -0.10491166 0.031140832 -0.03742746 -0.0066422876 -0.32182318 -0.0009381786
-0.09526205 -0.15612862 -0.16137429 -0.11524598 0.08849645 -0.09826588 -0.1319681 -0.031433243
0.012701214 -0.15301546 -0.11800636 -0.0049758144 -0.10593582 -0.25955084 0.19117461 -0.27176726
-0.26640737 -0.10612244 -0.43757337 -0.099858776 -0.15785444 -0.5543854 -0.2358332 -0.5196401
-0.28749496 0.2504817 -0.217885 -0.18652187 -0.5146748 -0.10746855 -0.20203355 -0.0417133
-0.004747239 0.04152137 -0.3727335 -0.27182683 0.15179774 0.31590146 -0.24489693 -0.015817827
-0.24063347 -0.042942323 0.6744478 0.7147682 -0.14897111 -0.67192215 -0.12190616 -0.8699736
00000000: 7406 84be e51a 81be f393 033e 7028 abbe
00000010: f35d 7abe 1030 40be d076 66bd 7d05 173d
00000020: b637 383d 8e2b ebbb 6ff5 bd3c 862f 903d
00000030: 7b55 25be c5ad d7bd dff6 893d 6f44 94be
00000040: 5327 05bf 3701 223f efa1 8dbb f879 bdbe
00000050: 183f 033c 64ed 0cbe 8304 c3bc efc6 82bc
00000060: a5b3 02bf 1b9a f7bd 7460 9ebe 5505 0fbd
00000070: 5b7e 58bd 9a9d 14bf a695 a4be da4f c93c
00000080: a71c 5bbe 8c74 57bd eddb d6bd 0f1b ff3c
00000090: 894d 19bd 8ca7 d9bb 02c6 a4be 1af0 75ba
000000a0: c018 c3bd 2ee0 1fbe 4d3f 25be 1606 ecbd
000000b0: a03d b53d 9f3f c9bd a522 07be 25c0 00bd
000000c0: c118 503c 16b0 1cbe 52ad f1bd 280c a3bb
000000d0: e1f4 d8bd d9e3 84be 47c3 433e 1425 8bbe
000000e0: 8c66 88be b956 d9bd 9e09 e0be c282 ccbd
000000f0: 98a4 21be 34ec 0dbf 427e 71be 2207 05bf
00000100: 8a32 93be 233f 803e 3f1d 5fbe 97ff 3ebe
00000110: bac1 03bf 7918 dcbd e2e1 4ebe 91db 2abd
00000120: ba8e 9bbb 5012 2a3d edd6 bebe e32c 8bbe
00000130: de70 1b3e d6bd a13e 43c6 7abe 6394 81bc
00000140: 9f68 76be 4ae4 2fbd 9ca8 2c3f 0cfb 363f
00000150: e28b 18be 1703 2cbf f0a9 f9bd 97b6 5ebf

final.linears.2.weight f4 [12, 88]
0.03531874 0.53864473 -0.10856828 -0.43800622 -0.42922807 -0.27163178 0.124180466 0.0022559022
-0.04694092 -0.002113067 -0.076760806 0.039476078 0.31502554 -0.10086699 0.0062272814 -0.1582378
0.0026074152 -0.0089573935 0.1640642 0.0017030557 -0.15313016 -0.046363134 0.081694916 0.0043949075
-0.01017544 0.1286587 0.004601856 -0.08866915 -0.022078842 -0.05298268 -0.5957224 -0.006591008
-0.0005389446 -0.19346534 0.11498005 0.23805518 -0.025325987 -0.06729578 0.09763813 0.0010144974
-0.08613049 0.11222408 -0.07129651 -0.16555624 0.1926002 0.0043092906 -0.4190809 -0.0653784
0.0037170728 0.5328539 0.13503739 -0.14354436 -0.04375622 0.29249606 0.0007678012 0.056459997
-0.21472578 0.0770553 -0.0030188481 0.1918869 0.008725114 -0.00672 -0.5476772 0.015830044
0.75977683 -0.0075316625 -0.19750011 0.00483641 0.017495776 -0.27737966 0.18717776 0.15921418
0.19561824 0.10097789 -0.001000717 0.20501478 0.01110768 -0.0015638622 -0.6945086 -0.03227785
0.63650876 0.083385564 -0.0018912774 -0.0063960417 0.08506063 0.010152596 0.013676316 0.005615076
0.080359116 0.17670235 -0.11373911 0.25275075 -0.052595872 -0.22217672 0.019664312 -0.093857534
0.002436587 -0.35484394 0.009019815 -0.08369878 -0.05029106 0.06137528 -0.08958359 0.03776544
0.21961996 -0.14995912 -0.0036570681 0.09424714 -0.08060306 0.079423256 0.0104993675 -0.09624418
0.1663927 0.08100536 -0.021603964 0.03678404 0.03383383 0.79722935 0.27796164 0.003914878
0.16800788 0.048724033 0.031525545 0.008354269 0.006189909 -0.022025082 0.34158352 -0.00037373463
0.07306376 0.12067119 0.099010564 0.03615234 -0.0331751 -0.23961124 -0.40461951 -0.119904175
0.05757198 -0.10524289 -0.015980462 0.026286025 0.059372824 0.21192199 0.59032553 0.11149412
0.32588005 0.020040315 0.0045512873 -0.3972227 0.04273079 -0.43583378 0.12825704 0.1683423
-0.005898583 0.07947025 0.072685204 0.1750081 0.327566 -0.011165557 -0.11446782 0.019889502
-0.011565961 -0.04602308 -0.58420724 0.14754476 0.0673656 -0.2948895 -0.46387124 0.00077441265
-0.26446876 -0.0026904438 -0.16176759 -0.7565866 -0.8775201 0.42392242 0.0521874 0.4907818
0.058938235 0.15409516 -0.10509875 0.31356853 0.013128409 -0.24827968 0.02460111 -0.102179065
0.012031757 0.17862107 -3.9339648e-05 -0.092908785 -0.1151334 0.049269047 -0.08788824 0.0077571725
-1.1181645 -0.17255902 -0.0068258964 0.3506814 -0.09680662 0.09725961 0.00071221736 -0.10136031
0.20461036 0.07028547 0.4272343 0.030713253 0.07076877 0.035842475 0.2900314 -0.12345339
-0.5253417 0.025156848 0.047773886 0.022625592 0.00972864 -0.038035404 0.24585181 -0.0024533055
0.090918824 0.11046381 0.08231437 0.03148777 -0.047280308 0.41705194 -0.36461934 -0.14708446
0.0891531 -0.08660303 0.032671325 0.0034521236 0.0643559 0.26838407 -0.25090593 0.11337496
0.29123354 -0.0025459419 0.11289299 -0.39118302 -0.11665452 -0.111276135 0.12280416 0.26355642
-0.0018840719 0.092566125 0.1496728 0.18040837 0.29751322 -0.0060853534 -0.070918985 0.0017968551
-0.024964351 -0.044236105 0.6228449 0.21747491 0.06407655 0.09678297 -0.43100306 -0.008134019
00000000: 62aa 103d 9fe4 093f 0c59 debd 5a42 e0be
00000010: c8c3 dbbe 5213 8bbe 5452 fe3d c2d7 133b
00000020: 1f45 40bd 627b 0abb c534 9dbd abb1 213d
00000030: 074b a13e 5a93 cebd 390e cc3b 1709 22be
00000040: 2be1 2a3b 08c2 12bc 7200 283e 1139 df3a
00000050: 27ce 1cbe 45e7 3dbd aa4f a73d 2803 903b
00000060: e4b6 26bc 1bbf 033e 2bcb 963b 2c98 b5bd
00000070: b0de b4bc 5e04 59bd 4381 18bf 62f9 d7bb
00000080: f647 0dba c71b 46be a97a eb3d bdc4 733e
00000090: 7278 cfbc 5fd2 89bd 80f6 c73d e2f8 843a
000000a0: 2f65 b0bd bdd5 e53d e803 92bd 9387 29be
000000b0: fd38 453e f334 8d3b c691 d6be 1ce5 85bd
000000c0: 229a 733b 1d69 083f 3e47 0a3e 4bfd 12be
000000d0: b939 33bd 0bc2 953e 4446 493a 9942 673d
000000e0: 13e1 5bbe 2bcf 9d3d ded7 45bb 007e 443e
000000f0: c8f3 0e3c 7233 dcbb 9334 0cbf 02ae 813c
00000100: bc80 423f 2acc f6bb 783d 4abe bf7a 9e3b
00000110: 4d53 8f3c b504 8ebe 87ab 3f3e 0b09 233e
00000120: 2650 483e 7fcd ce3d 7e2a 83ba 65ef 513e
00000130: fdfc 353c 82fa ccba 51cb 31bf c735 04bd
00000140: 3df2 223f 0dc6 aa3d bde4 f7ba e395 d1bb
00000150: 4534 ae3d 1357 263c a012 603c acfe b73b
00000160: 5293 a43d 76f1 343e 0df0 e8bd 8c68 813e
00000170: c56e 57bd 4b82 63be 0d17 a13c 6138 c0bd
00000180: 25af 1f3b 1bae b5be d9c7 133c 446a abbd
00000190: 00fe 4dbd a564 7b3d 9a77 b7bd efaf 1a3d
000001a0: 0ee4 603e e28e 19be 6cab 6fbb a504 c13d
000001b0: 3813 a5bd a9a8 a23d 8a05 2c3c ab1b c5bd
000001c0: d962 2a3e 23e6 a53d ccfa b0bc ddaa 163d
000001d0: 5895 0a3d 3917 4c3f fd50 8e3e 6048 803b
000001e0: 420a 2c3e da92 473d ee20 013d 58e0 083c
000001f0: b8d4 ca3b f26d b4bc 09e4 ae3e d0f1 c3b9
00000200: 74a2 953d 7522 f73d 0dc6 ca3d 7a14 143d
00000210: 9de2 07bd a65c 75be 4a2a cfbe 5290 f5bd
00000220: 99d0 6b3d 9689 d7bd 75e9 82bc ca55 d73c
00000230: eb30 733d 1402 593e 931f 173f 0757 e43d
00000240: c0d9 a63e 962b a43c f722 953b c660 cbbe
00000250: 7b06 2f3d 9b25 dfbe d055 033e ed61 2c3e
00000260: e748 c1bb 4cc1 a23d fbdb 943d 5335 333e
00000270: bbb6 a73e beef 36bc 1b6e eabd 4fef a23c
00000280: 287f 3dbc b282 3cbd 9b8e 15bf f915 173e
00000290: faf6 893d c2fb 96be 8880 edbe f401 4b3a
000002a0: 7368 87be 2852 30bb 67a6 25be a9af 41bf
000002b0: 28a5 60bf 5c0c d93e 75c2 553d c147 fb3e
000002c0: 3869 713d 1fcb 1d3e 033e d7bd 0e8c a03e
000002d0: 8a18 573c 073d 7ebe 4488 c93c 4243 d1bd
000002e0: d920 453c 71e8 363e a000 25b8 f646 bebd
000002f0: 0fcb ebbd 57ce 493d c0fe b3bd e12f fe3b
00000300: 0420 8fbf 50b3 30be c5ab dfbb 838c b33e
00000310: 8d42 c6bd 0c30 c73d 19b4 3a3a ff95 cfbd
00000320: 6185 513e d4f1 8f3d 74be da3e 5c9a fb3c
00000330: 38ef 903d 8fcf 123d ff7e 943e 22d5 fcbd
00000340: cb7c 06bf bc15 ce3c 8dae 433d 4e59 b93c
00000350: e064 1f3c 03cb 1bbd 94c0 7b3e a3c7 20bb
00000360: a633 ba3d da3a e23d 7094 a83d 52f9 003d
00000370: ffa8 41bd d587 d53e 63af babe 4f9d 16be
00000380: e795 b63d ee5c b1bd 5ed2 053d 063d 623b
00000390: 07cd 833d a369 893e be76 80be 2231 e83d
000003a0: 901c 953e d1d9 26bb 7134 e73d 2449 c8be
000003b0: 91e8 eebd bee4 e3bd bf80 fb3d def0 863e
000003c0: f6f2 f6ba 4f93 bd3d d443 193e f9bc 383e
000003d0: a753 983e a567 c7bb f93d 91bd 7484 eb3a
000003e0: 0a82 ccbc eb30 35bd c372 1f3f beb1 5e3e
000003f0: 913a 833d 2636 c63d 6fac dcbe 8c44 05bc

final.linears.2.bias f4 [12]
0.029456506 0.35033804 -0.0906996 0.053923905 -0.28429505 -0.00064767635 0.04551415 -0.27671212
-0.1292137 -0.0039134854 -0.045017842 0.018952483
00000000: c54e f13c 825f b33e b6c0 b9bd 50df 5c3d
00000010: 1f8f 91be d3c8 29ba 0c6d 3a3d 36ad 8dbe
00000020: 9950 04be b23c 80bb a164 38bd 3d42 9b3c

layers.0.attn.0.gnn_q.weight f4 [12, 16]
6.874766e-34 9.570983e-34 1.04047395e-33 8.917422e-34 1.0474146e-33 4.2471626e-34 -1.0077133e-33 1.0471173e-33
-7.572104e-34 9.874343e-34 1.0231107e-33 9.482916e-34 -1.0576499e-33 7.5551042e-34 -1.0578696e-33 1.066687e-33
-1.0539797e-33 -1.0140881e-33 -9.7447995e-34 1.052248e-33 9.6639705e-34 1.0565325e-33 -9.961707e-34 -9.951748e-34
-1.0243242e-33 8.0538886e-35 -9.5993495e-34 9.517923e-34 1.6744481e-37 9.609586e-34 -1.0427601e-33 -9.981929e-34
-1.0534611e-33 -5.649845e-34 -1.0581078e-33 -1.0087428e-33 -1.04832175e-33 9.603979e-34 1.0318902e-33 -1.0083388e-33
1.0318889e-33 1.0586147e-33 -4.588906e-34 -9.97072e-34 9.710182e-34 -1.509682e-35 -1.0514087e-33 -1.0284964e-33
9.861864e-34 -1.0424322e-33 1.0658124e-33 -8.605478e-34 1.0662618e-33 -1.05955305e-33 9.438097e-34 -4.987485e-34
7.998577e-34 9.966354e-34 -5.1707623e-34 1.022931e-33 7.771332e-34 8.826869e-34 2.3184342e-34 -1.0558993e-33
-9.923249e-34 1.0477062e-33 9.479207e-34 -9.830391e-34 1.0290554e-33 1.0325054e-33 9.854424e-34 -7.2321973e-34
-1.016335e-33 1.0013512e-33 1.0550021e-33 1.068133e-33 1.0520638e-33 1.0242258e-33 1.0104526e-33 -1.0470938e-33
-1.0636265e-33 -1.05632475e-33 1.0253132e-33 9.901501e-34 -1.0538671e-33 9.977876e-34 1.0643144e-33 -1.0472435e-33
1.0586337e-33 6.4512627e-34 1.0252245e-33 -1.01562e-33 -4.177348e-34 -9.97206e-34 1.02467475e-33 1.0578829e-33
-1.0435015e-33 -1.0523203e-33 -9.741093e-34 -1.00600515e-33 -1.5445966e-34 1.0619366e-33 -1.0487734e-33 -7.7191775e-34
-8.574898e-34 1.0039298e-33 8.601356e-35 -9.017402e-34 -1.0564762e-33 -1.0149752e-33 1.0204172e-33 -7.9897855e-34
-1.0311834e-33 1.0488898e-33 9.9509775e-34 1.0271583e-33 -8.723102e-34 -1.0375734e-33 9.674493e-34 8.883016e-34
-1.0367088e-33 -5.4799356e-34 7.748839e-34 1.0538647e-33 -1.03196e-33 1.0347322e-33 5.1408294e-35 -1.0445968e-33
9.712629e-34 9.947332e-34 1.0032141e-33 8.9324245e-34 -1.0496803e-33 1.047713e-33 -8.8489745e-34 1.0515665e-33
-1.4887335e-34 5.7778564e-34 -1.0543452e-33 1.0119929e-33 -9.569047e-34 -1.0472223e-33 9.84585e-34 -1.0579151e-33
1.064338e-33 -1.0638611e-33 1.0239724e-33 8.379526e-34 -1.0519192e-33 1.0299139e-33 -1.009357e-33 1.0470754e-33
-6.26701e-34 -1.0331927e-33 9.9584355e-34 1.0569001e-33 1.0438089e-33 1.0517142e-33 1.0493359e-33 -9.575768e-34
-9.226623e-34 -9.449821e-34 9.874256e-34 -9.694297e-34 -1.063265e-33 -1.0564177e-33 1.021642e-33 1.0624433e-33
9.554283e-34 -8.264146e-34 -1.0213908e-33 9.737918e-34 5.513874e-34 -5.16958e-34 9.921552e-34 -1.0530195e-33
-1.0645583e-33 -1.06387795e-33 3.938159e-34 -1.0565752e-33 -8.826283e-34 2.1383624e-35 9.7632e-34 -9.703152e-34
-8.829029e-34 -1.0012896e-33 -1.0178274e-33 -1.0398941e-33 7.616024e-34 -9.336224e-34 -2.2194094e-35 -1.0545774e-33
00000000: 0b74 6408 7606 9f08 dee0 ac08 852a 9408
00000010: 1708 ae08 dd22 0d08 626f a788 72fb ad08
00000020: 56a0 7b88 cf10 a408 51fe a908 dd8f 9d08
00000030: 74bb af88 b80f 7b08 ccc4 af88 d93b b108
00000040: 571f af88 8a7e a888 cbe9 a188 aed5 ae08
00000050: fc91 a008 ec8b af08 6a84 a588 0e5a a588
00000060: ef31 aa88 ed1b d606 1e7f 9f88 c424 9e08
00000070: 00ea 6302 a9aa 9f08 1c42 ad88 6eda a588
00000080: 4809 af88 91bf 3b88 eece af88 2c9b a788
00000090: ad2e ae88 cf92 9f08 c173 ab08 fd89 a788
000000a0: b373 ab08 7de4 af08 187e 1888 c1aa a588
000000b0: 8c56 a108 7489 a085 fbb1 ae88 66e3 aa88
000000c0: bbdb a308 2934 ad88 a516 b108 a8fb 8e88
000000d0: c329 b108 670c b088 3ad1 9c08 d4bc 2588
000000e0: 2fe6 8408 2e98 a508 fbd3 2b88 acf6 a908
000000f0: 971f 8108 59a9 9208 1d16 9a07 fd70 af88
00000100: d5e0 a488 7e14 ae08 1680 9d08 dc55 a388
00000110: 2dfb aa08 ec8d ab08 16bc a308 bb54 7088
00000120: 1cde a888 c560 a608 d44a af08 5a79 b108
00000130: d8cd ae08 bf2d aa08 e6e3 a708 72fa ad88
00000140: abb9 b088 1683 af88 005c aa08 5484 a408
00000150: 8d1a af88 31c9 a508 eed6 b008 d000 ae88
00000160: 4ce5 af08 4661 5608 3a58 aa08 b2bf a888
00000170: f2d0 0a88 74b0 a588 d840 aa08 5dc5 af08
00000180: a561 ad88 c1d8 ae88 07da a188 ba26 a788
00000190: e64f 4d87 ca71 b008 e341 ae88 c041 8088
000001a0: 9579 8e88 73ce a608 cca9 e406 c9d3 9588
000001b0: 8789 af88 45a4 a888 bf8b a908 cac0 8488
000001c0: b155 ab88 d746 ae08 c756 a508 7baa aa08
000001d0: f9ef 9088 7e65 ac88 bebe a008 2c98 9308
000001e0: b740 ac88 231a 3688 eabf 8008 721a af08
000001f0: b976 ab88 a4ec ab08 acaa 8806 3c90 ad88
00000200: f460 a108 4547 a508 02b0 a608 556a 9408
00000210: 7668 ae88 c814 ae08 6007 9388 b1b8 ae08
00000220: fae2 4587 9100 4008 e32e af88 6b25 a808
00000230: 39fe 9e88 e9ff ad88 9d97 a308 bbc6 af88
00000240: efd7 b008 a6c3 b088 f822 aa08 903a 8b08
00000250: b2c7 ae88 b11f ab08 4cb5 a788 a9f9 ad08
00000260: d341 5088 28ab ab88 8076 a508 8f9b af08
00000270: b86e ad08 fabe ae08 d059 ae08 d01a 9f88
00000280: b74d 9988 1803 9d88 7110 a408 fb12 a188
00000290: 4baa b088 0a87 af88 d8bf a908 5787 b008
000002a0: 6dbf 9e08 ca4f 8988 29b5 a988 86cc a108
000002b0: da3a 3708 ecc9 2b88 9dd9 a408 7ff6 ae88
000002c0: 4de1 b088 5dc4 b088 27de 0208 bd8d af88
000002d0: dba6 9288 c363 e305 0f38 a208 a538 a188
000002e0: 89b2 9288 265e a688 971d a988 34c8 ac88
000002f0: f815 7d08 e81f 9b88 1202 ec85 c338 af88

layers.0.attn.0.gnn_q.bias f4 [16]
-1.0345349e-33 1.0427318e-33 6.184938e-35 -1.03848075e-33 -1.0492778e-33 -1.0141576e-33 -9.849146e-35 9.590087e-34
-8.6560913e-35 -9.9019025e-34 9.661832e-34 1.0095753e-33 9.970875e-34 9.7722675e-34 1.0543535e-33 -1.0323946e-33
00000000: 40e4 ab88 e840 ad08 826c a406 168c ac88
00000010: 5757 ae88 7e81 a888 e8ea 0287 b857 9f08
00000020: 4e1e e686 0986 a488 e388 a008 96be a708
00000030: 69ab a508 a15e a208 3d2f af08 3689 ab88

layers.0.attn.0.gnn_k.weight f4 [12, 16]
9.618817e-34 -9.311078e-34 1.0391358e-33 9.743776e-34 -9.989547e-34 2.6164268e-34 -8.605043e-34 -1.0520807e-33
-5.982445e-34 1.0252087e-33 -1.0299782e-33 9.86943e-34 -7.813882e-34 9.429526e-34 7.0419766e-34 9.6466815e-34
-1.0128526e-33 4.5534412e-35 1.0244234e-33 9.468643e-34 9.901661e-34 -1.0484557e-33 9.6188875e-34 3.903293e-34
1.0594154e-33 -1.0546756e-33 1.0465507e-33 -1.8281862e-34 -9.964094e-34 -1.00428415e-33 -1.7675801e-34 -9.5344925e-34
9.991406e-34 -4.164163e-34 9.492902e-34 -3.14684e-34 -1.0522811e-33 1.2868245e-35 1.0586627e-33 -9.716727e-34
7.397562e-34 -9.810589e-34 -1.0459671e-33 -9.678702e-34 9.863268e-34 -1.0240493e-33 6.8435123e-34 -8.679159e-34
-1.0061849e-33 1.0352529e-33 -9.955138e-34 -1.061559e-33 -1.0172528e-33 -9.974174e-34 -1.054717e-33 8.420369e-34
-1.0483599e-33 1.0559506e-33 1.0590564e-33 -1.0239711e-33 1.0066839e-33 1.0416804e-33 -1.0531403e-33 -1.0682372e-33
1.0355946e-33 1.061131e-33 1.0624652e-33 1.0533432e-33 -9.290382e-34 1.0163824e-33 1.0470983e-33 9.753384e-34
-1.0667543e-33 -9.739183e-34 -1.0307075e-33 -1.0390492e-33 7.1462554e-34 -1.0480276e-33 1.0505763e-33 1.0149184e-33
-9.00669e-34 1.0391657e-33 -1.0425641e-33 1.0591123e-33 7.475309e-34 -1.0462188e-33 -9.680857e-34 -9.892053e-34
-1.0445099e-33 4.624509e-34 -6.993862e-34 9.662579e-34 1.05171535e-33 9.5235145e-34 9.95438e-34 -9.763373e-34
1.0531924e-33 -1.0500236e-33 1.0473264e-33 9.58695e-34 -1.07572785e-33 -1.0709754e-33 -5.7318987e-34 -9.772983e-34
-4.390222e-34 1.014167e-33 9.82664e-34 -1.0554397e-33 1.0492946e-33 -6.7644975e-34 1.0606979e-33 1.0273757e-33
-2.3867453e-34 1.0491698e-33 -1.0072573e-33 -6.2663e-34 -9.548181e-34 -1.0444875e-33 1.0635599e-33 1.0207808e-33
8.201471e-34 5.351923e-36 -6.563384e-34 7.6102074e-34 -7.515017e-35 -1.0473299e-33 9.843781e-34 -9.815709e-34
-9.849733e-34 -6.0428946e-34 -1.0630076e-33 -1.0496044e-33 -1.0661542e-33 -1.0499964e-33 4.5688035e-34 -1.0272067e-33
-1.0618169e-33 -1.05518875e-33 -3.488669e-34 2.7500617e-34 1.0680555e-33 9.4134e-34 -1.0596658e-33 1.0448779e-33
-9.048693e-34 1.0341743e-33 8.110228e-34 -9.845132e-34 -1.0514641e-33 -9.657288e-34 8.29535e-34 -6.821493e-34
-1.0382288e-33 1.0278377e-33 -1.0630697e-33 3.1832196e-34 1.4730691e-34 -1.0680703e-33 6.6231944e-34 1.0510299e-33
1.0390479e-33 1.0638996e-33 -8.283431e-34 9.547778e-34 1.0773783e-33 -9.630279e-34 1.0642788e-33 -8.963058e-34
-1.0040303e-33 -8.850067e-34 -1.0469941e-33 9.636415e-34 1.0576823e-33 -4.8766017e-34 -9.471154e-34 -1.04623745e-33
-1.0653391e-33 -1.0282724e-33 -2.3665061e-34 -1.0611983e-33 -1.06041e-33 7.900694e-34 -3.302514e-34 1.0451151e-33
-1.0444174e-33 -7.718746e-34 1.0431737e-33 9.919373e-34 -8.643528e-36 1.0496994e-33 -5.5593798e-34 1.05232275e-33
00000000: ecd1 9f08 f2b4 9a88 f3a7 ac08 71e5 a108
00000010: d5fa a588 32e4 ad07 cef9 8e88 90ce ae88
00000020: 03cd 4688 8e57 aa08 6d22 ab88 eafb a308
00000030: 94d4 8188 c5ac 9c08 8302 6a08 7248 a008
00000040: fc49 a888 3b1a 7206 2736 aa08 2753 9d08
00000050: 0285 a408 6034 ae88 39d2 9f08 8bb5 0108
00000060: 8c06 b008 f03c af88 58e3 ad08 f401 7387
00000070: 928e a588 86dd a688 a2f3 6a87 3f6b 9e88
00000080: be02 a608 c860 0a88 57ba 9d08 b524 d187
00000090: 17d7 ae88 b2d6 8805 88e6 af08 6372 a188
000000a0: 7fd3 7508 a101 a388 85ca ad88 a5d0 a088
000000b0: b4e1 a308 3d26 aa88 2a6a 6308 0f35 9088
000000c0: 5f2e a788 ca02 ac08 7968 a588 ba61 b088
000000d0: 2605 a988 72b9 a588 b33e af88 4ae8 8b08
000000e0: 4c30 ae88 2c73 af08 47f7 af08 ea22 aa88
000000f0: 9943 a708 2f14 ad08 a2fb ae88 c97d b188
00000100: 5311 ac08 854f b008 4688 b008 4404 af08
00000110: ea5c 9a88 20e0 a808 a3fa ad08 4f0e a208
00000120: b63e b188 e7d1 a188 7341 ab88 44a4 ac88
00000130: 9e79 6d08 2a22 ae88 938e ae08 dba1 a808
00000140: 39a6 9588 38a9 ac08 c639 ad88 a8f9 af08
00000150: e568 7808 3ad5 ad88 d0d9 a088 245c a488
00000160: 8a8c ad88 f9ac 1908 3369 6888 118c a008
00000170: 06bf ae08 8d3c 9e08 4065 a508 cc38 a288
00000180: dafd ae08 1177 ae88 5704 ae08 604a 9f08
00000190: 67bc b288 41f2 b188 9a79 3e88 ac61 a288
000001a0: e1e3 1188 e581 a808 e745 a308 715d af88
000001b0: 0e58 ae08 fbc9 6088 193d b008 bbb3 aa08
000001c0: 5ea0 9e87 bf52 ae08 fd5b a788 c93b 5088
000001d0: 78a5 9e88 968b ad88 d6b6 b008 379b a908
000001e0: 3345 8808 48a5 e304 191b 5a88 7ce4 7c08
000001f0: 8ec8 c786 7d04 ae88 d08e a308 6917 a388
00000200: 21a8 a388 43cf 4888 589f b088 3c65 ae88
00000210: 2f25 b188 e875 ae88 15d3 1708 8aac aa88
00000220: b26c b088 c452 af88 a1dc e787 e0c5 b607
00000230: 0f76 b108 2d68 9c08 3311 b088 319c ad08
00000240: e258 9688 e9d4 ab08 18c1 8608 8f94 a388
00000250: 56b4 ae88 8f75 a088 84d4 8908 d8ae 6288
00000260: 5f81 ac88 61c7 aa08 fca1 b088 ad8f d307
00000270: f2cd 4307 b076 b188 e817 5c08 dea1 ae08
00000280: 36a4 ac08 49c5 b008 d2a1 8988 c2a3 9e08
00000290: 9b02 b308 ad02 a088 6ad5 b008 a2ec 9488
000002a0: bad2 a688 060c 9388 34f6 ad88 c71c a008
000002b0: d4bc af08 8a0d 2288 d55d 9d88 05d6 ad88
000002c0: 8402 b188 dfd9 aa88 0448 9d87 6252 b088
000002d0: da30 b088 d645 8308 5d7d db87 48a6 ad08
000002e0: 9a88 ad88 ea3f 8088 b453 ad08 59d0 a408
000002f0: d8d3 3785 4669 ae08 f9bd 3888 dcd8 ae08

layers.0.attn.0.gnn_k.bias f4 [16]
-9.851931e-34 -1.0409968e-33 1.01897755e-33 1.0450632e-33 1.0463718e-33 1.0541203e-33 9.483901e-34 -9.910221e-34
-1.031528e-33 -9.851208e-34 -7.6770893e-35 -1.0179714e-33 9.936338e-34 9.990291e-34 -1.0170544e-33 1.0409147e-33
00000000: 7bb1 a388 1bf7 ac88 834e a908 13a4 ad08
00000010: bcdb ad08 5225 af08 0e94 9d08 6ba9 a488
00000020: 5964 ab88 68ae a388 9017 cc86 b723 a988
00000030: 8218 a508 00fe a508 b6fc a888 9df3 ac08
