checkpoints/cyp1a2_veith_50_train1_pos/Sep06-11:57:24_200.pth (torch, 421766 bytes, 294 tensors)

layers.0.weight f4 [17, 16]
0.07089657 0.34231263 -0.3302101 1.4880301 -0.800279 0.15011942 -0.07515623 1.2375251
0.08233716 0.06091096 -0.24439271 1.0156142 0.15429024 0.40868014 0.80219936 0.22829737
0.20859692 0.12806551 -0.090048164 0.0481952 -0.15704711 0.013812426 0.009427492 0.29331428
-0.07765542 -0.12125237 0.08818555 0.0023944518 -0.14613931 -0.4266776 0.36517516 -0.23002398
0.14521524 0.14721802 -0.1136166 0.05882206 -0.18065372 -0.01134146 0.01421049 0.28675896
-0.109229505 -0.13825157 0.10844711 0.03205968 -0.2213733 -0.4167838 0.34023473 -0.26345432
0.050757043 0.10109779 -0.055994418 0.026144112 -0.13158374 -0.042929683 0.02966421 0.23730052
-0.09120025 -0.08434761 -0.11325726 0.008223729 -0.033606943 -0.3637996 0.27487743 -0.20497008
0.10706162 0.03756839 -0.04343246 -0.06360386 -0.12165667 -0.025729537 0.03442258 0.2213462
-0.17640232 -0.18322429 -0.31728482 -0.022508793 0.018917946 -0.33581907 0.56380755 -0.18287821
-0.17055346 -0.34561285 0.31012228 -0.84444076 0.8689572 -0.011364951 -0.060254328 -1.3152522
-0.6021328 -0.5120381 0.39192975 -0.59308094 0.002728365 1.0768965 -1.0439247 0.6219572
0.35943034 -0.013740384 -0.103988215 -0.8873903 0.4823589 -0.2976887 0.31087825 -0.8136019
-0.15240437 -0.22737162 -0.86339 -0.5524719 -0.5089656 -1.7165824 2.0603013 -1.0630608
0.05191997 -0.16175129 0.12787125 -0.96056336 0.35874012 -0.17678665 0.17549217 -0.57957625
0.67849064 0.5974452 -0.16745993 -0.6052357 -0.26515713 -1.182187 0.117197976 -0.71890014
0.088761136 0.14137876 -0.13127047 0.04313196 -0.15829459 -0.047433365 0.057080805 0.2414707
-0.08120104 -0.09260032 -0.14554954 0.0588268 -0.016388094 -0.5387859 0.41385925 -0.32160485
0.046111975 -0.10535677 0.031803478 0.11277323 0.30651382 -0.048988808 0.055291854 -0.39114165
-0.19553487 -0.1573254 -0.19434635 0.082820095 0.027757946 -0.35451993 0.22918701 -0.19249414
-0.012887535 0.1275934 -0.106022716 -0.44556856 -0.2875437 -0.015648784 -0.0012013251 0.44671622
-0.6976624 -0.5982452 0.11868488 -0.24832216 0.121278726 -0.57605296 -0.3778127 -0.29358572
-0.2983126 -0.33378762 0.38182488 -1.3743018 0.3795354 0.020347368 -0.038807794 -0.57773626
0.51791245 0.52875125 0.4545465 -0.93331754 -0.04086601 0.8389189 -1.4502586 0.50182426
0.04315373 0.08629049 -0.07740899 0.2969961 0.059821747 -0.037503514 -0.007051738 -0.032703247
-2.0245006 -1.6504402 0.53499776 0.2516998 0.32631117 -1.5266037 -1.239777 -0.8739302
-0.20456535 0.35752648 -0.06862514 -0.7475183 -1.3957034 0.21854837 -0.18350899 2.1826887
-0.064080544 -0.044255715 0.28067747 -0.45959458 0.33041078 0.6974542 -0.82791543 0.43470562
-0.2992715 0.21080972 0.06434579 0.15921831 -1.0975288 0.19191094 -0.16989161 1.7514422
0.93684304 0.97206324 0.8028672 0.14864446 0.4695547 -0.35343313 -2.143614 -0.16515057
0.036733646 -0.064130545 0.044973686 -0.7768099 0.16187073 -0.10398515 0.10807296 -0.24528867
0.34141037 0.3443609 -0.04186518 -0.5163162 -0.057761822 -0.9950653 -0.14191552 -0.5805768
00000000: 3932 913d 9a43 af3e 4c11 a9be c577 be3f
00000010: 16df 4cbf e8b8 193e 82eb 99bd 3967 9e3f
00000020: 63a0 a83d c57d 793d 1542 7abe a5ff 813f
00000030: 43fe 1d3e 863e d13e f05c 4d3f c9c6 693e
00000040: 6e9a 553e 9b23 033e 2c6b b8bd 5468 453d
00000050: f5d0 20be 834d 623c c475 1a3c 4a2d 963e
00000060: ce09 9fbd 2a53 f8bd a09a b43d 3cec 1c3b
00000070: 8ba5 15be 7d75 dabe 3df8 ba3e 688b 6bbe
00000080: 4eb3 143e 52c0 163e d2af e8bd 66ef 703d
00000090: 4afd 38be 88d1 39bc 1dd3 683c 12d2 923e
000000a0: b8b3 dfbd d291 0dbe 8519 de3d 0351 033d
000000b0: afaf 62be b064 d5be 3f33 ae3e 7ce3 86be
000000c0: 9ee6 4f3d 5c0c cf3d 675a 65bd 2d2c d63c
000000d0: e3bd 06be 09d7 2fbd 5b02 f33c e8fe 723e
000000e0: 32c7 babd 71be acbd 6cf3 e7bd d2bc 063c
000000f0: 6fa7 09bd f143 babe bcbc 8c3e ade3 51be
00000100: 1f43 db3d 50e1 193d 3ce6 31bd be42 82bd
00000110: 2227 f9bd c0c6 d2bc b1fe 0c3d 94a8 623e
00000120: cfa2 34be 269f 3bbe 2873 a2be 5c64 b8bc
00000130: cff9 9a3c 7af0 abbe b155 103f 6d44 3bbe
00000140: 91a5 2ebe 2bf4 b0be 59c8 9e3e 452d 58bf
00000150: fb73 5e3f 0f34 3abc 3ecd 76bd 2f5a a8bf
00000160: 6025 1abf ee14 03bf 04ab c83e 27d4 17bf
00000170: 5ece 323b bfd7 893f 539f 85bf 9638 1f3f
00000180: 4107 b83e 591f 61bc c6f7 d4bd 032c 63bf
00000190: bff7 f63e a76a 98be 6f2b 9f3e 3748 50bf
000001a0: e40f 1cbe 1bd4 68be 2107 5dbf cc6e 0dbf
000001b0: 924b 02bf f9b8 dbbf fadb 0340 6012 88bf
000001c0: 09aa 543d 21a2 25be aef0 023e 7be7 75bf
000001d0: c9ac b73e 8f07 35be 38b4 333e 1c5f 14bf
000001e0: 90b1 2d3f 2bf2 183f 9e7a 2bbe baf0 1abf
000001f0: adc2 87be e751 97bf 7e05 f03d d709 38bf
00000200: 66c8 b53d 98c5 103e c46b 06be 23ab 303d
00000210: fa17 22be 7d49 42bd 90cd 693d 1844 773e
00000220: bb4c a6bd 3da5 bdbd f00a 15be 5ff4 703d
00000230: 5340 86bc dfed 09bf 5ce5 d33e 64a9 a4be
00000240: e9df 3c3d 4ac5 d7bd 5d44 023d a7f5 e63d
00000250: 61ef 9c3e 7da8 48bd b679 623d b843 c8be
00000260: 4b3a 48be e919 21be bb02 47be 959d a93d
00000270: a264 e33c a383 b5be 00b0 6a3e 2f1d 45be
00000280: 3d26 53bc d8a7 023e 7022 d9bd 9021 e4be
00000290: ee38 93be e131 80bc c875 9dba fdb7 e43e
000002a0: 019a 32bf 9926 19bf 0f11 f33d 2a48 7ebe
000002b0: fb60 f83d 3578 13bf ab70 c1be de50 96be
000002c0: 6ebc 98be 36e6 aabe 8d7e c33e 1fe9 afbf
000002d0: 7752 c23e 86af a63c ecf4 1ebd 86e6 13bf
000002e0: e995 043f 3e5c 073f 52ba e83e e6ed 6ebf
000002f0: 1e63 27bd 64c3 563f 13a2 b9bf 8e77 003f
00000300: f7c1 303d 12b9 b03d 9b88 9ebd df0f 983e
00000310: a607 753d 499d 19bd 4412 e7bb d7f3 05bd
00000320: 6b91 01c0 a041 d3bf 9df5 083f ccde 803e
00000330: 4212 a73e c067 c3bf 03b1 9ebf e4b9 5fbf
00000340: 9479 51be b60d b73e 568b 8cbd 5c5d 3fbf
00000350: 69a6 b2bf 25cb 5f3e c8e9 3bbe 2cb1 0b40
00000360: a93c 83bd 7b45 35bd f5b4 8f3e fb4f ebbe
00000370: 9a2b a93e 5c8c 323f 44f2 53bf bc91 de3e
00000380: 1d3a 99be 81de 573e bac7 833d 200a 233e
00000390: d37b 8cbf 4d84 443e 11f8 2dbe 422f e03f
000003a0: f2d4 6f3f 23d9 783f b488 4d3f 4136 183e
000003b0: 7969 f03e 30f5 b4be f930 09c0 3b1d 29be
000003c0: 0576 163d e056 83bd 5436 383d 03dd 46bf
000003d0: 71c1 253e 2bf6 d4bd 5b55 dd3d f42c 7bbe
000003e0: 57cd ae3e 1250 b03e d37a 2bbd 4c2d 04bf
000003f0: a997 6cbd 99bc 7ebf 4d52 11be aea0 14bf

layers.0.bias f4 [16]
0.2984513 0.37909123 0.37865812 -0.6457222 0.19759983 -0.27899742 -0.42112863 0.21897446
-0.28666887 0.45438328 -0.10113602 0.06195994 0.13835724 -0.11640444 0.24362065 0.2694355
00000000: 9cce 983e 3f18 c23e 7adf c13e 0d4e 25bf
00000010: 9c57 4a3e c0d8 8ebe 2c9e d7be d73a 603e
00000020: 43c6 92be eda4 e83e 6720 cfbd b5c9 7d3d
00000030: 85ad 0d3e 7365 eebd b177 793e 73f3 893e

layers.1.weight f4 [16, 16]
-0.19558316 -0.29982188 1.1967125 0.43009254 -1.1006596 0.5453497 -0.083530456 -0.57131314
0.10145782 -0.460661 0.84511644 -0.2929692 -0.49152043 -0.30845362 -0.7597874 0.18453941
0.7178459 -0.9034201 -0.017723886 -0.37931153 -0.5516456 0.48362237 0.5648122 0.0067048366
-0.12759735 -0.038932856 -0.53714406 0.4115389 0.040758755 -0.27931494 -0.16834004 -0.7904255
-0.8948345 0.6064252 -0.32858625 0.41425392 0.729773 -0.7164216 0.0005497997 0.3364191
-0.014212137 -0.12670587 0.2811328 0.5111739 0.96368015 0.44235447 0.28848776 0.15807188
-0.0039195376 -0.46148401 0.06623808 -0.09353525 -0.69037044 -0.2600551 -0.07980819 -0.15839157
-0.19037339 0.16767396 -0.05609824 0.14031053 -0.5058078 -0.016967062 0.13229987 -0.66831756
0.011187627 0.7272137 -0.0147178825 0.083072044 0.19404979 0.43691716 -0.08612882 0.18347517
0.1575904 -0.1536592 -0.093254924 -0.72776973 -0.20985162 0.07562941 0.024042932 0.7571574
0.70922977 -0.27990848 -0.6871759 -0.39019564 0.18658757 0.056875028 0.38474447 0.4518693
-0.15066554 0.07108702 -1.4901996 0.13896577 -0.13385326 0.07937309 0.5984578 -0.20220585
-0.222045 0.76777464 0.5599745 0.31564745 0.10259057 -0.120083846 -0.75630766 -0.5561892
-0.10498247 -0.08282235 0.94505376 -0.9398878 -0.34339646 0.04747358 -0.44969133 1.0020003
0.37104416 0.20842288 -0.52526706 -0.55758375 0.24717523 -0.30989376 -0.31328142 -0.044229396
0.619257 0.29055372 0.60784405 -0.09717306 -0.20725986 0.044316694 0.02700942 -0.048476025
-0.80028313 0.4638981 0.14482516 -0.31436914 0.3759306 0.046429016 0.00999999 -0.16802838
-0.35446727 0.03851745 -0.25118724 0.10530981 0.7637454 0.15683824 0.015940037 -0.72786283
-0.2700454 0.6750494 -0.30520132 -0.5615121 0.774276 0.117057234 0.044269055 0.1374166
0.42808202 0.0857603 0.13714693 0.05412105 0.35574353 -0.13230906 -0.025298273 -0.36725658
0.220886 -0.137178 -1.0756766 0.03322115 0.46372667 -0.22414465 0.15162429 0.06591192
0.20521004 0.24559326 -0.095809706 0.6312311 0.09892774 0.034081943 0.13723254 0.25221857
0.7107715 -0.27606657 -0.18108734 -0.8331603 -0.4766291 0.06661482 -0.05306824 0.14575367
0.5177972 0.29399255 0.30215377 -0.08024309 -0.59625924 0.0014727945 -0.11375991 -0.49901456
0.65279174 -0.6606008 -0.7479734 -0.2556984 -0.03250338 0.24924314 0.4069248 0.085417114
0.20471306 0.040292818 -0.17088217 0.55671597 -0.1371042 -0.33837506 0.09408135 -0.2529778
-0.063766226 -0.17907067 -0.123478726 0.03906352 -0.030002 0.09049416 0.085152864 -0.35107777
-0.03533722 0.15872246 0.23273206 0.68116856 0.62742424 -0.07301773 -0.15660511 -0.4363574
-0.03328052 0.23511407 0.049388036 -0.3451749 -0.17188425 -0.2931902 -0.05058464 0.45464203
0.30510402 0.38925344 -0.4708632 -0.51306635 -0.59738266 0.13080063 0.06065657 -0.21186258
0.16787986 0.08382939 -0.95153207 -0.42828152 1.1105006 0.04098208 -0.12021853 0.035769105
0.22667348 0.005457648 0.34075576 0.3043703 0.35983264 -0.034040727 -0.001981216 0.054294765
00000000: f446 48be 4182 99be e02d 993f 1735 dc3e
00000010: 6ae2 8cbf 0a9c 0b3f 0412 abbd 9441 12bf
00000020: 1ec9 cf3d c2db ebbe 8d59 583f 0f00 96be
00000030: 91a8 fbbe a2ed 9dbe 6d81 42bf e6f7 3c3e
00000040: c0c4 373f 8a46 67bf af31 91bc 1f35 c2be
00000050: a538 0dbf 5a9d f73e 8897 103f 3fb4 db3b
00000060: e1a8 02be 0f78 1fbd 4682 09bf 3ab5 d23e
00000070: a7f2 263d 5e02 8fbe 5561 2cbe 5359 4abf
00000080: e013 65bf af3e 1b3f 753c a8be 1719 d43e
00000090: 67d2 3a3f 6867 37bf 6f20 103a 203f ac3e
000000a0: 06da 68bc 2fbf 01be a3f0 8f3e 4bdc 023f
000000b0: beb3 763f 497c e23e abb4 933e 98dd 213e
000000c0: 776f 80bb a247 ecbe d5a7 873d 698f bfbd
000000d0: 1ebc 30bf f125 85be 7a72 a3bd 6631 22be
000000e0: 3ef1 42be b9b2 2b3e 45c7 65bd 90ad 0f3e
000000f0: 9f7c 01bf 82fe 8abc 9e79 073e dc16 2bbf
00000100: 4f4c 373c ad2a 3a3f 4623 71bc ad21 aa3d
00000110: fdb4 463e 9bb3 df3e 4f64 b0bd eae0 3b3e
00000120: 615f 213e d658 1dbe 70fc bebd 1e4f 3abf
00000130: 58e3 56be 98e3 9a3d aff5 c43c 11d5 413f
00000140: 1590 353f 2a50 8fbe c3ea 2fbf b9c7 c7be
00000150: d010 3f3e caf5 683d 3afd c43e 6a5b e73e
00000160: 1148 1abe 1296 913d dcbe bebf 0b4d 0e3e
00000170: d410 09be 5c8e a23d 8834 193f 0d0f 4fbe
00000180: c45f 63be e18c 443f 7d5a 0f3f 8b9c a13e
00000190: 011b d23d 85ee f5bd 619d 41bf 6a62 0ebf
000001a0: 0d01 d7bd c49e a9bd 0bef 713f 7d9c 70bf
000001b0: a9d1 afbe a873 423d f13d e6be 8c41 803f
000001c0: 80f9 bd3e cf6c 553e e777 06bf cfbd 0ebf
000001d0: 811b 7d3e 65aa 9ebe 6c66 a0be e229 35bd
000001e0: a087 1e3f 75c3 943e ab9b 1b3f ab02 c7bd
000001f0: ee3b 54be 6c85 353d dc42 dd3c cc8e 46bd
00000200: 5bdf 4cbf 0d84 ed3e 0c4d 143e fef4 a0be
00000210: fa79 c03e 5a2c 3e3d 00d7 233c a20f 2cbe
00000220: bc7c b5be 79c4 1d3d 9d9b 80be abac d73d
00000230: d284 433f 349a 203e ae94 823c 3855 3abf
00000240: 6443 8abe 0ad0 2c3f 5943 9cbe 42bf 0fbf
00000250: f436 463f b4bb ef3d 7853 353d f0b6 0c3e
00000260: 912d db3e 19a3 af3d 3f70 0c3e 09ae 5d3d
00000270: 0424 b63e 077c 07be 533e cfbc 0e09 bcbe
00000280: f12f 623e 6478 0cbe c5af 89bf e712 083d
00000290: 956d ed3e 2d86 65be 6643 1b3e d4fc 863d
000002a0: 9522 523e cd7c 7b3e e137 c4bd 5d98 213f
000002b0: a09a ca3d 8299 0b3d b086 0c3e cb22 813e
000002c0: 1ff5 353f 9958 8dbe f66e 39be fe49 55bf
000002d0: bb08 f4be 5a6d 883d 155e 59bd 7340 153e
000002e0: 5b8e 043f 3186 963e e6b3 9a3e 7d56 a4bd
000002f0: 72a4 18bf c80a c13a f5fa e8bd d67e ffbe
00000300: 5c1d 273f 221d 29bf 2f7b 3fbf e7ea 82be
00000310: 4422 05bd 9839 7f3e 7358 d03e 2bef ae3d
00000320: 4da0 513e 150a 253d bcfb 2ebe f084 0e3f
00000330: 0b65 0cbe 7f3f adbe b9ad c03d 4e86 81be
00000340: de97 82bd 4d5e 37be 6ae2 fcbd 1201 203d
00000350: c1c6 f5bc 0155 b93d a064 ae3d 77c0 b3be
00000360: c3bd 10bd 2488 223e 5051 6e3e 1061 2e3f
00000370: e09e 203f 528a 95bd 175d 20be 3d6a dfbe
00000380: 2851 08bd bec1 703e 1c4b 4a3d c4ba b0be
00000390: 6d02 30be 071d 96be d731 4fbd d7c6 e83e
000003a0: 9836 9c3e 3a4c c73e fb14 f1be 5158 03bf
000003b0: 12ee 18bf 9af0 053e 0673 783d 81f2 58be
000003c0: b3e8 2b3e beae ab3d 9b97 73bf b747 dbbe
000003d0: e224 8e3f d3dc 273d 2235 f6bd a082 123d
000003e0: 181d 683e 12d6 b23b 8a77 ae3e 6dd6 9b3e
000003f0: fc3b b83e 4a6e 0bbd 4ad7 01bb 3064 5e3d

layers.1.bias f4 [16]
-0.06918041 0.10333678 -0.15095487 0.22095796 0.20244655 -0.15767807 -0.21405321 -0.38894552
0.056686934 -0.025268352 -0.3327895 0.21993028 0.21961671 0.15467101 0.26052892 0.1981573
00000000: 75ae 8dbd 3ca2 d33d ea93 1abe ce42 623e
00000010: 264e 4f3e 5c76 21be c430 5bbe de23 c7be
00000020: 8f30 683d 93ff cebc 6363 aabe 6735 613e
00000030: 34e3 603e 1462 1e3e 0c64 853e bfe9 4a3e

final.linears.0.weight f4 [98, 49]
0.41129515 -0.098713964 -0.0980887 -0.10145008 -0.16930148 0.45412397 0.8314794 0.6848378
-0.05273445 0.022494275 -1.1616734 0.8625282 -0.38934052 -0.31443587 -0.7620632 0.40132344
0.7320746 -0.035609655 -0.018364044 -0.058300033 0.10403634 -0.15934132 0.10444769 0.109103754
-0.04005544 -0.037910607 -0.12741971 0.06432841 -0.118085146 -0.004506915 0.0013020358 0.09745146
-0.07324839 0.0067746444 -0.015337078 -0.007526564 0.06311958 -0.05796044 -0.08362176 -0.037473306
-0.08574671 0.014320173 -0.021682205 0.13304366 -0.0074420017 0.033502396 0.0056819217 0.020314375
0.027938256 -0.09664004 -1.2369081 -1.2465328 3.7240944 -0.21370623 -0.061574347 -0.076919205
0.118547015 -0.3797022 -0.25882328 -0.08787216 0.04334777 -0.03275498 -0.05438173 0.07567287
0.03941255 0.08887778 0.027214013 0.06606786 0.089078754 -0.17802745 0.18280551 -0.03828156
-0.092487834 0.14792751 -0.14223194 0.19180872 0.009311756 0.12600723 0.11823258 -0.19274959
0.122911744 0.21780506 0.26731932 0.24734698 -0.19687524 -0.20937881 0.21843232 -0.060794767
-0.0988143 -0.103812695 -0.0036539382 0.020736318 -0.11672617 -0.1442318 -0.1993318 0.0394352
0.0076148184 0.23012108 1.1330026 -0.48858672 -0.5617716 -0.59082097 -0.85814434 -0.45668754
-0.6609162 -0.32154837 -0.68985736 -0.9000236 -0.7814837 -0.31954226 -1.235681 1.2582619
1.0537809 -1.0946013 0.7705453 -0.02176329 -0.12923472 0.042023104 0.056599412 0.09448212
-0.02933198 -0.1318252 0.054198336 -0.1742089 0.011234749 0.044768583 0.0015564119 0.20478022
-0.004335753 -0.11147502 -0.020231156 0.048027847 0.07458448 -0.060039125 -0.046122376 0.06744951
-0.007531055 -0.13987777 0.12776 -0.06532655 -0.03486632 -0.075054504 -0.028688828 -0.015645873
0.12850168 -0.010925583 0.06008675 0.55275524 -0.017236324 -0.06358763 -0.08354746 0.7361049
0.3063774 0.9054668 -0.6353247 -0.12666082 -0.59080565 0.734522 -0.47763607 -0.008466712
-0.2880295 -0.7702034 0.6403228 0.71040076 -0.0717413 0.04326859 0.006485644 0.056556508
0.061475776 0.013186549 -0.037380945 0.06101841 -0.017756972 -0.021624438 0.024543224 -0.011438003
0.0885168 -0.0309856 -0.12881246 -0.06484816 -0.10330238 0.040642094 0.029893361 0.046276405
0.032978423 -0.080385484 0.043616287 -0.04904168 0.07177929 0.04837915 -0.051128086 -0.019363752
0.036543097 0.024392253 0.057809554 -0.06312287 0.4387325 0.23257543 0.17791322 0.1462754
-2.165692 -1.1424332 1.1949652 -0.7638359 0.065946266 0.34305802 0.88075125 0.25552097
-1.0730686 -1.1455885 -0.25019115 0.8079932 0.24892159 -0.07956536 -0.116426185 -0.09610381
-0.02006052 -0.14778417 0.1426025 0.08383356 -0.1896017 0.11383836 -0.261755 -0.080802225
-0.2438733 -0.15658227 0.1327544 -0.2622745 -0.27529034 0.009579814 -0.13333277 0.15045387
0.025535205 -0.14223932 0.005706547 0.13097475 0.22056787 0.102565415 0.033427477 -0.2363721
0.19451183 0.1264275 -0.12037961 0.10579069 -0.19509518 -0.23216641 -0.19050217 -0.2571052
-0.22263151 0.13166639 0.5661891 0.621735 0.17287046 -0.13847494 0.66047007 0.1330367
00000000: 4795 d23e 8c2a cabd bae2 c8bd 0fc5 cfbd
00000010: 5e5d 2dbe f082 e83e d5db 543f 8851 2f3f
00000020: 1400 58bd ea45 b83c b7b1 94bf a6ce 5c3f
00000030: a457 c7be bdfd a0be 9316 43bf 447a cd3e
00000040: 3e69 3b3f 6edb 11bd 3170 96bc 04cc 6ebd
00000050: 0111 d53d 5f2a 23be ace8 d53d ca71 df3d
00000060: 2c11 24bd 2748 1bbd 507a 02be 9dbe 833d
00000070: a0d6 f1bd beae 93bb 12a9 aa3a a294 c73d
00000080: 4003 96bd d6fd dd3b 5e48 7bbc 65a1 f6bb
00000090: d744 813d ed67 6dbd e341 abbd 9c7d 19bd
000000a0: f99b afbd 299f 6a3c e19e b1bc 993c 083e
000000b0: 09dc f3bb cf39 093d 6a2f ba3b 556a a63c
000000c0: c5de e43c 37eb c5bd 0153 9ebf 638e 9fbf
000000d0: 9057 6e40 ced5 5abe 6235 7cbd d187 9dbd
000000e0: c7c8 f23d 5468 c2be 7c84 84be 52f6 b3bd
000000f0: 6e8d 313d 162a 06bd 60bf 5ebd 61fa 9a3d
00000100: 0e6f 213d 8e05 b63d ecef de3c 964e 873d
00000110: ec6e b63d d44c 36be 5e31 3b3e 20cd 1cbd
00000120: 436a bdbd 4f7a 173e 40a5 11be 8169 443e
00000130: 5690 183c 0a08 013e ec23 f23d 2660 45be
00000140: 27b9 fb3d 4a08 5f3e 14de 883e 8748 7d3e
00000150: aa99 49be 6667 56be b9ac 5f3e ef03 79bd
00000160: 275f cabd c09b d4bd e976 6fbb 36df a93c
00000170: 210e efbd 80b1 13be a31d 4cbe ce86 213d
00000180: ba85 f93b dca4 6b3e 3b06 913f 0a28 fabe
00000190: 43d0 0fbf 0b40 17bf 59af 5bbf f3d2 e9be
000001a0: ce31 29bf fda1 a4be 7e9a 30bf f267 66bf
000001b0: 510f 48bf 0b9b a3be cc2a 9ebf ba0e a13f
000001c0: 4be2 863f e51b 8cbf 7542 453f ed48 b2bc
000001d0: 1b56 04be 6b20 2c3d c9d4 673d d77f c13d
000001e0: 9f49 f0bc 2ffd 06be 13ff 5d3d d163 32be
000001f0: f411 383c 435f 373d 8400 cc3a e8b1 513e
00000200: ef12 8ebb 044d e4bd cfbb a5bc d9b8 443d
00000210: bfbf 983d 96eb 75bd d1ea 3cbd f822 8a3d
00000220: 11c7 f6bb 1e3c 0fbe 84d3 023e edc9 85bd
00000230: fdcf 0ebd 2db6 99bd d504 ebbc c62b 80bc
00000240: f295 033e 3701 33bc 861d 763d 5e81 0d3f
00000250: 3133 8dbc 3b3a 82bd ee1a abbd 5f71 3c3f
00000260: 80dd 9c3e accc 673f a4a4 22bf 60b3 01be
00000270: 0a3f 17bf a209 3c3f b78c f4be f7b7 0abc
00000280: 9a78 93be 0d2c 45bf 32ec 233f d3dc 353f
00000290: 1aed 92bd 683a 313d 8685 d43b cca7 673d
000002a0: 06ce 7b3d 650c 583c c31c 19bd 71ee 793d
000002b0: 1277 91bc bc25 b1bc df0e c93c 7666 3bbc
000002c0: 4c48 b53d 83d5 fdbc 6ae7 03be 1dcf 84bd
000002d0: 3390 d3bd 5378 263d ece2 f43c 548c 3d3d
000002e0: 6214 073d 25a1 a4bd fea6 323d eedf 48bd
000002f0: 0501 933d 3729 463d af6b 51bd bba0 9ebc
00000300: 37ae 153d 43d2 c73c b6c9 6c3d 9046 81bd
00000310: 8ca1 e03e 4128 6e3e e22e 363e 38c9 153e
00000320: b39a 0ac0 403b 92bf 9ff4 983f c08a 43bf
00000330: d60e 873d 4da5 af3e ea78 613f a5d3 823e
00000340: 505a 89bf a5a2 92bf 0e19 80be a4d8 4e3f
00000350: 4de5 7e3e 2af3 a2bd da70 eebd 13d2 c4bd
00000360: f655 a4bc bc54 17be 6406 123e eeb0 ab3d
00000370: f326 42be 1624 e93d c004 86be a37b a5bd
00000380: ecb9 79be 1a57 20be c5f0 073e d848 86be
00000390: dbf2 8cbe a7f4 1c3c 6388 08be 9410 1a3e
000003a0: 352f d13c 2fa7 11be fcfd ba3b 3f1e 063e
000003b0: 8bdc 613e d10d d23d 40eb 083d 870b 72be
000003c0: 1c2e 473e 3676 013e 9689 f6bd caa8 d83d
000003d0: 08c7 47be 08bd 6dbe 0013 43be 4ba3 83be
000003e0: 84f9 63be 8ed3 063e c5f1 103f 062a 1f3f
000003f0: f404 313e 60cc 0dbe 9114 293f c63a 083e

final.linears.0.bias f4 [98]
0.14928836 0.08707632 0.2602011 -0.040969882 0.1506194 0.09012276 0.128307 0.13158363
0.18943426 -0.26260704 -0.12534006 -0.23656906 0.040486038 0.29363868 0.10596617 0.5492488
0.2904537 -0.0803683 0.26827773 0.34946814 -0.05870496 -0.20780449 -0.25316578 0.0038019123
0.018695096 0.3918953 0.12663807 -0.40422243 0.13440745 0.2344926 0.072115734 0.003420455
0.3225941 -0.44851294 0.37391734 0.40706807 -0.21772936 0.26557735 0.16921805 -0.32782593
0.26091555 0.3195928 0.16972585 -0.096026 0.47088712 0.14979464 0.23303151 0.34262037
0.1394138 0.055123854 -0.013578077 0.7222868 -0.5116231 0.20189081 0.13656838 0.23929918
0.358705 0.2916809 0.37484565 -0.20606661 0.05773759 0.061469443 -0.07571967 -0.18684348
-0.044832475 -0.06981337 -0.24298115 0.23623963 -0.17346606 -0.31579557 0.029567305 0.08463564
0.383663 0.19535495 0.047951255 0.25368485 -0.07140673 -0.1933773 0.016935816 0.34752992
0.18096428 0.15973106 0.18337934 0.0021392733 0.042748652 -0.18044306 0.08623535 -0.033629704
-0.80552775 -0.482758 0.46222243 -0.35363412 -0.4308591 0.11216482 -0.14465003 0.061557297
0.084401816 -0.5239366
00000000: 0cdf 183e 1255 b23d 1439 853e 09d0 27bd
00000010: f93b 1a3e 4892 b83d e962 033e dcbd 063e
00000020: 0efb 413e 6e74 86be 2559 00be 293f 72be
00000030: b0d4 253d cf57 963e cb04 d93d 929b 0c3f
00000040: 59b6 943e 2398 a4bd b35b 893e 7ded b23e
00000050: 9d74 70bd b3ca 54be f29e 81be 8129 793b
00000060: 7526 993c 80a6 c83e 69ad 013e 3ef6 cebe
00000070: 1ba2 093e d41e 703e 6ab1 933d b629 603b
00000080: 0e2b a53e 7da3 e5be 1872 bf3e 3a6b d03e
00000090: 72f4 5ebe c1f9 873e 7f47 2d3e cdd8 a7be
000000a0: b996 853e aba1 a33e 9dcc 2d3e 48a9 c4bd
000000b0: 1e18 f13e c463 193e d09f 6e3e f06b af3e
000000c0: 7ec2 0e3e 8dc9 613d 9576 5ebc cae7 383f
000000d0: bbf9 02bf 77bc 4e3e 95d8 0b3e d80a 753e
000000e0: 2fa8 b73e 3357 953e c5eb bf3e 2003 53be
000000f0: 407e 6c3d 62c7 7b3d ea12 9bbd e653 3fbe
00000100: 42a2 37bd 50fa 8ebd 0dd0 78be cde8 713e
00000110: 16a1 31be f5af a1be 2237 f23c 7355 ad3d
00000120: 7a6f c43e 210b 483e 8968 443d fbe2 813e
00000130: b13d 92bd b304 46be fbbc 8a3c 71ef b13e
00000140: b34e 393e 8a90 233e cbc7 3b3e 0d33 0c3b
00000150: 3619 2f3d 11c6 38be 299c b03d 4dbf 09bd
00000160: 1137 4ebf 0e2c f7be 6ba8 ec3e 880f b5be
00000170: 9099 dcbe abb6 e53d 231f 14be 8123 7c3d
00000180: dcda ac3d b620 06bf

final.linears.1.weight f4 [98, 98]
-0.2109105 0.075147934 -0.31408644 -0.21324791 -0.4708832 -0.23064244 -0.28267223 -0.15373608
-0.18269688 -0.33310527 -0.1481789 -0.3470762 -0.33082023 -0.3794701 -0.24811605 -0.58774495
-0.94814235 -0.16257079 -0.44958788 -0.2937429 -0.21736279 -0.061645348 -0.22996664 -0.08776977
-0.85574806 -0.30549335 -0.37128028 0.0021907676 -0.23912312 -0.33126253 -0.11060379 -0.108842015
-0.35684606 0.081770115 -0.44772747 -0.31496632 -0.039392922 -0.37882763 -0.36042508 0.029511405
-0.31117216 -0.41757593 -0.3306224 -0.43328124 -0.37635726 -0.35392416 -0.23624246 -0.53649414
-0.10593732 -0.10207103 -0.086188726 -0.55620027 0.22922799 -0.3681396 -0.07554663 -0.40933308
-0.3526856 -0.35456654 -0.3235368 -0.21532543 -0.4022495 -0.15871929 -0.26125947 0.024489833
-0.103650406 -0.29284674 -0.18705818 -0.38697273 -0.046248958 -0.22036493 -0.17847319 -0.24669966
-0.35231528 -0.15157 -0.33340332 -0.33319122 -0.16476871 -1.712326 -0.22586258 -0.43484432
-0.32811123 -0.17450728 -0.23670201 -0.27898884 -0.112140395 -0.037540305 -0.189708 -0.3416577
-0.064128876 0.34978798 -0.29665425 0.7088553 -0.0017620057 -0.19494595 -0.2010104 -0.09676015
-0.2005357 0.684797 -0.014986872 -0.073322095 -0.088866755 -0.049798988 -0.09438521 0.044692524
0.0034086937 -0.019256962 -0.050408076 -0.08603988 -0.12783404 -0.03014025 -0.018673357 0.11863355
-0.0911458 -0.087853424 -0.029184818 0.044000912 0.031919617 -0.015362267 -0.052448925 0.14415501
-0.004223041 0.023446955 0.023785263 0.055788286 -0.06574607 -0.06782616 -0.045769766 -0.13976374
-0.0012710579 -0.045675885 0.05820618 -0.2026555 -0.09325509 -0.026068367 0.061544776 -0.08531117
-0.03537226 0.04029482 -0.018229652 -0.08867165 0.018000267 -0.022137444 -0.18575074 0.032838162
0.0027428335 0.13326035 0.01039767 -0.012854131 0.10369801 0.098213516 0.14619617 -0.06806685
0.05120434 -0.055552993 -0.031118214 0.03665647 0.13062865 0.016879955 0.16219436 0.0474931
-0.008505687 0.11923392 -0.2005938 0.0012269351 -0.03196966 -0.024263833 0.14002158 -0.12057724
-0.066290244 0.063711576 -0.074080445 0.048485275 -0.054062262 -0.031838603 0.024910646 -0.20606042
-0.060099542 -0.119196534 0.14130166 -0.110347085 0.01751055 -0.08498189 -0.0096449 -0.0683054
-0.002646259 -0.024412816 0.059021935 0.018612213 0.07668335 0.023265524 -0.14989509 -0.057177596
-0.075946435 -0.06868405 -0.039359927 -0.52562153 -0.44612715 -0.2434878 -0.36310145 -0.5123011
-0.36699024 -0.37774983 -0.23499562 -0.22682653 -0.35826564 -0.33643058 -0.23643453 -0.27949813
-0.4055868 -0.31263998 -0.35227826 -0.32913145 -0.33029607 -0.03131716 -0.39188674 -0.47845787
-0.27247223 -0.03921222 -0.16510311 0.023520729 -0.19115993 -0.18108314 -0.39310578 -0.033882838
-0.22336009 -0.34153885 0.023984933 -0.034811873 -0.121178225 0.08360146 -0.33801398 -0.2326618
-0.054131962 -0.38924637 -0.37051266 0.042796683 -0.1801945 -0.3418722 -0.086015284 -0.22605948
-0.22961265 -0.36647964 -0.3064755 -0.07794032 -0.20643158 -0.044991884 -0.06997235 -0.28930622
-0.07161853 -0.25760862 -0.14933738 -0.45373547 -1.4441159 -0.12698849 -0.14954709 -0.2678369
00000000: ecf8 57be 29e7 993d f0cf a0be a95d 5abe
00000010: 9a17 f1be 882d 6cbe 6aba 90be fe6c 1dbe
00000020: e414 3bbe c68c aabe 36bc 17be f9b3 b1be
00000030: 4561 a9be e849 c2be 2212 7ebe 7476 16bf
00000040: 75b9 72bf f578 26be 6230 e6be 7865 96be
00000050: 5a94 5ebe d57f 7cbd 607c 6bbe a3c0 b3bd
00000060: 4e12 5bbf a069 9cbe 7318 bebe fb92 0f3b
00000070: b1dc 74be 3e9b a9be 3d84 e2bd 90e8 debd
00000080: 87b4 b6be 1777 a73d 893c e5be 4443 a1be
00000090: 795a 21bd b2f5 c1be a389 b8be e7c1 f13c
000000a0: f551 9fbe 83cc d5be 5747 a9be 0ad7 ddbe
000000b0: e6b1 c0be 8c35 b5be 8be9 71be ae57 09bf
000000c0: aaf5 d8bd 9e0a d1bd b783 b0bd 2463 0ebf
000000d0: beba 6a3e cb7c bcbe 31b8 9abd 1b94 d1be
000000e0: 3593 b4be bf89 b5be 9ea6 a5be 457e 5cbe
000000f0: a5f3 cdbe 4f87 22be cdc3 85be e79e c83c
00000100: aa46 d4bd 02f0 95be 2e8c 3fbe 4a21 c6be
00000110: 8c6f 3dbd 58a7 61be adc1 36be d69e 7cbe
00000120: ab62 b4be 2b35 1bbe d7b3 aabe 0a98 aabe
00000130: 21b9 28be 802d dbbf 8548 67be eaa3 debe
00000140: 32fe a7be 09b2 32be 0362 72be a0d7 8ebe
00000150: dda9 e5bd ddc3 19bd d042 42be c2ed aebe
00000160: 0056 83bd 6917 b33e 11e3 97be 8a77 353f
00000170: 1af3 e6ba e99f 47be acd5 4dbe 2f2a c6bd
00000180: 3b59 4dbe db4e 2f3f 7f8b 75bc e529 96bd
00000190: c6ff b5bd 06fa 4bbd 084d c1bd 820f 373d
000001a0: 6464 5f3b c7c0 9dbc b378 4ebd ad35 b0bd
000001b0: ede6 02be b0e8 f6bc def8 98bc 26f6 f23d
000001c0: a6aa babd 7fec b3bd 0015 efbc 4d3a 343d
000001d0: 25be 023d 05b2 7bbc afd4 56bd 5f9d 133e
000001e0: 6f61 8abb d413 c03c 50d9 c23c 4282 643d
000001f0: e0a5 86bd 71e8 8abd 1479 3bbd 3a1e 0fbe
00000200: a099 a6ba a316 3bbd 9a69 6e3d ec84 4fbe
00000210: 86fc bebd 548d d5bc 6016 7c3d 9fb7 aebd
00000220: 81e2 10bd 2e0c 253d 5a56 95bc 7b99 b5bd
00000230: 4c75 933c 9659 b5bc 7135 3ebe 4f81 063d
00000240: 1cc1 333b 6775 083e fd5a 2a3c 229a 52bc
00000250: 9f5f d43d 2b24 c93d 73b4 153e a266 8bbd
00000260: a4bb 513d 898b 63bd a0eb febc 1825 163d
00000270: 84c3 053e d547 8a3c 4716 263e 2088 423d
00000280: 705b 0bbc ea30 f43d 7668 4dbe 1cd1 a03a
00000290: 9ef2 02bd f2c4 c6bc d161 0f3e 33f1 f6bd
000002a0: 2ec3 87bd 377b 823d 7db7 97bd 7f98 463d
000002b0: 6470 5dbd 3269 02bd 6911 cc3c 8101 53be
000002c0: f02a 76bd 501d f4bd 62b1 103e a7fd e1bd
000002d0: 4972 8f3c fc0a aebd a505 1ebc b4e3 8bbd
000002e0: dc6c 2dbb 63fd c7bc fcc0 713d a478 983c
000002f0: 290c 9d3d 5797 be3c 197e 19be 0e33 6abd
00000300: ce89 9bbd 39aa 8cbd e037 21bd 228f 06bf
00000310: c76a e4be de54 79be 6fe8 b9be 2a26 03bf
00000320: 25e6 bbbe 6d68 c1be b1a2 70be 3745 68be
00000330: 986e b7be a140 acbe e51b 72be 611a 8fbe
00000340: 13a9 cfbe 5912 a0be d15d b4be eb83 a8be
00000350: 911c a9be 6c46 00bd 61a5 c8be 6ef8 f4be
00000360: 7b81 8bbe fe9c 20bd ca10 29be 8bae c03c
00000370: 6ebf 43be dc6d 39be 2945 c9be bbc8 0abd
00000380: 82b8 64be 2ede aebe 0d7c c43c e596 0ebd
00000390: 4a2c f8bd 3e37 ab3d 2b10 adbe e53e 6ebe
000003a0: 7ab9 5dbd 4d4b c7be d6b3 bdbe 934b 2f3d
000003b0: e884 38be df09 afbe c828 b0bd 237c 67be
000003c0: 941f 6bbe 38a3 bbbe 5bea 9cbe 2d9f 9fbd
000003d0: cd62 53be 6949 38bd aa4d 8fbd f21f 94be
000003e0: bcac 92bd 47e5 83be e6eb 18be 0450 e8be
000003f0: cad8 b8bf 4509 02be df22 19be eb21 89be

final.linears.1.bias f4 [98]
-0.64200765 0.10294944 -0.26292345 -0.10816779 -0.14112286 -0.5109238 -0.25223842 -0.26694727
-0.0020741504 -0.21180473 0.025598247 -0.15257643 -0.2683156 -0.07164494 -0.072845966 -0.17157201
-0.26521778 -0.121316336 0.35381335 -0.03560985 -0.15131906 -0.1672933 -0.23732445 -0.22913042
-0.6760336 -0.15983763 -0.23110078 0.02366201 -0.13867112 -0.17252627 0.018981732 0.043789636
-0.22788723 -0.008795545 -0.24333271 0.33530882 -0.17731448 -0.14462204 -0.17946732 0.18592353
-0.05882996 -0.18361299 0.16646975 0.11414553 -0.09616043 0.1794226 -0.15957852 -0.23879984
-0.20765072 -0.15357515 0.8609859 -0.29153016 0.065914065 -0.14217523 -0.1440297 -0.18730457
0.09226581 -0.21794693 -0.082139514 -0.1194168 0.06915843 -0.24370365 -0.13951737 -0.28902444
-0.11120945 -0.15239841 -0.21339507 -0.07894181 -0.12932812 -0.10851906 -0.12753615 -0.23623805
-0.084776685 -0.18271057 -0.21172932 -0.074315146 -0.15107301 -0.5378761 -0.10557523 0.018269807
-0.062027913 -0.2238774 -0.28526455 0.021071801 -0.10363956 0.014258238 -0.11164975 -0.015894748
0.11668864 -0.090976916 -0.24953929 0.08606392 -0.13833137 -0.37081426 -0.16441377 -0.015066635
-0.18776186 -0.34841633
00000000: 9d5a 24bf 28d7 d23d e79d 86be 1387 ddbd
00000010: 8382 10be e7cb 02bf 6525 81be 50ad 88be
00000020: 78ee 07bb 57e3 58be 6ab3 d13c ff3c 1cbe
00000030: aa60 89be 95ba 92bd 4430 95bd 93b0 2fbe
00000040: a0ca 87be b374 f8bd 0627 b53e a2db 11bd
00000050: 62f3 1abe ef4e 2bbe 2e05 73be 2aa1 6abe
00000060: 8a10 2dbf 7aac 23be afa5 6cbe d5d6 c13c
00000070: cdff 0dbe baaa 30be 947f 9b3c c35c 333d
00000080: 455b 69be 311b 10bc 362c 79be 99ad ab3e
00000090: ed91 35be cd17 14be 48c6 37be bd62 3e3e
000000a0: aff7 70bd 0b05 3cbe 0c77 2a3e 22c5 e93d
000000b0: c2ef c4bd 8fba 373e 8d68 23be f287 74be
000000c0: 64a2 54be ce42 1dbe 9269 5c3f 7143 95be
000000d0: f4fd 863d 6296 11be 867c 13be c5cc 3fbe
000000e0: dbf5 bc3d 7b2d 5fbe c338 a8bd cc90 f4bd
000000f0: efa2 8d3d 738d 79be a4dd 0ebe 03fb 93be
00000100: c8c1 e3bd 540e 1cbe 3d84 5abe 3eac a1bd
00000110: 976e 04be 3e3f debd d698 02be 63e8 71be
00000120: 669f adbd 7b18 3bbe 92cf 58be 8a32 98bd
00000130: e2b2 1abe 40b2 09bf d437 d8bd 90aa 953c
00000140: fb10 7ebd 1e40 65be 320e 92be c59e ac3c
00000150: fa40 d4bd 629b 693c a0a8 e4bd b435 82bc
00000160: 74fa ee3d 1b52 babd 3a87 7fbe 4842 b03d
00000170: bda6 0dbe 5edb bdbe 155c 28be 0cda 76bc
00000180: a544 40be a063 b2be

final.linears.2.weight f4 [17, 98]
0.025390038 0.009828424 0.0394335 -0.19092125 -0.52770734 0.002748835 -0.14262961 -0.008529995
0.06507685 0.37683663 0.16437368 0.24093647 0.42150715 -0.003495952 -0.036952164 0.051289286
-0.3105814 0.014177291 0.0031824051 -0.012852628 -0.33783913 0.06520882 0.21945956 0.18519656
0.00256274 0.13336113 -0.11072377 0.008886303 -0.15961021 0.09934428 0.195846 -0.0026404953
0.55986476 -0.10967247 -0.047618046 -0.008318091 0.21050274 0.15125741 0.40706292 -0.016240653
0.30753452 -0.06897934 0.11894073 0.086399496 -0.049938187 -0.014197669 -0.5900657 0.0071003335
0.5868232 -0.28683147 0.00015351716 0.09819296 -0.017705884 -0.01323056 -0.013257074 -0.16481893
-0.19710597 0.030674543 0.15962996 -0.06797366 0.020086896 -0.02683804 0.010796296 0.4557337
-0.02300542 -0.018794866 -0.18555754 -0.0943329 0.078791775 0.121673845 -0.27243873 -0.024129527
-0.08435468 0.40766358 -0.17051502 -0.02842791 0.0010993569 0.009384015 0.0947576 -0.12630765
-0.016227573 -0.057711344 -0.5010122 0.0036317832 -0.008131605 -0.044164535 -0.22903238 -0.14787492
-0.06524308 -0.30697075 -0.6625647 0.23162211 0.16974062 0.091960736 -0.082327306 0.043710295
0.006986695 -0.08391388 0.73269385 -0.11160578 0.21191216 0.044071946 -0.40169218 -0.40203965
0.077933304 0.16717829 -0.02154356 0.06261639 -0.09575146 -0.08301211 0.050473098 0.010932119
-0.3244335 0.11390266 0.18222994 -0.02024876 -0.025212795 0.032826394 -0.22229691 0.1266771
0.046456948 -0.112154596 0.57771385 0.03994953 0.08636319 0.076898 0.072791934 0.11050925
-0.024791878 -0.018775573 0.03265443 0.023860985 0.09482961 0.7393268 0.051342916 0.09101813
-0.31117132 -0.08693515 -0.19409807 0.059797082 -0.1372572 -0.085081026 0.016385306 -0.030961676
-0.11514521 0.14463373 -0.07733122 -0.009571875 -1.0085756 0.029212918 -0.2936783 0.0714694
0.06468409 -0.28423816 -0.04764952 -0.21280257 -0.024522271 0.021962397 -0.08576433 0.45897323
-0.24392529 0.19052336 0.075425394 0.08889705 -0.16450281 0.068423316 0.052368917 0.0790012
0.024529494 0.08842691 -0.25627723 -0.4940425 0.15276606 0.09778552 0.06036467 0.591692
0.007519194 -0.0035473083 0.07265314 0.18262702 0.20488441 -0.043924697 0.057036944 -0.046017587
0.026760042 -0.036499783 -0.14615802 -0.15256594 -0.014342254 -0.056073282 0.04605392 0.5294201
-0.18310997 -0.13124436 -0.4852204 0.17614509 -0.99035496 -0.04950331 0.20912354 0.06391673
-0.25814858 0.40361148 0.051482257 0.13062465 -0.010481808 0.031921525 -0.014022732 -0.20068482
-0.072232485 -0.004454705 -0.25721258 0.09389489 0.22263934 0.0032002463 0.5757313 0.10963105
-0.16669327 0.100437984 0.09635539 -0.09399915 -0.15866525 0.013964513 0.057382837 0.047065664
0.018135782 0.08347158 0.003210549 0.010620519 0.07462108 -0.00061380473 0.074576214 -0.3896232
0.035399772 0.026168032 -0.019732302 -0.050937925 0.0041885027 0.06771611 -0.054862984 -0.08571586
0.004756268 0.103243604 -0.17534131 -0.31439155 -0.060799386 0.077797264 0.3652946 0.060133405
-0.020246705 0.07312002 0.032774366 -0.19511537 -0.04312883 -0.16826195 0.008997719 0.0114095025
00000000: c5fe cf3c 6607 213c 0685 213d dc80 43be
00000010: d417 07bf cc25 343b 7f0d 12be 64c1 0bbc
00000020: 0347 853d bbf0 c03e 9351 283e 0db8 763e
00000030: c9cf d73e 581c 65bb 275b 17bd b714 523d
00000040: 8604 9fbe de47 683c e68f 503b d493 52bc
00000050: 40f9 acbe 348c 853d 02ba 603e 2ba4 3d3e
00000060: a4f3 273b d28f 083e 25c3 e2bd db97 113c
00000070: dc70 23be 0475 cb3d db8b 483e 290c 2dbb
00000080: 4c53 0f3f f69b e0bd 240b 43bd 9a48 08bc
00000090: 088e 573e 39e3 1a3e 8d6a d03e 1e0b 85bc
000000a0: 2a75 9d3e 0a45 8dbd 3397 f33d 38f2 b03d
000000b0: fc8b 4cbd 579d 68bc 8c0e 17bf eaa9 e83b
000000c0: 0c3a 163f 93db 92be 73f9 2039 6419 c93d
000000d0: ee0b 91bc fec4 58bc 3334 59bc 4bc6 28be
000000e0: 26d6 49be 2e49 fb3c 0976 233e c635 8bbd
000000f0: 468d a43c 73db dbbc f3e2 303c ed55 e93e
00000100: dd75 bcbc b1f7 99bc cc02 3ebe 9c31 c1bd
00000110: 955d a13d 2330 f93d 177d 8bbe 49ab c5bc
00000120: 25c2 acbd 48b9 d03e 7d9b 2ebe a6e1 e8bc
00000130: 4c18 903a 69bf 193c 4610 c23d cb56 01be
00000140: b0ef 84bc bb62 6cbd 5642 00bf 3603 6e3b
00000150: 6c3a 05bc dfe5 34bd 7787 6abe 866c 17be
00000160: 2a9e 85bd 452b 9dbe d79d 29bf 592e 6d3e
00000170: 7cd0 2d3e e955 bc3d 389b a8bd 9109 333d
00000180: a5f0 e43b 0adb abbd d391 3b3f 9291 e4bd
00000190: 80ff 583e c984 343d 99aa cdbe 24d8 cdbe
000001a0: 7f9b 9f3d c930 2b3e 1f7c b0bc 063d 803d
000001b0: 5719 c4bd 4102 aabd e1bc 4e3d a11c 333c
000001c0: 261c a6be cc45 e93d 7c9a 3a3e bae0 a5bc
000001d0: 108b cebc f874 063d cda1 63be a4b7 013e
000001e0: a449 3e3d 4fb1 e5bd 0ee5 133f 1ea2 233d
000001f0: 2fdf b03d b37c 9d3d f013 953d ac52 e23d
00000200: 5618 cbbc 3bcf 99bc a7c0 053d 1d78 c33c
00000210: 0736 c23d 8544 3d3f f34c 523d b767 ba3d
00000220: d951 9fbe 0e0b b2bd a5c1 46be c9ed 743d
00000230: 278d 0cbe f63e aebd 7a3a 863c 57a3 fdbc
00000240: 40d1 ebbd dd1a 143e d55f 9ebd 5bd3 1cbc
00000250: 0119 81bf ee4f ef3c 015d 96be 8c5e 923d
00000260: 1879 843d aa87 91be 252c 43bd ebe8 59be
00000270: eee2 c8bc 7cea b33c 36a5 afbd 8afe ea3e
00000280: 8dc7 79be 8e18 433e a178 9a3d a80f b63d
00000290: 6d73 28be 8621 8c3d ca80 563d 62cb a13d
000002a0: 14f2 c83c 2b19 b53d c536 83be 23f3 fcbe
000002b0: b56e 1c3e c643 c83d f240 773d 2079 173f
000002c0: 9263 f63b f579 68bb 2bcb 943d 9402 3b3e
000002d0: 38cd 513e 62ea 33bd 929f 693d f07c 3cbd
000002e0: e037 db3c cc80 15bd 73aa 15be 3f3a 1cbe
000002f0: c6fb 6abc 19ad 65bd 09a3 3c3d 1388 073f
00000300: 2e81 3bbe ec64 06be cf6e f8be 615f 343e
00000310: e787 7dbf fcc3 4abd 7b24 563e c6e6 823d
00000320: 0d2c 84be 2aa6 ce3e 0fdf 523d 78c2 053e
00000330: e4bb 2bbc 25c0 023d 9abf 65bc 5280 4dbe
00000340: a0ee 93bd c6f8 91bb 5eb1 83be f74b c03d
00000350: 91fb 633e 39bb 513b 2063 133f 3e86 e03d
00000360: a4b1 2abe 6eb2 cd3d fa55 c53d a082 c0bd
00000370: 2579 22be 6acb 643c 440a 6b3d edc7 403d
00000380: 7e91 943c 26f3 aa3d 1368 523b af01 2e3c
00000390: f0d2 983d bde7 20ba 6abb 983d b17c c7be
000003a0: 5aff 103d 575e d63c a3a5 a1bc 49a4 50bd
000003b0: b53f 893b beae 8a3d 02b8 60bd cc8b afbd
000003c0: 78da 9b3b 6271 d33d ac8c 33be eef7 a0be
000003d0: c708 79bd 2c54 9f3d e507 bb3e 724e 763d
000003e0: 6bdc a5bc f3bf 953d 6a3e 063d 53cc 47be
000003f0: dba7 30bd dc4c 2cbe 2b6b 133c ecee 3a3c

final.linears.2.bias f4 [17]
0.052412894 0.11395355 -0.19704333 -0.117333815 0.051632475 0.038670953 0.009753316 0.000118431955
-0.043295167 0.014218447 0.021811428 -0.012655923 -0.004431093 0.061666854 -0.0023918494 -0.0022861166
-0.023870984
00000000: e7ae 563d 7b60 e93d bac5 49be b64c f0bd
00000010: 937c 533d 6f65 1e3d 5fcc 1f3c ac5e f838
00000020: 4656 31bd 7df4 683c e1ad b23c ca5a 4fbc
00000030: b432 91bb 6296 7c3d 93c0 1cbb acd2 15bb
00000040: 158d c3bc

layers.0.attn.0.gnn_q.weight f4 [17, 16]
9.108752e-34 5.152959e-07 -7.455526e-34 -7.070662e-34 6.9513155e-09 1.5339625e-34 1.6107294e-18 -3.469325e-11
-3.9902792e-10 7.020709e-23 4.1795838e-14 -1.1051292e-09 -9.24041e-34 1.7005443e-31 1.3450967e-28 -9.802629e-34
-2.2694135e-34 -2.9468456e-06 -5.8192704e-35 2.8023188e-34 1.2767574e-08 2.489324e-34 1.4501669e-18 -3.133771e-11
-1.0392885e-09 1.0020247e-22 1.01411236e-13 -2.0157125e-09 8.6717605e-34 2.5968397e-29 3.8497573e-28 3.7367232e-36
8.923706e-34 -2.4415015e-06 -8.750591e-34 8.791027e-34 -2.8305546e-08 -1.691956e-34 -2.578653e-18 7.970921e-11
9.2938884e-10 -1.0898286e-22 -5.6571836e-14 3.114848e-09 9.6187e-34 -2.5386418e-30 -3.4116888e-28 7.0769067e-34
-8.674784e-34 -1.268999e-06 3.2359964e-34 2.6237275e-35 -1.23654e-08 1.170691e-33 7.012971e-19 1.7954204e-11
2.2002537e-10 3.040899e-23 1.2208622e-14 9.549748e-10 2.303046e-34 6.70311e-31 2.1428084e-28 -5.0377013e-34
2.2788618e-34 5.0938206e-07 -9.399031e-34 -9.454911e-34 8.732562e-09 1.3885702e-34 1.4812334e-18 -3.77601e-11
-5.1145427e-10 6.784385e-23 3.347256e-14 -1.3216593e-09 8.8835e-34 8.80143e-31 2.3178914e-28 5.7228695e-34
-3.7248349e-34 -1.1609897e-06 -6.43558e-34 -5.6839973e-34 -1.4099674e-08 1.7538825e-34 -7.9874137e-19 4.0974606e-11
4.735452e-10 -2.0220136e-23 -2.182376e-14 1.6118331e-09 -8.694656e-34 -1.0768489e-30 -6.599171e-29 9.6959825e-34
-9.893548e-34 -3.6658332e-07 1.0484157e-33 5.037246e-34 -3.4804826e-09 -4.8539642e-34 -2.2275752e-19 1.3819787e-11
1.3244202e-10 -9.9050685e-24 -1.9043829e-16 4.7541915e-10 7.4330443e-34 3.7382044e-31 -2.9810296e-29 -9.082665e-34
9.096994e-34 9.80551e-07 -9.371994e-34 -5.837354e-34 1.2398295e-08 9.605896e-34 1.6521931e-18 -4.7453087e-11
-5.3698096e-10 7.169911e-23 3.574878e-14 -1.8953805e-09 9.497863e-34 -1.5825324e-31 2.1956466e-28 -9.035692e-34
-8.986159e-34 3.0638587e-06 -9.865452e-34 -7.094564e-34 3.701232e-08 8.441384e-34 3.923531e-18 -1.2555139e-10
-1.4280142e-09 1.367506e-22 9.698553e-14 -4.920967e-09 1.0306251e-33 1.9049185e-30 3.702089e-28 -4.8353467e-35
-8.655801e-34 1.559144e-06 -1.00334155e-33 -2.6535224e-34 2.070466e-08 9.106107e-34 2.0501692e-18 -6.560232e-11
-7.316063e-10 7.0271856e-23 4.969998e-14 -2.3937683e-09 9.703943e-34 4.566368e-31 2.5657306e-28 -7.381255e-34
-9.14823e-34 8.507095e-07 3.3807525e-34 4.264686e-34 1.0511112e-08 -2.9819847e-34 4.100328e-19 -2.9425795e-11
-2.9478964e-10 1.5271554e-23 1.0817981e-14 -1.0260732e-09 -1.0196417e-33 1.6268461e-31 1.4805069e-28 1.0593824e-33
9.251244e-34 -1.9773502e-06 9.293172e-34 9.966315e-34 -2.5257425e-08 8.212382e-34 -1.5917822e-18 6.8797676e-11
8.1554263e-10 -6.2256183e-23 -4.1420236e-14 2.7484888e-09 -1.01547045e-33 -2.5555054e-31 -1.3582498e-28 6.162091e-34
-1.065407e-33 -7.8792567e-07 -9.431956e-34 4.1709915e-34 -8.018365e-09 -9.881311e-34 -1.6568669e-18 4.965316e-11
6.00234e-10 -7.7800933e-23 -3.1809035e-14 1.8922728e-09 9.909858e-34 -1.32936e-30 -2.9794507e-28 5.262037e-35
3.933868e-34 -8.845472e-07 1.0565486e-33 -7.164246e-35 -1.08077804e-08 2.5195144e-34 -1.4981084e-19 2.137769e-11
2.9148933e-10 -6.4296258e-24 -7.108079e-15 9.771721e-10 -3.6475075e-34 -8.325139e-31 3.4458603e-29 3.946814e-36
-7.011845e-34 -7.828065e-07 -8.20219e-34 -1.0371469e-33 -1.0799934e-08 -7.0907546e-34 -1.271756e-18 3.821511e-11
4.5643175e-10 -4.5969052e-23 -2.578961e-14 1.5466544e-09 -2.7716827e-34 1.0906763e-31 -1.2210609e-28 -6.699064e-35
-2.3644649e-34 -2.4226824e-07 -3.5418894e-34 8.149167e-34 -2.0840074e-09 -4.224688e-34 5.433949e-19 -4.9504836e-12
-2.1400805e-11 3.71805e-23 1.35994375e-14 -7.4384984e-11 9.468623e-34 1.4939011e-30 9.808824e-29 -8.38489e-34
00000000: 5958 9708 dd52 0a35 9ac0 7788 8af6 6a88
00000010: 6bd8 ee31 0ae6 4b07 a3b3 ed21 2095 18ae
00000020: 305e dbaf 15c0 a91a 523b 3c29 47e3 97b0
00000030: 5b88 9988 47be 5c0c e282 2a11 c6df a288
00000040: 12d4 9687 6cc2 45b6 e7b3 9a86 fc3e ba07
00000050: 6258 5b32 a771 a507 c201 d621 20d3 09ae
00000060: b7d6 8eb0 5346 f21a 995b e429 ca84 0ab1
00000070: 9715 9008 e8ac 0310 e201 f411 50f1 9e04
00000080: 3f45 9408 add8 23b6 e664 9188 e510 9208
00000090: 8e24 f3b2 47e6 6087 6145 3ea2 4c48 af2e
000000a0: ed77 7f30 90c0 039b e3c6 7ea9 fc0c 5631
000000b0: 6dd1 9f08 87f5 4d8e d13d d891 aa2b 6b08
000000c0: 7322 9088 7952 aab5 a011 d707 5480 0b06
000000d0: 9b6f 54b2 b083 c208 83fc 4e21 46ed 9d2d
000000e0: a3eb 712f 820c 131a 55ee 5b28 3040 8330
000000f0: 4c10 9907 4287 590d 0ed1 8711 0668 2788
00000100: d374 9707 78bc 0835 0e2b 9c88 be18 9d88
00000110: 3706 1632 9892 3807 6a97 da21 1812 26ae
00000120: 6596 0cb0 4f09 a41a 3cbf 1629 c1a5 b5b0
00000130: 3b9a 9308 b6cf 8e0d f0e9 9211 ca2c 3e08
00000140: c88e f787 4dd3 9bb5 dcdb 5588 1ae2 3c88
00000150: 063b 72b2 8721 6907 31bf 6ba1 4e35 342e
00000160: c82a 0230 a28e c399 2a92 c4a8 5687 dd30
00000170: fa76 9088 8eba ae8d 124f a790 261a a108
00000180: 8062 a488 d4ce c4b4 ac32 ae08 2664 2708
00000190: 4c2d 6fb1 f64c 2188 2a7e 83a0 ca1e 732d
000001a0: 1d9f 112f 8697 3f99 768f 5ba5 a6ae 0230
000001b0: 5901 7708 939f f20c fa27 1790 62e9 9688
000001c0: 5526 9708 7a9b 8335 0eb8 9b88 b7fa 4188
000001d0: 4700 5532 f69a 9f08 17d2 f321 6db3 50ae
000001e0: ad9a 13b0 995b ad1a 8aff 2029 e33f 02b1
000001f0: 71cf 9d08 a96c 4d8c 672a 8b11 9521 9688
00000200: e54e 9588 b19c 4d36 feea a388 e0c1 6b88
00000210: 7af7 1e33 ad41 8c08 b4c0 9022 930b 0aaf
00000220: c843 c4b0 4352 251b 5a64 da29 4915 a9b1
00000230: f23d ab08 9c8b 1a0e d4a5 ea11 aa8b 8086
00000240: b5d1 8f88 c843 d135 6eb5 a688 585b b087
00000250: 07da b132 184d 9708 9a46 1722 d342 90ae
00000260: 371a 49b0 2ce8 a91a 2dd4 5f29 9e7f 24b1
00000270: 023c a108 e72f 140d 5c9f a211 c648 7588
00000280: 4400 9888 505c 6435 86b0 e007 f0b7 0d08
00000290: 5c94 3432 d72f c687 680a f220 806a 01ae
000002a0: f40f a2af 89b2 9319 22e1 4228 be05 8db0
000002b0: c36a a988 3c2d 530c 32ad 3b11 2505 b008
000002c0: 71b6 9908 9eb2 04b6 c868 9a08 0498 a508
000002d0: aaf5 d8b2 9c73 8808 d5e7 eaa1 a649 972e
000002e0: b62c 6030 b686 969a 488a 3aa9 eddf 3c31
000002f0: 56b9 a888 9edc a58c ba2d 2c91 46c5 4c08
00000300: 6705 b188 d781 53b5 1bb7 9c88 df9a 0a08
00000310: 24c1 09b2 732e a488 a982 f4a1 7d60 5a2e
00000320: b6fd 2430 721c bc9a 5241 0fa9 3709 0231
00000330: e0a7 a408 74b3 d78d 5ad8 bc91 91e3 8b06
00000340: a6b9 0208 9f71 6db5 9b8c af08 5575 be86
00000350: 1fad 39b2 5173 a707 8cdd 30a0 470a bc2d
00000360: 7a3f a02f eebb f898 3b0c 00a8 304d 8630
00000370: 206b f287 4615 878d d3b9 2e10 00e1 a704
00000380: 2e02 6988 0e22 52b5 4248 8888 5a53 ac88
00000390: 9d8a 39b2 78a1 6b88 95ad bba1 6412 282e
000003a0: 0fed fa2f ee4a 5e9a cb4a e8a8 1092 d430
000003b0: bd35 b887 f093 0d0c b1c9 1a91 7817 b286
000003c0: 4925 9d87 1811 82b4 2066 eb87 b966 8708
000003d0: 3f36 0fb1 ac63 0c88 c261 2021 fe2d aeac
000003e0: 543e bcad 3bcb 331a 56fc 7428 0693 a3ae
000003f0: 1153 9d08 3966 f20d e8ae f810 6151 8b88

layers.0.attn.0.gnn_q.bias f4 [16]
-2.4507055e-34 -6.606937e-05 -3.9941007e-34 -5.494541e-34 -2.130565e-06 -3.1247332e-33 -1.5785362e-17 8.9850083e-10
4.478937e-08 -1.095533e-22 -2.7898235e-12 9.187796e-08 5.392604e-34 -2.1519234e-28 -1.9091298e-28 -3.118683e-34
00000000: 98e0 a287 b98e 8ab8 0dba 0488 6396 3688
00000010: d4fa 0eb6 ddcb 8189 2298 91a3 60fa 7630
00000020: 6f5e 4033 1b71 049b fe50 44ac 714e c533
00000030: 3433 3308 f464 8891 ce02 7291 a445 cf87
