checkpoints/cyp1a2_veith_50_train1_pos/Sep06-11:57:24_900.pth (torch, 421766 bytes, 294 tensors)

layers.0.weight f4 [17, 16]
0.08650372 0.23947921 -0.22460613 1.8651732 -0.85707647 0.15496469 0.016977238 0.9637663
-0.38882366 -0.39614856 -0.47993585 1.5844604 0.14091365 0.44849786 0.61354506 0.32306477
0.13031682 0.06264744 0.049058717 0.04615075 -0.09653686 0.037044454 -0.043878566 0.13851613
-0.049114615 -0.036170993 0.07477792 0.063432105 -0.3852008 -0.23092957 0.13531119 -0.16486417
0.03711753 0.08883455 -0.007965508 0.042272106 -0.10130981 -0.020735752 -0.03087678 0.14226101
-0.06089295 -0.038713243 0.03824354 0.06186914 -0.3986376 -0.22814927 0.09883969 -0.15388362
0.013043285 0.019144965 -0.009088241 0.020186914 -0.09772001 -0.00026138418 -0.0063948277 0.117624216
-0.02555336 -0.017058479 -0.012304586 0.029093098 -0.03579136 -0.19181457 0.09618318 -0.14199495
0.012857718 0.004712986 -0.016858436 0.032692373 -0.057931628 0.006937424 0.016979473 0.066155866
-0.0090562 -0.016551733 -0.08435813 0.024362225 0.14218494 -0.20707387 0.06804221 -0.15953411
-0.23102999 -0.059014708 0.08541196 -1.003746 0.9777738 -0.032761592 -0.16017538 -1.1120006
-0.555692 -0.5634257 0.97650605 -0.84595156 -0.058385916 1.2184497 -1.1461145 0.95569724
0.35322806 -0.095205754 -0.00014198558 -1.1196054 0.4688562 -0.1905081 0.3400818 -0.5299753
-0.091273546 -0.12092147 -1.7107466 -0.9332822 -0.095747486 -1.6985705 1.9705385 -1.3445545
0.09493078 -0.21991931 0.17383021 -1.2362136 0.47210762 -0.15980458 0.13153267 -0.518126
0.94091064 0.9408589 -0.4423996 -1.0419571 -0.10361261 -1.1395543 0.4740703 -0.8343802
0.0043550343 0.015234832 -0.0095954435 0.015810935 -0.10458882 0.0011305257 0.00968994 0.13049164
-0.02900659 -0.016514774 -0.037373457 0.009192911 0.026946094 -0.23534925 0.06759498 -0.16956201
0.027399082 -0.027429365 -0.014415735 0.049475357 -0.08490047 0.006828808 0.051484976 0.078236796
0.009773386 -0.037388194 -0.124824174 0.014167361 0.19846043 -0.21450518 0.09668258 -0.18071023
0.020844882 0.11415121 -0.08690523 -0.35605162 -0.45566273 0.056208216 -0.011633714 0.5037313
-0.85134554 -0.8768758 0.135724 -0.27692512 0.049750447 -0.5231943 -0.17640138 -0.399055
-0.28713682 -0.24914244 0.30183354 -1.7460566 0.46668074 -0.053578652 -0.1931615 -0.5416654
0.8526222 0.88977313 1.0964656 -1.4785246 -0.13869086 0.9383149 -1.3609998 0.7596917
0.08535633 0.39161876 -0.3842197 0.728124 -0.15200144 0.09040426 0.004862522 0.166872
-2.5106518 -2.5491636 0.65309906 0.6376982 0.17539135 -1.5368416 -0.7896185 -1.1952318
-0.24730971 0.06881752 0.047078356 -0.9171289 -1.6717074 0.25201654 -0.2501375 1.9131191
-0.26848316 -0.25915772 0.8691992 -0.7790569 0.10920691 0.73698336 -1.030485 0.5876013
-0.27644408 -0.0507422 0.15580295 -0.10711559 -1.3136265 0.18118683 -0.26967505 1.5043985
1.0256433 1.0745553 1.7530289 -0.09735967 0.13267083 -0.29209092 -2.1171966 -0.20703818
0.03743495 -0.06985571 0.06392838 -0.31971812 -0.058453597 -0.014346596 0.045253128 0.08090294
0.3370739 0.33321363 -0.063768 -0.28092173 0.050231274 -0.63128567 0.040317036 -0.5115474
00000000: dd28 b13d 0a3a 753e 26ff 65be ffbd ee3f
00000010: 5d69 5bbf 10af 1e3e d913 8b3c 63b9 763f
00000020: e513 c7be fcd3 cabe 27ba f5be 99cf ca3f
00000030: ab4b 103e 83a1 e53e 4a11 1d3f bf68 a53e
00000040: c671 053e 4d4d 803d cbf1 483d 9208 3d3d
00000050: 1eb5 c5bd edbb 173d 03ba 33bd 2cd7 0d3e
00000060: 682c 49bd 0928 14bd 2b25 993d b1e8 813d
00000070: 0a39 c5be cd78 6cbe 048f 0a3e 27d2 28be
00000080: 8d08 183d e3ee b53d c381 02bc 8425 2d3d
00000090: 857b cfbd 06de a9bc 4df1 fcbc dfac 113e
000000a0: e36a 79bd c791 1ebd 42a5 1c3d 7f6a 7d3d
000000b0: 3a1a ccbe f69f 69be 776c ca3d ab93 1dbe
000000c0: 81b3 553c e7d5 9c3c d8e6 14bc 075f a53c
000000d0: 6e21 c8bd 640a 89b9 b48b d1bb f7e4 f03d
000000e0: 4855 d1bc 39be 8bbc 2d99 49bc a654 ee3c
000000f0: f699 12bd 0a6b 44be b0fb c43d 2067 11be
00000100: 2ea9 523c 646f 9a3b b41a 8abc 70e8 053d
00000110: b749 6dbd 5553 e33b 8918 8b3c ba7c 873d
00000120: 7560 14bc 8097 87bc f5c3 acbd 4a93 c73c
00000130: ee98 113e 2c0b 54be b759 8b3d e95c 23be
00000140: 2093 6cbe 68b9 71bd 77ec ae3d c07a 80bf
00000150: 624f 7a3f 0531 06bd 0405 24be 0956 8ebf
00000160: d541 0ebf ab3c 10bf 4dfc 793f 4890 58bf
00000170: 1226 6fbd 29f6 9b3f e1b3 92bf 93a8 743f
00000180: 4fda b43e 3cfb c2bd f7e1 14b9 3b4f 8fbf
00000190: eb0d f03e 8e14 43be 341f ae3e 76ac 07bf
000001a0: a0ed babd ada5 f7bd bff9 dabf 95eb 6ebf
000001b0: 4217 c4bd c26a d9bf 9b3a fc3f 5d1a acbf
000001c0: 126b c23d 8732 61be 8c00 323e 3f3c 9ebf
000001d0: 17b8 f13e d0a3 23be 80b0 063e e8a3 04bf
000001e0: 85df 703f 21dc 703f 3382 e2be da5e 85bf
000001f0: d932 d4bd eadc 91bf 58b9 f23e f199 55bf
00000200: adb4 8e3b 849b 793c 3536 1dbc ef85 813c
00000210: aa32 d6bd 262e 943a 8ec2 1e3c 9a9f 053e
00000220: 3a9f edbc fe49 87bc e914 19bd dd9d 163c
00000230: 0ebe dc3c 65ff 70be 3d6f 8a3d aaa1 2dbe
00000240: 0a74 e03c 8cb3 e0bc fa2f 6cbc aca6 4a3d
00000250: 4ce0 adbd 32c4 df3b e9e1 523d 9d3a a03d
00000260: 8d20 203c 5d24 19bd d1a3 ffbd 381e 683c
00000270: 3639 4b3e 3fa7 5bbe 8401 c63d 1a0c 39be
00000280: e3c2 aa3c 1cc8 e93d 5ffb b1bd 664c b6be
00000290: a04c e9be 963a 663d 559b 3ebc 89f4 003f
000002a0: c8f1 59bf ef7a 60bf 3bfb 0a3e 21c9 8dbe
000002b0: 20c7 4b3d 10f0 05bf 90a2 34be f050 ccbe
000002c0: 9903 93be 321f 7fbe ed89 9a3e c87e dfbf
000002d0: c7f0 ee3e 4a75 5bbd 21cc 45be 95aa 0abf
000002e0: 7345 5a3f 2cc8 633f fc58 8c3f 4b40 bdbf
000002f0: fa04 0ebe 6835 703f 3e35 aebf 287b 423f
00000300: 4dcf ae3d 4182 c83e 72b8 c4be 5666 3a3f
00000310: 44a6 1bbe de25 b93d ca55 9f3b 7ee0 2a3e
00000320: 85ae 20c0 7f25 23c0 8031 273f 3040 233f
00000330: ca99 333e 3ab7 c4bf 7024 4abf 5bfd 98bf
00000340: c23e 7dbe 33f0 8c3d 3cd5 403d f6c8 6abf
00000350: 82fa d5bf 5008 813e 0612 80be 16e1 f43f
00000360: a076 89be 52b0 84be d783 5e3f 4670 47bf
00000370: dfa7 df3d f1aa 3c3f efe6 83bf 0a6d 163f
00000380: 148a 8dbe 0ed7 4fbd cf8a 1f3e 6b5f dbbd
00000390: ea24 a8bf 0a89 393e d912 8abe 2190 c03f
000003a0: 4848 833f 078b 893f 4063 e03f 8264 c7bd
000003b0: ddda 073e f18c 95be 2680 07c0 d101 54be
000003c0: 6455 193d 8310 8fbd e2ec 823d 18b2 a3be
000003d0: 0a6d 6fbd fc0d 6bbc 585b 393d 71b0 a53d
000003e0: f394 ac3e fa9a aa3e cc98 82bd f9d4 8fbe
000003f0: 4fbf 4d3d f09b 21bf 7a23 253d c5f4 02bf

layers.0.bias f4 [16]
0.53682536 0.55232567 0.5603648 -0.47243196 0.2810177 -0.26710105 -0.4750021 0.20302643
-0.2518957 0.36758596 0.09800069 0.13194685 0.33501387 -0.17623688 0.19908163 0.3090878
00000000: 636d 093f 3765 0d3f 1174 0f3f 9ae2 f1be
00000010: 8de1 8f3e 78c1 88be 7a33 f3be 29e6 4f3e
00000020: 79f8 80be 3a34 bc3e 96b4 c83d 131d 073e
00000030: f086 ab3e 7177 34be 0edc 4b3e c240 9e3e

layers.1.weight f4 [16, 16]
-0.21214773 -0.32512438 1.1844873 0.37913835 -1.0830982 0.6974176 -0.1458122 -0.61390847
-0.20068143 -0.21641026 0.98461133 -0.35320675 -0.39936444 -0.3893856 -1.369412 -0.014648304
0.5779056 -0.9005934 0.116243474 -0.2069598 -0.70280075 1.0631583 0.8813661 -0.17063105
-0.25810593 -0.3679393 -0.5465508 0.46246326 0.07652642 -0.5855933 -0.38934264 -0.70600706
-0.8536418 0.4568449 -0.043065216 0.44837788 0.56545395 -1.5183682 -0.3121634 0.82442135
-0.24168292 0.38603327 0.5693375 0.51469284 0.8852792 0.7159713 0.7795778 -0.00090602675
-0.05883469 -0.33899754 0.076609395 -0.09017376 -0.91430366 -0.15632367 -0.094968766 -0.049970515
-0.50851864 0.12996642 -0.04272933 0.22627436 -0.31214702 0.09423804 0.13347878 -0.7813364
0.031052336 0.58775795 0.32382923 -0.0824177 0.3764252 0.39527637 0.09168568 0.28753376
0.5481903 -0.054554135 -0.0023043938 -0.99880564 -0.039092593 -0.01766468 0.19703262 0.53064084
0.6491998 -0.29877254 -0.7391867 -0.2899102 0.18456385 0.8666054 0.63659835 0.23059893
0.13446814 -0.08209429 -1.0426909 0.30248877 -0.14409189 -0.14704472 1.0237359 0.019835016
-0.10267507 0.6888601 0.4471431 0.16927567 0.1767333 0.31127116 -0.95075923 -0.94417953
0.16185756 -0.20140684 1.0622416 -0.90282995 -0.42721063 -0.23485824 -0.92523247 0.7186121
0.40375873 0.1417186 -0.66131335 -0.539754 0.09781081 -0.2250607 -0.029100839 -0.0055795377
0.5607561 0.054939587 0.24118234 0.024748376 -0.28382686 -0.06113344 -0.21015072 0.026966233
-1.0088086 0.24606328 0.22026417 -0.29870763 0.31133205 0.23575978 0.13927338 -0.12876217
-0.54811656 -0.23784404 -0.2821959 0.10315584 0.9150954 -0.09412518 -0.05933449 -0.80859387
-0.10612467 0.9385934 -0.17111991 -0.7188203 0.84120905 0.30480805 0.1469277 -0.04860712
0.5346574 -0.19982585 -0.010895082 -0.1560136 0.28986025 -0.19968656 -0.0761454 -0.26904774
0.25410846 0.074959025 -1.2125194 -0.113799945 0.66566706 -0.023884358 0.036054797 -0.29527977
0.34665212 -0.03603293 0.39720944 0.3685366 0.11279792 -0.24888672 -0.05107751 0.3321236
0.310138 0.09473525 -0.14972195 -0.8834141 -0.35294533 -0.18086527 -0.11272855 0.22764975
0.5099402 0.18822423 0.19834206 -0.17822449 -0.98085314 0.06130621 0.10535135 -0.20691262
0.13174109 -0.18204151 -0.30661342 0.02415056 -0.104846485 0.08241068 0.18458141 0.04976193
0.083187334 0.040272117 0.020170597 0.14225641 -0.16015388 -0.14441866 -0.04990135 -0.059882723
-0.09140157 -0.20495927 -0.12860937 0.12167398 0.030864738 0.040559653 -0.051046193 -0.29806384
-0.4909914 -0.01806469 0.02593153 0.81549436 0.54782325 0.38958603 -0.15420832 -0.31519735
0.08681089 0.24463205 0.040076885 -0.41152716 -0.16458894 -0.13438942 0.16921273 0.25963563
0.36469322 0.13288754 -0.28975868 -0.82338136 -0.7227079 0.24671184 -0.020863203 -0.038614023
0.22053619 0.081896886 -0.9214515 -0.20218687 0.63221145 0.12879708 -0.013853571 -0.097190246
0.5269855 -0.18929213 0.35459933 0.10806239 0.042849805 0.24810937 -0.14169505 0.27092627
00000000: 413d 59be b476 a6be 489d 973f 6c1e c23e
00000010: f6a2 8abf f689 323f cb4f 15be 1b29 1dbf
00000020: 6f7f 4dbe a79a 5dbe 7d0f 7c3f 84d7 b4be
00000030: 7f79 ccbe 8d5d c7be e448 afbf 71ff 6fbc
00000040: 9ff1 133f 4a8d 66bf 0f11 ee3d 45ed 53be
00000050: c0ea 33bf 9215 883f 35a1 613f e8b9 2ebe
00000060: 7626 84be 8a62 bcbe c1ea 0bbf fcc7 ec3e
00000070: e2b9 9c3d 71e9 15bf eb57 c7be e1bc 34bf
00000080: 4588 5abf 93e7 e93e 2765 30bd c991 e53e
00000090: 97c1 103f e459 c2bf e2d3 9fbe 470d 533f
000000a0: ba7b 77be 27a6 c53e 1ac0 113f e9c2 033f
000000b0: a8a1 623f e549 373f 6992 473f 6d82 6dba
000000c0: a5fc 70bd 1691 adbe 63e5 9c3d 05ad b8bd
000000d0: ce0f 6abf 5013 20be fc7e c2bd e2ad 4cbd
000000e0: 472e 02bf eb15 053e f304 2fbd 77b4 673e
000000f0: bcd1 9fbe e0ff c03d a9ae 083e aa05 48bf
00000100: 7861 fe3c 4e77 163f f2cc a53e 9cca a8bd
00000110: ceba c03e aa61 ca3e b4c5 bb3d a037 933e
00000120: 3356 0c3f 2874 5fbd 5005 17bb bab1 7fbf
00000130: 8e1f 20bd 85b5 90bc ebc2 493e 14d8 073f
00000140: f531 263f b7f8 98be 573b 3dbf 1c6f 94be
00000150: 4efe 3c3e dad9 5d3f 1cf8 223f 2022 6c3e
00000160: 04b2 093e 0d21 a8bd e576 85bf cfdf 9a3e
00000170: d38c 13be e492 16be c709 833f 0b7d a23c
00000180: 4f47 d2bd 2359 303f f1ef e43e 9a56 2d3e
00000190: 93f9 343e ef5e 9f3e f564 73bf c0b5 71bf
000001a0: fdbd 253e 983d 4ebe 88f7 873f dd1f 67bf
000001b0: 5abb dabe ae7e 70be 09dc 6cbf f6f6 373f
000001c0: 77b9 ce3e ae1e 113e d54b 29bf 512d 0abf
000001d0: 0951 c83d 5076 66be e264 eebc 8ed4 b6bb
000001e0: b68d 0f3f 5508 613d 81f8 763e 1bbd ca3c
000001f0: c151 91be 0f67 7abd c031 57be 4ae8 dc3c
00000200: a420 81bf 03f8 7b3e ee8c 613e 35f0 98be
00000210: ea66 9f3e 036b 713e ae9d 0e3e 3bda 03be
00000220: 5e51 0cbf 638d 73be fb7b 90be 5e43 d33d
00000230: b143 6a3f b4c4 c0bd b908 73bd 0200 4fbf
00000240: e457 d9bd a847 703f 0f3a 2fbe 9b04 38bf
00000250: 7a59 573f cd0f 9c3e 3774 163e 4218 47bd
00000260: 4fdf 083f 269f 4cbe 4981 32bc 07c2 1fbe
00000270: 9068 943e a27a 4cbe 1ff2 9bbd a0c0 89be
00000280: 811a 823e 1e84 993d d633 9bbf f20f e9bd
00000290: 2869 2a3f 21a9 c3bc 32ae 133d e92e 97be
000002a0: 637c b13e 4497 13bd 095f cb3e d4b0 bc3e
000002b0: 9902 e73d 29dc 7ebe a736 51bd 1b0c aa3e
000002c0: 68ca 9e3e 8e04 c23d b650 19be 6d27 62bf
000002d0: 40b5 b4be bf34 39be 3ade e6bd 041d 693e
000002e0: 718b 023f dabd 403e 2e1a 4b3e 7b80 36be
000002f0: 3119 7bbf 381c 7b3d 73c2 d73d e7e0 53be
00000300: 23e7 063e 1769 3abe 6ffc 9cbe 65d7 c53c
00000310: c1b9 d6bd eec6 a83d e902 3d3e 2ad3 4b3d
00000320: 1f5e aa3d 60f4 243d cf3c a53c aaab 113e
00000330: 61ff 23be 7ce2 13be 5c65 4cbd 9647 75bd
00000340: bf30 bbbd d8e0 51be 2db2 03be 3530 f93d
00000350: 0cd8 fc3c e121 263d d015 51bd d39b 98be
00000360: 3a63 fbbe 67fc 93bc 5c6e d43c 3dc4 503f
00000370: 253e 0c3f d277 c73e c9e8 1dbe 8c61 a1be
00000380: e8c9 b13d d380 7a3e a927 243d b0b3 d2be
00000390: 018a 28be 619d 09be 1a46 2d3e f6ee 843e
000003a0: 12b9 ba3e ac13 083e 405b 94be 1fc9 52bf
000003b0: 6303 39bf 07a2 7c3e 4fe9 aabc bd29 1ebd
000003c0: 3dd4 613e 8eb9 a73d 3fe4 6bbf 130a 4fbe
000003d0: 9cd8 213f 62e3 033e 17fa 62bc ae0b c7bd
000003e0: 86e8 063f ccd5 41be 0b8e b53e d04f dd3d
000003f0: 4783 2f3d 6210 7e3e 8218 11be d9b6 8a3e

layers.1.bias f4 [16]
-0.24655968 -0.039789382 -0.15273814 0.28259197 0.1446822 0.16064695 -0.553663 -0.58926576
-0.122029044 -0.014661651 -0.44558236 0.16683094 0.16057655 0.14143036 0.36540177 0.081566796
00000000: 247a 7cbe 31fa 22bd 6367 1cbe e5af 903e
00000010: 9227 143e a280 243e dcbc 0dbf 1fda 16bf
00000020: 5dea f9bd 6c37 70bc 5f23 e4be bbd5 2a3e
00000030: 2e6e 243e 1fd3 103e f115 bb3e 7e0c a73d

final.linears.0.weight f4 [98, 49]
0.500023 0.20989291 0.1945973 0.1872098 0.0865427 0.4225035 0.27349895 0.57537496
0.16787781 0.14804375 -0.714276 0.4512063 -0.14091541 -0.14276986 -0.6012518 0.32657748
0.80377316 -0.087505236 -0.036429662 -0.08935642 0.0469365 -0.06886769 0.07825263 0.06411042
-0.028330358 0.02923287 -0.041552667 0.0027371012 -0.033991132 -0.033385348 0.03548281 0.013760871
-0.018180244 0.007121127 0.016732257 0.0071577285 0.04192665 0.0034834882 -0.05803259 0.022884613
-0.058943547 0.0070982114 0.031624485 0.028990325 -0.014024853 0.006351786 -0.02264743 -0.04519533
0.025932238 0.05433625 -1.2301778 -1.171806 3.9362066 -0.48036864 -0.029233832 0.026440116
0.00060788 -0.5995169 -0.39504665 -0.03286412 0.06758424 0.023594653 0.0044088606 0.0054860725
0.046308212 0.05005683 0.15586229 0.15975747 0.18833749 -0.03415749 0.037748616 -0.110342525
-0.157879 0.029465903 -0.02315368 0.009710281 0.09266885 0.04931867 -0.12125445 -0.04482056
0.08924097 0.017864447 0.07414536 0.05309091 0.011810452 -0.07174134 -0.0042144717 0.014370847
-0.13094884 -0.0637936 0.1625507 0.0068058935 -0.11528279 -0.0001765225 0.021593349 0.0021027098
0.046210803 0.07131447 1.5020229 -0.7782961 -0.81488305 -0.8773256 -0.99039185 -0.45391935
-0.79530734 -0.67991775 -0.88957405 -0.9395022 -0.48909652 0.25147772 -1.3997116 1.763662
1.5814238 -0.8582672 0.708513 0.028980836 -0.005779722 0.05101759 0.030371537 0.00047357124
-0.07410472 -0.06253498 -0.012940011 -0.055025063 -0.029723113 0.011690227 0.024411218 0.11560809
0.076889284 -0.07849471 0.028666334 -0.006236521 0.021156829 -0.00040998988 0.062169842 -0.01312558
0.12924631 -0.11922299 0.19461615 0.07574063 0.059901476 -0.11652429 -0.035293177 -0.0028667154
-0.0870323 -0.022201328 0.085818686 -0.03682474 -0.013034854 -0.006577054 -0.023538832 0.006440702
-0.011169236 0.14615963 -0.1031537 0.080407985 -0.03730509 -0.013504205 0.05169183 -0.022371009
0.1349357 -0.15630989 0.007316457 0.014793958 0.018023062 0.050571557 0.033911 -0.024469012
-0.0023004066 -0.051906183 -0.01071745 -0.0036378687 -0.016119923 0.023719335 -0.015487918 0.012143603
-0.058375534 -0.021409882 -0.063066885 -0.0111423 -0.026469246 -0.02013439 -0.017088091 0.012475239
-0.01577634 0.077925235 -0.09164353 0.03459135 0.027946772 -0.0014269284 -0.022446312 0.031678967
0.0032725378 0.039445482 0.024746243 -0.08037426 0.085324384 0.34353718 0.3457041 0.3921021
-2.402005 -0.0952051 0.07490995 -0.026832122 0.4711322 0.6296661 0.042578623 0.070614405
0.045291383 -0.045544267 -0.07123246 0.21541329 -0.09575126 -0.047645744 -0.09417591 -0.087103106
0.06378339 -0.07656374 0.09110849 0.11019898 -0.07056539 0.09754892 -0.09513895 -0.016787747
-0.07788525 -0.11674783 0.06404694 -0.02790124 -0.09465916 -0.07183827 -0.05858376 0.12296587
0.084818006 -0.11234195 -0.028135642 0.074225195 0.029281978 0.09682436 1.8187711e-05 0.032197505
0.11447544 0.12514041 -0.009037798 -0.009240581 -0.061601102 -0.008698453 0.007936763 0.024623536
-0.004315976 0.09538052 0.29222554 0.34500694 0.16303526 0.03682005 0.068890095 0.17353383
00000000: 8201 003f 2bee 563e 8444 473e edb3 3f3e
00000010: 4d3d b13d 6152 d83e 0e08 8c3e c64b 133f
00000020: 29e8 2b3e c898 173e cbda 36bf 8304 e73e
00000030: 214c 10be 4332 12be a3eb 19bf 2a35 a73e
00000040: 14c4 4d3f f235 b3bd 4537 15bd 8000 b7bd
00000050: 7d40 403d 810a 8dbd ea42 a03d 534c 833d
00000060: 1115 e8bc c679 ef3c 2133 2abd f060 333b
00000070: 493a 0bbd 13bf 08bd 6c56 113d 4775 613c
00000080: bcee 94bc 5858 e93b 1612 893c 618b ea3b
00000090: 47bb 2b3d 3c4b 643b 95b3 6dbd 8378 bb3c
000000a0: ca6e 71bd 1d98 e83b ad88 013d 1e7d ed3c
000000b0: 7fc8 65bc a522 d03b 1a87 b9bc bd1e 39bd
000000c0: d86f d43c b08f 5e3d 7776 9dbf bdfd 95bf
000000d0: cfea 7b40 e1f2 f5be ca7b efbc f198 d83c
000000e0: 235a 1f3a f179 19bf 8e43 cabe 879c 06bd
000000f0: 9b69 8a3d 9349 c13c 3478 903b 83c4 b33b
00000100: aead 3d3d 6408 4d3d 5d9a 1f3e 7697 233e
00000110: 8bdb 403e b9e8 0bbd 4b9e 1a3d 43fb e1bd
00000120: 08ab 21be 7a62 f13c c9ac bdbc df17 1f3c
00000130: 2bc9 bd3d 6002 4a3d 4154 f8bd c395 37bd
00000140: f8c3 b63d 7658 923c 86d9 973d db75 593d
00000150: a080 413c 20ed 92bd 8d19 8abb b373 6b3c
00000160: 7417 06be 38a6 82bd b173 263e f903 df3b
00000170: 6219 ecbd e618 39b9 89e4 b03c 9ecd 093b
00000180: 8a47 3d3d 520d 923d 4942 c03f 6a3e 47bf
00000190: 2d9c 50bf 6998 60bf 528a 7dbf 1e68 e8be
000001a0: 4399 4bbf 170f 2ebf 20bb 63bf 3783 70bf
000001b0: dc6a fabe b0c1 803e c029 b3bf adbf e13f
000001c0: 186c ca3f 66b7 5bbf 1c61 353f 3869 ed3c
000001d0: d263 bdbb d2f7 503d bbcd f83c a849 f839
000001e0: 37c4 97bd 5712 80bd 5702 54bc f661 61bd
000001f0: e37d f3bc 5e88 3f3c 09fa c73c efc3 ec3d
00000200: 2178 9d3d d6c1 a0bd a9d5 ea3c bb5b ccbb
00000210: 1651 ad3c e9f3 d6b9 cea5 7e3d ac0c 57bc
00000220: 2559 043e 2f2b f4bd 7549 473e e71d 9b3d
00000230: 405b 753d 49a4 eebd 948f 10bd 81df 3bbb
00000240: fe3d b2bd 8fdf b5bc b5c1 af3d 8ad5 16bd
00000250: 2490 55bc 5484 d7bb 82d4 c0bc 860c d33b
00000260: 2cff 36bc dfaa 153e 3f42 d3bd f1ac a43d
00000270: 39cd 18bd be40 5dbc d0ba 533d 6843 b7bc
00000280: 962c 0a3e b30f 20be e4be ef3b 5b62 723c
00000290: 1aa5 933c 1f24 4f3d 43e6 0a3d 3d73 c8bc
000002a0: 6bc2 16bb 949b 54bd 3e98 2fbc 4f69 6ebb
000002b0: ee0d 84bc 0d4f c23c 09c1 7dbc f6f5 463c
000002c0: 2f1b 6fbd c763 afbc 3629 81bd 328e 36bc
000002d0: 08d6 d8bc e0f0 a4bc 53fc 8bbc f264 4c3c
000002e0: 623d 81bc 4497 9f3d 9aaf bbbd a9af 0d3d
000002f0: a1f0 e43c c607 bbba 54e1 b7bc cec1 013d
00000300: 1378 563b 9691 213d a2b8 ca3c 439b a4bd
00000310: 8dbe ae3d 1be4 af3e 2100 b13e 9bc1 c83e
00000320: 73ba 19c0 e4fa c2bd 636a 993d 0acf dbbc
00000330: 3d38 f13e cc31 213f ec66 2e3d 499e 903d
00000340: 7583 393d a08c 3abd 53e2 91bd 4d95 5c3e
00000350: 3d19 c4bd 2f28 43bd 4ddf c0bd 1d63 b2bd
00000360: dea0 823d 73cd 9cbd 1797 ba3d 01b0 e13d
00000370: 9684 90bd bac7 c73d 36d8 c2bd 7586 89bc
00000380: 4d82 9fbd 7c19 efbd 0b2b 833d 2491 e4bc
00000390: a9dc c1bd f11f 93bd 86f5 6fbd 88d5 fb3d
000003a0: 10b5 ad3d 8913 e6bd b87c e6bc 6103 983d
000003b0: c2e0 ef3c da4b c63d d091 9837 88e1 033d
000003c0: 1972 ea3d cf24 003e 4613 14bc ce65 17bc
000003d0: 7051 7cbd f583 0ebc 3209 023c 4cb7 c93c
000003e0: 086d 8dbb dd56 c33d 969e 953e c0a4 b03e
000003f0: b7f2 263e 9fd0 163d 4016 8d3d dab2 313e

final.linears.0.bias f4 [98]
0.011991762 0.30735043 0.39618215 -0.06823051 0.010114999 -0.0005248093 0.16141228 0.11769759
0.19044544 -0.28087783 -0.17091088 -0.20686796 -0.0359386 0.29710263 -0.01569561 0.81158996
0.36347008 -0.06364169 0.17189077 0.29328874 -0.094227016 0.0066247056 -0.17400128 0.040412594
0.16113685 0.25201577 0.08239219 -0.27208862 0.10762249 0.0841102 0.10292643 -0.16023009
0.33613876 -0.421809 0.24510062 0.32247102 -0.31276703 0.16943336 0.17657293 -0.39151013
0.2815909 0.24650669 0.03532735 -0.18945284 0.5134998 0.38671 0.20848656 0.49189803
0.11621663 0.055083003 -0.41265544 0.89836144 -0.54549223 0.10109799 0.11953971 0.24860908
0.45817152 0.37959373 0.3449215 -0.21350111 -0.13766304 0.02904982 -0.12236118 -0.24405262
-0.10796571 -0.084182344 -0.3011611 0.13735078 -0.18874648 -0.28872114 0.10313149 0.065431304
0.27548802 0.19377868 0.019211039 0.24887809 -0.1346139 0.09323977 -0.038387198 0.2588695
0.21604785 0.0756064 0.13416916 -0.0481945 0.009354336 -0.08548049 0.031990543 -0.059598178
-1.0265101 -0.40185016 0.53297067 -0.39648482 -0.37238958 0.078368865 -0.17075323 0.104135536
-0.04274857 -0.640016
00000000: 1879 443c 095d 9d3e 63d8 ca3e 70bc 8bbd
00000010: 61b9 253c 5b93 09ba 4349 253e 6f0b f13d
00000020: 2104 433e 38cf 8fbe 4303 2fbe 32d5 53be
00000030: 5a34 13bd d61d 983e 1494 80bc 5cc4 4f3f
00000040: c018 ba3e 9356 82bd 2204 303e f129 963e
00000050: 18fa c0bd 0f14 d93b 642d 32be ad87 253d
00000060: 0f01 253e 3608 813e 3dbd a83d 334f 8bbe
00000070: 2e69 dc3d f841 ac3d 18cb d23d 5b13 24be
00000080: 611a ac3e 59f7 d7be a8fb 7a3e ec1a a53e
00000090: 0023 a0be f07f 2d3e 89cf 343e 0474 c8be
000000a0: af2c 903e 406c 7c3e 69b3 103d edff 41be
000000b0: b974 033f dafe c53e 807d 553e 0fda fb3e
000000c0: fc02 ee3d b79e 613d 9347 d3be 04fb 653f
000000d0: 61a5 0bbf 770c cf3d 3cd1 f43d 6193 7e3e
000000e0: 7595 ea3e 1c5a c23e 8d99 b03e 09a0 5abe
000000f0: 8af7 0cbe e3f9 ed3c 8098 fabd eee8 79be
00000100: 201d ddbd cb67 acbd ca31 9abe afa5 0c3e
00000110: c246 41be 42d3 93be 9a36 d33d d900 863d
00000120: c40c 8d3e eb6d 463e 7860 9d3c e6d9 7e3e
00000130: 3ad8 09be 7ef4 be3d e53b 1dbd 8b8a 843e
00000140: a63b 5d3e 87d7 9a3d a463 093e 9967 45bd
00000150: ee42 193c 6510 afbd 8408 033d 381d 74bd
00000160: af64 83bf 4ebf cdbe c470 083f 0f00 cbbe
00000170: d9a9 bebe db7f a03d efd9 2ebe 0345 d53d
00000180: 2019 2fbd 17d8 23bf

final.linears.1.weight f4 [98, 98]
-0.13574247 -0.28392643 -0.4595985 0.008580427 0.0062215975 0.0076813214 -0.04038166 -0.1803685
0.0061785495 -0.43297797 -0.37064707 -0.31001475 -0.41088605 -0.26090685 -0.407663 -0.5706569
-0.84588975 -0.002514602 -0.4544036 -0.2594167 -0.060158286 -0.37162945 0.04562462 -0.031789623
-0.3565241 -0.20976043 -0.26661772 0.008087944 -0.014708069 -0.43283817 -0.044085428 -0.022503939
-0.29222673 0.33273095 -0.24864076 -0.05900755 -0.13344036 -0.36147076 -0.462773 0.025810637
-0.0006411485 -0.17815202 0.07034177 -0.4372166 -0.3779083 -0.35155126 0.01824857 -0.20665911
-0.011201258 -0.03366332 -0.041400682 -0.3894264 0.14915307 -0.30774233 0.03452171 -0.45776758
-0.47014636 -0.32780603 -0.07768926 -0.15500858 0.0034067817 -0.006515162 -0.42308453 -0.0067762504
-0.057878833 -0.010173706 -0.11873405 -0.44073182 -0.019799171 0.35138136 -0.39888942 -0.018285709
-0.12608309 0.010462866 -0.3357634 -0.43830395 -0.0057539507 -1.2824847 -0.014096419 -0.27964887
-0.3127839 -0.2976638 -0.052280195 -0.19002774 -0.035823114 -0.093803495 -0.036099363 -0.3219141
0.052503638 0.5278904 -0.10840847 0.50758845 0.35584125 0.006714892 -0.03723391 -0.0041592787
-0.0041491836 0.30278087 -0.11235276 0.013571046 -0.20218399 -0.0399953 -0.3439363 -0.0013125357
-0.17113589 -0.09591596 -0.036056325 -0.18300274 -0.22856078 -0.10708876 -0.13093235 -0.006860656
-0.22864182 -0.1246319 0.09649616 0.015522063 -0.15993626 -0.088932715 -0.054020975 0.10632031
-0.28754547 -0.07573596 -0.5047881 0.22766499 -0.09497231 0.0023765564 0.041582473 -0.21676493
-0.087895945 -0.030462716 -0.07657979 -0.7860654 -0.09609918 -0.11168788 -0.12829621 -0.10868318
-0.16555433 0.020697135 0.08888714 -0.07695411 -0.16860463 -0.14191768 -0.10757933 -0.054413892
-0.03964882 -0.22673415 -0.09563717 -0.061752856 0.122164406 -0.068173714 -0.12464213 -0.083556645
-0.08277262 -0.1747811 -0.1533414 0.09393021 -0.26203433 -0.016946746 0.109478116 -0.045027196
-0.15993018 -0.060920067 -0.14239767 -0.10171288 -0.14393555 -0.19547123 -0.06363256 -0.70749605
-0.15482031 -0.18763547 -0.08773551 0.08874181 -0.13701932 -0.13224842 0.028218806 0.056225915
-0.07367007 -0.112162426 -0.088274956 -0.1370524 -0.059166353 -0.0010902209 -0.05146955 -0.15007532
-0.122918926 -0.08140875 -0.43024644 -0.71156406 -0.12418098 -0.06003326 -0.33166692 -0.07356223
-0.112858735 -0.11404558 -0.026259916 -0.29906985 -0.24891575 -0.5318014 -0.45037982 -0.018120065
0.11756771 -0.08289155 -0.11188657 -0.21798359 -0.028798781 -0.51438105 -0.37424862 -0.2975275
-0.57279557 -0.27665183 -0.42810687 -0.35015094 -0.4992874 -0.027700698 -0.5589124 -0.4273407
-0.06264828 -0.38820955 -0.044855703 -0.015670605 -0.010506779 -0.053979885 -0.32093447 0.041364294
-0.05202486 -0.39759013 0.10859184 -0.053929295 -0.26565298 0.16942273 -0.2919378 -0.15318096
0.15695497 -0.38981417 -0.54447377 0.029935684 -0.026246753 -0.120873295 0.0753917 -0.40292412
-0.32225344 -0.36937955 -0.01794384 -0.031334616 0.07857001 0.08712079 -0.02839388 -0.27958328
-0.17156553 -0.3189145 0.026121857 -0.48139665 -1.8175136 -0.30878147 -0.060785323 -0.22526027
00000000: 1300 0bbe ce5e 91be 7f50 ebbe eb94 0c3c
00000010: 8bde cb3b 98b3 fb3b 3d67 25bd 85b2 38be
00000020: 6e75 ca3b 4aaf ddbe 74c5 bdbe 41ba 9ebe
00000030: a85f d2be 9595 85be 34b9 d0be 9216 12bf
00000040: 3b8c 58bf 05cc 24bb 97a7 e8be 44d2 84be
00000050: 8968 76bd 3746 bebe e2e0 3a3d d635 02bd
00000060: 548a b6be 70cb 56be 1e82 88be 4c83 043c
00000070: 1dfa 70bc f79c ddbe ec92 34bd 2e5a b8bc
00000080: be9e 95be b65b aa3e af9b 7ebe e7b1 71bd
00000090: 97a4 08be b212 b9be 95f0 ecbe d470 d33c
000000a0: bf12 28ba 7c6d 36be 590f 903d dbda dfbe
000000b0: 327d c1be 87fe b3be 067e 953c 729e 53be
000000c0: 7b85 37bc 8de2 09bd c393 29bd e662 c7be
000000d0: 95bb 183e 6790 9dbe a366 0d3d 8360 eabe
000000e0: 06b7 f0be 31d6 a7be 8c1b 9fbd 92ba 1ebe
000000f0: 5044 5f3b 247d d5bb 899e d8be 4f0b debb
00000100: 5b12 6dbd 9eaf 26bc d62a f3bd 9aa7 e1be
00000110: df31 a2bc 42e8 b33e 3c3b ccbe e9cb 95bc
00000120: ed1b 01be 716c 2b3c 2ee9 abbe 6069 e0be
00000130: a38b bcbb 7528 a4bf abf4 66bc 232e 8fbe
00000140: 3625 a0be 6467 98be c223 56bd a296 42be
00000150: 42bb 12bd 0c1c c0bd eddc 13bd edd1 a4be
00000160: 0e0e 573d d323 073f 4305 debd 51f1 013f
00000170: d330 b63e 9908 dc3b 9682 18bd 8f4a 88bb
00000180: e0f5 87bb 1806 9b3e 3419 e6bd 1859 5e3c
00000190: 5209 4fbe 1dd2 23bd 6b18 b0be 6409 acba
000001a0: 3f3e 2fbe 966f c4bd ccaf 13bd 1265 3bbe
000001b0: d60b 6abe 5a51 dbbd 2113 06be 5bcf e0bb
000001c0: 1521 6abe 023f ffbd c79f c53d 4050 7e3c
000001d0: 55c6 23be 5b22 b6bd 1945 5dbd 76be d93d
000001e0: 2939 93be 741b 9bbd cb39 01bf 0321 693e
000001f0: d880 c2bd 00c0 1b3b 6252 2a3d a0f7 5dbe
00000200: ca02 b4bd f28c f9bc ddd5 9cbd 953b 49bf
00000210: a6cf c4bd 9dbc e4bd 1560 03be 4995 debd
00000220: 1387 29be 0a8d a93c 760a b63d 1e9a 9dbd
00000230: b1a6 2cbe de52 11be 8d52 dcbd 1ae1 5ebd
00000240: cd66 22bd ff2c 68be 6cdd c3bd 90f0 7cbd
00000250: 5531 fa3d a99e 8bbd 6044 ffbd bf1f abbd
00000260: b184 a9bd d1f9 32be 8705 1dbe 7b5e c03d
00000270: 5d29 86be e7d3 8abc 1036 e03d 706e 38bd
00000280: bdc4 23be 5287 79bd b2d0 11be d84e d0bd
00000290: d763 13be 9c29 48be ca51 82bd 761e 35bf
000002a0: 3789 1ebe 8323 40be adae b3bd 44be b53d
000002b0: cb4e 0cbe 216c 07be 202b e73c 254d 663d
000002c0: 55e0 96bd 6ab5 e5bd 80c9 b4bd 7757 0cbe
000002d0: 6b58 72bd bee5 8eba bcd1 52bd 58ad 19be
000002e0: ebbc fbbd a1b9 a6bd 4349 dcbe 1029 36bf
000002f0: 9952 febd 70e5 75bd 3fd0 a9be cba7 96bd
00000300: 7b22 e7bd bb90 e9bd 091f d7bc af1f 99be
00000310: c5e3 7ebe 2324 08bf 2f98 e6be 8870 94bc
00000320: 57c7 f03d 0cc3 a9bd c924 e5bd 1737 5fbe
00000330: 6ceb ebbc 7aae 03bf 849d bfbe 8655 98be
00000340: bba2 12bf 4fa5 8dbe d330 dbbe fc46 b3be
00000350: 99a2 ffbe 93ec e2bc e214 0fbf 66cc dabe
00000360: be4d 80bd 67c3 c6be 9dba 37bd a45f 80bc
00000370: a024 2cbc 031a 5dbd 8651 a4be 9b6d 293d
00000380: 0518 55bd ef90 cbbe 6665 de3d f7e4 5cbd
00000390: ab03 88be 277d 2d3e df78 95be 78db 1cbe
000003a0: ceb8 203e b995 c7be a262 0bbf ae3b f53c
000003b0: 6e03 d7bc 6b8c f7bd f766 9a3d 124c cebe
000003c0: 67fe a4be 511f bdbe f6fe 92bc ba58 00bd
000003d0: 50e9 a03d 626c b23d 489a e8bc 8a25 8fbe
000003e0: e0ae 2fbe c348 a3be 81fd d53c 9f79 f6be
000003f0: 49a4 e8bf 9b18 9ebe 08fa 78bd a1aa 66be

final.linears.1.bias f4 [98]
-0.52541596 -0.17101948 -0.26676556 0.03238486 -0.18291254 -0.30424255 -0.19311264 -0.119910724
-0.08049383 -0.22303098 0.073272124 -0.21468112 -0.297322 -0.08157001 -0.035869084 -0.12400289
-0.27955872 -0.13142072 0.37883475 0.16961624 -0.12084992 -0.24152018 -0.13869897 -0.23174678
-0.6740911 -0.20636608 -0.18805555 -0.12972161 -0.12444646 -0.030361978 0.0564536 -0.23651303
-0.29831877 -0.037996974 -0.21509415 0.29479006 -0.18912843 -0.13343945 -0.0985362 0.5142061
-0.054970033 -0.14130585 0.08826428 0.06693609 -0.16296412 0.22076607 -0.18131573 -0.07989699
-0.08646077 -0.20049764 0.68196845 -0.28258726 0.0086119175 -0.09779368 -0.17059197 -0.13055044
0.057024505 -0.19734077 -0.24715546 -0.09795547 -0.060911536 -0.15176597 -0.20881829 -0.27645713
-0.0742142 -0.11552966 -0.23348475 -0.12296587 -0.1967302 -0.17727256 -0.100058384 -0.16128254
-0.14869256 -0.091420256 -0.1609607 -0.20408541 -0.26853856 -0.46372938 -0.094921246 -0.023208845
0.11804 -0.19869149 -0.2764251 0.06428098 0.12113474 -0.09007301 -0.19933727 -0.038283788
0.14161412 -0.09154509 -0.21028553 -0.100404404 -0.12904696 -0.33821735 -0.21034768 -0.09127741
-0.22833297 -0.19684663
00000000: a981 06bf bb1f 2fbe 7f95 88be fda5 043d
00000010: 6d4d 3bbe aec5 9bbe 52bf 45be c193 f5bd
00000020: f3d9 a4bd 3c62 64be b20f 963d 5ed5 5bbe
00000030: 973a 98be 2d0e a7bd 76eb 12bd 3af5 fdbd
00000040: 5222 8fbe 2793 06be a1f6 c13e e1af 2d3e
00000050: 2a80 f7bd 1151 77be 1a07 0ebe 074f 6dbe
00000060: 3c91 2cbf a151 53be a291 40be bed5 04be
00000070: c9dd febd afb9 f8bc e43b 673d 7930 72be
00000080: 3dbd 98be b7a2 1bbd a441 5cbe b9ee 963e
00000090: e2aa 41be 5aa4 08be 59cd c9bd 03a3 033f
000000a0: 4228 61bd 7bb2 10be e7c3 b43d ca15 893d
000000b0: 11e0 26be 8010 623e d5aa 39be 08a1 a3bd
000000c0: 5812 b1bd 414f 4dbe 7c95 2e3f 47af 90be
000000d0: 0019 0d3c 0e48 c8bd a9af 2ebe 04af 05be
000000e0: 8792 693d b313 4abe 5216 7dbe e19c c8bd
000000f0: 607e 79bd 8a68 1bbe 76d4 55be ca8b 8dbe
00000100: 9dfd 97bd d09a ecbd a016 6fbe 88d5 fbbd
00000110: a473 49be f086 35be 69eb ccbd 4027 25be
00000120: dd42 18be 8b3a bbbd e2d2 24be c4fb 50be
00000130: e37d 89be f06d edbe 1266 c2bd 7a20 bebc
00000140: f5be f13d c875 4bbe 9787 8dbe bfa5 833d
00000150: 7e15 f83d 3378 b8bd 121f 4cbe 76cf 1cbd
00000160: 4b03 113e fe7b bbbd 1755 57be d3a0 cdbd
00000170: e324 04be d32a adbe 6265 57be a7ef babd
00000180: 1ed0 69be 2a92 49be

final.linears.2.weight f4 [17, 98]
-0.0055687316 -0.0016338711 0.09666298 -0.2713483 -0.35278252 0.014562839 -0.18380307 -0.004378919
-0.10254573 0.59158915 0.3039456 0.66530395 0.68622065 -0.015793443 -0.085326724 -0.02922133
-0.4152499 0.038839724 -0.0072677117 -0.010373424 -0.44777793 0.07631244 -0.045184683 0.30054143
-0.0059640375 0.24724405 -0.21144 0.007452613 -0.22974485 0.031835906 0.26904514 -0.030278428
0.72854984 -0.1960627 -0.08151425 0.004392264 0.14493288 0.27371988 0.2943756 -0.009933263
0.020556593 -0.13713782 0.14120243 0.1923787 0.14686134 -0.0018125566 -0.831158 0.0037135521
0.55151933 -0.36943087 0.0057636476 0.1501512 -0.011733836 -0.051942326 -0.042193875 -0.18713535
-0.14590995 0.28660524 0.2806159 0.08819013 0.09991608 0.015564324 0.06480937 0.5234371
-0.098804556 -0.0009476986 -0.35497513 -0.096364595 0.066841654 0.25138807 -0.045961317 -0.2591191
-0.056861915 0.4030816 -0.07483834 0.025051711 0.0044533126 -0.015258936 0.1839604 -0.22600858
0.008605043 0.033645745 -0.6693968 -0.0038646208 0.002020622 -0.09024724 -0.31999162 -0.25079688
-0.038350224 -0.4285706 -0.7013264 0.37034047 0.23776601 -0.009816045 -0.28546607 -0.30030522
0.009124243 -0.20967557 1.0358524 -0.47996897 0.4270573 0.0009951451 -0.5275967 -0.8967007
0.0561181 0.17162852 -0.041672986 -0.0016552545 -0.034887034 -0.28030977 -0.055390857 0.018834095
-0.30748817 0.10575493 0.26484725 -0.02715815 -0.07185216 0.025122518 -0.34136182 0.15701191
0.06294578 -0.06499634 0.56813276 0.06103415 0.13608342 0.16951306 0.006644398 0.09349408
-0.011080552 0.532986 0.12039551 -0.047669254 0.0562797 0.57315487 0.030599738 0.02643862
-0.22183846 -0.2027213 -0.45310032 0.12776488 -0.10435519 -0.15203266 0.028287087 0.07572904
-0.26168957 0.26350176 -0.018394955 0.05238688 -1.0247561 0.07153096 -0.1599246 0.08272171
0.030199233 -0.1379462 -0.041422755 -0.3297054 0.037068438 -0.02468686 -0.072928324 1.6442853
-0.5106513 0.29944375 0.07735219 0.22989154 -0.3007558 -0.0025597399 0.064433396 0.023988297
0.0067538014 0.026038786 -0.4358446 -0.58115524 0.07544792 0.04687688 0.11521464 0.74732184
0.078999005 -0.0978299 0.048318956 0.046026085 0.28158352 -0.089854 0.08637098 -0.05172416
-0.009483061 -0.018984865 -0.18495019 -0.23245797 0.12585331 -0.028543603 0.0044579264 0.60222614
-0.17794946 -0.14045183 -0.58094364 0.22424668 -1.4436854 -0.32723454 0.39198282 0.110955566
-0.4084791 0.61176306 0.01959978 0.18861344 -0.017108377 0.034059312 0.0057997536 -0.20326369
0.001547848 0.013041279 -0.25991789 0.10980928 0.30904937 -0.02122447 0.5971777 0.060028784
-0.28143823 0.14641467 0.1090963 -0.005696779 -0.18312752 0.023102414 0.12542246 0.11497612
-0.0013882567 0.08634859 0.019597223 0.18448997 0.15237802 -0.024047935 0.053010747 -0.2825054
0.015003007 0.07638592 -0.08347229 -0.14651543 -0.5199826 0.08474 -0.03691113 -0.13424383
0.013615214 0.08134137 -0.22389 -0.45290056 -0.038266823 0.15074551 0.38230354 0.1321113
-0.104811825 0.102352865 0.077327445 -0.09734614 -0.024435649 -0.2557571 0.022641676 0.040199302
00000000: e879 b6bb 9e27 d6ba 3ef7 c53d 2aee 8abe
00000010: e99f b4be f998 6e3c df36 3cbe 097d 8fbb
00000020: 7f03 d2bd 6372 173f c29e 9b3e 5c51 2a3f
00000030: 28ac 2f3f 4061 81bc c7bf aebd 9261 efbc
00000040: a39b d4be 6716 1f3d fc25 eebb 4bf5 29bc
00000050: 2643 e5be b249 9c3d 9313 39bd 91e0 993e
00000060: f96d c3bb 8b2d 7d3e ba83 58be 0d35 f43b
00000070: 3c42 6bbe 5e66 023d 49c0 893e 770a f8bc
00000080: 3e82 3a3f a9c4 48be f1f0 a6bd fbec 8f3b
00000090: 4969 143e 0325 8c3e 66b8 963e 20bf 22bc
000000a0: 4d66 a83c db6d 0cbe 5f97 103e ecfe 443e
000000b0: d262 163e 4f93 edba c5c6 54bf 115f 733b
000000c0: 5f30 0d3f 0b26 bdbe fbdc bc3b 3cc1 193e
000000d0: 463f 40bc 7ac1 54bd 7cd3 2cbd 69a0 3fbe
000000e0: 6b69 15be ecbd 923e e3ac 8f3e 079d b43d
000000f0: cda0 cc3d 8201 7f3c c6ba 843d f9ff 053f
00000100: 0b5a cabd fa6e 78ba 4dbf b5be cd5a c5bd
00000110: 47e4 883d f0b5 803e ef41 3cbd 42ab 84be
00000120: 0ae8 68bd b660 ce3e d844 99bd 3f39 cd3c
00000130: 18ed 913b 9e00 7abc 1d60 3c3e cb6e 67be
00000140: 2bfc 0c3c 1fd0 093d 975d 2bbf 9445 7dbb
00000150: 696c 043b 8cd3 b8bd f1d5 a3be 7368 80be
00000160: 2015 1dbd 9b6d dbbe 208a 33bf 449d bd3e
00000170: ef78 733e 7ad3 20bc 9c28 92be 9bc1 99be
00000180: d97d 153c 31b5 56be d096 843f 7ebe f5be
00000190: 41a7 da3e 876f 823a 9410 07bf 2d8e 65bf
000001a0: 18dc 653d 63bf 2f3e 4bb1 2abd 20f5 d8ba
000001b0: b5e5 0ebd c384 8fbe 86e1 62bd f649 9a3c
000001c0: 176f 9dbe 0a96 d83d 0f9a 873e c57a debc
000001d0: 3a27 93bd bdcd cd3c fac6 aebe bbc7 203e
000001e0: b8e9 803d cd1c 85bd 2671 113f f2fe 793d
000001f0: 7459 0b3e d594 2d3e 40b9 d93b d379 bf3d
00000200: 348b 35bc c571 083f ec91 f63d d640 43bd
00000210: 8b85 663d 47ba 123f 4dac fa3c ce95 d83c
00000220: 9f29 63be 2c96 4fbe c4fc e7be ccd4 023e
00000230: 2db8 d5bd 73ae 1bbe 52ba e73c d417 9b3d
00000240: 2dfc 85be b4e9 863e 04b1 96bc a093 563d
00000250: 352b 83bf d37e 923d 46c3 23be 006a a93d
00000260: 6264 f73c c541 0dbe e8aa 29bd 25cf a8be
00000270: 13d5 173d 193c cabc 725b 95bd f177 d23f
00000280: 0bba 02bf b150 993e d36a 9e3d b068 6b3e
00000290: aafc 99be 4fc1 27bb a8f5 833d 1b83 c43c
000002a0: fe4e dd3b 4b4f d53c 0627 dfbe 97c6 14bf
000002b0: 7084 9a3d f901 403d a7f5 eb3d 7c50 3f3f
000002c0: 3bca a13d 0b5b c8bd 19ea 453d d985 3c3d
000002d0: b72b 903e 6005 b8bd 45e3 b03d b6dc 53bd
000002e0: d75e 1bbc 2686 9bbc 9563 3dbe 7609 6ebe
000002f0: b1df 003e 46d4 e9bc cc13 923b 7e2b 1a3f
00000300: 6238 36be 9bd2 0fbe b9b8 14bf eca0 653e
00000310: afca b8bf 498b a7be f9b1 c83e ac3c e33d
00000320: 2c24 d1be 819c 1c3f b88f a03c e223 413e
00000330: de26 8cbc c781 0b3d dc0b be3b 5b24 50be
00000340: 29e1 ca3a 17ab 553c f513 85be b0e3 e03d
00000350: b83b 9e3e f1de adbc a3e0 183f bee0 753d
00000360: ac18 90be baed 153e e26d df3d 0cac babb
00000370: c885 3bbe 4641 bd3c bf6e 003e 9a78 eb3d
00000380: 2af6 b5ba 88d7 b03d 5b8a a03c f0ea 3c3e
00000390: fc08 1c3e 2d00 c5bc cc21 593d 8ca4 90be
000003a0: 2ccf 753c 3970 9c3d 85f3 aabd 2408 16be
000003b0: 941d 05bf 2a8c ad3d 2030 17bd 3777 09be
000003c0: 5912 5f3c 4e96 a63d 6c43 65be 95e2 e7be
000003d0: acbd 1cbd 085d 1a3e 4abd c33e 2f48 073e
000003e0: 95a7 d6bd 619e d13d da5d 9e3d 6a5d c7bd
000003f0: 452d c8bc 98f2 82be 097b b93c 06a8 243d

final.linears.2.bias f4 [17]
-0.01437979 0.46081674 -0.20603035 -0.26531306 -0.07162738 0.07093904 0.03689441 0.04273297
0.14401127 -0.12374217 -0.0026267674 -0.0844796 -0.035370503 0.017550226 -0.05309325 -0.009878428
0.01619666
00000000: 3699 6bbc 2cf0 eb3e 9ff9 52be 1dd7 87be
00000010: 60b1 92bd 7d48 913d 981e 173d c408 2f3d
00000020: b177 133e 896c fdbd d825 2cbb a403 adbd
00000030: a9e0 10bd 7ec5 8f3c 4f78 59bd 21d9 21bc
00000040: dcae 843c

layers.0.attn.0.gnn_q.weight f4 [17, 16]
9.108752e-34 -1.0765368e-33 -7.455526e-34 -7.070662e-34 -1.0670539e-33 -1.0738603e-33 -1.0687928e-33 1.0048482e-33
-9.866484e-34 1.0398962e-33 9.500177e-34 1.0640293e-33 1.0593068e-33 -1.0706292e-33 9.583517e-34 1.0733991e-33
1.0149338e-33 -1.055916e-33 -1.0612307e-33 -8.012707e-34 -6.1147113e-34 6.6647127e-34 -1.0295282e-33 -6.401485e-34
-5.1637616e-34 8.983332e-35 -9.7853265e-34 1.0460466e-33 -1.02939115e-33 1.0620056e-33 -7.930919e-34 5.3060947e-34
-1.0650813e-33 -5.6070906e-34 -1.0576965e-33 1.0709954e-33 -1.0166141e-33 1.0521812e-33 -1.0101926e-33 6.41768e-36
-1.0524907e-33 -1.05100785e-33 9.676013e-34 -9.801667e-34 -1.0727648e-33 -8.995638e-34 -9.73156e-34 -8.147208e-34
-8.674784e-34 1.0715627e-33 9.071596e-34 -1.0628114e-33 1.0692827e-33 1.0587095e-33 1.1047185e-33 -8.982594e-34
-1.077822e-33 -1.0104899e-33 1.0512145e-33 1.0361412e-33 -1.07024e-33 1.045413e-33 -1.0714598e-33 1.0607702e-33
-1.0490716e-33 -1.0779096e-33 1.0671019e-33 8.999486e-34 -1.0569843e-33 1.0605932e-33 1.0318912e-33 -9.978759e-34
-1.0758785e-33 1.0469137e-33 -1.0474401e-33 4.974187e-34 8.8835e-34 1.0746391e-33 -1.0579344e-33 -1.0506821e-33
1.05958565e-33 -1.0593196e-33 -1.065286e-33 -1.0640993e-33 5.064559e-34 -1.0587547e-33 -1.0628081e-33 1.0591044e-33
-1.0868181e-33 -1.0132961e-33 -1.0127158e-33 1.06980905e-33 8.66939e-34 1.0531198e-33 1.0649315e-33 -1.0605185e-33
-1.0637592e-33 5.5586313e-34 -6.355437e-34 1.0614679e-33 9.844938e-34 -1.064457e-33 -1.0535296e-33 -9.853505e-34
1.0086314e-33 9.616017e-34 1.0626348e-33 7.94871e-34 -1.0718571e-33 -9.746088e-34 -1.0236432e-33 1.0685816e-33
1.0265008e-33 -6.5114783e-34 1.0566353e-33 1.0619987e-33 -1.0816909e-33 -1.0657937e-33 -1.0299345e-33 -1.0144431e-33
-1.0738581e-33 -1.0315425e-33 1.1097688e-33 -1.0602428e-33 -9.580473e-34 1.0640874e-33 -1.0778055e-33 -9.035692e-34
-8.986159e-34 1.0522388e-33 7.983618e-34 -7.094564e-34 8.417752e-34 1.0642417e-33 1.0039813e-33 1.0256894e-33
1.0480099e-33 -1.0219425e-33 -1.0473197e-33 -1.056861e-33 1.0563013e-33 9.779806e-34 1.0561225e-33 1.0457901e-33
-8.655801e-34 -8.960193e-34 -9.8032115e-34 1.0661281e-33 -1.04939485e-33 -1.063465e-33 -1.0761507e-33 8.565696e-34
-1.0778646e-33 -1.0001462e-33 1.1576633e-34 -1.0625746e-33 9.703943e-34 -7.3465564e-34 1.06924105e-33 9.357396e-34
1.0712618e-33 1.0786677e-33 3.3807525e-34 -9.757798e-34 1.0194243e-33 1.0532789e-33 -9.603854e-34 -5.8650455e-34
-8.367953e-34 -1.1451212e-33 1.0652934e-33 -1.1753568e-33 -1.0789408e-33 -1.5684605e-34 1.061607e-33 9.548336e-34
-1.0406008e-33 -1.0680096e-33 -1.0555749e-33 -1.0191652e-33 9.933477e-34 -1.0727268e-33 -9.880419e-34 -1.0629957e-33
1.0630008e-33 1.0055814e-33 6.5270775e-34 7.887496e-34 1.0552196e-33 1.05868805e-33 -3.5607565e-34 -9.115144e-34
-1.0685768e-33 -3.6315977e-34 -1.0718833e-33 1.0408736e-33 1.0569533e-33 -1.0506458e-33 -1.0351032e-33 1.0044351e-33
-1.0517398e-33 7.1994713e-34 -1.0702007e-33 9.911098e-34 1.0753476e-33 -9.857616e-34 -1.06800145e-33 -7.795657e-34
9.208229e-34 -1.0667084e-33 -1.035017e-33 1.0655604e-33 9.792771e-34 -1.06239095e-33 9.91111e-34 -1.0754758e-33
1.00452825e-33 -1.0445348e-33 -1.0545707e-33 -1.0213507e-33 1.0499801e-33 9.983773e-34 1.0559464e-33 1.0638971e-33
1.0344928e-33 -1.0895213e-33 1.0518043e-33 1.0581368e-33 -1.065743e-33 1.0552829e-33 8.500896e-34 -1.0539288e-33
1.0459151e-33 9.651078e-34 -1.04851975e-33 -1.0842207e-33 1.05230475e-33 -1.0523638e-33 -1.0573568e-33 1.0529599e-33
-1.0665182e-33 1.0458384e-33 -1.0834649e-33 8.149167e-34 7.8718375e-34 -1.0548867e-33 -1.0255765e-33 -3.6514725e-34
-1.0836098e-33 1.0552323e-33 9.549374e-34 1.0532988e-33 8.740931e-34 -9.892081e-34 1.0627583e-33 -8.38489e-34
00000000: 5958 9708 d0de b288 9ac0 7788 8af6 6a88
00000010: 744b b188 f76c b288 6b95 b188 84f5 a608
00000020: 62ef a388 4bc8 ac08 49d9 9d08 cdca b008
00000030: ee01 b008 88e3 b188 c63b 9f08 5959 b208
00000040: 82a2 a808 b371 af88 c353 b088 4922 8588
00000050: 3632 4b88 1b79 5d08 490f ab88 d0b9 5488
00000060: 6d98 2b88 64d1 ee06 2d96 a288 e7cd ad08
00000070: 7509 ab88 b974 b008 66c6 8388 4353 3008
00000080: 8cf7 b088 da53 3a88 6fbd af88 1bf3 b108
00000090: fbe9 a888 d7d2 ae08 d7d8 a788 2c7d 0805
000000a0: 01e0 ae88 eea0 ae88 35c5 a008 aedb a288
000000b0: 5e3e b288 3677 9588 7ab1 a188 645e 8788
000000c0: 7322 9088 3d0b b208 4dba 9608 ff96 b088
000000d0: 42aa b108 86e8 af08 878d b708 bb3f 9588
000000e0: 7a15 b388 7de5 a788 b8a9 ae08 9328 ac08
000000f0: fad2 b188 f4b2 ad08 dc06 b288 2d40 b008
00000100: 924e ae88 3419 b388 7f4d b108 9487 9508
00000110: 249f af88 a538 b008 cc73 ab08 f2cc a588
00000120: cfc2 b288 c9f2 ad08 2d09 ae88 b44b 2508
00000130: 3b9a 9308 188e b208 8dc7 af88 1393 ae88
00000140: ca0d b008 7902 b088 4100 b188 c7cd b088
00000150: 814c 2808 72ea af88 db96 b088 52f9 af08
00000160: 2194 b488 d95c a888 2b44 a888 a5c0 b108
00000170: 820b 9008 c3fa ae08 2df1 b008 7835 b088
00000180: 50bf b088 9bb7 3808 1432 5388 da5d b008
00000190: bc93 a308 fedc b088 310c af88 2db8 a388
000001a0: 6f96 a708 03c6 9f08 7c8f b008 1312 8408
000001b0: c217 b288 46ef a188 f714 aa88 6f8c b108
000001c0: 848e aa08 8861 5888 4c90 af08 6e74 b008
000001d0: 0bba b388 da15 b188 9220 ab88 a38d a888
000001e0: df6c b288 f764 ab88 5864 b808 be29 b088
000001f0: d32e 9f88 46cd b008 c714 b388 9521 9688
00000200: e54e 9588 4ad5 ae08 8ea6 8408 e0c1 6b88
00000210: 28dd 8b08 d6d3 b008 a4d0 a608 016c aa08
00000220: 6921 ae08 a0cc a988 0e04 ae88 e599 af88
00000230: 1782 af08 b27e a208 7c7a af08 fec2 ad08
00000240: b5d1 8f88 72e0 9488 40e2 a288 1324 b108
00000250: 525c ae88 ccb2 b088 63ce b288 7152 8e08
00000260: 4a17 b388 842d a688 3ee1 1907 ed8c b088
00000270: 023c a108 9721 7488 7ca8 b108 f679 9b08
00000280: 70fe b108 7339 b308 86b0 e007 1521 a288
00000290: 8461 a908 8801 af08 4792 9f88 4ae6 4288
000002a0: 5609 8b88 1244 be88 9200 b108 264a c388
000002b0: 1145 b388 f27b 5087 c563 b008 21a6 9e08
000002c0: 43e6 ac88 1b74 b188 3163 af88 7e56 a988
000002d0: 570c a508 c03c b288 a82a a488 d69e b088
000002e0: 0e9f b008 b414 a708 3ce6 5808 b30d 8308
000002f0: 1454 af08 9ce7 af08 22a7 ec87 8973 9788
00000300: 3b8c b188 6f5c f187 e018 b288 def1 ac08
00000310: d29d af08 8891 ae88 6cfc ab88 f2e3 a608
00000320: 10c0 ae88 543e 6f08 4ed1 b188 26ad a408
00000330: 3aac b208 a9c9 a388 c273 b188 0f87 8188
00000340: 79ff 9808 c23c b188 c1f8 ab88 ed0b b108
00000350: d7b5 a208 1d85 b088 33ad a408 aeb1 b288
00000360: e8e7 a608 998d ad88 7a38 af88 74b3 a988
00000370: 3775 ae08 46e2 a508 fe72 af08 2ec5 b008
00000380: 75e2 ab08 1c07 b588 cfc2 ae08 29d0 af08
00000390: b213 b188 c556 af08 d03e 8d08 2c1d af88
000003a0: 4fc8 ad08 255b a008 1937 ae88 a625 b488
000003b0: 18d8 ae08 9bda ae88 fcae af88 f6f3 ae08
000003c0: ab34 b188 0cc5 ad08 8005 b488 b966 8708
000003d0: 18cb 8208 eb45 af88 3367 aa88 96ae f287
000003e0: aa0b b488 9e54 af08 8baa 9e08 6002 af08
000003f0: cf3b 9108 425c a488 bd94 b008 6151 8b88

layers.0.attn.0.gnn_q.bias f4 [16]
-9.382822e-34 1.0457546e-33 -3.9941007e-34 1.060544e-33 9.9022625e-34 9.259347e-34 9.89702e-34 -1.0104181e-33
-1.013637e-33 1.05917175e-33 1.01354025e-33 -1.0168473e-33 2.3667056e-35 -3.549743e-34 -1.0587716e-33 -1.0606831e-33
00000000: 1ce6 9b88 7bc1 ad08 0dba 0488 8e36 b008
00000010: 9187 a408 e8d8 9908 4471 a408 6fe2 a788
00000020: 5a6b a888 2ffc af08 3c67 a808 e7f3 a888
00000030: dbab fb05 bfeb eb87 2aeb af88 783c b088
