checkpoints/cyp2c19_veith_40_train1_neg/Aug30-04:37:17_700.pth (torch, 471359 bytes, 294 tensors)

layers.0.weight f4 [24, 16]
00000000: 4635 3a3f 1f98 af3f 3845 bd3e a979 fc3f
00000010: 1887 3e3e 96fb c1bd a61e 5fbe d70e 983f
00000020: b2f1 823e 453c 40bf 4355 b23f 4c7b 383e
00000030: c5be b03f 7634 b73f fa59 b9be 6a3c 7ebe
00000040: 4297 ed3f 6d05 0fbf fc81 91bd 7813 f93e
00000050: c244 9cbc 6c7c 433e 8e9f 9bbf 7701 efbe
00000060: eb24 3dbc e9cf edbf 80b1 af3e 1ad2 8fbd
00000070: d1d1 22bd e6b0 11bd fa5c 343e 50de aabf
00000080: ec4a 603e 28ab 5bbf 0efe ce3d 41c3 8f3f
00000090: 32cb 3c3e 83f6 803e b39b 973c 031b 37bf
000000a0: 1bb8 573e a16c 51be 2d3e 473f 11dc e9bd
000000b0: 67d8 6e3f fb5b 703f 8fae 913d 3fba d03c
000000c0: 0f27 013d f2e9 c5bd f7c9 893d c53f c0bd
000000d0: d645 f4bc 9a0f 893e a31b cc3c 280e e4bc
000000e0: cc46 08be 71cd 8ebd fad8 57bd de43 e5bc
000000f0: c3e7 aebb 3dd0 113d 9362 75be 9ba1 2abb
00000100: e565 393d 1083 bcbd 47eb 5a3d 3852 dfbd
00000110: 2843 94bd 8258 323e b2b2 5d3c 751d 36bd
00000120: 40c2 81bd 2ea6 85bd d57d 7fbd 72a3 dabc
00000130: e992 d33a 6568 f63c 794e 15be 5200 a1bb
00000140: dfde 8a3c b265 77bd ed32 cd3d 6beb c2bd
00000150: 27b0 b6bd dc07 bd3d 0875 1d3c 0c38 b0bc
00000160: 5248 bd3b 8af4 2bbd 8846 5dbd 01b1 87bc
00000170: 91b3 f0bb b010 0e3d 4ddd 2f3d 79b1 26bb
00000180: 60db a53d bd7e e5bc 9467 5b3a ada7 f3bd
00000190: 1631 273b 9ed5 8dbc 2fac f43b dd6b debc
000001a0: 9063 ce3c e375 9abd 650d 85bd ea2c 9138
000001b0: efda 313d 76a1 713d bb96 a83c c101 e33c
000001c0: 6e54 d8be 556b 23bf 8760 49be 7465 8abf
000001d0: beba 0ebd 555c fc3d 3be1 a2bf 9b91 14bf
000001e0: 173a f5bd 0221 e33e 30be 45bf 82e4 d5bd
000001f0: bf10 033e c48c 013e b639 443e dd3c b0bf
00000200: 5176 993f de8b 55bd 8a90 933d 3be4 a33f
00000210: bc61 60bd 4cf3 7ebc 88ff f9bd ae22 93bc
00000220: bb0a 0b3c ca6b 98bf dcd6 633f a2a8 8f3c
00000230: d216 33bf 7186 35bf 5a71 1ebc 6315 0cbe
00000240: da47 b1be 99ab e2be 12e4 f33d 7c8b b73f
00000250: 294a 133e 4067 043e 618f 22be 8e32 b7be
00000260: 148e 3e3e ebfa ac3e 050e 7d3f 5478 54bd
00000270: 97fc 193f adcf 2a3f 7b98 15bd 00be 3bbe
00000280: 98a2 e03d 7b08 5cbd 22af f8bc 8862 04be
00000290: 552d f53b 68f4 e73c e341 a93c fdda bdbc
000002a0: f7f0 a6bc d919 f5bd 6fda e4bd fa2c 36bb
000002b0: 4369 3a3d 386f 7a3d b2fd 43bb f304 673c
000002c0: 0e09 453d 6621 bebd 1634 37bd 8d13 60be
000002d0: 5451 b5bc 21eb 6bbc a7df e63d 3fc2 d9bd
000002e0: d7b5 afba 21b6 8bbd f29e 1abe 658d d3bc
000002f0: 4cbc 7cbc 0f8d 28bd 36a1 b73d d0d0 ea3d
00000300: 3919 56bd 0929 dd3f ab14 a13c 00c1 6abe
00000310: 2eb6 88be 81a7 c5be 2c0f 52bf 7b9f bc3f
00000320: ca17 7fbe 29ec 243d 1f6e 1bbe 326d 6e3e
00000330: 7e0b 9fbf fdf3 a1bf 7848 84be 4b9a 63bf
00000340: 0e62 343f f1ed 6f3f b58f 9c3d f452 ec3d
00000350: 525f a9bd bfe1 41be dd5e 8f3e 6082 4f3f
00000360: 9bfd 89bd 560b 35bf d501 bc3d d635 083e
00000370: 4491 a1be f3b6 a6be fbd0 08be 40af a23e
00000380: b490 31bf 83a6 ee3f 6162 1b3e 2659 e43e
00000390: eca2 cbbd 9a90 b4be e1aa 8abf 9d36 d03f
000003a0: 9790 90bd 70a8 303f 28e9 a33e c451 803e
000003b0: 9d60 aabd a5a6 aebd 2d13 b3be c36e 94bf
000003c0: 97e9 113f 769f 663e 2bdf 67bd b8ae 51bf
000003d0: 6e15 7b3d 1d73 f73c b1e1 90bf 3462 313e
000003e0: c63f 9639 28f7 11bf 5570 11bf c1e9 223b
000003f0: f1c8 553f fb8b 5f3f 6905 a53c 5e61 9ebf
0.7273754 1.3718299 0.36966872 1.9724628 0.18606222 -0.09471814 -0.21789035 1.1879529
0.25575024 -0.75091964 1.393227 0.18015784 1.3808218 1.4312885 -0.3620146 -0.24827734
1.8561785 -0.55867654 -0.07104871 0.48647666 -0.019075755 0.19090432 -1.2158067 -0.46680805
-0.011544446 -1.8579074 0.3431511 -0.070224956 -0.039750878 -0.035569094 0.17613593 -1.3349094
0.2190358 -0.8580804 0.10107051 1.1231462 0.18436888 0.25188074 0.01850686 -0.7152559
0.21066324 -0.20451595 0.7782925 -0.114189275 0.93298954 0.9389035 0.071133725 0.025479434
0.03153139 -0.09663762 0.06727975 -0.09387163 -0.029818457 0.26769716 0.024915522 -0.027838781
-0.13308257 -0.069727786 -0.05269716 -0.027986463 -0.0053376867 0.035598982 -0.23963384 -0.0026036266
0.04526319 -0.09204686 0.053447034 -0.10904354 -0.072393715 0.17416576 0.013531374 -0.044461686
-0.06335878 -0.06525837 -0.062375862 -0.026689265 0.0016141805 0.030079076 -0.14580716 -0.0049133683
0.016951976 -0.06039972 0.10019479 -0.09517559 -0.08920317 0.09230015 0.009610422 -0.0215111
0.0057764435 -0.041981257 -0.054022342 -0.016563894 -0.0073456247 0.034683883 0.04293566 -0.0025435372
0.08098483 -0.028014535 0.00083696214 -0.11897216 0.0025511435 -0.017313775 0.007466815 -0.027151043
0.02519396 -0.07542016 -0.064966954 6.922505e-05 0.043421682 0.05899187 0.020579686 0.027710797
-0.42251915 -0.6383565 -0.19665729 -1.0812211 -0.03484606 0.123222984 -1.2724985 -0.58034676
-0.119739704 0.4436112 -0.7724333 -0.10443975 0.12799357 0.12651354 0.1916264 -1.3768574
1.1989232 -0.05213534 0.07205303 1.2804025 -0.054780707 -0.015560936 -0.12206942 -0.017960873
0.008486445 -1.1907895 0.88999724 0.017536465 -0.69956696 -0.70908266 -0.00967058 -0.13680033
-0.3462513 -0.44271544 0.11908735 1.4339442 0.14383759 0.12930012 -0.15875007 -0.35780758
0.18608886 0.33785185 0.9884952 -0.051872566 0.60151047 0.6672314 -0.03652237 -0.18334198
0.10968512 -0.053719025 -0.030356947 -0.12928212 0.0074822106 0.028314784 0.0206613 -0.02317571
-0.020378573 -0.11967821 -0.111744754 -0.0027797804 0.04551054 0.061141223 -0.0029905853 0.014100301
0.04810434 -0.09283714 -0.044727407 -0.21882458 -0.022133507 -0.014399321 0.11273127 -0.106327526
-0.0013405633 -0.06821848 -0.15099695 -0.025824258 -0.015425753 -0.04115015 0.089662954 0.11465609
-0.052270148 1.7278148 0.019663176 -0.22925186 -0.26701492 -0.38604358 -0.820544 1.473617
-0.24911419 0.040264282 -0.15178727 0.23283842 -1.2425382 -1.2652584 -0.2583654 -0.8890731
0.7046212 0.93722445 0.076445974 0.115392596 -0.08270134 -0.18933772 0.28002062 0.8105831
-0.067378245 -0.7072042 0.09180037 0.13301787 -0.3155614 -0.32561454 -0.1336097 0.3177433
-0.69361424 1.8644565 0.15174247 0.44599265 -0.09943184 -0.35266572 -1.0833398 1.6266667
-0.07058828 0.69007015 0.32013822 0.25062382 -0.08319209 -0.08527879 -0.34975567 -1.1596302
0.56997055 0.22521767 -0.056609314 -0.81907225 0.061299734 0.030206257 -1.1318876 0.17322618
0.00028657744 -0.57017756 -0.5681203 0.0024858566 0.8350974 0.8732297 0.020144181 -1.2373464

layers.0.bias f4 [16]
00000000: 9617 a1be cd09 8dbe 29c9 593f e3a7 cabe
00000010: 9dcc 483e 96f9 86be b80a 493e 14db 653e
00000020: 3109 21bf 3c0b 59be 739d e43d 54a5 edbd
00000030: 9261 75be 1733 8e3e 897c 5f3e 363f a8be
-0.31463307 -0.2754654 0.8507257 -0.39581212 0.19609304 -0.26362294 0.19632995 0.22446853
-0.6290465 -0.21195692 0.111628436 -0.116037995 -0.23963001 0.27773353 0.2182485 -0.32860726

layers.1.weight f4 [16, 16]
00000000: 7271 4cbe 90aa 823c cd3f a93e b0a9 9e3e
00000010: 7316 cf3f 6568 353e a0c7 cfbe 57dc 163d
00000020: fc71 603f 6352 793e 3f39 45bd e6ff ccbd
00000030: b52d 13be a9bb 033d cab5 08bd 75bf b53e
00000040: 5248 3fbe 51e1 9cbe f3c9 993e abf7 a13e
00000050: a73b 1abe de40 7dbe a064 b2bf 915b fbbc
00000060: 77e7 e6be 490a 203f ee04 4c3d e0c5 2fbf
00000070: c92d a7bb 2291 35be 9881 91be 6b2b 9c3e
00000080: 15c2 82be 59c5 f8be 2e3d 1fbe 045d a23e
00000090: ea7a 273f bbc6 04bd 29bf 5cbf bd76 943e
000000a0: 38fd bdbd 2144 533f beb8 ecbe f701 acbd
000000b0: f78f f9be 94a4 003f 0105 3f3f eeb3 9b3e
000000c0: dae4 79be 5068 863d ab6c 943e 7072 bb3e
000000d0: 3f2e 173e c4ef bfbd 9214 8fbe 4da8 5a3d
000000e0: 695f a0be 8395 3a3f 4844 d9bd 2314 3f3e
000000f0: 9ef3 7cbd bc4b 83bd ea3b a4bd 811e df3e
00000100: 2571 803d 979f 3fbf 9b32 65be 7567 debe
00000110: 08cb a0be b2d5 a3be 8111 843e bcf8 0a3f
00000120: b400 fabe 38c8 e63e 8fc5 e6be b4b7 cd3e
00000130: adb5 39be 8d2f 15bf 1ea3 183f 5fe9 a93e
00000140: 15bb 7f3e fbd3 47be 24aa 2e3e 5bcf fcbe
00000150: 6558 b43e f723 943c 8a3c 663f c1ae cd3e
00000160: c290 d63e 7d4c d9bc 3790 cc3e 4cf2 5b3f
00000170: 57eb 20be 0112 29bf 6170 773e f5ed 113e
00000180: cbe4 383e e55b 9c3d 092c abbe 58c2 283c
00000190: 4555 453d 4ff0 79bf f067 fa3e 33ba c5be
000001a0: 99fd 0b3f 961f c83e e9dd 36bd e639 8c3d
000001b0: 897b 1a3e 8b28 b3bd 4bc3 b6bd 39f3 e9be
000001c0: e3a9 8f3e f754 bfbe 261e 9cbe 5dc5 afbe
000001d0: fbd5 8abe 10e8 4fbf d793 c3be d034 503d
000001e0: 8e6a 163d 3274 f83e 6d37 283e 2f92 95bf
000001f0: 70e1 f43d 5d8b cbbe 8126 74be d32b 74be
00000200: 8146 923e 4f45 7fbf dd7f 613e 4142 8dbf
00000210: ad60 4cbd 5fd0 72bf fa46 343f 274b dd3e
00000220: 7fd8 193f 3eb0 743e 6399 02bf 4b6d e73d
00000230: 5c5a 983e 5ce4 91be 81d4 863f 9882 27be
00000240: c6f5 edbd e303 c1bc 9a16 b23e ddd8 bbbd
00000250: f2a0 23bf 65aa b03e f37c 7f3d e219 c63e
00000260: 02f3 b8bf 900b 763d ae41 1d3d 2e7c c23e
00000270: d30a febd bdfe 053d c62a 35bd c5a3 dc3e
00000280: 9664 8d3e 3df8 113e 1118 9ebe 2609 37be
00000290: 94a0 9abe b47f 90bf 8fd9 323e 2b95 85be
000002a0: 5d47 683e 8041 f83e d17c 82bd 1cf5 bfbe
000002b0: b14a 1f3e 0e72 63be 034d 95be 42dd eebe
000002c0: 474b a13c f369 983f 50f0 353e 081b 5dbb
000002d0: 0752 1abf e98e 8abe 1c88 33bf 948c 63be
000002e0: b4a0 b5be be1a 4abd 1506 82bf 8f40 70bf
000002f0: 133a a0bd 082f c43f b03a 823f 77e7 a7be
00000300: 93ca 023e 315f a13e b990 bd3e c4a9 33bf
00000310: 6ce2 983e b2d0 5abf ce08 08be 4aa2 a13f
00000320: 20e7 3f3d 365b 9c3f ee60 62bd 233f dd3d
00000330: 5a72 0c3d cf0d 2f3e 9d12 9cbe 2bff 0f3f
00000340: 6902 bc3e 26db 693e 73ec b1be 1641 a9bf
00000350: ad72 a8bd 736a 90bf 2b95 d33e f8ef 113f
00000360: b5ca 1e3e 7848 613f 49d3 a33d 5cc3 3a3e
00000370: f6ee 8b3d 342e 14bc 806a 98bd 95f7 45bd
00000380: 7ed3 f7bc 38b1 243e 1183 a4bd be62 abbd
00000390: 01e0 4a3e c6a9 bb3e 11fc 4d3f e77e 103e
000003a0: bcdf 153e 952e 9cbe 1399 073f 9939 4c3f
000003b0: 93d8 19be d0b8 14bf 4dd1 42be 38c6 84bd
000003c0: 999c 56be 17bb 193d 30cc ab3e 5368 033f
000003d0: d11d b23e 30f1 7fbd 2adb a2be d69d 9fbd
000003e0: b52c 11be a5ea 323f 02df 463c 5836 c83d
000003f0: 6fb0 05be 5ad4 0bbd 3a3d dabd e4a5 d23e
-0.19965151 0.015950471 0.3305649 0.30988836 1.6178726 0.17715605 -0.4058199 0.036831226
0.87673926 0.24347834 -0.048150297 -0.10009746 -0.14372905 0.03216139 -0.033376493 0.35497633
-0.18679932 -0.30640653 0.30036888 0.31634268 -0.15061818 -0.24731776 -1.3936958 -0.03068331
-0.4509847 0.62515694 0.04980939 -0.6866131 -0.0051018936 -0.17731145 -0.28419185 0.30501875
-0.25538698 -0.48588064 -0.15550682 0.3171159 0.65421927 -0.032416087 -0.8622919 0.2899684
-0.09276813 0.8252583 -0.46234697 -0.08398812 -0.4874265 0.50251126 0.7461701 0.30410713
-0.24403706 0.06562865 0.28989157 0.36610746 0.14763735 -0.093719035 -0.2794538 0.05338316
-0.31322792 0.72884387 -0.10608727 0.18660025 -0.06175577 -0.064109296 -0.0801924 0.4357796
0.062715806 -0.7485289 -0.22382586 -0.43438306 -0.314049 -0.31998974 0.25794604 0.5428579
-0.4882866 0.4507463 -0.450726 0.40179217 -0.1813571 -0.5827568 0.596239 0.3318586
0.2497371 -0.19514458 0.17057091 -0.4937695 0.3522369 0.018083556 0.89936125 0.4017239
0.41907316 -0.02652573 0.39953777 0.8591659 -0.15714775 -0.66043097 0.24163963 0.1425093
0.18056028 0.07634715 -0.33432034 0.010300241 0.048177022 -0.97632307 0.48907423 -0.3861862
0.54683834 0.39086598 -0.044645224 0.06846981 0.15086187 -0.08747967 -0.08923968 -0.45693377
0.280593 -0.3736951 -0.3049175 -0.34330264 -0.2711638 -0.81213474 -0.3819873 0.050831616
0.036722712 0.4852615 0.16427393 -1.1685237 0.11957061 -0.39754763 -0.23842813 -0.23844843
0.28569415 -0.9971513 0.22021432 -1.1035844 -0.049896885 -0.948492 0.704208 0.432214
0.6009597 0.23895356 -0.510153 0.11300143 0.2975644 -0.28494537 1.0533601 -0.16358411
-0.11619143 -0.023561424 0.3478287 -0.09172223 -0.6391746 0.34505 0.06237502 0.38691622
-1.444916 0.06006962 0.038392715 0.37985367 -0.12404408 0.03271364 -0.044230245 0.43093696
0.27615803 0.14254852 -0.30877736 -0.17874584 -0.30200636 -1.1288972 0.17465805 -0.2609037
0.22683473 0.48487473 -0.06371463 -0.3749169 0.15555836 -0.22211477 -0.29160318 -0.4665318
0.019689215 1.1907333 0.17767453 -0.0033738036 -0.60281414 -0.27062157 -0.7012956 -0.22221595
-0.3547417 -0.04934191 -1.0158106 -0.9384851 -0.07823577 1.5326853 1.017416 -0.3279378
0.12772588 0.31517938 0.37024477 -0.70180917 0.29860246 -0.85474694 -0.13284609 1.2627652
0.046851277 1.2215335 -0.05526822 0.10803058 0.03428874 0.17095111 -0.3048295 0.5624873
0.3672059 0.22837505 -0.3475071 -1.3222988 -0.08224998 -1.1282486 0.41324744 0.5700679
0.15507014 0.88001204 0.07999284 0.18238586 0.068326876 -0.009044219 -0.07442188 -0.048331816
-0.030252215 0.16083229 -0.080328114 -0.08368443 0.19812013 0.36652964 0.8046275 0.1411091
0.14636129 -0.3050429 0.5296795 0.7977539 -0.15024023 -0.580945 -0.19025154 -0.0648312
-0.20958175 0.03753194 0.3355422 0.5133106 0.34788373 -0.062485874 -0.31807834 -0.07793777
-0.1417721 0.6988929 0.01213813 0.0977599 -0.13055585 -0.03413806 -0.10656209 0.4114219

layers.1.bias f4 [16]
00000000: ef0f a03d 17bd babc 169b 873f 0ef5 41be
00000010: 0adb 9bbd 2203 8dbd f65a a93a 49a4 373e
00000020: 1bc4 81bd 9da3 1bbc dd27 ffbd 9c2f 3f3c
00000030: e472 a53e 6d9f 34be 3ff4 193d 2f97 983c
0.07815539 -0.022795243 1.0594203 -0.18941137 -0.07610138 -0.06885363 0.0012920785 0.17933764
-0.06336232 -0.009499458 -0.12458775 0.011669066 0.32314217 -0.17638941 0.037586447 0.018626777

final.linears.0.weight f4 [112, 56]
00000000: 1ce0 9bba 6606 5fbc 7931 1abc 2e38 f23f
00000010: bb81 ddbf 8464 56bf 09b0 b43d 1569 2bbb
00000020: 0716 92bc 9b04 dd3c f7b4 833e 5de5 2c3e
00000030: 6a20 5e3c 926a e9bb 81fb aabc 129a 7d3b
00000040: 1c12 ad3b 838a 123c 9f01 2ebc 20ce 4ebb
00000050: 3a05 d63c a12b df3b 799e 7f3c 5274 8bba
00000060: 91df b93c c5e4 023d e5ed 94bc f6fb 163d
00000070: 04e0 94bc 5191 0bbd 4300 15bd 6a9e c5bc
00000080: 96b5 3fbb f3a2 873c 89ab 10bd 96b6 863c
00000090: dc10 0c3d fc9f debc 6832 6a3d c6ca e93c
000000a0: ca98 4f3c 7635 0739 4ed9 debd 4d9b 7f3d
000000b0: 2c91 7a3d 2500 713d e447 63bd d9d2 8c3d
000000c0: aee3 6abd d47f 853d afcb c3bc dea3 7b3d
000000d0: d8aa 66bd aaa2 64bc e469 3fbc ee38 eebc
000000e0: 9f88 103e be8c 213d ae96 05bc 8c5e b83d
000000f0: f9d2 083d 93d8 edbc 23d8 4dbe e6a9 efbc
00000100: 94c9 12be 1081 283d 08d4 973e dee8 173e
00000110: 3e06 a4bd 938d 3abd 618a c93d 0b45 a43c
00000120: 177d 38be 4e0f cabd d351 83bd 6695 e83d
00000130: 48e6 6c3e 163d d13d 33c9 eebd b7bb 1b3d
00000140: 27f6 28bd 70bd 1cbc a5ba 16bd 2d2b 69bd
00000150: 764d 733c 5abb 77bd 1b88 193d bab0 d43c
00000160: 633f 2f3d 690b 9fbc 1719 0abd bb2d 153c
00000170: dd3b 9ebc 5611 5e3d 4b9f 323d 6332 9a3c
00000180: ad4f 15bd a5da b03c 3a92 f13c 644e a4bc
00000190: b4a9 babc 8232 01bc fff2 8d3b 2e66 b3bb
000001a0: e8f1 e4bb 626d efbc 0a75 10bd 4a8e b8bc
000001b0: a8b8 f53c 0054 293d fe7f f8bb 2c34 ef3c
000001c0: c7af 8bbf a9ab b1be ab32 9e3f 7fb1 77be
000001d0: 3d3c 6fbe a089 7ebe d441 91be 0972 6ebe
000001e0: a5a4 47bc bbc3 0cbf 7ad9 9bbe 9810 a1be
000001f0: 737e 6bbf 5799 e63d a24e 553f 5aaf f4bf
00000200: 744e 8ebf b578 323e 8301 453f bb3d 9d3d
00000210: af74 793d ff61 1bbf fd52 983e f4de 733f
00000220: 38b1 3f3d 41ef 983d ad0b 9b3b fe03 603d
00000230: 6542 53bd c651 ed3c 29b7 8bbd b204 22bd
00000240: 4574 4a3c 687d 083d db43 bbbd f445 943b
00000250: 68b3 aa3d 96bc 68bd bb07 24bc db1e 763d
00000260: 93d5 803d a217 32bc 1ded d7bd 667d be3d
00000270: 7bf1 a33d a67e ab3d 7042 b6bd a9da e23d
00000280: e275 dcbd 6c21 d63d e769 b43b f207 e13d
00000290: a14f 7ebc 6a76 533c acd9 ee3c 3524 8dbd
000002a0: 19f1 ad3f 17b2 b0bf d264 09bf 140c 9b3e
000002b0: 6b55 943e 8720 a83e aa62 223e 9a8d d0be
000002c0: c90a 8c3f 6a9d a63d 8d3f 143e 40f9 923e
000002d0: 306f 6f3f e352 9cbe fc50 20bf 79cc 95bf
000002e0: a8ea 7ebf 1f4a 2fbf 8e87 3e3f aa8d d9be
000002f0: a30a 6f3f 3f03 44bf c89d 713f eb6c 0fbf
00000300: c040 843d ad6c 103e fe35 4cbe 7ace 223d
00000310: 065e c5bd acff 07bd 1642 27be 564c 0bba
00000320: 2b29 863d a74a ed3a 26cf 5bbd e89c d93d
00000330: f8fe 68bd b964 33be 9156 cabd a59c 933a
00000340: 5573 4e3e 0781 c13d 38f3 11be d186 0b3c
00000350: 20fb b03d 4d53 063d e421 5fbd a060 e73d
00000360: 46df 26bd 34ee 973d 47e3 3bbd 5b75 903d
00000370: d416 85bd ece0 96bd 3870 513e ef18 7d3c
00000380: e9e8 5abe 3882 95bd 0199 d5bd 431a 073f
00000390: dfd7 33be ac6d ccbd caca d9bd 79b7 dd3e
000003a0: 0422 f0bc b555 2f3e 2bc7 55bb 0d09 39bd
000003b0: 9cd5 aa3e 364d 92bc 15d4 283d 799f 2fbd
000003c0: ace0 db3d 2907 443e adf1 58bd 2f32 363e
000003d0: de64 9d3e ea48 483e cea7 663e db27 2e3c
000003e0: f020 cbbd c1df dcbd aa64 443c 37aa 82bd
000003f0: 9ff7 e63d 59e1 29bb b318 f33d fb89 bc3d
-0.0011892351 -0.013612365 -0.009411209 1.8923395 -1.7305216 -0.83747125 0.088226385 -0.0026155163
-0.01783277 0.026979735 0.25724003 0.1688437 0.013557533 -0.0071233 -0.02087188 0.003869657
0.0052817 0.008944157 -0.010620504 -0.0031555966 0.02612554 0.006810621 0.015601748 -0.0010639525
0.022689613 0.031956453 -0.018179843 0.036861382 -0.018173225 -0.03407413 -0.036377203 -0.02412339
-0.002925252 0.016557192 -0.03531984 0.016444486 0.034195766 -0.027175896 0.057176977 0.028539073
0.012670705 0.00012894519 -0.10881291 0.062403966 0.061173603 0.05883803 -0.055488482 0.068761535
-0.05734604 0.06518522 -0.023900835 0.061435573 -0.056315273 -0.013954798 -0.011682961 -0.02907988
0.14114617 0.039440863 -0.008153601 0.090024084 0.033404324 -0.029033935 -0.20101981 -0.029255819
-0.14334708 0.04113871 0.29653955 0.14834926 -0.08009003 -0.045545172 0.09840847 0.020052454
-0.18016468 -0.098662004 -0.06412091 0.113566205 0.2313472 0.10216729 -0.116594695 0.038020816
-0.041250374 -0.00956665 -0.03679909 -0.05692594 0.014850011 -0.060481407 0.037483316 0.025963176
0.04278506 -0.01941462 -0.033715334 0.009105141 -0.019315654 0.05421575 0.043608945 0.018822854
-0.036452938 0.021588633 0.029488672 -0.02005691 -0.022785999 -0.007885577 0.004331946 -0.0054748273
-0.0069868453 -0.029226962 -0.035267867 -0.022528786 0.029995278 0.041339874 -0.007583617 0.029199682
-1.0913018 -0.3470128 1.2359213 -0.24188803 -0.23362823 -0.24857187 -0.28370535 -0.23285688
-0.01218525 -0.5498616 -0.3043936 -0.31457973 -0.9198982 0.11259716 0.8332311 -1.9116013
-1.1117692 0.17428859 0.7695543 0.0767779 0.060902294 -0.60696405 0.29750815 0.95262074
0.04679987 0.07467509 0.0047316165 0.054691307 -0.05157699 0.028969657 -0.068220444 -0.03955526
0.012356822 0.03332272 -0.09143802 0.0045249406 0.08335 -0.056820475 -0.010011609 0.06008802
0.06290736 -0.010869892 -0.10543273 0.093012616 0.08005043 0.08373766 -0.08899391 0.11076862
-0.10764672 0.104555935 0.0055057886 0.109878436 -0.015521915 0.01290665 0.029156528 -0.068916716
1.3589202 -1.3804349 -0.53669465 0.30282652 0.2897142 0.32837316 0.1585795 -0.40733033
1.0940791 0.08135493 0.14477368 0.28705788 0.93529034 -0.30531988 -0.6262357 -1.1703025
-0.9957681 -0.68472475 0.7442559 -0.42490894 0.93375605 -0.76567453 0.9438138 -0.5602557
0.064576626 0.14103957 -0.19942471 0.039747693 -0.09637074 -0.033202812 -0.16333804 -0.0005313804
0.06550821 0.0018103913 -0.05366435 0.106256306 -0.056883782 -0.17518891 -0.098797925 0.0011261894
0.20161183 0.09448438 -0.14252937 0.008516029 0.08641648 0.032794286 -0.05447568 0.11297727
-0.040740274 0.074184805 -0.045871045 0.07053634 -0.06498495 -0.07367119 0.20452964 0.015447839
-0.2137791 -0.07300228 -0.10429574 0.5277445 -0.17562817 -0.09981856 -0.10634382 0.4330404
-0.029313095 0.17122538 -0.0032619934 -0.045174647 0.33366096 -0.017859083 0.041217882 -0.042876694
0.10736212 0.19143356 -0.052964855 0.17792581 0.30741018 0.19559065 0.2252495 0.0106296195
-0.09918392 -0.10784865 0.011986891 -0.06380122 0.11277699 -0.0025921671 0.118699454 0.09206005

final.linears.0.bias f4 [112]
00000000: f3cc 86bf 6c05 a7bd fbbf 653e 06d6 31be
00000010: 2582 c13e 72fd 073d bc8d 8fbe e04b 363e
00000020: 81ef c8bc d781 6a3e b414 9c3e f7a5 f8bd
00000030: 037d 163e a231 5c3d 2086 ec3d 7cf2 913e
00000040: 71d5 dbbd 6709 1fbe ffb8 923e 1391 443e
00000050: 4887 273e 1a9d d63d 9f88 43bd 9f8c c73d
00000060: cd97 ab3e 003f 9c3d 8dd4 3cbe d8f9 d3be
00000070: c5ec 0d3e d4e6 953c 1cec e7bc a579 e13d
00000080: fdee babe f9ba 49bf 3ff7 88bc e1a6 6ebe
00000090: 17df 703d 48a3 55be 09d5 7f3e e92b 593e
000000a0: 2e4b f93e c742 363d 05a4 da3e 4462 c4bd
000000b0: 3e89 87be bdf7 d6bd 4a6f 013e c21f e43e
000000c0: 4d7f 843e 9d45 b7be 93ad 18bf 6cb3 f33d
000000d0: 3c1c c9bb 9e51 683e fb6a 8d3d 7412 64bd
000000e0: b5b9 753e 8b78 d1bd c258 e23d 41ab 1cbe
000000f0: aa73 243e 78e3 773d 3724 3ebf 763d 943e
00000100: 6477 533d b075 42bd ae4f d3bd fcff 80be
00000110: 635c 22bd 89f5 813e 88f9 a83e daee d33d
00000120: 6b75 81be 9eb2 99be 76be afba b0c2 1d3e
00000130: 7a88 873c 0583 e8bd 9f12 573d 5c4d b4be
00000140: 6e0f 3a3e a733 573e e355 b1bd 9610 603e
00000150: 7a16 c33d 4b57 1bbc cb41 163e b330 073e
00000160: 0554 f6bd e4cd 48be 5a48 bebd c71f 57bd
00000170: 5eda a83e 329e 353d d5d1 6d3e 035c 223e
00000180: a7a8 573f 8c89 09be 55cd d23d 053b 82bd
00000190: f4d1 00bf e4d7 6a3d f643 01bd e8b6 bdbd
000001a0: 360d 8f3e 2585 6ebc 8dec 993e 46ff 0f3e
000001b0: d5cb c2bd f81c 273c 46f9 5cbf afe0 73be
-1.0531296 -0.08155331 0.22436516 -0.173668 0.37794605 0.03320069 -0.28037822 0.17802382
-0.024528267 0.22901092 0.30484545 -0.1214103 0.14696126 0.05375827 0.1154902 0.28505313
-0.1073407 -0.1553093 0.28656766 0.19195966 0.163602 0.104791835 -0.047737714 0.09743618
0.33514252 0.07629204 -0.18440457 -0.41401553 0.13859852 0.018298544 -0.028310828 0.1100953
-0.3651046 -0.7880092 -0.016719459 -0.23305847 0.058806505 -0.20863068 0.2498361 0.21208157
0.4869017 0.044497278 0.42703262 -0.09589055 -0.26471895 -0.10496471 0.1264011 0.4455548
0.25878373 -0.35795298 -0.59639853 0.118994564 -0.006137399 0.22687384 0.069051705 -0.05568166
0.23996623 -0.1022807 0.110520855 -0.15299703 0.16059747 0.060519665 -0.7427401 0.2895314
0.05162753 -0.047475517 -0.10317932 -0.251953 -0.039638888 0.2538264 0.33002877 0.10348292
-0.25284895 -0.30019087 -0.0013408202 0.15406299 0.01654457 -0.11353115 0.052507993 -0.3521527
0.18169948 0.21015798 -0.0865896 0.21881327 0.095257714 -0.0094812615 0.14673536 0.13202171
-0.12027744 -0.19609791 -0.09291144 -0.05252054 0.329791 0.04434032 0.23224576 0.15855412
0.8424172 -0.13431376 0.1029307 -0.06358913 -0.50320363 0.057334796 -0.031558953 -0.09263402
0.27939767 -0.014558111 0.30063286 0.14062223 -0.09511534 0.010199778 -0.8631786 -0.23816179

final.linears.1.weight f4 [112, 112]
00000000: 8710 1d3e 29d8 78bd 28e0 94bf 24e3 8abe
00000010: ab90 2dbe bea2 393b 5ce9 f93b 2b0e 5dbd
00000020: 6ad1 1ebe 243c 15be a152 a3bc 5ebb 133d
00000030: 4ac7 44bd b0db b4bd ad27 6bbd 8a75 55be
00000040: 54c6 89bd e24d acbd d2cc acbd 6b97 83bc
00000050: 6ecb e1bd 4cc5 afbe 5d09 e4bd c138 08be
00000060: 87f6 89be 72b9 b93e 44f1 2bbd d250 4d3d
00000070: 04af e0ba 77c5 bfbd 25b4 b1bd 36fa 90be
00000080: db88 6c3c 9e40 813e 6307 3bbe a823 bc3b
00000090: cfef 31bc a6a5 abbe 18f2 afbe 80ac 6cbd
000000a0: 7665 adbe 591c 88be 3ca5 89be 95e8 d6bd
000000b0: 9148 843b e914 25be aecd 5fbd 9ad5 68be
000000c0: c59c b0be d3f0 3abd 1948 fb3d c78c c7bd
000000d0: 1712 1abe 4b4f 13be 0f73 c2be 76e1 acbe
000000e0: 809d e9bc 1f45 4ebd 9989 31bd ad24 6ebe
000000f0: a196 52be 5892 e3bd e35a 8d3d b2c3 0bbd
00000100: 012c d8be d434 67be 3f90 c8bd f25b 72be
00000110: 9bbd 373d 22b7 65be f0f4 17be f4b0 b5be
00000120: 814c aebc 3b47 903d 56cf 9cbe 01ab 52be
00000130: 9fe9 3d3d 9482 803d cb1e bfbe be7f 7d3d
00000140: 09c2 0fbd 61dc 94be e453 a6be e1ef 81be
00000150: c9bf 553c 17fa a8bd e4a9 53bd 7fd6 16be
00000160: 131d 06be 69fc 0c3b 1123 15bb 8fb7 b4bd
00000170: 97b9 71be 7049 a5be e656 0bbd c7cc 9abe
00000180: c723 babe a0fd c73c fcae 95be 4bff 813c
00000190: 2bba ba3b eedb 76be 5d8c d43b 209a 1d3d
000001a0: 413b c0be 8b9b af3c 6470 a6bd 48a3 a8bc
000001b0: ae00 903c 0f73 deb9 7f1c dc3d 763b 21be
000001c0: f823 6bbf 2d73 2f3d 2738 2cbd 0779 22bd
000001d0: c667 153f ccdd a83d f251 803e d7cd 153e
000001e0: 9352 f3bc 648a c6bc 78f1 083e 94ae 383c
000001f0: 8990 6abd ca78 d3bb ccbc 03be 8c3a 8dbd
00000200: b9e0 3ebd 2cf4 57bd aa80 3dbd f33f 773c
00000210: 8da8 2b3b 79d4 403f 1296 6f3c a6ab 7c3d
00000220: 43e1 f9bc 2bd0 ca3c d3c8 1b3d 9829 d7bd
00000230: 5d0c 073e f6a3 dfbc 6939 e4bc 0880 32bd
00000240: 959b c13d ae2c fd3d 7fab 2dbd 5b15 913d
00000250: 995a 3dbd af8b 59bd ed3e 4bbd d8f4 ecbd
00000260: efe3 0abf 04e6 0b3b cb1e 0cbe 5dab 0dbc
00000270: d1e1 acbe bc0b 16bd 27fa 103b 3638 f5bd
00000280: 9b36 40bd 2532 cabd 474b 20be 46a8 70bc
00000290: 84eb 58bd 8c8b be3c 4f35 f5bc 2f1b 29bd
000002a0: 5f69 07bd 6740 b33d e220 94be d16a b739
000002b0: 09c1 64bd cdd9 bebc e254 5cbd b2db cb3d
000002c0: 5305 68bd 46ff 533a 11f7 4bbe b51d 56bd
000002d0: beec b93d bcfc 5a3b 6bd0 a0bd 78a6 56bd
000002e0: 1e31 b2bd 9a83 9bbe e17d d8bc 7549 39be
000002f0: cb23 203e 460a 1dbf b40e 0dbd c5b3 b03d
00000300: 365d 513d d950 23bd 616c 7dbd 60ab f7bd
00000310: 377d 3b3d b80a 493d 0aef 1a3d 477c 633c
00000320: 5a88 8cbd 1ed0 bd3c 8e7d c23d 7aa7 843d
00000330: 5fe5 cabd b781 a2bd a2df 3a3e 5f64 10bd
00000340: 4245 cf3e 5315 66bc 8f4f 93bc 9c4e c03d
00000350: 5e51 b9be ed49 02bd e00e ce3d 5e16 33be
00000360: 645e adbd a3c3 483e 1c33 2c3d 4b3f b6bd
00000370: 611f 9c3d e076 ad3d e0a5 0bbf a8a1 39be
00000380: c315 143e 6668 be3c 3d5e 11be 98dc b6bd
00000390: 2407 3abe 8a92 e03b 3651 9a3c 4b2c 9a3d
000003a0: 1fb8 82be 0e0e 94be 8ce5 af3d 8c3f 8cbd
000003b0: 50ee b03c 261f 533c ef2c 83bd 64e9 60be
000003c0: 3dd3 08be be98 86bd 8240 513c 2f1f 273d
000003d0: 54b1 1fbe f7e0 c3be 41a6 88be ac54 82bd
000003e0: 7953 54be f362 7ebe 174a b4bb 83bb 693d
000003f0: 3fd4 733d 7f05 d53c ffde 6cbf 5262 bdbe
0.15338336 -0.06075302 -1.1630907 -0.2712642 -0.16949718 0.0028325762 0.0076266956 -0.05396859
-0.15509573 -0.14573723 -0.019936861 0.03606736 -0.04804162 -0.088309646 -0.057410885 -0.20845619
-0.06727281 -0.084132925 -0.08437504 -0.016063413 -0.11025129 -0.34330213 -0.111345984 -0.133029
-0.26945898 0.36274296 -0.041978136 0.050125904 -0.0017142002 -0.09363835 -0.08676938 -0.28315896
0.014436926 0.25244612 -0.18264537 0.0057415552 -0.0108603975 -0.33524817 -0.3436439 -0.057781696
-0.3386647 -0.26584128 -0.26883876 -0.1049358 0.004036971 -0.16121258 -0.05463951 -0.22737733
-0.34494606 -0.045639824 0.12269611 -0.09743648 -0.15045963 -0.14385717 -0.37978408 -0.33765763
-0.028517485 -0.050358888 -0.043344114 -0.23256178 -0.20565273 -0.11111897 0.06902101 -0.034122176
-0.42221072 -0.22578746 -0.09793138 -0.23667887 0.044858556 -0.22433141 -0.1483953 -0.35486567
-0.021276714 0.07044836 -0.30626935 -0.20573045 0.046365377 0.06274906 -0.3732818 0.061889403
-0.035097156 -0.29074386 -0.32485878 -0.25378326 0.013046213 -0.08250826 -0.051675692 -0.14730261
-0.13097028 0.0021512753 -0.0022756497 -0.088240735 -0.23605953 -0.3228259 -0.03401842 -0.30234358
-0.3635542 0.02441293 -0.29235065 0.015868803 0.0056984625 -0.24107334 0.006486459 0.038477063
-0.37545207 0.021436473 -0.081269056 -0.020585671 0.01757845 -0.00042428865 0.10747623 -0.15745339
-0.9185176 0.04283445 -0.04204574 -0.039666202 0.5836147 0.082454294 0.2506252 0.14629303
-0.02970246 -0.024235912 0.13373363 0.011272091 -0.057266746 -0.006453608 -0.12864989 -0.068959326
-0.04660103 -0.052723095 -0.04626528 0.01509093 0.0026192993 0.7532421 0.014623182 0.061687134
-0.030502921 0.024757465 0.038033318 -0.1050598 0.1318831 -0.027299862 -0.027859407 -0.04357913
0.09453503 0.123620376 -0.04239988 0.07084151 -0.04622898 -0.05311173 -0.049620558 -0.11570138
-0.5425405 0.0021346817 -0.13683622 -0.008646813 -0.33766034 -0.036632285 0.0022121759 -0.11973612
-0.046927076 -0.098728456 -0.15653716 -0.014688557 -0.05295898 0.0232599 -0.029932646 -0.04128569
-0.033059474 0.08752518 -0.28931338 0.00034984064 -0.055848155 -0.023297215 -0.053791888 0.09954013
-0.056645703 0.000808705 -0.19918467 -0.052274425 0.09078358 0.0033414802 -0.078522526 -0.05240485
-0.087007746 -0.30373842 -0.026427211 -0.18094428 0.15638654 -0.613438 -0.03443785 0.08628038
0.051114284 -0.039872024 -0.061870936 -0.12093234 0.04577371 0.049082488 0.03782562 0.0138846105
-0.068619445 0.023170527 0.09496604 0.06477256 -0.0990703 -0.079348974 0.18249372 -0.03525197
0.40482527 -0.01404317 -0.017982272 0.093899935 -0.3619489 -0.031808782 0.10061431 -0.17489001
-0.08465269 0.1960588 0.04204093 -0.08898791 0.076231726 0.08469939 -0.5454998 -0.18128073
0.14461426 0.02324314 -0.14196105 -0.08928794 -0.18166786 0.0068534063 0.018837553 0.075279795
-0.25531098 -0.28916973 0.085887045 -0.06848058 0.021598011 0.012885844 -0.06405055 -0.21964031
-0.13361831 -0.06572102 0.0127717275 0.040801223 -0.15594989 -0.38257572 -0.26689342 -0.06363806
-0.20734967 -0.24842434 -0.0055019963 0.05706359 0.059528586 0.026003597 -0.92527765 -0.36989075

final.linears.1.bias f4 [112]
00000000: 243d 5cbe c018 b53e 7936 4abe b47f 73be
00000010: 4214 0dbf 7dfb 4c3c ab3d abbe cded 9cbe
00000020: 5398 38be efcc 71be dc15 80bd b6fe 15be
00000030: 1390 39be 2069 4ebe 1eff 53be 3b24 b4be
00000040: 5c6d 733c 0371 41be 1955 a0bc d658 f03c
00000050: 2efc 42be 1f6a 7abe 249d 3cbe 923c 44bd
00000060: dc0f 5abe 3358 40bf d68c 5cbe 13c1 7fbe
00000070: 810d 86be 95c8 cdbd c636 5bbe fedc babd
00000080: 467b 5bbe d540 4ebe a0b9 873d 04c1 7d3d
00000090: 2a65 35be bfa9 6bbe 0622 84be 339d 0b3e
000000a0: 1716 12be 9942 b7be 5ea7 67be 5f08 a0be
000000b0: 98a1 74bd be2f bd3e 9601 a8be 6205 66be
000000c0: e694 a1be e185 27bf a494 77be 52cb 82be
000000d0: 92eb 2fbe a41f 81be 9c9d 81be 9c5c 1ebe
000000e0: c8a5 09be e8d1 85be 6ea5 59be 2618 36be
000000f0: c8f9 c0be 1cb5 e1bc 8664 86be e514 3abe
00000100: 256d 85be 3df2 00be c874 5ebe 0f39 38be
00000110: 2f9b a8be 7b0d 2cbe cceb 213d 4daa a3bd
00000120: 831b 47bd ed47 b6be 5058 d13b e04e 5ebe
00000130: 818e 0cbe e8dc 7dbe c93f 08be a306 f2bd
00000140: 409d 5fbe f0be ecbd 619f 16be 436e 6dbe
00000150: ad9f f13c 5451 89be 9b54 51be af70 1c3f
00000160: 8d3b 2cbe ed39 82be 69fd 0dbe e4ba cebd
00000170: a41e 26be 236b dbbd b151 6dbe 9c64 b8bd
00000180: 36e4 06be 8980 16be dc4b 7fbe 7e8e b8bd
00000190: d448 35be 613a 363e 6267 c2bd a95f 76be
000001a0: 76cd 203d 3b6e ebbd e90e 403e 48b9 d5bd
000001b0: 00e2 a9be 2d91 573d 73bf 83be 9829 a9be
-0.21507698 0.35370445 -0.19747342 -0.23779184 -0.55109036 0.012511131 -0.33445486 -0.30650178
-0.18026857 -0.23613332 -0.06254169 -0.14647946 -0.18121366 -0.2015729 -0.20702788 -0.35183892
0.014857616 -0.18890767 -0.019571828 0.029339235 -0.19041511 -0.24454544 -0.1841932 -0.047909327
-0.21295112 -0.7513458 -0.215381 -0.24975996 -0.26182178 -0.100480236 -0.21407613 -0.09124182
-0.21433744 -0.20141919 0.06627202 0.061951652 -0.17714372 -0.23013972 -0.25807208 0.13634185
-0.14266239 -0.35792997 -0.2262244 -0.31256387 -0.05972442 0.36950487 -0.3281371 -0.22462991
-0.31558913 -0.6543866 -0.24177796 -0.25545746 -0.17179707 -0.25219452 -0.2531556 -0.15465015
-0.13442147 -0.26136708 -0.21254513 -0.1778265 -0.37690568 -0.02755218 -0.26248568 -0.18172033
-0.26059833 -0.12592407 -0.21724236 -0.17990516 -0.32930896 -0.16802017 0.039531514 -0.07991467
-0.04861022 -0.3560175 0.0063887015 -0.21709776 -0.13726236 -0.247913 -0.13305582 -0.11817672
-0.2183733 -0.11559856 -0.14709236 -0.23186593 0.029495085 -0.2681986 -0.2044243 0.6110944
-0.16819592 -0.2543482 -0.138662 -0.1009424 -0.16222626 -0.10713794 -0.23175694 -0.09003565
-0.13172993 -0.1469747 -0.24931282 -0.09011553 -0.17703563 0.17795707 -0.09492375 -0.24059929
0.039258443 -0.11495634 0.18755688 -0.1043573 -0.33180237 0.052628685 -0.25732002 -0.33039546

final.linears.2.weight f4 [24, 112]
00000000: 1d9c 043f cdf5 1a39 fe39 5f3e c047 0dbf
00000010: 3c82 0cbc 6e85 e3bc 5ad2 003f 61e6 653d
00000020: 5514 733d ccdf 5fbe a041 073e 6aad 683e
00000030: 2ab2 47be 0d90 813e 6720 41bc 1062 04bc
00000040: 8842 76bd 6d7c 6d3e 38b5 403d d100 d0bd
00000050: ae97 89be 1a46 043e 55d5 31bf 34ec 6ebe
00000060: 97b9 cbbd e545 a83a 98bf da3e 7d2d 033f
00000070: b12a 043f 07f2 54bd da71 b4bd ab88 cfbd
00000080: 65e7 25bf 163e 81be 6432 aa3b 116e 8a3d
00000090: ce5f cb3e 963d 36bd 39fb 213e 5952 17bc
000000a0: 86ee 02bd b08a 25be 6fbe eabb 1eb3 3cbf
000000b0: 03db b9be 0d20 0b3c b67b a2bc 3916 9b3e
000000c0: dadb 393e e2b8 cabb 99c4 1dbe 772f d33e
000000d0: 043b 57be 073a 703e 7c87 eabe f9fd 503e
000000e0: e763 ebbd 4136 55be dfbd 153f c0d5 b93e
000000f0: 0fa6 2a3c f2b0 a0bd 6342 6cbe a7a9 24be
00000100: 3711 e0be 4028 b6bc 4a39 793d 2a12 133e
00000110: 5a52 b4be a716 00be 35f7 a13b b63f 3cbe
00000120: 4c48 1f3b 535b 6c3b 0918 403d ee4d 84be
00000130: 4a06 febd d077 fabd 96de 1c3c 42ee 5ebd
00000140: 9650 d43c 55da 4b3e 3103 dc3d 820a d4be
00000150: 2da4 223e 37e7 f83e 8a2c 683e bb9e f43a
00000160: d383 27be 0d62 f93d 6f5e 013c 79a8 423e
00000170: cfe1 86be f381 9ebe 8e1e 5ebe f40e 13bc
00000180: 1d9e a93e aee1 59be 365f 593f 08e6 60be
00000190: 71ce 433e bd4c 06be c9fb ac3e ded1 ba3d
000001a0: a177 73bd 5124 d0be f23d 093d 15f4 cf39
000001b0: 9554 073c 2df9 fb3b 8346 a13e bd32 89be
000001c0: 4f2b 573e b5b3 863b e240 fbbe bda0 89be
000001d0: ff87 643c 1973 a73d af4e c33e 6809 93be
000001e0: c58b 1e3e 1cf1 36bf af52 7a3c 7bdf c3be
000001f0: da50 85be 7299 dfbb b5ab b3bd 6051 0c3b
00000200: c664 913b 812f d63e 5f13 173d 1c4a 23bd
00000210: 2071 b2be 7c9d cebe 594e 89be 95ce 383d
00000220: a759 13bf ead9 2ebb 40dd 943e 238c d6be
00000230: ed8f 28bf f6f6 2cbb 5644 ee3c 9bf4 1fbd
00000240: 1ca2 c73e d029 d8be 49e6 4ebc ecf5 e93d
00000250: 3295 22be b6d4 8fbd 06fb a03e 3544 60bb
00000260: 926c 0c3e 1e86 733d f3c8 bb3c 4a83 8e3e
00000270: f140 2b3e 5ab1 2d3b e685 7bbe b6a3 683e
00000280: 916f eabd 8069 9036 ed6a 483f 046a e1bd
00000290: e582 c7bd c2a8 81be a1fd bc3d 1baa c6bc
000002a0: 351b d1bc e5e8 123d c8ab b13d 667d fc3d
000002b0: 8d82 393e e3db 433e 5d9d c43e 3c45 f73d
000002c0: ed9f 3b3e d1ce 0fbf 2ab2 57be fe15 4bbe
000002d0: 43d4 f63e 1ccc de3c d8e6 98bb c529 813e
000002e0: 74a9 ce3b 1904 493c fc55 a3bb 4e9f d63e
000002f0: c47f 943d c864 7d3c abd8 ed3e e656 c3bd
00000300: 211d a5bd 9f59 0abe f20b 2e3e cd5f 08be
00000310: a9ca 8a3c 4e9d 0f3f 85e2 b23e 6c28 2f3b
00000320: ceb3 5cbe 9d93 03bf 0fa7 6cba 11b7 0fbe
00000330: 63d6 cabe f9ae 7f3e 3019 b83e e70e 0f3d
00000340: 6de9 6cbe c035 f7bd b5d4 183f 9854 d9be
00000350: 98d5 ca3e 3c1f d83c 16cf 41be 4f4d 403e
00000360: 0431 3c3c 75a8 853e 7e78 95bc 96a7 3bbd
00000370: bd86 8ebc 1ece bc3d 0574 113e 62ef 76bc
00000380: bb44 15bf c6b3 7e3b f257 4dbe f4e3 9bbe
00000390: b5f1 55bc 887c 14be 4923 ff3e e5d9 ccbe
000003a0: d597 023d 1b86 0fbf dc7a 543e 0267 013d
000003b0: 02b8 21be 3767 f83d 144d 28bd 3640 eb3a
000003c0: d25b 31bd 75d7 b7be b97c 71be 7b78 17be
000003d0: 80bf b83e 3427 dbbe 370b ca3c e48c d6be
000003e0: 46a8 20be fad7 c33b a299 253f 2a44 c0bd
000003f0: 6563 ae3e 27e8 453e 049c 0ebf 98d1 6f3e
0.5180071 0.00014778152 0.21799466 -0.55187607 -0.008575972 -0.027773585 0.5032097 0.05612791
0.059345562 -0.21862715 0.13208628 0.22722402 -0.19501558 0.25305215 -0.0117875105 -0.008080021
-0.060122043 0.23191996 0.047047824 -0.10156406 -0.26873535 0.12917367 -0.69466144 -0.23332292
-0.09947508 0.0012838213 0.427243 0.51241285 0.5162764 -0.051988628 -0.08810778 -0.10133489
-0.64806205 -0.2524268 0.0051939953 0.06759275 0.3972153 -0.044492327 0.1581849 -0.009235942
-0.031965755 -0.16166186 -0.0071638147 -0.7371081 -0.36299905 0.008491528 -0.01983438 0.30290392
0.18150273 -0.0061865905 -0.15407027 0.4124715 -0.21018606 0.23459636 -0.4580649 0.20409383
-0.11493664 -0.20821477 0.58492845 0.3629589 0.010415568 -0.0784625 -0.230722 -0.16080342
-0.43763134 -0.02223599 0.06084565 0.14362398 -0.3521908 -0.12508641 0.0049427995 -0.18383679
0.0024304567 0.0036065176 0.04689792 -0.25840706 -0.12403543 -0.12229884 0.009574553 -0.05442644
0.025917333 0.19907506 0.10742796 -0.41414267 0.1588294 0.48613903 0.2267324 0.0018663028
-0.1635888 0.12176905 0.00789605 0.1900958 -0.26344153 -0.30958518 -0.21691343 -0.008975733
0.33128443 -0.21277496 0.84910905 -0.2196275 0.1912172 -0.13115211 0.33785847 0.0912206
-0.05944026 -0.40652707 0.03350634 0.00039663972 0.008259912 0.007689616 0.3149911 -0.26796523
0.21012615 0.004110778 -0.4907294 -0.26880446 0.01394844 0.0817625 0.38145968 -0.28718114
0.15483005 -0.71461654 0.015278502 -0.3825644 -0.26038247 -0.006823712 -0.08772985 0.0021410808
0.004437062 0.41833118 0.036883708 -0.039865598 -0.34851933 -0.40354526 -0.26817587 0.045118887
-0.57558674 -0.002668018 0.2907505 -0.4190379 -0.65844613 -0.0026392317 0.02908532 -0.039051633
0.38990867 -0.422194 -0.012628146 0.11423859 -0.15877226 -0.07022993 0.31441516 -0.0034220342
0.13713291 0.059454076 0.022922968 0.2783454 0.16723992 0.0026503415 -0.24562797 0.22718701
-0.11447061 4.3038162e-06 0.78288156 -0.11006549 -0.09741763 -0.25324064 0.092280634 -0.024251034
-0.025525669 0.035866637 0.08675343 0.12328605 0.18116207 0.19126849 0.3840131 0.12073752
0.18322726 -0.5617495 -0.21064058 -0.19832608 0.48208818 0.027196936 -0.0046661906 0.2522718
0.0063068215 0.012269043 -0.0049846154 0.41918415 0.07250932 0.015465923 0.46454367 -0.09538059
-0.080621965 -0.1351075 0.16996744 -0.13317795 0.016942339 0.560994 0.34938446 0.0026726974
-0.21552965 -0.51397115 -0.0009027579 -0.14034678 -0.3961669 0.2496909 0.35956717 0.03492632
-0.2313592 -0.12070799 0.59699565 -0.42447352 0.39616084 0.026382081 -0.18926653 0.18779491
0.011486296 0.26105085 -0.018245932 -0.04581412 -0.017398233 0.09219001 0.14204414 -0.015071722
-0.58308 0.0038864478 -0.2005308 -0.30447352 -0.013058116 -0.1450063 0.49831608 -0.4000999
0.03188308 -0.56064004 0.20749992 0.031592377 -0.1579285 0.12129062 -0.041089132 0.0017948213
-0.043300457 -0.35906568 -0.23582734 -0.14792053 0.36083603 -0.42803347 0.02466355 -0.41904366
-0.15689191 0.005976674 0.6468755 -0.09388001 0.34060207 0.1932684 -0.5570681 0.23419797

final.linears.2.bias f4 [24]
00000000: fb53 afbd d07e b5bd 68d6 fc3c 8bdc 293e
00000010: 1230 c53d 779e 90be 6ba2 24be 9e71 bebc
00000020: 2355 22bc 26c5 963c 5e34 cb3d b52a 2c3d
00000030: 5239 edbc b26e 55bd 431f 783d 246b 013b
00000040: 3025 85bc cabe d43a 6e04 bdbd fbf3 a93d
00000050: d032 b8bd ff55 843c 7915 513d 30ba ad3c
-0.0856094 -0.08862078 0.030863956 0.16588037 0.09628309 -0.282459 -0.16077583 -0.023247536
-0.0099079935 0.018404555 0.099220976 0.042032916 -0.028957997 -0.05210752 0.06057669 0.0019747699
-0.016253084 0.0016231176 -0.092293605 0.08298489 -0.08994067 0.016154287 0.05104587 0.021206945

layers.0.attn.0.gnn_q.weight f4 [24, 16]
00000000: da72 6c88 0079 0688 3472 3c88 082a bf08
00000010: c066 aa08 eadb 2987 8c10 2107 0b63 bc87
00000020: b34a 2107 da51 bb87 a76b ef87 df27 5708
00000030: 6a4c 9087 6920 b988 80c4 3908 f0bd 8008
00000040: 5a14 5b07 f02f 5088 5a2e 9807 17f0 2208
00000050: 221a 6d07 12c7 6708 6b30 ec87 5038 c208
00000060: 3e15 d707 f78d 3908 aabb ae88 abee 6388
00000070: efa8 3b88 3bee 2e88 9f12 5787 1848 9308
00000080: 79ff 7e08 e2f8 4286 75ed 0488 5c0c 4088
00000090: d039 e507 f393 8c08 1ae1 ab07 72cf c008
000000a0: 7e60 9e06 225c f987 e046 d407 c263 5708
000000b0: 4cbc 8408 0312 b307 1bb5 be88 f189 a008
000000c0: 8141 2707 a0d2 3887 49ba a507 db94 0587
000000d0: 35c2 0687 cbe2 9807 7ebd 6988 60ef 9e87
000000e0: 3151 b507 618b 8587 4d2c 9e87 2680 7508
000000f0: 8d33 6e08 60f6 4388 d7e4 2807 f688 1007
00000100: 8e54 6908 b4d9 4887 71e4 9407 7e02 ac88
00000110: 31ee 3c08 d392 2d08 8c16 0107 d21b 9407
00000120: 1bf5 3408 4c7c 8188 cdca c307 9d4f 5608
00000130: 227d 6c88 3a31 4a08 cdb9 9408 1633 ff07
00000140: e08f c188 eb1d 3208 91b7 9487 339b ae87
00000150: 87b6 8588 0451 0388 4102 eb87 cfc7 6207
00000160: cfad 1f08 f17e a087 70b5 5685 0c39 ff87
00000170: 8355 e207 e224 8e88 0cc8 4688 d17e 8b88
00000180: 96bf 8587 30fb 8987 8a66 e186 9cc2 3208
00000190: c571 4708 bcb7 9c88 0448 5488 6dec 2c86
000001a0: 16bb d187 36e0 4288 486b bd06 e67f 9f08
000001b0: 20d1 ad07 51f3 b607 2790 9208 ea69 9408
000001c0: 856e 9508 235e 2e88 4c27 5508 72fc 7f08
000001d0: 245f 0d88 1a7e 2c08 df1c d587 b5ee 2308
000001e0: 6e68 1206 93c1 4508 84c7 4b08 ad29 2b08
000001f0: 7ec0 e605 4220 9e07 2773 d787 a07c aa88
00000200: 96bf 3688 0f9a a987 5d9d 6388 0f48 2388
00000210: 7012 8788 7e72 ac07 f4af f086 9519 1a88
00000220: dbfc c107 2718 c907 7f37 df05 ec87 ca07
00000230: f67b bb08 7898 2d88 c878 f887 29da fa87
00000240: 17a2 8b08 e0ee 1888 4b19 5108 4931 c308
00000250: 1e0c 4308 9cd7 ca07 f2a6 4708 8f88 4c87
00000260: c74e 8387 9411 c687 5d0e c208 9024 0588
00000270: 4d2e 4988 6931 cb86 1f70 0c88 4d9c 2d87
00000280: 9d8d ec87 1dc1 e907 24b6 bb07 da08 7a88
00000290: 094c 8988 7de2 8d08 761a b908 ef07 6408
000002a0: 125f 5008 d854 e587 ffdf ef05 68f1 1f87
000002b0: 3004 bb06 3f3d 2d08 a154 8f08 b7a8 2e88
000002c0: 9903 1d08 e3ff 5a86 cd55 6988 150c 0988
000002d0: 536d 9e87 d9a4 4888 4c3a 7308 8fcd 2508
000002e0: 91b2 ec87 3426 b087 02ed 8c08 ff93 8087
000002f0: 91f9 0685 f665 b107 ec88 4985 93c2 9207
00000300: f2d3 2408 171d 1a08 1a74 ea06 3f3a 9b88
00000310: b57c 8108 15d9 9d87 d535 c288 d494 9906
00000320: c0bf 9987 ba98 4108 0fe5 a107 b01d ee87
00000330: e687 eb87 b28f 5f08 0025 8788 74fa 2907
00000340: 5501 b988 8c4f 0587 56c3 6708 0fbd 3788
00000350: 313b ab88 1c49 bc07 76a6 8b08 0f65 5408
00000360: 54c1 2b88 b231 9908 dccf 0c88 401b 9208
00000370: 263f 4d08 13d3 6588 015d 1a08 047b 8988
00000380: 299b fb07 d76f fa07 fd7f 8087 940d b988
00000390: c1cf 0808 214c 0787 f80f ae06 52f7 6088
000003a0: cdb6 ab88 016b 0588 64af 4907 8f92 3008
000003b0: f62b 2288 874b 3c07 9f96 bf07 9ec4 e687
000003c0: 99b3 1387 f6b2 3688 da89 a187 b2e5 0f08
000003d0: 0cee 2908 6706 de87 9843 8086 79f3 7708
000003e0: 3f6d 1387 60f6 3606 e292 ad88 0a40 1288
000003f0: f482 3988 62bc 0488 4805 9687 21a7 2b88
-7.1153674e-34 -4.0466393e-34 -5.6708437e-34 1.1505276e-33 1.0255659e-33 -1.2778774e-34 1.2117156e-34 -2.8345308e-34
1.2134246e-34 -2.818474e-34 -3.6023996e-34 6.4746077e-34 -2.1711624e-34 -1.1141902e-33 5.5902397e-34 7.748374e-34
1.648171e-34 -6.2649073e-34 2.289766e-34 4.9032326e-34 1.7837578e-34 6.974804e-34 -3.553779e-34 1.1689189e-33
3.236209e-34 5.583829e-34 -1.0516364e-33 -6.859088e-34 -5.6471846e-34 -5.264126e-34 -1.6180275e-34 8.86419e-34
7.673565e-34 -3.6670195e-35 -4.0001435e-34 -5.7792427e-34 3.449007e-34 8.460726e-34 2.5861523e-34 1.160435e-33
5.9574777e-35 -3.7519507e-34 3.1939871e-34 6.4816474e-34 7.988729e-34 2.6943513e-34 -1.1477787e-33 9.66208e-34
1.2582933e-34 -1.3904519e-34 2.493593e-34 -1.0049553e-34 -1.0138112e-34 2.3003715e-34 -7.0338634e-34 -2.391389e-34
2.7281573e-34 -2.0093535e-34 -2.3799235e-34 7.3877643e-34 7.1681117e-34 -5.897029e-34 1.2706165e-34 1.0873605e-34
7.021528e-34 -1.5110305e-34 2.240283e-34 -1.0352459e-33 5.6854185e-34 5.2232885e-34 9.711507e-35 2.2284916e-34
5.44549e-34 -7.793127e-34 2.9459535e-34 6.4491867e-34 -7.116576e-34 6.084503e-34 8.951108e-34 3.8398161e-34
-1.164959e-33 5.3600095e-34 -2.2376456e-34 -2.6271828e-34 -8.047558e-34 -3.951661e-34 -3.5360195e-34 1.7061069e-34
4.8051633e-34 -2.4148734e-34 -1.00955564e-35 -3.8401665e-34 3.405496e-34 -8.554985e-34 -5.981861e-34 -8.395573e-34
-2.012422e-34 -2.0761104e-34 -8.478626e-35 5.379369e-34 6.001812e-34 -9.432104e-34 -6.3881083e-34 -3.2523303e-35
-3.1556784e-34 -5.864331e-34 7.1251534e-35 9.599533e-34 2.615306e-34 2.7527325e-34 8.820945e-34 8.932326e-34
8.993594e-34 -5.2471878e-34 6.414355e-34 7.703302e-34 -4.254248e-34 5.19076e-34 -3.2065647e-34 4.9331627e-34
2.753627e-35 5.9510077e-34 6.132262e-34 5.150743e-34 2.1699807e-35 2.3792157e-34 -3.2417285e-34 -1.0260802e-33
-5.499384e-34 -2.5518841e-34 -6.8495307e-34 -4.9135733e-34 -8.129352e-34 2.5946976e-34 -9.0536506e-35 -4.637276e-34
2.9188028e-34 3.0257314e-34 2.0991205e-35 3.047347e-34 1.1283796e-33 -5.223952e-34 -3.7385882e-34 -3.7744042e-34
8.403865e-34 -4.6021632e-34 6.292338e-34 1.17477225e-33 5.869492e-34 3.0520306e-34 6.0080627e-34 -1.5387385e-34
-1.975699e-34 -2.980206e-34 1.1679327e-33 -4.006621e-34 -6.0540664e-34 -7.6432715e-35 -4.2261515e-34 -1.3061006e-34
-3.5592566e-34 3.5171445e-34 2.8243685e-34 -7.5242043e-34 -8.263263e-34 8.539376e-34 1.1140503e-33 6.862058e-34
6.270448e-34 -3.4505957e-34 2.2557735e-35 -1.2032773e-34 7.0347735e-35 5.213229e-34 8.626396e-34 -5.2559544e-34
4.72497e-34 -4.118924e-35 -7.0216745e-34 -4.124114e-34 -2.3837453e-34 -6.037909e-34 7.319368e-34 4.9894514e-34
-3.5614285e-34 -2.650399e-34 8.481664e-34 -1.9346284e-34 -6.346488e-36 2.6691927e-34 -9.476123e-36 2.2082e-34
4.9601095e-34 4.6376884e-34 8.8191613e-35 -9.342417e-34 7.793224e-34 -2.3750324e-34 -1.1688606e-33 5.7770887e-35
-2.3133582e-34 5.8258354e-34 2.4359216e-34 -3.5827709e-34 -3.5438744e-34 6.7275535e-34 -8.133716e-34 1.2787748e-34
-1.1134596e-33 -1.0029185e-34 6.974365e-34 -5.5291797e-34 -1.0305604e-33 2.8330066e-34 8.404893e-34 6.3915223e-34
-5.1685697e-34 9.220036e-34 -4.2374055e-34 8.793462e-34 6.1764174e-34 -6.9160297e-34 4.6452015e-34 -8.274308e-34
3.7857477e-34 3.7681553e-34 -1.9334524e-34 -1.1137475e-33 4.1170225e-34 -1.0178643e-34 6.547499e-35 -6.769827e-34
-1.0334664e-33 -4.0149014e-34 1.5173102e-34 5.313535e-34 -4.8801778e-34 1.4165744e-34 2.8827013e-34 -3.4722115e-34
-1.111183e-34 -5.4979e-34 -2.430561e-34 4.3302503e-34 5.113641e-34 -3.340661e-34 -4.824757e-35 7.461506e-34
-1.1091155e-34 3.4411403e-35 -1.0446591e-33 -4.4010554e-34 -5.5825347e-34 -3.994375e-34 -2.2572596e-34 -5.16549e-34

layers.0.attn.0.gnn_q.bias f4 [16]
00000000: 9c10 f103 8c6c 7384 76fb 3688 08bf 5808
00000010: 116a 9c88 af87 d107 d0c7 ab06 868b b008
00000020: beab 9408 4222 4588 696f ab08 5741 7d08
00000030: 2047 d385 875f b388 2b65 8f08 498f b807
1.416852e-36 -2.8614355e-36 -5.5064224e-34 6.522469e-34 -9.413845e-34 3.1526573e-34 6.461665e-35 1.06254165e-33
8.947802e-34 -5.93228e-34 1.0317881e-33 7.6211225e-34 -1.9868472e-35 -1.0795629e-33 8.630284e-34 2.7769458e-34
