checkpoints/cyp2c19_veith_40_train1_neg/Aug30-04:37:17_100.pth (torch, 471359 bytes, 294 tensors)

layers.0.weight f4 [24, 16]
00000000: 5477 013f 2a58 1b3f 84f8 0a3e ba37 e13f
00000010: 1eff 303e 3602 4ebe 2f75 73be 380e 443f
00000020: 2b42 623e 6d14 38bf 7531 083f dce3 4a3e
00000030: b3cb 363f 6b7d 183f 8527 cdbe dd66 c3be
00000040: 7545 8b3f 153c 96be 7770 633d f0c8 0c3f
00000050: e984 83be 858d 2a3e cad8 87bf f912 1dbe
00000060: 8a5f b5bd 1ace aabf c37c 363e e6e5 2bbe
00000070: e32e c0bd 2358 09bd 1fd6 9b3d e32a 96bf
00000080: bc64 8c3d 534d cdbe fb4f 993d bc26 6e3f
00000090: 97d9 553e 2c4a b33e 992a 2e3c dc24 07bd
000000a0: 84e4 2f3e 4a6d 68bd e505 833e b0f4 dfbd
000000b0: d566 933e da14 a33e 0aeb 903d 49a3 03be
000000c0: e9ab 213e b810 34be 6a7e 4c3d b3be b4be
000000d0: b6f5 16be c21f 5a3e e8d0 043e 3e21 003d
000000e0: bd05 fbbd 05ef 30be 36e2 d2bd c444 6cbe
000000f0: 3905 923d 301c ce3c da49 52be a5a9 383c
00000100: cc79 223e 9257 3ebe d624 623d 7815 c4be
00000110: d9e8 58be 4a1a 4d3e 44ad d23d 157f 063d
00000120: 9472 e0bd 24d1 3fbe 4cd6 bbbd 4ce4 38be
00000130: 11c9 c93d 7036 593d e929 4abe c3b4 9c3c
00000140: a898 db3d a205 2cbe 7f51 6d3d c202 8fbe
00000150: f29e 82be 8d63 593e e578 c63d e82d 253c
00000160: 8b11 99bd 1c4b 11be 2f09 a3bd ff20 46be
00000170: d58f ac3c 0965 a93d 7f77 02be b393 523d
00000180: d478 d13e 9c94 20be b9df 08bd aced 53bf
00000190: 3ff4 37bc 2ef4 ae3d cdb2 d0bd a0c3 51be
000001a0: c2db 8c3d 46f2 cdbe b075 8fbe 0f2f e2bd
000001b0: ccd4 c53c 3931 e13d efbb dd3d 9d9f 53bd
000001c0: a9f8 87be a1c7 01bf 6fee 12be 5ac2 2abf
000001d0: 8ed0 413e 3634 343e 1f3b a6bf 99d4 08bf
000001e0: 2cd8 3abc 825c c73e 3818 7cbe 20e1 d1bd
000001f0: 94c9 0cbe 4bbf 74bd bee2 aa3e 7d97 a5bf
00000200: fb65 723f 009e 78be dd17 a63d 3dd9 8b3f
00000210: 5fdb c5be 50f9 07bd d9fe d9bd d714 6bbe
00000220: 91bb 3cbe e28a 9cbf e6ef a03e acaf 01be
00000230: 2d81 e9be 0b85 adbe 3fe5 453d a9ee 6fbe
00000240: ddf1 50be 547a debe c3ee d83d c758 c73f
00000250: 70ea e83e 3956 b73e f355 29be eedb 8cbc
00000260: 5a0a a53e fc1a 6c3e 3934 d53e 6130 86bd
00000270: cd94 023f 64f0 0b3f 8bbc 963d 9231 c2be
00000280: afb3 633e 8b24 b6bd 9fc8 93bc 4b0d 24bf
00000290: 7001 4abd ca04 843e ea22 81bc d267 7e3d
000002a0: 85f7 83bd 2d7d 85be 75c1 33be 1547 d7bd
000002b0: 1602 ad3d 28ca dbba aa03 bd3d 5cba a8bd
000002c0: a382 c7be b4ce 64be bda0 81bc 4038 dabe
000002d0: 222f a33d e001 4c3e 2a2e 5a3e 4e2c cdbd
000002e0: aa30 31bc ea12 f93e b877 11be 968a a8bc
000002f0: 130d f2bc 6447 16bd 81a0 883d 3c6e 5d3e
00000300: cc49 a63d d887 8d3f 751a 81bc 1456 523e
00000310: a3ac 85be 019b 43bf 47c7 47bf 1153 1f3f
00000320: 0419 a0be 6d51 08be a419 cf3d 0af3 cc3e
00000330: 2a5d 9abe bda1 e3be c96c e4be 8ed5 4dbf
00000340: 7337 d13e 1c44 1c3f b267 a63d 306d c43e
00000350: 30f9 f9bd 8a09 c9be 9672 9e3e f96b cc3e
00000360: 5ed9 ec3a a242 11bf bd02 243e d205 1e3e
00000370: 93dd 103d 25b5 d3bb f64e 95be 464e a43e
00000380: 89ea 13bf f6e5 823f 3be1 51bc 9b5d d43e
00000390: 87ec 2e3d 589c fcbe f1e9 96bf ff9f 513f
000003a0: 0aac e4bd 224e 303f 51d8 173e 1396 dc3e
000003b0: 577b 603e e0b6 153c 144d d6be 4657 a8bf
000003c0: 05fb 013e 41a3 543e 90bd 74bd 39ce 0fbf
000003d0: 8b3f b43d dc89 923d 31a0 9abf ee67 713e
000003e0: 2a39 903c 6b2c e8bd 5981 fbbd 9e5c f93c
000003f0: 3b8d 6d3e 2973 333e 74f7 80bc ab65 9ebf
0.50572705 0.606814 0.13571364 1.7595131 0.1728482 -0.20118031 -0.2377517 0.76584196
0.22095554 -0.7190617 0.53200465 0.19813484 0.7140457 0.5956637 -0.40069214 -0.38164416
1.0880572 -0.29342714 0.055527177 0.54994106 -0.2568734 0.16655548 -1.0613034 -0.15339269
-0.08856113 -1.3344147 0.1782103 -0.16786918 -0.09383943 -0.03353132 0.076092 -1.1731838
0.06855151 -0.40098056 0.07485958 0.93027854 0.20883785 0.35017526 0.010630273 -0.032994136
0.17177016 -0.05674485 0.25590435 -0.10935342 0.28789392 0.31851846 0.0707608 -0.12855257
0.15788235 -0.17584503 0.049925245 -0.35301742 -0.14742169 0.21301177 0.12970316 0.031281702
-0.12256954 -0.17278679 -0.102970526 -0.23073107 0.071299024 0.025159925 -0.20535985 0.011270915
0.15866774 -0.18588093 0.05521091 -0.3829763 -0.21182574 0.2002956 0.10286954 0.03283604
-0.10959354 -0.18732125 -0.09171733 -0.18055838 0.098528035 0.05303043 -0.1974255 0.019129163
0.10722476 -0.16799024 0.05793905 -0.27931792 -0.2551189 0.21229382 0.096910276 0.010081746
-0.07474049 -0.14188808 -0.07960736 -0.19348525 0.021064678 0.08271224 -0.12740897 0.05141039
0.40912497 -0.1568169 -0.033416484 -0.82784534 -0.011227666 0.08542667 -0.101903535 -0.20484781
0.06877853 -0.40223902 -0.28019476 -0.11044132 0.024149321 0.109957166 0.10826861 -0.05166589
-0.265569 -0.50695235 -0.14348768 -0.66702807 0.18927214 0.17598042 -1.2986792 -0.534494
-0.011404078 0.38937765 -0.24618614 -0.10248017 -0.13748771 -0.059752744 0.33376116 -1.2936856
0.9468686 -0.24279022 0.0811002 1.0925671 -0.3864393 -0.033196747 -0.106443115 -0.22957169
-0.18430926 -1.2229884 0.31433028 -0.1266467 -0.45606366 -0.33890566 0.04831433 -0.23430885
-0.20404764 -0.43452704 0.10592415 1.5573968 0.45491362 0.3580797 -0.16536693 -0.017194714
0.3223446 0.23057169 0.41641405 -0.06552196 0.510083 0.5466368 0.073601805 -0.37928444
0.22236513 -0.08893689 -0.01804 -0.64082783 -0.049317777 0.25784904 -0.015763719 0.06211073
-0.06443695 -0.26072064 -0.17554267 -0.10511605 0.084476635 -0.0016768621 0.092292145 -0.0823867
-0.38966855 -0.22344476 -0.015823716 -0.4262104 0.07967974 0.1992259 0.21306673 -0.10018216
-0.010814825 0.48647243 -0.14205825 -0.020573895 -0.02954725 -0.036689177 0.06671239 0.21624082
0.081195444 1.1057081 -0.015759686 0.20540649 -0.26108274 -0.7640839 -0.7803845 0.62236124
-0.31269085 -0.13312311 0.101123124 0.40029174 -0.30149204 -0.44459334 -0.44614246 -0.80403984
0.40862617 0.61041427 0.08125247 0.38364553 -0.12205732 -0.3926509 0.30946797 0.39926127
0.0018070152 -0.567423 0.1601667 0.15431908 0.03536756 -0.006460803 -0.29161805 0.32090968
-0.5777975 1.0226429 -0.012810047 0.41477665 0.04270604 -0.4933803 -1.1790143 0.8188476
-0.11165626 0.6886922 0.14828612 0.43083248 0.2192205 0.009137839 -0.4185568 -1.3151634
0.12693413 0.20765401 -0.059751093 -0.56174046 0.08801182 0.07155201 -1.2080137 0.23574802
0.017605383 -0.11336597 -0.122805305 0.030439671 0.23198406 0.17524399 -0.015742995 -1.2374777

layers.0.bias f4 [16]
00000000: 4689 d1be f452 afbe c94c 0d3f a566 f1be
00000010: 3312 a93e 8846 c0be 1949 a93e 04c6 a73e
00000020: 4a7f ccbe c92f a1be 2020 e0bd b3be 033e
00000030: a350 6fbe 456d 833e 661b 823e e884 00bf
-0.40925044 -0.34242976 0.5519529 -0.47148624 0.33021697 -0.3755381 0.33063582 0.3276826
-0.39940864 -0.3148177 -0.10943627 0.12865715 -0.23370604 0.25669304 0.25411528 -0.502028

layers.1.weight f4 [16, 16]
00000000: 9691 07be ee09 573e 3ee5 0ebd b154 c13e
00000010: ed44 823f 8a18 783d c600 bbbe b6e7 b8bd
00000020: 1f4a 583f 4661 7f3e 0877 5d3c 287b 36be
00000030: 9d6c 3fbe bc3c f8bd f6c6 3dbd 755d c93d
00000040: ae6b 13be 8480 713d b276 da3d adbc 863e
00000050: 1dbb 6abe 597d bbbe 3c47 70bf ff21 aabd
00000060: 8d64 fbbe f0ed 0e3f 1b87 e3bd 7754 1abf
00000070: 44cc 023e 8b8a a33d 8246 c43e c9c1 183e
00000080: dd93 bfbd bf98 f43d 0578 37be 4891 4a3e
00000090: d5ad 143f 655b efbd 6a82 73bf 67cd 453e
000000a0: 07e3 de3d f76f 463f 5e9e b4bd ad91 97be
000000b0: c699 96be efe6 fa3c e67b a7bd dee8 01be
000000c0: 771a 2abe 0bf8 6a3d b161 0fbe f9bc 9f3e
000000d0: a314 bd3d f164 dcbd 69d5 62be ba7b 0f3d
000000e0: 52d1 70be 942f 0a3f 3769 97bd 4a3f 243e
000000f0: 7e98 833d fc31 13bc 2346 6cbe 1d21 8f3e
00000100: 3dfc ab3d 66de 1abe ad6b ccbd 9a58 67bf
00000110: 82b9 0cbf 16fc 84be 1396 5b3e 0374 1c3f
00000120: e706 5ebf 7621 043f 4cc7 eb3d 3c76 b53e
00000130: 68ea 1dbe a5fd 203e 4bc3 52bc e4ed 6a3a
00000140: b2f8 363d 7a1f 0fbc cf7f f5bc 61c5 22bf
00000150: 0913 353f cd36 ffbd 29e0 333f bcf2 c93e
00000160: 4b3e 723f cc81 293d ad8b 9ebd 996e 643f
00000170: f668 edbb 245d 0cbe 2b02 02be cea3 393e
00000180: 8910 543e 70d2 023d 3b90 3ebe a241 bfbd
00000190: 68d3 493e f18f 50bf 18bf b73e c243 72be
000001a0: d4d8 3b3f 91dc 8e3e 4008 0cbe 1e1d a7bc
000001b0: ff8a fd3d a6c3 29bc 57a9 cebd e02a 9cbe
000001c0: eeb7 063e b48f 333e 2a6c 73bd d678 e7be
000001d0: 579f 1fbe fac6 35bf b7e7 8abe 7e26 703e
000001e0: 4032 febd cf62 3a3f 4cf4 483a 7798 00bf
000001f0: 1de9 71bd 0be4 403d d39f 8f3e 2dd2 bebd
00000200: e4d6 563e 9016 5bbe a146 d7bd cbd7 99bf
00000210: ea58 813d b627 71bf dc38 383f 6356 073f
00000220: 93f9 0f3f 4d6f c63e 107a b4bd 4992 bb3e
00000230: 5190 963e 6436 0fbe f31c 9a3e 0dda 273d
00000240: 743f a23b b9a9 09be 12c9 943d bd1f b0be
00000250: ef33 e3be ee6e a23e be63 743e 9225 f43e
00000260: 2b53 7fbf 270f 26bd fa03 e0bd 2162 023f
00000270: 7102 02be 50db c83d 6fe9 0a3e e737 bd3e
00000280: 46e9 803e 3dd6 803d 5981 993e 00bf 5abe
00000290: ca5f 2ebe 76e1 61bf 4df5 babe 6a2f 3cbe
000002a0: b923 8a3e 9136 b43e 5cd8 06be a4b3 77bf
000002b0: d58d 8ebc 7217 6b3d c34e f23e 5776 e0bd
000002c0: a96f f43d d726 d13d 0773 2a3e af5b 8fbe
000002d0: 70fe 70bf 6d2a b4be d1d4 3cbf 3594 813d
000002e0: 660a 5ebf 8053 c73c 31b2 5abe f853 86bf
000002f0: 9bfb 40be eb31 a83e 30fe d93e ad82 e4bd
00000300: 84cd 183e 65e4 05bd 4b06 443d 6221 61bf
00000310: 3a65 103e 5087 83bf f9eb 15bd 7256 3c3f
00000320: 868d 8f3e 8d80 923f a1d6 85be bf02 923c
00000330: 2ae4 863d 447c 803d 47f0 893e d4ee be3e
00000340: ef71 ec3c f30f 67bd 0154 ffbb 46e4 69bf
00000350: 2f4f aa3d e47a 5bbf f37f 6f3e f5c8 373f
00000360: c7af c9bd cef5 893f 3322 48be 31f9 9a3e
00000370: 71b8 a6bd c6bb 6ebd 761f 28be e825 1b3d
00000380: 0512 813a 740d 6a3e 96d8 263d 1f37 33be
00000390: 1ceb c53c 1dc8 063f 578d 3c3f 6209 553e
000003a0: 36bd 0cbd 0957 0abf 5680 1a3d 3cae 703f
000003b0: 70b4 babd 3c95 3d3d 3b76 f9be 1228 2bbe
000003c0: 2f5e 3cbe c048 49be e42b a83d dae2 c03e
000003d0: a465 c03e 548c b53d 3257 c1be e569 623d
000003e0: e62d d6bb 76ed 093f 9b38 233d 2587 64bc
000003f0: 9496 17be 7ac0 e6bd 286f 1abf a38b b93e
-0.1323913 0.20999882 -0.03488659 0.37759927 1.0177284 0.060570277 -0.36524028 -0.0902857
0.844881 0.2493945 0.013517149 -0.17820418 -0.18693776 -0.12120959 -0.046332322 0.09832279
-0.14396545 0.058960453 0.106671706 0.26315823 -0.2292294 -0.3661907 -0.93858695 -0.083072655
-0.49100152 0.55831814 -0.11109754 -0.60285133 0.12773234 0.07985409 0.38335043 0.14917673
-0.093543746 0.119431965 -0.17916878 0.19781983 0.58077747 -0.11687354 -0.9512087 0.19316636
0.10883146 0.77514595 -0.08819269 -0.2960333 -0.29414195 0.030627696 -0.081779286 -0.12686488
-0.16611658 0.05736546 -0.1400211 0.31198862 0.09232452 -0.107614405 -0.22151722 0.035030104
-0.2351735 0.5397885 -0.07393115 0.16039768 0.0642557 -0.008984085 -0.2307363 0.2795495
0.0839772 -0.15123901 -0.09981475 -0.9036957 -0.5497056 -0.25973576 0.21443968 0.6111452
-0.8672928 0.5161356 0.11512622 0.35441768 -0.1542145 0.15721758 -0.012863944 0.000896184
0.044670768 -0.008735532 -0.02996817 -0.63582426 0.7073217 -0.12461624 0.70263916 0.39443004
0.946263 0.04138355 -0.07741485 0.8923126 -0.0072451783 -0.13707405 -0.1269614 0.18128893
0.20709433 0.03193897 -0.18609707 -0.0933869 0.19709551 -0.8146964 0.3588798 -0.2365866
0.7337773 0.27902654 -0.13675022 -0.020399626 0.12380027 -0.010361588 -0.10090893 -0.3050146
0.13156101 0.17535287 -0.059429325 -0.45209378 -0.15588127 -0.7100674 -0.2712991 0.23452184
-0.12411928 0.7280702 0.00076657976 -0.5023264 -0.059060205 0.04709248 0.28051624 -0.093174316
0.20980412 -0.21395326 -0.10511518 -1.201898 0.06315787 -0.9420122 0.7196176 0.5286619
0.56240195 0.3875679 -0.08812344 0.36635044 0.2940698 -0.13985592 0.30100212 0.040979434
0.004951412 -0.1344365 0.072649136 -0.34399214 -0.4437556 0.31725258 0.23866174 0.47684914
-0.9973628 -0.040541794 -0.109382585 0.5093098 -0.12696244 0.098074555 0.1356561 0.36956713
0.25177974 0.06290863 0.29981497 -0.21361923 -0.17028728 -0.8823465 -0.36515275 -0.18377462
0.2698038 0.3519788 -0.13168472 -0.96758485 -0.017401615 0.057395406 0.47325715 -0.109600715
0.1193536 0.10212486 0.16645442 -0.27999637 -0.9413824 -0.35188618 -0.7376223 0.063270964
-0.86734617 0.024331808 -0.21357037 -1.0494375 -0.1884598 0.32850584 0.42576742 -0.11157737
0.14922148 -0.032688517 0.047857564 -0.87941563 0.14101115 -1.0275669 -0.036601994 0.73569405
0.2803766 1.144548 -0.2614031 0.017823575 0.065864876 0.06273702 0.2694113 0.37291586
0.028862922 -0.056411695 -0.0077919965 -0.9136394 0.08315884 -0.8573439 0.23388653 0.7179101
-0.0984798 1.0778139 -0.19544296 0.30268243 -0.08140648 -0.058284543 -0.16418251 0.037877947
0.0009847289 0.22856694 0.040733896 -0.17501496 0.02415996 0.526491 0.7365317 0.2080436
-0.034360133 -0.54039055 0.037720047 0.9401586 -0.09116447 0.0462849 -0.48723015 -0.16714504
-0.18395303 -0.19656658 0.082114965 0.37673074 0.37577546 0.08864656 -0.37761837 0.05527677
-0.0065362332 0.5387796 0.039848905 -0.013948237 -0.14803535 -0.11267181 -0.6032586 0.36239347

layers.1.bias f4 [16]
00000000: 8114 473c a0ee 57be d69b 673e 12fb 84be
00000010: 9b46 8ebd 599e bbbd 55ec b5bc db11 403d
00000020: da15 85bd fc80 4cbc 42ea f8bd 7586 c4bd
00000030: ad30 553e b0e8 4dbd 7b5e 3b3e 1b31 3abc
0.012150885 -0.21087122 0.2261804 -0.259728 -0.06947061 -0.09161062 -0.022207418 0.04689203
-0.064983085 -0.012481924 -0.12154056 -0.09595958 0.2081935 -0.050270736 0.1829776 -0.011364247

final.linears.0.weight f4 [112, 56]
00000000: 541a 2b3d e496 c43b f52c 7b3d 2709 843f
00000010: 3daf afbf 1aa7 5dbf 5dbd 093e 396a 473c
00000020: 573e e5bc 2486 78bd 1536 a63c 4765 eebd
00000030: 7adf 9d3c d435 df3c b484 5d3c 05e3 463d
00000040: 7693 973c eeba 82bd 2379 853c ce2e 65bc
00000050: 1968 04bd 4e16 333d 4987 1d3b b268 8b3d
00000060: 3527 e0bc b957 0fbd 7da4 40bd 9861 a0bc
00000070: fded 1b3d b815 82bd b9d4 583c 8956 3d3d
00000080: c990 6bbd ef17 bcbc 4d76 74bc 5823 bebd
00000090: 42ce 89bc 2ab5 00ba 7509 52bd 7825 c7bb
000000a0: fc5f 163e 4129 58bc 081b bcbd 1620 ec3d
000000b0: 762e f23d a77a ba3d 9d8a 1ebe 4094 053e
000000c0: 66e5 b2bd 6769 ae3d aca6 72bc 1e3a 173e
000000d0: fe05 b23d 91f5 be3d 9983 aa3c b258 57be
000000e0: 6c01 013f d3e0 323f 9d11 7dbe c64d a33e
000000f0: 8d09 1b3e 464b 493e 50d3 96bf 0d67 d2be
00000100: cb4f 69bc da1d ddbe 8571 8d3e 13d3 d33c
00000110: f01e 0ebf cf92 b93e c1cd 6dbe 2627 213f
00000120: 4dac 0ebe 300c 19be e00b 0b3f 01b8 a93e
00000130: 9048 b93e cd7b cb3d a3f2 05bf 88be 123f
00000140: b1c8 d23d 93e4 cc3d 9061 92bd 5c57 163d
00000150: c52c cabd 21ac 903d 68a3 97bb 3209 96bd
00000160: 10f0 853d 2a40 893a 7424 043c 779a f8bb
00000170: 4d6e 2fbd 0e57 3ebd 8846 323d ce26 313d
00000180: 14ed bf3c a161 0cbe 0731 a4bc 8c23 4d3d
00000190: 73b2 fb3b 6e71 97bc 2363 303d ff8b cb3d
000001a0: 3c1d 47bd 6705 21bc ad63 253c 2cde edbc
000001b0: e195 453b 708b 4a3c 4f47 8e3d 926c a3bc
000001c0: 7540 21bf d10f c5be 8693 543f e301 33be
000001d0: e864 48be 9e85 89be fb5f bcbe f056 773e
000001e0: ff37 a13b e65d 7ebe e763 ddbe 910f 0a3e
000001f0: 52d4 11bf a0f1 fdbd 155b 103f 18f3 13bf
00000200: 538e 5dbf 0f82 463f 6cbf 343f 49f3 263e
00000210: 1007 78be 7389 12bf 5ac7 9cbe c773 b33d
00000220: 7860 653d f062 ba3d 46cd 4b3d 2a41 f33c
00000230: c1a7 83bd 56cd 07bd 144e dcbc 6527 363b
00000240: a650 5bbd 4179 48be 12bc 9f3d 9d47 c83d
00000250: 0e00 0abd 0d2c e2bc 228b 31bd dfd8 d03d
00000260: 7e8b 9d3d c0cb 82bd 66f3 c43d b5f4 64bd
00000270: d2ac d73c dbc6 913d 7cc8 75bd 2ee1 133d
00000280: f69d bebd 4c3c bb3c d9ce 8ebd ac67 383e
00000290: 1cb7 a23d 2331 19bd 8fc3 b0bc ea98 b63c
000002a0: da31 6d3f 10f6 87bf 6d24 83be ca3c 6f3e
000002b0: 588b 803e 56c3 4e3e bddc a83e 9a8d fdbe
000002c0: bf8f 123f 03ad 923e f9c5 7b3e faff 343f
000002d0: 24dc 363f 6c81 923e 3f71 03bf cf9a 42bf
000002e0: cd27 26bf a852 eabd 5d0c 343f a5ad 10bf
000002f0: 5211 333f 60f7 20be 0428 383f 3de9 50be
00000300: fc3c 61bd 6ffc 8d3d 0e7a 35be 709d b93c
00000310: 2a6e 1bbe 8322 75bd 1fd4 c1bd 85f7 edbd
00000320: feb7 983c 8c16 cbbd 372f 7ebc baf7 683d
00000330: 2015 76bd 9044 2dbe 2df0 f4bd 7fda 843d
00000340: 85f2 cc3d f991 c5bc 6676 11bd e023 a2bd
00000350: 66f9 0bbd f4c2 a33b aa0d caba 6d76 453d
00000360: 3874 953c d040 233d 1ac1 95bd fec4 db3d
00000370: d73e 8a3d 68c1 edbd 333c 803d b001 d9bc
00000380: c290 e7bd 2d9f 2fbe 5bee 493e 5c29 9e3e
00000390: 866f d3be de94 c4be 83b1 773d 4a82 8f3e
000003a0: f659 563d 133e 66bd fe8d 9abc 82cb 37be
000003b0: 63fb 233e cae3 223e eda9 943d 37d6 42be
000003c0: cf80 6d3d baab b23e f8c7 2f3e f0c9 653d
000003d0: 0c55 a13e 9391 b53e 74ff 963e 0cd4 92be
000003e0: ff5f fdbd e1ab d4bd ce50 a1bc 90f3 b2bd
000003f0: a6dc aa3c c19b 63bd 03fd db3d 6a66 fe3d
0.041773155 0.005999433 0.06132217 1.0315293 -1.3725353 -0.865831 0.13451143 0.012171322
-0.027983828 -0.0606748 0.02028946 -0.11640411 0.019271601 0.027247347 0.013520408 0.048556346
0.018502932 -0.0638331 0.016293114 -0.01398821 -0.032325838 0.043722443 0.0024036935 0.068070784
-0.027362445 -0.03499577 -0.04703187 -0.019577786 0.03806876 -0.06351799 0.013234311 0.046225104
-0.057511125 -0.022960631 -0.014920783 -0.09284085 -0.016821984 -0.0004909808 -0.05127855 -0.0060774647
0.14685053 -0.013193429 -0.09184843 0.115295574 0.11825268 0.09105425 -0.15482564 0.13044834
-0.087351605 0.08516198 -0.0148102455 0.14768264 0.08692549 0.09324182 0.020814704 -0.21029928
0.50392795 0.69874305 -0.2471375 0.31895274 0.15140362 0.19657621 -1.1783237 -0.41094247
-0.0142402155 -0.43186837 0.2762567 0.025857484 -0.55515957 0.3624482 -0.2322302 0.6295036
-0.13932915 -0.14946055 0.54314995 0.33148196 0.36188173 0.099357225 -0.5232336 0.5732198
0.10292185 0.100045346 -0.07147515 0.036704406 -0.0987182 0.07064081 -0.004627634 -0.073259726
0.06539929 0.0010471393 0.008065332 -0.007586773 -0.0428298 -0.04646974 0.043524295 0.043249898
0.023428477 -0.13709117 -0.02004291 0.05008273 0.007681185 -0.018486705 0.043063294 0.099388115
-0.048611864 -0.009827948 0.010094565 -0.029036604 0.003014915 0.012362346 0.06947195 -0.019949231
-0.6298898 -0.3848863 0.830376 -0.17481188 -0.19569743 -0.26859754 -0.36791977 0.24154258
0.0049200053 -0.24840507 -0.43240282 0.134825 -0.569646 -0.12399602 0.5638898 -0.57792807
-0.86545295 0.77542204 0.70604587 0.16303743 -0.24221444 -0.5724098 -0.30620843 0.08762317
0.056000203 0.09100902 0.04975631 0.029694159 -0.06428481 -0.033154808 -0.0268927 0.0027794477
-0.05354371 -0.19577505 0.077995434 0.09779284 -0.03369146 -0.027608896 -0.043345578 0.10197615
0.07692622 -0.063865185 0.09616737 -0.055897433 0.026327524 0.07118007 -0.06000565 0.03610342
-0.093074724 0.0228559 -0.06973047 0.18008298 0.079450816 -0.037400376 -0.021577625 0.022289712
0.9265419 -1.0621967 -0.25613728 0.23363033 0.2510631 0.20191702 0.3298091 -0.49522096
0.5725059 0.28647622 0.2458724 0.7070309 0.7142966 0.28614366 -0.51344675 -0.7601747
-0.6490448 -0.11441547 0.70331365 -0.5651496 0.69948304 -0.15719366 0.7193606 -0.20401473
-0.0549898 0.069329135 -0.17722341 0.02265808 -0.15178743 -0.059847366 -0.09464287 -0.11619476
0.018642422 -0.0991641 -0.015514187 0.056876875 -0.06007874 -0.16920686 -0.119598724 0.06486987
0.100071944 -0.024117457 -0.035513304 -0.07916999 -0.03417339 0.0049976055 -0.0015415449 0.048208643
0.018243894 0.039856732 -0.07312222 0.10730933 0.06750267 -0.11609155 0.06261482 -0.026490062
-0.11306907 -0.17150564 0.19719832 0.3089093 -0.41296023 -0.38394827 0.060472023 0.2802909
0.052331887 -0.056211542 -0.018866535 -0.17948726 0.16013865 0.15907207 0.07258973 -0.19027029
0.05798417 0.34896642 0.17166126 0.056100786 0.31510198 0.35462627 0.2949177 -0.28677404
-0.123718254 -0.10384346 -0.019691851 -0.08737862 0.020857166 -0.05556846 0.107416175 0.12421878

final.linears.0.bias f4 [112]
00000000: a1e4 49bf d420 b6bd 0d65 733e 8277 c4bd
00000010: bedb 243d 1111 753d cdf4 7ebe daaa 283e
00000020: 0799 ffbc 920e 4a3e f438 213e cef5 60bd
00000030: 07d6 693e c428 443d c200 313e 8175 963e
00000040: 2ae3 febb f0d9 78be e985 813e 3840 fd3d
00000050: 49fd 083e 088e 76bd 4a7e 8d3d ff6a 773e
00000060: 73eb 8e3e 3daf 003e 8855 73bc ed3f f2be
00000070: 0447 733e b1f3 353d 5a93 e438 60b8 d63d
00000080: 3900 acbe 2dbe fdbe 315b 163d 3112 0fbe
00000090: 5221 2a3e 431c dfbd 8293 483e d9b4 4a3e
000000a0: 49e4 ac3e e97d 473e 0211 a73e c3db 87bd
000000b0: 93f3 8b3d be06 22bd 7d8e 293e 73b0 a93e
000000c0: 0c42 1e3e dd01 23be d4ac c6be 6f87 e43d
000000d0: 118a f63d af4a 883e 4a6c 013e 0873 3bbd
000000e0: 60ee 843e 3065 4cbd 42de de3d dc4b e7bd
000000f0: aca3 823e e6a1 f13d 1bc6 afbe eca7 ae3e
00000100: 74ca cb3d 025a e43a 59bc 37bd c10d 41be
00000110: 5e44 6f3d 06a7 9f3e ec07 123e b325 753e
00000120: 2b2a b3be e632 8abe e2d0 71bb f69c 093e
00000130: 629c 0a3e 6e13 183e 24c8 093e e6f7 44be
00000140: 590e 403e 062c 8a3e 74c3 2ebd 12a7 783e
00000150: 9e53 3d3e d514 80bb ecdf 973e b1c2 783e
00000160: 031e c4bd 1637 6abe 7185 69bd a9c4 e13c
00000170: ff39 a13e c2af fe3b 0750 5e3e 6489 2a3e
00000180: 8c03 be3e adf7 28bd 847a 203e cf55 c83d
00000190: 0c77 1eba be83 153e 7339 ecbc 8069 ad3a
000001a0: f4f2 a63e 762a 77be dda2 c73e 68cb 9e3d
000001b0: e208 3abe 36ad 703d 73c1 dfbe d7ea 7abe
-0.78864485 -0.0889298 0.23769017 -0.09593107 0.040248625 0.05983073 -0.24898072 0.16471425
-0.031200899 0.1973212 0.15744382 -0.054921918 0.22835551 0.04789044 0.17285445 0.29386523
-0.007778545 -0.24301887 0.25297478 0.123657644 0.1337787 -0.060194045 0.06908853 0.2416191
0.27914008 0.12566848 -0.014851935 -0.47314397 0.23757559 0.044421855 0.000108993336 0.104843855
-0.3359392 -0.49559155 0.03670806 -0.13971783 0.16614273 -0.10894062 0.1958752 0.1979555
0.33767918 0.19481625 0.32630163 -0.06633713 0.068335675 -0.03955721 0.16558261 0.33142433
0.15454882 -0.1591868 -0.38803732 0.111586444 0.12038053 0.2661948 0.12638965 -0.045764
0.25963116 -0.049901187 0.10882236 -0.11293766 0.25515497 0.11798458 -0.3433083 0.3411249
0.09950724 0.0017421844 -0.044857357 -0.18852903 0.05841481 0.31182116 0.14260834 0.23940162
-0.3499311 -0.26991957 -0.0036898185 0.13438782 0.13536218 0.14851162 0.13455254 -0.19235191
0.18755473 0.26986712 -0.042666867 0.24282482 0.18488929 -0.0039087334 0.29663026 0.24293019
-0.09576037 -0.22872576 -0.057012025 0.027559595 0.3148956 0.007772417 0.21710216 0.16653973
0.3711208 -0.041251827 0.15671736 0.09781992 -0.0006044961 0.14601037 -0.028835988 0.0013230294
0.32607234 -0.24137291 0.38991442 0.077536404 -0.18167451 0.058758937 -0.43702278 -0.24503647

final.linears.1.weight f4 [112, 112]
00000000: f1f8 923d 38f5 bfbc ec64 42bf f072 85be
00000010: 64f0 c8bd d512 2dbe 87b3 75bd 96e3 6fbe
00000020: ea19 59be 395d 08be 3aa6 0fbd 2454 19be
00000030: aa95 9bbd 96a5 11be bb04 94bc 3329 41be
00000040: 5bb7 37bd 9ee6 093d f7d7 a0be 4e92 ffbd
00000050: 143c 19be f0fd 2abe b2db fcbd 0417 29be
00000060: a99d 95be 2611 0dbe e43c e1bd ed60 3cbc
00000070: 70e7 23be b14c 85be d6db 9ebe cbb4 c4bd
00000080: 7146 06be 811d a93c bf92 36be 07d0 7bbe
00000090: 33e3 57be 1b68 89be 28c0 50be 2f0b e2bd
000000a0: 23fc 4fbe b077 6dbe b7ec 49be 222b 8abe
000000b0: a448 9dbe 46dc 12be c26a 1ebe 9d64 32be
000000c0: f794 aebe 1c7b 77bd ba48 b4bc d6f1 78be
000000d0: 8e83 d1bd 6dbd 7cbe 4c77 cdbe 5f3e a9be
000000e0: 8b9b 56be efac 083c 1243 9fbd 0ced fdbd
000000f0: 829d 2ebe 4b41 8cbe 0710 2e3d 042f 6dbe
00000100: cd7e 1fbf 9c08 76be 405c 10bd 3e02 a4bc
00000110: f291 48be 8845 5abe 7278 a0be ec65 cdbe
00000120: 6cd1 8c3d 1671 063e 9291 34be 37f9 4d3d
00000130: e806 11be f74f 9ebd 5ccf 9fbe 3fdd 82bd
00000140: e5ff 14be 8dc9 20be e570 45be 985e 30be
00000150: 1282 26be 3097 32be cf2c 2cbe 895b 26be
00000160: 91ef 6fbe 1ee6 e5bd fac8 da39 aeef 11be
00000170: d8a3 b5be 3e11 8ebe 6402 bfbd cb0f 4cbe
00000180: 1491 8ebe 0832 e2bd 619e 97be c095 88be
00000190: cdec 36be b948 57be 1cea 51be 194a 24bd
000001a0: 647e 75be 2e77 8f3d 01d1 61be a247 abbe
000001b0: a87a cebd a815 50be 69e3 c73d 5912 72be
000001c0: 5127 fbbe f017 163d 712d 99bd d609 f9bd
000001d0: 9ed8 803e 2190 8abd d40a 5e3e dad2 36be
000001e0: ed0c 3ebe 49a5 18be 4fef 7bbd c117 cabc
000001f0: 10f5 2bbe dd20 00be 691e 093d 51fd d1bd
00000200: 13fb 2b3c 4bc1 ae3e abac 3abe d692 2cbd
00000210: 07bb adbd e7c9 de3e 3ad6 dfbd 5b36 05bd
00000220: b331 7e3d 2ed0 82bd d59a afbd 1291 493e
00000230: c51e f6bc c4a7 23be 1133 ebbd 562d 77bd
00000240: 5730 923d 3ff5 883d d6a5 8cbd 209a 0dbd
00000250: 9e1f 4bbd 8841 14be b018 96bd d95b 90bd
00000260: 7c8d d4be 822a 73bd 681b 61be 68e0 02be
00000270: 6c9f 46be f6c6 95bd 60b1 a5bd 6dd6 10be
00000280: 9a8d 8bbd def5 0c3c 6490 86bd 6933 7fbe
00000290: a9b8 febd 79c2 26be 138a 98bd fff4 d8bd
000002a0: 16cf 3fbd 9981 993d 79ec 59bd 5980 86bd
000002b0: b226 c5bd c0ec e6bd 292f 9b3e 432d 1ebe
000002c0: f2ab a8bd ee4b 3abe ac7d 1abb fd16 fabd
000002d0: 5701 9cbe 815f 4fbd 1618 4dbe 577b 08be
000002e0: 8ba4 803e 8d6e dd3d 695c 20be 0ee1 8f3c
000002f0: 47a3 19bc 9bec 21be 949b 9ebd dcc2 d63d
00000300: e26b d1bc 39f3 a1bd b106 afbd 3118 91be
00000310: f861 83bd 99d1 2abe d093 eb3c cad3 02be
00000320: 8527 68bd c3fb 803d fb68 f53c 7c02 b73d
00000330: af0e f6bd 9c2f 8fbd 0713 c0bd d5bd a9bd
00000340: 09c1 bd3d 5ed1 c13d 9ec7 94bd 01f9 e4bb
00000350: fc9c 97bd fe94 45bd 7b03 a1bd 84c2 453d
00000360: 5d47 f2bd d115 343e 8969 67bd 7ce4 b13d
00000370: ce04 8d3d 3b34 3d3d 1826 68bd c3d0 c13c
00000380: a210 773c 089f 1dbc a219 75be 9268 f8bd
00000390: 1b5d ecbd 4f63 26be 7189 1ebd 4105 40bd
000003a0: 13a1 96be b1e5 73be 4a38 f7bd 9088 14be
000003b0: 1049 9cbd 6031 43be 634e 05be 05c4 52be
000003c0: 3f70 12bc ecae 973d 6fdc 18be 798d afbe
000003d0: fc83 20be ed42 7ebe 0dce 6fbe cc5b d5bd
000003e0: 6c23 cdbd 78b5 84be 1c6b 72be 5f92 a63d
000003f0: 243b ffbd e190 85be 0235 f0be fcc4 8ebe
0.07176388 -0.02343236 -0.75935245 -0.26064253 -0.09811476 -0.16901715 -0.059985664 -0.23426661
-0.21201292 -0.13316812 -0.035070635 -0.14973503 -0.075969055 -0.14223322 -0.018068662 -0.18863373
-0.044852596 0.0336672 -0.31414768 -0.12479077 -0.14964324 -0.16698432 -0.12346591 -0.16512686
-0.29221848 -0.13776073 -0.10997942 -0.011497718 -0.16006255 -0.26035073 -0.31027097 -0.09604796
-0.13112809 0.020643951 -0.17829417 -0.24591075 -0.21082763 -0.2683724 -0.20385802 -0.11037289
-0.20311026 -0.23190188 -0.19719206 -0.26986033 -0.30719483 -0.1434184 -0.15470412 -0.17421193
-0.34098026 -0.06042014 -0.022007335 -0.24311003 -0.1023017 -0.24681635 -0.4013008 -0.33055398
-0.20957772 0.008342012 -0.077764645 -0.12398729 -0.17052272 -0.27393565 0.042495754 -0.23162466
-0.6230286 -0.24026722 -0.035244226 -0.0200206 -0.19586924 -0.21315587 -0.31341892 -0.40116823
0.068758816 0.13129076 -0.17633656 0.050286498 -0.14162791 -0.07730096 -0.3121289 -0.063898556
-0.14550741 -0.15701886 -0.19281347 -0.17223585 -0.16260555 -0.17440486 -0.16813968 -0.16245855
-0.23431231 -0.11225532 0.0004172994 -0.14251587 -0.35476565 -0.2774753 -0.09326628 -0.199279
-0.2784506 -0.11044699 -0.2961302 -0.2667675 -0.1786377 -0.21023835 -0.20499462 -0.040109728
-0.23973995 0.070051536 -0.22052385 -0.3345309 -0.100819886 -0.20320761 0.09760172 -0.23639812
-0.49053434 0.036643922 -0.074793704 -0.12160079 0.25165266 -0.06765772 0.21683818 -0.17853871
-0.18559618 -0.14906801 -0.06150752 -0.02466953 -0.16792703 -0.12512536 0.033476267 -0.102533944
0.0104968725 0.34131846 -0.1822993 -0.04213222 -0.08482938 0.43513414 -0.10929532 -0.03252254
0.062059116 -0.063873634 -0.08574454 0.19684246 -0.030043969 -0.15981966 -0.114843495 -0.06034597
0.07138126 0.06687402 -0.06867568 -0.034570813 -0.0495907 -0.14478123 -0.073289275 -0.070487686
-0.41514194 -0.05936671 -0.21983111 -0.12780917 -0.19396752 -0.073133394 -0.08090472 -0.14144297
-0.06814118 0.008603541 -0.06570509 -0.24921955 -0.12437565 -0.16285123 -0.074482106 -0.10593604
-0.046828352 0.07495422 -0.053204034 -0.06567449 -0.09626521 -0.11275625 0.30309418 -0.15446953
-0.08235921 -0.18193027 -0.0023573441 -0.12211416 -0.30469772 -0.05062819 -0.2002872 -0.133283
0.25125536 0.108121015 -0.15660252 0.01756337 -0.009377307 -0.15812914 -0.07744518 0.10486385
-0.025564138 -0.07907719 -0.08546198 -0.2833877 -0.064151704 -0.16681518 0.028757006 -0.12776104
-0.056678314 0.0629802 0.029957285 0.08936021 -0.120145194 -0.06991503 -0.09378629 -0.08288161
0.09265334 0.09463762 -0.072646365 -0.0069876914 -0.07402989 -0.048237793 -0.07861992 0.048281208
-0.11830018 0.17586447 -0.05649713 0.08686158 0.06885682 0.04619239 -0.056676954 0.023659116
0.015079649 -0.009620436 -0.2393556 -0.1212932 -0.11541196 -0.1624882 -0.038705293 -0.04688001
-0.29419765 -0.23818089 -0.12071283 -0.1450522 -0.07631123 -0.19061804 -0.13018183 -0.20582588
-0.008937894 0.074064106 -0.14927839 -0.34287623 -0.15675348 -0.24830218 -0.23418446 -0.104178995
-0.10016522 -0.259197 -0.23673671 0.08133387 -0.12462452 -0.26087096 -0.46915442 -0.27884662

final.linears.1.bias f4 [112]
00000000: 8d7b 97bd 4f38 adbd 6557 64bd ae7f 11be
00000010: 0a20 0bbf 5333 713d e686 95be 8968 47be
00000020: 764e d2bc c821 52be 0aff 143e 4ca7 30be
00000030: 05cf 28be 7bf7 95be dfd6 87be d76a b0be
00000040: 1457 afbd 2341 c3bd 4fe7 99bd b9ed 003e
00000050: cded 01be 36ee 29be 2c55 21be 4777 07be
00000060: 67c8 d4bd 383b 13bf 6f8a 2abe e486 19be
00000070: 2504 47be 1b2e 363d 822d 4ebe 7bdb dbbd
00000080: de9f e0bd cfa3 42be b390 8abd 66b8 423d
00000090: 9a1a 5dbd e3c6 49be 5c51 49be c9f8 dbbd
000000a0: 4798 73bd b030 42be 3c93 1abe b679 87be
000000b0: 5846 f9bd 77d3 dc3d d52a 54be f5b5 aabd
000000c0: bbe5 7bbe abbe 16bf 9ae7 0dbe bcf0 40be
000000d0: 558e d7bd a92e 53be 2ef4 3bbe 6c62 cc3d
000000e0: 383f e8bd 3c16 35be fba1 1ebe 5d02 4dbd
000000f0: e62c adbe 39d1 9c3b 2398 1abe a699 90bd
00000100: 1706 2dbe 8f61 c7bd b2ff e6bd 88bb debd
00000110: d053 9cbe 107a f3bd c5cf 79be 9e5b bfbd
00000120: c869 a83c 4ee8 1bbe 9b48 2cbe 49b3 16be
00000130: dbc9 fcbd c28f 1bbe 2909 043d c3c7 cabd
00000140: 6e00 5fbe 6858 d9bc 0f50 ffbd f8ab 1cbe
00000150: 3fbf 5c3d 8231 2dbe 4630 69bd 3a10 4b3f
00000160: 50fd 6a3b 2b12 4bbe fbff 81be d033 203c
00000170: a78b c7bd eac8 d73d 1d0f d2bd 0402 c53d
00000180: 0405 e6bd 7eca 19bb d045 27be f4f9 c53d
00000190: 027f 2bbe 1613 0a3e 52d3 343c 3da9 0fbe
000001a0: 21db 093e 87ae 8cbd e9eb f2bc f463 ebbd
000001b0: 4d1e fc3d 4f29 be3d 637b e3bd e65d 8cbe
-0.07396612 -0.08458006 -0.05574741 -0.14208862 -0.5434576 0.058886837 -0.29204482 -0.19473471
-0.025672179 -0.20520699 0.14550415 -0.17251319 -0.16485222 -0.29290375 -0.2653112 -0.34456512
-0.08561531 -0.09533908 -0.07514822 0.12590684 -0.1268837 -0.16594777 -0.15755147 -0.13229094
-0.10389786 -0.57512236 -0.1665437 -0.14992863 -0.19435175 0.044477563 -0.20134547 -0.10735222
-0.10967992 -0.190078 -0.067658804 0.047539137 -0.053980447 -0.19704776 -0.19659942 -0.107408114
-0.059471395 -0.18963885 -0.15095228 -0.26460046 -0.1217162 0.10782521 -0.20719464 -0.08335487
-0.24599354 -0.58884686 -0.1385788 -0.18841833 -0.105251946 -0.20623268 -0.18354866 0.0997971
-0.11340183 -0.17684263 -0.15491478 -0.050051082 -0.33823317 0.0047856835 -0.15097098 -0.07060556
-0.16896854 -0.09735405 -0.11279239 -0.108756125 -0.30532694 -0.11888516 -0.24395664 -0.093436465
0.020558253 -0.15225336 -0.16824572 -0.1471683 -0.123431884 -0.15191558 0.0322353 -0.09901383
-0.21777508 -0.026531413 -0.12466442 -0.15299976 0.053893324 -0.16913417 -0.056930803 0.79321635
0.0035856552 -0.1983115 -0.2539061 0.009777978 -0.097434334 0.10536368 -0.10256789 0.09619525
-0.112314254 -0.0023466642 -0.16335225 0.096668154 -0.16747668 0.13483843 0.011036711 -0.14029403
0.13462497 -0.06869226 -0.029653506 -0.11493674 0.12310467 0.09285223 -0.111075185 -0.2741539

final.linears.2.weight f4 [24, 112]
00000000: 88f7 9f3e f641 c6bc 243c 483e d00c e5be
00000010: 72dc 10bc a732 8b3d 4d7d a23e 57d8 33bd
00000020: 6587 b43d 4650 b4bd 4bf5 ba3d 8100 b53d
00000030: 4649 4bbe 4db3 203e c2f7 45bc c67b edbb
00000040: 66d4 a6bd 2702 a33e d020 8f3d 5d6d dfbd
00000050: b026 13be 5c55 f53c fff0 e0be ec57 0abe
00000060: dd0f 27bd 915d 1d3c 5def b83e d700 bf3e
00000070: cd84 e13e 1210 b9bd 2326 19be 7464 33bd
00000080: 5d30 9fbe 66c3 67bd d7ae b53d 14f4 0abe
00000090: f20a 9f3d bcf5 e1bc 6927 a03d aa99 f33d
000000a0: 6adc 0cbd e818 dbbd aa18 d4bd 1ff0 d9be
000000b0: a94a a2bd 967c 433b a95d 843b a818 b03d
000000c0: 37eb fc3d e12c 0a3a 8fea 2ebe 0735 ad3e
000000d0: 2786 60bd e859 193e 642a 4cbe 7748 b03d
000000e0: ba0b 70bd 9109 8abd cb45 bf3e 9cef 063e
000000f0: 9f2f 513b c413 dcbd 3573 acbd 4951 0bbd
00000100: 415a 71be 46d9 043d 06ee ff3d 8241 173e
00000110: 47ab 2abe a84f 9e3c 18cf 2dbb 61f8 2dbe
00000120: 3e2e c23c f26d bebe 0594 e0bc 9f5d eebd
00000130: a454 253c 34b9 0cbe 7bfd 28bd fe1b c6bd
00000140: c0e4 dd3c 88cd 87bc 0df1 9c3d 0bf6 3fbe
00000150: 9f1a c2bb e049 973e cd2b 453e ce9a eeba
00000160: 644c aebd 1511 28bd 9e34 083c 718e 773d
00000170: eda9 3bbe d01f bbbd d0f6 09be dd41 c93c
00000180: 4393 893d 6a1b b7bd c81b 123f 73ad bcbd
00000190: 3147 e33d 7642 16be 4f48 4a3e aeed b03d
000001a0: 8b23 32be 64c6 83be b79a 5a3d 8d47 b0bd
000001b0: 3f55 a73d 47e6 b83a c515 613e c51c d4bd
000001c0: c7a6 223e 342c b43d 02af b5be c309 93be
000001d0: ec7a eebb c6d4 033d a427 903e de01 2ebe
000001e0: b480 1d3e 36bc dcbe eb6c 3bbc 5761 99be
000001f0: 9518 42be dd9a 2cbc ecc7 7cbc 4cd4 48bc
00000200: b19f 973d ecde 8b3e 7674 9cbd 84d9 e33d
00000210: ea16 37be 4fd6 9dbe f640 32be 848e 2abd
00000220: 3036 a2be 0e9e 0a3a 5c25 703e 49e2 8dbe
00000230: 42d4 f6be 8e0a ba3d 16a9 cb3d e5ec 18bd
00000240: 3af0 7c3e 37e5 74be e991 f9bd b641 1a3e
00000250: 7408 01be 04fa a4bd 1aca f93d 23f0 42bc
00000260: fec7 a63d e059 e23b 4c9e b93d d9ff febc
00000270: 828b 183e bfa7 83bd a35a 97be e647 613d
00000280: 3ee7 4dbd a5db 8abb c044 f93e 9344 fbbd
00000290: 0316 3a3d 066b 17be ec3d 04bc f8df 533d
000002a0: 2b86 2fbd e374 393e 0673 443d dfb3 9e3d
000002b0: e64e 883e bc10 813d 54a4 863e f10a d43d
000002c0: 35ee 0e3e 3ed8 f8bd 7ed4 b6bd 0f81 65bd
000002d0: b90d bc3e 0d1f a9bd fae7 e7ba 1491 9b3d
000002e0: 9b0a dabd ebe2 493e 2444 b63d 0c95 9b3e
000002f0: 540e 133a f124 e1bd 5c6a e33d 2abb 20be
00000300: f456 ffbd 3d14 583c 4fff 0a3c 7f0f a6bd
00000310: e784 e63d f104 453e a5f4 483e 0ece 813a
00000320: 1251 ebbc 96ae 49be 2932 acbb ed8a ecbd
00000330: b726 83be 7728 243e 65b9 293e 580f b8bd
00000340: 4e86 21be 596b e0bc c9ca da3e 3bc7 47be
00000350: fb4b 5e3e ccfe afbc 05d4 89bc 0c92 dc3d
00000360: 50f5 683e 3d5b c43c 79cd c2bc 03ad 85bc
00000370: b487 b3bd bfa6 dc3c 0bf6 793d 0ce7 723d
00000380: 872a a6be efb8 4a3c bc47 39be 9082 4ebe
00000390: c372 7b3c d041 f8bd b97d 7f3e 84f3 71be
000003a0: 6262 9c3d 675d 9dbe 7fe9 bc3d 7444 d0bd
000003b0: 0e1c 57bd 3a45 dc3d 47df c6bc 04b3 e7bb
000003c0: 9685 82bd 2afe 67be 4307 2abe 27fc 19be
000003d0: 2a31 c63e 8fec bcbe 9f01 9a3d 9554 42be
000003e0: 63e9 51bd 8ebe 6e3c 0204 eb3e 7cab 02bc
000003f0: 768a 263e 2490 0e3e e8f5 b0be aa91 883d
0.3124354 -0.024201375 0.19554192 -0.44736338 -0.008841621 0.067967705 0.31736222 -0.04390749
0.08814887 -0.088043734 0.09128817 0.08837987 -0.1985217 0.15693398 -0.012082996 -0.007247421
-0.081459805 0.3183758 0.0698868 -0.10909531 -0.14370227 0.02994793 -0.43933865 -0.13510102
-0.040786613 0.0096048275 0.3612012 0.37305328 0.4404663 -0.09036268 -0.14955954 -0.04379697
-0.31091586 -0.05658283 0.08871239 -0.13569671 0.077657595 -0.027582996 0.07820017 0.118945435
-0.03438989 -0.1069811 -0.10356267 -0.4256601 -0.079243965 0.0029828898 0.0040394855 0.08598453
0.12349551 0.00052709697 -0.17081665 0.3382952 -0.054815438 0.14975703 -0.19938046 0.086075716
-0.058604933 -0.06740106 0.37357935 0.13177341 0.0031919254 -0.107459575 -0.084204115 -0.034013066
-0.23569585 0.03243377 0.12496571 0.14771083 -0.166669 0.019325092 -0.0026521143 -0.1698928
0.02370369 -0.37193257 -0.027414331 -0.116389506 0.010090981 -0.13742524 -0.041257363 -0.09673308
0.027086616 -0.016577497 0.07663164 -0.18746202 -0.0059235836 0.2954855 0.1925499 -0.0018204094
-0.08510664 -0.041031916 0.008313326 0.060438577 -0.1832654 -0.09136927 -0.13473058 0.024567539
0.06717541 -0.08940776 0.5707364 -0.0921277 0.11097563 -0.1467379 0.19754146 0.08639084
-0.17396371 -0.25737298 0.053370204 -0.08607397 0.08170556 0.0014106714 0.2198096 -0.1035705
0.15883933 0.087974936 -0.35485083 -0.28718385 -0.007277837 0.03218534 0.28155243 -0.169929
0.15381128 -0.43112344 -0.011439542 -0.29957077 -0.1895469 -0.010534969 -0.015428524 -0.012257647
0.074035056 0.27318513 -0.07639401 0.11125472 -0.17879835 -0.30827567 -0.17407593 -0.04163982
-0.31681967 0.0005287834 0.23451751 -0.27711704 -0.48208815 0.090840444 0.0994436 -0.037335295
0.24701014 -0.23915564 -0.12186033 0.15064129 -0.12600881 -0.08055499 0.12196751 -0.011898073
0.08143614 0.0069076866 0.09063396 -0.031127857 0.14896968 -0.064284794 -0.29561338 0.05500021
-0.050269358 -0.0042376094 0.48685265 -0.12268939 0.04543115 -0.1478692 -0.008071404 0.051727265
-0.042852562 0.18110995 0.047961257 0.077491514 0.26622695 0.0630202 0.26297247 0.103536494
0.13958056 -0.1215062 -0.089272484 -0.056031283 0.3672922 -0.082578756 -0.0017693036 0.07596031
-0.10646554 0.19715469 0.088997155 0.3038715 0.000560974 -0.10993374 0.11104271 -0.15696397
-0.12467757 0.013188419 0.008483722 -0.081084244 0.11255818 0.19240166 0.19624574 0.0009903328
-0.02872518 -0.19695505 -0.005255003 -0.115499355 -0.25615475 0.16031061 0.16574629 -0.089873016
-0.1577389 -0.027394937 0.42732838 -0.19509594 0.21708672 -0.021483801 -0.016824732 0.10770044
0.2274983 0.023969287 -0.023779618 -0.01631785 -0.08766118 0.02693498 0.06102566 0.059302375
-0.3245432 0.012373193 -0.1809377 -0.20166993 0.015347186 -0.12121928 0.24950303 -0.2362805
0.076359525 -0.30735323 0.09224223 -0.101693064 -0.05251699 0.107553914 -0.024276389 -0.007070901
-0.06373136 -0.2265555 -0.16604333 -0.15037595 0.38709384 -0.3689923 0.075198404 -0.18977578
-0.051247966 0.014571799 0.45901495 -0.007975455 0.16263756 0.13922173 -0.34562612 0.06668408

final.linears.2.bias f4 [24]
00000000: 9fec e43c 0cab b2bd 88e3 9a3c 4c67 023e
00000010: 675a 0bbe c6c5 36be 4b5a 36bd e577 c7bc
00000020: 2988 3fbd 8ab1 603c b461 2b3d b334 9ebc
00000030: 1416 36bd 493e 64bc d107 a83b d5b5 0f3d
00000040: 8874 05bc e7bc 71bc d1f6 92bd 3b63 f63c
00000050: b11b dbbb 2dbe 03bd 2553 cb3c 117b 1bbc
0.027944861 -0.08724031 0.018907323 0.12734717 -0.13608705 -0.17848882 -0.044519704 -0.024349162
-0.04676071 0.013714204 0.041841224 -0.019312238 -0.04445465 -0.013930866 0.005127885 0.035085518
-0.008145459 -0.0147545105 -0.07175983 0.030076614 -0.0066866507 -0.032163788 0.02481992 -0.009489791

layers.0.attn.0.gnn_q.weight f4 [24, 16]
00000000: 7224 9538 0283 f336 2cbb 8eb5 3891 17b7
00000010: 0c49 4db8 d6c4 c638 20e2 25b7 528f f336
00000020: 96ab f138 dfe7 bcb8 fda4 f336 bd9c b038
00000030: 2a18 75b2 69b9 6fb8 c639 2e37 4a63 d437
00000040: c70b af39 1961 1c38 ef98 2ab8 c532 3eb8
00000050: 6cb9 17b9 eeff 9d39 c8c7 11b8 bd26 c137
00000060: 1b26 9639 6784 18ba b244 a037 29e7 8539
00000070: 442b eab2 abf7 57b9 8efb e037 7b0c a838
00000080: 8cb5 4e38 8f58 c336 b4e0 f137 be1e adb6
00000090: 14a1 f6b7 05ca 0f38 87bc ceb6 3f6f b236
000000a0: 9e1e c239 eba7 00ba f0e9 d836 40fc b337
000000b0: a92b 06b2 221c 2ab8 ec9e 0937 d97b e436
000000c0: 3665 0bba 8b5e ffb8 ac88 5db9 30c7 d838
000000d0: b218 1339 6e9b 46ba 2ca7 8338 b529 beb7
000000e0: 5f2f f5ba 44c2 cf3b 5137 8cb7 4e9c d2b8
000000f0: 866c 3934 3aed 6b39 8b09 0bb8 a114 ecb8
00000100: 6ff0 8539 64de da37 49ea 40b7 4f8e 0fb8
00000110: 48c5 f2b8 ac32 8e39 2d55 eeb7 a073 9237
00000120: 1084 193a 35a6 71ba b0fd 7537 f11a 1539
00000130: 7fa8 e4b2 6c57 21b9 fd40 b337 f6f2 6d38
00000140: 8e6c 2d3a f46a 9e38 3bdb c4b7 33f2 cdb8
00000150: d824 9db9 0dbc 2c3a 12bf 8bb8 eb41 3e38
00000160: 03a8 993a 36e1 e8ba 6d30 1f38 0f88 d239
00000170: 1834 a5b3 71da d9b9 46d5 5e38 ff08 1839
00000180: ce28 2db9 6c3b 14b7 0abf 1b36 1b41 b437
00000190: d47d a338 74f5 18b9 f54c 8437 2f2e 3db7
000001a0: b459 bab9 01b8 043a 0f84 0db7 ac64 aeb8
000001b0: 4fb0 d731 d67c d938 a7eb 62b7 8f38 deb7
000001c0: e67a 8b37 1714 fd36 52c9 bcb7 758a 9bb6
000001d0: 5952 9037 b678 2e38 7da8 59b5 45c5 4db6
000001e0: fccf b5b8 3185 0cb8 9e13 3ab6 bb44 32b8
000001f0: d392 16b2 4f23 c336 0d7a 87b6 5dcf 8b35
00000200: 4bcc 71b6 8e23 ef35 4530 9736 905a 1437
00000210: c89c 35b6 966b 44b8 f086 cab5 a9d9 5f36
00000220: 08b4 6b39 ca77 71b8 f02f a435 19d5 8637
00000230: 73df 5a32 ea5e f8b7 b531 1536 c157 8936
00000240: 6c1e 3db9 6684 a9b7 9654 3237 84f7 b637
00000250: 28c2 ba38 4e4d 33b9 1dcd b837 dcac 5db7
00000260: 4e6e c2b9 d9d6 0a3a 154f 29b7 6a19 08b9
00000270: 6051 ad32 d494 fb38 7ce9 8cb7 3e51 2ab8
00000280: 544d 3ab9 a677 68b7 e0a1 08b8 135a 7437
00000290: 72ee b038 ea0e 24b9 6db8 9a37 e647 55b7
000002a0: 90ab 7eba 03e7 9f3a ed67 33b7 3448 fcb7
000002b0: 232f 0133 6982 c138 aa58 71b7 f8ec 10b8
000002c0: 1e74 6838 14c8 ba36 9854 80b7 ac88 58b7
000002d0: 9646 c2b6 9f65 3f38 c883 d5b5 9e2e ecb4
000002e0: 7fb6 48b9 1b65 1d39 8223 cc35 cf38 1438
000002f0: a435 ef30 e16b 0bb8 1a46 30b6 31ad 1c37
00000300: 2263 24b8 48bf e036 55a3 d2b7 4181 9a35
00000310: 797f 0538 f001 cfb7 8a67 0c36 12b4 90b6
00000320: 6d35 9bb9 e812 aa39 70fe 3bb6 6e62 11b8
00000330: dce2 b8b1 a0b9 be37 503f a5b6 6000 92b6
00000340: 460a 04b8 799a c9b5 1a38 13b6 fe43 2d37
00000350: 8510 b937 fcce d5b8 1c54 a536 1708 35b6
00000360: 5703 d1b8 e5c1 1f39 33bf 1fb6 a7f6 04b8
00000370: 5115 d931 ab4c 1e38 6892 81b6 b088 29b7
00000380: 13b3 7a39 16c9 f137 ca58 0bb8 9f32 26b8
00000390: ffe8 dab8 bb73 8539 e2ef d2b7 3255 8d37
000003a0: b8e6 5a39 6491 e7b9 0459 6d37 8397 1739
000003b0: b96a 94b2 8a00 1eb9 cde1 9037 a6a6 6b38
000003c0: e3a7 d738 3628 fb36 3edb 6e37 0b2d 84b7
000003d0: f67a a4b8 7752 bc38 3092 36b7 a727 4137
000003e0: a6e7 8239 32e5 9cb9 1864 f136 7693 d138
000003f0: facc 2cb2 7936 b3b8 f9ea 3f37 b597 e637
7.111662e-05 7.2572157e-06 -1.0634299e-06 -9.034113e-06 -4.894384e-05 9.478039e-05 -9.887415e-06 7.258649e-06
0.00011523736 -9.007728e-05 7.2611715e-06 8.421529e-05 -1.4266371e-08 -5.7154717e-05 1.038466e-05 2.5318604e-05
0.00033387376 3.7283728e-05 -4.067359e-05 -4.5346813e-05 -0.00014469557 0.00030136056 -3.4756755e-05 2.3025432e-05
0.0002863862 -0.00058180693 1.9105475e-05 0.00025539965 -2.726086e-08 -0.00020596261 2.682002e-05 8.013189e-05
4.9283306e-05 5.8217624e-06 2.8834074e-05 -5.1593806e-06 -2.9400493e-05 3.4282002e-05 -6.161226e-06 5.317764e-06
0.00037025375 -0.0004907834 6.4645355e-06 2.1455926e-05 -7.809754e-09 -4.055736e-05 8.202838e-06 6.8093473e-06
-0.0005317511 -0.000121769575 -0.00021127117 0.00010336784 0.00014028212 -0.00075762614 6.277705e-05 -2.2669186e-05
-0.0018706134 0.006340297 -1.671506e-05 -0.00010042694 1.7268948e-07 0.0002249972 -3.314907e-05 -0.000112571994
0.00025546874 2.6091184e-05 -1.1498641e-05 -3.4226392e-05 -0.00011576206 0.00027122104 -2.8411474e-05 1.7458398e-05
0.00058561657 -0.0009218187 1.4662204e-05 0.00014219784 -2.6619317e-08 -0.00015386724 2.1368725e-05 5.673148e-05
0.0006615602 7.553949e-05 -2.3467108e-05 -9.820275e-05 -0.00029972824 0.0006589301 -6.663626e-05 4.536092e-05
0.0011723045 -0.0017767313 3.7953654e-05 0.00040155693 -7.692887e-08 -0.00041552217 5.312755e-05 0.00014499201
-0.00016513767 -8.835323e-06 2.3208e-06 2.148799e-05 7.795883e-05 -0.00014587288 1.5771462e-05 -1.1276031e-05
-0.0003554352 0.0005062819 -8.435002e-06 -8.315718e-05 6.2773675e-09 0.00010370619 -1.3525517e-05 -2.64908e-05
1.662732e-05 7.5423263e-06 -2.2505094e-05 -4.6354785e-06 1.7204484e-05 4.1597254e-05 -8.108398e-07 -3.0662206e-06
-8.669493e-05 -3.3502645e-05 -2.7727579e-06 -4.2502517e-05 -8.764533e-09 5.8155633e-06 -4.037522e-06 1.0416658e-06
-3.6030713e-06 1.7817235e-06 4.50577e-06 8.842573e-06 -2.706236e-06 -4.683024e-05 -1.5089445e-06 3.3356284e-06
0.00022478413 -5.757044e-05 1.2232904e-06 1.6073276e-05 1.27400765e-08 -2.9608102e-05 2.2231663e-06 4.093134e-06
-0.00018035778 -2.0208023e-05 1.0629321e-05 2.181135e-05 8.9053356e-05 -0.00017099569 2.2030023e-05 -1.32128735e-05
-0.00037084747 0.0005296297 -1.0091598e-05 -0.00012979438 2.0176856e-08 0.00011996334 -1.6798025e-05 -4.060682e-05
-0.00017767149 -1.3856135e-05 -3.2575685e-05 1.4564505e-05 8.436748e-05 -0.00015645815 1.844411e-05 -1.27125295e-05
-0.0009714896 0.0012199584 -1.06934285e-05 -3.0074363e-05 3.0078024e-08 9.227248e-05 -1.4385363e-05 -3.455297e-05
5.5421253e-05 5.566524e-06 -1.5298181e-05 -1.2906425e-05 -5.789868e-06 4.563259e-05 -1.590809e-06 -4.3992344e-07
-0.00019141471 0.00015010351 1.5209519e-06 3.5338857e-05 1.7404784e-09 -3.3240653e-05 -2.6266848e-06 9.338649e-06
-3.919297e-05 6.6979883e-06 -2.5110008e-05 1.1511512e-06 3.182839e-05 -2.4677225e-05 2.0921893e-06 -4.3124974e-06
-0.0002960371 0.00032439013 -2.8013274e-06 -3.4662364e-05 -5.3808957e-09 2.2736203e-05 -4.9247537e-06 -4.3511827e-06
-3.148082e-05 -1.5020624e-06 -2.1937362e-06 1.0327434e-05 2.2061411e-05 -0.00010195185 4.927175e-06 -2.697581e-06
-9.966519e-05 0.00015235653 -2.380414e-06 -3.1700965e-05 6.3179546e-09 3.7741538e-05 -3.8615435e-06 -1.010501e-05
0.00023908568 2.8823077e-05 -3.3222874e-05 -3.962463e-05 -0.00010438449 0.00025453963 -2.5145655e-05 1.6848182e-05
0.0002087605 -0.00044168078 1.4147026e-05 0.00014456925 -1.7278e-08 -0.00015068255 1.7271284e-05 5.618357e-05
0.0001028327 7.485064e-06 1.4236952e-05 -1.5756601e-05 -7.843033e-05 8.979899e-05 -1.0882082e-05 1.1512929e-05
0.00024968124 -0.00029925402 7.194012e-06 9.993363e-05 -1.0058324e-08 -8.5455315e-05 1.1439196e-05 2.748878e-05

layers.0.attn.0.gnn_q.bias f4 [16]
00000000: 3d59 663b e4d9 4c3a 58cf fdba eed8 f9b9
00000010: bd2b 08ba cea7 873b 1f3a d3b9 066a 0339
00000020: 62a7 58bb 1461 3539 2acc bc38 8d31 813a
00000030: 0bf5 c2b4 28b8 d6ba 8435 e738 d332 673a
0.0035148405 0.00078144507 -0.0019364161 -0.00047654606 -0.0005194506 0.004139877 -0.0004028836 0.0001253263
-0.0033058752 0.0001729767 9.002567e-05 0.0009856686 -3.6313608e-07 -0.0016381787 0.000110249064 0.0008819524
