checkpoints/cyp2c19_veith_40_train1_neg/Aug30-04:37:17_400.pth (torch, 471359 bytes, 294 tensors)

layers.0.weight f4 [24, 16]
0.7468016 1.1804742 0.26998922 1.9362493 0.121834174 -0.06550889 -0.28572094 0.95107925
0.19438523 -0.76371956 1.1951096 0.10002244 1.0826088 1.1231316 -0.4224592 -0.32806548
1.6980547 -0.39333025 -0.045938663 0.47172382 -0.14822544 0.2779602 -1.0855173 -0.32416826
-0.07923277 -1.7829256 0.2924087 -0.17624739 -0.01333266 0.0053699487 0.1342896 -1.2045715
0.13536991 -0.7215158 0.070171356 1.1390374 0.09755355 0.31393453 -0.059831437 -0.551751
0.1487322 -0.13870992 0.7124693 -0.18567376 0.56728214 0.6155188 0.09920634 -0.08692804
0.05582502 -0.11520029 0.055493735 -0.12058152 -0.16239291 0.31249085 0.045012105 -0.042058155
-0.19920619 -0.10278917 -0.047909003 -0.13451126 0.008213919 0.045055896 -0.3806171 0.006954615
0.038988404 -0.110504314 0.02137012 -0.1180055 -0.31134924 0.22621277 0.03335944 -0.0629084
-0.20454761 -0.08619917 -0.05599755 -0.17180675 0.05055176 0.08915976 -0.32472643 0.017787617
0.035319656 -0.06639532 0.122869566 -0.09157995 -0.3697112 0.1978376 0.037058663 -0.011139369
-0.1459367 -0.068762384 -0.02527375 -0.064484626 0.039928276 0.090892985 -0.031186793 0.023430651
0.13037908 -0.0012392655 0.0012121486 -0.16096881 -0.075377494 0.06477046 0.03671857 -0.0012140005
-0.05550041 -0.12832066 -0.108740516 -0.018357858 0.092123926 0.09878551 0.04542039 0.039268702
-0.34584042 -0.6158909 -0.1460963 -0.97267884 -0.012559072 0.1516825 -1.2246625 -0.50219905
-0.085645795 0.35154277 -0.594683 -0.11548143 0.10298616 0.10849805 0.22950739 -1.3496735
1.2136893 -0.12049268 0.14568844 1.2304629 -0.067136586 -0.004792681 -0.13626987 -0.116647355
0.07314439 -1.2501558 0.76922876 0.026702845 -0.61183804 -0.63333434 0.009700683 -0.12861663
-0.28677237 -0.47118437 0.18581876 1.6033034 0.24038333 0.20704386 -0.22971931 -0.37673038
0.26974592 0.328069 0.98736477 -0.105547704 0.6051919 0.6267269 -0.029925808 -0.25881782
0.17466824 -0.060515955 -0.05284305 -0.23257113 -0.06567237 0.100193895 0.057033654 -0.02502275
-0.10949246 -0.19103925 -0.137128 -0.033342145 0.06922401 0.04480884 -0.04614787 0.048993845
0.04655154 -0.020155594 -0.03274166 -0.3197861 -0.0500666 -0.030148221 0.1429808 0.0076196743
-0.028305724 -0.051691152 -0.1912468 0.00303077 0.026212584 0.04769606 0.09224585 0.16990905
-0.019998372 1.3891495 -0.057607077 -0.116843216 -0.2426896 -0.5679142 -0.8119757 1.0821699
-0.22915107 -0.0074479757 -0.064520456 0.38841322 -0.8981037 -0.9425433 -0.34638762 -0.9109495
0.5636367 0.87322354 0.06524823 0.22832763 -0.11716618 -0.22219557 0.32841298 0.6838906
-0.023952488 -0.5801449 0.15924641 0.14893705 -0.18592456 -0.2113216 -0.17003019 0.33910275
-0.7517564 1.5427842 0.03163225 0.35017398 -0.06068207 -0.50783116 -1.1042082 1.2404485
-0.11053333 0.73192644 0.24348778 0.35248777 0.066550076 0.044143613 -0.41955546 -1.2248054
0.42204326 0.20598309 -0.18289813 -0.8298372 0.002071629 0.1480803 -1.090434 0.15148212
-0.13984184 -0.43214902 -0.5124678 -0.12692973 0.63741803 0.66628736 0.021838017 -1.1595744
00000000: 642e 3f3f c719 973f 073c 8a3e 04d7 f73f
00000010: 3284 f93d 8629 86bd 044a 92be ee79 733f
00000020: ec0c 473e 2083 43bf 5af9 983f 91d8 cc3d
00000030: ed92 8a3f c7c2 8f3f 924c d8be 33f8 a7be
00000040: db59 d93f 9562 c9be 2e2a 3cbd c985 f13e
00000050: 69c8 17be cd50 8e3e 3bf2 8abf 62f9 a5be
00000060: ca44 a2bd e836 e4bf 98b6 953e 327a 34be
00000070: 3b71 5abc 65f6 af3b 3783 093e 662f 9abf
00000080: 699e 0a3e 42b5 38bf 00b6 8f3d facb 913f
00000090: 28ca c73d 07bc a03e cf11 75bd 8e3f 0dbf
000000a0: 414d 183e f909 0ebe 6364 363f 4321 3ebe
000000b0: 6739 113f a492 1d3f b22c cb3d 5407 b2bd
000000c0: c7a8 643d 21ee ebbd 664d 633d 72f3 f6bd
000000d0: 544a 26be cdfe 9f3e 9d5e 383d 2c45 2cbd
000000e0: b5fc 4bbe 2183 d2bd 3b3c 44bd 52bd 09be
000000f0: ac93 063c 888c 383d 3fe0 c2be 8ae3 e33b
00000100: 4eb2 1f3d 1650 e2bd 6410 af3c deac f1bd
00000110: 2b69 9fbe 52a4 673e e8a3 083d 1fd6 80bd
00000120: ee74 51be 3189 b0bd b05d 65bd 1cee 2fbe
00000130: 5d0f 4f3d 6499 b63d 8b42 a6be 56b7 913c
00000140: 58ab 103d 45fa 87bd 0aa3 fb3d 458e bbbd
00000150: c94a bdbe f195 4a3e d3ca 173d e681 36bc
00000160: 6e70 15be 4bd3 8cbd e50a cfbc 8410 84bd
00000170: d58b 233d 1a26 ba3d 727b ffbc a3f1 bf3c
00000180: 1882 053e da6e a2ba f5e0 9e3a 02d5 24be
00000190: 845f 9abd 60a6 843d 3666 163d 191f 9fba
000001a0: 6654 63bd 7e66 03be 59b3 debd 3863 96bc
000001b0: 78ab bc3d 0f50 ca3d bb0a 3a3d 38d8 203d
000001c0: ff11 b1be 07ab 1dbf 459a 15be 7b01 79bf
000001d0: 91c4 4dbc a852 1b3e bec1 9cbf 1e90 00bf
000001e0: 1067 afbd 6afd b33e 253d 18bf 8781 ecbd
000001f0: 68ea d23d 3a34 de3d fc03 6b3e 1ac2 acbf
00000200: 2c5a 9b3f dec4 f6bd 5a2f 153e cf7f 9d3f
00000210: e87e 89bd ec0b 9dbb 548a 0bbe cfe4 eebd
00000220: bacc 953d 1b05 a0bf 2dec 443f edbf da3c
00000230: 6ba1 1cbf 3322 22bf 9def 1e3c 14b4 03be
00000240: d4d3 92be 143f f1be 4647 3e3e 0c39 cd3f
00000250: 0c27 763e 4e03 543e 8a3b 6bbe cee2 c0be
00000260: 231c 8a3e a9f8 a73e f0c3 7c3f 6529 d8bd
00000270: dbed 1a3f 2d71 203f f826 f5bc c583 84be
00000280: 3bdc 323e 94df 77bd f471 58bd 2027 6ebe
00000290: 3c7f 86bd 7532 cd3d 1f9c 693d 83fc ccbc
000002a0: 953d e0bd cb9f 43be 486b 0cbe c691 08bd
000002b0: 51c5 8d3d 7989 373d 8d05 3dbd c5ad 483d
000002c0: d4ac 3e3d 581d a5bc 1e1c 06bd 01bb a3be
000002d0: a312 4dbd 67f9 f6bc 8f69 123e 76ae f93b
000002e0: 68e1 e7bc 1aba 53bd 33d6 43be e29f 463b
000002f0: c6bb d63c f25c 433d 64eb bc3d a3fc 2d3e
00000300: a0d3 a3bc a7cf b13f 66f5 6bbd 7f4b efbd
00000310: 9f83 78be d362 11bf a4dd 4fbf 8b84 8a3f
00000320: 94a6 6abe 260e f4bb 4d23 84bd 19de c63e
00000330: 20ea 65bf 854a 71bf b859 b1be fd33 69bf
00000340: 7f4a 103f 948b 5f3f dda0 853d b8ce 693e
00000350: d2f4 efbd 3c87 63be bf25 a83e 7413 2f3f
00000360: 0238 c4bc 6084 14bf 7e11 233e f482 183e
00000370: 0263 3ebe b164 58be 651c 2ebe e09e ad3e
00000380: 1c73 40bf f479 c53f d190 013d 014a b33e
00000390: c38d 78bd 3901 02bf b256 8dbf 04c7 9e3f
000003a0: 4c5f e2bd 885f 3b3f dc54 793e 4779 b43e
000003b0: 684b 883d efcf 343d f9cf d6be 6cc6 9cbf
000003c0: 0e16 d83e 3bed 523e a649 3bbe 3670 54bf
000003d0: 2bc4 073b 5da2 173e 5793 8bbf 211e 1b3e
000003e0: b332 0fbe a342 ddbe 1731 03bf def9 01be
000003f0: d42d 233f cf91 2a3f a4e5 b23c ef6c 94bf

layers.0.bias f4 [16]
-0.33816454 -0.30386505 0.7449886 -0.4352336 0.3740896 -0.38879427 0.21559078 0.24319789
-0.5085082 -0.22809581 0.09159725 -0.019144667 -0.24482241 0.2669494 0.37658826 -0.35345012
00000000: e723 adbe 3394 9bbe 93b7 3e3f f0d6 debe
00000010: ac88 bf3e 0b10 c7be d4c3 5c3e de08 793e
00000020: 982d 02bf f391 69be 5797 bb3d 47d5 9cbc
00000030: bab2 7abe 97ad 883e 2dd0 c03e 6af7 b4be

layers.1.weight f4 [16, 16]
-0.2001464 0.10411584 0.3002236 0.3831153 1.4358906 0.122502096 -0.49769732 -0.03318662
0.80993134 0.270914 -0.068796605 -0.21537217 -0.16216359 -0.029935487 0.06109858 0.32468483
-0.19529977 -0.2782973 0.22803421 0.27087018 -0.1947568 -0.29887694 -1.1684582 -0.055008862
-0.44478709 0.60017645 -0.04011001 -0.64709747 0.04833828 -0.21234004 -0.21135186 0.25029892
-0.21580449 -0.2657814 -0.15299138 0.2691328 0.64280933 -0.04849891 -0.8729444 0.24997586
-0.044654135 0.80802214 -0.009932843 -0.14857344 -0.42471936 0.10288315 0.25940937 0.20200978
-0.24572577 0.020576036 0.2001483 0.34061173 0.15495716 -0.05812497 -0.2976279 0.048983153
-0.29326242 0.65440035 -0.08347974 0.17159101 0.00990123 -0.05319288 -0.16113302 0.42969286
0.07333012 -0.13763052 -0.18397945 -0.5026388 -0.4361635 -0.27413833 0.24339305 0.5862704
-0.6306937 0.46878445 -0.041426368 0.42253622 -0.10668775 -0.10788738 -0.16297853 0.2379355
0.19423333 -0.19030942 0.17371406 -0.5542145 0.54682344 -0.10006845 0.8038674 0.40538147
0.66390586 0.0004327991 0.16340037 0.82519215 -0.073326394 -0.39351934 -0.0435773 0.14625092
0.22977689 0.13928789 -0.2509843 -0.01546711 0.124434136 -0.9102415 0.44781205 -0.3216811
0.6488451 0.3104403 -0.11467877 0.032895274 0.13653773 0.03282599 -0.10597665 -0.42070076
0.24144532 -0.2134005 -0.30608925 -0.40905252 -0.23093815 -0.7968911 -0.24226013 0.14292078
-0.022382211 0.58525574 0.086686894 -0.8236129 0.02446416 -0.23624432 -0.06046912 -0.18872064
0.22210929 -0.56320316 0.08944576 -1.1012372 -0.012441094 -0.94186985 0.713444 0.48408976
0.6009302 0.28820503 -0.20938674 0.19491798 0.28238252 -0.13115424 0.55053246 -0.12218508
-0.09760819 -0.17405859 0.28275526 -0.21421404 -0.5417125 0.36641985 0.18747333 0.45504397
-1.2443008 0.020696532 0.008790875 0.50569975 -0.08178867 -0.0134305265 -0.08627918 0.4181706
0.35022655 0.10569302 -0.18816003 -0.22858128 -0.23506044 -0.95624506 -0.03815214 -0.23501116
0.28491563 0.32596305 -0.12604322 -0.65841454 0.08983865 -0.007462641 -0.15140563 -0.41388738
-0.07858784 0.65237546 0.2691777 -0.013421197 -0.7050968 -0.25406644 -0.7085366 -0.1352124
-0.48563725 -0.027750641 -0.3206601 -0.94004303 -0.1976464 0.73131377 0.52936125 -0.18649949
0.1921023 0.13981955 0.3491791 -0.694189 0.21970348 -0.94805765 -0.051981818 1.057676
0.14984596 1.1968981 -0.22682613 0.08017062 0.02272176 0.17174165 0.01818976 0.4703455
0.2782314 0.1497298 -0.29534322 -1.1883237 -0.032999076 -1.0730865 0.3892937 0.5419303
0.07019344 0.923292 -0.022305662 0.25818923 -0.050081555 0.07775964 0.09356702 0.0036819954
-0.090008765 -0.17607087 -0.119544476 -0.048578404 0.14047547 0.46535808 0.7064405 0.07419669
0.08041753 -0.38957325 0.12678863 0.8269377 0.019147182 -0.25560865 -0.47506833 -0.039417647
-0.19791768 0.028568644 0.27706912 0.4589372 0.39396957 0.014763277 -0.3583303 -0.055215877
-0.09174029 0.62368774 0.012188203 0.03708002 -0.12215442 -0.04484945 -0.08454975 0.43594375
00000000: 2ef3 4cbe af3a d53d e8b6 993e b027 c43e
00000010: 43cb b73f 61e2 fa3d 2fd2 febe b1ee 07bd
00000020: a957 4f3f 3db5 8a3e 3ce5 8cbd 868a 5cbe
00000030: 360e 26be 443b f5bc 8142 7a3d 173d a63e
00000040: aafc 47be fc7c 8ebe cd81 693e 7faf 8a3e
00000050: 546e 47be 6606 99be 0a90 95bf f950 61bd
00000060: 22bb e3be 2aa5 193f 654a 24bd 2ea8 25bf
00000070: 5cfe 453d ab6f 59be 9f6c 58be 2e27 803e
00000080: dafb 5cbe 8014 88be c6a9 1cbe c6cb 893e
00000090: 278f 243f cba6 46bd 4979 5fbf acf9 7f3e
000000a0: 41e7 36bd 8ada 4e3f 5dbd 22bc a323 18be
000000b0: d174 d9be 67b4 d23d 4ed1 843e a7db 4e3e
000000c0: 899f 7bbe 138f a83c adf3 4c3e a964 ae3e
000000d0: 17ad 1e3e 7314 6ebd af62 98be 8fa2 483d
000000e0: 7e26 96be c886 273f 6df7 aabd 8eb5 2f3e
000000f0: c538 223c c7e0 59bd 0e00 25be b400 dc3e
00000100: 1a2e 963d 04ef 0cbe 1c65 3cbe f0ac 00bf
00000110: d350 dfbe dc5b 8cbe 073c 793e d115 163f
00000120: 2475 21bf 8404 f03e b2ae 29bd ab56 d83e
00000130: 1b7f dabd 0ff4 dcbd d8e3 26be 5da5 733e
00000140: 1ae5 463e 79e0 42be 19e2 313e 00e1 0dbf
00000150: 9ffc 0b3f b0f0 ccbd 41ca 4d3f 298e cf3e
00000160: bcf5 293f 50e9 e239 6d52 273e cb3f 533f
00000170: 262c 96bd 5e7b c9be 1c7e 32bd cdc2 153e
00000180: a24a 6b3e 7ca1 0e3e 0481 80be c369 7dbc
00000190: 53d7 fe3d 9605 69bf 9f47 e53e 63b3 a4be
000001a0: b61a 263f 08f2 9e3e b4dc eabd 32bd 063d
000001b0: 8cd0 0b3e 8c74 063d 490a d9bd 1766 d7be
000001c0: 713d 773e a985 5abe bbb7 9cbe 556f d1be
000001d0: 0d7b 6cbe 0e01 4cbf 0a13 78be d359 123e
000001e0: e65a b7bc 52d3 153f e688 b13d 4cd8 52bf
000001f0: 1069 c83c 08ea 71be 78ae 77bd fc3f 41be
00000200: 9e70 633e 152e 10bf 572f b73d 57f5 8cbf
00000210: bbd5 4bbc 621e 71bf 44a4 363f 9dda f73e
00000220: 90d6 193f 9c8f 933e 7a69 56be 9498 473e
00000230: 7194 903e 4c4d 06be b2ef 0c3f 2c3c fabd
00000240: cde6 c7bd 6a3c 32be 4cc5 903e ed5a 5bbe
00000250: acad 0abf 629b bb3e 02f9 3f3e 86fb e83e
00000260: 4045 9fbf c68b a93c 9a07 103c 8a75 013f
00000270: d180 a7bd b60b 5cbc 24b3 b0bd 751a d63e
00000280: e550 b33e 9575 d83d 06ad 40be 3611 6abe
00000290: afb3 70be 7acc 74bf 6b45 1cbd c4a6 70be
000002a0: 76e0 913e a1e4 a63e 7911 01be db8d 28bf
000002b0: 53fd b73d 2c89 f4bb 140a 1bbe 0ce9 d3be
000002c0: a9f2 a0bd 1402 273f a9d1 893e 95e4 5bbc
000002d0: 3981 34bf ff14 82be a862 35bf 1f75 0abe
000002e0: 72a5 f8be 5055 e3bc 902d a4be a9a6 70bf
000002f0: d163 4abe 6137 3b3f 3884 073f b9f9 3ebe
00000300: 77b6 443e db2c 0f3e 9ac7 b23e 5fb6 31bf
00000310: f3f9 603e e8b3 72bf e3ea 54bd ed61 873f
00000320: 3871 193e f533 993f 1c45 68be 7e30 a43d
00000330: fc22 ba3c 0bdd 2f3e b102 953c 20d1 f03e
00000340: 5974 8e3e c552 193e 3a37 97be fe1a 98bf
00000350: 0a2a 07bd e65a 89bf 8151 c73e f2bb 0a3f
00000360: 94c1 8f3d dd5c 6c3f 5dba b6bc 6131 843e
00000370: 5122 4dbd 7240 9f3d 11a0 bf3d a24d 713b
00000380: 8456 b8bd ec4b 34be bcd3 f4bd 26fa 46bd
00000390: cdd8 0f3e 6a43 ee3e 49d9 343f 6ff4 973d
000003a0: f2b1 a43d 2576 c7be e1d4 013e 30b2 533f
000003b0: 8dda 9c3c 23df 82be 283c f3be 6674 21bd
000003c0: efaa 4abe ca08 ea3c 01dc 8d3e d1f9 ea3e
000003d0: 61b6 c93e ace1 713c 1277 b7be 0b2a 62bd
000003e0: 55e2 bbbd 00aa 1f3f 07b1 473c 38e1 173d
000003f0: 192c fabd 0fb4 37bd 6b28 adbd 0534 df3e

layers.1.bias f4 [16]
0.043609563 -0.15450135 0.87450457 -0.18028249 -0.06755296 -0.0650102 -0.01094217 0.18510585
-0.08073435 0.009039095 -0.22249554 -0.026569247 0.31715858 -0.12397065 0.13129729 0.04687429
00000000: f19f 323d 9a35 1ebe 88df 5f3f f99b 38be
00000010: 3559 8abd 1124 85bd ca46 33bc 638c 3d3e
00000020: 0d58 a5bd b618 143c dfd5 63be c0a7 d9bc
00000030: 9c62 a23e 53e4 fdbd cc72 063e 41ff 3f3d

final.linears.0.weight f4 [112, 56]
0.018204812 -0.014656613 -0.0054829204 1.6943566 -1.6920872 -0.75856656 0.11548728 0.0032775847
0.013755012 0.00959601 0.25460744 0.110117204 0.028741917 0.01399237 -0.0014424138 0.0050371904
0.026773157 0.0147244185 0.00995063 0.016646003 0.011583412 -0.033326827 0.020850256 0.02142275
-0.025361301 -0.015008169 -0.0392833 -0.0067759324 -0.011237263 0.015326916 0.011965494 0.009446
-0.0052758427 -0.026728917 0.0066900803 0.025556598 -0.0117148915 -0.01652025 0.005788114 -0.017325185
0.07208605 -0.006575617 -0.063709944 0.052995928 0.076213 0.06877176 -0.066951536 0.071515165
-0.071860164 0.07507584 -0.009886538 0.06512244 -0.056656852 -0.01868409 -0.013430484 -0.09077283
0.26629636 0.18214218 -0.07812409 0.17742296 0.08559962 0.11375027 -0.522835 -0.11766105
-0.20332009 0.019628258 0.14582478 0.070139766 -0.025357578 0.044821113 0.040879827 0.11695634
-0.12696055 -0.017848082 -0.021999141 0.063315794 0.2619029 0.06988303 -0.22654805 0.28430206
-0.015080971 0.0027585868 -0.09036923 -0.01314033 -0.024021702 -0.044074144 0.06545809 -0.015678396
0.07345211 -0.03314502 -0.047470514 0.039997894 0.0042574415 0.037346855 0.018700477 0.04949945
-0.005628771 -0.0030753305 -0.036104858 -0.015943065 -0.04615356 -0.02740659 0.04595056 -0.0053746086
-0.002703158 -0.039437238 0.024603944 -0.032693487 0.012365963 0.03117305 -0.016854417 -0.039589524
-0.9306528 -0.30920383 1.0678854 -0.20259674 -0.20839666 -0.21841237 -0.23390137 -0.23528455
0.01879583 -0.44953573 -0.33756813 -0.22075148 -0.8085772 0.021847295 0.841362 -1.5367646
-0.97463673 0.2762617 0.80370355 0.113212526 0.11295113 -0.41948727 0.17447446 0.7797121
0.04924257 0.08455625 0.022361286 0.07280497 -0.0880232 0.0023177536 -0.07241229 -0.047462218
-0.009686595 -0.05274966 -0.04980013 0.022449212 0.059160072 -0.06546095 -0.031750567 0.063013926
0.08072629 -0.071948454 -0.057174448 0.05217856 0.06471629 0.10221241 -0.07831387 0.08276763
-0.111448534 0.08695863 0.02161941 0.1335498 0.02793032 -0.010476522 0.019980568 -0.033189815
1.2643454 -1.3854811 -0.51266855 0.31310514 0.27861664 0.28284696 0.036269505 -0.5539247
0.9304626 0.14484087 0.009462234 0.37022457 0.98125756 -0.041435782 -0.67659223 -1.3132893
-0.86605716 -0.54007995 0.6749874 -0.5163002 0.88274926 -0.55816466 0.9677513 -0.503454
0.03744153 0.085697174 -0.22672355 0.019835303 -0.14919083 -0.0920706 -0.14412636 -0.07880212
0.082387455 -0.036788583 -0.035306223 0.13958602 -0.094757795 -0.20783849 -0.10768771 0.020083977
0.21428446 -0.10397459 -0.17456765 -0.07363176 0.040411253 -0.023801342 0.0515659 0.10088927
0.014987371 0.045953285 -0.05141866 0.092221096 0.012615531 -0.14716178 -0.04371174 0.027594777
-0.15261734 -0.15704326 -0.011578408 0.564525 -0.28268415 -0.23969781 -0.120130554 0.38608304
-0.023668759 0.17202465 -0.025595466 -0.043668587 0.2603791 0.014676724 0.030759308 -0.105398856
0.06457528 0.27715734 0.06183009 0.10802002 0.3927951 0.23945695 0.245645 -0.06647613
-0.15226734 -0.14266132 0.05794514 -0.07541209 0.14155103 -0.02589813 0.1338374 0.1405381
00000000: 4222 953c 4a22 70bc 12aa b3bb ade0 d83f
00000010: 5096 d8bf 6b31 42bf 9884 ec3d bfcc 563b
00000020: b45c 613c 9538 1d3c e85b 823e 2185 e13d
00000030: 2b74 eb3c 4140 653c 600f bdba 040f a53b
00000040: 6153 db3c b03e 713c f807 233c 335d 883c
00000050: 5ac8 3d3c b681 08bd 28ce aa3c c37e af3c
00000060: 81c2 cfbc d3e4 75bc 87e7 20bd a408 debb
00000070: 7f1c 38bc bf1d 7b3c eb0a 443c 65c3 1a3c
00000080: fae0 acbb 9af6 dabc 7638 db3b 125c d13c
00000090: d1ef 3fbc 7a55 87bc 38aa bd3b 8ced 8dbc
000000a0: daa1 933d 4678 d7bb 5c7a 82bd 4212 593d
000000b0: 9015 9c3d 35d8 8c3d e31d 89bd 8b76 923d
000000c0: 6c2b 93bd 5dc1 993d 25fb 21bc ea5e 853d
000000d0: 0411 68bd 600f 99bc 880b 5cbc 1be7 b9bd
000000e0: ff57 883e 7b83 3a3e 86ff 9fbd 5dae 353e
000000f0: db4e af3d e7f5 e83d 84d8 05bf 47f8 f0bd
00000100: 2433 50be 71cb a03c 1753 153e 70a5 8f3d
00000110: b2ba cfbc 5896 373d 9b71 273d ce86 ef3d
00000120: f201 02be 2436 92bc 8b37 b4bc b6ab 813d
00000130: 2318 863e d61e 8f3d 36fc 67be 0a90 913e
00000140: 2d16 77bc 68c9 343b 8113 b9bd 8a4a 57bc
00000150: 29c9 c4bc 1787 34bd e40e 863d fb6f 80bc
00000160: 0f6e 963d 13c3 07bd 7170 42bd d5d4 233d
00000170: 0282 8b3b 04f9 183d be31 993c efbf 4a3d
00000180: 8e71 b8bb 7c8b 49bb b0e2 13bd 089b 82bc
00000190: 840b 3dbd c983 e0bc a836 3c3d 7c1d b0bb
000001a0: 7727 31bb f188 21bd 368e c93c 9be9 05bd
000001b0: 9c9a 4a3c a05e ff3c 4612 8abc a028 22bd
000001c0: 433f 6ebf f74f 9ebe 78b0 883f 8575 4fbe
000001d0: ef65 55be 7ea7 5fbe d783 6fbe 6fee 70be
000001e0: b6f9 993c 8c29 e6be bbd5 acbe ad0c 62be
000001f0: eafe 4ebf 19f9 b23c 8063 573f b4b4 c4bf
00000200: cb81 79bf 2c72 8d3e 84bf 4d3f f8db e73d
00000210: ec52 e73d 09c7 d6be 6fa9 323e 369b 473f
00000220: 94b2 493d d42b ad3d 042f b73c c61a 953d
00000230: 8245 b4bd 74e5 173b e54c 94bd be67 42bd
00000240: 86b4 1ebc 0710 58bd 39fb 4bbd 69e7 b73c
00000250: d551 723d 6410 86bd e20c 02bd 720d 813d
00000260: d353 a53d b659 93bd c12f 6abd 30b9 553d
00000270: f989 843d bd54 d13d 0663 a0bd 1382 a93d
00000280: 213f e4bd 5e17 b23d 301b b13c 47c1 083e
00000290: 20ce e43c b8a5 2bbc 4aae a33c 0bf2 07bd
000002a0: 12d6 a13f 7257 b1bf 3f3e 03bf 514f a03e
000002b0: d7a6 8e3e 51d1 903e 558f 143d 02ce 0dbf
000002c0: cc32 6e3f 2a51 143e 7c07 1b3c 138e bd3e
000002d0: b233 7b3f 91b8 29bd 2635 2dbf dd19 a8bf
000002e0: ecb5 5dbf ae42 0abf f9cb 2c3f 402c 04bf
000002f0: dbfb 613f e1e3 0ebf 8dbe 773f 5de2 00bf
00000300: 4a5c 193d 0082 af3d 382a 68be a57d a23c
00000310: 7bc5 18be 838f bcbd dc95 13be 0263 a1bd
00000320: c1ba a83d a0af 16bd 429d 10bd a3ef 0e3e
00000330: 6010 c2bd 9dd3 54be 608b dcbd 2787 a43c
00000340: 636d 5b3e a1f0 d4bd ddc1 32be 40cc 96bd
00000350: 4586 253d 08fb c2bc c436 533d 099f ce3d
00000360: 978d 753c 8339 3c3d 5f9c 52bd 6ade bc3d
00000370: 5fb1 4e3c 94b1 16be 150b 33bd 710e e23c
00000380: b847 1cbe f3cf 20be 5db3 3dbc b684 103f
00000390: fabb 90be 5873 75be 0207 f6bd adac c53e
000003a0: fce4 c1bc 3b27 303e 95ad d1bc d5dd 32bd
000003b0: 6950 853e a476 703c f2fa fb3c 5bdb d7bd
000003c0: 0b40 843d 91e7 8d3e 8c41 7d3d 9a39 dd3d
000003d0: 701c c93e 3434 753e 5d8a 7b3e a324 88bd
000003e0: f8eb 1bbe cf15 12be e257 6d3d a771 9abd
000003f0: c1f2 103e 5128 d4bc ac0c 093e 38e9 0f3e

final.linears.0.bias f4 [112]
-1.0273654 -0.10905922 0.24878153 -0.1861419 0.2986222 0.060351796 -0.24800359 0.17904878
-0.024237456 0.23023623 0.27674562 -0.099197045 0.15991957 0.06475337 0.12239238 0.3070488
-0.094091386 -0.22498475 0.28515238 0.17070453 0.14608157 0.07598022 -0.012327123 0.16113679
0.337096 0.09740383 -0.10433894 -0.50598603 0.233776 0.047554526 -0.01923656 0.08986272
-0.33064944 -0.8146386 -0.0015220807 -0.22123136 0.091985345 -0.16606967 0.22983474 0.2474584
0.4550625 0.15380925 0.4043888 -0.09731444 -0.14473487 -0.080388345 0.16491722 0.40152287
0.24058957 -0.31457326 -0.81353015 0.14663973 0.041705854 0.24193639 0.093494125 -0.07539336
0.24578519 -0.10234427 0.09344594 -0.14505187 0.21646604 0.081576325 -0.5873844 0.33402228
0.08604169 -0.009459926 -0.11755176 -0.22045995 -0.006401861 0.30467838 0.22000435 0.16805747
-0.3296311 -0.31649977 0.0024054192 0.07488111 0.06556345 0.04585038 0.08941978 -0.3638401
0.21851698 0.23634954 -0.062353935 0.17533088 0.14821054 0.01927695 0.22938128 0.17842709
-0.118079074 -0.21535464 -0.09116671 0.055482723 0.31745988 0.023456655 0.25272262 0.17058393
0.7247989 -0.10336304 0.14349294 -0.047053996 -0.25440645 0.095503196 0.0038710928 -0.097698726
0.33187225 -0.07214532 0.37457165 0.069725394 -0.1515723 0.013260244 -0.7155793 -0.25483042
00000000: b680 83bf 715a dfbd 96c0 7e3e fb9b 3ebe
00000010: 02e5 983e 7233 773d a7f4 7dbe 9058 373e
00000020: a18d c6bc 0cc3 6b3e 9ab1 8d3e d227 cbbd
00000030: f5c1 233e 6a9d 843d dba8 fa3d 8035 9d3e
00000040: fcb2 c0bd 6762 66be 7eff 913e 2bcd 2e3e
00000050: 6896 153e 859b 9b3d b4f7 49bc 0b01 253e
00000060: d997 ac3e a97b c73d a7af d5bd 4d88 01bf
00000070: fa62 6f3e 89c8 423d fe95 9dbc f209 b83d
00000080: e24a a9be 288c 50bf 8e80 c7ba 798a 62be
00000090: d062 bc3d 2b0e 2abe cc59 6b3e bc65 7d3e
000000a0: f4fd e83e 2c80 1d3e 0c0c cf3e cb4c c7bd
000000b0: 6135 14be a5a2 a4bd 0fe0 283e 6894 cd3e
000000c0: 1d5d 763e bf0f a1be 8343 50bf ba28 163e
000000d0: c2d3 2a3d 2cbe 773e d979 bf3d d567 9abd
000000e0: 1daf 7b3e df99 d1bd 9660 bf3d 7a88 14be
000000f0: 46a9 5d3e 7d11 a73d d35e 16bf f804 ab3e
00000100: a036 b03d cefd 1abc fabe f0bd 41c0 61be
00000110: b4c6 d1bb cefe 9b3e d248 613e 4217 2c3e
00000120: 68c5 a8be 420c a2be 3da4 1d3b 445b 993d
00000130: 2146 863d 9ccd 3b3d b821 b73d 4049 babe
00000140: eac2 5f3e 9d05 723e d766 7fbd f089 333e
00000150: 81c4 173e b2ea 9d3c ede2 6a3e 97b5 363e
00000160: 71d3 f1bd ed85 5cbe 9db5 babd da41 633d
00000170: 1a8a a23e 2c28 c03c dc64 813e 8ead 2e3e
00000180: 6c8c 393f 00b0 d3bd d0ef 123e b1bb 40bd
00000190: 9041 82be 2e97 c33d 29b2 7d3b 4516 c8bd
000001a0: 29eb a93e edc0 93bd dbc7 bf3e 30cc 8e3d
000001b0: c535 1bbe 7f41 593c 3430 37bf 2279 82be

final.linears.1.weight f4 [112, 112]
0.124820925 -0.089844115 -1.1054397 -0.25062236 -0.17324351 0.01827007 0.016211491 -0.060321666
-0.20357893 -0.13466334 -0.076163895 0.0012331953 -0.061060764 -0.06649225 -0.05499354 -0.19809043
0.017946012 -0.0753209 -0.21299392 0.011400717 -0.20852765 -0.304736 -0.16647005 -0.12363141
-0.24124421 0.12780531 -0.0147431055 0.07516906 -0.017700203 -0.14773928 -0.18994987 -0.24161233
-0.012434657 0.23279355 -0.1810072 -0.034660522 0.018141929 -0.27330634 -0.3100566 -0.085482344
-0.2674425 -0.21032576 -0.18198805 -0.17665254 -0.0076843873 -0.15783791 -0.10164165 -0.21442975
-0.3241638 -0.055258714 0.044484496 -0.15934503 -0.13587667 -0.24059202 -0.35131085 -0.3264238
-0.1265196 -0.05665303 0.010527732 -0.21371648 -0.18651675 -0.20037912 0.039642703 -0.150344
-0.4302606 -0.24144228 -0.0671514 -0.17644703 -0.044280704 -0.23464593 -0.21221422 -0.29352933
-0.007329085 0.09295598 -0.25219518 -0.14932388 0.015981495 -0.018974718 -0.3583466 0.008015446
-0.049253475 -0.24063548 -0.24884719 -0.216108 -0.038573895 -0.042809073 -0.04795155 -0.12955871
-0.11866853 -0.0011794126 -0.011849374 -0.08524261 -0.22476427 -0.2841456 -0.011707409 -0.23729098
-0.33875456 -0.0058299666 -0.26008952 -0.03726469 -0.12517998 -0.22430754 -0.012401411 0.06801206
-0.26245055 0.020502549 -0.1189846 -0.04782084 -0.0035766256 0.008346394 0.08263179 -0.19391185
-0.99059284 0.011988618 -0.04912755 -0.047973376 0.5457262 0.032981727 0.26406795 0.09158368
-0.036344174 -0.04739085 0.122951776 -0.046958514 -0.06449714 -0.0122136725 -0.11057365 -0.09273142
-0.04923153 0.07314442 -0.099952966 0.011848029 -0.038688093 0.65796924 -0.010908974 0.07867071
-0.05974375 -0.020248912 -0.0147974305 -0.07600232 0.05075694 -0.054127783 -0.038550995 -0.07025269
0.046846017 -0.07300683 -0.047616918 0.019719908 -0.08796646 -0.05577962 -0.045967855 -0.107479356
-0.5300889 -0.02349379 -0.10725448 -0.044401594 -0.22492465 -0.052672904 -0.010849997 -0.10836707
-0.07908965 -0.14516269 -0.115486816 -0.05452022 -0.06923288 -0.045215603 -0.029990967 -0.08909213
-0.07462785 0.07250221 -0.20804152 -0.05430875 -0.050735522 -0.060745616 -0.042773526 0.047358796
-0.07857949 -0.04217492 -0.16176645 -0.047298197 0.05581974 -0.032927085 -0.06348158 -0.05658832
0.069784634 -0.16974182 -0.03360578 -0.14275046 0.12015101 -0.5977979 -0.054738227 0.057847418
0.030345136 -0.056364167 -0.079822004 -0.16659261 -0.00510289 0.033110276 0.041991338 -0.06029041
-0.07524262 0.017113788 0.08783114 0.047038466 -0.09147285 -0.07559922 0.07843977 -0.057550117
0.38685367 -0.04145707 -0.011974414 0.0068806955 -0.4278635 -0.052362803 0.011226815 -0.13762723
-0.09947344 0.2437268 -0.020730544 0.018555496 0.0488776 0.0505904 -0.4074366 -0.11009378
0.14379092 0.053805888 -0.13495818 -0.13540636 -0.19559649 -0.0091716135 -0.04883701 0.09144773
-0.3058412 -0.23911722 0.04887182 -0.08701686 0.07842136 -0.08668996 0.0021365287 -0.20790882
-0.04967356 -0.08417947 -0.12609781 -0.03914839 -0.22923915 -0.3758574 -0.25436297 -0.053005666
-0.17522413 -0.26648417 -0.028026965 0.033425003 0.038881805 0.041261297 -0.7195674 -0.37738264
00000000: 1da2 ff3d 3100 b8bd 0c7f 8dbf 9351 80be
00000010: bf66 31be 1dab 953c f6cd 843c da13 77bd
00000020: ff76 50be 30e5 09be d1fb 9bbd 2ba3 a13a
00000030: da1a 7abd 172d 88bd e840 61bd 38d8 4abe
00000040: 8403 933c d841 9abd 141b 5abe 13ca 3a3c
00000050: 4688 55be 5b06 9cbe 2077 2abe 7732 fdbd
00000060: b908 77be 65df 023e 118d 71bc 3cf2 993d
00000070: 0400 91bc f748 17be 3882 42be 3969 77be
00000080: bbba 4bbc 6f61 6e3e f459 39be 31f8 0dbd
00000090: 629e 943c cfee 8bbe bdbf 9ebe 5e11 afbd
000000a0: 39ee 88be a35f 57be 135b 3abe 67e4 34be
000000b0: 50cd fbbb 43a0 21be 7f29 d0bd 7993 5bbe
000000c0: ccf8 a5be f656 62bd 6035 363d 582b 23be
000000d0: 4123 0bbe c15d 76be 04df b3be 0521 a7be
000000e0: 5b8e 01be 020d 68bd 827c 2c3c 7ed8 5abe
000000f0: 3ffe 3ebe 2f30 4dbe 6360 223d c7f3 19be
00000100: 1e4b dcbe a53c 77be ac86 89bd 88ae 34be
00000110: af5f 35bd 0647 70be af4e 59be 7a49 96be
00000120: d228 f0bb b45f be3d ba1f 81be 5ce8 18be
00000130: a0eb 823c de70 9bbc 3579 b7be 3853 033c
00000140: 03be 49bd 2669 76be ccd1 7ebe 6a4b 5dbe
00000150: a9ff 1dbd 9158 2fbd d868 44bd 0aab 04be
00000160: 7c08 f3bd 8596 9aba e023 42bc ad93 aebd
00000170: 9b28 66be 887b 91be 6fd0 3fbc 68fc 72be
00000180: 3d71 adbe 4e09 bfbb 742a 85be dca2 18bd
00000190: 2e2f 00be e0b0 65be 4a2f 4bbc e849 8b3d
000001a0: eb5f 86be f6f4 a73c 33ae f3bd c9df 43bd
000001b0: d265 6abb 50bf 083c db3a a93d d490 46be
000001c0: 7e97 7dbf e96b 443c f839 49bd bb7f 44bd
000001d0: b6b4 0b3f d917 073d ea33 873e 3990 bb3d
000001e0: a1dd 14bd e81c 42bd 24ce fb3d 9257 40bd
000001f0: 1417 84bd db1b 48bc 7074 e2bd f9e9 bdbd
00000200: 00a7 49bd becc 953d 24b4 ccbd 3c1e 423c
00000210: 6877 1ebd ac70 283f 8ebb 32bc 1c1e a13d
00000220: ddb5 74bd 0ce1 a5bc ec70 72bc 1ba7 9bbd
00000230: 82e6 4f3d 18b5 5dbd a6e7 1dbd a4e0 8fbd
00000240: 9ce1 3f3d 9b84 95bd f509 43bd a58b a13c
00000250: c227 b4bd 2c79 64bd ca48 3cbd 231e dcbd
00000260: e8b3 07bf 0c76 c0bc 3da8 dbbd 72de 35bd
00000270: a652 66be 8bbf 57bd 30c4 31bc 8eef ddbd
00000280: c1f9 a1bd 87a5 14be 5a84 ecbd 9850 5fbd
00000290: f8c9 8dbd ff33 39bd 9eaf f5bc ef75 b6bd
000002a0: 7cd6 98bd 0a7c 943d d608 55be da72 5ebd
000002b0: 0dd0 4fbd 65d0 78bd 4b33 2fbd 4cfb 413d
000002c0: 49ee a0bd 9cbf 2cbd 1ba6 25be c1bb 41bd
000002d0: 3da3 643d 8dde 06bd a102 82bd 27c9 67bd
000002e0: 3feb 8e3d cdd0 2dbe 37a6 09bd 2d2d 12be
000002f0: bc11 f63d 4809 19bf 3135 60bd 6af1 6c3d
00000300: 5d96 f83c 1dde 66bd b879 a3bd 4197 2abe
00000310: 2536 a7bb a49e 073d 1cff 2b3d 14f3 76bd
00000320: ce18 9abd 3732 8c3c d0e0 b33d 68ab 403d
00000330: 1e56 bbbd c4d3 9abd 08a5 a03d acb9 6bbd
00000340: af11 c63e e3ce 29bd 5530 44bc 7577 e13b
00000350: ed10 dbbe 617a 56bd adf0 373c 27ee 0cbe
00000360: bbb8 cbbd 8593 793e 1ad3 a9bc b201 983c
00000370: e133 483d e137 4f3d 889b d0be d978 e1bd
00000380: ed3d 133e 9063 5c3d 7a32 0abe f7a7 0abe
00000390: 724a 48be 8944 16bc 5109 48bd f348 bb3d
000003a0: 3897 9cbe 25db 74be d12d 483d e535 b2bd
000003b0: 619b a03d 818a b1bd 0105 0c3b 0de6 54be
000003c0: 8176 4bbd 4966 acbd c91f 01be 105a 20bd
000003d0: abbd 6abe 6270 c0be dd3b 82be 781c 59bd
000003e0: f46d 33be 9d70 88be ce98 e5bc a8e8 083d
000003f0: 8742 1f3d 9b01 293d 9235 38bf 4c38 c1be

final.linears.1.bias f4 [112]
-0.19333862 0.28939718 -0.2142646 -0.22481628 -0.5905336 0.004978896 -0.36350095 -0.31361586
-0.17069957 -0.24088188 -0.009310409 -0.18902062 -0.18084875 -0.26257926 -0.25750315 -0.3892219
-0.006916939 -0.17130052 -0.05625966 0.03455965 -0.18930893 -0.24510242 -0.2071027 -0.119018264
-0.2248344 -0.72482204 -0.23080797 -0.25235868 -0.2552828 -0.12109936 -0.29152974 -0.14288291
-0.22427234 -0.25635964 -0.0024998966 0.07689577 -0.1932697 -0.22586545 -0.27766338 0.14555685
-0.110888064 -0.34976876 -0.15575673 -0.3254722 -0.08483044 0.324426 -0.32048973 -0.20763245
-0.3447036 -0.6944934 -0.22800283 -0.27269766 -0.20589657 -0.29231265 -0.25023893 -0.13735248
-0.15727054 -0.27522254 -0.22393547 -0.15642664 -0.41138995 -0.011016894 -0.2550991 -0.18463866
-0.26086545 -0.15156227 -0.24169226 -0.19490911 -0.35244757 -0.20461704 -0.10033825 -0.12183202
-0.03939102 -0.21081074 -0.11300259 -0.23532806 -0.17079434 -0.23011127 -0.10042064 -0.14366023
-0.25535956 -0.12367241 -0.17895694 -0.2705927 0.013372779 -0.23627917 -0.20129834 0.72720045
-0.16829139 -0.28107888 -0.11816505 -0.12819202 -0.15677884 -0.024737034 -0.1957919 -0.08274007
-0.14536726 -0.1269195 -0.25104275 -0.096244976 -0.20967185 0.15941508 -0.10817885 -0.28306213
0.046070896 -0.14881508 0.12561 -0.16080779 -0.14868058 0.07445659 -0.24905908 -0.382271
00000000: 8ffa 45be de2b 943e 2e68 5bbe 3d36 66be
00000010: 362d 17bf 0226 a33b cc1c babe 4292 a0be
00000020: decb 2ebe bda9 76be b08a 18bc 9f8e 41be
00000030: 6a30 39be ca70 86be 74d7 83be 1848 c7be
00000040: 7da7 e2bb 6769 2fbe 8770 66bd 6b8e 0d3d
00000050: 33da 41be 21fc 7abe bb12 54be d9bf f3bd
00000060: fd3a 66be f08d 39bf ed58 6cbe 2835 81be
00000070: 6db4 82be f102 f8bd 6343 95be e64f 12be
00000080: a6a7 65be 9241 83be 4ed5 23bb 887b 9d3d
00000090: 7ee8 45be 4649 67be e529 8ebe db0c 153e
000000a0: 4819 e3bd e414 b3be b17e 1fbe 4ba4 a6be
000000b0: 95bb adbd 2a1b a63e 3b17 a4be 9a9d 54be
000000c0: fe7c b0be 52ca 31bf 9379 69be 079f 8bbe
000000d0: 8dd6 52be 01aa 95be 511f 80be 21a6 0cbe
000000e0: 870b 21be f8e9 8cbe 574f 65be 4e2e 20be
000000f0: b4a1 d2be 3480 34bc 599c 82be eb11 3dbe
00000100: 2890 85be 2433 1bbe 2d7e 77be 4196 47be
00000110: 0274 b4be 2187 51be 247e cdbd 1183 f9bd
00000120: 7a58 21bd c5de 57be e76d e7bd d7f9 70be
00000130: b6e4 2ebe 4aa2 6bbe 56a9 cdbd ab1b 13be
00000140: 7dbe 82be f647 fdbd 7d40 37be 208b 8abe
00000150: 8019 5b3c 2bf3 71be 2721 4ebe cf29 3a3f
00000160: 9454 2cbe 92e9 8fbe 8500 f2bd c544 03be
00000170: a28a 20be 52a5 cabc ac7d 48be a073 a9bd
00000180: 28db 14be 2ff7 01be ad88 80be 161c c5bd
00000190: 38b4 56be b53d 233e df8c ddbd 85ed 90be
000001a0: d6b4 3c3d fb62 18be e89f 003e ccaa 24be
000001b0: b93f 18be b27c 983d 5809 7fbe 06b9 c3be

final.linears.2.weight f4 [24, 112]
0.4708987 -0.001607483 0.206028 -0.53017527 -0.05215951 0.010319776 0.42796707 0.018677937
0.053104058 -0.16361146 0.13649406 0.19186138 -0.21318014 0.30887482 -0.019963792 -0.014800152
-0.110731974 0.2807173 0.06372919 -0.11508101 -0.22649336 0.10741538 -0.65793043 -0.21698174
-0.09426529 -0.013629207 0.4401234 0.4828881 0.54361117 -0.06212084 -0.11270334 -0.12183139
-0.53087634 -0.1978774 0.036386494 0.003921812 0.2682976 -0.012271644 0.13735344 0.013105906
-0.027702399 -0.18530229 0.004285627 -0.63477397 -0.26506406 0.014475333 -0.006959267 0.2714745
0.16737325 -0.002027982 -0.15730974 0.4348495 -0.21551812 0.2137269 -0.415386 0.16973138
-0.111477494 -0.17322628 0.5622796 0.27812317 0.017620886 -0.07826245 -0.20303701 -0.12599954
-0.36693016 -0.0377355 0.06992678 0.17966956 -0.33532825 -0.08165516 0.01114734 -0.1897747
0.003315037 -0.24424735 0.030609155 -0.20427996 -0.112759344 -0.11827856 0.022838876 -0.06865223
0.0136755295 0.15525348 0.09910754 -0.3660082 0.09009155 0.4112201 0.2698238 -0.0051678265
-0.15458219 0.08341365 -0.0046207476 0.14604908 -0.23509838 -0.24048182 -0.2131652 0.0050239624
0.26301363 -0.16973074 0.7890946 -0.18182239 0.1614378 -0.14709084 0.28534412 0.07668878
-0.07869443 -0.3556273 0.053483035 -0.022610035 0.0041878927 0.00315954 0.31891254 -0.21635781
0.18809195 0.011585607 -0.48017704 -0.32527182 0.021337489 0.08843184 0.3703438 -0.26260686
0.1513825 -0.61847514 -0.024490716 -0.4039081 -0.23917814 0.000587918 -0.0817903 0.006270659
0.07921648 0.3638511 -0.016986558 0.0057180594 -0.30478728 -0.3931909 -0.2802319 0.004382585
-0.54256475 -0.00030782993 0.29303938 -0.378813 -0.60233253 0.04254922 0.050230812 -0.016659357
0.3480658 -0.38215256 -0.042743284 0.108755425 -0.14662862 -0.06946609 0.28072634 -0.008739566
0.12144597 0.06740727 0.013831894 0.17893536 0.16000924 0.0072450084 -0.31630647 0.14667405
-0.064238444 0.0009202753 0.68229187 -0.13103627 0.019027343 -0.26127905 0.037145674 0.0075417063
-0.05571374 0.08923405 0.11921419 0.08422093 0.25458777 0.1398992 0.36327142 0.14055344
0.14502594 -0.408761 -0.15616359 -0.20182753 0.4979334 -0.030076284 -0.0098182745 0.2176215
-0.0121572055 0.15162535 0.019546619 0.41446352 0.05098886 0.0101464195 0.34013772 -0.1192085
-0.09423703 -0.10192781 0.12550305 -0.114154205 0.07304438 0.43511197 0.31926155 0.007736016
-0.17895861 -0.4282872 0.0014265779 -0.17386258 -0.37505937 0.1943831 0.33229846 0.007508245
-0.22345844 -0.0778704 0.5566463 -0.40828893 0.3724239 0.024516985 -0.15089907 0.19153073
0.04296132 0.2207212 -0.033460937 -0.06488598 -0.050498083 0.0760486 0.13505709 0.050640512
-0.51944506 0.0053515793 -0.22585139 -0.22839238 0.0058832164 -0.15321486 0.42083162 -0.40130103
0.06885027 -0.5316404 0.1954921 -0.052307494 -0.111889474 0.1713233 -0.013204785 0.0054818825
-0.090625346 -0.31440482 -0.27987522 -0.15732163 0.39282438 -0.41821715 0.034157578 -0.34063277
-0.12250354 0.021345155 0.59852743 -0.050507627 0.3219012 0.22325385 -0.53449714 0.14279266
00000000: a219 f13e 2eb2 d2ba 01f9 523e 91b9 07bf
00000010: 36a5 55bd 4714 293c 801e db3e 7902 993c
00000020: a483 593d c389 27be 19c5 0b3e 4f77 443e
00000030: e54b 5abe d724 9e3e 1b8b a3bc 567c 72bc
00000040: 72c7 e2bd 2eba 8f3e 7384 823d 98af ebbd
00000050: e0ed 67be 98fc db3d 216e 28bf 7630 5ebe
00000060: 290e c1bd 0a4d 5fbc db57 e13e 1c3d f73e
00000070: 1a2a 0b3f 6c72 7ebd 02d1 e6bd bc82 f9bd
00000080: 83e7 07bf 60a0 4abe 010a 153d 8b82 803b
00000090: 4e5e 893e 010f 49bc 61a6 0c3e 27ba 563c
000000a0: 24f0 e2bc e2bf 3dbe 726e 8c3b 8c80 22bf
000000b0: 7ab6 87be f229 6d3c 900a e4bb b5fe 8a3e
000000c0: e563 2b3e e4e7 04bb ce15 21be 98a4 de3e
000000d0: c8b0 5cbe 39db 5a3e 79ad d4be 10ce 2d3e
000000e0: 504e e4bd 3b62 31be 8ef1 0f3f 2966 8e3e
000000f0: ad59 903c 1048 a0bd efe8 4fbe 0606 01be
00000100: 45de bbbe 8a90 1abd c635 8f3d 4cfb 373e
00000110: 25b0 abbe d23a a7bd 55a3 363c 4d54 42be
00000120: 1841 593b fa1b 7abe 0dc0 fa3c c42e 51be
00000130: 5fee e6bd 083c f2bd 9818 bb3c 8a99 8cbd
00000140: 540f 603c c5fa 1e3e e5f8 ca3d 6d65 bbbe
00000150: eb81 b83d 718b d23e 5826 8a3e df56 a9bb
00000160: cb4a 1ebe c7d4 aa3d a469 97bb e48d 153e
00000170: a1bd 70be de40 76be fa47 5abe 0da0 a43b
00000180: b9a9 863e e5cd 2dbe 1b02 4a3f a62f 3abe
00000190: f34f 253e fb9e 16be a018 923e 020f 9d3d
000001a0: 8c2a a1bd c814 b6be 0711 5b3d ae38 b9bc
000001b0: 973a 893b 4910 4f3b 8148 a33e e78c 5dbe
000001c0: 2d9b 403e 8fd1 3d3c c4d9 f5be 078a a6be
000001d0: f5cb ae3c c11b b53d b49d bd3e 6874 86be
000001e0: 0404 1b3e 6354 1ebf c1a0 c8bc 0bcd cebe
000001f0: 1deb 74be 821e 1a3a ac81 a7bd 1a7a cd3b
00000200: 403c a23d b14a ba3e 6527 8bbc 8f5e bb3b
00000210: 140d 9cbe 5150 c9be 8e7a 8fbe ca9b 8f3b
00000220: 86e5 0abf 3c64 a1b9 4209 963e c7f3 c1be
00000230: 7732 1abf 1748 2e3d d3be 4d3d 3479 88bc
00000240: ae35 b23e 80a9 c3be 9513 2fbd 2abb de3d
00000250: d025 16be 3d44 8ebd 5dbb 8f3e 6630 0fbc
00000260: aab8 f83d d30c 8a3d 2b9f 623c d53a 373e
00000270: 76d9 233e 8967 ed3b ecf2 a1be b931 163e
00000280: 728f 83bd a13e 713a aeaa 2e3f 5f2e 06be
00000290: 3bdf 9b3c 5ec6 85be 1026 183d 6b20 f73b
000002a0: 1734 64bd 57c0 b63d 9226 f43d 067c ac3d
000002b0: 5459 823e bc41 0f3e b6fe b93e 3eed 0f3e
000002c0: ae81 143e 1f49 d1be 59e9 1fbe e0ab 4ebe
000002d0: 20f1 fe3e 8a62 f6bc d4dc 20bc 2cd8 5e3e
000002e0: 042f 47bc ad43 1b3e 3b20 a03c 9034 d43e
000002f0: b2d9 503d 2b3d 263c 8826 ae3e 9623 f4bd
00000300: 58ff c0bd 87bf d0bd df83 003e aec9 e9bd
00000310: 4b98 953d ffc6 de3e 4076 a33e 687e fd3b
00000320: ed40 37be 7648 dbbe 03fc ba3a 0809 32be
00000330: c807 c0be 5d0c 473e 0623 aa3e b907 f63b
00000340: 4ad2 64be 847a 9fbd 5f80 0e3f 3f0b d1be
00000350: 58ae be3e d8d7 c83c 4985 1abe a220 443e
00000360: 36f8 2f3d bd04 623e 560e 09bd f1e2 84bd
00000370: 14d7 4ebd 5ebf 9b3d 684c 0a3e 6d6c 4f3d
00000380: 5afa 04bf 4d5c af3b 9645 67be b1df 69be
00000390: ffc7 c03b 5be4 1cbe 3e77 d73e 5477 cdbe
000003a0: 5f01 8d3d 9619 08bf 152f 483e 6240 56bd
000003b0: 4f26 e5bd 606f 2f3e e258 58bc 5da1 b33b
000003c0: c899 b9bd abf9 a0be ce4b 8fbe ec18 21be
000003d0: 4720 c93e 8f20 d6be d1e8 0b3d 6b67 aebe
000003e0: 23e3 fabd 09dc ae3c 1839 193f 16e1 4ebd
000003f0: 3cd0 a43e a89c 643e ced4 08bf 3d38 123e

final.linears.2.bias f4 [24]
-0.057634212 -0.10401253 0.010470188 0.19110617 -0.025970042 -0.30791226 -0.080230266 -0.027584571
-0.031554356 -0.009692054 0.098669164 0.04887357 -0.032531712 -0.05417622 0.037064716 0.010307277
-0.01140467 0.021213764 -0.100376636 0.06695321 -0.05658569 0.017774012 0.023596197 0.028464166
00000000: da11 6cbd 8504 d5bd 278b 2b3c 56b1 433e
00000010: 20bf d4bc ada6 9dbe c44f a4bd 0af9 e1bc
00000020: 243f 01bd 6ccb 1ebc 0f13 ca3d a72f 483d
00000030: f93f 05bd e2e7 5dbd 2cd1 173d dadf 283c
00000040: a7da 3abc 7dc8 ad3c 4492 cdbd c41e 893d
00000050: 65c6 67bd ce9a 913c d04c c13c af2d e93c

layers.0.attn.0.gnn_q.weight f4 [24, 16]
-7.1153674e-34 -4.0466393e-34 -5.6708437e-34 1.1505276e-33 1.0255659e-33 -1.2778774e-34 1.2117156e-34 -2.8345308e-34
1.2134246e-34 -2.818474e-34 -3.6023996e-34 6.4746077e-34 -2.1711624e-34 -1.1141902e-33 5.5902397e-34 7.748374e-34
1.648171e-34 -6.2649073e-34 2.289766e-34 4.9032326e-34 1.7837578e-34 6.974804e-34 -3.553779e-34 1.1689189e-33
3.236209e-34 5.583829e-34 -1.0516364e-33 -6.859088e-34 -5.6471846e-34 -5.264126e-34 -1.6180275e-34 8.86419e-34
7.673565e-34 -3.6670195e-35 -4.0001435e-34 -5.7792427e-34 3.449007e-34 8.460726e-34 2.5861523e-34 1.160435e-33
5.9574777e-35 -3.7519507e-34 3.1939871e-34 6.4816474e-34 7.988729e-34 2.6943513e-34 -1.1477787e-33 9.66208e-34
1.2582933e-34 -1.3904519e-34 2.493593e-34 -1.0049553e-34 -1.0138112e-34 2.3003715e-34 -7.0338634e-34 -2.391389e-34
2.7281573e-34 -2.0093535e-34 -2.3799235e-34 7.3877643e-34 7.1681117e-34 -5.897029e-34 1.2706165e-34 1.0873605e-34
7.021528e-34 -1.5110305e-34 2.240283e-34 -1.0352459e-33 5.6854185e-34 5.2232885e-34 9.711507e-35 2.2284916e-34
5.44549e-34 -7.793127e-34 2.9459535e-34 6.4491867e-34 -7.116576e-34 6.084503e-34 8.951108e-34 3.8398161e-34
-1.164959e-33 5.3600095e-34 -2.2376456e-34 -2.6271828e-34 -8.047558e-34 -3.951661e-34 -3.5360195e-34 1.7061069e-34
4.8051633e-34 -2.4148734e-34 -1.00955564e-35 -3.8401665e-34 3.405496e-34 -8.554985e-34 -5.981861e-34 -8.395573e-34
-2.012422e-34 -2.0761104e-34 -8.478626e-35 5.379369e-34 6.001812e-34 -9.432104e-34 -6.3881083e-34 -3.2523303e-35
-3.1556784e-34 -5.864331e-34 7.1251534e-35 9.599533e-34 2.615306e-34 2.7527325e-34 8.820945e-34 8.932326e-34
8.993594e-34 -5.2471878e-34 6.414355e-34 7.703302e-34 -4.254248e-34 5.19076e-34 -3.2065647e-34 4.9331627e-34
2.753627e-35 5.9510077e-34 6.132262e-34 5.150743e-34 2.1699807e-35 2.3792157e-34 -3.2417285e-34 -1.0260802e-33
-5.499384e-34 -2.5518841e-34 -6.8495307e-34 -4.9135733e-34 -8.129352e-34 2.5946976e-34 -9.0536506e-35 -4.637276e-34
2.9188028e-34 3.0257314e-34 2.0991205e-35 3.047347e-34 1.1283796e-33 -5.223952e-34 -3.7385882e-34 -3.7744042e-34
8.403865e-34 -4.6021632e-34 6.292338e-34 1.17477225e-33 5.869492e-34 3.0520306e-34 6.0080627e-34 -1.5387385e-34
-1.975699e-34 -2.980206e-34 1.1679327e-33 -4.006621e-34 -6.0540664e-34 -7.6432715e-35 -4.2261515e-34 -1.3061006e-34
-3.5592566e-34 3.5171445e-34 2.8243685e-34 -7.5242043e-34 -8.263263e-34 8.539376e-34 1.1140503e-33 6.862058e-34
6.270448e-34 -3.4505957e-34 2.2557735e-35 -1.2032773e-34 7.0347735e-35 5.213229e-34 8.626396e-34 -5.2559544e-34
4.72497e-34 -4.118924e-35 -7.0216745e-34 -4.124114e-34 -2.3837453e-34 -6.037909e-34 7.319368e-34 4.9894514e-34
-3.5614285e-34 -2.650399e-34 8.481664e-34 -1.9346284e-34 -6.346488e-36 2.6691927e-34 -9.476123e-36 2.2082e-34
4.9601095e-34 4.6376884e-34 8.8191613e-35 -9.342417e-34 7.793224e-34 -2.3750324e-34 -1.1688606e-33 5.7770887e-35
-2.3133582e-34 5.8258354e-34 2.4359216e-34 -3.5827709e-34 -3.5438744e-34 6.7275535e-34 -8.133716e-34 1.2787748e-34
-1.1134596e-33 -1.0029185e-34 6.974365e-34 -5.5291797e-34 -1.0305604e-33 2.8330066e-34 8.404893e-34 6.3915223e-34
-5.1685697e-34 9.220036e-34 -4.2374055e-34 8.793462e-34 6.1764174e-34 -6.9160297e-34 4.6452015e-34 -8.274308e-34
3.7857477e-34 3.7681553e-34 -1.9334524e-34 -1.1137475e-33 4.1170225e-34 -1.0178643e-34 6.547499e-35 -6.769827e-34
-1.0334664e-33 -4.0149014e-34 1.5173102e-34 5.313535e-34 -4.8801778e-34 1.4165744e-34 2.8827013e-34 -3.4722115e-34
-1.111183e-34 -5.4979e-34 -2.430561e-34 4.3302503e-34 5.113641e-34 -3.340661e-34 -4.824757e-35 7.461506e-34
-1.1091155e-34 3.4411403e-35 -1.0446591e-33 -4.4010554e-34 -5.5825347e-34 -3.994375e-34 -2.2572596e-34 -5.16549e-34
00000000: da72 6c88 0079 0688 3472 3c88 082a bf08
00000010: c066 aa08 eadb 2987 8c10 2107 0b63 bc87
00000020: b34a 2107 da51 bb87 a76b ef87 df27 5708
00000030: 6a4c 9087 6920 b988 80c4 3908 f0bd 8008
00000040: 5a14 5b07 f02f 5088 5a2e 9807 17f0 2208
00000050: 221a 6d07 12c7 6708 6b30 ec87 5038 c208
00000060: 3e15 d707 f78d 3908 aabb ae88 abee 6388
00000070: efa8 3b88 3bee 2e88 9f12 5787 1848 9308
00000080: 79ff 7e08 e2f8 4286 75ed 0488 5c0c 4088
00000090: d039 e507 f393 8c08 1ae1 ab07 72cf c008
000000a0: 7e60 9e06 225c f987 e046 d407 c263 5708
000000b0: 4cbc 8408 0312 b307 1bb5 be88 f189 a008
000000c0: 8141 2707 a0d2 3887 49ba a507 db94 0587
000000d0: 35c2 0687 cbe2 9807 7ebd 6988 60ef 9e87
000000e0: 3151 b507 618b 8587 4d2c 9e87 2680 7508
000000f0: 8d33 6e08 60f6 4388 d7e4 2807 f688 1007
00000100: 8e54 6908 b4d9 4887 71e4 9407 7e02 ac88
00000110: 31ee 3c08 d392 2d08 8c16 0107 d21b 9407
00000120: 1bf5 3408 4c7c 8188 cdca c307 9d4f 5608
00000130: 227d 6c88 3a31 4a08 cdb9 9408 1633 ff07
00000140: e08f c188 eb1d 3208 91b7 9487 339b ae87
00000150: 87b6 8588 0451 0388 4102 eb87 cfc7 6207
00000160: cfad 1f08 f17e a087 70b5 5685 0c39 ff87
00000170: 8355 e207 e224 8e88 0cc8 4688 d17e 8b88
00000180: 96bf 8587 30fb 8987 8a66 e186 9cc2 3208
00000190: c571 4708 bcb7 9c88 0448 5488 6dec 2c86
000001a0: 16bb d187 36e0 4288 486b bd06 e67f 9f08
000001b0: 20d1 ad07 51f3 b607 2790 9208 ea69 9408
000001c0: 856e 9508 235e 2e88 4c27 5508 72fc 7f08
000001d0: 245f 0d88 1a7e 2c08 df1c d587 b5ee 2308
000001e0: 6e68 1206 93c1 4508 84c7 4b08 ad29 2b08
000001f0: 7ec0 e605 4220 9e07 2773 d787 a07c aa88
00000200: 96bf 3688 0f9a a987 5d9d 6388 0f48 2388
00000210: 7012 8788 7e72 ac07 f4af f086 9519 1a88
00000220: dbfc c107 2718 c907 7f37 df05 ec87 ca07
00000230: f67b bb08 7898 2d88 c878 f887 29da fa87
00000240: 17a2 8b08 e0ee 1888 4b19 5108 4931 c308
00000250: 1e0c 4308 9cd7 ca07 f2a6 4708 8f88 4c87
00000260: c74e 8387 9411 c687 5d0e c208 9024 0588
00000270: 4d2e 4988 6931 cb86 1f70 0c88 4d9c 2d87
00000280: 9d8d ec87 1dc1 e907 24b6 bb07 da08 7a88
00000290: 094c 8988 7de2 8d08 761a b908 ef07 6408
000002a0: 125f 5008 d854 e587 ffdf ef05 68f1 1f87
000002b0: 3004 bb06 3f3d 2d08 a154 8f08 b7a8 2e88
000002c0: 9903 1d08 e3ff 5a86 cd55 6988 150c 0988
000002d0: 536d 9e87 d9a4 4888 4c3a 7308 8fcd 2508
000002e0: 91b2 ec87 3426 b087 02ed 8c08 ff93 8087
000002f0: 91f9 0685 f665 b107 ec88 4985 93c2 9207
00000300: f2d3 2408 171d 1a08 1a74 ea06 3f3a 9b88
00000310: b57c 8108 15d9 9d87 d535 c288 d494 9906
00000320: c0bf 9987 ba98 4108 0fe5 a107 b01d ee87
00000330: e687 eb87 b28f 5f08 0025 8788 74fa 2907
00000340: 5501 b988 8c4f 0587 56c3 6708 0fbd 3788
00000350: 313b ab88 1c49 bc07 76a6 8b08 0f65 5408
00000360: 54c1 2b88 b231 9908 dccf 0c88 401b 9208
00000370: 263f 4d08 13d3 6588 015d 1a08 047b 8988
00000380: 299b fb07 d76f fa07 fd7f 8087 940d b988
00000390: c1cf 0808 214c 0787 f80f ae06 52f7 6088
000003a0: cdb6 ab88 016b 0588 64af 4907 8f92 3008
000003b0: f62b 2288 874b 3c07 9f96 bf07 9ec4 e687
000003c0: 99b3 1387 f6b2 3688 da89 a187 b2e5 0f08
000003d0: 0cee 2908 6706 de87 9843 8086 79f3 7708
000003e0: 3f6d 1387 60f6 3606 e292 ad88 0a40 1288
000003f0: f482 3988 62bc 0488 4805 9687 21a7 2b88

layers.0.attn.0.gnn_q.bias f4 [16]
1.416852e-36 -2.8614355e-36 -5.5064224e-34 6.522469e-34 -9.413845e-34 3.1526573e-34 6.461665e-35 1.06254165e-33
8.947802e-34 -5.93228e-34 1.0317881e-33 7.6211225e-34 -1.9868472e-35 -1.0795629e-33 8.630284e-34 2.7769458e-34
00000000: 9c10 f103 8c6c 7384 76fb 3688 08bf 5808
00000010: 116a 9c88 af87 d107 d0c7 ab06 868b b008
00000020: beab 9408 4222 4588 696f ab08 5741 7d08
00000030: 2047 d385 875f b388 2b65 8f08 498f b807
