checkpoints/cyp2c19_veith_40_train1_neg/Aug30-04:37:17_300.pth (torch, 471359 bytes, 294 tensors)

layers.0.weight f4 [24, 16]
0	0x3f44c095	0.76856357
1	0x3f823825	1.0173384
2	0x3e530826	0.20608577
3	0x3fee0da7	1.8597916
4	0x3d9b4ca6	0.07582979
5	0xbe08d91f	-0.13364075
6	0xbe8bf1bb	-0.27332863
7	0x3f4cd226	0.8000816
8	0x3e39cc87	0.18144427
9	0xbf52e24d	-0.8237656
10	0x3f8709c4	1.0549855
11	0x3df7f88b	0.12107953
12	0x3f7363ed	0.9507435
13	0x3f7d54b7	0.9895739
14	0xbf059bf5	-0.52191097
15	0xbea9ab9d	-0.33138743
16	0x3fcd894f	1.6057528
17	0xbeb337fe	-0.35003656
18	0xbcf343f6	-0.029695492
19	0x3ef18735	0.47173467
20	0xbe5811e6	-0.21100578
21	0x3e55a1b5	0.20862468
22	0xbf8b87a5	-1.090077
23	0xbe73c05f	-0.23803852
24	0xbdcc6e58	-0.09981984
25	0xbfd58d10	-1.6683674
26	0x3e8ca46d	0.27469197
27	0xbe232845	-0.1593333
28	0x3c1497ee	0.009069426
29	0x3d1d7a45	0.038446683
30	0x3dbb22f5	0.09137527
31	0xbf96b659	-1.1774398
32	0x3d82b03e	0.06381272
33	0xbf2da0a8	-0.67823267
34	0x3de0421d	0.1095011
35	0x3f95e76b	1.1711248
36	0x3df68bd2	0.12038387
37	0x3ea26561	0.3171797
38	0xbcec2007	-0.028823866
39	0xbf0106e4	-0.5040114
40	0x3e18b112	0.14911297
41	0xbd9d6a3f	-0.076862805
42	0x3f2cd869	0.67517716
43	0xbe70e6e8	-0.23525584
44	0x3ee31d8e	0.44358486
45	0x3eefc047	0.46826383
46	0x3d9f05bc	0.077647656
47	0xbd6ea108	-0.05825904
48	0x3d9e1e15	0.077205814
49	0xbe015af0	-0.12632346
50	0x3d40737c	0.046985134
51	0xbe16fc3e	-0.1474466
52	0xbe1f28e6	-0.15542945
53	0x3ea36f53	0.3192087
54	0x3d64d9d6	0.055871807
55	0xbd092204	-0.033479705
56	0xbe434e7a	-0.19072905
57	0xbdf185a5	-0.11793069
58	0xbd5cbd2c	-0.053891346
59	0xbe1b82ad	-0.15186568
60	0x3c9d6063	0.019211
61	0x3d2fad44	0.04288985
62	0xbeb8814c	-0.36036146
63	0x3c3a1832	0.011358308
64	0x3d837546	0.064188525
65	0xbe04702a	-0.12933412
66	0x3cbe2a6b	0.023213586
67	0xbe238390	-0.15968156
68	0xbe9b08ca	-0.30280143
69	0x3e84828c	0.2588085
70	0x3d5732ba	0.05253861
71	0xbd71845d	-0.058964122
72	0xbe40c2be	-0.18824288
73	0xbda40c3b	-0.08010145
74	0xbd9208de	-0.071305975
75	0xbe2d41e2	-0.16919664
76	0x3d94b066	0.07260208
77	0x3dcba43e	0.09943436
78	0xbe9b000e	-0.3027348
79	0x3c7d1e68	0.015449144
80	0x3d2c4ef6	0.04206749
81	0xbdc7e23e	-0.09759949
82	0x3e086e3b	0.133233
83	0xbdf71d65	-0.120661534
84	0xbec7c51b	-0.39017567
85	0x3e666f22	0.22503331
86	0x3d506fee	0.050887994
87	0xbc0dd92c	-0.008657735
88	0xbe0423cd	-0.12904282
89	0xbda5963a	-0.08085294
90	0xbce20ddc	-0.0275945
91	0xbdba759d	-0.09104464
92	0x3d247ab9	0.0401561
93	0x3da7acfc	0.08187291
94	0xbd6808bf	-0.056648966
95	0x3c709299	0.014683389
96	0x3e652886	0.2237874
97	0xbdcb1251	-0.09915603
98	0x3c13502b	0.0089912815
99	0xbe8dba9b	-0.2768143
100	0xbd91281d	-0.07087729
101	0x3d32dda8	0.04366842
102	0x3d9140fc	0.07092473
103	0xbdad58d9	-0.08464212
104	0xbcf616db	-0.030040195
105	0xbe7838d8	-0.24240434
106	0xbe20da75	-0.15708335
107	0xbd1e9379	-0.03871486
108	0x3daf3bac	0.085563034
109	0x3da0d111	0.07852376
110	0x3ddc2ebd	0.10751102
111	0x3d89eb99	0.0673439
112	0xbeb088fe	-0.34479517
113	0xbf256fac	-0.6462352
114	0xbdea1c2e	-0.11431156
115	0xbf684a39	-0.90738255
116	0x3b93c9b5	0.0045101293
117	0x3e5bcec1	0.21465589
118	0xbfa0fcfe	-1.2577207
119	0xbf068b1c	-0.52556014
120	0xbd696877	-0.05698439
121	0x3eb05ed7	0.34447357
122	0xbf0ad0bb	-0.5422475
123	0xbe1167b1	-0.14199711
124	0x3d2e6d09	0.042584453
125	0x3d89dcca	0.06731565
126	0x3e89af57	0.26891586
127	0xbfb0b57a	-1.3805382
128	0x3f97efcb	1.1870054
129	0xbe3598e6	-0.17734107
130	0x3dc556d8	0.09635705
131	0x3f9ced09	1.2259837
132	0xbd85ebad	-0.06539092
133	0xbd54ae43	-0.051924
134	0xbde72a43	-0.11287358
135	0xbe1747c3	-0.14773469
136	0x3d843fec	0.06457505
137	0xbfa2c16f	-1.2715281
138	0x3f337940	0.7010689
139	0x3ca77500	0.020441532
140	0xbf1b3a3e	-0.60635746
141	0xbf1cd4ca	-0.6126219
142	0xbc043794	-0.0080698915
143	0xbdfab967	-0.12242394
144	0xbe9519f8	-0.29121375
145	0xbeeefbae	-0.4667639
146	0x3e6327d6	0.22183165
147	0x3fcd7167	1.6050233
148	0x3ebecc71	0.3726535
149	0x3e8e78b9	0.2782648
150	0xbe7f4dd2	-0.2493203
151	0xbea9c87a	-0.33160764
152	0x3eac51f5	0.33656278
153	0x3ea35067	0.3189728
154	0x3f6ebef9	0.9326015
155	0xbe2bfd33	-0.16795807
156	0x3f19c665	0.6006835
157	0x3f18981f	0.5960712
158	0xbcf541fb	-0.029938689
159	0xbe8c7248	-0.2743094
160	0x3e3f8dad	0.18706389
161	0xbd53829d	-0.051638234
162	0x3bd41386	0.006472054
163	0xbe9aefc8	-0.30261064
164	0xbc043909	-0.008070239
165	0x3d86aa38	0.065754354
166	0x3d1766ae	0.036963157
167	0xbc9d3b3d	-0.019193286
168	0xbce7a19f	-0.02827531
169	0xbe474062	-0.19458154
170	0xbe4441af	-0.19165681
171	0xbd98ed83	-0.07467177
172	0x3d090f4f	0.033461865
173	0x3cdc3d58	0.02688472
174	0xbcbd82aa	-0.023133595
175	0x3d10d3c0	0.03535819
176	0x3bb6b592	0.005575844
177	0xbd60c6d1	-0.054877106
178	0x3cc62613	0.024188077
179	0xbeb7e4e5	-0.3591682
180	0xbdf25dd7	-0.11834305
181	0xbd1b58b1	-0.03792638
182	0x3e388d6e	0.18022701
183	0xbd65ad93	-0.056073736
184	0xbd039b5e	-0.03213059
185	0x3b847300	0.0040420294
186	0xbe4943ac	-0.19654721
187	0x3ce72212	0.028214488
188	0x3b9ea028	0.0048408695
189	0x3c8b9b4d	0.017041827
190	0x3dab7f25	0.0837386
191	0x3e1d228f	0.15345214
192	0x3d1f589e	0.03890287
193	0x3fabf664	1.3434567
194	0xbd781746	-0.06056907
195	0xbd2b68f5	-0.04184814
196	0xbe6a59bc	-0.22885793
197	0xbf42d647	-0.7610821
198	0xbf463ade	-0.77433574
199	0x3f808622	1.0040934
200	0xbe6c3f70	-0.23071074
201	0xbd142372	-0.036166616
202	0xbca3b6c9	-0.01998462
203	0x3f0576f1	0.52134615
204	0xbf3f3a6a	-0.7469851
205	0xbf42d1fe	-0.7610167
206	0xbec0bdbe	-0.37644762
207	0xbf540bcc	-0.828305
208	0x3ee29c30	0.44259787
209	0x3f502820	0.81311226
210	0x3d94fb4e	0.07274495
211	0x3e8274a7	0.25479624
212	0xbe1e32ad	-0.15449019
213	0xbe894196	-0.2680785
214	0x3ea14d1c	0.31504142
215	0x3f1b938e	0.60772026
216	0xbc518939	-0.012789064
217	0xbefbfcaa	-0.49216205
218	0x3e1fb165	0.15595014
219	0x3e4aaf15	0.19793351
220	0xbe16b6be	-0.14718148
221	0xbe359a9c	-0.1773476
222	0xbe87a98b	-0.2649654
223	0x3ea3fd61	0.3202925
224	0xbf3c2167	-0.7348847
225	0x3fb3ce24	1.4047284
226	0xbc9dfb3d	-0.019284839
227	0x3e956eb6	0.29186028
228	0x3a53c59a	0.0008078456
229	0xbf2d750d	-0.6775673
230	0xbf9252ad	-1.1431481
231	0x3f875191	1.0571767
232	0xbd9b7efc	-0.0759258
233	0x3f4179ff	0.75576776
234	0x3e43f497	0.19136272
235	0x3ef7d50e	0.48404735
236	0x3dfd9611	0.123821385
237	0x3de7651a	0.112985805
238	0xbee32ec8	-0.4437163
239	0xbf9a21b1	-1.2041532
240	0x3eaebe35	0.3412949
241	0x3ea2b830	0.3178115
242	0xbe20b10c	-0.15692538
243	0xbf4354bd	-0.76301175
244	0x3d0e04d5	0.034672577
245	0x3e21a127	0.15784131
246	0xbf9041fd	-1.1270138
247	0x3e72bf25	0.23705728
248	0xbda33a72	-0.07970132
249	0xbeb4b2f1	-0.3529277
250	0xbede4a2a	-0.43415958
251	0xbdd4bac2	-0.10387184
252	0x3f16036f	0.5859899
253	0x3f1889de	0.5958537
254	0xbcf1f6df	-0.029536663
255	0xbf9b9e32	-1.2157652

layers.0.bias f4 [16]
0	0xbeb77645	-0.3583242
1	0xbea475ea	-0.3212121
2	0x3f3464c5	0.7046626
3	0xbee91fb8	-0.45532012
4	0x3eb26325	0.34841266
5	0xbebbfa47	-0.36714384
6	0x3e74f17b	0.23920242
7	0x3e86869b	0.2627457
8	0xbef48c6b	-0.4776338
9	0xbe7f8e3c	-0.24956602
10	0x3d9d004f	0.076660745
11	0x3d12555d	0.03572594
12	0xbe831e43	-0.25609025
13	0x3e8780b9	0.26465395
14	0x3ebdbbc2	0.3705731
15	0xbec4861a	-0.3838356

layers.1.weight f4 [16, 16]
0	0xbe4d2d14	-0.20036727
1	0x3bdc58cf	0.006724454
2	0x3e72dfa3	0.23718123
3	0x3ecd4f2e	0.40099472
4	0x3fabca91	1.3421193
5	0x3dd52025	0.10406522
6	0xbeee4637	-0.46537945
7	0xbd2e708e	-0.04258781
8	0x3f4bc60d	0.79599077
9	0x3e85eb5e	0.26156133
10	0xbd2b57d0	-0.04183179
11	0xbe5f1e4f	-0.21788906
12	0xbe0ed699	-0.1394905
13	0xbd51f9e5	-0.05126371
14	0x3ccfd792	0.025371347
15	0x3e9af90a	0.30268127
16	0xbe39807a	-0.18115416
17	0xbe30de2a	-0.17272249
18	0x3e0075a7	0.12544881
19	0x3e8fef98	0.28112483
20	0xbe5aa0ed	-0.21350451
21	0xbea26615	-0.31718507
22	0xbf8c62ad	-1.0967613
23	0xbd83a05d	-0.06427071
24	0xbee65f2e	-0.4499449
25	0x3f177451	0.5916186
26	0xbdaf6c97	-0.08565634
27	0xbf227b01	-0.6346894
28	0x3d371355	0.04469617
29	0xbd715f61	-0.05892885
30	0xbcc03c00	-0.02346611
31	0x3e68e36d	0.22743006
32	0xbe541b9c	-0.20713657
33	0xbe4c93d5	-0.19978268
34	0xbe1bdaff	-0.15220259
35	0x3e7e7525	0.24849375
36	0x3f22f693	0.6365749
37	0xbd77c771	-0.060492937
38	0xbf64b6e7	-0.89341587
39	0x3e6e40b1	0.23266865
40	0xbca04f7a	-0.019569147
41	0x3f4db11f	0.8034839
42	0x3aab9d9d	0.0013093237
43	0xbe358a4d	-0.17728539
44	0xbec23363	-0.3792983
45	0x3d58f874	0.05297132
46	0x3e021e15	0.12706788
47	0x3e082fdd	0.13299508
48	0xbe688105	-0.22705467
49	0x3dcc060d	0.099620916
50	0x3dab2c11	0.083580144
51	0x3ea7d2c6	0.32777995
52	0x3e132b11	0.14371897
53	0xbd739400	-0.059467316
54	0xbe95cf39	-0.2925966
55	0x3d636404	0.055515304
56	0xbe8eb24f	-0.27870414
57	0x3f1f834d	0.62309724
58	0xbda95aef	-0.08269297
59	0x3e28cc4f	0.16484188
60	0x3d00efff	0.031478878
61	0xbbe14e49	-0.0068757874
62	0xbe0d5757	-0.13802849
63	0x3ecb5556	0.39713544
64	0x3d43c54e	0.047795586
65	0xbd618327	-0.055056717
66	0xbe18b904	-0.14914328
67	0xbf167086	-0.5876545
68	0xbefa839c	-0.48928535
69	0xbe8f8db5	-0.280378
70	0x3e785019	0.24249305
71	0x3f217a87	0.63077587
72	0xbf2eaddb	-0.6823403
73	0x3efc216f	0.49244258
74	0x3beb8ddb	0.0071885413
75	0x3ed67dbb	0.418928
76	0xbdf61647	-0.12015968
77	0x3db9a479	0.09064574
78	0xbdb36619	-0.08759708
79	0x3e3575fb	0.17720787
80	0x3e0a3064	0.13495022
81	0xbd84d2c9	-0.064855166
82	0x3e52b17b	0.20575516
83	0xbf0cd4a7	-0.5501198
84	0x3f1db463	0.61603373
85	0xbdc7feb1	-0.097653754
86	0x3f446578	0.7671733
87	0x3eda61a2	0.42652613
88	0x3f38674e	0.7203263
89	0x3c0a9762	0.008458944
90	0x3ca0bdee	0.019621816
91	0x3f57e520	0.8433399
92	0xbdda9200	-0.106723785
93	0xbe71366c	-0.23555917
94	0x3d3e7ac4	0.046503797
95	0x3e2ab905	0.16672142
96	0x3e766a24	0.24063927
97	0x3e242476	0.16029534
98	0xbe68fa7c	-0.22751802
99	0xbd373857	-0.044731464
100	0x3e1c5f8f	0.15270828
101	0xbf639118	-0.8889327
102	0x3ed4c203	0.4155427
103	0xbe906a98	-0.28206325
104	0x3f31316f	0.69216055
105	0x3e94baa9	0.2904866
106	0xbe05222c	-0.13001317
107	0x3cc4d50a	0.024027366
108	0x3e004ca0	0.1252923
109	0x3d2826ea	0.041052736
110	0xbd8c7074	-0.06857386
111	0xbed951a0	-0.42445087
112	0x3e5b34f4	0.21406919
113	0xbce937bc	-0.028468959
114	0xbe7b41c1	-0.24536802
115	0xbecd94f1	-0.40152696
116	0xbe5847cd	-0.2112114
117	0xbf480f6f	-0.7814855
118	0xbe5c7917	-0.21530567
119	0x3e2ffda5	0.17186601
120	0xbd6428e4	-0.05570306
121	0x3f23684e	0.6383103
122	0x3d0ac9a8	0.03388372
123	0xbf34a361	-0.70561796
124	0xbd007887	-0.031364944
125	0xbd8881a8	-0.06665355
126	0x3dc529db	0.09627124
127	0xbe20229e	-0.15638205
128	0x3e5710e6	0.2100254
129	0xbf0758bc	-0.5286977
130	0x3cd352ad	0.025796259
131	0xbf8f83f2	-1.1212142
132	0x3b4a288f	0.0030846929
133	0xbf721717	-0.9456648
134	0x3f35f5a9	0.7107797
135	0x3f0382d6	0.51371515
136	0x3f1997ae	0.5999707
137	0x3e9e773e	0.3095035
138	0xbe2cd542	-0.16878226
139	0x3e6f59c6	0.2337409
140	0x3e92b361	0.2865248
141	0xbde06ad1	-0.109578736
142	0x3f02bf8a	0.51073515
143	0xbdc4b383	-0.09604552
144	0xbda22c74	-0.07918635
145	0xbe0cb4ac	-0.13740796
146	0x3e825e01	0.25462344
147	0xbe85763e	-0.26066774
148	0xbf0320be	-0.51221836
149	0x3eb839b4	0.35981524
150	0x3e442656	0.19155249
151	0x3ef164ba	0.4714716
152	0xbf94c997	-1.162402
153	0x3c1db608	0.009625919
154	0xbd01d3d0	-0.03169614
155	0x3f01e3c2	0.50738156
156	0xbdd3ab98	-0.10335463
157	0xbb629140	-0.003457144
158	0xbce7d7fe	-0.028301235
159	0x3ed77582	0.4208184
160	0x3eacf8da	0.3378361
161	0x3e1d3595	0.15352471
162	0xbd5ef10b	-0.054429095
163	0xbe831bf1	-0.25607255
164	0xbe4c82c8	-0.19971764
165	0xbf67eec3	-0.90598696
166	0xbe3b1047	-0.18267928
167	0xbe495f55	-0.19665273
168	0x3e91362d	0.28361645
169	0x3e90824a	0.28224403
170	0xbddf8202	-0.10913469
171	0xbf4b4c10	-0.7941294
172	0x3d2bf843	0.041984808
173	0x3d9283f8	0.07154077
174	0x3d2e2f99	0.04252586
175	0xbeb75950	-0.35810328
176	0xbd66d59b	-0.056356054
177	0x3e95502d	0.29162732
178	0x3e919a34	0.2843796
179	0xbd6e06ad	-0.058111835
180	0xbf423049	-0.7585493
181	0xbe89dec8	-0.2692778
182	0xbf3a70fb	-0.72828645
183	0xbd8dea41	-0.06929446
184	0xbf09f986	-0.5389637
185	0x3ad213e4	0.0016027656
186	0xbe3c66df	-0.18398617
187	0xbf709fa5	-0.939936
188	0xbe24ce30	-0.1609428
189	0x3ec56657	0.38554642
190	0x3e607f83	0.21923642
191	0xbdf2ad7b	-0.11849495
192	0x3e69fdd2	0.22850731
193	0x3d029852	0.031883545
194	0x3e812452	0.25223023
195	0xbf39aef8	-0.72532606
196	0x3e46786b	0.19381873
197	0xbf76d188	-0.9641347
198	0xbd567290	-0.05235535
199	0x3f786d23	0.9704153
200	0x3e436d24	0.19084603
201	0x3f96b746	1.1774681
202	0xbe846ce1	-0.25864318
203	0x3d63481c	0.05548869
204	0x3d59b2c3	0.053148996
205	0x3dac747a	0.08420654
206	0xbb999228	-0.0046866126
207	0x3ee24f15	0.4420096
208	0x3e769e1d	0.24083753
209	0x3d5c18b5	0.0537345
210	0xbe60e97e	-0.2196407
211	0xbf90e766	-1.1320617
212	0x3a829055	0.0009961227
213	0xbf82b61b	-1.0211824
214	0x3eb908ec	0.3613962
215	0x3f0cd187	0.55007213
216	0x3ce78e8d	0.028266216
217	0x3f72cc3d	0.9484289
218	0xbd805f99	-0.06268234
219	0x3e88c9c8	0.26716447
220	0xbd50a03a	-0.050934054
221	0xbc7850f2	-0.015156018
222	0x3c9c8bf0	0.019109696
223	0x3c9256f4	0.017863728
224	0xbdd43167	-0.10360985
225	0xbd25d313	-0.0404845
226	0xbdf0a84e	-0.117508516
227	0xbd62863b	-0.055303793
228	0x3dd5c9d2	0.10438885
229	0x3f047e97	0.5175566
230	0x3f3ee09e	0.7456149
231	0x3dcab34f	0.09897482
232	0xbc79c175	-0.015243878
233	0xbee11cf9	-0.43967417
234	0x3d313d77	0.043271508
235	0x3f5cfe26	0.863253
236	0xbb9c04e7	-0.0047613266
237	0xbbb2d6ba	-0.0054577263
238	0xbef42502	-0.47684485
239	0xbd80524b	-0.06265696
240	0xbe4f36ad	-0.20235701
241	0xbd4cd833	-0.05001087
242	0x3e8753ef	0.26431224
243	0x3ed5f5c8	0.4178908
244	0x3ecf3b4c	0.40474927
245	0x3d3057d2	0.043052502
246	0xbebf838e	-0.37405056
247	0xbca2e056	-0.019882362
248	0xbd8490f3	-0.06472959
249	0x3f191081	0.5979081
250	0x3c6cdcf6	0.014456978
251	0x3bf41ee1	0.00744997
252	0xbdf7f360	-0.12106967
253	0xbd852a32	-0.06502189
254	0xbe4671c3	-0.19379334
255	0x3edec6da	0.43511087

layers.1.bias f4 [16]
0	0x3cb4d742	0.0220753
1	0xbe778be3	-0.24174456
2	0x3f3084f7	0.6895289
3	0xbe3d9e82	-0.18517497
4	0xbd6a46a2	-0.057196267
5	0xbd6c8ad4	-0.057749584
6	0xbc879db2	-0.016554687
7	0x3e278071	0.1635759
8	0xbdba24db	-0.09089061
9	0x3ca7beb8	0.020476684
10	0xbe5de1f1	-0.21668221
11	0xbd138eb8	-0.03602478
12	0x3ea12186	0.3147089
13	0xbdf1a099	-0.1179821
14	0x3e00c8c6	0.12576589
15	0x3d71080f	0.058845576

final.linears.0.weight f4 [112, 56]
0	0x3c93952e	0.01801547
1	0xbc94804d	-0.018127585
2	0xbb332ed8	-0.0027341153
3	0x3fc7bad4	1.560389
4	0xbfd6df79	-1.6786948
5	0xbf3452e5	-0.70438987
6	0x3e06ff74	0.13183385
7	0xbc2980f7	-0.010345689
8	0x3c03e6eb	0.008050661
9	0xbbe87836	-0.0070944084
10	0x3e551599	0.2080902
11	0x3d836fb1	0.06417788
12	0x3cbe800d	0.023254419
13	0xbb5f3718	-0.0034059938
14	0xbcd12bca	-0.025533576
15	0x3c23bc13	0.009993571
16	0x3ca2f2d4	0.01989118
17	0x3be8ad00	0.0071007013
18	0x3c6522b6	0.0139853265
19	0x3b9ddb55	0.004817406
20	0x3c48104b	0.012210916
21	0xbc6c14cd	-0.014409256
22	0x3cbe8b4c	0.023259781
23	0x3c31b57f	0.010846495
24	0xbd159e53	-0.036527943
25	0xbcf164b0	-0.029466957
26	0xbd7f6c9f	-0.06235945
27	0xbc8058f7	-0.015667422
28	0x3ba4458e	0.0050131744
29	0xbc0c569b	-0.00856557
30	0x3cd71ca0	0.026258767
31	0x3c563a66	0.013075447
32	0xbc3b9e5a	-0.011451328
33	0xbd5e4303	-0.054263126
34	0x3cb7214c	0.022354744
35	0xbd073daf	-0.03301781
36	0xbc172e17	-0.009227297
37	0xbc937201	-0.017998697
38	0xbd5ae661	-0.053442363
39	0xbcd36393	-0.025804317
40	0x3daa1201	0.08304215
41	0xbbc924db	-0.0061384267
42	0xbd4d19cb	-0.050073426
43	0x3d2d846e	0.042362623
44	0x3d973c69	0.07384569
45	0x3d783a81	0.06060267
46	0xbd9a181a	-0.07524128
47	0x3d8cbc2f	0.06871831
48	0xbd9405cc	-0.07227668
49	0x3d6cb57d	0.05779027
50	0xbc90a7b1	-0.017658086
51	0x3d86176b	0.065474354
52	0xbd51e41d	-0.051242936
53	0xbbe55d75	-0.0069996663
54	0xbc2bb4e1	-0.010480137
55	0xbde3d450	-0.1112448
56	0x3e90140c	0.28140295
57	0x3e910bab	0.28329214
58	0xbd0d7dfa	-0.03454397
59	0x3e6c931e	0.23102996
60	0x3e187de0	0.14891768
61	0x3e23ee22	0.16008809
62	0xbf4738c0	-0.7782097
63	0xbe4a60e4	-0.19763523
64	0xbe3922ae	-0.18079636
65	0xbdc422f7	-0.095769815
66	0x3e35d286	0.1775609
67	0x3d5ac8b7	0.053414073
68	0xbdf327fd	-0.118728615
69	0x3e17787b	0.14792053
70	0xbd046f68	-0.032332808
71	0x3e8b1fd6	0.27172726
72	0xbddd7355	-0.108130135
73	0xbc7089c0	-0.01468128
74	0x3e303c87	0.1721059
75	0x3e2260ba	0.15857211
76	0x3e941393	0.28921184
77	0x3d7cc8c2	0.061714895
78	0xbe8400ac	-0.25781763
79	0x3eadd90a	0.3395465
80	0x3cf1b240	0.029503942
81	0x3c5c2f2c	0.013438981
82	0xbdb6e814	-0.08930984
83	0x3c94aa9c	0.01814776
84	0xbd5bf54b	-0.053700726
85	0xbd33f583	-0.04393531
86	0x3d1b33ef	0.037891325
87	0xbd845e88	-0.06463343
88	0x3dacbfe6	0.08435039
89	0xbd042b26	-0.032267712
90	0xbd21b8d0	-0.03948289
91	0x3d97ba33	0.074085616
92	0xbb84ac3f	-0.0040488536
93	0xbc39c851	-0.011339263
94	0x3d28ba5f	0.041193362
95	0x3d603652	0.054739304
96	0x3d308929	0.043099556
97	0xbd85c274	-0.065312296
98	0xbbfd0954	-0.0077220593
99	0x3a2977b7	0.0006464677
100	0xbc889c5f	-0.016676126
101	0xbcb759a3	-0.02238161
102	0x3d31a9e6	0.04337492
103	0x3d2bc2b0	0.041933715
104	0xbc08b9d8	-0.00834509
105	0xbc9c78d8	-0.019100592
106	0x3cdc51fd	0.026894564
107	0xbd09c153	-0.033631634
108	0x3c7d476f	0.015458926
109	0x3cdcafab	0.026939234
110	0xbb712307	-0.003679456
111	0xbd15449e	-0.03644239
112	0xbf67ac08	-0.90496874
113	0xbeca0347	-0.39455625
114	0x3f843e6c	1.033155
115	0xbe478ccb	-0.19487302
116	0xbe480546	-0.19533262
117	0xbe6106b9	-0.2197522
118	0xbe913a50	-0.283648
119	0xbe669789	-0.22518744
120	0x3d591773	0.05300088
121	0xbeda1149	-0.42591313
122	0xbea05e31	-0.31321862
123	0xbe13b9f1	-0.144264
124	0xbf2ff5a7	-0.6873421
125	0x3cb17b0a	0.021665115
126	0x3f545159	0.82936627
127	0xbfa0cdfd	-1.2562863
128	0xbf766907	-0.9625401
129	0x3eb2e606	0.3494112
130	0x3f47e5fc	0.78085303
131	0x3e4439f0	0.19162726
132	0x3dbb0fec	0.09133896
133	0xbf00c3a5	-0.5029853
134	0x3d5e9d2e	0.054349117
135	0x3f1b6762	0.60704625
136	0x3d95263d	0.07282684
137	0x3dbb8284	0.09155753
138	0x3d090f06	0.033461593
139	0x3d9d1648	0.076702654
140	0xbdbac691	-0.09119905
141	0xbcefcbdd	-0.029272014
142	0xbda5191a	-0.08061428
143	0xbd209013	-0.0391999
144	0xbcef6527	-0.029223038
145	0xbe00ec17	-0.12590061
146	0x3cb21e63	0.021743005
147	0x3d4a593f	0.049401518
148	0x3ceb6bed	0.028737986
149	0xbd6a892d	-0.057259727
150	0xbd8a2811	-0.06745923
151	0x3d87f334	0.06638184
152	0x3dcf6952	0.1012751
153	0xbdbc9f6e	-0.09210096
154	0xbd34f52d	-0.04417913
155	0x3cd58c3e	0.02606785
156	0x3d63f383	0.055652153
157	0x3dea7afd	0.114492394
158	0xbd7da9fb	-0.061929684
159	0x3d6da823	0.058021676
160	0xbdf99d76	-0.121882364
161	0x3d8b71c7	0.06808811
162	0x3ccdfa64	0.02514381
163	0x3e22a0c1	0.15881635
164	0xbbc0484b	-0.005867993
165	0xbcc911d4	-0.024544634
166	0xbd03016e	-0.031983785
167	0xbc7596c3	-0.014989558
168	0x3fa27bc3	1.2694019
169	0xbfab9704	-1.3405461
170	0xbee88ef0	-0.45421553
171	0x3ea30d42	0.31846052
172	0x3e90cdd6	0.2828204
173	0x3e852143	0.2600194
174	0x3d117164	0.03550853
175	0xbf1a4fcf	-0.6027803
176	0x3f68462a	0.9073206
177	0x3e073303	0.13203053
178	0x3d1e84e1	0.038700942
179	0x3ef17e92	0.47166878
180	0x3f7224a1	0.9458714
181	0x3e15e1bf	0.14636897
182	0xbf35214b	-0.70753926
183	0xbfa5846d	-1.2931038
184	0xbf5cfaff	-0.8632049
185	0xbeddb7cf	-0.43304297
186	0x3f2f15d7	0.683927
187	0xbf09d37c	-0.53838325
188	0x3f5246fa	0.8213955
189	0xbec2257c	-0.37919223
190	0x3f72df49	0.94871956
191	0xbecb4df7	-0.3970792
192	0x3c985572	0.018595431
193	0x3db47432	0.08811225
194	0xbe74c085	-0.23901565
195	0x3cb7f7e1	0.022457065
196	0xbe235f3e	-0.15954301
197	0xbe09c280	-0.13453102
198	0xbe072d14	-0.1320079
199	0xbdbe17d2	-0.09281887
200	0x3dac909d	0.0842602
201	0xbd46564d	-0.048422147
202	0xbcaa99fc	-0.020825379
203	0x3e2e99c4	0.17050844
204	0xbdda2914	-0.10652366
205	0xbe67cfcd	-0.22637863
206	0xbdeff739	-0.11717076
207	0x3d04c0bb	0.032410365
208	0x3e4c6535	0.19960482
209	0xbe108699	-0.14113845
210	0xbe3607ce	-0.17776415
211	0xbdd7cdab	-0.10537275
212	0x3b9d7444	0.0048051197
213	0xbd490388	-0.049075633
214	0x3d975aa3	0.073903345
215	0x3da0d3d5	0.07852904
216	0x3d158f62	0.036513694
217	0x3cdfb3c4	0.027307399
218	0xbdbdb427	-0.09262877
219	0x3d97c450	0.074104905
220	0x3bfcb22b	0.007711669
221	0xbe21d548	-0.15804017
222	0xbcfae318	-0.030625865
223	0x3c91388a	0.017727155
224	0xbe2f450b	-0.17116182
225	0xbe204419	-0.15650977
226	0x3cff4ec2	0.031165484
227	0x3f0cbc7d	0.5497511
228	0xbeadafdc	-0.33923233
229	0xbe91992e	-0.2843718
230	0xbdaee267	-0.085392766
231	0x3eb92649	0.36162022
232	0xbc83e822	-0.0161019
233	0x3e197185	0.1498471
234	0xbd435849	-0.047691617
235	0xbd727603	-0.059194576
236	0x3e600688	0.21877491
237	0x3d2ba4b8	0.041905135
238	0x3d37b3a3	0.04484905
239	0xbe01eb53	-0.12687425
240	0x3d19e8d2	0.03757555
241	0x3e9ab1b9	0.30213717
242	0x3dbe5ad7	0.0929467
243	0x3d72df50	0.059295
244	0x3ed956a8	0.42448926
245	0x3e88da38	0.26728988
246	0x3e8e2208	0.2776034
247	0xbdd0a2dc	-0.10187313
248	0xbe384664	-0.17995602
249	0xbe20deb1	-0.1570995
250	0x3d81d70f	0.06339847
251	0xbda19d27	-0.078913026
252	0x3e1ea65e	0.15493152
253	0xbd340c8e	-0.043957286
254	0x3e16a64f	0.14711879
255	0x3e1e3c49	0.15452684

final.linears.0.bias f4 [112]
0	0xbf7b41d5	-0.98147327
1	0xbdd5c514	-0.1043798
2	0x3e81fd2f	0.25388476
3	0xbe41fea0	-0.18944788
4	0x3e789766	0.24276504
5	0x3d887993	0.066638134
6	0xbe606357	-0.21912895
7	0x3e3a5ed8	0.18200243
8	0xbd04d2ad	-0.03242748
9	0x3e62dba0	0.22154093
10	0x3e862145	0.26197258
11	0xbdc0d1c2	-0.09415008
12	0x3e3ac036	0.18237385
13	0x3d83a263	0.06427457
14	0x3e07b1f4	0.13251477
15	0x3e9cfd74	0.3066212
16	0xbda1f7db	-0.07908603
17	0xbe7da792	-0.24770954
18	0x3e8c639a	0.2741974
19	0x3e22a9ae	0.1588504
20	0x3e0b2321	0.1358762
21	0x3d2dbac4	0.04241444
22	0x3b98045b	0.004639191
23	0x3e46d092	0.19415501
24	0x3ea6b1b5	0.32557455
25	0x3dc1ea3b	0.09468504
26	0xbdae792c	-0.085192055
27	0xbf076329	-0.5288568
28	0x3e809a3f	0.2511768
29	0x3d4f138c	0.05055575
30	0xbcabe4d4	-0.020983137
31	0x3daf38dc	0.08555767
32	0xbea71c9d	-0.32639018
33	0xbf47f8a6	-0.7811378
34	0x399a5feb	0.00029444633
35	0xbe58599c	-0.21127933
36	0x3e002352	0.12513474
37	0xbe2028fc	-0.15640634
38	0x3e5eb3be	0.21748254
39	0x3e7f18d8	0.24911821
40	0x3ed72d92	0.42026955
41	0x3e2ce1c0	0.16882992
42	0x3ec61655	0.38688913
43	0xbdc579bb	-0.09642359
44	0xbd9bd565	-0.07609061
45	0xbd951af1	-0.07280529
46	0x3e29c0ed	0.16577502
47	0x3ec1a468	0.37820745
48	0x3e6387be	0.2221975
49	0xbe947cdf	-0.2900152
50	0xbf43f1d9	-0.76540905
51	0x3e0f2042	0.13977149
52	0x3d6e32e7	0.058154013
53	0x3e7b9c55	0.24571355
54	0x3dca1430	0.09867132
55	0xbda02ddf	-0.07821249
56	0x3e79efa7	0.24407826
57	0xbdc3e0f4	-0.09564391
58	0x3dd92da0	0.106044054
59	0xbe134dd9	-0.14385165
60	0x3e6b2026	0.22961482
61	0x3da62a37	0.081135206
62	0xbf00b124	-0.50270295
63	0x3eb53df6	0.35398835
64	0x3dc6a652	0.09699692
65	0xbbb25dfd	-0.005443333
66	0xbdef7a13	-0.11693206
67	0xbe57ecc0	-0.21086407
68	0x3cbcbc5b	0.023039034
69	0x3e9bbbb3	0.3041664
70	0x3e47319e	0.19452521
71	0x3e40cfdf	0.18829297
72	0xbeb8f2cb	-0.36122736
73	0xbe9446f2	-0.28960377
74	0x3a8ee9fe	0.0010903475
75	0x3d5f6253	0.05453713
76	0x3dcf5b3f	0.10124826
77	0x3da0dc08	0.07854468
78	0x3dc8b550	0.098002076
79	0xbead2b23	-0.33821973
80	0x3e665d85	0.22496612
81	0x3e770ae7	0.24125253
82	0xbd67916a	-0.056535162
83	0x3e45287f	0.1925373
84	0x3e1f9d82	0.15587428
85	0x3d0c29e8	0.034219652
86	0x3e888b7e	0.26668924
87	0x3e448716	0.19192156
88	0xbdf83ed4	-0.121213585
89	0xbe608a69	-0.219278
90	0xbdb91a71	-0.090382464
91	0x3d4ed7d8	0.050498813
92	0x3e9fddc5	0.31223884
93	0x3c64faba	0.0139757935
94	0x3e836647	0.2566397
95	0x3e31b198	0.17352903
96	0x3f283cf0	0.65717983
97	0xbdb48c4c	-0.08815822
98	0x3e1844eb	0.1487004
99	0xbcd74a2a	-0.026280481
100	0xbe2ed556	-0.17073569
101	0x3de07be7	0.109611325
102	0x3c38258e	0.0112394225
103	0xbdac4a9b	-0.08412667
104	0x3eac5aa6	0.3366291
105	0xbdd95545	-0.10611967
106	0x3ec37685	0.3817636
107	0x3d86331c	0.06552717
108	0xbe2bc3ad	-0.16773863
109	0x3c8ad4c8	0.016947165
110	0xbf1e656c	-0.6187351
111	0xbe82a506	-0.25516528

final.linears.1.weight f4 [112, 112]
0	0x3dd505aa	0.10401471
1	0xbd0fd27a	-0.035112835
2	0xbf879b24	-1.059422
3	0xbe85dc56	-0.26144665
4	0xbe27e56e	-0.16396114
5	0xbc1b0c53	-0.009463388
6	0xba973484	-0.0011536037
7	0xbdb4e4d2	-0.088327065
8	0xbe72de89	-0.23717703
9	0xbdfe5469	-0.12418444
10	0xbd437436	-0.04771825
11	0xbc54c2dd	-0.012985912
12	0xbd0aab53	-0.033854794
13	0xbdd3dd5a	-0.10344954
14	0xbd2b2b3a	-0.04178927
15	0xbe39ca45	-0.18143566
16	0x3d0e2e25	0.034711976
17	0xbd65541f	-0.055988427
18	0xbe7be5bd	-0.24599357
19	0xbbec953e	-0.0072199395
20	0xbe3f065a	-0.18654767
21	0xbe91bc49	-0.28463963
22	0xbe3278a0	-0.17428827
23	0xbde9504e	-0.1139227
24	0xbe7eca99	-0.24881972
25	0x3ce517c3	0.027965432
26	0xbd4c8284	-0.049929157
27	0x3db761c1	0.08954192
28	0xbc8b54ba	-0.017008174
29	0xbe416300	-0.18885422
30	0xbe604eca	-0.21905056
31	0xbe61baba	-0.22043887
32	0xbd193e41	-0.037412886
33	0x3e3f7dd8	0.1870035
34	0xbe2c473c	-0.16824049
35	0xbd90db8b	-0.070731245
36	0xbcdae93b	-0.026722541
37	0xbe8a23cc	-0.26980436
38	0xbe994f93	-0.29943523
39	0xbd9e4e75	-0.07729808
40	0xbe7d7a46	-0.24753675
41	0xbe49f47e	-0.19722173
42	0xbe47bd85	-0.1950589
43	0xbe4b124f	-0.19831203
44	0xbd356957	-0.044289913
45	0xbe19105c	-0.14947647
46	0xbdfac2e4	-0.12244204
47	0xbe5baa86	-0.21451768
48	0xbeaa1f9b	-0.33227238
49	0xbd2716ea	-0.040793337
50	0x3c5f4754	0.013627846
51	0xbe35123b	-0.17682736
52	0xbdfd9ea6	-0.123837754
53	0xbe7f8ebc	-0.24956793
54	0xbeb0ecaa	-0.3455556
55	0xbeacebfd	-0.33773795
56	0xbe215b17	-0.15757404
57	0xbcb48d91	-0.02204016
58	0x3cf27b3d	0.02959978
59	0xbe4fabac	-0.20280331
60	0xbe304316	-0.17213091
61	0xbe73f341	-0.23823263
62	0x3d106fd3	0.035262894
63	0xbe4b7bf0	-0.19871497
64	0xbef788cf	-0.48346564
65	0xbe786e99	-0.2426094
66	0xbd4536db	-0.048148017
67	0xbe0443cf	-0.12916492
68	0xbdaaaa30	-0.08333242
69	0xbe63c559	-0.22243251
70	0xbe859140	-0.2608738
71	0xbe884125	-0.266122
72	0xbc03d67c	-0.0080467425
73	0x3e40dd6a	0.18834463
74	0xbe7459ce	-0.23862383
75	0xbd77b328	-0.06047359
76	0xba57f225	-0.00082376815
77	0xbd4067e8	-0.046974093
78	0xbeb7dcbf	-0.35910603
79	0xbb8b6e9c	-0.004255129
80	0xbd8036f6	-0.06260483
81	0xbe4d63b8	-0.20057571
82	0xbe6fdb83	-0.23423581
83	0xbe5bc673	-0.21462421
84	0xbde06e27	-0.1095851
85	0xbdb5d93d	-0.088793255
86	0xbd61e7bc	-0.05515264
87	0xbe049024	-0.1294561
88	0xbe04dfcc	-0.12975997
89	0x3c4698f0	0.012121424
90	0x3d0b7b30	0.034053028
91	0xbe0191fc	-0.12653345
92	0xbe43ca85	-0.19120224
93	0xbe951a43	-0.291216
94	0xbcf114f5	-0.029428938
95	0xbe6d59ed	-0.23178835
96	0xbeaa782f	-0.33294818
97	0xbaf10801	-0.0018389226
98	0xbe952d36	-0.29136056
99	0xbd994708	-0.07484251
100	0xbe131191	-0.1436217
101	0xbe6d6b5f	-0.2318549
102	0xbd590266	-0.052980803
103	0x3dca712e	0.098848686
104	0xbe466b1a	-0.19376794
105	0x3d0b48d0	0.034004986
106	0xbe1f99b4	-0.15585977
107	0xbda72db9	-0.08163018
108	0xbceb28a2	-0.028705899
109	0xbc390136	-0.011291793
110	0x3dc42e25	0.09579114
111	0xbe81dc17	-0.25363228
112	0xbf7cd6af	-0.9876508
113	0xbcab8097	-0.02093534
114	0xbd753d84	-0.05987312
115	0xbd765e59	-0.06014857
116	0x3f01b9d3	0.5067417
117	0xbb76cbda	-0.0037658126
118	0x3e7b02bb	0.2451276
119	0x3d296f19	0.041365717
120	0xbd674c29	-0.056469116
121	0xbd8b85bd	-0.06812618
122	0x3deb5c5c	0.114922255
123	0xbd77eea2	-0.060530312
124	0xbd64bfd1	-0.055846993
125	0xbc7d142a	-0.015446702
126	0xbd9691bb	-0.07352015
127	0xbdd60e17	-0.10451906
128	0xbd45e4b1	-0.0483138
129	0x3e0bac14	0.13639861
130	0xbdd54327	-0.10413199
131	0x3c00f52d	0.007870954
132	0xbd5e7124	-0.054307118
133	0x3f2070c2	0.62672055
134	0xbcf8636b	-0.030320844
135	0x3d943c3d	0.07238052
136	0xbda4ac0e	-0.08040629
137	0xbd35a51c	-0.044346914
138	0xbd879f49	-0.06622178
139	0xbc932853	-0.017963564
140	0x3cb5f322	0.022210661
141	0xbd926aba	-0.07149263
142	0xbd3aa262	-0.045565017
143	0xbda0b049	-0.07846124
144	0x3d065e41	0.03280473
145	0xbe299f14	-0.1656459
146	0xbd6afa3b	-0.057367545
147	0xbbdd0061	-0.00674443
148	0xbdc0def0	-0.09417522
149	0xbd7fc33f	-0.06244206
150	0xbd5bc422	-0.053653844
151	0xbde1d0f5	-0.110261835
152	0xbf059d4b	-0.52193135
153	0xbd2a6931	-0.041604225
154	0xbe07972a	-0.13241258
155	0xbd81c0ec	-0.06335625
156	0xbe5bcf36	-0.21465763
157	0xbd73da36	-0.059534274
158	0xbc9fc399	-0.019502448
159	0xbdd9f573	-0.10642519
160	0xbdbba573	-0.09162416
161	0xbdf8fb62	-0.121573225
162	0xbdcb77d4	-0.09934965
163	0xbdb16c8c	-0.08663282
164	0xbd94b8be	-0.07261799
165	0xbd852546	-0.0650125
166	0xbd177256	-0.036974274
167	0xbdc884cd	-0.09790955
168	0xbdbfbb82	-0.09361936
169	0x3d4074d7	0.046986427
170	0xbe158f94	-0.14605552
171	0xbd6550ff	-0.055985447
172	0xbd4eda6b	-0.05050127
173	0xbdaf2ad2	-0.08553089
174	0xbcd98433	-0.026552295
175	0x3c931f56	0.017959278
176	0xbda0c498	-0.07849997
177	0xbd83839b	-0.06421586
178	0xbdf815ae	-0.1211351
179	0xbd66d0d2	-0.05635149
180	0x3cb91789	0.02259423
181	0xbd0e445e	-0.03473317
182	0xbd7f9887	-0.06240132
183	0xbd70860f	-0.0587216
184	0x3e0a30ec	0.13495225
185	0xbd9b49e6	-0.075824544
186	0xbd05244e	-0.032505326
187	0xbdf7322a	-0.12070115
188	0x3d9d9d1d	0.076959826
189	0xbf0e1dcc	-0.55514216
190	0xbda78bdf	-0.08180975
191	0x3d259b67	0.040431406
192	0x3c3e2002	0.011604311
193	0xbd8888ce	-0.066667184
194	0xbda96d91	-0.08272851
195	0xbe4adc67	-0.1981064
196	0xbc9be105	-0.019028196
197	0x3d070707	0.032965686
198	0x3d34589a	0.04402981
199	0xbda6d575	-0.081461824
200	0xbd7c1681	-0.0615449
201	0x3c14cb5d	0.009081689
202	0x3d86aa50	0.06575453
203	0x3cc5defd	0.02415418
204	0xbda50bc7	-0.08058887
205	0xbd926fd9	-0.071502395
206	0x3ca7ff8d	0.020507598
207	0xbd908693	-0.07056918
208	0x3eb7cc01	0.3589783
209	0xbcdde192	-0.0270851
210	0xbd033320	-0.03203118
211	0xbd00fc2e	-0.031490497
212	0xbecadc6b	-0.3962129
213	0xbd717226	-0.05894675
214	0xbd2b2e0c	-0.04179196
215	0xbdda0b66	-0.10646705
216	0xbdd9f464	-0.10642317
217	0x3e853fbc	0.26025188
218	0xbd645772	-0.055747457
219	0x3d6d1687	0.057882812
220	0x3d0f61d8	0.03500542
221	0x3d02ebba	0.031963088
222	0xbead6820	-0.33868504
223	0xbd8385ba	-0.06421991
224	0x3dffa0fc	0.12481877
225	0x3d226d70	0.03965515
226	0xbdf2abd3	-0.11849179
227	0xbe0e1f5b	-0.13879149
228	0xbe41e73a	-0.18935862
229	0xbcd5e543	-0.026110297
230	0xbda7f80c	-0.08201608
231	0x3d9e38db	0.07725688
232	0xbeb1835d	-0.34670535
233	0xbe842f25	-0.25817218
234	0x3d1e2de8	0.038618
235	0xbdd8146f	-0.105507724
236	0x3db7d620	0.08976388
237	0xbdd9efe7	-0.10641461
238	0xbc2b9c0f	-0.010474219
239	0xbe3fa8e4	-0.1871677
240	0xbd10e9e7	-0.035379317
241	0xbda0a0c6	-0.07843165
242	0xbe37805a	-0.17920056
243	0xbe0155ce	-0.12630388
244	0xbe61e170	-0.22058654
245	0xbeb8ff53	-0.36132297
246	0xbe92a3ba	-0.28640538
247	0xbd16df77	-0.036834206
248	0xbe3680e6	-0.17822608
249	0xbe92beb2	-0.28661114
250	0xbdd82751	-0.10554374
251	0x3d341e60	0.04397428
252	0x3cbf929b	0.023385337
253	0x3b464447	0.0030253099
254	0xbf267e04	-0.65036035
255	0xbec47ea4	-0.3837787

final.linears.1.bias f4 [112]
0	0xbe362fcc	-0.1779167
1	0x3e7c4a21	0.24637653
2	0xbe4caaa8	-0.19986975
3	0xbe5b6a15	-0.21427186
4	0xbf16dfc2	-0.5893518
5	0x3c810276	0.015748244
6	0xbebab7f7	-0.3646848
7	0xbe9aa520	-0.30204105
8	0xbe200623	-0.15627341
9	0xbe714963	-0.23563151
10	0x3cf2aa38	0.029622182
11	0xbe438c8e	-0.19096586
12	0xbe4886f1	-0.19582726
13	0xbe924b11	-0.28572896
14	0xbe96919e	-0.29407972
15	0xbec8aba6	-0.39193457
16	0xbcdb8850	-0.026798397
17	0xbe224329	-0.15845932
18	0xbda318c4	-0.07963708
19	0x3d21760c	0.03941922
20	0xbe395ac6	-0.18101034
21	0xbe7009e9	-0.2344128
22	0xbe5398fa	-0.20663825
23	0xbe150890	-0.14554048
24	0xbe5a1301	-0.21296312
25	0xbf2f65d3	-0.68514746
26	0xbe67d50b	-0.22639863
27	0xbe751e36	-0.23937306
28	0xbe80bf7c	-0.2514609
29	0xbde74b05	-0.11293606
30	0xbe990bdd	-0.29891863
31	0xbe2af225	-0.16693933
32	0xbe5c0731	-0.21487118
33	0xbe8bf04b	-0.27331766
34	0xbc937bda	-0.018003393
35	0x3dace719	0.08442516
36	0xbe41f48d	-0.18940945
37	0xbe6283cd	-0.2212059
38	0xbe8a3183	-0.269909
39	0x3e15cb66	0.14628372
40	0xbdc471eb	-0.09592041
41	0xbeaa8c07	-0.33309957
42	0xbe13eb08	-0.14445126
43	0xbea14b11	-0.31502584
44	0xbdc8771e	-0.09788345
45	0x3e8cd976	0.2750966
46	0xbea06161	-0.31324294
47	0xbe305e67	-0.17223512
48	0xbeb0c3c8	-0.3452437
49	0xbf2e3972	-0.68056405
50	0xbe5da685	-0.21645553
51	0xbe8a44a0	-0.27005482
52	0xbe5f3585	-0.2179776
53	0xbe95e99c	-0.29279792
54	0xbe73dac0	-0.23813915
55	0xbdd9195a	-0.106005386
56	0xbe35fe50	-0.17772794
57	0xbe89a536	-0.26883858
58	0xbe632505	-0.2218209
59	0xbdfeaf11	-0.12435735
60	0xbed36fa5	-0.41296116
61	0xbc12c4b8	-0.008958034
62	0xbe79f419	-0.24409522
63	0xbe2d6fe8	-0.1693722
64	0xbe81c21d	-0.2534341
65	0xbe24daa1	-0.16099025
66	0xbe7d3c93	-0.24730138
67	0xbe4ab81b	-0.19796793
68	0xbeb80f24	-0.3594905
69	0xbe5b4080	-0.21411324
70	0xbe112652	-0.14174774
71	0xbe0494a7	-0.12947331
72	0xbc13e8fd	-0.009027717
73	0xbe581e1d	-0.21105237
74	0xbe1f1c4c	-0.15538138
75	0xbe6a4bf5	-0.22880538
76	0xbe400b7b	-0.1875438
77	0xbe54ca59	-0.20780315
78	0xbd9303a1	-0.071784265
79	0xbe22a4a5	-0.1588312
80	0xbe873f7c	-0.26415622
81	0xbde72d4e	-0.11287938
82	0xbe3c20e5	-0.18371923
83	0xbe904bf1	-0.2818294
84	0x3b9e1f6d	0.0048255236
85	0xbe56a4d0	-0.20961308
86	0xbe418b03	-0.18900685
87	0x3f40e2c5	0.7534602
88	0xbe17ad2a	-0.1481215
89	0xbe93ef1f	-0.28893372
90	0xbdf3aba3	-0.118979715
91	0xbdf983d0	-0.12183344
92	0xbe19a604	-0.15004736
93	0x3c902d33	0.017599678
94	0xbe31f160	-0.17377234
95	0xbd42ac6d	-0.04752772
96	0xbe244577	-0.16042124
97	0xbdcbcfe1	-0.09951759
98	0xbe774814	-0.2414859
99	0xbda3c653	-0.07996812
100	0xbe63edde	-0.22258708
101	0x3e0f9a0b	0.14023606
102	0xbdd2f5d9	-0.10300798
103	0xbe8d41ca	-0.27589256
104	0x3d727b16	0.059199415
105	0xbe18726e	-0.14887401
106	0x3dc8e524	0.0980933
107	0xbe37f0b6	-0.17962918
108	0xbdc92ce8	-0.09823018
109	0x3de6487b	0.11244293
110	0xbe6051a2	-0.2190614
111	0xbec89976	-0.3917958

final.linears.2.weight f4 [24, 112]
0	0x3ee40b24	0.4453975
1	0x3b95c17e	0.004570185
2	0x3e4a158e	0.19734785
3	0xbf020d7d	-0.5080183
4	0xbd4ce463	-0.050022494
5	0x3d0e9eca	0.0348194
6	0x3ec9222b	0.3928388
7	0x3bf92ea6	0.007604438
8	0x3d644de9	0.055738363
9	0xbe16e1d8	-0.1473459
10	0x3e0a6984	0.13516814
11	0x3e2e5c52	0.17027405
12	0xbe701719	-0.23446311
13	0x3e9507dc	0.2910756
14	0xbc8b3893	-0.01699475
15	0xbc1d4a02	-0.009600164
16	0xbdca4148	-0.09875733
17	0x3ea552da	0.32289773
18	0x3dae9ed1	0.085263856
19	0xbde7646e	-0.11298452
20	0xbe4ec2d9	-0.20191516
21	0x3da892dc	0.08231136
22	0xbf1cca51	-0.6124621
23	0xbe54aa0f	-0.20767997
24	0xbdaad209	-0.08340842
25	0xbc890fb7	-0.016731126
26	0x3ee12e60	0.43980694
27	0x3eea8e3f	0.4581165
28	0x3f0d1e1b	0.5512406
29	0xbdb14111	-0.086549886
30	0xbdf7cafe	-0.120992646
31	0xbdd63af2	-0.10460462
32	0xbef6aa07	-0.48176596
33	0xbe28b7dc	-0.16476387
34	0x3d5333b3	0.051562976
35	0xbd2194f6	-0.0394487
36	0x3e7567ad	0.2396533
37	0xbb98104d	-0.004640615
38	0x3e09ef89	0.13470282
39	0x3b8970c8	0.004194353
40	0xbc737754	-0.014859993
41	0xbe3fb925	-0.18722971
42	0x3a86ccdd	0.0010284443
43	0xbf1531af	-0.58278936
44	0xbe7570a4	-0.2396875
45	0x3c4ccf47	0.012500591
46	0xbc25233f	-0.010079204
47	0x3e7499e9	0.23886837
48	0x3e1915b2	0.14949682
49	0x38b52ddb	8.639294e-05
50	0xbe271557	-0.16316734
51	0x3edb9e1f	0.42894074
52	0xbe3c83f4	-0.18409711
53	0x3e4b1892	0.19833592
54	0xbec4f4da	-0.38468057
55	0x3e176cde	0.14787623
56	0xbddad49d	-0.10685084
57	0xbe1d14c6	-0.15339956
58	0x3f0a40a2	0.5400487
59	0x3e6b8d63	0.23003154
60	0x3c993fd3	0.018707192
61	0xbdcee2c9	-0.101018496
62	0xbe3d5a5f	-0.18491505
63	0xbde67a1f	-0.112537615
64	0xbeb13aab	-0.34615073
65	0xbd41d66d	-0.047323633
66	0x3dcde4e3	0.10053422
67	0x3e3234e5	0.1740299
68	0xbe9536fb	-0.2914351
69	0xbd5e84ad	-0.05432575
70	0x3bf4945a	0.007463974
71	0xbe4441a8	-0.19165671
72	0x3bda9b20	0.0066713244
73	0xbebec142	-0.3725682
74	0x3c12fce7	0.008971429
75	0xbe316380	-0.17323112
76	0xbd821277	-0.06351178
77	0xbdf4da1c	-0.119556636
78	0x3d05e3cb	0.032687943
79	0xbd936867	-0.071976475
80	0x3c615968	0.013754226
81	0x3db6cc07	0.08925634
82	0x3db23dd3	0.08703198
83	0xbea40f04	-0.32042706
84	0x3d794baa	0.060863174
85	0x3ec19f77	0.37816975
86	0x3e99ba2e	0.30024856
87	0xbb83b5d4	-0.0040194783
88	0xbe1ac420	-0.15113878
89	0x3d7922c1	0.06082416
90	0xbb0d5336	-0.002156449
91	0x3e00d59e	0.12581488
92	0xbe5b5bc9	-0.21421732
93	0xbe519252	-0.20465973
94	0xbe442a53	-0.1915677
95	0x3cc4b83c	0.024013631
96	0x3e5cc626	0.21559963
97	0xbe218ae2	-0.15775636
98	0x3f400c90	0.7501917
99	0xbe2ed346	-0.17072782
100	0x3e215058	0.15753305
101	0xbe15a865	-0.14615019
102	0x3e84ab7c	0.25912082
103	0x3d962317	0.073309116
104	0xbdd61c18	-0.10454577
105	0xbeabc2ee	-0.33547157
106	0x3d70484b	0.058662694
107	0xbd3553f8	-0.044269532
108	0x3bcf9cae	0.0063358163
109	0x3c2cb7c0	0.010541856
110	0x3e9a9bf0	0.30197096
111	0xbe3f0d21	-0.18657352
112	0x3e45defe	0.19323346
113	0x3c3d90d9	0.011570179
114	0xbef4abd5	-0.47787347
115	0xbeb005dd	-0.34379473
116	0x3c6a2b0d	0.014292491
117	0x3d8a3159	0.067476936
118	0x3eb8b0d0	0.36072397
119	0xbe8209b3	-0.25398025
120	0x3e18f946	0.1493884
121	0xbf10ad0f	-0.56514066
122	0xbcbbee31	-0.022940727
123	0xbec2db70	-0.38058043
124	0xbe64e002	-0.22351077
125	0x3b602fbe	0.0034208144
126	0xbd6368ef	-0.055519994
127	0x3abf2e2c	0.0014585904
128	0x3dcec762	0.10096623
129	0x3ea7afc2	0.3275128
130	0xbca870c6	-0.020561587
131	0x3cda6394	0.02665881
132	0xbe8ccc9d	-0.27499858
133	0xbec399ae	-0.38203186
134	0xbe8921e6	-0.26783675
135	0xb7d3efe0	-2.526486e-05
136	0xbf01fe67	-0.5077881
137	0xba9aa6cd	-0.0011798978
138	0x3e961d9f	0.29319474
139	0xbeba8a0f	-0.36433455
140	0xbf1261e4	-0.5718062
141	0x3d26bc90	0.04070717
142	0x3d6bf645	0.057607908
143	0xbc61d1c7	-0.013782925
144	0x3ea55222	0.32289225
145	0xbeb7def6	-0.35912293
146	0xbd909695	-0.07059971
147	0x3dea7d5f	0.11449694
148	0xbe0ea2c3	-0.13929276
149	0xbd884042	-0.06652881
150	0x3e80dadc	0.25166976
151	0xb94d9d3e	-0.00019608901
152	0x3df539b9	0.119739
153	0x3d460a11	0.048349444
154	0x3c20eeab	0.009822528
155	0x3deb2b04	0.11482814
156	0x3e21d828	0.15805113
157	0x3b65fa4f	0.0035091823
158	0xbeaa7242	-0.33290297
159	0x3db4488b	0.08802899
160	0xbd6eaac5	-0.058268327
161	0x39c3fd69	0.00037382104
162	0x3f262fd8	0.64916754
163	0xbe0e3e55	-0.13890965
164	0x3d9ecb73	0.077536486
165	0xbe6ff62d	-0.23433752
166	0x3cef8141	0.029236438
167	0x3c1b9758	0.009496532
168	0xbd73aa11	-0.05948836
169	0x3df1f723	0.11814716
170	0x3e02b5b0	0.12764621
171	0x3d919cc3	0.07109978
172	0x3e8d5c2d	0.27609387
173	0x3e0990aa	0.13434091
174	0x3ead8e35	0.33897558
175	0x3e1c5a8b	0.15268914
176	0x3e105a55	0.14096959
177	0xbeb0eaad	-0.34554043
178	0xbe1c8ea5	-0.1528879
179	0xbe377482	-0.17915538
180	0x3efd69c9	0.4949477
181	0xbd802d26	-0.062586114
182	0xbc022281	-0.007942797
183	0x3e417741	0.18893148
184	0xbd0d51fb	-0.03450201
185	0x3e6868ab	0.22696178
186	0x3d30c66a	0.043157972
187	0x3ecf1426	0.4044506
188	0x3cf4b038	0.029869184
189	0xbabaf77a	-0.0014264428
190	0x3e9582b6	0.29201287
191	0xbe099da1	-0.13439037
192	0xbdc90557	-0.098154716
193	0xbd646e29	-0.05576912
194	0x3dc18339	0.09448857
195	0xbdc5bbe0	-0.09654975
196	0x3dc29012	0.095001355
197	0x3ec552b7	0.3853967
198	0x3e9855fa	0.29753095
199	0x3bd721fa	0.0065653296
200	0xbe18fa3d	-0.14939208
201	0xbec2da66	-0.3805725
202	0xbb63e558	-0.003477415
203	0xbe419eb5	-0.18908198
204	0xbeb45d50	-0.35227442
205	0x3e2b6f56	0.1674169
206	0x3e946f73	0.2899128
207	0xbcbb85d9	-0.022890972
208	0xbe4d7209	-0.20063032
209	0xbd49d1ca	-0.049272336
210	0x3f0aa9b9	0.54165226
211	0xbebf2600	-0.3733368
212	0x3eb1d451	0.34732297
213	0x3c6f91a1	0.014622123
214	0xbe07f3a0	-0.1327653
215	0x3e363dfa	0.1779708
216	0x3d75d478	0.06001708
217	0x3e429312	0.19001415
218	0xbd1f5302	-0.03889752
219	0xbd6d9085	-0.057999153
220	0xbdaef2df	-0.08542418
221	0x3d62d7da	0.055381633
222	0x3e0f8c70	0.14018416
223	0x3d841994	0.06450191
224	0xbef92785	-0.48662964
225	0xb97dec15	-0.00024215908
226	0xbe7799bb	-0.24179737
227	0xbe64d60c	-0.22347277
228	0xbb6fcccc	-0.0036590574
229	0xbe1a14fe	-0.1504707
230	0x3ec6ab63	0.38802633
231	0xbec5b9ca	-0.38618308
232	0x3da45ccd	0.08025513
233	0xbefe761c	-0.49699485
234	0x3e461a4c	0.19345969
235	0xbdb22238	-0.08697933
236	0xbdc48b64	-0.09596899
237	0x3e336a8f	0.17521118
238	0xbc881c4a	-0.016615052
239	0x3b00be3e	0.0019644643
240	0xbdc4ddf8	-0.0961265
241	0xbe99d443	-0.30044755
242	0xbe89306b	-0.26794752
243	0xbe21f2c0	-0.15815258
244	0x3ecc7787	0.39934942
245	0xbed234a1	-0.41055778
246	0x3d208b20	0.03919518
247	0xbea14006	-0.31494159
248	0xbdd01a98	-0.10161322
249	0x3cd7cb73	0.02634213
250	0x3f127c72	0.5722114
251	0xbd0fbfdd	-0.035095084
252	0x3e9c5316	0.3053214
253	0x3e5f1dff	0.21788786
254	0xbf025dbc	-0.5092428
255	0x3de7887e	0.11305331

final.linears.2.bias f4 [24]
0	0xbd1e262d	-0.038610626
1	0xbde26659	-0.110546775
2	0x3bb30574	0.0054632965
3	0x3e3a6571	0.1820276
4	0xbdb01b14	-0.08598915
5	0xbe8c1774	-0.27361643
6	0xbd59910a	-0.053116836
7	0xbcba4bc6	-0.02274121
8	0xbd1b3c22	-0.037899144
9	0xbc4eef26	-0.01263026
10	0x3db718cf	0.08940279
11	0x3d292e9c	0.041304216
12	0xbd0dcb91	-0.034617964
13	0xbd580004	-0.05273439
14	0x3ca43d7e	0.020048853
15	0x3c80ff9e	0.015746888
16	0xbc2b08b5	-0.010439088
17	0x3cc63c4a	0.02419867
18	0xbdbde3b4	-0.092719465
19	0x3d89a964	0.06721762
20	0xbd495095	-0.049149115
21	0x3bf016cc	0.0073269363
22	0x3ca41651	0.020030173
23	0x3ce7905f	0.028267084

layers.0.attn.0.gnn_q.weight f4 [24, 16]
0	0x886c72da	-7.1153674e-34
1	0x88067900	-4.0466393e-34
2	0x8e81b8c8	-3.1978893e-30
3	0x08bf2a08	1.1505276e-33
4	0x8880b5b8	-7.746442e-34
5	0x10967428	5.9343535e-29
6	0x0721108c	1.2117156e-34
7	0x87bc630b	-2.8345308e-34
8	0x20c35bb8	3.309498e-19
9	0x1c72deea	8.0359193e-22
10	0x87ef6ba7	-3.6023996e-34
11	0x180ed31d	1.8459655e-24
12	0x87904c6a	-2.1711624e-34
13	0x88b92069	-1.1141902e-33
14	0x0839c480	5.5902397e-34
15	0x0880bdf0	7.748374e-34
16	0x075b145a	1.648171e-34
17	0x88502ff0	-6.2649073e-34
18	0x8eeb2fef	-5.797813e-30
19	0x0822f017	4.9032326e-34
20	0x892282d7	-1.9561561e-33
21	0x11ee9872	3.764373e-28
22	0x87ec306b	-3.553779e-34
23	0x08c23850	1.1689189e-33
24	0x21aab117	1.1566523e-18
25	0x9ee18840	-2.3879153e-20
26	0x88aebbaa	-1.0516364e-33
27	0x19104c76	7.460067e-24
28	0x883ba8ef	-5.6471846e-34
29	0x882eee3b	-5.264126e-34
30	0x8757129f	-1.6180275e-34
31	0x08934818	8.86419e-34
32	0x087eff79	7.673565e-34
33	0x8642f8e2	-3.6670195e-35
34	0x8e47eb3a	-2.4641901e-30
35	0x88400c5c	-5.7792427e-34
36	0x88fd6dc3	-1.52526885e-33
37	0x8f6c3ca4	-1.1647377e-29
38	0x07abe11a	2.5861523e-34
39	0x08c0cf72	1.160435e-33
40	0x2116eb78	5.1133617e-19
41	0x9d30470a	-2.3330132e-21
42	0x07d446e0	3.1939871e-34
43	0x1858b770	2.8009958e-24
44	0x0884bc4c	7.988729e-34
45	0x07b31203	2.6943513e-34
46	0x88beb51b	-1.1477787e-33
47	0x08a089f1	9.66208e-34
48	0x07274181	1.2582933e-34
49	0x8738d2a0	-1.3904519e-34
50	0x0f0087f1	6.3370686e-30
51	0x870594db	-1.0049553e-34
52	0x081b6434	4.6761404e-34
53	0x121654c2	4.7436126e-28
54	0x8869bd7e	-7.0338634e-34
55	0x879eef60	-2.391389e-34
56	0x213e301b	6.443817e-19
57	0x9eed9c73	-2.5158057e-20
58	0x879e2c4d	-2.3799235e-34
59	0x160c62f8	1.1340339e-25
60	0x086e338d	7.1681117e-34
61	0x8843f660	-5.897029e-34
62	0x0728e4d7	1.2706165e-34
63	0x071088f6	1.0873605e-34
64	0x0869548e	7.021528e-34
65	0x8748d9b4	-1.5110305e-34
66	0x8c7a9900	-1.9305341e-31
67	0x88ac027e	-1.0352459e-33
68	0x889c2eaf	-9.399884e-34
69	0x8fd0a999	-2.057571e-29
70	0x0701168c	9.711507e-35
71	0x07941bd2	2.2284916e-34
72	0x204b9971	1.7245538e-19
73	0x1d0973b0	1.8191608e-21
74	0x07c3cacd	2.9459535e-34
75	0x18575da7	2.7835381e-24
76	0x886c7d22	-7.116576e-34
77	0x084a313a	6.084503e-34
78	0x0894b9cd	8.951108e-34
79	0x07ff3316	3.8398161e-34
80	0x88c18fe0	-1.164959e-33
81	0x08321deb	5.3600095e-34
82	0x0dcefabe	1.2756094e-30
83	0x87ae9b33	-2.6271828e-34
84	0x093fd528	2.3091014e-33
85	0x91b50611	-2.8560503e-28
86	0x87eb0241	-3.5360195e-34
87	0x0762c7cf	1.7061069e-34
88	0xa1ee2d6d	-1.6139531e-18
89	0x1f107b8d	3.0595385e-20
90	0x8556b570	-1.00955564e-35
91	0x99304b91	-9.114247e-24
92	0x07e25583	3.405496e-34
93	0x888e24e2	-8.554985e-34
94	0x8846c80c	-5.981861e-34
95	0x888b7ed1	-8.395573e-34
96	0x8785bf96	-2.012422e-34
97	0x8789fb30	-2.0761104e-34
98	0x8edc6078	-5.4327083e-30
99	0x0832c29c	5.379369e-34
100	0x8916da1c	-1.8158148e-33
101	0x10cdf3e1	8.1234e-29
102	0x88544804	-6.3881083e-34
103	0x862cec6d	-3.2523303e-35
104	0x21db1dbb	1.4847887e-18
105	0x9e7e00d3	-1.34468185e-20
106	0x06bd6b48	7.1251534e-35
107	0x1999e06d	1.5910474e-23
108	0x07add120	2.615306e-34
109	0x07b6f351	2.7527325e-34
110	0x08929027	8.820945e-34
111	0x089469ea	8.932326e-34
112	0x08956e85	8.993594e-34
113	0x882e5e23	-5.2471878e-34
114	0x8e20bcdd	-1.9812457e-30
115	0x087ffc72	7.703302e-34
116	0x0918e190	1.8402393e-33
117	0x908426b8	-5.2124475e-29
118	0x87d51cdf	-3.2065647e-34
119	0x0823eeb5	4.9331627e-34
120	0xa081f064	-2.2012527e-19
121	0x1db6c3e8	4.837756e-21
122	0x084bc784	6.132262e-34
123	0x985bebb5	-2.8424088e-24
124	0x05e6c07e	2.1699807e-35
125	0x079e2042	2.3792157e-34
126	0x87d77327	-3.2417285e-34
127	0x88aa7ca0	-1.0260802e-33
128	0x8836bf96	-5.499384e-34
129	0x87a99a0f	-2.5518841e-34
130	0x0f27bd91	8.270245e-30
131	0x8823480f	-4.9135733e-34
132	0x09984744	3.6659687e-33
133	0x91dfe998	-3.532716e-28
134	0x86f0aff4	-9.0536506e-35
135	0x881a1995	-4.637276e-34
136	0xa1d22eac	-1.4242507e-18
137	0x1ec5998f	2.0921697e-20
138	0x05df377f	2.0991205e-35
139	0x994d64fc	-1.0618645e-23
140	0x08bb7bf6	1.1283796e-33
141	0x882d9878	-5.223952e-34
142	0x87f878c8	-3.7385882e-34
143	0x87fada29	-3.7744042e-34
144	0x088ba217	8.403865e-34
145	0x8818eee0	-4.6021632e-34
146	0x8ed15ec4	-5.1613734e-30
147	0x08c33149	1.17477225e-33
148	0x08f7eaf8	1.4921013e-33
149	0x10690278	4.595305e-29
150	0x0847a6f2	6.0080627e-34
151	0x874c888f	-1.5387385e-34
152	0xa07fdc71	-2.1672278e-19
153	0x1c770810	8.1735865e-22
154	0x08c20e5d	1.1679327e-33
155	0x983095d4	-2.282311e-24
156	0x88492e4d	-6.0540664e-34
157	0x86cb3169	-7.6432715e-35
158	0x880c701f	-4.2261515e-34
159	0x872d9c4d	-1.3061006e-34
160	0x87ec8d9d	-3.5592566e-34
161	0x07e9c11d	3.5171445e-34
162	0x0e9b077e	3.8217665e-30
163	0x887a08da	-7.5242043e-34
164	0x0970c412	2.8981141e-33
165	0x916c4bd6	-1.8640486e-28
166	0x08b91a76	1.1140503e-33
167	0x086407ef	6.862058e-34
168	0xa19aaded	-1.0481484e-18
169	0x1ad6c5c0	8.882781e-23
170	0x05efdfff	2.2557735e-35
171	0x9887d2e2	-3.510962e-24
172	0x06bb0430	7.0347735e-35
173	0x082d3d3f	5.213229e-34
174	0x088f54a1	8.626396e-34
175	0x882ea8b7	-5.2559544e-34
176	0x081d0399	4.72497e-34
177	0x865affe3	-4.118924e-35
178	0x8f3fcf82	-9.4569916e-30
179	0x88090c15	-4.124114e-34
180	0x8892ec3a	-8.842592e-34
181	0x116e4e5d	1.8799037e-28
182	0x08733a4c	7.319368e-34
183	0x0825cd8f	4.9894514e-34
184	0x211e4692	5.362588e-19
185	0x9e35fa0c	-9.633769e-21
186	0x088ced02	8.481664e-34
187	0x18982a55	3.9333824e-24
188	0x8506f991	-6.346488e-36
189	0x07b165f6	2.6691927e-34
190	0x854988ec	-9.476123e-36
191	0x0792c293	2.2082e-34
192	0x0824d3f2	4.9601095e-34
193	0x081a1d17	4.6376884e-34
194	0x8eda10b8	-5.375725e-30
195	0x889b3a3f	-9.342417e-34
196	0x8784dfdc	-1.9992725e-34
197	0x9199bc12	-2.425505e-28
198	0x88c235d5	-1.1688606e-33
199	0x069994d4	5.7770887e-35
200	0xa164f23f	-7.7570015e-19
201	0x1e9b067b	1.6413944e-20
202	0x07a1e50f	2.4359216e-34
203	0x9840f517	-2.4939157e-24
204	0x87eb87e6	-3.5438744e-34
205	0x085f8fb2	6.7275535e-34
206	0x88872500	-8.133716e-34
207	0x0729fa74	1.2787748e-34
208	0x88b90155	-1.1134596e-33
209	0x87054f8c	-1.0029185e-34
210	0x0e1607c4	1.8492666e-30
211	0x8837bd0f	-5.5291797e-34
212	0x0988a454	3.2895342e-33
213	0x1192b49c	2.3146048e-28
214	0x088ba676	8.404893e-34
215	0x0854650f	6.3915223e-34
216	0xa163a459	-7.7128104e-19
217	0x9dc76241	-5.2776454e-21
218	0x880ccfdc	-4.2374055e-34
219	0x98bc47ce	-4.8669365e-24
220	0x084d3f26	6.1764174e-34
221	0x8865d313	-6.9160297e-34
222	0x081a5d01	4.6452015e-34
223	0x88897b04	-8.274308e-34
224	0x07fb9b29	3.7857477e-34
225	0x07fa6fd7	3.7681553e-34
226	0x0efd8ef8	6.250699e-30
227	0x88b90d94	-1.1137475e-33
228	0x08e65b40	1.3864074e-33
229	0x9121d818	-1.276725e-28
230	0x06ae0ff8	6.547499e-35
231	0x8860f752	-6.769827e-34
232	0xa12a44ff	-5.7689556e-19
233	0x1eac60ea	1.8251291e-20
234	0x0749af64	1.5173102e-34
235	0x179c901a	1.011764e-24
236	0x88222bf6	-4.8801778e-34
237	0x073c4b87	1.4165744e-34
238	0x07bf969f	2.8827013e-34
239	0x87e6c49e	-3.4722115e-34
240	0x8713b399	-1.111183e-34
241	0x8836b2f6	-5.4979e-34
242	0x8e031869	-1.615875e-30
243	0x080fe5b2	4.3302503e-34
244	0x88e9e440	-1.4076839e-33
245	0x90a8c094	-6.656103e-29
246	0x86804398	-4.824757e-35
247	0x0877f379	7.461506e-34
248	0x1f5307e4	4.4687515e-20
249	0x1cdc5b60	1.4581999e-21
250	0x88ad92e2	-1.0446591e-33
251	0x97738f2e	-7.8698253e-25
252	0x883982f4	-5.5825347e-34
253	0x8804bc62	-3.994375e-34
254	0x87960548	-2.2572596e-34
255	0x882ba721	-5.16549e-34

layers.0.attn.0.gnn_q.bias f4 [16]
0	0x0fdd63a7	2.1830667e-29
1	0x84736c8c	-2.8614355e-36
2	0x9e5cf102	-1.1696542e-20
3	0x0858bf08	6.522469e-34
4	0x8883b3b9	-7.926528e-34
5	0x180c42f4	1.8128379e-24
6	0x06abc7d0	6.461665e-35
7	0x08b08b86	1.06254165e-33
8	0x2278dd67	3.3727477e-18
9	0xa776cb55	-3.4249585e-15
10	0x08ab6f69	1.0317881e-33
11	0x18145076	1.9169174e-24
12	0x85d34720	-1.9868472e-35
13	0x88b35f87	-1.0795629e-33
14	0x088f652b	8.630284e-34
15	0x09680979	2.7930438e-33
