checkpoints/cyp1a2_veith_50_train1_neg/Sep06-17:03:36_500.pth (torch, 479366 bytes, 294 tensors)

layers.0.weight f4 [25, 16]
0	0x3fb99d10	1.4501057
1	0x3fb4602e	1.4091852
2	0xbf0671c7	-0.5251736
3	0x3e3061ac	0.17224759
4	0x3eadddb1	0.339582
5	0x3ea2d36c	0.31801927
6	0x3d5b21c5	0.053499002
7	0x3e847457	0.2587001
8	0x3f82334f	1.0171908
9	0xbf92ca39	-1.1467963
10	0x3fdb172c	1.7116446
11	0x3e384a9b	0.1799721
12	0x3e4db045	0.20086773
13	0x3f738bbe	0.95135105
14	0x3d65d5ad	0.05611198
15	0xbed31edc	-0.4123448
16	0x3fb68c92	1.4261649
17	0x3dca0f5c	0.09866211
18	0xbe31d4ee	-0.17366382
19	0x3ba50c06	0.0050368337
20	0x3d43215a	0.04763923
21	0x3d9c733c	0.07639167
22	0xbe4c47d1	-0.19949271
23	0x3dc1a96b	0.09456142
24	0xbf3a2295	-0.7270902
25	0xbf8d0868	-1.101819
26	0x3dd4294b	0.103594385
27	0xbd4bde41	-0.049772505
28	0x3dce8a94	0.100850254
29	0xbf2b8a18	-0.6700759
30	0x3d243879	0.04009292
31	0xbee4f6d8	-0.44719577
32	0x3e47ead6	0.19523177
33	0xbcb5bca5	-0.02218468
34	0xbc132af1	-0.008982406
35	0x3cd69353	0.026193297
36	0x3c13930b	0.009007226
37	0x3e083b03	0.13303761
38	0x3d82f139	0.06393666
39	0x3d16d4b2	0.036823936
40	0x3cdde9e4	0.027089067
41	0xbe047674	-0.12935811
42	0x3cebf70f	0.02880433
43	0xbe095d09	-0.13414396
44	0xbca07eb9	-0.019591676
45	0x3d2451b0	0.040116966
46	0xbe903778	-0.2816732
47	0x3d469246	0.04847934
48	0x3e522a40	0.2052393
49	0xbc7cbf08	-0.015426405
50	0xbcd1677e	-0.025562044
51	0xbccd2b41	-0.02504504
52	0x3bc7cfe7	0.006097782
53	0x3de1a096	0.110169575
54	0x3da184e4	0.07886675
55	0x3cbce71b	0.023059418
56	0x3ce25823	0.027629917
57	0xbe0511ba	-0.12995043
58	0x3d214391	0.039371077
59	0xbdc643e7	-0.0968092
60	0xbbffa2f6	-0.007801409
61	0x3d5bc400	0.053653717
62	0xbeb004a5	-0.34378543
63	0x3d635f1b	0.05551062
64	0x3e2de889	0.16983236
65	0xbc86c232	-0.016450021
66	0xbca303fd	-0.019899363
67	0x3bcbb70f	0.0062168906
68	0x3b8c8180	0.0042878985
69	0x3dd168e9	0.10225088
70	0x3d7a809e	0.061157815
71	0x3d26f826	0.040763997
72	0x3c26010f	0.010132088
73	0xbdd38061	-0.10327221
74	0x3c5da8dd	0.01352903
75	0xbd9e16bd	-0.07719181
76	0xbbf848dd	-0.0075770454
77	0x3ce4efe4	0.02794642
78	0xbe6b2fd2	-0.22967461
79	0x3d9750ab	0.07388433
80	0x3e354d1c	0.17705196
81	0xbc72c130	-0.014816567
82	0xbcf6fd3b	-0.030150047
83	0x3c352d7b	0.011058207
84	0x3d16334c	0.036670014
85	0x3dff73bf	0.12473249
86	0x3cde5b90	0.02714327
87	0x3dedd1cc	0.11612281
88	0x3c38f37d	0.011288521
89	0xbdfb85a7	-0.122813515
90	0xbc445592	-0.011983292
91	0x3a216c6e	0.000615782
92	0x3c99a6a9	0.018756228
93	0x3cf7f563	0.030268377
94	0xbd1c5f94	-0.038177088
95	0x3d270fb3	0.040786456
96	0x3f9e3d95	1.2362543
97	0xbfaf8cd9	-1.3714858
98	0x3f34a0c0	0.70557785
99	0xbe80ad91	-0.2513242
100	0xbef48ee7	-0.47765276
101	0xbf9d3f23	-1.2284893
102	0xbceee0a8	-0.029159859
103	0xbf8cb9ea	-1.0994236
104	0x3eca8763	0.39556417
105	0xbf77276c	-0.9654453
106	0xbfd13ea5	-1.6347243
107	0xbe87171f	-0.26384827
108	0xbe98fb94	-0.2987944
109	0x3eb137e0	0.34612942
110	0x3dbd3967	0.09239464
111	0x3fa5c918	1.2951994
112	0x3da1ef59	0.0790698
113	0xbeb16f93	-0.34655437
114	0xbf5aaa07	-0.8541569
115	0xbe0cf864	-0.13766629
116	0x3f25aafd	0.6471403
117	0xbff3f79a	-1.9059937
118	0xbd104969	-0.03522626
119	0xbfd5fc56	-1.6717632
120	0xbe7f71c3	-0.2494574
121	0xbd961bad	-0.073294975
122	0xbed3256f	-0.41239497
123	0xbe3fc9ad	-0.18729277
124	0xbe3d3f34	-0.18481141
125	0xbe6e778b	-0.2328779
126	0x3dc05832	0.09391822
127	0xbe8198cb	-0.25311884
128	0x3f3e61d8	0.7436805
129	0x3f225d6d	0.63423806
130	0x3f5cca95	0.86246616
131	0x3d012b7d	0.031535614
132	0xbf29d6e8	-0.66343546
133	0x3e9d66e1	0.30742553
134	0x3dd0dfae	0.101989135
135	0x3e90ad4a	0.2825721
136	0xbf3015d6	-0.6878332
137	0xbf147aec	-0.58000064
138	0x3f4054a2	0.7512914
139	0x3d933bc8	0.07189137
140	0xbc94d4d7	-0.018167896
141	0xbf29c1ed	-0.6631153
142	0x3c4affa3	0.01239005
143	0x3e42274b	0.18960302
144	0x3e81e4b9	0.25369814
145	0xbc8fbe4a	-0.017546792
146	0x3d47fe48	0.048826486
147	0x3c3e83a2	0.011628063
148	0xbd2fa541	-0.042882208
149	0x3de0a3b3	0.10968723
150	0x3d0a10ed	0.033707548
151	0x3db1a732	0.08674468
152	0x3d7ef191	0.062242094
153	0xbe469a66	-0.19394836
154	0xbc5da384	-0.013527755
155	0xbb27c9de	-0.00256025
156	0xbcc5d55d	-0.024149591
157	0x3d6adac4	0.057337537
158	0x3c6bf34c	0.014401268
159	0x3c8fa490	0.017534524
160	0x3e9cfbd7	0.3066089
161	0xbcc45623	-0.023966854
162	0xbd516712	-0.051123686
163	0x3c45675a	0.012048567
164	0x3d3004ef	0.042973455
165	0x3e201716	0.15633807
166	0xbd3a5ed0	-0.045500576
167	0x3df3976b	0.11894115
168	0x3d4b2bb0	0.04960221
169	0xbe76f1cb	-0.24115674
170	0xbc94a6c9	-0.018145936
171	0xbc81b0f0	-0.01583144
172	0x3d13aded	0.03605454
173	0x3d207e6d	0.03918307
174	0x3d4bdf77	0.04977366
175	0xbd1bc682	-0.03803111
176	0xbf91e288	-1.1397257
177	0xbe9c482b	-0.3052381
178	0x3e8f10a0	0.2794237
179	0xbd4d2ef8	-0.05009362
180	0xbe6c50e8	-0.23077738
181	0xbd9e4ebc	-0.07729861
182	0xbdb35efa	-0.0875835
183	0xbdb162c6	-0.08661418
184	0xbf282be1	-0.65691954
185	0x3f65bbf9	0.8973995
186	0xbebba59f	-0.36649796
187	0xbdc55b2e	-0.09636532
188	0xbd2baa46	-0.041910432
189	0xbf17d11d	-0.59303457
190	0xbd312d0b	-0.043255847
191	0x3e0be5c2	0.13661864
192	0x3f78ce32	0.9718963
193	0x3f87a495	1.0597101
194	0xbf0b4837	-0.54407066
195	0x3dfd5496	0.12369649
196	0x3ec3a22d	0.38209668
197	0x3d044d3e	0.032300226
198	0x3e765a0a	0.24057785
199	0x3cbf8df9	0.023383128
200	0xbf4dc4b5	-0.80378276
201	0xbf3d8a98	-0.740396
202	0x3fa181c5	1.2617728
203	0x3e3ded1d	0.18547483
204	0x3cffefd7	0.031242294
205	0xbf41bcbd	-0.75678617
206	0xbce0352b	-0.027369102
207	0xbf7b4088	-0.9814534
208	0xbe9d433d	-0.3071536
209	0x3ec48d5d	0.38389102
210	0x3ef8c61a	0.4858864
211	0xbcb88c4a	-0.022527833
212	0xbeb4e299	-0.3532913
213	0xbd98996f	-0.0745114
214	0xbd6efdff	-0.0583477
215	0xbd4878ec	-0.048943445
216	0xbd4e6301	-0.050387386
217	0x3e6ce1ec	0.23133057
218	0x3eeed959	0.46650198
219	0xbd20fef2	-0.039305635
220	0xbbfe4f3b	-0.00776091
221	0xbd130a1d	-0.035898317
222	0xbc40e8b7	-0.011774234
223	0x3ec1d1ca	0.3785537
224	0xbfa520d1	-1.290064
225	0x3f31d675	0.6946786
226	0xbe5a8aa4	-0.2134195
227	0x3d54d1e5	0.051957984
228	0x3e0b081b	0.1357731
229	0xbe77a712	-0.24184826
230	0x3c714950	0.014726952
231	0xbe57708e	-0.2103903
232	0xbeb6ce55	-0.35704294
233	0x3f7dd853	0.9915821
234	0x3f509f3f	0.8149299
235	0x3d7f462b	0.062322777
236	0x3d13538c	0.03596835
237	0xbeb0ed1f	-0.3455591
238	0xbce3caa3	-0.027806586
239	0xbebf4138	-0.37354445
240	0x3e9f7515	0.31144014
241	0xbe967353	-0.2938486
242	0xbeb911ba	-0.36146337
243	0xbd87dac8	-0.06633526
244	0x3e907d08	0.2822039
245	0xbf6ac8d5	-0.91712695
246	0xbea03607	-0.3129122
247	0xbf4a288d	-0.78968126
248	0xbe80a37d	-0.25124732
249	0xbe79cb33	-0.2439392
250	0xbebe4456	-0.3716151
251	0xbe32c13c	-0.17456526
252	0x3d16ad31	0.036786262
253	0xbe5b4bd0	-0.21415639
254	0x3dd0a774	0.10188189
255	0xbe1445c3	-0.14479737

layers.0.bias f4 [16]
0	0x3e7577fd	0.23971553
1	0xbe3ce9d8	-0.1844858
2	0xbed4e39e	-0.41579908
3	0xbd012aa3	-0.031534802
4	0xbdde9d3c	-0.10869834
5	0x3e596c0a	0.2123262
6	0x3f5bfcca	0.859326
7	0xbe820db6	-0.25401086
8	0xbeb866e1	-0.3601599
9	0x3ea41137	0.32044384
10	0x3eb1bf22	0.34716135
11	0xbf53062e	-0.82431304
12	0x3ebcc499	0.36868742
13	0x3e22faac	0.15915936
14	0x3e9a93ec	0.3019098
15	0x3e47bbaf	0.1950519

layers.1.weight f4 [16, 16]
0	0xbd558421	-0.05212796
1	0x3e312bdc	0.17301887
2	0x3e042837	0.12905966
3	0x3eac383f	0.33636662
4	0xbe8360e1	-0.2565985
5	0xbed3aefd	-0.41344443
6	0xbde9f7dc	-0.114242285
7	0x3db77cc7	0.08959346
8	0xbd3228a2	-0.04349578
9	0xbda11ad3	-0.078664444
10	0xbe4f8580	-0.2026577
11	0xbf1e2a78	-0.6178355
12	0x3d445b9e	0.047938935
13	0xbed4d0f8	-0.4156568
14	0x3eb01cd4	0.34396994
15	0xbd67c609	-0.056585345
16	0x3e315288	0.1731664
17	0x3c6d3c86	0.014479762
18	0xbf78b1b5	-0.9714616
19	0xbf67cb21	-0.90544325
20	0x3d27e6f0	0.040991724
21	0xbede0921	-0.4336634
22	0xbf941aa3	-1.1570629
23	0xbe540a1f	-0.20706986
24	0xbe82fd21	-0.25583747
25	0xbd4d5ab6	-0.050135337
26	0xbea94455	-0.33059946
27	0xbf0f6e84	-0.5602801
28	0xbdb551aa	-0.08853467
29	0x3f03509f	0.51294893
30	0xbec9fabe	-0.39449114
31	0x3d238f9a	0.03993187
32	0x3dc6bb79	0.09703726
33	0x3c67bb45	0.01414377
34	0xbf7a85fb	-0.9786069
35	0x3ed2f23d	0.41200438
36	0xbd51fd68	-0.051267058
37	0xbf0599f6	-0.5218805
38	0xbe238dd6	-0.15972075
39	0xbe982075	-0.29712263
40	0x3de0eca3	0.10982635
41	0x3e246395	0.16053613
42	0x3f481fe7	0.7817368
43	0x3e22151e	0.15828368
44	0xbd1fa573	-0.038976144
45	0x3ee7c092	0.45264107
46	0xbe9c7f53	-0.3056589
47	0x3d62048f	0.05518013
48	0x3d609065	0.054825205
49	0xbdda4e7c	-0.10659501
50	0xbe81f490	-0.253819
51	0xbf1cb021	-0.6120625
52	0xbcf0edf9	-0.02941035
53	0xbe8b0556	-0.27152508
54	0xbba5abae	-0.005055866
55	0x3c70fa0b	0.014708052
56	0x3f54453f	0.8291816
57	0x3fabd25e	1.3423574
58	0xbf275fe7	-0.6538071
59	0xbc9af1d5	-0.018914143
60	0x3c96859b	0.018374255
61	0xbd962a80	-0.07332325
62	0xbd93e4ae	-0.072213516
63	0xbf2ca779	-0.67443043
64	0x3e2f8638	0.17141044
65	0xbe368ae9	-0.17826428
66	0x3f1e6f57	0.6188864
67	0xbf7236c1	-0.946148
68	0x3e4b4f10	0.19854379
69	0x3f5da9e0	0.86587334
70	0x3e2e48cb	0.17019956
71	0xbcf0ee93	-0.029410636
72	0x3d2a074b	0.04151086
73	0x3d36976c	0.044578
74	0xbf3fd0e9	-0.74928147
75	0x3e8aca7f	0.27107617
76	0xbce74eeb	-0.028235873
77	0x3e56912b	0.20953815
78	0xbe982902	-0.29718786
79	0xbd42d2b7	-0.047564235
80	0xbda105f1	-0.07862461
81	0x3cb55648	0.022135869
82	0xbeb5b084	-0.35486233
83	0x3e307338	0.17231452
84	0xbe19109a	-0.14947739
85	0xbf773b1b	-0.9657456
86	0x3f80f66d	1.0075203
87	0x3debe249	0.1151777
88	0xbe89d26c	-0.26918352
89	0xbd5d4687	-0.05402234
90	0xbeb9c9f7	-0.362869
91	0x3ed31f84	0.41234982
92	0x3e0df99e	0.13864753
93	0xbee8314b	-0.45350108
94	0x3ecaa3bb	0.3957804
95	0x3e87bbcb	0.26510462
96	0x3e05dce2	0.13072541
97	0xbe1ef39f	-0.15522622
98	0xbf3a4551	-0.7276202
99	0xbf4b360c	-0.79379344
100	0x3e715625	0.23568018
101	0xbe431e97	-0.19054638
102	0x3c277a20	0.010221988
103	0x3cdd1c5e	0.026991066
104	0x3e9bf167	0.30457613
105	0x3f1295e9	0.57259995
106	0xbe536d06	-0.20647058
107	0x3f05c264	0.5224974
108	0xbeb78c0a	-0.3584903
109	0x3e0beb19	0.13663901
110	0x3df9197f	0.12163066
111	0xbea5622e	-0.32301468
112	0x3e7e4f16	0.24834856
113	0xbe023f22	-0.12719396
114	0xbf96481a	-1.1740754
115	0xbf563563	-0.8367521
116	0x3e50656f	0.20351194
117	0xbf0ff790	-0.56237125
118	0x3ecbddb9	0.39817598
119	0xbd02f490	-0.031971514
120	0xbe5898e1	-0.21152069
121	0xbc6dbbe7	-0.014510131
122	0xbea36eda	-0.3192051
123	0x3f5b67ec	0.8570545
124	0xbe0e9f0d	-0.1392786
125	0x3ecd6700	0.40117645
126	0xbebe97ee	-0.37225288
127	0x3ec5aec3	0.38609895
128	0x3dd273c1	0.102759846
129	0xbdfa2666	-0.12214355
130	0x3f0903ec	0.5352161
131	0xbecb193e	-0.39667696
132	0xbe2076ab	-0.15670268
133	0x3f361bd0	0.7113619
134	0x3f59707f	0.8493728
135	0xbeb3fba2	-0.35152918
136	0xbce4571d	-0.02787357
137	0xbb3fb75e	-0.0029253582
138	0xbe6b76a3	-0.22994475
139	0x3f8509cc	1.0393615
140	0x3a89d918	0.001051697
141	0x3e138d35	0.14409335
142	0xbe993df3	-0.29930076
143	0xbd10a66f	-0.035314973
144	0xbd52d127	-0.051468994
145	0x3e192509	0.14955534
146	0x3e793e48	0.24340165
147	0x3e6373cb	0.2221214
148	0x3da2ba41	0.07945681
149	0xbeaf9451	-0.34292844
150	0x3ec48926	0.38385886
151	0x3eacd727	0.33757898
152	0xbd00250f	-0.03128534
153	0xbd7aaae0	-0.061198115
154	0xbeb37831	-0.35052636
155	0xbe5dd092	-0.21661595
156	0x3d1f8d5c	0.03895317
157	0xbef07566	-0.46964568
158	0x3ebc8313	0.36818752
159	0x3d9fc94e	0.07802068
160	0x3c4990dc	0.012302604
161	0x3e7ce8a6	0.24698123
162	0xbd0dd2f5	-0.034625012
163	0xbe88e0b5	-0.26733938
164	0xbe93af93	-0.2884489
165	0xbf181494	-0.594064
166	0xbeb8a0a4	-0.3606006
167	0xbcb74b4c	-0.022374772
168	0xbe5c04f8	-0.2148627
169	0xbdd35354	-0.10318628
170	0xbf47f846	-0.7811321
171	0xbf612073	-0.8794014
172	0x3de91109	0.11380202
173	0xbea9b6de	-0.3314733
174	0x3ecc7ef8	0.3994062
175	0xbbe985d2	-0.0071265483
176	0x3e557446	0.20845136
177	0x3e181d64	0.14854962
178	0xbe02977f	-0.12753104
179	0xbebe8b3f	-0.3721561
180	0x3da61238	0.08108944
181	0xbf6fed07	-0.9372105
182	0x3f23ae17	0.63937515
183	0x3eadebf5	0.33969083
184	0x3f32a50c	0.6978309
185	0x3f801640	1.000679
186	0xbf82f758	-1.0231733
187	0xbdcad571	-0.09903992
188	0x3ec4a8eb	0.38410124
189	0xbe8b3f7f	-0.2719688
190	0xbd899a5e	-0.06718896
191	0xbf2aba4b	-0.6669051
192	0x3d235de5	0.039884467
193	0xbe029ad8	-0.1275438
194	0xbf2467b3	-0.6422073
195	0xbf6a9907	-0.9163975
196	0x3cd28dc7	0.02570237
197	0xbed5f311	-0.41787007
198	0x3e77af91	0.24188067
199	0xbe30babf	-0.17258738
200	0x3f52f360	0.8240261
201	0x3f99c0b9	1.2011939
202	0xbf1a8a9e	-0.60367763
203	0x3ef5d9c1	0.48017696
204	0xbead9368	-0.33901525
205	0xbce6467c	-0.028109781
206	0x3e0e3a44	0.13889414
207	0xbf3c90e5	-0.7365859
208	0xbd559e35	-0.05215283
209	0xbdefdf0c	-0.11712465
210	0x3f14bd7a	0.5810162
211	0xbf12060a	-0.57040465
212	0xbeaa5807	-0.33270285
213	0x3eebd97a	0.4606436
214	0x3f89f489	1.0777751
215	0xbd87c65b	-0.0662963
216	0xbdfb41da	-0.122684196
217	0xbdb87c2c	-0.09008059
218	0xbf0ef9fd	-0.558502
219	0x3f5b827a	0.85745966
220	0x3c2ec912	0.010668056
221	0xbe6dd7ab	-0.23226802
222	0x3e9aa4ed	0.30203953
223	0x3c8c4b78	0.01712583
224	0xbd836427	-0.06415587
225	0xbdbbd4ea	-0.091714695
226	0x3e4c8e28	0.19976103
227	0x3e27ce06	0.16387185
228	0xbe0d6349	-0.13807406
229	0x3e23880c	0.15969867
230	0xbcec2cde	-0.028829988
231	0xbe00d1ed	-0.1258008
232	0xbe29d464	-0.16584927
233	0xbe29b2a8	-0.16572058
234	0x3dbbb926	0.09166174
235	0xbd9d9d86	-0.07696061
236	0xbe4b706f	-0.19867109
237	0xbe2ca205	-0.1685868
238	0x3df95264	0.12173918
239	0x3e0355ad	0.12825651
240	0xbe0ea49c	-0.13929981
241	0xbe11f1f1	-0.1425245
242	0x3d13710a	0.035996474
243	0x3f5cbd04	0.86225915
244	0xbe4eb049	-0.20184435
245	0xbe676df8	-0.22600543
246	0x3f1c58b2	0.6107284
247	0xbe046b96	-0.12931666
248	0x3ebd0c41	0.3692341
249	0x3e0fd9a8	0.14047873
250	0x3efda249	0.49537876
251	0x3ea92b80	0.33041
252	0xbbe80a32	-0.0070812935
253	0xbe97cd8c	-0.29649007
254	0x3cf658fb	0.030071726
255	0xbe28527c	-0.16437715

layers.1.bias f4 [16]
0	0x3eaf7b41	0.34273723
1	0x3e4dfb81	0.20115472
2	0x3daa6eca	0.083219126
3	0x3e0abe50	0.13549161
4	0x3e4ba721	0.19887973
5	0x3d7534b6	0.059864722
6	0x3d87f6e9	0.06638891
7	0xbd967dd5	-0.07348219
8	0x3d80d40e	0.06290446
9	0x3d4d221a	0.05008135
10	0x3dcc239a	0.09967728
11	0x3c411f6b	0.011787276
12	0x3eebc1b5	0.46046224
13	0x3d8afb47	0.067862086
14	0xbf9703d5	-1.1798044
15	0x3d3cb2c3	0.046068918

final.linears.0.weight f4 [114, 57]
0	0xbcd23246	-0.025658738
1	0xbaf8be04	-0.0018977528
2	0xbf8955e6	-1.0729339
3	0x404f20e8	3.2363834
4	0xbf4e1f38	-0.80516386
5	0xbf0bb98a	-0.54579985
6	0xbbe2a9a5	-0.006917196
7	0x3cae2d91	0.021261962
8	0xbc0f4ff5	-0.008747091
9	0xbf24b60a	-0.6434027
10	0xbe8fa9e4	-0.28059304
11	0xbbe7c1d2	-0.0070726657
12	0xbd41776d	-0.047233034
13	0xbb2010b6	-0.0024424023
14	0x3c975303	0.0184722
15	0xbcb5ed87	-0.022207988
16	0x3d0dbe92	0.03460557
17	0x3cbd0a8f	0.023076324
18	0xbce02529	-0.02736147
19	0x3d5429d6	0.05179771
20	0x3b410fee	0.0029458958
21	0x3ced71ac	0.028984867
22	0x3ab12500	0.0013515055
23	0x3b11cf6e	0.0022248882
24	0x3d3b6039	0.045746062
25	0x3cbd187d	0.023082966
26	0xbd3e3665	-0.046438593
27	0xbd22a3f2	-0.03970713
28	0x3e12baa8	0.14329016
29	0x3ba9f826	0.0051870523
30	0x3d8232e5	0.063573636
31	0x3de48248	0.11157662
32	0xbdbcecf3	-0.09224882
33	0xbd5ee68f	-0.054419097
34	0xbb1628a3	-0.0022912405
35	0x3d0e53da	0.034747936
36	0xbdc2fe44	-0.095211536
37	0x3beedf81	0.0072898273
38	0x3d6c029c	0.057619676
39	0xbdabbbe7	-0.08385449
40	0x3d2a79ea	0.041620173
41	0x3b170a04	0.0023046741
42	0x3d0134af	0.031544384
43	0x3bcfd8c8	0.006342981
44	0x3c422d56	0.011851629
45	0x3cf08da2	0.02936441
46	0xbb879b0c	-0.004138356
47	0xba0628e0	-0.0005117785
48	0xbd4cc1a2	-0.04998935
49	0xbd061c7f	-0.03274202
50	0xbca12dae	-0.019675102
51	0xbc571e26	-0.013129747
52	0xbc3ccdc5	-0.011523669
53	0xbe39ec2a	-0.18156496
54	0xbd85b404	-0.06528476
55	0xbe33d93c	-0.17563337
56	0x3d08e80b	0.03342442
57	0xbdd20a8d	-0.10255919
58	0x3e74d8e5	0.23910864
59	0x3e8b8d63	0.27256307
60	0x3e812897	0.2522628
61	0x3e8383a0	0.2568636
62	0x3e3393d4	0.1753686
63	0xbf010774	-0.50402
64	0xbdb65184	-0.089022666
65	0x3eb2a7b0	0.3489356
66	0x3e4762f3	0.1947134
67	0x3e5b3456	0.21406683
68	0x3d9b93dd	0.07596562
69	0xbbbdd869	-0.0057936204
70	0x3e8954cf	0.26822516
71	0xbe6a2967	-0.22867356
72	0xbe9de034	-0.30835116
73	0xbea528bf	-0.3225765
74	0x3f001584	0.5003283
75	0xbe590156	-0.21191916
76	0xbded20f7	-0.11578553
77	0xbead42c1	-0.33839992
78	0xbecedc7b	-0.40402588
79	0xbcfa55d8	-0.030558512
80	0xbeec18be	-0.46112627
81	0xbecab90b	-0.39594302
82	0x3c9950ac	0.018715225
83	0xbc6b1d00	-0.014350176
84	0x3b47aa67	0.0030466558
85	0x3bd68b97	0.006547402
86	0x3b49997f	0.0030761657
87	0x3c567374	0.01308905
88	0xbce36b24	-0.02776105
89	0xbc8bf42e	-0.017084207
90	0xbaac5c6f	-0.0013150106
91	0x3b9731e2	0.004614101
92	0x3c036404	0.008019451
93	0x3cf28ab2	0.02960715
94	0xbcd12687	-0.025531067
95	0xbbaed3f2	-0.0053353244
96	0xbc48952e	-0.012242598
97	0x3bf8cb3b	0.0075925863
98	0x3cb9d9eb	0.02268692
99	0x3c5ec78b	0.013597379
100	0xbc31e53c	-0.010857876
101	0xbc178426	-0.009247815
102	0xbcdb08b7	-0.026737554
103	0x3c983d67	0.018583966
104	0xbc91c2d2	-0.017793093
105	0x3d0c20c9	0.034210954
106	0xba9d3faa	-0.0011997123
107	0x3c1a380f	0.0094127795
108	0x3c815953	0.015789663
109	0x3c73e515	0.01488616
110	0x3c8a5b33	0.01688919
111	0xbd4c5f77	-0.04989573
112	0x3c928064	0.017883487
113	0x3ce91fa9	0.02845748
114	0x3cef20c5	0.02919043
115	0x3e6a46be	0.22878549
116	0xbba68ec8	-0.005082939
117	0xbd53b0c9	-0.051682267
118	0x3ca79e14	0.02046112
119	0xbdda518d	-0.10660086
120	0xbdee9339	-0.11649174
121	0x3d2e2b2d	0.042521644
122	0xbdca5dc4	-0.098811656
123	0xbc96cd56	-0.018408459
124	0x3d16c936	0.036812983
125	0xbd8d0e6b	-0.06887516
126	0xbe045895	-0.12924416
127	0xbe2067c4	-0.15664583
128	0xbe31d371	-0.17365815
129	0xbe2c1484	-0.16804701
130	0xbd944460	-0.07239604
131	0x3e2f5148	0.1712085
132	0xbed598ef	-0.41718242
133	0x3eaaf055	0.33386484
134	0xbe80e1a8	-0.25172162
135	0x3e91caf7	0.28475162
136	0x3d2adfdc	0.041717395
137	0xba77dea4	-0.0009455478
138	0x3e925931	0.28583673
139	0xbd8f6677	-0.070019655
140	0x3d37ad10	0.04484278
141	0x3d46d0df	0.04853904
142	0x3c26a9d0	0.010172322
143	0x3caa4698	0.020785615
144	0xbd1c34d3	-0.038136315
145	0xbd5c1049	-0.05372647
146	0x3cca1e02	0.024672512
147	0x3d46f013	0.048568796
148	0xbd87537e	-0.06607722
149	0xbd498dbe	-0.04920744
150	0x3d4a076b	0.04932348
151	0xbcf0f2ef	-0.029412715
152	0xbd25e100	-0.04049778
153	0xbda4f5d8	-0.080547035
154	0xbd5912b2	-0.052996345
155	0xbd87c6ff	-0.06629752
156	0xbb422612	-0.0029624742
157	0xbdcd1234	-0.100132376
158	0xbdd3dc09	-0.10344703
159	0x3b00b57c	0.0019639423
160	0x3dbfc5cb	0.09363898
161	0xbd98c721	-0.07459856
162	0x3c847c06	0.01617242
163	0xbcb0a0e1	-0.021561088
164	0x3ce1a3b9	0.02754389
165	0x3ddaba4d	0.10680065
166	0x3dc1f987	0.09471422
167	0x3bcfb074	0.0063381735
168	0xbd6c15ed	-0.057638098
169	0x3da30104	0.07959178
170	0x3c9a00d4	0.018799223
171	0x3e901aee	0.28145546
172	0xbde3c0e2	-0.11120774
173	0xbe1dd409	-0.15412916
174	0xbbd761d8	-0.006572943
175	0xbc83c7c8	-0.016086474
176	0xbcabb9bc	-0.020962588
177	0x3da90937	0.08253711
178	0xbec13b7f	-0.37740704
179	0xbe8159f9	-0.25263956
180	0xbca7d664	-0.020487972
181	0xbd3e6c96	-0.046490274
182	0xbdc747dc	-0.09730503
183	0x3e03d08b	0.12872522
184	0x3f065593	0.52474326
185	0xbe226263	-0.15857844
186	0xbe9b6a44	-0.30354512
187	0xbeaaa42c	-0.33328378
188	0xbb721add	-0.0036942281
189	0x3cab02a4	0.020875283
190	0xbe304501	-0.17213823
191	0x3e4a160d	0.19734974
192	0x3ea70385	0.32619873
193	0x3e9186d7	0.28423187
194	0x3e56c02d	0.20971747
195	0xbd5c63c0	-0.053806067
196	0xbbf65774	-0.0075177494
197	0x3b9897a3	0.0046567484
198	0x3cacec4c	0.021108769
199	0x3c8b1516	0.016977828
200	0x3d475479	0.048664544
201	0x3aabf54d	0.001311937
202	0xbdb2ea3c	-0.08736083
203	0xbc02f1de	-0.007992236
204	0x3d619517	0.055073824
205	0xbbd23984	-0.006415548
206	0x3b65c009	0.0035057089
207	0x3d556951	0.05210239
208	0xbd7ee6cc	-0.062231824
209	0xbcf81eab	-0.030288061
210	0xbd5722be	-0.052523367
211	0x3c660d23	0.014041218
212	0x3cf52c27	0.02992828
213	0xbc95d5d4	-0.018290438
214	0xbc3aa1a0	-0.011391073
215	0x3d04c1e7	0.032411482
216	0x3b98e3b9	0.0046658185
217	0xbcc13f01	-0.023589613
218	0x3c1d4efc	0.009601351
219	0x3c81b8c8	0.01583518
220	0xbc2bf9fa	-0.010496611
221	0x3c5b9620	0.013402492
222	0x3bce11ce	0.0062887436
223	0xbc9805c5	-0.018557439
224	0xbdcb0b05	-0.09914211
225	0xbd0ca8cc	-0.034340665
226	0x3d39c547	0.045354154
227	0x3cbed82f	0.023296444
228	0x3e55aaba	0.20865908
229	0x3d138936	0.036019526
230	0x3f62ae67	0.88547367
231	0xbe68bea1	-0.22728969
232	0xbe910a77	-0.28328297
233	0xbd6ab7df	-0.05730426
234	0xbd4b07f7	-0.049568143
235	0xbe183aff	-0.14866255
236	0x3ee79663	0.45231923
237	0xbd929bde	-0.071586356
238	0x3da7b981	0.08189679
239	0x3ddbbd79	0.107294984
240	0xbe81f121	-0.2537928
241	0xbddf39c0	-0.10899687
242	0x3d11123e	0.035417788
243	0xbe967e95	-0.2939345
244	0x3e3ceb37	0.18449102
245	0xbdfa7e8b	-0.122311674
246	0x3e94d167	0.2906601
247	0x3e346f62	0.17620614
248	0x3d0c6ff3	0.03428645
249	0x3dbee412	0.09320845
250	0xbdae4090	-0.08508408
251	0x3dd39bbc	0.10332438
252	0xbdcc9b86	-0.09990601
253	0x3dd6df73	0.10491838
254	0xbdf97bcd	-0.12181816
255	0xbe07f419	-0.1327671

final.linears.0.bias f4 [114]
0	0x3ee01c85	0.4377176
1	0xbe783cd5	-0.24241956
2	0x3e89acdf	0.26889703
3	0x3e940f83	0.28918085
4	0x3e477343	0.19477563
5	0x3bbbc7de	0.005730613
6	0x3eac9258	0.337054
7	0x3e6e7fc4	0.23290926
8	0x3e8550d9	0.26038244
9	0x3de50e11	0.111843236
10	0x3e88d31c	0.26723564
11	0xbe1a250e	-0.15053198
12	0xbd96b8b3	-0.07359447
13	0x3e4b1072	0.19830492
14	0xbe157dee	-0.1459882
15	0xbe45ad84	-0.19304472
16	0xbcfefc48	-0.031126156
17	0x3e5e50d3	0.2171052
18	0xbd9c4fe1	-0.07632423
19	0x3db1eb88	0.08687502
20	0xbe27e631	-0.16396405
21	0x3dbf7cf0	0.09350002
22	0x3d40667f	0.046972748
23	0xbeea41dc	-0.45753372
24	0x3e402b41	0.187665
25	0x3e0d03b7	0.13770948
26	0xbf1408e1	-0.5782605
27	0xbc805cba	-0.015669215
28	0x3da918ad	0.0825666
29	0xbc45d7d5	-0.012075384
30	0x3d484e8f	0.048903044
31	0x3dad3be5	0.084586896
32	0x3e16a56b	0.1471154
33	0x3dd2cddc	0.10293171
34	0xbcc446e9	-0.023959594
35	0x3e7e6839	0.24844445
36	0xbe9cfb95	-0.30660692
37	0x3dfeb292	0.12436403
38	0x3e9a1f0e	0.30101818
39	0x3e613329	0.21992172
40	0x3e99e37f	0.30056378
41	0x3e2a0127	0.16602002
42	0xbe49f8a5	-0.19723757
43	0x3e7bb356	0.2458013
44	0x3f15f2db	0.58573693
45	0x3ea21c12	0.3166204
46	0x3e649b49	0.22324862
47	0x3e7c4656	0.24636206
48	0x3d34e57e	0.044164173
49	0x3eb22c21	0.34799293
50	0xbddc2691	-0.107495435
51	0x3e049a78	0.1294955
52	0xbda04594	-0.07825771
53	0x3e7a9512	0.24470928
54	0xbf2a42e1	-0.665083
55	0xbdd00af6	-0.10158341
56	0xbe180023	-0.14843802
57	0xbe08e051	-0.1336682
58	0xbd219518	-0.039448828
59	0xbde03409	-0.10947425
60	0xbb584cb4	-0.0033004703
61	0x3e531140	0.20612049
62	0xbd9934a4	-0.074807435
63	0xbde3d3cf	-0.11124384
64	0xbb833885	-0.0040045404
65	0xbe0f1b6d	-0.13975306
66	0x3ea8e297	0.32985374
67	0x3e86b6cc	0.26311338
68	0xbee3897a	-0.44440824
69	0xbf6811e8	-0.9065232
70	0xbece0c8e	-0.40243953
71	0x3e28dccb	0.16490476
72	0x3e22b4f2	0.15889338
73	0xbe96fc68	-0.29489446
74	0xbdfb690e	-0.12275897
75	0xbd9fa7ef	-0.07795703
76	0x3dddc5e1	0.10828758
77	0xbdfa2e63	-0.12215879
78	0xbf028b01	-0.50993353
79	0x3e801d48	0.2502234
80	0xbd41ffb9	-0.047363017
81	0x3eacf255	0.33778635
82	0xbe0c431c	-0.13697475
83	0x3c2eb7da	0.010663951
84	0xbe138f3b	-0.14410107
85	0xbd082857	-0.033241596
86	0xbdd566f5	-0.10420028
87	0xbe8b5cdb	-0.2721928
88	0x3e645825	0.2229925
89	0xbdfb1153	-0.12259164
90	0x3e634873	0.22195606
91	0x3d9affc1	0.075683124
92	0x3ec928f3	0.39289054
93	0x3ed90039	0.42382982
94	0xbc333d11	-0.010939852
95	0x3df1a34a	0.11798723
96	0x3ce34652	0.027743492
97	0x3e9c4f08	0.30529046
98	0x3e686088	0.22693074
99	0x3df59f4b	0.11993273
100	0x3eb3dfdb	0.35131726
101	0x3e5d2c38	0.215989
102	0x3e3da94d	0.18521614
103	0xbeb4a7a7	-0.3528416
104	0x3dbd63e0	0.09247565
105	0x3e2cb254	0.16864902
106	0x3dfd51cd	0.12369118
107	0x3e5443be	0.20728967
108	0x3e95d7ae	0.29266113
109	0x3e7c6cad	0.24650832
110	0xbe512257	-0.20423256
111	0x3ea0dfa8	0.31420636
112	0x3e4831e8	0.19550288
113	0x3df72455	0.12067477

final.linears.1.weight f4 [114, 114]
0	0xbec44c1f	-0.38339326
1	0xbddd22be	-0.10797642
2	0xbda1bc65	-0.078972615
3	0x3b408676	0.002937702
4	0xbe895a7b	-0.26826844
5	0xb89d5a06	-7.5031116e-05
6	0xbe4f3cb5	-0.20238002
7	0xbecdbacb	-0.40181574
8	0xbe3aa5bb	-0.18227284
9	0xbe2985d5	-0.16554959
10	0x3d0a2b39	0.033732627
11	0x3d23b8bc	0.0399711
12	0xbd4f7c49	-0.050655637
13	0xbc8ae3c0	-0.016954303
14	0xbef8211a	-0.48462754
15	0xbed73af0	-0.42037153
16	0xbeec3e2e	-0.4614119
17	0xbe7b3b31	-0.24534298
18	0xbe82d4c9	-0.25552967
19	0xbd850f1e	-0.06497024
20	0x3d1eb62a	0.038747944
21	0xbd125bbd	-0.03573202
22	0xbc91e8b4	-0.017811157
23	0x3d5b8332	0.053591914
24	0xbe926892	-0.28595406
25	0xbd7eed08	-0.06223777
26	0x3ddab1c3	0.106784366
27	0xbcc1ffd9	-0.023681568
28	0x3d4f064e	0.050543122
29	0xbc835dbc	-0.016035907
30	0xbe67e0fb	-0.22644417
31	0xbe407df4	-0.18798047
32	0x3bed7ed8	0.007247787
33	0xbff62bfb	-1.9232172
34	0xbe9b2b5c	-0.30306518
35	0x3cc33e7c	0.023833506
36	0xbd5c5ace	-0.053797536
37	0xbeddfb95	-0.43356004
38	0xbeafbc8c	-0.34323537
39	0xbebbdd62	-0.3669234
40	0xbe25fd1c	-0.16209835
41	0xbd6e6383	-0.05820037
42	0xbe2d1657	-0.16903053
43	0xbe3743bd	-0.17896934
44	0xbec8d950	-0.39228296
45	0xbf01d6f4	-0.5071862
46	0xbe8130f6	-0.25232667
47	0xbe3b95d7	-0.18318878
48	0xbed23649	-0.4105704
49	0xbf082163	-0.53175944
50	0xbec9b4d5	-0.39395776
51	0x3dfcad46	0.12337737
52	0xbef90a40	-0.48640633
53	0xbedea710	-0.43486834
54	0xbda791f5	-0.08182136
55	0xbc2ae7bb	-0.010431225
56	0xbd4c08ce	-0.049813084
57	0xbee831d3	-0.45350513
58	0xbd19c1a9	-0.037538204
59	0x3cb4c853	0.022068178
60	0xbbda07fc	-0.006653784
61	0xbe81454c	-0.25248182
62	0x3d98af11	0.07455266
63	0xbd84f3f7	-0.06491845
64	0xbeb06676	-0.34453171
65	0xbd9c732b	-0.07639154
66	0xbe9d1fc4	-0.30688298
67	0xbec12d7b	-0.3773001
68	0x3de6faf4	0.11278334
69	0x3e9c657d	0.3054618
70	0xbd1c7f4a	-0.03820733
71	0xbdb44bd2	-0.08803524
72	0xbeb158ae	-0.3463797
73	0xbdd9e600	-0.10639572
74	0xbe178620	-0.14797258
75	0xbdd3a86a	-0.10334857
76	0xbd1c918d	-0.038224746
77	0x3bee875c	0.0072793197
78	0x3d1a6944	0.037698045
79	0xbce74d25	-0.028235028
80	0xbcace193	-0.021103656
81	0xbeb94e54	-0.36192572
82	0x3dd8a440	0.10578203
83	0xbeaf5335	-0.3424317
84	0x3c557bb2	0.01302998
85	0xbd984ac5	-0.07436136
86	0xb83597e0	-4.3295207e-05
87	0x3ca37d3b	0.019957175
88	0xbe7ae3ba	-0.24500933
89	0xbd54dab5	-0.051966388
90	0xbe8656fb	-0.26238236
91	0xbc65acc2	-0.014018239
92	0xbe6ede68	-0.23327029
93	0xbee7217a	-0.45142728
94	0x3c4f87f7	0.012666694
95	0xbe84fe3d	-0.25975218
96	0x3c1b685b	0.0094853295
97	0xbea9b4e2	-0.33145815
98	0xbe8d4ca9	-0.2759755
99	0xbeb6fca8	-0.35739636
100	0xbec3ec54	-0.38266242
101	0xbeeeaaf2	-0.46614796
102	0xbce2b573	-0.027674412
103	0xbbfe9d6a	-0.00777023
104	0xbe4fdffe	-0.2030029
105	0xbc26c206	-0.010178095
106	0xbd5cf149	-0.053941045
107	0xbe6a845a	-0.2290205
108	0xbeca5822	-0.39520365
109	0xbd0bd1a0	-0.03413546
110	0xbdcbbac5	-0.09947733
111	0xbd78139f	-0.060565587
112	0xbeda2b6a	-0.42611247
113	0xbeb060ee	-0.3444895
114	0xbdbd057d	-0.092295624
115	0x3c0c3705	0.00855804
116	0xbd37baf5	-0.04485603
117	0xbeeaebd0	-0.45883036
118	0xbc093b90	-0.008376017
119	0xbdb5dadf	-0.08879637
120	0xbd62ce8b	-0.055372756
121	0xbd7ac3e8	-0.061221987
122	0x3e18d6c4	0.14925677
123	0xbcdda8a9	-0.027057962
124	0xbe279c2b	-0.16368167
125	0x3da9d1f1	0.08291996
126	0xbe19c99d	-0.15018316
127	0xbdc2f554	-0.09519449
128	0xbd749bbd	-0.059718836
129	0xbd7e2beb	-0.062053602
130	0xbd8ea53c	-0.0696511
131	0xbcfbd6fe	-0.030742165
132	0xbb38f56a	-0.002822245
133	0xbda8df0e	-0.08245669
134	0xbe11c4eb	-0.14235274
135	0x3dd2f41c	0.103004664
136	0x3bdc1ede	0.006717547
137	0xbd54523a	-0.05183623
138	0xbd990c4e	-0.0747305
139	0xbd959888	-0.07304484
140	0xbc9c018c	-0.019043706
141	0xbc7a894e	-0.015291525
142	0x3ab6696d	0.0013916917
143	0x3cfc3672	0.03078768
144	0xbdd2117a	-0.1025724
145	0xbde5192b	-0.11186441
146	0x3d9d8a91	0.07692445
147	0xbdafd8c7	-0.08586269
148	0xbd32fb80	-0.04369688
149	0xbb7dc444	-0.003872172
150	0xbd384551	-0.04498798
151	0xbd8247b9	-0.06361336
152	0xbd59134a	-0.05299691
153	0xbd84a5a0	-0.06476903
154	0xbd837310	-0.06418431
155	0xbdf2a22f	-0.1184734
156	0xbd9e3bb3	-0.077262305
157	0xbda45a4a	-0.08025034
158	0xbd82278b	-0.063551985
159	0xbd974bce	-0.073875055
160	0xbdb20b88	-0.08693606
161	0x3dcaa924	0.09895542
162	0xbd579fca	-0.05264262
163	0xbd8a8ca9	-0.0676511
164	0xbd513eb6	-0.051085196
165	0xbd213480	-0.03935671
166	0xbd5c76dd	-0.053824294
167	0xbd0c2fa2	-0.034225114
168	0xbcfd71a7	-0.030937983
169	0x3c264c40	0.010150015
170	0x3d2753dc	0.04085146
171	0xbd33acb5	-0.043865878
172	0xbcb0f58e	-0.021601465
173	0x3c156b6d	0.009119851
174	0xbd81348e	-0.06308852
175	0xbd3f1448	-0.0466502
176	0x3c80c54f	0.015719084
177	0x3dbee112	0.093202725
178	0xbda09382	-0.07840635
179	0xbcd082d0	-0.025453001
180	0xbd614f5a	-0.055007316
181	0x3ea1202e	0.31469864
182	0x3d3f1dbd	0.04665922
183	0x3d6e7cbc	0.058224425
184	0x3dd01e22	0.101619974
185	0x3e21bced	0.15794726
186	0xbd8af4ed	-0.06784997
187	0x3cf976bc	0.030452125
188	0xbd0fefd0	-0.035140812
189	0xbc222f67	-0.009898997
190	0x3c8e5404	0.017374046
191	0x3db3abba	0.087729886
192	0x3de62a37	0.112385206
193	0xbd2d3bb9	-0.042293284
194	0xbd0eacaa	-0.034832634
195	0xbd5db4d3	-0.054127526
196	0x3df61da3	0.120173715
197	0xbd35df91	-0.044402663
198	0xbd0fe14f	-0.03512698
199	0x3cb4b1ff	0.022057531
200	0xbd58581a	-0.052818395
201	0xbc192963	-0.009348246
202	0xbda16bd1	-0.078818925
203	0x3ba04daa	0.004892071
204	0x3d8f21a6	0.0698884
205	0xbddba134	-0.107241064
206	0xbeb1d698	-0.34734035
207	0xbd88254b	-0.06647738
208	0x3acc324e	0.0015578957
209	0xbd601951	-0.054711644
210	0x3d94ea88	0.07271296
211	0xbd580f47	-0.052748945
212	0xbd810251	-0.0629927
213	0xbd85ef38	-0.06539768
214	0xbdc0174d	-0.09379444
215	0xbd852fc5	-0.06503252
216	0x3c17d9ea	0.009268263
217	0x3dd9fd3f	0.10644006
218	0xbca0a3ef	-0.01960942
219	0xbd17297d	-0.0369048
220	0xbe246f2c	-0.16058034
221	0xbd963daf	-0.07335984
222	0xbd8c9760	-0.0686481
223	0xbe0cf7e7	-0.13766442
224	0xbbbe2813	-0.005803117
225	0xbd5845af	-0.05280083
226	0xbd6f8408	-0.058475524
227	0xbd91ec4a	-0.07125147
228	0xbea9e1be	-0.3318004
229	0xbda7e73e	-0.08198403
230	0xbc6cb54c	-0.014447521
231	0x3d0642ac	0.032778427
232	0xbeace0b8	-0.33765197
233	0xbd0bc5c8	-0.034124166
234	0xbe85b983	-0.26118097
235	0xbeaf0aea	-0.34188014
236	0xbd945e5e	-0.072445616
237	0xbdfa7b10	-0.122305036
238	0x3d6f8a7c	0.05848168
239	0x3d6e2ccc	0.05814819
240	0x3b11b9f8	0.002223609
241	0xbd8ca238	-0.06866878
242	0xbec62103	-0.3869706
243	0xbecda6a2	-0.40166193
244	0xbfc71de2	-1.5555995
245	0xbeaf72a6	-0.34267157
246	0xbe6e472d	-0.23269339
247	0xbda11f1e	-0.07867263
248	0xbd42ec4b	-0.047588628
249	0xbbf2acf4	-0.0074058715
250	0x3d9477a9	0.07249386
251	0xbd047680	-0.032339573
252	0xbe88a721	-0.2669001
253	0xbd2c56c9	-0.042074952
254	0x3e11f53c	0.14253706
255	0xbd6575c2	-0.056020506

final.linears.1.bias f4 [114]
0	0xbe8fa41e	-0.280549
1	0xbe102296	-0.14075693
2	0xbe5239b7	-0.20529829
3	0xbecf5d89	-0.4050105
4	0xbe8194e2	-0.253089
5	0xbe704f23	-0.23467688
6	0xbe83a0fd	-0.25708762
7	0xbe8b77da	-0.27239877
8	0x3e267cc1	0.16258527
9	0xbe559ec5	-0.20861347
10	0xbe869ebb	-0.26292977
11	0xbe6e16e1	-0.23250915
12	0x3e565ee4	0.20934635
13	0xbdd3e829	-0.103470154
14	0x3d8f69bf	0.07002591
15	0xbe38f9c1	-0.18064024
16	0x3d9ed825	0.0775607
17	0xbe201aff	-0.15635298
18	0x3e915c64	0.283908
19	0xbe8e2a2f	-0.2776656
20	0xbe81faf0	-0.25386763
21	0xbe2ef8ef	-0.17087148
22	0xbe10a7c7	-0.14126502
23	0xbe6be4e1	-0.23036529
24	0xbe8bdcf9	-0.27317026
25	0xbe89089e	-0.26764387
26	0xbebd0a6d	-0.36922017
27	0xbe588e2b	-0.21147983
28	0xbe5bb98e	-0.21457502
29	0xbe411d48	-0.18858826
30	0xbea89119	-0.329232
31	0xbe294f49	-0.16534151
32	0xbe0751dd	-0.13214822
33	0xbe8036c4	-0.25041783
34	0xbd86cb03	-0.0658169
35	0x3b509f3c	0.0031833192
36	0xbe30b24e	-0.17255518
37	0xbe4043b4	-0.18775827
38	0xbe66eeda	-0.22552052
39	0xbdfd98b3	-0.12382641
40	0xbe164c7a	-0.14677611
41	0xbe91a40c	-0.2844547
42	0xbea0c68d	-0.31401482
43	0xbc2b8b05	-0.010470157
44	0xbe167a28	-0.14695036
45	0xbd0ac43e	-0.033878557
46	0xbe4e9ba6	-0.20176563
47	0xbe0d45fe	-0.13796231
48	0xbeaece82	-0.34141928
49	0xbe1374ba	-0.14399996
50	0xbe809501	-0.2511368
51	0xbea563bb	-0.3230265
52	0xbe1d9647	-0.15389358
53	0xbe584aec	-0.2112233
54	0xbf15fc6d	-0.58588296
55	0xbe2eacaa	-0.17058054
56	0xbe73631d	-0.23768277
57	0xbc379762	-0.011205526
58	0xbe97dc80	-0.29660416
59	0xbe8494b9	-0.25894716
60	0xb932517e	-0.00017005761
61	0xbeac3a28	-0.3363812
62	0xbc10412d	-0.008804602
63	0xbe52a113	-0.20569257
64	0xbe9cc754	-0.30620825
65	0xbe37c9dc	-0.17948097
66	0x3e05eeb3	0.13079338
67	0xbe81666f	-0.25273463
68	0x3b2028ce	0.0024438384
69	0xbe695577	-0.22786509
70	0xbcf58dfc	-0.02997493
71	0xbd8e4c82	-0.069481865
72	0xbce2339f	-0.027612505
73	0xbe4d252e	-0.20033714
74	0xbe976ebb	-0.29576668
75	0xbe59f298	-0.21283948
76	0xbe73df69	-0.23815693
77	0xbf0130dc	-0.5046518
78	0xbe14afed	-0.14520235
79	0xbe487a16	-0.19577822
80	0xbec760a5	-0.3894092
81	0xbe739fce	-0.2379143
82	0xbe7afe33	-0.24511032
83	0xbe2f8a53	-0.1714261
84	0xbdc8df9e	-0.098082766
85	0xbe52020b	-0.20508592
86	0xbd0ae7e1	-0.033912543
87	0xbde57a7d	-0.112050034
88	0xbe55f82e	-0.20895454
89	0xbe4728ad	-0.1944911
90	0xbe556534	-0.20839387
91	0xbe870160	-0.26368237
92	0xbe800257	-0.25001785
93	0xbe92dd84	-0.28684628
94	0x3d02ebb1	0.031963054
95	0xbe8a36cf	-0.2699494
96	0xbe68e15f	-0.22742222
97	0xbf341b92	-0.7035457
98	0xbe686036	-0.22692952
99	0x3d255d1a	0.04037199
100	0xbe6e9cc2	-0.23301986
101	0xbe5e652c	-0.21718282
102	0xbe380284	-0.1796971
103	0xbb0d1746	-0.0021528765
104	0xbec1b889	-0.37836102
105	0xbe85c651	-0.26127866
106	0xbeba6961	-0.36408523
107	0xbe3de445	-0.18544109
108	0xbe12322d	-0.14276953
109	0xbe3be7cd	-0.18350144
110	0xbe844dab	-0.25840506
111	0xbe21acdf	-0.15788601
112	0xbe4c14ef	-0.1992986
113	0xbd9ea00e	-0.07745372

final.linears.2.weight f4 [25, 114]
0	0x3ed59cbb	0.41721138
1	0xbe48faf9	-0.19626988
2	0xbe9f6b23	-0.31136426
3	0x3ea7726f	0.32704493
4	0x3e171436	0.14753804
5	0xbf289a94	-0.6586087
6	0xbea82016	-0.3283698
7	0x3c5a4c22	0.013323816
8	0xbe814723	-0.25249586
9	0xbb9fbf8f	-0.0048751305
10	0x3d21cfa0	0.039504647
11	0x3e98626d	0.29762593
12	0x3e91550a	0.28385192
13	0xbc276cdd	-0.010218826
14	0x3e885004	0.26623547
15	0x3eb73160	0.35779858
16	0xbace4b5a	-0.0015739009
17	0xbc767916	-0.015043518
18	0xbde8babe	-0.11363743
19	0xbd5e74d2	-0.054310627
20	0x3f2e306b	0.6804263
21	0x3da001d4	0.07812849
22	0xba4725b2	-0.00075968646
23	0x3eb093da	0.34487802
24	0xbeabe130	-0.33570242
25	0xbe5aeabe	-0.2137861
26	0xbf071926	-0.5277275
27	0xbe840dcf	-0.25791785
28	0xbe1a44cb	-0.15065305
29	0x3d5d1bd9	0.053981636
30	0xbb7b5769	-0.003835166
31	0xbea6180c	-0.3244022
32	0x3c6e47de	0.014543502
33	0xbe867b6b	-0.26266035
34	0xbd90b183	-0.07065108
35	0xbe11c4a6	-0.14235172
36	0xbb27a11e	-0.002557821
37	0xbdcc6de3	-0.09981897
38	0x3d9c46df	0.07630705
39	0xbe151476	-0.14558586
40	0xbdbdc3d3	-0.09265866
41	0x3e3e716e	0.18597957
42	0x3e6326ae	0.22182724
43	0x3dfdff40	0.12402201
44	0x3f2bf4ad	0.6717022
45	0xbe13ba94	-0.14426643
46	0xbe5a5f39	-0.21325387
47	0xbc28f855	-0.010313113
48	0xbe84b444	-0.25918782
49	0xbdfebc7b	-0.124382935
50	0xbea41211	-0.32045034
51	0x3d810277	0.06299298
52	0xbdf1ddce	-0.11809884
53	0xbf38b898	-0.7215667
54	0x3d3c7e76	0.04601904
55	0x3d22dd5b	0.039761882
56	0x3dd6e6ee	0.10493265
57	0xbd55c83e	-0.05219292
58	0xbd11ab10	-0.03556353
59	0x3daaf8d5	0.08348242
60	0xbd40afe5	-0.047042746
61	0xba173ff2	-0.00057697215
62	0x3bf7529e	0.0075476905
63	0xbec47e66	-0.38377684
64	0x3eed19fe	0.46308893
65	0xbe17a0d7	-0.1480745
66	0xbe4dda23	-0.20102744
67	0xbe37812d	-0.1792037
68	0x3dd33311	0.103124745
69	0x3e38f5fc	0.18062586
70	0xbd03dd25	-0.03219332
71	0xbd592fc1	-0.053024057
72	0x3de0a511	0.10968984
73	0xbe8d0165	-0.27540126
74	0x3f1f7ba4	0.62298036
75	0xbe949915	-0.29023042
76	0x3e0f7fe9	0.14013638
77	0x3d9fcc50	0.078026414
78	0x3cccfbaf	0.025022356
79	0xbb9c954b	-0.0047785393
80	0xbe85daad	-0.261434
81	0xbc4bdc9c	-0.012442734
82	0xbec98b2d	-0.39363995
83	0xbce6019f	-0.028076945
84	0x3d78d15c	0.060746536
85	0x3e5106b0	0.20412707
86	0xbc7a16c5	-0.015264218
87	0x3e8c8497	0.27444908
88	0x3db9f7ab	0.09080442
89	0x3e7ccd08	0.24687588
90	0x3e61b86c	0.22043008
91	0x3ea753b0	0.32681036
92	0xbe7ca755	-0.24673207
93	0xbebce3fe	-0.36892694
94	0xbc45d155	-0.012073834
95	0x3e2e0aa0	0.1699624
96	0xbe121bb3	-0.14268379
97	0x3c4c4343	0.012467208
98	0x3ee173a2	0.44033533
99	0x3e6239d5	0.22092374
100	0xbed07ae3	-0.40718755
101	0x3ea1c928	0.31598783
102	0x3e57be54	0.21068698
103	0xbda70d6b	-0.08156856
104	0x3a0dddf4	0.0005411797
105	0x3ea350a4	0.3189746
106	0x3e8aa6e4	0.27080452
107	0xbe9a99b5	-0.30195394
108	0xbe9106d2	-0.28325516
109	0x3ee95c76	0.45578355
110	0xbe4b1276	-0.19831261
111	0xbd75d46f	-0.060017046
112	0x3efdb613	0.49552974
113	0x3d2bfe4a	0.041990556
114	0xbda0eaef	-0.0785731
115	0x3dd86bab	0.10567411
116	0x3db1289b	0.08650323
117	0xbe8e04ac	-0.2773794
118	0x3ecd60f5	0.40113035
119	0x3e8bf696	0.27336568
120	0xbe112611	-0.14174677
121	0xbcaa8eed	-0.020820105
122	0x3e1a18b1	0.15048482
123	0xbe1ea3f3	-0.15492229
124	0x3eb2cebc	0.3492335
125	0xbde3b597	-0.1111862
126	0xbd453e89	-0.04815534
127	0x3c471e7a	0.012153262
128	0xbe124806	-0.14285287
129	0x3d78ea64	0.060770407
130	0xbbc1bf11	-0.0059126695
131	0xbd8a5f32	-0.06756438
132	0xbdde1182	-0.10843183
133	0x3ca78908	0.020451084
134	0x3c92b873	0.017910218
135	0x3dd65893	0.10466113
136	0xbcb69977	-0.022289975
137	0xbe2aa833	-0.16665725
138	0x3eeb274b	0.45928416
139	0xbe1f42ca	-0.15552822
140	0x3e2170a4	0.15765625
141	0xbefd024c	-0.49415815
142	0xbe962c9b	-0.29330906
143	0x3dc0cc02	0.094139114
144	0x3c28d23a	0.010304028
145	0xbd48a9ba	-0.04898999
146	0xbd130810	-0.03589636
147	0x3d39f34c	0.04539804
148	0xbdcecaac	-0.1009725
149	0xbe4e94dd	-0.20173974
150	0xbcce2e63	-0.025168603
151	0xbeaac4e7	-0.3335335
152	0x3e12dc1c	0.14341778
153	0xbdc56b24	-0.09639576
154	0x3e8814bb	0.26578316
155	0x3f3f4a17	0.7472243
156	0xbc9a1c20	-0.01881224
157	0x3e8c2a8e	0.27376217
158	0x3dc191c5	0.094516315
159	0xbe99db39	-0.30050066
160	0x3ea3f99b	0.3202637
161	0xbbafbcf4	-0.005363101
162	0xbc9ec884	-0.019382723
163	0x3e61671b	0.22011988
164	0x3f1ec606	0.6202091
165	0xbcb0cf31	-0.021583172
166	0xbe62aa88	-0.22135365
167	0xbf50bab0	-0.8153486
168	0xbcfd4366	-0.030915927
169	0xbea1eff7	-0.3162839
170	0xbf02c9da	-0.5108925
171	0xbd8a3887	-0.06749063
172	0x3d29ad52	0.041425057
173	0x3e1b2d6a	0.15154043
174	0xbda068e7	-0.078325085
175	0xbbd3944e	-0.0064568883
176	0xbdaf153f	-0.08548974
177	0x3d112d00	0.035443306
178	0x3e1399d3	0.14414148
179	0x3ebfa3f2	0.37429768
180	0x3d884a35	0.06654779
181	0xbde79d3f	-0.11309289
182	0x3e01485e	0.12625262
183	0xbeb25ad3	-0.34834918
184	0x3e169871	0.1470659
185	0xbe9376e8	-0.28801656
186	0x3ebf8fa3	0.37414274
187	0xbd354197	-0.044252004
188	0xbe39ae46	-0.18132886
189	0x3e565a12	0.20932797
190	0x3e4f271c	0.20229763
191	0x3da1f8af	0.07908761
192	0x3ec7c983	0.3902093
193	0xbc2d217e	-0.010567067
194	0x3cfe9d2a	0.031080801
195	0x3f0e740b	0.5564582
196	0xbe918839	-0.28424242
197	0xbe074e4f	-0.13213466
198	0xbe1531ad	-0.14569731
199	0xbdcc9a7e	-0.099904045
200	0x3e16a605	0.14711769
201	0xbec7746a	-0.38956004
202	0x3ed216f4	0.41033137
203	0xbda03571	-0.07822693
204	0xbdcb8a80	-0.09938526
205	0xbe622274	-0.22083455
206	0xbf37826f	-0.716834
207	0x3d189e6f	0.03726047
208	0x3d48f992	0.049066134
209	0x3ea5052a	0.32230502
210	0x3f0332b1	0.51249224
211	0xbcbaa485	-0.022783527
212	0xbe397407	-0.18110667
213	0x3d08f59d	0.03343736
214	0x3ef2b035	0.4740006
215	0xbf017984	-0.50576043
216	0x3e17d365	0.14826734
217	0x3d419d74	0.0472693
218	0x3de5bdfc	0.11217877
219	0xbe80d0f2	-0.25159413
220	0x3d09b86b	0.03362314
221	0x3c9f26f1	0.019427748
222	0xbe82cea0	-0.25548267
223	0xbd47e13b	-0.04879878
224	0xbecbf362	-0.39834124
225	0x3e0b7a32	0.13620833
226	0x3eeeb811	0.46624807
227	0xbc6e243e	-0.014535008
228	0xbe0c43b3	-0.136977
229	0x3cbe37d1	0.023219975
230	0xbd194dad	-0.037427593
231	0x3e61e5ca	0.22060314
232	0xbe4be033	-0.19909744
233	0x3bdd9311	0.0067619164
234	0xbe4e4da3	-0.20146804
235	0x3e3c2c7e	0.18376347
236	0xbe3584d2	-0.17726448
237	0xbd6669e3	-0.056253325
238	0x3e4e79d0	0.20163655
239	0xbd8770b4	-0.06613293
240	0x3dd3a7af	0.103347175
241	0x401174f3	2.272763
242	0xbd3af7f0	-0.045646608
243	0xbd0a8b31	-0.03382415
244	0xbf5b74b0	-0.85724926
245	0xbdaa90b5	-0.08328382
246	0x3cd62b75	0.026143769
247	0x3e212930	0.15738368
248	0x3df0dae4	0.117605
249	0x3ddc95fc	0.10770795
250	0x3df939b8	0.12169212
251	0x3c887089	0.016655223
252	0xbd56abd1	-0.05240995
253	0xbdaf0b30	-0.08547056
254	0x3f01674e	0.50548255
255	0xbda867d4	-0.08222929

final.linears.2.bias f4 [25]
0	0xbcd9eaef	-0.026601283
1	0x3c6abdde	0.014327494
2	0x3d47c9e1	0.04877651
3	0xbc97382c	-0.018459402
4	0x3ce943ad	0.028474653
5	0xbd59584a	-0.053062715
6	0x3c98d9c1	0.01865852
7	0xbd38e839	-0.04514334
8	0x3dcf50eb	0.10122856
9	0xbd9fb079	-0.07797331
10	0xbd86ea41	-0.06587649
11	0x3bdbbc97	0.0067058313
12	0xbc24dbde	-0.010062186
13	0x3d52d4b0	0.051472366
14	0xbd227db8	-0.039670676
15	0xbc3b662c	-0.011437934
16	0x3ca41624	0.020030089
17	0xbd7f6d33	-0.06236
18	0x3d10c855	0.0353473
19	0xbd93fc31	-0.07225836
20	0xbd8d6f82	-0.06906034
21	0x3d1015ea	0.03517715
22	0xbdb0b757	-0.08628719
23	0xbd69f9d3	-0.057123017
24	0x3da9ec52	0.08297028

layers.0.attn.0.gnn_q.weight f4 [25, 16]
0	0x88acb84f	-1.0395204e-33
1	0x08a03bb0	9.643682e-34
2	0x88a2f8c7	-9.808508e-34
3	0x874d023c	-1.5423143e-34
4	0x88a1370b	-9.702776e-34
5	0x08a6ab55	1.0031042e-33
6	0x08acf505	1.0409477e-33
7	0x88b0b27a	-1.0634574e-33
8	0x88ac60ed	-1.0374661e-33
9	0x889ee8e5	-9.564032e-34
10	0x88ab84b1	-1.0322884e-33
11	0x88a7f784	-1.0109138e-33
12	0x88ac243a	-1.036039e-33
13	0x08a1c671	9.736488e-34
14	0x08a8f6fc	1.0169198e-33
15	0x88abd1ab	-1.0340981e-33
16	0x88b0a854	-1.0632188e-33
17	0x08a21291	9.754385e-34
18	0x08a09b34	9.666138e-34
19	0x08b264cf	1.0736685e-33
20	0x089e7e2c	9.538942e-34
21	0x08ae59ec	1.0493385e-33
22	0x08b00200	1.0593085e-33
23	0x8882d7df	-7.874841e-34
24	0x88af1170	-1.0536529e-33
25	0x889dafa8	-9.49039e-34
26	0x889e90be	-9.543308e-34
27	0x08af0685	1.0533962e-33
28	0x88a92b0e	-1.018144e-33
29	0x889fce72	-9.6179995e-34
30	0x08ada1fe	1.0450143e-33
31	0x88af4456	-1.0548495e-33
32	0x08aec116	1.0517638e-33
33	0x08a2d0ec	9.799138e-34
34	0x88b06b61	-1.0617859e-33
35	0x88a2fbb7	-9.809198e-34
36	0x08a5cc3f	9.978594e-34
37	0x08af6107	1.055524e-33
38	0x089e0aed	9.511848e-34
39	0x88ad91b6	-1.0446315e-33
40	0x08a01109	9.633655e-34
41	0x88ae926c	-1.0506668e-33
42	0x88a36701	-9.834422e-34
43	0x88a869f8	-1.0136045e-33
44	0x88a770aa	-1.0077434e-33
45	0x08ae003a	1.0472297e-33
46	0x08ac7bb0	1.0380952e-33
47	0x089e71e9	9.536059e-34
48	0x88aeb274	-1.0514198e-33
49	0x08a1c195	9.735346e-34
50	0x08b58a88	1.092611e-33
51	0x08ad0c34	1.0414928e-33
52	0x08a83283	1.0123007e-33
53	0x88afea17	-1.0587464e-33
54	0x888bea7e	-8.420887e-34
55	0x8840d172	-5.80241e-34
56	0x08ae4cc7	1.0490294e-33
57	0x88aebb64	-1.0516299e-33
58	0x88b10829	-1.0654718e-33
59	0x08af9c50	1.0569178e-33
60	0x880a7858	-4.166933e-34
61	0x88a2bda6	-9.7946065e-34
62	0x88af9f46	-1.0569874e-33
63	0x88ab12c8	-1.0296104e-33
64	0x08a44f0b	9.888974e-34
65	0x08aeac05	1.0512686e-33
66	0x08a95a77	1.0192586e-33
67	0x88ab9458	-1.0326564e-33
68	0x08a5c15a	9.976033e-34
69	0x88a7752a	-1.0078492e-33
70	0x08adf443	1.0469484e-33
71	0x07ea4f20	3.5254912e-34
72	0x88a616fa	-9.996163e-34
73	0x889f9adc	-9.605872e-34
74	0x07dfd934	3.3680971e-34
75	0x88ac0280	-1.0352461e-33
76	0x08b06585	1.0616482e-33
77	0x08a5c322	9.976452e-34
78	0x880d3e96	-4.2504214e-34
79	0x877a8c5d	-1.8849159e-34
80	0x88a0adab	-9.670479e-34
81	0x88ae22d9	-1.0480437e-33
82	0x08a60780	9.992525e-34
83	0x869492a4	-5.588688e-35
84	0x08a931b1	1.0183e-33
85	0x08ad2248	1.0420118e-33
86	0x88b0bbe5	-1.06367885e-33
87	0x88b09f41	-1.0630055e-33
88	0x88b02c83	-1.0603079e-33
89	0x08a32afa	9.820309e-34
90	0x08b140af	1.0668007e-33
91	0x08ac4615	1.036835e-33
92	0x888e1a3c	-8.552482e-34
93	0x08a33d6d	9.824647e-34
94	0x88aecd62	-1.0520529e-33
95	0x08a8a5d9	1.0150123e-33
96	0x08aba022	1.0329335e-33
97	0x88a65653	-1.0011056e-33
98	0x08af8abc	1.0565046e-33
99	0x089d3cd0	9.463391e-34
100	0x88a99561	-1.0206436e-33
101	0x08a94b50	1.0189023e-33
102	0x888d3e6c	-8.500804e-34
103	0x873c78e0	-1.417907e-34
104	0x08ae60e7	1.0495026e-33
105	0x08ae4f53	1.0490893e-33
106	0x08b2fbb4	1.077216e-33
107	0x88a0cdb7	-9.678013e-34
108	0x0899974c	9.243922e-34
109	0x88b0ae24	-1.0633555e-33
110	0x88986397	-9.171581e-34
111	0x88af1d0f	-1.0539261e-33
112	0x08af9a87	1.0568759e-33
113	0x88bbeb09	-1.130991e-33
114	0x88b20b9d	-1.0715716e-33
115	0x08a0804c	9.659812e-34
116	0x889c712c	-9.415515e-34
117	0x08a42f8a	9.881567e-34
118	0x8834db09	-5.4424254e-34
119	0x08aeee99	1.0528338e-33
120	0x08a88886	1.0143229e-33
121	0x88af8940	-1.0564697e-33
122	0x88a0624f	-9.652762e-34
123	0x08af41d9	1.054791e-33
124	0x88ae2797	-1.0481552e-33
125	0x08ac44f4	1.0368084e-33
126	0x88b2411b	-1.07282915e-33
127	0x07acda32	2.6007927e-34
128	0x88ab6613	-1.0315686e-33
129	0x88a56f3d	-9.956728e-34
130	0x88aa51cd	-1.0250734e-33
131	0x08ab631c	1.0314989e-33
132	0x88a9753f	-1.0198882e-33
133	0x88a2dbcf	-9.801697e-34
134	0x884fbfb9	-6.2517166e-34
135	0x075afd1b	1.6474878e-34
136	0x08aab33b	1.027364e-33
137	0x08a436aa	9.883242e-34
138	0x08b09aaf	1.0628981e-33
139	0x08aeb195	1.0513993e-33
140	0x88b167e2	-1.0677223e-33
141	0x08a88e24	1.0144549e-33
142	0x88af8f90	-1.0566181e-33
143	0x08233552	4.9113706e-34
144	0x88abfc72	-1.0351038e-33
145	0x88a26a13	-9.774958e-34
146	0x08a211f9	9.754246e-34
147	0x08a30f60	9.81382e-34
148	0x88a0bb7b	-9.673726e-34
149	0x88a97389	-1.019848e-33
150	0x881d2b1a	-4.7296135e-34
151	0x08acb8db	1.0395333e-33
152	0x88a37aea	-9.839103e-34
153	0x089dab9f	9.489442e-34
154	0x87efd480	-3.608562e-34
155	0x88a2ece7	-9.805716e-34
156	0x07d4cefe	3.2019874e-34
157	0x88a53411	-9.942817e-34
158	0x08b13c29	1.0666944e-33
159	0x88af690f	-1.05571285e-33
160	0x08a8849f	1.0142311e-33
161	0x089de102	9.501993e-34
162	0x08a3821e	9.840796e-34
163	0x04410240	2.2688074e-36
164	0x08aeabdc	1.0512648e-33
165	0x88a0d576	-9.679834e-34
166	0x08ad3313	1.0424066e-33
167	0x08ae5aea	1.0493618e-33
168	0x08adfb20	1.0471098e-33
169	0x88ae9323	-1.0506836e-33
170	0x08ad8d66	1.0445301e-33
171	0x88aeaa6a	-1.0512308e-33
172	0x08ad0cfe	1.0415113e-33
173	0x88a7e3e9	-1.0104528e-33
174	0x08ab5b98	1.0313222e-33
175	0x88a10ffe	-9.693595e-34
176	0x08ab5db9	1.0313722e-33
177	0x88a07d8c	-9.659166e-34
178	0x88ac69c1	-1.0376736e-33
179	0x8889fbc0	-8.304574e-34
180	0x08aec885	1.0519386e-33
181	0x08a52f4f	9.9416985e-34
182	0x88b1181b	-1.0658467e-33
183	0x08131389	4.4259167e-34
184	0x88a1e809	-9.744386e-34
185	0x08a4a26a	9.908574e-34
186	0x08ab9723	1.032722e-33
187	0x88a8bbec	-1.0155312e-33
188	0x88a98a5f	-1.0203848e-33
189	0x089e9f5d	9.546745e-34
190	0x08b045ad	1.0608995e-33
191	0x88b1fb40	-1.0711869e-33
192	0x08a82a4b	1.0121075e-33
193	0x88c19da8	-1.165283e-33
194	0x88aeb397	-1.0514465e-33
195	0x08b245ac	1.0729365e-33
196	0x88a71cbc	-1.0057702e-33
197	0x88b1ac55	-1.0693315e-33
198	0x0894f0c4	8.96403e-34
199	0x08b026af	1.0601709e-33
200	0x089a38c7	9.281886e-34
201	0x089d83d0	9.480083e-34
202	0x089c42f8	9.404653e-34
203	0x88a0b863	-9.672999e-34
204	0x88ac5c57	-1.0373582e-33
205	0x88a82015	-1.0118675e-33
206	0x08a0c1fc	9.675255e-34
207	0x08abb3ff	1.0334005e-33
208	0x08aaf315	1.0288651e-33
209	0x08a2ae43	9.790989e-34
210	0x88aa3608	-1.02442055e-33
211	0x08b0e594	1.0646588e-33
212	0x88a6f072	-1.004729e-33
213	0x08a03486	9.641998e-34
214	0x8713142f	-1.1064982e-34
215	0x888d5dca	-8.5081785e-34
216	0x08b0f799	1.0650825e-33
217	0x08b09952	1.062866e-33
218	0x0737afc7	1.3819046e-34
219	0x08b0081a	1.0594519e-33
220	0x08858516	8.035935e-34
221	0x889f72bb	-9.596437e-34
222	0x08af577e	1.0552999e-33
223	0x88aee4ef	-1.0526066e-33
224	0x08a8f3a8	1.01684155e-33
225	0x88addb20	-1.0463575e-33
226	0x87a4d11c	-2.479888e-34
227	0x8892977e	-8.822671e-34
228	0x08a791aa	1.0085192e-33
229	0x08a4c1c6	9.915947e-34
230	0x88807d10	-7.733122e-34
231	0x08af36fa	1.0545354e-33
232	0x88aa3b59	-1.0245455e-33
233	0x08ad58f1	1.0432969e-33
234	0x88aed9b6	-1.0523428e-33
235	0x08abdfc2	1.0344293e-33
236	0x08b1f57a	1.0710511e-33
237	0x88b06f6a	-1.0618808e-33
238	0x88b02b72	-1.0602829e-33
239	0x88ac040a	-1.0352823e-33
240	0x08af2989	1.0542194e-33
241	0x88a9c996	-1.021871e-33
242	0x08ad76a9	1.0439956e-33
243	0x88a56a27	-9.955533e-34
244	0x88c07153	-1.1582222e-33
245	0x88b05c14	-1.0614262e-33
246	0x08ae9e06	1.0509395e-33
247	0x0899f44a	9.265785e-34
248	0x87a35bd5	-2.4579488e-34
249	0x88a38f6c	-9.843924e-34
250	0x08aff2c8	1.0589507e-33
251	0x889d5e0d	-9.471205e-34
252	0x08b2346b	1.0725309e-33
253	0x889ed7d2	-9.560018e-34
254	0x886d72ac	-7.145439e-34
255	0x865b61df	-4.1261226e-35

layers.0.attn.0.gnn_q.bias f4 [16]
0	0x08b0b78f	1.0635769e-33
1	0x88aaa055	-1.0269197e-33
2	0x88aa4cb4	-1.0249536e-33
3	0x88adacd4	-1.045269e-33
4	0x88ae3c02	-1.0486352e-33
5	0x08ae8998	1.0504592e-33
6	0x08aeb7b8	1.0515436e-33
7	0x08a1ed4b	9.745622e-34
8	0x08a791cb	1.0085223e-33
9	0x88a5c5c1	-9.977068e-34
10	0x88a76abd	-1.0076041e-33
11	0x88aa5de8	-1.025358e-33
12	0x88adaf22	-1.0453232e-33
13	0x88a627ee	-1.0000149e-33
14	0x08a272ec	9.777038e-34
15	0x08a941f2	1.0186821e-33
