checkpoints/cyp1a2_veith_33_train1_pos/Aug31-03:01:15_400.pth (torch, 415238 bytes, 294 tensors)

layers.0.weight f4 [16, 16]
0	0xbe3f3e92	-0.18676212
1	0x3d6ec9b5	0.05829783
2	0xbd1f8cf0	-0.038952768
3	0x3e31ccd5	0.17363293
4	0xbf822fc8	-1.0170832
5	0x39a0a3ed	0.00030639712
6	0xbd5722bf	-0.05252337
7	0x3e9fecdc	0.31235397
8	0x3e3b091a	0.1826519
9	0xbf0ba3bf	-0.5454673
10	0x3f9ab6b3	1.2087005
11	0x3f82e744	1.0226827
12	0x3f39c9b0	0.72573376
13	0xbe874a68	-0.26423955
14	0x3f44ec7a	0.76923335
15	0xbe9b1821	-0.30291846
16	0x3eb2390c	0.34809148
17	0x3e45f3ea	0.19331327
18	0xbecd9744	-0.4015447
19	0xbe87322f	-0.26405475
20	0x3f687576	0.9080423
21	0xbacdad52	-0.0015691912
22	0xbee2c516	-0.4429099
23	0x3f2f9f02	0.68602
24	0xbeda5b1b	-0.42647633
25	0xbf970d40	-1.1800919
26	0x3c39ce36	0.011340668
27	0xbf6c0e27	-0.92209095
28	0x38ed13da	0.00011304738
29	0xc0036f58	-2.053671
30	0x3fd569c8	1.6672907
31	0xbfeb3713	-1.8376182
32	0x3d5717f3	0.052513074
33	0xbcdcc658	-0.026950046
34	0xbe31d158	-0.17365015
35	0xbcccf0ef	-0.02501723
36	0x3c75f002	0.015010836
37	0x3c2c344b	0.0105105145
38	0x3da16f3a	0.07882543
39	0xbe7a606c	-0.24450845
40	0xbd547f41	-0.05187917
41	0xbd54a068	-0.051910788
42	0x3eb216b6	0.34782952
43	0xbb15e8b1	-0.002287429
44	0x3e47b5bb	0.19502918
45	0xbe54f196	-0.20795283
46	0x3df7eca0	0.121056795
47	0x3d817865	0.063217916
48	0xbc300e75	-0.010745634
49	0xbcd7363a	-0.026270974
50	0xbdc83850	-0.09776366
51	0xbd9bf86f	-0.07615744
52	0xbaa5cdd0	-0.0012649838
53	0xbb697d35	-0.0035627608
54	0x3c99bdd9	0.018767284
55	0xbe863e08	-0.262192
56	0xbd5a196d	-0.053246904
57	0xbd7317a1	-0.059348706
58	0x3eac7c56	0.3368861
59	0x3ba40305	0.005005243
60	0x3e489943	0.19589715
61	0xbe46d4c0	-0.19417095
62	0x3df44537	0.11927264
63	0x3d2bc730	0.041938007
64	0x3a7b3a8d	0.0009583615
65	0x3cad362a	0.021143992
66	0xbd2ab2da	-0.041674472
67	0xbd55d4ab	-0.05220477
68	0x3c5f2f0f	0.0136220595
69	0x3b410c1a	0.0029456676
70	0x3d51012d	0.051026512
71	0xbe189eae	-0.14904281
72	0xbd72048a	-0.05908636
73	0xbd963ac7	-0.0733543
74	0x3ea0086b	0.31256422
75	0xbcba3bc6	-0.02273358
76	0x3e29f7c8	0.16598427
77	0xbe03bfcc	-0.12866133
78	0x3e009a61	0.12558891
79	0x3d77cb28	0.06049648
80	0x3da2c088	0.07946879
81	0xbcd163a3	-0.025560206
82	0x3d94f994	0.07274166
83	0xbbf61c16	-0.0075106723
84	0x3ddf77ed	0.10911546
85	0x3c160736	0.009156993
86	0x3d8cc858	0.0687415
87	0xbd7d4e4d	-0.06184225
88	0xbddecc71	-0.10878838
89	0xbe03eda9	-0.12883629
90	0x3f017a70	0.5057745
91	0xbdc74ef1	-0.09731854
92	0x3e9a7e5a	0.30174524
93	0x3e6a0888	0.22854817
94	0x3e34ee14	0.17668945
95	0x3e675b2d	0.22593375
96	0x3e5bf106	0.21478662
97	0xbd549a78	-0.051905125
98	0x3bbd7b5a	0.005782527
99	0xbdde93a6	-0.108680055
100	0xbf70d352	-0.9407245
101	0xbb9c1ae4	-0.004763948
102	0x3d626b23	0.055277955
103	0xbe9acc22	-0.30233866
104	0xbe67580d	-0.22592182
105	0xbfb905b1	-1.4454862
106	0xbfeb44c1	-1.8380357
107	0x3f6644e3	0.8994886
108	0xbf8c7d20	-1.0975685
109	0x3e7eac7b	0.24870484
110	0x3ffb53c3	1.9634937
111	0x3e8ddda3	0.27708158
112	0x3ecbb6cd	0.39787903
113	0x3da0ea5f	0.07857203
114	0xbe371976	-0.17880806
115	0xbe47e291	-0.19520022
116	0x3f006f56	0.50169885
117	0x3b1ae074	0.002363232
118	0xbe0b9018	-0.13629186
119	0xbe63af42	-0.22234824
120	0xbf22bb30	-0.63566875
121	0xbe19da67	-0.1502472
122	0xbfaeaf68	-1.364728
123	0xbefef3b3	-0.49795303
124	0xbf4d5411	-0.802064
125	0xbf58b5bb	-0.846523
126	0x3e3474fe	0.17622754
127	0xbf1a15d2	-0.60189545
128	0x3e936f87	0.28796026
129	0x3dab54aa	0.08365758
130	0xbe2223ee	-0.15834019
131	0xbd858f93	-0.06521525
132	0xbf1c8239	-0.61136204
133	0xbc364601	-0.011125089
134	0xbe36db98	-0.17857206
135	0x3e55b47f	0.20869635
136	0xbefdd906	-0.49579638
137	0xbfd20de6	-1.6410491
138	0x3ef9d99e	0.4879884
139	0x3f1d8175	0.6152566
140	0x3e8da514	0.27665007
141	0xbf616b0f	-0.88053983
142	0x40115894	2.2710314
143	0xbf42952b	-0.7600886
144	0x3da21927	0.07914954
145	0xbbc83db2	-0.0061108703
146	0x3cae306e	0.021263327
147	0xbcf36293	-0.02971009
148	0x3d88d212	0.06680693
149	0x3b77ceb7	0.003781242
150	0x3d14879a	0.036262132
151	0xbd8823fe	-0.0664749
152	0xbe12b8c4	-0.14328295
153	0xbe5063fb	-0.2035064
154	0x3f137d45	0.5761302
155	0xbd1b0458	-0.03784594
156	0x3eb46fe2	0.3524161
157	0x3ccad99e	0.024761971
158	0x3e90ba94	0.28267348
159	0x3d93b321	0.072119005
160	0xbd2390ae	-0.0399329
161	0xbcb85d9a	-0.02250557
162	0x3cefbb13	0.029264009
163	0xbd48ae1b	-0.048994165
164	0x3dd918a3	0.10600402
165	0x3c0d4b61	0.008623929
166	0x3c117f43	0.008880439
167	0x3d65ac90	0.05607277
168	0x3e166178	0.14685619
169	0xbdfe9eaf	-0.1243261
170	0x3e023253	0.1271451
171	0xbe115f88	-0.14196599
172	0x3d925735	0.0714554
173	0x3ddffc6a	0.10936816
174	0x3e1b8022	0.15185598
175	0x3db78425	0.089607514
176	0x3df56ff0	0.11984241
177	0xbe010b7b	-0.12602036
178	0x3e440594	0.19142753
179	0xbd917b70	-0.07103622
180	0x3f11df63	0.56981486
181	0x3ba9aa8c	0.0051778015
182	0x3e3e0384	0.18556029
183	0xbedd1be5	-0.43185344
184	0xbe8fb3a0	-0.2806673
185	0x3e94c8bb	0.29059395
186	0x3f4ff709	0.8123632
187	0xbf03b65f	-0.5145015
188	0x3efc517d	0.4928092
189	0x3f725a50	0.94669056
190	0xbedc6d47	-0.43052122
191	0x3f4d87cb	0.8028533
192	0xbbd92c81	-0.0066276197
193	0x3e8dba68	0.2768128
194	0xbeac872c	-0.33696878
195	0x3e3c64b2	0.18397787
196	0xbe363c4b	-0.17796437
197	0xbd393905	-0.045220394
198	0xbeb26673	-0.34843788
199	0x3f1387b9	0.5762897
200	0xbe8efae1	-0.2792578
201	0x3e8bd39a	0.27309877
202	0x3fd28087	1.6445473
203	0x3e14c3c5	0.14527805
204	0x3f77c0f7	0.96778816
205	0xbfee76aa	-1.8629963
206	0xbed993e7	-0.42495653
207	0xbfd76294	-1.6826959
208	0xbe3dcee4	-0.18535954
209	0x3db42feb	0.08798202
210	0xbd4fd72c	-0.050742313
211	0x3e8f12e9	0.27944115
212	0xbfc05920	-1.5027199
213	0xbc5d53fd	-0.013508794
214	0xbcd262a2	-0.025681797
215	0x3d00fed5	0.031493027
216	0x3db29086	0.08718972
217	0xbe153135	-0.14569552
218	0x3e8510e2	0.25989443
219	0x3fb97674	1.4489274
220	0x3e2e4f97	0.17022549
221	0xbe6ddc84	-0.23228651
222	0x3e3b3a6b	0.18284003
223	0xbe416241	-0.18885137
224	0xbeb9e141	-0.36304668
225	0x3e485a96	0.19565806
226	0xbe41c4f8	-0.18922794
227	0x3e8c62f4	0.27419245
228	0xbf4df9ff	-0.8045959
229	0xbc791256	-0.015202126
230	0xbe44bff6	-0.19213852
231	0x3ea436b6	0.3207299
232	0x3ef6d9a8	0.48212934
233	0x3f997bf4	1.1990952
234	0x3de3baa8	0.11119586
235	0x3f4d3965	0.801657
236	0x3da341c7	0.079715304
237	0xbf803805	-1.0017096
238	0xbfd335e9	-1.6500827
239	0xbf5e4e7e	-0.8683852
240	0x3d1ceadd	0.03830992
241	0x3ec9aacc	0.3938812
242	0xbf11c272	-0.56937325
243	0x3d8ae1d1	0.06781352
244	0xbd79ff56	-0.061034523
245	0xbd1fe406	-0.03903582
246	0xbf0d1881	-0.55115515
247	0x3f1f5009	0.622315
248	0xbdc123e3	-0.09430673
249	0x3f599de0	0.85006523
250	0xbfc1edcd	-1.5150696
251	0x3d039b4e	0.032130532
252	0xbf66da5d	-0.90176946
253	0xc0378bf4	-2.867917
254	0xbf90bcc9	-1.1307613
255	0xc01dc511	-2.465153

layers.0.bias f4 [16]
0	0xbe823299	-0.25429228
1	0x3c9943a3	0.01870901
2	0xbe20f332	-0.15717772
3	0xbe5438c8	-0.20724785
4	0x3e713eee	0.23559162
5	0xbf64b0da	-0.89332354
6	0x3ead6045	0.3386251
7	0x3eca029c	0.39455116
8	0xbe82bf55	-0.255366
9	0x3e439e85	0.19103439
10	0x3e823ea9	0.2543843
11	0x3ecc822f	0.39943072
12	0xbe742856	-0.23843512
13	0xbe4a3102	-0.19745257
14	0x3ebd3d48	0.36960816
15	0x3e794f2a	0.24346605

layers.1.weight f4 [16, 16]
0	0xbc9370f9	-0.017998205
1	0xbf3418c5	-0.70350295
2	0x3e913a4e	0.28364795
3	0x3e6f4961	0.23367836
4	0x3ec4ba0d	0.38423195
5	0xbe252a10	-0.16129327
6	0xbe0a02b2	-0.1347759
7	0x3e866318	0.26247478
8	0x3e08184f	0.13290523
9	0x3f28e800	0.65979004
10	0x3ec1dc54	0.3786341
11	0x3ec07de7	0.37596056
12	0xbe3ea07c	-0.18615907
13	0xbf6b30bd	-0.91871244
14	0x3f26e434	0.6519196
15	0xbed65934	-0.41864932
16	0xbf3730dd	-0.71558934
17	0x3eab8dee	0.3350672
18	0x3edb39b2	0.42817456
19	0x3f824723	1.0177959
20	0xbf02a59f	-0.5103397
21	0x3f50a879	0.8150707
22	0x3efd98e1	0.495307
23	0xbece77d5	-0.403258
24	0x3f24727c	0.6423719
25	0xbe2b8fcd	-0.16754074
26	0x3ec54c68	0.38534856
27	0xbdd36c66	-0.1032341
28	0xbeb41a20	-0.35176182
29	0x3ea45443	0.32095537
30	0xbe4f4451	-0.20240904
31	0x3f40918e	0.752221
32	0x3e569aba	0.20957461
33	0x3ea277b8	0.31731963
34	0xbf2d1eee	-0.6762532
35	0xbf66119c	-0.8987062
36	0x3d21acfa	0.039471604
37	0xbf2c2b44	-0.6725352
38	0xbdb420ce	-0.087953195
39	0x3db8f19a	0.09030457
40	0xbeb8495c	-0.3599347
41	0xbdc1ff5c	-0.09472534
42	0xbb51bd2f	-0.0032003631
43	0xbf3a3de1	-0.7275067
44	0x3ea498db	0.3214787
45	0xbe18ab8c	-0.1490919
46	0xbe146a66	-0.14493713
47	0xbf44696a	-0.7672335
48	0xbf444336	-0.76665056
49	0x3f73d565	0.9524749
50	0xbeb4de25	-0.35325733
51	0xbc881b42	-0.01661456
52	0xbebafa1f	-0.36518952
53	0x3e29f2fd	0.16596599
54	0x3f2760af	0.653819
55	0xbe388df5	-0.18022902
56	0xbe7d60b8	-0.24743927
57	0x3e952ba5	0.2913486
58	0x3d08cb50	0.03339702
59	0x3cd32b95	0.025777617
60	0x3e76eebc	0.24114507
61	0x3f52a75a	0.8228661
62	0xbf6da860	-0.92835045
63	0x3f069f93	0.5258724
64	0x3e4a307b	0.19745056
65	0xbf0d5a21	-0.5521565
66	0x3e8ba321	0.27272895
67	0x3d2dc3b2	0.042422958
68	0xbf0b6a54	-0.5445912
69	0x3e1e63e3	0.15467791
70	0x3d36e1b8	0.044648856
71	0xbdc4c683	-0.096081756
72	0xbe0c6456	-0.1371015
73	0xbef69c95	-0.48166338
74	0x3ee5b1b9	0.44862154
75	0xbf364c2d	-0.71209985
76	0x3e836445	0.25662437
77	0xbf537221	-0.8259602
78	0xbea89719	-0.32927778
79	0xbecdabee	-0.40170234
80	0xbd993202	-0.07480241
81	0x3eccf07b	0.40027222
82	0xbf33fcde	-0.7030772
83	0xbde257e1	-0.11051918
84	0xbe45df2d	-0.19323416
85	0xbf2492ab	-0.642863
86	0x3e6866f3	0.22695522
87	0x3dfec43a	0.12439771
88	0xbdc2fff4	-0.095214754
89	0xbe07cc9b	-0.13261645
90	0xbde2c718	-0.1107313
91	0xbed66f46	-0.4188177
92	0x3d28ab79	0.041179154
93	0xbe17ca20	-0.14823198
94	0x3e72c368	0.23707354
95	0xbec9c2fc	-0.39406574
96	0x3f96e833	1.1789612
97	0x3ca08967	0.019596769
98	0xbf45016e	-0.76955307
99	0xbfa8d885	-1.3191077
100	0x3efbe784	0.4920007
101	0xbf114383	-0.5674364
102	0xbf269a64	-0.6507933
103	0x3eec0795	0.46099535
104	0xbe03a8b7	-0.12857328
105	0xbf4aae97	-0.7917265
106	0xbf761239	-0.96121556
107	0xbd6d3b79	-0.057918046
108	0x3e509201	0.20368196
109	0x3f27764f	0.654149
110	0xbed2251a	-0.4104393
111	0xbf22608f	-0.63428587
112	0xbf749683	-0.9554216
113	0x3e05994e	0.13046762
114	0x3f195855	0.5990041
115	0x3e9e53bc	0.3092326
116	0x3c8c8a40	0.017155766
117	0xbe0f68e3	-0.14004855
118	0xbea7dec5	-0.32787147
119	0x3cdb32f1	0.02675769
120	0xbcf67fd1	-0.030090244
121	0x3c6a95c4	0.0143179335
122	0x3f0bbdf1	0.545867
123	0x3df16a4e	0.11787854
124	0x3e2dc5d0	0.1696999
125	0x3e3f77c3	0.18698029
126	0x3dc85f43	0.09783795
127	0x3f5a103a	0.8518101
128	0x3e3bef61	0.18353035
129	0x3f4ba7b1	0.7955275
130	0xbf515824	-0.81775117
131	0xbe197427	-0.14985715
132	0xbe38b2ff	-0.18037032
133	0xbc53b024	-0.012920413
134	0x3e69ad3a	0.22819987
135	0xbe9c3d05	-0.30515304
136	0x3cda2669	0.026629644
137	0xbe4a1169	-0.19733204
138	0xbf188600	-0.5957947
139	0xbee0fd23	-0.43943128
140	0xbdf84ee7	-0.121244244
141	0x3f30899e	0.6895999
142	0x3d1a8a69	0.037729654
143	0xbea92212	-0.33033806
144	0xbebbd9ff	-0.36689755
145	0x3ed63875	0.41839948
146	0xbe2b8a32	-0.16751936
147	0x3de71a74	0.112843424
148	0xbec9972c	-0.39373147
149	0xbeb45d15	-0.35227266
150	0xbcdf1da4	-0.027235813
151	0x3ce8c77a	0.02841543
152	0x3df9b2bf	0.12192296
153	0xbece9a40	-0.40352058
154	0x3e1d2b91	0.1534865
155	0xbfbbd149	-1.4673244
156	0x3eb5b316	0.35488194
157	0x3cddc7fd	0.0270729
158	0x3e629918	0.22128713
159	0xbddb2ac9	-0.1070152
160	0xbe80b101	-0.25135043
161	0x3f300585	0.6875842
162	0xbf53f5df	-0.82797045
163	0x3ddb47af	0.10707032
164	0xbd7d654d	-0.061864186
165	0xbdf504d2	-0.1196381
166	0xbd78c57f	-0.060735222
167	0x3e295a70	0.16538405
168	0x3e3fcbb0	0.18730044
169	0x3d592ee5	0.053023238
170	0xbe5fad44	-0.2184344
171	0xbeaaea7d	-0.33382025
172	0x3e4cdca6	0.20006046
173	0x3e206eb6	0.15667233
174	0x3e5c6d45	0.21526058
175	0xbe272fed	-0.16326876
176	0xbf1745a4	-0.5909064
177	0x3f304185	0.68849975
178	0xbeaaf67f	-0.33391187
179	0x3d736787	0.059424903
180	0xbd647225	-0.05577292
181	0x3cd1726a	0.025567252
182	0x3d409353	0.0470155
183	0x3e7f39b7	0.2492436
184	0xbeb49043	-0.35266313
185	0x3ec17e11	0.37791494
186	0xbdf3b57e	-0.11899851
187	0x3e356d0c	0.1771738
188	0x3ebd518e	0.36976284
189	0x3eb75d9c	0.35813606
190	0x3de3c0ca	0.11120756
191	0x3ecf722c	0.40516794
192	0x3ea34ebf	0.31896016
193	0xbdc29fc9	-0.09503133
194	0x3e85e321	0.26149848
195	0xbdaed7aa	-0.085372284
196	0x3c534074	0.012893785
197	0x3e1580f4	0.14599973
198	0xbc47b904	-0.012190107
199	0xbe859fa7	-0.26098368
200	0xbe36b8c8	-0.17843926
201	0xbe6a23dc	-0.22865242
202	0xbed585c9	-0.41703632
203	0x3e311303	0.17292409
204	0xbea013a9	-0.31265
205	0x3effb031	0.4993911
206	0xbd6c53eb	-0.057697218
207	0x3e4a19be	0.19736382
208	0x3f21c2c6	0.63187826
209	0xbe535a3f	-0.20639895
210	0xbde40645	-0.11134008
211	0x3e61c2b6	0.22046933
212	0x3df7008e	0.12060653
213	0x3f2fbb25	0.68644935
214	0x3dcd4727	0.10023337
215	0xbe33617e	-0.17517659
216	0x3f0f948d	0.56086046
217	0xbeddb0ab	-0.4329885
218	0xbf2db951	-0.67860895
219	0x3da6fcf5	0.081537165
220	0xbf0468c7	-0.5172238
221	0x3e0e8ed4	0.13921672
222	0x3d4b09b5	0.049569804
223	0x3d727534	0.059193805
224	0x3e1c09f5	0.15238173
225	0xbd65a797	-0.05606803
226	0xbecf1978	-0.4044912
227	0x3debb0e2	0.11508347
228	0xbe3ad2cd	-0.18244477
229	0xbe8dbf4f	-0.2768502
230	0x3eac9b01	0.3371201
231	0x3eb3b1e5	0.3509666
232	0x3e3a4d9b	0.18193667
233	0x3f9c1d87	1.2196511
234	0xbcec6986	-0.028858911
235	0x3e9afa19	0.30268934
236	0x3ea4a7a1	0.3215914
237	0xbecaf498	-0.39639735
238	0xbe829960	-0.2550764
239	0xbf16648b	-0.58747166
240	0x3ea55bcf	0.32296607
241	0x3ee8b5ce	0.45451206
242	0xbf7c10e5	-0.9846328
243	0x3f0fbb3c	0.5614507
244	0xbeb8362a	-0.35978824
245	0x3ea2f324	0.31826127
246	0x3e92512b	0.2857755
247	0x3cfd0225	0.030884812
248	0x3ef7b0fa	0.4837721
249	0x3d903df2	0.07043065
250	0xbea19339	-0.31557634
251	0xbeefe135	-0.46851507
252	0xbd9762a5	-0.07391862
253	0x3c6b27f8	0.014352791
254	0x3eab12f2	0.33412892
255	0xbf8c7583	-1.0973362

layers.1.bias f4 [16]
0	0xbdd804b8	-0.10547775
1	0x3dadebe4	0.08492258
2	0x3dff0018	0.1245119
3	0xbd9b5e14	-0.07586303
4	0xbe03b7cd	-0.12863083
5	0xbdd60af3	-0.10451307
6	0x3ee64e22	0.44981486
7	0xbe56b6f1	-0.20968224
8	0x3e80973f	0.25115392
9	0xbe9a47c5	-0.3013288
10	0xbd5020e9	-0.050812636
11	0xbe2d50a3	-0.16925292
12	0x3d439a45	0.047754545
13	0xbe00a2ed	-0.12562151
14	0x3de3ae20	0.11117196
15	0x3dac1f11	0.08404363

final.linears.0.weight f4 [96, 48]
0	0x3f4f099b	0.8087403
1	0xbf1ab044	-0.6042521
2	0xbd0b738b	-0.034045737
3	0xbde7a885	-0.113114394
4	0xbda52851	-0.0806433
5	0xbf2d1798	-0.67614126
6	0x3f7bcd92	0.9836055
7	0x3f2a9fa5	0.6664985
8	0x3afb170c	0.0019156649
9	0xbdd6e4b3	-0.1049284
10	0xbe62c1fc	-0.22144312
11	0x3f97aa4c	1.1848845
12	0x3fa2342d	1.2672173
13	0xbfa9af25	-1.3256575
14	0x4013a15d	2.3067238
15	0x3fa5369e	1.2907293
16	0x3d4dfa3a	0.050287463
17	0xbdcf050f	-0.10108387
18	0x3d857ff9	0.065185495
19	0x3d15f6c2	0.03661228
20	0x3d651a70	0.055933416
21	0x3e23d1a8	0.15997946
22	0xbca24224	-0.019806929
23	0xbc8ea13c	-0.017410867
24	0x3d09343f	0.03349709
25	0xbddd2a8a	-0.10799129
26	0xbcf41264	-0.029793926
27	0xbdeb0dac	-0.11477217
28	0x3e30b92c	0.17258137
29	0x3e08eb7b	0.13371079
30	0xbd81d2a8	-0.063390076
31	0xbdac66ae	-0.08418022
32	0x3dd39c01	0.1033249
33	0xbd8ec6a1	-0.06971479
34	0x3da8a007	0.08233648
35	0x3d7805fa	0.060552575
36	0x3cd5802f	0.0260621
37	0x3c228b65	0.00992093
38	0x3dcb7098	0.09933585
39	0x3d9678da	0.07347269
40	0x3c6354c5	0.013875191
41	0xbc78bfd9	-0.015182459
42	0xbd666bd9	-0.056255195
43	0x3d8843c1	0.06653548
44	0x3cedaeb7	0.029013975
45	0x3d6cc0cf	0.057801064
46	0x3c87317b	0.016503086
47	0x3dd3a280	0.10333729
48	0x3fd86f25	1.6908919
49	0xbe517c50	-0.20457578
50	0xbe8c0d47	-0.2735388
51	0xbee4bd17	-0.44675514
52	0xbec7abd6	-0.38998288
53	0xbf423ec9	-0.7587705
54	0xbdf99274	-0.12186137
55	0xbf001c84	-0.5004351
56	0xbf2266d2	-0.6343814
57	0xbf09a0c5	-0.5376094
58	0x3dab9815	0.08378617
59	0xbf5efeca	-0.8710753
60	0xbf88b16f	-1.0679148
61	0x3f204347	0.6260266
62	0x3f4bc34a	0.7959486
63	0xbcf225aa	-0.029558975
64	0xbdc40e43	-0.09573033
65	0x3dcd7619	0.10032291
66	0x3d92ae6d	0.07162175
67	0x3e18a4ce	0.14906618
68	0xbe0dcec4	-0.13848406
69	0xbe38193b	-0.17978375
70	0xbdf8c869	-0.121476
71	0x3e8507e2	0.25982577
72	0x3d2bdbc7	0.041957643
73	0x3db619e9	0.08891661
74	0x3d452029	0.048126373
75	0x3da69208	0.08133322
76	0x3e6fae9d	0.23406453
77	0xbd4d15fb	-0.05006979
78	0xbe3d2919	-0.18472709
79	0xbe52b1dd	-0.20575662
80	0x3e120675	0.14260276
81	0xbe4e4945	-0.20145138
82	0x3cbd4b77	0.023107274
83	0x3bd906f4	0.0066231433
84	0x3dd11bcb	0.10210379
85	0xbe220258	-0.15821207
86	0xbe20b0a7	-0.15692388
87	0x3e83b53e	0.25724214
88	0x3e2cbaac	0.16868085
89	0xbda74fb7	-0.08169501
90	0xbddacca3	-0.106835626
91	0x3e2170d3	0.15765695
92	0xbd8c69f8	-0.068561494
93	0xbe514087	-0.20434771
94	0x3ec5b7e5	0.38616863
95	0xbd066f50	-0.032821
96	0x3d5f8e93	0.05457933
97	0x3e7fb94d	0.2497303
98	0x3f7df46a	0.9920107
99	0xbf0e9dbb	-0.5570943
100	0xbf05eade	-0.52311504
101	0xbe41969b	-0.18905108
102	0x3d84713c	0.0646691
103	0xbdaa3b7c	-0.08312127
104	0xbdb2c215	-0.087284245
105	0xbee4c354	-0.44680274
106	0xbe5e6a30	-0.21720195
107	0xbcfada64	-0.030621715
108	0xbcf604d2	-0.030031595
109	0xbda8b099	-0.08236808
110	0xbd4915b1	-0.049092952
111	0xbd89362d	-0.06699786
112	0xbc916923	-0.017750328
113	0xbc66c2d9	-0.014084541
114	0xbe811318	-0.2520988
115	0xbe0fc78a	-0.14040962
116	0xbd0226f9	-0.03177545
117	0xbef0b5db	-0.47013745
118	0x3dd47bb9	0.10375161
119	0xbe45f6ec	-0.19332474
120	0x3ce9c22f	0.028534977
121	0x3d940cf4	0.07229033
122	0x3e112041	0.1417246
123	0x3d9c655c	0.0763652
124	0xbbca4dcc	-0.006173825
125	0xbe244cc3	-0.16044907
126	0x3dccf460	0.10007548
127	0x3e0ea323	0.13929419
128	0xbe0eec4d	-0.13957329
129	0x3d201633	0.03908367
130	0x3dce0005	0.100585975
131	0x3e17e0a9	0.14831795
132	0xbe821635	-0.25407568
133	0x3d8ef439	0.069801755
134	0x3c1674f3	0.009183156
135	0x3e23a189	0.1597959
136	0x3e66e891	0.22549655
137	0xbb259332	-0.0025264737
138	0x3bde117c	0.0067769866
139	0x3d87cb31	0.066305526
140	0x3ee29d37	0.4426057
141	0xbc4ecb10	-0.012621656
142	0xbdad6831	-0.084671386
143	0x3e514bd9	0.2043909
144	0xbeabd1ab	-0.335584
145	0xbe8b3aad	-0.27193204
146	0xbe85a567	-0.26102754
147	0x3ea10241	0.31447032
148	0x3e402868	0.18765414
149	0xbe92564c	-0.28581464
150	0xbd846ac9	-0.0646568
151	0x3dff9655	0.124798454
152	0x3e549fec	0.2076413
153	0xbe5c8521	-0.2153516
154	0xbd747b58	-0.059687942
155	0xbe7b5cbd	-0.24547096
156	0x3df2979b	0.11845323
157	0xbe787428	-0.2426306
158	0xbcca1679	-0.024668919
159	0x3e70e504	0.23524863
160	0x3bf7dbd2	0.0075640464
161	0xbc5f8063	-0.01364145
162	0xbd5cb74c	-0.053885743
163	0x3b187961	0.0023265707
164	0x3a883000	0.0010390282
165	0x3ca05250	0.0195705
166	0x3d2632d2	0.04057581
167	0x3b4f15d8	0.0031598713
168	0xbd04e674	-0.03244634
169	0x3c3aba4a	0.011396954
170	0x3c7ed6d4	0.015554149
171	0x3ce630f5	0.028099516
172	0x3cba30e6	0.022728395
173	0x3d9ed3f4	0.077552706
174	0xbdcd40d5	-0.10022131
175	0xbd06dbfb	-0.032924633
176	0x3ce6c9d1	0.028172405
177	0xbe169565	-0.14705427
178	0x3d804482	0.06263067
179	0x3d6a8723	0.057257783
180	0xbbefad59	-0.007314366
181	0xbd5e985a	-0.054344513
182	0xbc0ff9db	-0.0087875975
183	0x3dee2fdb	0.116302215
184	0x3e3b5ede	0.18297908
185	0xbdbef99d	-0.09324954
186	0xbd69b442	-0.057056673
187	0x3def32e3	0.11679628
188	0x3e4e33e8	0.20136988
189	0x3ddc8cf1	0.1076907
190	0xbcad1a61	-0.021130743
191	0x3e040ad3	0.12894754
192	0xbd8bfbe5	-0.068351544
193	0xbf230640	-0.6368141
194	0x3c97921b	0.018502286
195	0x3c10c79a	0.008836651
196	0xbdd5a402	-0.10431673
197	0x3f93a936	1.1536014
198	0x3e64e855	0.22354253
199	0x3e974935	0.2954804
200	0x3ef5a23a	0.47975332
201	0xbf119cec	-0.5688007
202	0x3fa338b5	1.2751681
203	0x3e8e8212	0.2783361
204	0x3c3c9dba	0.011512214
205	0xbeba0585	-0.36332336
206	0xbf3756fe	-0.71617115
207	0xbf383285	-0.71952087
208	0x3cec7da5	0.028868506
209	0x3c316d7a	0.010829324
210	0x3e6020a7	0.21887456
211	0x3e159c32	0.14610365
212	0x3bd4bfb3	0.006492579
213	0xbd654291	-0.055971686
214	0xbdb81894	-0.08989063
215	0x3dd98bcf	0.106223695
216	0xbd0e60d3	-0.034760308
217	0xbe31eefa	-0.17376319
218	0x3ce9e4c6	0.02855147
219	0xbe183da9	-0.14867271
220	0xbbacc344	-0.005272301
221	0x3e51e566	0.20497665
222	0x3d141196	0.036149584
223	0x3b18586e	0.0023246068
224	0xbc8b6517	-0.017015977
225	0x3bc6528f	0.006052322
226	0x3d183c4b	0.037166875
227	0x3da33216	0.079685375
228	0xbdb35c3e	-0.08757828
229	0xbe0d0966	-0.13773116
230	0x3dd30f9b	0.10305711
231	0xbdbe67d6	-0.09297149
232	0xbe34bcb9	-0.17650117
233	0xbd97dd28	-0.07415229
234	0xbcd43ea9	-0.025908785
235	0x3d8d8dfb	0.06911846
236	0xbdf12ad5	-0.11775748
237	0x3c8c3260	0.017113864
238	0x3d31c755	0.04340299
239	0x3d38f4e7	0.045155432
240	0xbf8ef8cc	-1.1169677
241	0xbf54bf1e	-0.8310412
242	0x3e92320f	0.28553817
243	0x3e674cd2	0.22587898
244	0x3e52aa32	0.20572737
245	0x3e19fa14	0.15036803
246	0xbed6d77a	-0.4196127
247	0x3f5d2623	0.86386317
248	0xbf45709b	-0.7712495
249	0x3db2f683	0.08738425
250	0xbcaf8258	-0.021424457
251	0xbd6d4687	-0.05792859
252	0xbf2874a0	-0.65802956
253	0x3e1e3bb9	0.1545247
254	0x3e164afc	0.14677042
255	0xbfbaef16	-1.4604213

final.linears.0.bias f4 [96]
0	0x3de9750e	0.113992795
1	0x3d111df4	0.035428956
2	0x3e93b418	0.28848338
3	0x3d89d0ce	0.067292795
4	0x3e1daef0	0.15398765
5	0xbe1add1d	-0.1512341
6	0x3e3dd204	0.18537146
7	0x3e7ee8c6	0.24893484
8	0xbe1a5268	-0.15070498
9	0x3e2267b0	0.15859866
10	0x3e529936	0.20566258
11	0xbe10e5d1	-0.14150168
12	0xbdbaed1b	-0.091272555
13	0x3c97c99f	0.018528758
14	0x3eb46358	0.35232043
15	0xbdc86ddf	-0.09786581
16	0xbc00c56d	-0.00785957
17	0xbdaf120d	-0.08548365
18	0xbe355b13	-0.17710523
19	0x3e896eb0	0.2684226
20	0x3e4d3d9f	0.20043038
21	0xbf0f9a39	-0.560947
22	0xbea0b4fe	-0.31388086
23	0x3d3ccd5a	0.046094276
24	0x3d8c8729	0.06861717
25	0xbf312396	-0.69194925
26	0x3e97979c	0.29607856
27	0x3dea1560	0.11429858
28	0x3e1344cc	0.14381713
29	0x3ea5abec	0.32357728
30	0x3ec7933d	0.3897952
31	0xbe902e1f	-0.28160188
32	0x3e871318	0.26381755
33	0x3e414e03	0.18877415
34	0x3dc09fd2	0.09405483
35	0x3f4230c2	0.7585565
36	0x3e41c202	0.18921664
37	0xbd46ee90	-0.048567355
38	0x3dde1146	0.108431384
39	0xbdec0e64	-0.11526182
40	0x39f28c02	0.0004626215
41	0x3ee0d6b1	0.43913797
42	0xbdb237ce	-0.0870205
43	0xbca1fd9f	-0.019774256
44	0x3e90da12	0.28291374
45	0x3ec1fbb1	0.37887338
46	0xbdb24bfa	-0.08705898
47	0xbe3bbdb5	-0.18334086
48	0x3e92b967	0.28657076
49	0xbe52a312	-0.20570019
50	0x3e2d9328	0.16950667
51	0xbd535c68	-0.051601797
52	0x3ca4a871	0.02009985
53	0x3dbebcb5	0.09313337
54	0x3e091b4a	0.13389316
55	0x3d51d35e	0.051226966
56	0xbe919013	-0.28430232
57	0x3e086883	0.13321118
58	0x3ecb00fa	0.39649183
59	0xbd4244ac	-0.04742877
60	0x3ed62df0	0.41831923
61	0x3e96a8a4	0.29425538
62	0x3eb7d511	0.35904744
63	0xbecd2097	-0.40063927
64	0x3e49d24c	0.19709128
65	0xbf0ee629	-0.55819947
66	0xbe8ac3f0	-0.27102613
67	0x3e2b9409	0.1675569
68	0xbdcdbe95	-0.10046116
69	0xbd77489d	-0.060371984
70	0x3dc42cb0	0.09578836
71	0xbeca7631	-0.39543298
72	0xbcfdca5e	-0.030980285
73	0xbdad59bd	-0.08464382
74	0xbdcd767e	-0.10032366
75	0xbc0297fa	-0.007970804
76	0xbc96d3f7	-0.01841162
77	0x3ef6ba13	0.48188838
78	0x3c68307c	0.014171716
79	0x3ea8dc89	0.32980755
80	0xbe2bc089	-0.16772665
81	0x3dcea53d	0.100901105
82	0x3e9fcae1	0.31209472
83	0x3e9f1406	0.31069964
84	0xbd34401f	-0.044006463
85	0x3ba1c6b7	0.0049370187
86	0xbe918420	-0.28421116
87	0x3e35c188	0.17749608
88	0xbeb2e376	-0.34939164
89	0x3dd14571	0.10218323
90	0xbda955bc	-0.08268306
91	0xbdd7c9aa	-0.10536511
92	0x3e42390e	0.18967077
93	0xbe2fdf0b	-0.17174928
94	0xbd38a616	-0.045080267
95	0x3e845842	0.25848585

final.linears.1.weight f4 [96, 96]
0	0xbec1d34c	-0.3785652
1	0xbeb2a6e9	-0.34892967
2	0xbeb095a1	-0.34489158
3	0xbdc9bed9	-0.098508544
4	0xbda41b0b	-0.080129705
5	0xbeb4a0ad	-0.35278836
6	0xbd394662	-0.045233138
7	0xbd0a99df	-0.03383815
8	0xbb8899d4	-0.0041687284
9	0x3ce2dd31	0.027693363
10	0xbea03ec5	-0.3129789
11	0xbe193592	-0.14961842
12	0xbec14499	-0.37747648
13	0xbe370ccb	-0.17875974
14	0xbd970a0f	-0.073749654
15	0xbe96ee6c	-0.29478776
16	0xbe06f3f0	-0.13178992
17	0xbd545ab6	-0.05184432
18	0x3ddc7bcc	0.107658
19	0xbe361697	-0.17782055
20	0xbea466ab	-0.3210958
21	0xbe31599e	-0.17319342
22	0x3daaf338	0.083471715
23	0xbeb61e74	-0.3557011
24	0xbea379eb	-0.31928954
25	0x3e0585e7	0.13039361
26	0xbe1c48b4	-0.15262109
27	0xbe81e66a	-0.25371104
28	0xbdfc7693	-0.12327304
29	0xbea55ec4	-0.32298863
30	0xbebd66e9	-0.36992577
31	0xbd464792	-0.0484081
32	0xbea4ea59	-0.32210043
33	0xbe490713	-0.19631605
34	0xbddd4fab	-0.10806211
35	0xbe65e4d7	-0.22450577
36	0xbe02642f	-0.1273353
37	0xbe5c6385	-0.21522339
38	0x3c6b6e6b	0.014369587
39	0x3c36aa9e	0.011149077
40	0xbea67e79	-0.32518366
41	0xbea9e759	-0.33184317
42	0xbe70a082	-0.23498729
43	0xbd95c20a	-0.07312401
44	0xbe62ed93	-0.2216094
45	0xbe8fb766	-0.2806961
46	0x3e5b055a	0.2138876
47	0xbd81eed1	-0.06344379
48	0xbdf022ef	-0.11725413
49	0xbd54e6c4	-0.051977888
50	0xbe8d2247	-0.27565214
51	0xbd0b0faa	-0.033950485
52	0xbd26220b	-0.04055981
53	0xbfc2e428	-1.5225878
54	0xbed232a8	-0.41054273
55	0xbe6293bf	-0.22126673
56	0xbd789dc0	-0.060697317
57	0xbe182d34	-0.14860994
58	0xbeae5f3c	-0.34057033
59	0xbb494634	-0.003071201
60	0xbe7aafea	-0.24481168
61	0xbe192636	-0.14955983
62	0xbe763ba2	-0.24046186
63	0xbc7fe0d3	-0.015617567
64	0xbdb9cca2	-0.09072234
65	0x3dd9e1bc	0.106387585
66	0xbdab9072	-0.0837716
67	0xbe577850	-0.2104199
68	0x3d99e496	0.075143024
69	0xbe38328b	-0.1798803
70	0xbe8cc98d	-0.2749752
71	0x3ba5c654	0.005059043
72	0x3d126055	0.0357364
73	0xbdbafa53	-0.09129777
74	0xbeb0a0bb	-0.34497628
75	0x3d92a763	0.07160833
76	0xbe1a509d	-0.15069814
77	0x3d3d4554	0.046208695
78	0xbe9e9c4b	-0.30978617
79	0xbd537a6a	-0.051630415
80	0x3d3a8fd7	0.045547333
81	0xbea2f819	-0.31829908
82	0xbdb2eb20	-0.08736253
83	0xbe2107bf	-0.15725611
84	0x3e24bed0	0.16088414
85	0xbc719769	-0.014745572
86	0xbea7cc9e	-0.32773298
87	0xbeae56ac	-0.340505
88	0xbe44ca62	-0.19217828
89	0xbd52bde6	-0.051450633
90	0xbe0e8954	-0.13919574
91	0xbddc09b4	-0.10744038
92	0xbdf0386c	-0.117295116
93	0xbeddecfc	-0.43344867
94	0xbd677019	-0.05650339
95	0x3ca18b49	0.019719737
96	0xbec389d4	-0.38191092
97	0xbe528d79	-0.2056178
98	0xbe494855	-0.19656499
99	0xbde57815	-0.112045445
100	0xbd231423	-0.039814126
101	0xbee0febf	-0.43944356
102	0xbe3f8587	-0.1870328
103	0xbd824bd5	-0.0636212
104	0x3e1af0e4	0.15130955
105	0xbd9153fe	-0.07096098
106	0xbea8d7a6	-0.32977027
107	0x3c30e718	0.010797285
108	0xbe9e93a9	-0.3097203
109	0xbd4ab6ae	-0.049490623
110	0x3c9a2124	0.01881463
111	0xbe8f04cc	-0.27933347
112	0xbd09306b	-0.03349344
113	0xbe8fa477	-0.28055164
114	0xbd6a7c8b	-0.05724768
115	0xbe289b74	-0.1646555
116	0xbe4d765c	-0.20064682
117	0xbe28ef91	-0.16497637
118	0x3dd34f37	0.103178434
119	0xbf85f066	-1.0463989
120	0xbea305e3	-0.3184043
121	0x3da9e036	0.08294718
122	0xbc57366a	-0.013135532
123	0xbe3a814d	-0.18213387
124	0xbe0512e8	-0.12995493
125	0xbed0e833	-0.40802154
126	0xbedf88fe	-0.43659204
127	0xbd1a9094	-0.037735537
128	0xbe9d7e42	-0.3076039
129	0xbd788158	-0.060670227
130	0xbd3df01b	-0.04637156
131	0xbe75d8f1	-0.24008538
132	0xbe31a583	-0.17348294
133	0xbda40e06	-0.08010487
134	0x3da3a13b	0.07989737
135	0xbcad2c83	-0.021139389
136	0xbe9cff74	-0.30663645
137	0xbeac417c	-0.3364371
138	0xbe7c6167	-0.24646531
139	0xbeb68250	-0.35646296
140	0xbe50f530	-0.20406032
141	0xbe7a1123	-0.244206
142	0x3e4a24e4	0.19740635
143	0xbe2836ee	-0.16427204
144	0xbd5699d5	-0.0523928
145	0x3d2855d4	0.041097477
146	0xbeb55994	-0.35419905
147	0xbd524097	-0.05133113
148	0xbd552390	-0.05203587
149	0xbeb6fef1	-0.3574138
150	0xbe886183	-0.26636896
151	0xbe8da7bb	-0.2766703
152	0xbd189e5f	-0.03726041
153	0xbe311326	-0.17292461
154	0xbea44595	-0.32084337
155	0x3c6c7769	0.0144327665
156	0xbe89eb67	-0.2693741
157	0xbde584a0	-0.11206937
158	0xbe09b75c	-0.13448852
159	0xbced5237	-0.028969867
160	0xbddd8701	-0.108167656
161	0x3d23b5ee	0.039968424
162	0xbd7674f3	-0.060170125
163	0xbe5ca7ad	-0.21548338
164	0xbcdb8404	-0.026796348
165	0xbe8b4b0c	-0.27205694
166	0xbea4b77d	-0.3217124
167	0x3ddc0b61	0.10744358
168	0xbd86e4a5	-0.06586579
169	0x3a411cc0	0.000736665
170	0xbe9423cc	-0.2893356
171	0xbd3aada0	-0.045575738
172	0xbdf5f0da	-0.120088294
173	0xbd192a9a	-0.037394144
174	0x3d56af05	0.052413005
175	0xbe843868	-0.25824285
176	0x3e246fc4	0.1605826
177	0xbddd5abb	-0.10808321
178	0xbd39d65a	-0.045370437
179	0xbe4a0664	-0.19729
180	0xbcb3adf3	-0.021933531
181	0xbe5cc1e6	-0.21558341
182	0xbe0ffdd2	-0.14061669
183	0xbea72b7f	-0.32650372
184	0xbc180ac2	-0.009279909
185	0xbcce460e	-0.025179889
186	0xbd08b0fa	-0.033371903
187	0xbd560548	-0.05225113
188	0xbe079d9e	-0.1324372
189	0xbe9755fc	-0.29557788
190	0x3d066e33	0.032819938
191	0x3c088be7	0.008334137
192	0xbd85b790	-0.065291524
193	0xbd1b42a3	-0.037905347
194	0xbb5d23da	-0.0033743293
195	0xbcfd491d	-0.030918652
196	0xbd2d9bce	-0.042384915
197	0x3d448946	0.047982477
198	0x3cec572f	0.028850166
199	0x3ce8aede	0.028403696
200	0xbd1e8044	-0.038696542
201	0x3d55044e	0.05200606
202	0x3c75050f	0.014954819
203	0x3d8918b9	0.066941686
204	0xbcb781e1	-0.022400798
205	0xbd70c309	-0.05877975
206	0x3c71f598	0.014768027
207	0xbc8154e5	-0.015787551
208	0xbcaa6ef2	-0.020804856
209	0x3e018a70	0.12650466
210	0xbbffd951	-0.0078078886
211	0xbdd51ef2	-0.10406293
212	0x3c4c101c	0.012455013
213	0x3e5f17db	0.21786444
214	0xbcf2437e	-0.029573198
215	0x3bdfda64	0.006831454
216	0xbd919cc5	-0.071099795
217	0x3e37c2fd	0.17945476
218	0x3c2d348f	0.010571613
219	0xbe1994f5	-0.14998229
220	0x3c8ff654	0.017573513
221	0x3d60e4fb	0.054905873
222	0xbdb5b500	-0.08872414
223	0xbe4997c0	-0.19686794
224	0xbba2fd6a	-0.004974057
225	0xbb2e3834	-0.0026583793
226	0x3e182296	0.14856943
227	0xbbadc920	-0.005303517
228	0x3da368da	0.07978983
229	0xbd95f56f	-0.07322203
230	0x3d39e4ce	0.04538422
231	0x3be8659b	0.0070921904
232	0x3bc88bf8	0.006120201
233	0xbd573e46	-0.052549623
234	0xbde17dc6	-0.110103175
235	0xbd99db92	-0.07512583
236	0xbd6d4e6e	-0.057936125
237	0xbcafbc30	-0.02145204
238	0xbe74c822	-0.2390447
239	0xbd31664d	-0.043310452
240	0xbd01de96	-0.031706415
241	0x3d2c587a	0.042076565
242	0x3b23c30d	0.0024988085
243	0xbd8dbb28	-0.06920463
244	0xbddc0ec8	-0.10745007
245	0xbd01d8d2	-0.031700917
246	0xbb929f02	-0.0044745216
247	0x3d996cc4	0.074914485
248	0x3e0718fb	0.13193123
249	0xbdf40968	-0.119158566
250	0xbd557a43	-0.05211855
251	0x3ea37a30	0.3192916
252	0xbd0d5ff8	-0.03451535
253	0xbd4625e8	-0.048375994
254	0xbcc49095	-0.023994723
255	0x3cf09dea	0.029372174

final.linears.1.bias f4 [96]
0	0xbe2113da	-0.15730229
1	0xbe02f4de	-0.12788722
2	0x3d871454	0.06595674
3	0xbdbaea70	-0.09126747
4	0xbe4ee1d1	-0.2020333
5	0xbed9d181	-0.4254265
6	0xbda5c9bb	-0.08095118
7	0xbd1dadd2	-0.038495846
8	0xbdba44f8	-0.09095186
9	0xbe32e5ca	-0.1747047
10	0x3d706804	0.058692947
11	0xbe8cba03	-0.27485666
12	0x3c2463c6	0.0100335535
13	0xbe254155	-0.16138203
14	0xbd1007a4	-0.035163537
15	0x3f340381	0.70317847
16	0xbe1f5f93	-0.15563802
17	0xbd47d5eb	-0.048787992
18	0xbe431fa1	-0.19055034
19	0xbe11b734	-0.14230043
20	0xbdc3fc8d	-0.095696546
21	0xbdacb41b	-0.0843279
22	0x3c53e1ef	0.012932285
23	0xbe515f43	-0.20446496
24	0xbe47d12a	-0.19513384
25	0x3cc46a83	0.02397657
26	0xbe49a33b	-0.19691174
27	0xbeab04e2	-0.33402163
28	0xbed4ba42	-0.41548353
29	0xbe87d4ce	-0.26529545
30	0xbd179c2b	-0.037014168
31	0xbf2b7f70	-0.6699133
32	0xbe36f726	-0.17867717
33	0xbe85b923	-0.2611781
34	0xbe42aa77	-0.1901034
35	0xbe9ea8f0	-0.30988264
36	0xbdf4aeae	-0.1194738
37	0xbe8dfb68	-0.2773087
38	0xbef1b9ea	-0.47212154
39	0x3d831f90	0.064025044
40	0x3c5211b1	0.012821601
41	0xbd35faeb	-0.044428747
42	0xbe2880ce	-0.16455385
43	0x3f10d9c1	0.56582266
44	0xbe081f70	-0.13293242
45	0xbe2f21ae	-0.17102692
46	0x3e3bff27	0.18359052
47	0xbdeb76a9	-0.11497242
48	0xbe700265	-0.23438413
49	0xbd471555	-0.04860433
50	0x3cf0d3c5	0.029397855
51	0x3d91724c	0.071018785
52	0xbe1dd326	-0.15412578
53	0xbc0046ce	-0.007829381
54	0xbd1115d7	-0.03542122
55	0xbe178ef5	-0.14800628
56	0xbd87273e	-0.06599282
57	0xbdaefcde	-0.08544324
58	0xbe0ae5a2	-0.1356416
59	0xbe484130	-0.19556117
60	0xbea697cb	-0.32537684
61	0xbdb5c2dd	-0.08875058
62	0xbe574658	-0.21022928
63	0xbe3e1b8f	-0.185652
64	0xbdf74ac7	-0.120748095
65	0xbe825e62	-0.25462633
66	0xbdff22c9	-0.124578066
67	0xbe389b14	-0.18027908
68	0xbd18635c	-0.03720413
69	0xbdd807f2	-0.105483904
70	0xbe8ab251	-0.2708917
71	0xbc38b5fe	-0.011273859
72	0x3e0fadb8	0.14031112
73	0xbe506faf	-0.20355104
74	0xbe2036b1	-0.15645863
75	0xbdca4e86	-0.098782584
76	0xbe5da67f	-0.21645544
77	0xbe740ebc	-0.23833746
78	0xbe6c583a	-0.23080531
79	0xbe0bc273	-0.13648395
80	0xbcfd00a1	-0.030884089
81	0x3ac606b6	0.0015108201
82	0xbdd713b2	-0.105018035
83	0x3d48b325	0.04899897
84	0xbe447f07	-0.19189082
85	0x3d477b40	0.048701525
86	0xbeb9ccb8	-0.36289
87	0xbd39e14a	-0.045380868
88	0xbc5735bd	-0.013135371
89	0xbf144589	-0.579186
90	0xbd9e9010	-0.077423215
91	0xbe231cb3	-0.15928917
92	0xbda2db28	-0.07951957
93	0xbd879906	-0.06620984
94	0xbe2a3a4d	-0.16623802
95	0x3cd74c63	0.026281541

final.linears.2.weight f4 [16, 96]
0	0xbea558f2	-0.32294422
1	0x3ee8a1be	0.454359
2	0xbe1f3b6c	-0.15550011
3	0xbe0035bf	-0.12520503
4	0xbd295253	-0.041338276
5	0x3b290e43	0.0025795854
6	0x3e7ea555	0.24867757
7	0xbe06d3ee	-0.13166782
8	0x3c9382f2	0.018006776
9	0xbe398a8d	-0.18119259
10	0x3e029838	0.1275338
11	0x3a50e8a0	0.0007969234
12	0xbdd45f1b	-0.103697024
13	0x3e61c1a6	0.22046527
14	0xbb9b8b4f	-0.0047468315
15	0xbb04b1ba	-0.0020247535
16	0xbda4fa30	-0.08055532
17	0x3e30ff70	0.17284942
18	0xbdf06af5	-0.117391504
19	0x3cb617e5	0.02222819
20	0x3d8fbd1b	0.07018491
21	0xbd3f7e2e	-0.046751194
22	0xbe6608d5	-0.22464307
23	0x3f04d340	0.5188484
24	0x3e42e129	0.19031204
25	0x3d97d4f9	0.07413668
26	0xbf3051ac	-0.6887462
27	0x3bf674e3	0.007521258
28	0xbda5e81e	-0.081009135
29	0xbc9c5d59	-0.01908748
30	0x3c53055f	0.012879699
31	0x3b8f9c7e	0.004382669
32	0xbee67884	-0.4501382
33	0x3e2ae14c	0.16687506
34	0xbe0b598e	-0.13608381
35	0x3f02dab3	0.5111496
36	0x3e533b38	0.20628059
37	0x3f064da6	0.5246223
38	0x3c93951d	0.018015439
39	0xbe5d8c9e	-0.21635672
40	0xbcbb27fc	-0.022846214
41	0x3dcc9c69	0.0999077
42	0xbf022c3d	-0.5084875
43	0x3c11e332	0.008904265
44	0xbee0f1ff	-0.43934628
45	0xbe7ec6f3	-0.2488058
46	0xbc46a8bc	-0.01212519
47	0xbdee7873	-0.116440676
48	0x3d8e1f84	0.06939605
49	0x3b6e9033	0.0036401867
50	0x3e1919a3	0.14951186
51	0xbd3b00b1	-0.045654956
52	0x3f1b9b75	0.60784084
53	0xbdd18071	-0.102295764
54	0xb8a5c5f8	-7.904688e-05
55	0xbef40a72	-0.4766422
56	0x3dd0d659	0.101971336
57	0x3d9cea49	0.07661874
58	0xbcdf15ce	-0.027232077
59	0x3c163b93	0.009169477
60	0xbea210a2	-0.31653315
61	0xbdbcf688	-0.092267096
62	0xbee0f5f7	-0.43937656
63	0x3d838e06	0.06423573
64	0x3df80df5	0.12112037
65	0xbe36e4e4	-0.17860752
66	0x3e68cf23	0.22735266
67	0xbe3f1e22	-0.18663839
68	0xbdc9b1bd	-0.09848354
69	0x3e29b366	0.16572341
70	0x3e6fb818	0.2341007
71	0x3d23aa5d	0.039957393
72	0xbbd96c47	-0.006635222
73	0xbd2400e2	-0.040039904
74	0x3cc74050	0.024322659
75	0x3e33560a	0.1751329
76	0x3ea12cf0	0.31479597
77	0x3e1ea99e	0.15494391
78	0xbc69a8e6	-0.01426146
79	0xbdd70447	-0.10498863
80	0xbe0ad796	-0.13558802
81	0xbc98ea95	-0.018666545
82	0x3e73c6f0	0.23806357
83	0x3c2291ad	0.009922427
84	0x3dd31da5	0.103083886
85	0x3de887d0	0.11354029
86	0x3ca968f4	0.020679928
87	0xbd2a4ac1	-0.041575197
88	0xbe3c5393	-0.18391256
89	0x3cd52fcb	0.026023766
90	0xbe5c80ff	-0.21533583
91	0x3e43aaeb	0.19108169
92	0x3e6e9b4f	0.23301433
93	0xbb329caa	-0.0027254024
94	0xbc8d3e99	-0.017241763
95	0x3e3db4ab	0.1852595
96	0x3ed80f50	0.42199183
97	0x3eb4acc3	0.35288057
98	0x3e0f7158	0.14008081
99	0x3e01bcef	0.12669729
100	0xbdcc383f	-0.099716656
101	0xbb81b6ae	-0.0039585447
102	0xbd97b645	-0.07407812
103	0x3c212255	0.009834846
104	0xbe64894a	-0.22317997
105	0x3dbc939a	0.0920784
106	0x3e1ab70f	0.15108894
107	0x3cc5ba39	0.02413665
108	0xbcb5195d	-0.02210682
109	0xbe9e17b7	-0.30877468
110	0x3e342554	0.17592365
111	0x399c4595	0.0002980648
112	0x3f0701c3	0.52737063
113	0x3d6855ee	0.056722574
114	0xbefbd409	-0.49185207
115	0x3dc2df95	0.09515301
116	0x3d9ac526	0.07557134
117	0xbe8c74c2	-0.2743283
118	0x3d87c1e8	0.066287816
119	0xbe1aa4f7	-0.15101992
120	0x3cf578d9	0.029964851
121	0xbd0c5ea7	-0.034269955
122	0xbdf57c2d	-0.11986575
123	0x3b9918de	0.004672154
124	0x3e3e9c7d	0.18614383
125	0xbb99aceb	-0.004689803
126	0x3c8434a4	0.016138382
127	0xbb3ae775	-0.0028519307
128	0xbd262caf	-0.040569957
129	0xbd274683	-0.04083873
130	0x3f38da8f	0.72208494
131	0x3e32e61c	0.17470592
132	0xbe409d09	-0.18809904
133	0xbea37fec	-0.31933534
134	0x3b41c465	0.0029566523
135	0xbe0a50af	-0.13507341
136	0x3b980f0f	0.004640467
137	0x3c2bb0c8	0.01047916
138	0x3e8d715b	0.27625546
139	0x3b800aef	0.0039075534
140	0xbd85159c	-0.06498262
141	0xbf15212e	-0.58253753
142	0xbaca1068	-0.0015416266
143	0xbdb6d532	-0.089273825
144	0x3e43ea20	0.1913228
145	0xbe2f3b54	-0.17112476
146	0xbe0b1cf2	-0.1358526
147	0x3e8a81ba	0.270521
148	0xbd1840d2	-0.037171192
149	0x3d37b921	0.044854287
150	0x3a4097f0	0.0007346859
151	0xbe7792b5	-0.24177058
152	0xbce5760b	-0.028010389
153	0x3db9652b	0.090524994
154	0xbe38331e	-0.1798825
155	0x3de26b8d	0.1105567
156	0xbc30994c	-0.010778736
157	0xbd2f36c0	-0.042776823
158	0xbedecaed	-0.43514195
159	0xbdcaf1bc	-0.099093884
160	0x3e955e8a	0.2917369
161	0x3e9e477e	0.3091392
162	0x3ec404ce	0.38284916
163	0xbcb50c3f	-0.022100566
164	0x3e7218be	0.23642251
165	0xbdf5dc2e	-0.120048866
166	0xbe26fb02	-0.1630669
167	0x3e5bc5c2	0.21462157
168	0xbb7e21a6	-0.003877738
169	0x3f031e3e	0.5121802
170	0x3d9ab96b	0.07554897
171	0xbd4aefd2	-0.049545117
172	0xbdbcfff7	-0.09228509
173	0xbe8968b4	-0.26837695
174	0xb956e210	-0.00020492845
175	0x3d600f4f	0.0547021
176	0xbe0bc631	-0.13649823
177	0x3c4738f7	0.012159578
178	0x3e3e8b49	0.1860782
179	0x3801f3f8	3.098321e-05
180	0xbf34b6f9	-0.70591694
181	0xbe7dcfc1	-0.24786283
182	0x3c9d8e0d	0.019232774
183	0x3cc442d5	0.02395765
184	0xbd6f956d	-0.058492113
185	0xbc9b0759	-0.018924402
186	0xbe1caefb	-0.15301125
187	0xbea693ba	-0.3253458
188	0x3e11928c	0.1421606
189	0xbace2686	-0.0015728034
190	0x3cf0fa94	0.02941636
191	0x3e172539	0.14760293
192	0xbd95ba7d	-0.073109604
193	0xbd59a2ba	-0.053133704
194	0xbd253b09	-0.040339503
195	0x3d9cc703	0.07655146
196	0x3ccc56d1	0.024943741
197	0x3e7d06f9	0.24709691
198	0x3dc5c377	0.096564226
199	0xbba68fb2	-0.005083048
200	0x3d91db1d	0.07121871
201	0xbdca96c4	-0.098920375
202	0xbda2a9e1	-0.07942558
203	0x3ca1c4f8	0.019747242
204	0xbd32340e	-0.043506674
205	0xbe9475a2	-0.28995997
206	0xbb5a1000	-0.0033273697
207	0xbf7dab35	-0.99089366
208	0xbe7c5c16	-0.24644503
209	0x3abb6274	0.0014296309
210	0x3de71324	0.11282948
211	0x3d406853	0.04697449
212	0x3d70b6ac	0.05876796
213	0xbc6b76b4	-0.014371563
214	0xbda34646	-0.07972388
215	0xbe512a1e	-0.20426223
216	0xbe4b0d71	-0.19829346
217	0xbed0ced0	-0.40782785
218	0xbeadc79c	-0.33941352
219	0x3e123146	0.14276609
220	0x3f29e222	0.66360676
221	0x3e201a0c	0.15634936
222	0x3db81d65	0.089899816
223	0x3f153928	0.5829034
224	0xbcd1e48d	-0.025621677
225	0x3d01fbaa	0.031734146
226	0xbeab095e	-0.33405584
227	0x3deb4560	0.114878416
228	0x3d717e70	0.05895847
229	0x3e9a0d7e	0.3008842
230	0x3f1627b9	0.5865436
231	0xbd698074	-0.057007268
232	0xbdca4ccf	-0.09877931
233	0xbd5c792b	-0.053826492
234	0x3e341b89	0.17588629
235	0xbe4b9d94	-0.1988433
236	0xbd837f58	-0.06420773
237	0xbe3e0ac9	-0.18558802
238	0x3f4e4374	0.80571675
239	0xbc9e5896	-0.01932935
240	0x3e804804	0.25054944
241	0x3b34c4a7	0.0027583034
242	0xbdb38251	-0.0876509
243	0xbda35cce	-0.079766855
244	0xbde78224	-0.11304119
245	0x3d2c099e	0.04200136
246	0x3dd33b38	0.103140295
247	0xbe288f6b	-0.1646096
248	0xbd39d6ba	-0.045370795
249	0x3d1c6f36	0.038191997
250	0x3c61d426	0.01378349
251	0x3d273084	0.040817752
252	0x3e81cab2	0.25349957
253	0x3d9a7a09	0.075428076
254	0x3bb59666	0.0055416105
255	0x3d978f96	0.07400434

final.linears.2.bias f4 [16]
0	0x3b5c4a47	0.0033613609
1	0xbc2af2e2	-0.010433884
2	0x3ed326f0	0.41240644
3	0xbf1b1aef	-0.6058797
4	0xbcc130e9	-0.023582892
5	0x3e0dea6e	0.13858959
6	0xbb0a212f	-0.0021076908
7	0x3d923c76	0.07140438
8	0xbceb2027	-0.028701855
9	0xbc1c143a	-0.009526307
10	0xbd54262f	-0.051794227
11	0x3c12e6b4	0.008966137
12	0xbbf3f9a2	-0.00744553
13	0xbcee4e1b	-0.029089978
14	0xbbfcbe88	-0.007713143
15	0xbcd2f509	-0.025751607

layers.0.attn.0.gnn_q.weight f4 [16, 16]
0	0xbc1ca1da	-0.009560073
1	0xba304080	-0.00067234784
2	0x3c25a420	0.010109931
3	0xbae48982	-0.0017436
4	0xb96d7d79	-0.00022648824
5	0xbc4ddb16	-0.012564441
6	0xb8090ace	-3.2673408e-05
7	0x384176d2	4.6125446e-05
8	0xb211f206	-8.495141e-09
9	0xbb11cf7b	-0.0022248912
10	0x370575e8	7.95487e-06
11	0xbacf2fc3	-0.0015807081
12	0xb65da408	-3.3027045e-06
13	0xbb2395cb	-0.002496111
14	0xbc876e1f	-0.016532002
15	0xadef0a11	-2.7175625e-11
16	0xbb9235fb	-0.0044620014
17	0x3b86c8d1	0.0041132946
18	0x3b4ddab4	0.0031410875
19	0x3b23b1b4	0.0024977745
20	0xb948ff22	-0.0001916853
21	0xbaac19ad	-0.001313021
22	0x375a83a4	1.30244625e-05
23	0x396d3897	0.00022623163
24	0x32476224	1.1605639e-08
25	0x3b8b8e55	0.0042589107
26	0xb6f3fb12	-7.2711928e-06
27	0xbac963ed	-0.0015364863
28	0x348ea49f	2.656934e-07
29	0xbb2584aa	-0.0025256076
30	0xbafd8905	-0.0019343203
31	0xae1827b6	-3.459607e-11
32	0x3d2b6d43	0.041852247
33	0xbe87b4f6	-0.2650525
34	0xbc9537da	-0.018215109
35	0xbe982e31	-0.2972274
36	0xbc11bf09	-0.008895644
37	0xbd143de6	-0.036191843
38	0x396e622b	0.00022734019
39	0x3b70e378	0.0036756676
40	0x32249347	9.579543e-09
41	0xbdbbdea3	-0.09173324
42	0xb8935df6	-7.027008e-05
43	0x3c99ef71	0.018790932
44	0x3786443d	1.600582e-05
45	0x3d560847	0.052253988
46	0xbc9580a3	-0.018249815
47	0x2de10577	2.5581965e-11
48	0xbd99aaa6	-0.07503252
49	0x3e482391	0.19544818
50	0x3d839e7d	0.064267136
51	0x3e672f8c	0.22576731
52	0x3b864c53	0.004098454
53	0xbd17f6b3	-0.037100505
54	0xb8b02277	-8.3987536e-05
55	0xbabc8d8c	-0.0014385446
56	0x320ae339	8.084322e-09
57	0x3d0cd19b	0.034379583
58	0x37aa1eac	2.0279862e-05
59	0xbc6c759f	-0.01443234
60	0xb6e34d37	-6.774116e-06
61	0xbd0688b2	-0.032845207
62	0xbda2d8d9	-0.07951517
63	0x2cc2ee56	5.5402722e-12
64	0xbd08e920	-0.03342545
65	0x3dd8baae	0.10582481
66	0x3cda3987	0.02663876
67	0x3dfce18c	0.12347707
68	0x3b073f93	0.0020637258
69	0xbc1db642	-0.009625973
70	0xb8181aa2	-3.6264428e-05
71	0xba5ab0d4	-0.00083423895
72	0x3082eea6	9.526573e-10
73	0x3cea97f7	0.028636916
74	0x374c894b	1.21913135e-05
75	0xbbc16280	-0.0059016347
76	0xb6325263	-2.6572022e-06
77	0xbca7f839	-0.020504104
78	0xbd0daaa4	-0.034586564
79	0xacc13afa	-5.4919376e-12
80	0x3cc1bcd5	0.023649612
81	0xbd2bacd9	-0.041912887
82	0xbcb50271	-0.02209589
83	0xbd4e1770	-0.05031532
84	0xba798dcd	-0.0009519726
85	0x3c9d1ed5	0.01917974
86	0x380e23cb	3.3888773e-05
87	0x39d163fc	0.0003993808
88	0x31967759	4.379143e-09
89	0xba1aa540	-0.0005899258
90	0xb7094caf	-8.183691e-06
91	0x3b83aede	0.0040186485
92	0x36616d1b	3.359112e-06
93	0x3bc36087	0.0059624347
94	0x3cf7a27d	0.030228848
95	0xad34a071	-1.02674405e-11
96	0xbb99fd4c	-0.004699385
97	0x3cdb696e	0.026783671
98	0x3ad07648	0.0015904391
99	0x3cda2714	0.026629962
100	0x3aa86528	0.001284753
101	0x3bebd662	0.0071971873
102	0xb81bcca1	-3.7145455e-05
103	0xba289994	-0.00064315763
104	0xad861c10	-1.5246499e-11
105	0x3c6d097b	0.014467592
106	0x37609362	1.3385756e-05
107	0xbb1b511b	-0.0023699466
108	0xb5f7dc70	-1.846709e-06
109	0xbbeeea89	-0.0072911424
110	0x3b9a1791	0.0047025164
111	0x2e2c3fb7	3.9164862e-11
112	0x3b045d73	0.0020197302
113	0xbc1e8ed0	-0.009677604
114	0xbae093e0	-0.0017133914
115	0xbc34f2d3	-0.011044222
116	0x39adb4c7	0.0003313182
117	0x3a212cf4	0.0006148361
118	0x359d44d8	1.1717448e-06
119	0x3706d920	8.037576e-06
120	0x31122ebc	2.1272362e-09
121	0xba84ab08	-0.0010121772
122	0xb5e033bc	-1.6704357e-06
123	0xbae95cd8	-0.0017804159
124	0xb556aa21	-7.996878e-07
125	0xb9f7d728	-0.00047271815
126	0x3ba43add	0.0050119
127	0xadc6fa71	-2.2621212e-11
128	0xbc55e504	-0.01305509
129	0x3cf8c949	0.030369418
130	0x3c0f1323	0.00873259
131	0x3cedc288	0.029023424
132	0x3b4c779c	0.0031199222
133	0x3b4b3933	0.0031009435
134	0xb884a3b7	-6.324745e-05
135	0xbab2fcb0	-0.0013655629
136	0xb1ee7fbf	-6.9412347e-09
137	0x3c9923e9	0.018693881
138	0x37cba15c	2.4274625e-05
139	0xbbc31d28	-0.0059544034
140	0xb651b63c	-3.1249501e-06
141	0xbc68fa24	-0.014219794
142	0xbb8d95ee	-0.0043208515
143	0x2c184e22	2.1643872e-12
144	0xbbce9212	-0.006304034
145	0x3cfc4dc3	0.030798798
146	0x3b908e1c	0.004411472
147	0x3d0aebfb	0.033916455
148	0xba13c301	-0.0005636663
149	0x3a9d48b6	0.0011999819
150	0x381ab6cf	3.6886715e-05
151	0x39f235fc	0.00046198058
152	0xb204d22e	-7.731201e-09
153	0x3bd38737	0.006455328
154	0xb74fba60	-1.2381555e-05
155	0xba45b49b	-0.0007541866
156	0x35d72abe	1.6031188e-06
157	0xbb4d3ba8	-0.0031316075
158	0x3a918320	0.00111017
159	0xad01b15f	-7.372185e-12
160	0x3c75efd5	0.015010794
161	0xbd09bc5f	-0.03362691
162	0xbc62ad04	-0.013835195
163	0xbd2505bb	-0.040288668
164	0x38c3b486	9.33195e-05
165	0x3c3ebb09	0.011641272
166	0xb793efc1	-1.763541e-05
167	0xb99846be	-0.00029044406
168	0xb2358922	-1.0566767e-08
169	0xbbc2b192	-0.005941578
170	0x3719fdd5	9.1786105e-06
171	0x3b23e9cf	0.0025011187
172	0xb50230ee	-4.8499976e-07
173	0x3bc9208d	0.0061379136
174	0x3cc00f7c	0.023444884
175	0xac0814e2	-1.9338355e-12
176	0x3b2b8b06	0.0026175394
177	0xbc0ce8a4	-0.008600388
178	0xbb515499	-0.0031941293
179	0xbc2d751f	-0.010587006
180	0x3b2cd68a	0.0026372992
181	0x3bab0c8e	0.0052200025
182	0xb8858491	-6.3666266e-05
183	0xbaa96f59	-0.0012926861
184	0xb206075a	-7.801498e-09
185	0x3b07ca3e	0.002071991
186	0x37cecf3f	2.465362e-05
187	0xbb0bbaba	-0.0021321015
188	0xb63632c6	-2.7149667e-06
189	0xbb164429	-0.002292881
190	0x3bed2709	0.0072373194
191	0x2e032eb9	2.982745e-11
192	0xbc7fd9c5	-0.015615885
193	0x3c8adad3	0.016950047
194	0x3c5d7234	0.013515998
195	0x3c8a62e7	0.016892863
196	0x3aa9511a	0.0012917847
197	0xbc48278b	-0.012216459
198	0xb849301c	-4.796694e-05
199	0xba217f70	-0.0006160652
200	0xb19406eb	-4.3081534e-09
201	0x3b027482	0.001990587
202	0x3776e11a	1.4715153e-05
203	0xbb7e6214	-0.0038815783
204	0xb679b74c	-3.7210584e-06
205	0xbba942a3	-0.0051654144
206	0xbc9680c6	-0.01837195
207	0xad6eb5a4	-1.3569066e-11
208	0xbc36f303	-0.011166337
209	0x3cb68669	0.022280889
210	0x3c32872e	0.010896487
211	0x3cccafa4	0.024986096
212	0xb9c015ca	-0.00036637328
213	0xbc43009b	-0.011902
214	0x38170ae8	3.6011363e-05
215	0x3986d9a9	0.0002572064
216	0x30b54741	1.3189735e-09
217	0xbb5919c2	-0.0033126925
218	0xb708a81f	-8.145375e-06
219	0xba342f95	-0.00068735454
220	0x3628efb0	2.5173467e-06
221	0x3a48183a	0.00076330046
222	0xbc6f168e	-0.01459278
223	0x2d8f6000	1.629985e-11
224	0x399e1fb8	0.0003015974
225	0x3c31a260	0.010841936
226	0xb9c6c9d9	-0.0003791589
227	0x3c4eaa15	0.012613793
228	0x396e09e4	0.00022701133
229	0x3b55c2b8	0.0032617282
230	0xb6eecd9f	-7.11689e-06
231	0xb983c2c8	-0.0002513139
232	0xb1fc8eb4	-7.3503887e-09
233	0x3ba4c7dc	0.005028708
234	0x36abf381	5.1245447e-06
235	0x39f52f5f	0.00046765336
236	0x358e4966	1.0601186e-06
237	0xba6fee50	-0.0009152638
238	0x3b13eadd	0.002257041
239	0x2dbc5e99	2.1415135e-11
240	0xbb888374	-0.004166061
241	0x3c89e1f3	0.016831374
242	0x3b5718d4	0.0032821195
243	0x3c8de55f	0.017321287
244	0x39024215	0.00012422384
245	0xb9802ce8	-0.0002444752
246	0xb7b4daec	-2.1559616e-05
247	0x388297ae	6.2271356e-05
248	0x322a27cb	9.90435e-09
249	0x3b822207	0.0039713415
250	0xb53a8cce	-6.94953e-07
251	0xbb054e64	-0.0020340914
252	0xb670211c	-3.578206e-06
253	0xbb75a6d6	-0.0037483475
254	0x38bb2846	8.9243564e-05
255	0x2ce9959c	6.6388683e-12

layers.0.attn.0.gnn_q.bias f4 [16]
0	0xbd0746c1	-0.03302646
1	0xbd4e30e8	-0.05033961
2	0x3cfa83ad	0.030580366
3	0xbd78c543	-0.060735
4	0x3a714c2c	0.0009204771
5	0xbd2619e2	-0.040552028
6	0xb8d9f98a	-0.000103938466
7	0xba4e0701	-0.000785932
8	0xb188d324	-3.982125e-09
9	0xbbebfbc9	-0.007201646
10	0x37ee9074	2.8439077e-05
11	0xbb9b12b8	-0.004732456
12	0xb7119b47	-8.678827e-06
13	0xbb65ccd7	-0.003506472
14	0xbd624d10	-0.055249274
15	0x2c4bacda	2.8943987e-12
