checkpoints/cyp1a2_veith_33_train1_pos/Aug31-03:01:15_200.pth (torch, 415238 bytes, 294 tensors)

layers.0.weight f4 [16, 16]
0	0xbe6b2cc1	-0.22966291
1	0x3e4f12cb	0.20222013
2	0xbbc8bf27	-0.0061263028
3	0x3eb29b8c	0.34884298
4	0xbf55023e	-0.83206546
5	0xba6d651e	-0.00090559
6	0xbd5bea21	-0.05369008
7	0x3e91e408	0.28494287
8	0x3e149804	0.14511114
9	0xbee37a65	-0.44429317
10	0x3f809896	1.0046566
11	0x3f4a364b	0.78989094
12	0x3efd4014	0.4946295
13	0xbe77305d	-0.24139543
14	0x3f277f3e	0.6542853
15	0xbeb460e3	-0.3523017
16	0x3eff67c2	0.49883848
17	0xbd5c6623	-0.053808343
18	0xbefe22f2	-0.49636036
19	0xbe8243c7	-0.25442335
20	0x3eff5456	0.4986903
21	0xbc8b7dc4	-0.017027743
22	0xbece39a1	-0.40278342
23	0x3f09067f	0.5352554
24	0xbf2b1d06	-0.6684116
25	0xbf6a0c14	-0.9142468
26	0xbe6d683e	-0.23184296
27	0xbf0795c6	-0.5296291
28	0xbe15da2e	-0.1463401
29	0xbff5a4d3	-1.9190925
30	0x3fb0a3a1	1.3799936
31	0xbfb73759	-1.4313766
32	0x3dc27876	0.09495632
33	0x3d34cde5	0.04414167
34	0xbe6dde0f	-0.2322924
35	0xbdc90684	-0.09815696
36	0xbd016f3a	-0.031600215
37	0x3c992cdc	0.018698148
38	0x3dc80a3b	0.09767576
39	0xbe5cf6e8	-0.21578562
40	0x3d252b08	0.04032424
41	0xbd9de1b6	-0.077090666
42	0x3ee9c136	0.4565522
43	0x3ce6ae6c	0.028159343
44	0x3e46e87f	0.19424628
45	0xbe96507e	-0.29358286
46	0x3e379a2d	0.17929907
47	0x3dfb4c8c	0.122704595
48	0x3d8a343e	0.06748246
49	0xbbc55f78	-0.0060233437
50	0xbe35b4d8	-0.17744768
51	0xbe5e3382	-0.21699336
52	0xbe1c3556	-0.15254721
53	0x3ba4578c	0.005015319
54	0x3ccbb68b	0.024867317
55	0xbe79b4ee	-0.24385425
56	0x3c58ea06	0.013239389
57	0xbd8bc474	-0.0682458
58	0x3ef27f7d	0.4736289
59	0x3da0a954	0.07844797
60	0x3e655b7c	0.2239818
61	0xbe8c20b6	-0.27368706
62	0x3e0cabca	0.13737407
63	0x3e0965c6	0.1341773
64	0x3d0464fe	0.032322876
65	0x3d80fb53	0.06297936
66	0xbd2a16d3	-0.041525673
67	0xbe300968	-0.17191088
68	0xbda693c2	-0.08133651
69	0xbba069be	-0.004895418
70	0x3d89cf70	0.06729019
71	0xbe1642ee	-0.14673969
72	0x3c6bdbe2	0.014395686
73	0xbdd9a89f	-0.10627865
74	0x3ec7f2b2	0.3905235
75	0x3cbd808e	0.023132589
76	0x3e3d9153	0.18512468
77	0xbe1b4440	-0.15162754
78	0x3e2afe97	0.16698681
79	0x3dc5945e	0.096474394
80	0x3d31f3af	0.043445285
81	0xbd92a63c	-0.07160613
82	0x3e6238a3	0.22091918
83	0xbda12143	-0.07867672
84	0x3e72bc93	0.23704748
85	0xbb8cdc26	-0.0042987047
86	0x3ddd7af5	0.10814468
87	0xbb7e1c98	-0.0038774367
88	0xbdd4ea45	-0.10396246
89	0xbdde5621	-0.108562715
90	0x3f7ea515	0.99470645
91	0xbe7b33c0	-0.2453146
92	0x3f07a159	0.5298057
93	0x3f0932f2	0.5359336
94	0x3e4611fa	0.19342795
95	0x3e951cc0	0.29123497
96	0x3e65b6fb	0.22433083
97	0xbe0cd1c1	-0.1375189
98	0xbd85ed99	-0.06539459
99	0x3d07832c	0.03308408
100	0xbf26fa4e	-0.65225685
101	0xbb4ea88e	-0.0031533572
102	0x3e049889	0.12948813
103	0xbe9daee5	-0.30797496
104	0xbda50a33	-0.08058586
105	0xbf99ce3f	-1.2016066
106	0xbfcbd512	-1.5924399
107	0x3f0ee1ba	0.5581318
108	0xbf4a7d81	-0.79097754
109	0xbce88fcd	-0.028388882
110	0x3fe8b1c6	1.8179252
111	0x3e8f6085	0.28003326
112	0x3eed28d3	0.4632021
113	0xbdff593b	-0.12468191
114	0xbe94a1fb	-0.2902983
115	0xbe86c561	-0.26322463
116	0x3ed89501	0.4230118
117	0xbc6d8c9d	-0.014498857
118	0xbe1876fd	-0.1488914
119	0xbbe2d289	-0.0069220704
120	0xbeefa311	-0.46804097
121	0xbdfd4c62	-0.123680845
122	0xbfa09fb6	-1.254874
123	0xbeca21a6	-0.39478797
124	0xbf1f80f7	-0.6230616
125	0xbf702d51	-0.9381915
126	0x3e297377	0.16547953
127	0xbf0753e7	-0.528624
128	0x3e5f42af	0.21802782
129	0xbc42cc5a	-0.0118895415
130	0xbe6da37c	-0.23206896
131	0x3e0aea2e	0.13565895
132	0xbf2081fe	-0.6269835
133	0xbb2c317c	-0.0026274612
134	0xbe2d2b63	-0.16911082
135	0x3e9927ee	0.29913276
136	0xbeb2aed6	-0.34899014
137	0xbfa29f74	-1.2704911
138	0x3e7105c4	0.23537356
139	0x3f107cbe	0.5644034
140	0x3dbd8d2c	0.09255442
141	0xbf507eab	-0.8144328
142	0x3ff56704	1.9172063
143	0xbf269956	-0.6507772
144	0x3c24e049	0.010063239
145	0xbb89df4a	-0.0042075263
146	0x3d4c2e20	0.049848676
147	0xbdd6dc1c	-0.10491201
148	0x3de0a89a	0.10969658
149	0x3bd8b821	0.0066137468
150	0x3d04696b	0.032327097
151	0xbd33d657	-0.043905582
152	0xbcd31a6e	-0.025769439
153	0xbe9f8286	-0.3115427
154	0x3f86bf2d	1.0527092
155	0xbdc183ec	-0.0944899
156	0x3f0bff76	0.5468668
157	0x3dc0fcd4	0.09423223
158	0x3ef621a5	0.48072544
159	0x3debf105	0.1152058
160	0xbe2b5515	-0.16731675
161	0x3d2cb6aa	0.04216639
162	0xbd617f5e	-0.055053107
163	0x3d1bbc76	0.038021527
164	0x3d8a47f1	0.06752003
165	0xbb56d2ba	-0.0032779411
166	0x3d209694	0.039206102
167	0xbd328045	-0.04357936
168	0x3e9df833	0.30853423
169	0xbc870c1f	-0.016485272
170	0xbe1f44d1	-0.15553595
171	0xbd75d043	-0.060013067
172	0xbdd94f4b	-0.10610827
173	0xbd94385c	-0.07237312
174	0x3d296e61	0.04136503
175	0x3d750eb8	0.05982849
176	0x3c876785	0.016528854
177	0xbded59a4	-0.11589363
178	0x3e80d87b	0.25165161
179	0xbe457eac	-0.19286603
180	0x3ede19c0	0.4337902
181	0x3c58df76	0.013236871
182	0x3e25eefd	0.16204448
183	0xbe8529e0	-0.2600851
184	0xbd763bb5	-0.060115535
185	0x3e99dc13	0.30050716
186	0x3f247a27	0.6424889
187	0xbecb4eb2	-0.39708477
188	0x3e9c8605	0.30571
189	0x3f607ff7	0.8769526
190	0xbede8276	-0.4345891
191	0x3f1749d5	0.59097034
192	0xbc85776a	-0.016292293
193	0x3e95e63a	0.2927721
194	0xbe97d90b	-0.29657778
195	0x3e8166e6	0.25273818
196	0xbdd15d85	-0.102229156
197	0xbc3ce34e	-0.011528803
198	0xbec31485	-0.38101593
199	0x3f2ebfce	0.6826142
200	0xbe676690	-0.22597718
201	0x3e8e92e9	0.2784646
202	0x3fafb5c4	1.3727345
203	0x3e09e239	0.13465203
204	0x3f2d285f	0.67639726
205	0xbfb7f80a	-1.437257
206	0xbedd2130	-0.43189383
207	0xbfa800f5	-1.3125292
208	0xbe0f2a00	-0.13980865
209	0x3e491a08	0.19638836
210	0x3b2b12c6	0.002610372
211	0x3ed7ef77	0.42174885
212	0xbf844e2d	-1.0336357
213	0x3ac7ed44	0.0015253206
214	0xbd5dd15f	-0.05415475
215	0x3e073646	0.13204297
216	0x3d9837c5	0.07432512
217	0xbe326ab6	-0.1742352
218	0x3ea0a4c3	0.31375703
219	0x3f793211	0.9734202
220	0x3e1f7fff	0.1557617
221	0xbd160110	-0.036622107
222	0x3e8919d9	0.26777533
223	0xbe16ef6f	-0.14739774
224	0xbeb7f1f7	-0.35926792
225	0x3edf1cfe	0.43576807
226	0xbe71a905	-0.23599632
227	0x3ee1788f	0.4403729
228	0xbf1b2c20	-0.60614204
229	0x3c70bc5b	0.014693345
230	0xbe86d028	-0.26330686
231	0x3efc6b37	0.49300548
232	0x3ea7a0b2	0.32739788
233	0x3f8399cc	1.028131
234	0x3e97ead8	0.2967136
235	0x3f22596b	0.6341769
236	0x3e2f8778	0.17141521
237	0xbf8d9c73	-1.106337
238	0xbfc2ba22	-1.5213053
239	0xbf6b949a	-0.92023623
240	0x3e838ba2	0.2569247
241	0x3e94b7d8	0.29046512
242	0xbf22c75f	-0.63585466
243	0x3d73ef06	0.059554122
244	0x3e3a64b4	0.18202478
245	0xbd23202b	-0.0398256
246	0xbef7e017	-0.48413154
247	0x3f2e732b	0.6814448
248	0xbec7999e	-0.38984388
249	0x3f15a8b6	0.5846056
250	0xbfa1ceb1	-1.2641202
251	0xbe37fb31	-0.17966916
252	0xbf2312c5	-0.63700515
253	0xc01eb989	-2.4800742
254	0xbf6c90a5	-0.9240821
255	0xbfde5479	-1.7369529

layers.0.bias f4 [16]
0	0xbe5e541b	-0.21711771
1	0xbcea9ffd	-0.028640741
2	0xbdea24b0	-0.11432779
3	0xbe3a6b71	-0.18205048
4	0x3e766771	0.24062897
5	0xbf5729e8	-0.8404832
6	0x3e81352a	0.25235873
7	0x3ed2124e	0.4102959
8	0xbe702afe	-0.234539
9	0x3e41b360	0.18916082
10	0x3e825d8f	0.25462005
11	0x3ee02a6b	0.43782362
12	0xbe34f336	-0.17670903
13	0xbe84e9d1	-0.25959638
14	0x3ec7b880	0.3900795
15	0x3e80fa54	0.25190985

layers.1.weight f4 [16, 16]
0	0x3e3c11f9	0.18366231
1	0xbf42d9a9	-0.76113373
2	0x3e8f7cec	0.28024995
3	0x3e83637d	0.2566184
4	0x3e9f851e	0.31156248
5	0xbda6f0e8	-0.08151418
6	0x3da87ad8	0.082265556
7	0x3e12989c	0.14316028
8	0x3e33c08b	0.17553918
9	0x3f3d3586	0.73909795
10	0x3e8a95d6	0.2706744
11	0x3ee30a58	0.4434383
12	0xbe86016b	-0.26172957
13	0xbf83727c	-1.0269313
14	0x3e63ea36	0.22257313
15	0xbef1d8f5	-0.47235838
16	0xbf0c77e4	-0.5487044
17	0x3f2e6597	0.68123764
18	0x3e5aa3de	0.21351573
19	0x3e72ec6a	0.23722997
20	0xbf24d7f7	-0.64392036
21	0x3ea1cdaa	0.31602222
22	0x3f1c9a6d	0.61173135
23	0xbf0e64e1	-0.5562268
24	0x3dd8c0d4	0.10583654
25	0xbe4e5b49	-0.2015201
26	0xbbfcce4b	-0.0077150217
27	0xbe5ad839	-0.21371545
28	0xbe5a172b	-0.212979
29	0x3f378de4	0.7170088
30	0xbef8f5ae	-0.4862494
31	0x3f22c654	0.63583875
32	0x3e1f808e	0.15576383
33	0x3ecf64ab	0.4050649
34	0xbf18dafb	-0.5970914
35	0xbf153ff0	-0.58300686
36	0xbe9cb6a5	-0.30608097
37	0xbf26dc8f	-0.65180296
38	0xbe22a994	-0.15885001
39	0xbcdb4d91	-0.026770385
40	0xbeaaaa48	-0.3333304
41	0xbe20b6ec	-0.15694779
42	0x3d76e8c4	0.060280576
43	0xbf401a9c	-0.750406
44	0x3df64de2	0.12026574
45	0xbe24f2c5	-0.16108234
46	0x3cbc5327	0.022988869
47	0xbf3340a0	-0.70020485
48	0xbf4b1bb8	-0.7933917
49	0x3f85a768	1.0441713
50	0xbeaf7fed	-0.34277287
51	0x3d0f24c0	0.034947157
52	0xbdd4ecc3	-0.10396721
53	0x3e0dd489	0.13850607
54	0x3f2327b5	0.63732463
55	0xbda36aa6	-0.07979326
56	0xbea95821	-0.3307505
57	0x3e8fb15b	0.28065
58	0x3c587549	0.013211557
59	0x3db45f0c	0.08807191
60	0x3e9ae506	0.30252856
61	0x3f76d950	0.9642534
62	0xbeedf9fe	-0.4647979
63	0x3f0eaa7f	0.55728906
64	0x3e5d3bff	0.21604918
65	0xbf0f708e	-0.5603112
66	0x3eb04a8b	0.34431872
67	0x3e9240c9	0.28565052
68	0xbf1a602f	-0.60303015
69	0x3d3d5693	0.04622514
70	0xbf1ff506	-0.6248325
71	0xbea6464c	-0.32475507
72	0xbc2840d5	-0.010269363
73	0xbf07536b	-0.5286166
74	0x3ec69596	0.38786
75	0xbf1c92ae	-0.61161315
76	0x3d876dc8	0.06612736
77	0xbf31d8fd	-0.6947172
78	0x3ec75f03	0.38939676
79	0xbed8ddf3	-0.42356834
80	0xbcc7f4dd	-0.024408752
81	0x3eddab44	0.43294728
82	0xbf38efbf	-0.72240824
83	0xbcd05db0	-0.025435299
84	0xbe8a5cbc	-0.27023876
85	0xbf13a2f0	-0.576705
86	0x3c8f94fa	0.017527092
87	0x3ddcf73c	0.10789344
88	0xbe245782	-0.16049007
89	0xbe1359a7	-0.14389668
90	0xbe00d589	-0.12581457
91	0xbed0f3ff	-0.40811154
92	0xbdd0d430	-0.101967216
93	0xbdf4cdbd	-0.11953304
94	0x3e51f47b	0.20503418
95	0xbecabc51	-0.395968
96	0x3f9036fb	1.1266779
97	0x3dd3b170	0.10336578
98	0xbf54e401	-0.83160406
99	0xbf488de9	-0.7834154
100	0x3f34595f	0.7044887
101	0xbec48ba2	-0.3838778
102	0xbf36f1b8	-0.71462584
103	0x3ef569a1	0.4793215
104	0x3d0a544d	0.0337718
105	0xbf5433a2	-0.82891285
106	0xbf6da788	-0.9283376
107	0xbdda4315	-0.10657326
108	0x3e531f86	0.20617494
109	0x3f34c219	0.7060867
110	0xbca4cbaa	-0.020116646
111	0xbf240cc7	-0.64081997
112	0xbf84c01a	-1.0371125
113	0x3e0f62e4	0.14002568
114	0x3f2627a1	0.6490422
115	0x3ea5ed61	0.32407668
116	0xbe64fa00	-0.22360992
117	0x3e1ed9c4	0.15512758
118	0x3c87e193	0.016587054
119	0xbe74e34a	-0.23914829
120	0xbdfb0a2e	-0.12257801
121	0x3d32bb43	0.043635618
122	0x3f047478	0.5174022
123	0x3dc8f58e	0.09812461
124	0x3ee60879	0.4492834
125	0x3e1d45c9	0.15358652
126	0xbccaf477	-0.024774773
127	0x3f5ab454	0.8543141
128	0x3e484254	0.19556552
129	0x3f6688fa	0.9005276
130	0xbf573875	-0.8407052
131	0xbea81a36	-0.32832497
132	0xbdbfd238	-0.09366268
133	0xbe72ae3b	-0.23699276
134	0x3de37077	0.11105435
135	0xbdba6405	-0.091011085
136	0x3d050420	0.032474637
137	0xbe4d8e79	-0.2007388
138	0xbf19fb7e	-0.6014937
139	0xbed5fde8	-0.41795278
140	0xbddb527e	-0.107090935
141	0x3f385b3b	0.72014207
142	0xbd2f2883	-0.042763244
143	0xbeb067ed	-0.3445429
144	0xbebf58cd	-0.37372437
145	0x3f1345dc	0.5752847
146	0xbe5f0435	-0.21778949
147	0x3db72074	0.08941737
148	0xbf593a2f	-0.84854406
149	0xbeac2da9	-0.33628586
150	0xbe5d83e5	-0.21632345
151	0xbe6aacd6	-0.22917494
152	0xbdb1d9e7	-0.0868414
153	0xbe636ca3	-0.2220941
154	0x3dd92f79	0.10604758
155	0xbf87ca0a	-1.0608532
156	0x3ec63448	0.38711762
157	0x3e6ae22e	0.22937843
158	0x3eda65cb	0.42655787
159	0xbd912a7a	-0.0708818
160	0xbe80b1a7	-0.25135538
161	0x3f38383b	0.719608
162	0xbf5c3d26	-0.86030805
163	0xbca6f35b	-0.020379713
164	0x3d246ed8	0.04014477
165	0xbde81e80	-0.113339424
166	0x3dcf5ae5	0.10124759
167	0x3e000f46	0.12505826
168	0x3e5017a5	0.2032152
169	0xbd08181f	-0.03322613
170	0xbe7fd545	-0.249837
171	0xbe9dd7e4	-0.30828774
172	0x3d7d309a	0.06181393
173	0x3e26baaa	0.16282144
174	0x3e195436	0.1497353
175	0xbe2d0f2c	-0.16900319
176	0xbf1715a5	-0.590174
177	0x3f0183e3	0.5059187
178	0xbe8be1be	-0.27320665
179	0x3d54b661	0.051931743
180	0xbd39c880	-0.045357227
181	0x3e27959d	0.16365667
182	0x3eb0b6ce	0.3451447
183	0x3dc33518	0.09531611
184	0xbee119a3	-0.43964872
185	0x3e83f1f2	0.25770527
186	0xbe10ac7b	-0.14128296
187	0x3e5979f7	0.21237932
188	0x3ed3cf8b	0.4136928
189	0x3ebd6f78	0.36999106
190	0xbe011792	-0.12606648
191	0x3f05136f	0.5198278
192	0x3ef2f0ac	0.47449243
193	0xbdbddf71	-0.09271134
194	0xbcc51812	-0.02405933
195	0xbe601326	-0.21882305
196	0x3bbe2bbc	0.0058035534
197	0x3d6f1a53	0.058374714
198	0xbcc04adf	-0.023473201
199	0xbdf55c07	-0.119804434
200	0xbddefad0	-0.108876824
201	0xbe8e8624	-0.27836716
202	0xbf11f7ae	-0.57018554
203	0x3d3c63f5	0.045993764
204	0xbe71a0af	-0.23596452
205	0x3f101beb	0.562926
206	0xbe316b13	-0.17326002
207	0xbc632db4	-0.013865877
208	0x3efb5b8a	0.49093276
209	0xbe194f7e	-0.1497173
210	0xbe0dcf59	-0.13848628
211	0x3dd28fa8	0.102813065
212	0x3e8175ba	0.2528513
213	0x3f3078b6	0.6893419
214	0x3e8c26a2	0.27373224
215	0xbdd51a95	-0.10405461
216	0x3f1ed553	0.62044257
217	0xbef3af90	-0.4759488
218	0xbf0f9ab9	-0.56095463
219	0x3ca63a7b	0.020291558
220	0xbf0f2e20	-0.55929756
221	0x3e3af80a	0.18258682
222	0xbd71355a	-0.05888877
223	0x3d545192	0.051835604
224	0x3e20e460	0.15712118
225	0xbe06d348	-0.13166535
226	0xbeb8ed0d	-0.36118355
227	0xbbb92ef8	-0.005651351
228	0xbc8f0c46	-0.017461907
229	0xbec06a27	-0.37580988
230	0x3eff9b94	0.49923384
231	0x3ecb8938	0.39753127
232	0x3e50fbe6	0.20408592
233	0x3f86d511	1.0533773
234	0xbd0c019b	-0.03418122
235	0x3e803b9f	0.25045487
236	0x3dfb233a	0.12262578
237	0xbeeb97d5	-0.46014276
238	0xbe5f878a	-0.21829048
239	0xbf17c461	-0.59284025
240	0x3eab99ae	0.33515686
241	0x3ef64d86	0.4810602
242	0xbf5dceba	-0.86643565
243	0x3e809de0	0.2512045
244	0xbdeeb2c4	-0.116551906
245	0x3e247469	0.16060032
246	0x3e21b003	0.157898
247	0x3d024fd1	0.0318144
248	0x3f10fde2	0.56637394
249	0xbc7228cc	-0.014780235
250	0xbeaa678d	-0.33282128
251	0xbf0bbf86	-0.54589117
252	0xbe87cfb9	-0.26525667
253	0x3e1d3647	0.15352736
254	0x3e421085	0.18951614
255	0xbf78c09b	-0.9716889

layers.1.bias f4 [16]
0	0xbe1b8584	-0.15187651
1	0x3df64ab1	0.12025965
2	0x3e12701c	0.14300579
3	0x3d9a89d9	0.075458236
4	0xbe6faa71	-0.23404862
5	0xbc31a16c	-0.010841709
6	0x3e9a9774	0.30193675
7	0x3cb992cc	0.022653006
8	0x3e83c793	0.257382
9	0xbeb35079	-0.35022333
10	0xbd40928c	-0.047014758
11	0xbe146eeb	-0.14495437
12	0x3e2f5b8b	0.17124765
13	0xbe3881cc	-0.18018264
14	0xbd1aa8c9	-0.037758622
15	0x3daa2f51	0.08309806

final.linears.0.weight f4 [96, 48]
0	0x3f556598	0.83358145
1	0xbf3dbaa2	-0.74112904
2	0xbd033f1b	-0.032042604
3	0xbe0b8280	-0.13624
4	0xbd8ad249	-0.0677839
5	0xbfa115bf	-1.2584761
6	0x3f5950b3	0.8488876
7	0x3f1cacf5	0.6120141
8	0x3e9aa643	0.30204973
9	0xbe26145c	-0.16218704
10	0xbd7f8359	-0.062381122
11	0x3f671e9f	0.902811
12	0x3f96a4dd	1.1769062
13	0xbf9467a5	-1.159413
14	0x3fe818ce	1.813257
15	0x3f8f3381	1.1187593
16	0x3d4a797f	0.049432274
17	0xbd624b50	-0.055247605
18	0xbb4909bd	-0.003067597
19	0x3d04ecd4	0.03245242
20	0x3cbcadd5	0.023032108
21	0x3e248626	0.16066799
22	0xbbf6db66	-0.0075334786
23	0xbd9fe045	-0.07806448
24	0x3b9f1165	0.0048543685
25	0xbd95f3ca	-0.0732189
26	0xbc933f23	-0.017974442
27	0xbda5e93d	-0.08101127
28	0x3e3ee9a7	0.18643819
29	0x3de2a40c	0.11066446
30	0xbda6f0c6	-0.08151393
31	0xbd3e12fc	-0.046404824
32	0x3dc491cb	0.0959812
33	0xbd98e957	-0.07466381
34	0x3cbecb49	0.023290293
35	0x3d161b2d	0.03664701
36	0x3db7150b	0.089395605
37	0xbd25805f	-0.040405627
38	0x3c02650f	0.007958665
39	0x3dadd3f4	0.084876925
40	0xbd1ad118	-0.037797064
41	0x3db58435	0.08863107
42	0xbd8dc2f7	-0.06921952
43	0x3c1125fa	0.008859152
44	0x3d98c764	0.07459906
45	0x3d9a22b0	0.07526147
46	0x3ded1e25	0.11578015
47	0x3d83fa20	0.06444192
48	0x3faf990f	1.3718585
49	0xbe2cbbad	-0.16868468
50	0xbe4f9a1a	-0.20273629
51	0xbee07330	-0.4383788
52	0xbee3a58c	-0.4446224
53	0xbf6c609d	-0.9233492
54	0xbea2e4f7	-0.3181531
55	0xbea822a1	-0.3283892
56	0xbf36b389	-0.713677
57	0xbf13332b	-0.5749995
58	0x3ee9d066	0.45666808
59	0xbf841a9a	-1.0320618
60	0xbf585850	-0.84509754
61	0x3f155f98	0.5834899
62	0x3f40c6cb	0.75303334
63	0xbde99091	-0.11404527
64	0xbe1c9410	-0.15290856
65	0x3e85194c	0.25995862
66	0x3d56ee77	0.05247351
67	0x3e2eb302	0.17060474
68	0xbdf3a290	-0.11896241
69	0xbe33ee4e	-0.17571375
70	0xbe0d425c	-0.13794845
71	0x3e8125c3	0.25224122
72	0x3d8ed44f	0.069740884
73	0x3d945f1a	0.07244702
74	0x3c34f804	0.01104546
75	0x3d46d4a1	0.048542622
76	0x3e5aa334	0.2135132
77	0xbdf18878	-0.117936075
78	0xbe4ddf93	-0.20104818
79	0xbe7fac93	-0.24968176
80	0x3dd0d8bb	0.10197588
81	0xbdf8415f	-0.121218435
82	0xbcc7a3b3	-0.02437005
83	0xbcab4a00	-0.02090931
84	0x3d848477	0.06470578
85	0xbe84a303	-0.25905618
86	0xbd010b57	-0.031504955
87	0x3e77c60d	0.24196644
88	0x3e00f4d7	0.12593399
89	0xbd84613c	-0.064638585
90	0xbde06668	-0.109570324
91	0x3c5cb661	0.013471217
92	0xbd913255	-0.07089678
93	0xbe160b4c	-0.14652747
94	0x3e1c5144	0.15265375
95	0xbdb78bda	-0.089622214
96	0x3e1a25ce	0.15053484
97	0x3e9da641	0.30790904
98	0x3f47a150	0.7798052
99	0xbf097ad7	-0.53703064
100	0xbf08671e	-0.53282344
101	0xbbf61e97	-0.007510971
102	0x3e0595d0	0.1304543
103	0xbb6c43e0	-0.00360512
104	0xbe832d68	-0.2562058
105	0xbec42fc1	-0.38317683
106	0xbe5dca1e	-0.21659133
107	0x3e1307f6	0.14358506
108	0xbd386f1e	-0.045027845
109	0xbdb87f7f	-0.09008693
110	0xbe5dd6f2	-0.21664026
111	0xbe0d3de5	-0.13793142
112	0xbd0b393e	-0.033990137
113	0xbcc3c2f0	-0.023896664
114	0xbe98144c	-0.29702985
115	0xbdfaf72f	-0.12254178
116	0xbd1326d9	-0.03592572
117	0xbed9fed5	-0.42577234
118	0x3e1c3e3d	0.15258117
119	0xbe0aadb5	-0.13542826
120	0xbd2e5375	-0.04256006
121	0x3d513732	0.05107803
122	0x3e431a47	0.19052993
123	0x3dbd0818	0.092300594
124	0x3ce96781	0.028491737
125	0xbe3ba89c	-0.18326038
126	0x3dee3159	0.11630506
127	0x3e408246	0.18799695
128	0xbe2a6c38	-0.16642845
129	0x3ca26fde	0.019828733
130	0x3dda182a	0.1064914
131	0x3e9945eb	0.29936156
132	0xbe82b6be	-0.25530046
133	0x3deb5081	0.11489964
134	0x3e0af5da	0.13570347
135	0x3e10a910	0.14126992
136	0x3e90109b	0.2813767
137	0x3d676828	0.056495816
138	0x3cb257bf	0.021770356
139	0x3d20fc20	0.039302945
140	0x3ed8f793	0.42376384
141	0xbcb7da1f	-0.022442875
142	0xbcc19453	-0.023630297
143	0x3e4b870c	0.19875735
144	0xbeaf8c86	-0.34286898
145	0xbf00460f	-0.501069
146	0xbe8dbcd5	-0.2768313
147	0x3f169c31	0.5883208
148	0xbe12bf51	-0.14330794
149	0xbed537e0	-0.41644192
150	0xbefdc68d	-0.49565545
151	0x3f0c16db	0.54722375
152	0x3e976e0b	0.29576144
153	0xbe8911ae	-0.267713
154	0xbdcaeb0f	-0.09908115
155	0xbe7d0a17	-0.2471088
156	0x3ec6ff15	0.38866487
157	0xbf0f90df	-0.5608043
158	0xbe4146a2	-0.188746
159	0x3e8ceb73	0.27523383
160	0x3d7ef730	0.062247455
161	0x3d448771	0.04798073
162	0x3d02dbfd	0.03194808
163	0x3db4da19	0.08830661
164	0x3dc177be	0.09446667
165	0x3c05d3ac	0.008168142
166	0xbd7339ec	-0.05938141
167	0xbd01419a	-0.031556703
168	0x3d300f0a	0.042983092
169	0x3c90749a	0.017633725
170	0x3d8c8615	0.068615116
171	0x3d140783	0.036139976
172	0x3d485de0	0.04891765
173	0x3e0e5c13	0.13902311
174	0xbe0cfe18	-0.13768804
175	0xbc34fdc5	-0.0110468315
176	0xbc934c56	-0.017980736
177	0xbe0118f5	-0.12607177
178	0x3d8b0f2a	0.06790002
179	0x3e37527a	0.17902556
180	0x3d1899c7	0.03725603
181	0x3e039525	0.12849863
182	0x3d918167	0.0710476
183	0x3dca7196	0.09884946
184	0x3e6f5241	0.23371221
185	0x3c8f2676	0.017474394
186	0xbdbe5bbc	-0.09294841
187	0x3deefcc0	0.11669302
188	0x3e2755a8	0.16341269
189	0x3d5ff834	0.054680064
190	0xbda33e7d	-0.07970903
191	0x3de5b52e	0.11216198
192	0xbb688930	-0.003548216
193	0xbf5a380b	-0.85241765
194	0x3b61dfb2	0.0034465608
195	0x3d3b7497	0.045765486
196	0xbdcef151	-0.10104621
197	0x3fa8b671	1.3180677
198	0x3e0fd472	0.14045885
199	0x3f1e7495	0.6189664
200	0x3ee801b5	0.45313802
201	0xbef02170	-0.4690051
202	0x3f8074fc	1.0035701
203	0x3f2564a3	0.64606684
204	0xb9dc5e78	-0.00042032055
205	0xbf3c24c1	-0.7349358
206	0xbec6fe70	-0.38865995
207	0xbf59309a	-0.84839785
208	0xbcc66110	-0.024216205
209	0xbd5925a2	-0.053014405
210	0x3e79cf51	0.24395491
211	0x3e456355	0.19276173
212	0xbd770f62	-0.060317405
213	0xbd8faf03	-0.07015803
214	0xbdb41315	-0.08792702
215	0xbbc5655d	-0.0060240463
216	0xbd2de399	-0.042453382
217	0xbe849044	-0.25891316
218	0x3d7277dd	0.05919634
219	0xbe21f2b9	-0.15815248
220	0xbd5eb489	-0.05437139
221	0x3e5b9db8	0.21446884
222	0x3d7b38b4	0.061333373
223	0x3d545a79	0.051844094
224	0xbdc2e812	-0.0951692
225	0x3d421967	0.047387507
226	0x3dbf9cec	0.09356102
227	0x3d0dcf68	0.034621626
228	0xbd988587	-0.07447343
229	0xbd6d68b1	-0.05796117
230	0x3d130e8a	0.035902537
231	0xbd27f0ae	-0.041001014
232	0xbe20cac9	-0.15702356
233	0xbc96b43f	-0.018396495
234	0x3d392dfc	0.04520987
235	0xbbfa7c90	-0.0076442435
236	0xbdaf4d1d	-0.0855963
237	0x3ac3ea97	0.0014947233
238	0x3cd6b84d	0.026210928
239	0xbc1aaf4c	-0.009441208
240	0xbf87e687	-1.0617226
241	0xbf0e9e96	-0.5571073
242	0x3e880af8	0.26570868
243	0x3e2ee876	0.17080864
244	0x3e0e44e2	0.13893464
245	0x3ebe859d	0.37211314
246	0xbed7804f	-0.4209008
247	0x3f4ff9d8	0.81240606
248	0xbf2cc69e	-0.67490566
249	0x3e74282e	0.23843452
250	0xbe7684df	-0.24074124
251	0xbeb7b3d8	-0.35879397
252	0xbf185ff4	-0.5952141
253	0x3eaf9ba9	0.34298447
254	0x3dfcb5b4	0.123393446
255	0xbfaefb98	-1.367053

final.linears.0.bias f4 [96]
0	0x3dfadf8f	0.12249672
1	0x3c086c64	0.008326624
2	0x3e5979cf	0.21237873
3	0x3dad468f	0.084607236
4	0x3e2c522e	0.16828224
5	0xbdf7c080	-0.12097263
6	0x3e1728b1	0.14761616
7	0x3e6122d8	0.21985948
8	0xbe06cb9e	-0.13163611
9	0x3e2bcf5a	0.16778317
10	0x3e558446	0.2085124
11	0xbe03b9fe	-0.12863919
12	0xbd369a57	-0.044580784
13	0x3c93cf78	0.018043265
14	0x3ea8cf29	0.3297055
15	0xbd906cf0	-0.07052028
16	0x3bb5816c	0.00553911
17	0x3d7bdde4	0.06149091
18	0xbdf0877a	-0.1174459
19	0x3e89c859	0.26910666
20	0x3e5880e1	0.21142913
21	0xbf06b678	-0.52622175
22	0xbe7cb3d8	-0.2467798
23	0x3d4e43c4	0.050357595
24	0x3db16da1	0.08663488
25	0xbf24bd1a	-0.64351046
26	0x3e8c787e	0.27435678
27	0x3e0b1232	0.1358116
28	0x3e3cbc1c	0.18431133
29	0x3ea38e32	0.31944424
30	0x3ec959b6	0.39326257
31	0xbe930df7	-0.28721592
32	0x3e9c505b	0.30530056
33	0x3e058116	0.13037524
34	0x3dba62bc	0.09100863
35	0x3f26b714	0.65123105
36	0x3e60fab1	0.21970631
37	0xbd4c818c	-0.049928233
38	0x3de81b53	0.11333337
39	0xbd8f0b03	-0.06984522
40	0x3d7e5e0b	0.062101405
41	0x3e975c47	0.2956259
42	0xbd77bcc3	-0.06048275
43	0x3cefbdea	0.029265363
44	0x3e9b04ae	0.30277008
45	0x3ed4c0ad	0.4155325
46	0xbdc36e9b	-0.09542581
47	0xbe1c2b42	-0.15250877
48	0x3e44f156	0.19232687
49	0xbe522ffa	-0.20526114
50	0x3e640f74	0.2227152
51	0xbc22b7b1	-0.009931491
52	0x3cfc7857	0.030819101
53	0x3e06e9d6	0.13175139
54	0x3e37d07e	0.17950627
55	0x3d6e5cfd	0.05819415
56	0xbe7c8b04	-0.24662405
57	0x3e176bc7	0.14787208
58	0x3ee913f0	0.45523024
59	0xbcb0905d	-0.021553213
60	0x3ecf1cda	0.404517
61	0x3e999e0e	0.300034
62	0x3ec389fd	0.38191214
63	0xbe9e8f94	-0.30968916
64	0x3e522570	0.20522094
65	0xbf0b475d	-0.54405767
66	0xbe6c09f7	-0.23050676
67	0x3e346bcc	0.17619246
68	0xbdd3f08b	-0.10348614
69	0xbcee04c8	-0.029055014
70	0x3dab6d37	0.083704405
71	0xbeb3ba1d	-0.3510293
72	0xb8f2cade	-0.00011577246
73	0xbe046d3f	-0.12932299
74	0xbdafa6da	-0.08576746
75	0xbabcfc93	-0.0014418535
76	0xbc9f641d	-0.019456917
77	0x3ef37b9c	0.47555244
78	0x3cd1698c	0.025563024
79	0x3eb09a06	0.3449251
80	0xbdf43d7a	-0.11925788
81	0x3e137f4e	0.14404032
82	0x3e92f929	0.2870572
83	0x3ea402e2	0.3203345
84	0xbd2549a7	-0.040353443
85	0x3aafbd57	0.0013407868
86	0xbe63b02b	-0.22235171
87	0x3e755b63	0.23960643
88	0xbeae3d49	-0.34031132
89	0x3de84007	0.11340337
90	0xbd73df4f	-0.059539136
91	0xbe0202a1	-0.12696315
92	0x3e434928	0.19070876
93	0xbe1af62b	-0.15132968
94	0xbb2c7106	-0.0026312484
95	0x3e5d2656	0.21596655

final.linears.1.weight f4 [96, 96]
0	0xbebf39ce	-0.3734879
1	0xbeb309ab	-0.34968314
2	0xbe9e87aa	-0.30962878
3	0xbe4223af	-0.18958925
4	0xbe18408c	-0.14868373
5	0xbec16020	-0.3776865
6	0x3d8cc528	0.06873542
7	0xbe525592	-0.20540455
8	0xbe0d8745	-0.13821132
9	0xbd6b07a2	-0.057380326
10	0xbe797f6d	-0.24365015
11	0xbe3ee206	-0.18640909
12	0xbec38d4c	-0.38193738
13	0xbe4a286f	-0.19741987
14	0xbe46f520	-0.19429445
15	0xbe81598f	-0.2526364
16	0xbe2a32db	-0.16620962
17	0xbe162d87	-0.14665805
18	0x3cf40ed9	0.029792236
19	0xbe7334c4	-0.23750597
20	0xbe9d47a4	-0.3071872
21	0xbe0f3061	-0.13983299
22	0xbc9fd85b	-0.019512346
23	0xbe8e50e6	-0.27796096
24	0xbe95c2dd	-0.2925023
25	0x3deb3821	0.11485315
26	0xbe09636a	-0.1341683
27	0xbea59b5e	-0.32345098
28	0xbe1ed6e4	-0.15511662
29	0xbe879e43	-0.26487932
30	0xbe8f618f	-0.2800412
31	0xbdfa4aff	-0.122213356
32	0xbe85bec1	-0.26122096
33	0xbdead36b	-0.11466106
34	0xbe016e33	-0.12639694
35	0xbe214a86	-0.15751085
36	0xbe4a80ff	-0.1977577
37	0xbe84c729	-0.25933197
38	0xbcb160a1	-0.021652522
39	0xbe24b48d	-0.160845
40	0xbea3d8f4	-0.3200146
41	0xbe946994	-0.289868
42	0xbed77e6e	-0.42088646
43	0xbe22fa06	-0.15915689
44	0xbe81964b	-0.25309977
45	0xbe9bc458	-0.30423236
46	0xbd953a59	-0.072865196
47	0xbde3609a	-0.1110241
48	0xbddf1626	-0.10892896
49	0xbdd34c66	-0.10317306
50	0xbe72f48a	-0.23726097
51	0xbe03f7bd	-0.12887473
52	0xbe0cb69a	-0.13741532
53	0xbfb50364	-1.414166
54	0xbec5e72a	-0.38652927
55	0xbcf49fb8	-0.029861316
56	0xbdd89669	-0.105755635
57	0xbe244419	-0.16041602
58	0xbe912bdc	-0.28353775
59	0xbbf5de8c	-0.0075033363
60	0xbe5728c4	-0.21011645
61	0xbd764439	-0.060123656
62	0xbe988d0a	-0.29795104
63	0xbd5852fe	-0.052813523
64	0xbe6b8f96	-0.23003992
65	0x3d6a7cb9	0.05724785
66	0xbe1e6767	-0.15469132
67	0xbe67dd96	-0.22643122
68	0x3c6937b1	0.014234469
69	0xbe88f3db	-0.26748547
70	0xbe6212a3	-0.22077422
71	0xbccf968e	-0.025340345
72	0xbd5410f2	-0.051773973
73	0xbded1505	-0.11576275
74	0xbed5d987	-0.41767523
75	0xbca394a4	-0.019968338
76	0xbe48b1f9	-0.19599141
77	0xbd8dc5df	-0.069225065
78	0xbebc61de	-0.36793417
79	0xbe292194	-0.16516715
80	0xbe2fa6dc	-0.17153496
81	0xbe8fb446	-0.28067225
82	0xbe862772	-0.2620197
83	0xbe96f995	-0.2948729
84	0x3cb10215	0.021607438
85	0xbdc6ebe3	-0.097129606
86	0xbeb36a16	-0.35041875
87	0xbe87e78d	-0.26543847
88	0xbe89813b	-0.26856408
89	0xbe358cbf	-0.17729472
90	0xbdfcf1bb	-0.12350794
91	0xbdb02fcc	-0.086028665
92	0xbe8f4ec1	-0.27989772
93	0xbebd3d18	-0.36960673
94	0xbda5d2be	-0.080968365
95	0xbdecf276	-0.11569683
96	0xbeb1ea8c	-0.34749258
97	0xbe7b5f05	-0.24547966
98	0xbe13b4a7	-0.14424382
99	0xbe0e0cc2	-0.13872054
100	0xbe32f044	-0.17474467
101	0xbef7016a	-0.48243266
102	0xbd8b5690	-0.0680362
103	0xbe478d92	-0.19487599
104	0xbdefc30d	-0.11707125
105	0xbde81e42	-0.11333896
106	0xbe877af8	-0.26461005
107	0xbdcd587d	-0.100266434
108	0xbeb03cf0	-0.34421492
109	0xbda75c62	-0.081719175
110	0xbdcaae14	-0.09896484
111	0xbe3a86ac	-0.18215436
112	0xbdb3b54b	-0.08774813
113	0xbe700662	-0.23439935
114	0xbe22575b	-0.15853636
115	0xbe5ea54c	-0.21742743
116	0xbe71bd3d	-0.23607345
117	0xbe0e6744	-0.1390658
118	0x3d062f27	0.03275981
119	0xbf503e6e	-0.8134526
120	0xbe9c195d	-0.304881
121	0xbd8ef018	-0.06979388
122	0x3d8e1401	0.06937409
123	0xbe274fe6	-0.16339073
124	0xbe59bb74	-0.21262914
125	0xbeb5ced0	-0.35509348
126	0xbec37171	-0.38172486
127	0xbe12ec87	-0.1434804
128	0xbe7a3967	-0.2443596
129	0xbe57819b	-0.21045534
130	0xbdb9a768	-0.09065133
131	0xbe2b1af2	-0.16709498
132	0xbe99069b	-0.29887852
133	0xbdcf0b22	-0.10109545
134	0x3ccf7632	0.025324915
135	0xbdc62de8	-0.09676725
136	0xbe9c5b43	-0.30538377
137	0xbe8edf46	-0.2790472
138	0xbe7d7416	-0.24751315
139	0xbeb4b6f5	-0.35295835
140	0xbe69e2eb	-0.22840469
141	0xbe5142d9	-0.20435657
142	0xbdc6a3e8	-0.096992314
143	0xbe77bd99	-0.2419342
144	0xbd3aa58b	-0.04556803
145	0xbd1a3476	-0.037647687
146	0xbeacf0d7	-0.33777496
147	0xbda53a43	-0.08067753
148	0xbdb712b6	-0.08939116
149	0xbec6634c	-0.38747633
150	0xbe5b2a09	-0.21402754
151	0xbe13d528	-0.14436781
152	0xbe07ef36	-0.13274845
153	0xbe0e6150	-0.1390431
154	0xbe81d655	-0.25358835
155	0xbcc6b3fc	-0.024255745
156	0xbe683b4a	-0.22678867
157	0xbe017245	-0.12641247
158	0xbe390d8b	-0.18071572
159	0xbe9f17a0	-0.31072712
160	0xbe4acb4f	-0.19804119
161	0xbb29d2bc	-0.002591296
162	0xbe050da9	-0.12993492
163	0xbe92c14f	-0.28663108
164	0xbcd46724	-0.025928088
165	0xbe86e90b	-0.26349673
166	0xbe9869a5	-0.297681
167	0x3daf1dce	0.08550607
168	0xbe48f4de	-0.1962466
169	0x3d7a484d	0.061104108
170	0xbe8ed8e5	-0.27899852
171	0xbdda3bc5	-0.106559314
172	0xbdbfb2a8	-0.09360248
173	0xbe0d4c00	-0.13798523
174	0xbddfafe9	-0.10922224
175	0xbeba47f3	-0.36383018
176	0x3d64e0c5	0.05587842
177	0xbe3008f1	-0.17190911
178	0xbdcf6ebb	-0.10128542
179	0xbe61ffcf	-0.2207024
180	0xbdb6e571	-0.08930481
181	0xbebb0ac1	-0.36531642
182	0xbe0f2a9f	-0.13981102
183	0xbe7c73d1	-0.24653555
184	0xbd3c9296	-0.046038233
185	0xbe170a76	-0.14750084
186	0xbcedd23f	-0.029030917
187	0xbd470b57	-0.0485948
188	0xbe3e4a0e	-0.18582937
189	0xbe9a369c	-0.3011979
190	0xbcaf6ea6	-0.021415066
191	0xbd76ce5d	-0.060255397
192	0xbd9c1d85	-0.07622818
193	0xbce42f1d	-0.027854497
194	0xbbea5b3b	-0.007151989
195	0xbd418056	-0.04724153
196	0x3c8302d0	0.015992552
197	0x3ddf78cf	0.10911714
198	0x3d8ae2b4	0.067815214
199	0x3de42c74	0.11141291
200	0xbd08327c	-0.03325127
201	0x3dde11da	0.10843249
202	0x3dc97e60	0.09838557
203	0x3dd77f3c	0.10522315
204	0x3ca46c73	0.020071244
205	0xbdc74a38	-0.09730953
206	0xbd67b159	-0.056565616
207	0xbddebfda	-0.108764365
208	0xbd4df1a0	-0.05027926
209	0x3d9db302	0.07700159
210	0x3b4bc8ec	0.00310951
211	0xbe468fbf	-0.19390772
212	0xbc883fd3	-0.016631996
213	0x3e8f8f1c	0.2803887
214	0x3d5d2650	0.053991616
215	0xbd2d298a	-0.042275943
216	0xbdb6b213	-0.08920684
217	0x3e56af4a	0.20965305
218	0xbd6908a9	-0.056893025
219	0xbdc684f2	-0.09693326
220	0xbd1b36b5	-0.03789397
221	0x3e51256a	0.20424429
222	0xbe50bebf	-0.20385264
223	0xbe240fa8	-0.16021597
224	0xbd16836b	-0.036746424
225	0x3d7a3826	0.061088704
226	0x3e5cd877	0.2156695
227	0xbc167f55	-0.009185632
228	0x3dbd7dc4	0.092525035
229	0xbd651bb2	-0.055934615
230	0xbc0d5264	-0.0086256005
231	0x3d32c7c5	0.043647546
232	0xbc7250fb	-0.014789815
233	0xbc8b1c35	-0.016981224
234	0xbe180942	-0.14847282
235	0xbde2c5fb	-0.11072918
236	0xbd560004	-0.05224611
237	0xbcb7a01a	-0.02241521
238	0xbda890e6	-0.08230762
239	0xbd4438c3	-0.047905695
240	0x3bb750a8	0.005594332
241	0x3d4cd55a	0.050008155
242	0x3cbd8ba0	0.023137867
243	0xbe0886a8	-0.13332617
244	0xbd8378d4	-0.064195305
245	0xbc8da59d	-0.017290885
246	0x3ce27c37	0.02764712
247	0x3e01eec8	0.12688744
248	0x3da5411c	0.08069059
249	0xbd45881f	-0.04822552
250	0xbc989f6b	-0.018630704
251	0x3ea1bde4	0.31590188
252	0xbd895fe6	-0.06707744
253	0xbd48702e	-0.048935108
254	0x3d070336	0.032962047
255	0x3b5fa2a3	0.0034124039

final.linears.1.bias f4 [96]
0	0xbe121f3b	-0.14269726
1	0xbda3780f	-0.07981884
2	0x3d8f6800	0.07002258
3	0xbdc89c69	-0.09795458
4	0xbe5c1dfa	-0.2149581
5	0xbec445a1	-0.38334373
6	0xbd9135b5	-0.07090322
7	0xbbeb2581	-0.0071761017
8	0xbdd61d8f	-0.104548566
9	0xbe150891	-0.14554049
10	0x3d0ca0c8	0.03433302
11	0xbe37110d	-0.17877598
12	0xbbfd2570	-0.00772541
13	0xbde81322	-0.11331774
14	0xbd8e3a4e	-0.069447145
15	0x3f2e09cf	0.67983717
16	0xbdff05c6	-0.12452273
17	0xbd3d3ff7	-0.04620358
18	0xbe1bf66d	-0.15230723
19	0xbe085f29	-0.1331755
20	0xbdc02340	-0.093817234
21	0xbd69d8c0	-0.057091475
22	0xbcda374e	-0.0266377
23	0xbe1f8a0d	-0.15580006
24	0xbe2c145e	-0.16804644
25	0x3d7fb67f	0.0624299
26	0xbe27168a	-0.16317192
27	0xbea47d9e	-0.32127088
28	0xbec7c8dc	-0.3902043
29	0xbdd88379	-0.105719514
30	0xbd570ec4	-0.052504316
31	0xbf17f713	-0.5936138
32	0xbe41a13f	-0.18909167
33	0xbe8d4fe6	-0.2760002
34	0xbe2a60a2	-0.16638425
35	0xbe976b9a	-0.2957428
36	0xbddecdc9	-0.10879094
37	0xbe81b64c	-0.25334394
38	0xbec353a3	-0.38149747
39	0x3d85cd45	0.06533293
40	0x3b628004	0.0034561167
41	0xbc6077e2	-0.013700457
42	0xbe12f261	-0.14350273
43	0x3f0768d1	0.5289431
44	0xbe184e7e	-0.14873692
45	0xbdeb368f	-0.114850156
46	0x3e42b61a	0.19014779
47	0xbe00e01c	-0.12585491
48	0xbe60715a	-0.2191824
49	0xbd6e07cc	-0.058112904
50	0x3d051c78	0.032497853
51	0x3d827ad0	0.06371081
52	0xbe27ec23	-0.16398673
53	0x3b8f9501	0.0043817763
54	0xbc157fa5	-0.009124671
55	0xbe38b04b	-0.18036
56	0xbdd0b35c	-0.1019046
57	0xbdf47979	-0.119372316
58	0xbe022a9c	-0.12711567
59	0xbe523e86	-0.20531663
60	0xbe919824	-0.28436387
61	0xbd4d7cc8	-0.05016783
62	0xbe26cb0b	-0.16288392
63	0xbe23df4e	-0.16003153
64	0xbdbdd82e	-0.09269749
65	0xbe813fb0	-0.25243902
66	0xbdac4b89	-0.08412845
67	0xbe1a4836	-0.15066609
68	0xbd219929	-0.039452706
69	0xbdcc4757	-0.099745445
70	0xbe6a3098	-0.228701
71	0xbd0c75b2	-0.03429193
72	0x3e15bfba	0.14623919
73	0xbe475f56	-0.19469962
74	0xbe043471	-0.1291063
75	0xbdb07742	-0.086164966
76	0xbe523db6	-0.20531353
77	0xbe800036	-0.2500016
78	0xbe42c0c3	-0.19018845
79	0xbe0df666	-0.13863525
80	0xbc120a8c	-0.008913647
81	0xbacc307a	-0.0015578412
82	0xbe074b55	-0.1321233
83	0x3d8674d6	0.065652534
84	0xbe22c230	-0.15894389
85	0x3d54c5cb	0.051946443
86	0xbeb9f03d	-0.363161
87	0xbd6f6588	-0.058446437
88	0xbc2e1cbc	-0.010626968
89	0xbf05cd16	-0.5226606
90	0xbd789371	-0.060687486
91	0xbe1b980c	-0.1519472
92	0xbd866fbb	-0.0656428
93	0xbd16ed97	-0.036847677
94	0xbe39411c	-0.18091244
95	0x3cc0241c	0.023454718

final.linears.2.weight f4 [16, 96]
0	0xbe896cf3	-0.26840934
1	0x3ec7c0f2	0.39014393
2	0xbddaccf3	-0.10683622
3	0xbda2fb9d	-0.07958148
4	0xbd8333d8	-0.06406373
5	0xbc73216d	-0.014839512
6	0x3e6f5586	0.23372468
7	0xbd569dea	-0.052396692
8	0xbc2d11f7	-0.010563365
9	0xbe4be9c0	-0.19913387
10	0x3e0e29e5	0.13883169
11	0xbcccb8b6	-0.02499042
12	0xbd859c27	-0.06523924
13	0x3e2c2e84	0.1681462
14	0xbb5fa7f2	-0.0034127203
15	0xbb008ef4	-0.0019616457
16	0xbdba1f07	-0.09087949
17	0x3e07837e	0.13233754
18	0xbd4fea1b	-0.05076037
19	0x3c88d7bb	0.01670443
20	0xbbf5d0e3	-0.007501708
21	0xbd30b2fd	-0.043139447
22	0xbe4e8e5e	-0.20171496
23	0x3ee1e60d	0.44120827
24	0x3e4ff67c	0.2030887
25	0x3e0d9bd7	0.1382898
26	0xbf0a9bf7	-0.54144233
27	0x3ba6e951	0.0050937315
28	0xbda738bc	-0.08165118
29	0xbcd607c8	-0.026126757
30	0xbc18a66d	-0.009317023
31	0x3ba42bc3	0.0050100996
32	0xbea542e0	-0.32277584
33	0x3e08b115	0.13348801
34	0xbdaa5b12	-0.083181515
35	0x3ed2985c	0.41131866
36	0x3e125045	0.14288433
37	0x3eb7e669	0.35917976
38	0xbbecabff	-0.007222652
39	0xbe3bd926	-0.18344554
40	0xbc993774	-0.0187032
41	0x3d1cb22d	0.03825586
42	0xbee1a098	-0.44067836
43	0x3b84999b	0.0040466315
44	0xbea47086	-0.321171
45	0xbe4a4175	-0.19751532
46	0xbc1f5277	-0.009724251
47	0xbda5df84	-0.08099273
48	0x3da29012	0.079376355
49	0x3c6a6572	0.014306413
50	0x3d8a5b56	0.06755702
51	0x3adec64d	0.0016996354
52	0x3f05d058	0.5227103
53	0xbd95ca2c	-0.07313952
54	0x3b9dec4c	0.0048194285
55	0xbed7339a	-0.42031556
56	0x3d66e058	0.056366295
57	0x3d23b950	0.03997165
58	0xbd45f4e0	-0.048329234
59	0x3bc68283	0.0060580387
60	0xbea36543	-0.31913194
61	0xbe0e592c	-0.13901204
62	0xbebb0305	-0.3652574
63	0x3d3074cc	0.043080136
64	0x3e45a7c2	0.19302276
65	0xbe322fa2	-0.17400983
66	0x3e252e0c	0.16130847
67	0xbdec69cb	-0.11543616
68	0xbdddfd53	-0.108393334
69	0x3dfb2bc4	0.12264207
70	0x3e42669b	0.18984453
71	0x3d6b0058	0.057373375
72	0xbc19b268	-0.009380914
73	0xbd2dd324	-0.042437688
74	0x3d9a91d9	0.075473495
75	0x3df0c934	0.117571265
76	0x3e847afb	0.25875077
77	0x3e1ab146	0.15106687
78	0xba94897d	-0.0011332479
79	0xbda66343	-0.081244014
80	0xbe1ae088	-0.15124714
81	0xbc753741	-0.014966787
82	0x3e4fe63f	0.20302676
83	0x3cce2ee7	0.02516885
84	0x3d93518e	0.0719329
85	0x3dec3251	0.115330346
86	0x3cc7daae	0.024396267
87	0xbcc36d16	-0.023855727
88	0xbe11bf2f	-0.14233087
89	0x3cd9f1e8	0.026604608
90	0xbdd6195e	-0.10454057
91	0x3e570729	0.20998825
92	0x3e4056ca	0.18783107
93	0xbabdce30	-0.0014481004
94	0x3a6cfee5	0.0009040668
95	0x3db9b3c7	0.09067493
96	0x3eac0cf8	0.33603644
97	0x3e917366	0.28408355
98	0x3dd8fa4e	0.10594617
99	0x3dd73398	0.105078876
100	0xbdb5d129	-0.08877785
101	0xba3acdee	-0.0007126023
102	0xbd7670c1	-0.060166124
103	0x3d43105a	0.047623016
104	0xbe341c5a	-0.1758894
105	0x3d809956	0.062792465
106	0x3e0ea010	0.13928246
107	0x3d4505ea	0.048101343
108	0xbc0f442c	-0.008744281
109	0xbe7b05c1	-0.24513914
110	0x3e612c07	0.21989451
111	0x3a85b81d	0.0010201965
112	0x3eea94d3	0.4581667
113	0x3d6973bb	0.056995135
114	0xbed35fb7	-0.41283962
115	0x3dc6f95d	0.09715531
116	0x3d8d87a8	0.0691064
117	0xbe691219	-0.2276081
118	0x3d3a459d	0.045476545
119	0xbdf3e025	-0.119079866
120	0xbbccde6b	-0.0062521
121	0xbce12a2d	-0.027485931
122	0xbde0af8d	-0.10970984
123	0x3c49ae06	0.012309557
124	0x3e43a310	0.19105172
125	0x3d880358	0.06641263
126	0x3bba9a17	0.0056946385
127	0xbb0e5bb4	-0.002172214
128	0xbd5319c0	-0.05153823
129	0xbde84e7e	-0.11343096
130	0x3f1cca16	0.6124586
131	0x3e10c75f	0.14138554
132	0xbe1881af	-0.1489322
133	0xbe70b1aa	-0.23505273
134	0xbbffc083	-0.0078049316
135	0xbda17767	-0.07884102
136	0x3b6bd955	0.0035987694
137	0xbd815421	-0.063148744
138	0x3e692776	0.2276896
139	0x3c1d8d37	0.009616188
140	0xbdda9e3e	-0.106747136
141	0xbf010a2f	-0.50406164
142	0x3bc4c332	0.0060047144
143	0xbd7a0bfe	-0.061046593
144	0x3e1800ce	0.14844057
145	0xbe4bfff4	-0.19921857
146	0xbdb2a6bc	-0.08723208
147	0x3e59a696	0.21254954
148	0xbcce6a87	-0.02519728
149	0x3dd47d2a	0.10375436
150	0xb9ae50fd	-0.00033248207
151	0xbe644492	-0.22291782
152	0xbd955ceb	-0.07293113
153	0xbc73cc22	-0.014880212
154	0xbde5aa99	-0.112141795
155	0x3db50992	0.08839716
156	0x3a2d62a0	0.00066141225
157	0x3b2e3c8e	0.0026586386
158	0xbec71c5a	-0.38888818
159	0xbdad7906	-0.08470349
160	0x3e4c3645	0.19942577
161	0x3ea26f5e	0.3172559
162	0x3ea90248	0.33009553
163	0xbd082a0e	-0.03324323
164	0x3e081c48	0.13292038
165	0xbdcf9822	-0.10136439
166	0xbdf58f68	-0.11990243
167	0x3e13bbca	0.14427105
168	0x3b95acff	0.004567742
169	0x3ece8763	0.40337667
170	0x3e09470a	0.13406006
171	0xbd221551	-0.03957111
172	0xbe00e48c	-0.12587184
173	0xbe31589e	-0.17318961
174	0xbada0a00	-0.001663506
175	0x3caf89cd	0.021428013
176	0xbe0a3a78	-0.13498867
177	0x3c359f58	0.011085354
178	0x3db2826b	0.087162815
179	0xbc535ed8	-0.0129010305
180	0xbf09c2bd	-0.5381277
181	0xbe0e22f6	-0.13880524
182	0x3c90c68e	0.017672803
183	0x3bd7814b	0.006576692
184	0xbd35ea6c	-0.044413015
185	0x3c515400	0.012776375
186	0xbd9f35ef	-0.07773959
187	0xbe679ebb	-0.22619145
188	0x3bab021d	0.005218758
189	0xbbe0f836	-0.0068655265
190	0x3cad6b0c	0.021169208
191	0x3db4db2e	0.08830868
192	0xbd74d528	-0.059773594
193	0xbded28ee	-0.11580072
194	0xbd63e388	-0.055636913
195	0x3c86d2b1	0.016457887
196	0x3d7aaea3	0.061201703
197	0x3e542691	0.20717837
198	0x3d962a9f	0.07332348
199	0xbba59b33	-0.0050539016
200	0x3d997b33	0.074942015
201	0xbd8429ae	-0.06453262
202	0xbd931459	-0.071816154
203	0x3d7015a9	0.058614407
204	0xbdcce565	-0.10004691
205	0xbe675b33	-0.22593383
206	0x3d8979db	0.06712695
207	0xbf608ccf	-0.87714857
208	0xbe35ef43	-0.17767052
209	0x3d5bf61e	0.053701513
210	0x3d6bf29f	0.05760443
211	0x3da7967d	0.08183
212	0x3dd4ce3a	0.10390897
213	0x3d320d51	0.04346973
214	0xbd8c0e7d	-0.06838701
215	0xbe4d3e08	-0.20043194
216	0xbe3713f2	-0.17878702
217	0xbe0a5eb6	-0.13512692
218	0xbeb630fa	-0.3558424
219	0x3dce4866	0.10072403
220	0x3ef98ebb	0.48741707
221	0x3d2f9d06	0.04287436
222	0x3dae00da	0.08496256
223	0x3f12cdb8	0.5734515
224	0xbd1e4c37	-0.038646903
225	0x3d447c3a	0.047970034
226	0xbe978edc	-0.2960118
227	0x3db94e34	0.09048119
228	0x3d797b2c	0.06090848
229	0x3e8e9152	0.27845246
230	0x3ea894a3	0.329259
231	0xbd230cd9	-0.039807174
232	0xbda24519	-0.079233356
233	0xbd1494e4	-0.036274806
234	0x3e1395ef	0.14412664
235	0xbdf819dd	-0.12114308
236	0x3c01fb50	0.007933453
237	0xbe316798	-0.17324674
238	0x3f3d50dc	0.73951507
239	0xbc28652e	-0.010278029
240	0x3e53c6bb	0.20681278
241	0xbd41c974	-0.04731126
242	0xbcc8174d	-0.024425173
243	0xbdb8f3ac	-0.09030852
244	0xbd998dcd	-0.074977495
245	0x3d8fd096	0.070222065
246	0x3d17c2dd	0.03705107
247	0xbdfc44c9	-0.12317807
248	0xbd869ae4	-0.06572512
249	0x3d195134	0.037430957
250	0xbc28b76e	-0.010297639
251	0x3dd0906e	0.10183798
252	0x3e2a776b	0.16647117
253	0x3dbb5463	0.09146955
254	0xbc8b3fc5	-0.016998181
255	0x3dd3ba53	0.10338273

final.linears.2.bias f4 [16]
0	0x3b97e751	0.0046357294
1	0xbd0587b6	-0.032600127
2	0x3e3c555b	0.18391936
3	0xbee3c8fd	-0.4448928
4	0xbd8e78b8	-0.06956619
5	0x3dfb5754	0.12272516
6	0x3c1e2d0c	0.009654295
7	0x3d4df886	0.05028584
8	0xbca5c2a2	-0.02023441
9	0x3d951236	0.07278864
10	0x3d3ab286	0.04558041
11	0x3c743b10	0.01490666
12	0xb9a04374	-0.00030567835
13	0xbca03d1d	-0.019560391
14	0xbcd52384	-0.026017912
15	0xbd230d70	-0.039807737

layers.0.attn.0.gnn_q.weight f4 [16, 16]
0	0xbd02fa9c	-0.03197728
1	0x3d153995	0.036431868
2	0x3cfdd93e	0.030987378
3	0x3d25501c	0.0403596
4	0x3bb8af69	0.005636145
5	0xbcc3aa50	-0.023884922
6	0xbb65ed1c	-0.0035083955
7	0xbc040d4e	-0.008059813
8	0xb8f165ad	-0.00011510714
9	0xbb980088	-0.004638735
10	0x3a992a83	0.0011685643
11	0xbc59a84b	-0.013284753
12	0xb7b6d62e	-2.1795826e-05
13	0xbc3b1d3e	-0.011420546
14	0xbcfda202	-0.03096104
15	0x3a8f9deb	0.0010957097
16	0xbc7ffeea	-0.015624741
17	0x3b7549bf	0.003742799
18	0x3c7d68d9	0.015466892
19	0x3b82fa40	0.0039971173
20	0x3ac16459	0.0014754637
21	0xbc999c0b	-0.018751165
22	0x3ad60299	0.0016327678
23	0x3c350573	0.0110486625
24	0x3a866d4c	0.0010255962
25	0xbc69679d	-0.014245895
26	0xba37f066	-0.0007016718
27	0xbc30867d	-0.010774252
28	0x3789d48b	1.6430646e-05
29	0x3aaaad6a	0.0013021652
30	0xbc8d7ac6	-0.017270457
31	0x3b855818	0.0040693395
32	0xbb2179f2	-0.0024639335
33	0xbe57693e	-0.2103624
34	0x3d216e34	0.03941174
35	0xbe6c2a54	-0.23063022
36	0xbd5c229a	-0.053743936
37	0xbd9bf931	-0.07615889
38	0x3cc892da	0.024484087
39	0x3da3b9ad	0.07994399
40	0x3adffd10	0.0017088968
41	0xbe220fc9	-0.15826334
42	0xbc1ac7e8	-0.009447075
43	0x3cf126dc	0.029437475
44	0x3ac9956c	0.0015379614
45	0x3de69303	0.11258509
46	0xbd8cb1c5	-0.06869844
47	0x3b271aa0	0.0025498047
48	0xbe2d520a	-0.16925827
49	0x3dbe0ec9	0.09280164
50	0x3e344c26	0.17607173
51	0x3dd90a25	0.10597638
52	0x3d167e2c	0.03674142
53	0xbe2e6be7	-0.17033349
54	0xbc606d0d	-0.013697875
55	0xbd101714	-0.03517826
56	0xba833e4a	-0.001001307
57	0xbdd143eb	-0.102180324
58	0x3bb836bc	0.005621759
59	0xbdb8bdbe	-0.090205655
60	0x38ab1f14	8.159704e-05
61	0xbc8eb074	-0.017418124
62	0xbe5515ce	-0.20809099
63	0xbafd79ca	-0.0019338664
64	0xbda28a4a	-0.07936533
65	0x3da6962a	0.0813411
66	0x3da7e4c8	0.081979334
67	0x3dadcad1	0.0848595
68	0x3cd54855	0.026035467
69	0xbd9f82de	-0.07788633
70	0xbc51ec8c	-0.012812745
71	0xbd08b532	-0.033375926
72	0xba65823c	-0.0008755063
73	0xbd2e6012	-0.04257209
74	0x3b9b71b7	0.0047437805
75	0xbd36049f	-0.044438
76	0xb999b0e4	-0.00029314228
77	0xbcbd2132	-0.023087118
78	0xbdbca048	-0.09210259
79	0xbb099146	-0.002099113
80	0x3d8dd47e	0.06925295
81	0xbd9eb7ac	-0.077498764
82	0xbd9227d1	-0.071365006
83	0xbdb15cee	-0.08660303
84	0xbcb8910c	-0.022530101
85	0x3d90fdee	0.07079683
86	0x3c3d3367	0.0115479
87	0x3d0a9a13	0.033838343
88	0x3a847cab	0.0010107955
89	0x3d1ee325	0.03879084
90	0xbb8e5d4d	-0.0043446184
91	0x3d24f87a	0.04027603
92	0x39c8986f	0.00038260545
93	0x3ce86a23	0.028370922
94	0x3da6e8a5	0.08149842
95	0x3b359e43	0.002771274
96	0x3cc44e59	0.02396314
97	0x3cd3c536	0.025850873
98	0xbccfc616	-0.02536301
99	0x3cb4e1f6	0.022080403
100	0x3b81bfb9	0.0039596227
101	0x3cda305b	0.026634386
102	0xbb7400d4	-0.003723194
103	0xbc93d5fb	-0.01804637
104	0xb8b87ffd	-8.7976434e-05
105	0x3ca94d73	0.020666813
106	0x3a99adf5	0.0011724817
107	0x3c53ff11	0.012939231
108	0xb9a60882	-0.00031668326
109	0xbc97333e	-0.018457051
110	0x3cd8cfe2	0.026466314
111	0x3a6c6e1e	0.0009019094
112	0xbafae21e	-0.0019140875
113	0x3cf225b1	0.029558988
114	0xbac5303d	-0.0015044283
115	0x3cb86671	0.022509785
116	0x3c1343c0	0.008988321
117	0x3b245659	0.0025075881
118	0xbbc10cfc	-0.0058914404
119	0xbcec71f6	-0.028862935
120	0xba73afdd	-0.000929592
121	0x3bd74041	0.006568939
122	0x3b0b2f7e	0.0021238024
123	0xbb56b574	-0.0032761963
124	0xb9792b1f	-0.00023762554
125	0xbc769c81	-0.015051962
126	0x3b3da620	0.002893813
127	0xbba82601	-0.0051314835
128	0x3cb3a523	0.02192933
129	0xbb71e103	-0.00369078
130	0xbcd4be68	-0.025969699
131	0xbc050e74	-0.008121122
132	0xbb394d3e	-0.00282748
133	0x3d0b0204	0.03393747
134	0x371198e0	8.6782675e-06
135	0xbbaa62c9	-0.0051997644
136	0x389b66c6	7.410119e-05
137	0x3d1886ed	0.03723805
138	0xb94f8fd7	-0.00019794643
139	0x3c6926eb	0.01423047
140	0xb9189433	-0.00014551058
141	0xbc258fc6	-0.010105079
142	0x3ce677d2	0.028133307
143	0xb9e783e2	-0.00044158014
144	0x3c4a9d82	0.012366654
145	0xbccf81b3	-0.0253304
146	0xbc58c681	-0.013230921
147	0xbcdaa6a3	-0.026690787
148	0xbc2467f6	-0.010034552
149	0x3be92037	0.007114436
150	0x3bd88443	0.0066075637
151	0x3c8b94c9	0.01703872
152	0x39f440fb	0.0004658772
153	0xba6b2957	-0.00089706987
154	0xbb283018	-0.0025663432
155	0x3c05f784	0.008176688
156	0x39522ae9	0.00020043146
157	0x3c26c644	0.010179106
158	0x3c5146e1	0.0127732465
159	0xb85d57a8	-5.2772142e-05
160	0x3d5be105	0.053681392
161	0xbc1ea2c5	-0.009682362
162	0xbd641a50	-0.055689156
163	0xbc8dd359	-0.017312692
164	0xbbc3662b	-0.005963107
165	0x3d6792a0	0.056536317
166	0xb9e134a3	-0.00042954562
167	0xbc326c44	-0.01089007
168	0xb9891f88	-0.0002615417
169	0x3d2245c8	0.03961733
170	0xb8469c17	-4.735225e-05
171	0x3cf05aa3	0.029340094
172	0xb8e71872	-0.00011019492
173	0xbbd8dbae	-0.0066179847
174	0x3d819f17	0.06329172
175	0xbabd56e9	-0.0014445457
176	0xbd15d9f2	-0.036584802
177	0x3a228640	0.00061998144
178	0x3d0f2cc8	0.034954816
179	0x3c04ecb8	0.008113079
180	0x3b024f85	0.0019883823
181	0xbd0aed33	-0.033917617
182	0x3b0fb0b5	0.0021925394
183	0x3c5443bf	0.012955605
184	0xb79c43db	-1.8628247e-05
185	0xbc74ca79	-0.014940851
186	0xba81f7aa	-0.0009915729
187	0xbcad6290	-0.021165162
188	0xb86f5760	-5.7063415e-05
189	0xb90f5a82	-0.0001367126
190	0xbd2a0961	-0.04151285
191	0xbace2a67	-0.001572919
192	0xbd472e73	-0.04862828
193	0x3d7878e0	0.06066215
194	0x3d3d3f76	0.0462031
195	0x3d78b20c	0.060716674
196	0x3c9d831d	0.019227559
197	0xbd2d1a9b	-0.0422617
198	0xbc07f8c3	-0.0082990555
199	0xbcc53e6b	-0.024077615
200	0xba51c301	-0.0008001775
201	0xbc6edc2e	-0.014578862
202	0x3b56e404	0.0032789716
203	0xbcff76a6	-0.031184506
204	0xb9aa14c0	-0.00032440387
205	0xbc9c3a2a	-0.019070704
206	0xbd51a0c9	-0.051178727
207	0xbb209277	-0.0024501362
208	0x3be88939	0.0070964363
209	0x3c9b1c33	0.018934345
210	0xbc0d083a	-0.008607918
211	0x3c7eabce	0.015543891
212	0x3b3e8a87	0.0029074268
213	0x3cb2f245	0.021844039
214	0xbbbc275f	-0.005741998
215	0xbc9ae786	-0.018909227
216	0xba03abb2	-0.0005022838
217	0x3cc58b25	0.0241142
218	0x3b010412	0.0019686264
219	0x3c2325b5	0.0099577205
220	0xb9082f25	-0.00012987533
221	0xbc7757f6	-0.015096655
222	0x3c355220	0.011066943
223	0xba169b67	-0.00057452027
224	0x3b30418c	0.0026894538
225	0xbca65636	-0.02030478
226	0xbb889e8f	-0.0041692923
227	0xbc63e55d	-0.013909665
228	0xbba43e0b	-0.005012279
229	0x3b9715d9	0.0046107587
230	0x3ba42b1c	0.005010022
231	0x3ca7b157	0.020470304
232	0x3a3d480c	0.00072205137
233	0x3c0885ed	0.008332712
234	0xbae1ef2c	-0.0017237416
235	0xba8ac28e	-0.0010586546
236	0x39204d2f	0.00015287542
237	0x3bdb0d2a	0.006684919
238	0x3bf6945a	0.007525009
239	0x3b1e1a29	0.002412448
240	0x3cb2796f	0.02178642
241	0xbc7551fa	-0.014973158
242	0xbc9fce43	-0.019507533
243	0xbc6c95e2	-0.014440032
244	0xbbc6e742	-0.0060700485
245	0x3c817435	0.015802482
246	0x3b2471c1	0.0025092217
247	0x3bd4a36c	0.006489208
248	0x3942a6b4	0.00018563383
249	0x3a6ae7c9	0.000896093
250	0xba7adb85	-0.0009569454
251	0x3c517e0f	0.012786402
252	0x396af809	0.0002240838
253	0x3ba4a2fa	0.005024311
254	0x3ca1ce79	0.019751774
255	0xba75244e	-0.0009351418

layers.0.attn.0.gnn_q.bias f4 [16]
0	0xbdee8941	-0.11647273
1	0xbc8cc75e	-0.01718491
2	0x3db32080	0.08746433
3	0xbcdbee66	-0.026847076
4	0x3c8d60e6	0.017258119
5	0xbdb02f99	-0.086028285
6	0xbab5579e	-0.0013835316
7	0x3b3dc2c3	0.0028955198
8	0xba186983	-0.00058140623
9	0x3c539c60	0.012915701
10	0x3a3448b7	0.00068772904
11	0xbd9a2574	-0.07526675
12	0xba3b4771	-0.00071441295
13	0xbbdd11b9	-0.0067464975
14	0xbdd30b21	-0.10304857
15	0xbb839bbf	-0.004016369
