checkpoints/cyp1a2_veith_33_train1_pos/Aug31-03:01:15_100.pth (torch, 415238 bytes, 294 tensors)

layers.0.weight f4 [16, 16]
0	0xbe1378e5	-0.14401586
1	0x3e711c88	0.2354604
2	0x3baef1f6	0.0053389026
3	0x3ec90b81	0.3926659
4	0xbf12a232	-0.5727874
5	0x3ab24f4e	0.0013603957
6	0xbd8d83f3	-0.06909933
7	0x3e7cba62	0.24680474
8	0x3dba07f7	0.090835504
9	0xbe8adc9e	-0.27121443
10	0x3f589a52	0.84610474
11	0x3f1b1f89	0.60594994
12	0x3eaf1502	0.34195715
13	0xbdbc5325	-0.09195546
14	0x3ee60010	0.44921923
15	0xbea59401	-0.3233948
16	0x3eefd4ee	0.4684214
17	0xbe79946c	-0.24373025
18	0xbf06cac6	-0.5265316
19	0xbeb36ddb	-0.3504475
20	0x3e5c0237	0.2148522
21	0xbc0064a6	-0.007836496
22	0xbebd4f7e	-0.3697471
23	0x3ec0c1ff	0.37648007
24	0xbf27a7b1	-0.6549025
25	0xbf3ba11a	-0.73292696
26	0xbf1c0255	-0.6094106
27	0xbed0e274	-0.4079777
28	0xbe9b7cd2	-0.30368668
29	0xbfd429f0	-1.6575298
30	0x3f961653	1.1725563
31	0xbf8d1cea	-1.1024449
32	0x3d83f090	0.06442368
33	0x3c7a6082	0.015281798
34	0xbe6331d4	-0.22186977
35	0xbd62331d	-0.055224527
36	0xbdae55d3	-0.085124634
37	0x3d34f911	0.04418284
38	0x3e10a491	0.14125277
39	0xbe571c83	-0.2100697
40	0x3d531298	0.051531404
41	0xbdca0b38	-0.09865421
42	0x3f0c3161	0.54762846
43	0x3d8551ad	0.06509719
44	0x3e644055	0.22290166
45	0xbeb5c8fe	-0.35504907
46	0x3e80f530	0.25187063
47	0x3e34267f	0.1759281
48	0x3d48d3c2	0.049030073
49	0xbd5e809e	-0.054321878
50	0xbe43834d	-0.19093056
51	0xbe1000da	-0.14062825
52	0xbe62ddf1	-0.22154976
53	0x3cc54497	0.024080558
54	0x3d99596c	0.07487759
55	0xbe80ee7b	-0.25181946
56	0x3d217a80	0.039423466
57	0xbdbe6873	-0.09297266
58	0x3f188e2f	0.59591955
59	0x3d9e8c06	0.07741551
60	0x3e7f0357	0.24903618
61	0xbec76359	-0.38942984
62	0x3e67f838	0.22653282
63	0x3e2a4b00	0.16630173
64	0x3c0f092e	0.008730216
65	0x3c315002	0.010822298
66	0xbd4b34c1	-0.049610857
67	0xbe212400	-0.15736389
68	0xbe191cac	-0.14952344
69	0x3c00faac	0.007872265
70	0x3e08c856	0.13357672
71	0xbe497c28	-0.19676268
72	0x3de52b9f	0.11189961
73	0xbe08a01c	-0.13342327
74	0x3ef311b1	0.47474435
75	0x3d04e88b	0.032448333
76	0x3e366570	0.17812133
77	0xbe6511df	-0.22370099
78	0x3e856054	0.26050055
79	0x3e2614f4	0.1621893
80	0x3bfebebe	0.007774203
81	0xbe1d74e2	-0.15376619
82	0x3eaffb1f	0.34371278
83	0xbe89737d	-0.26845923
84	0x3ed58960	0.4170637
85	0x3beaf125	0.00716986
86	0x3dc0890e	0.09401141
87	0xbdbdbc65	-0.09264449
88	0xbcd2b4a4	-0.025720902
89	0x3c384669	0.011247256
90	0x3f91b06b	1.1381963
91	0xbf004ab1	-0.5011397
92	0x3efd2090	0.49438906
93	0x3f5d4b58	0.8644309
94	0x3d3bf04f	0.045883473
95	0x3e9fb069	0.31189278
96	0x3e806169	0.25074318
97	0xbe44c7cd	-0.19216843
98	0xbe28b722	-0.1647611
99	0xbcac1a19	-0.021008538
100	0xbe9369ae	-0.28791565
101	0xbcb8f110	-0.022575885
102	0x3de2f8e0	0.110826254
103	0xbea5b609	-0.32365444
104	0xbe28eec5	-0.16497333
105	0xbf83118d	-1.0239731
106	0xbfa21d15	-1.2665125
107	0x3e582d9f	0.21111153
108	0xbf0644da	-0.5244881
109	0xbe9858fe	-0.29755396
110	0x3fdae8f9	1.7102348
111	0x3e5d7b6c	0.21629113
112	0x3eab6b3e	0.33480257
113	0xbe6b685b	-0.22989027
114	0xbeac4123	-0.33643445
115	0xbebd97ab	-0.37029776
116	0x3eae4005	0.34033218
117	0xbc5a0b36	-0.013308337
118	0xbe141065	-0.14459379
119	0xbcbe5469	-0.02323361
120	0xbec96b87	-0.3933985
121	0xbe045337	-0.12922369
122	0xbf967765	-1.1755186
123	0xbeeb4688	-0.4595225
124	0xbefe9d88	-0.49729562
125	0xbf6d286b	-0.926398
126	0x3e15334d	0.14570351
127	0xbecb3a20	-0.39692783
128	0x3e3a585b	0.18197767
129	0x39c97642	0.00038425816
130	0xbe52a8a7	-0.20572148
131	0x3e267b92	0.16258076
132	0xbeeb4831	-0.45953515
133	0x3c234e23	0.00996736
134	0xbe189cee	-0.14903614
135	0x3e16ae2d	0.1471488
136	0xbea2c765	-0.3179275
137	0xbf7a56a4	-0.97788453
138	0x3db5db4f	0.088797204
139	0x3ecf76e9	0.4052041
140	0xba815dc0	-0.0009869859
141	0xbf2d1735	-0.67613536
142	0x3fd2538f	1.643175
143	0xbeffc354	-0.4995371
144	0x3c107062	0.008815857
145	0xbd5e171e	-0.054221265
146	0x3e233dff	0.15941618
147	0xbd71aa23	-0.059000146
148	0xbcb53d4d	-0.022123957
149	0x3b8e2af7	0.004338618
150	0x3de1fbfe	0.11034392
151	0xbd8691ea	-0.065708
152	0x3d5beeb8	0.053694457
153	0xbeb166c2	-0.3464871
154	0x3fa5fa0f	1.2966937
155	0xbc9445f7	-0.018099768
156	0x3f0bf7f4	0.5467522
157	0x3e76c5a8	0.24098837
158	0x3f14c19d	0.5810793
159	0x3e0dba58	0.13840616
160	0xbd377277	-0.044786897
161	0x3b6d4331	0.003620338
162	0xbd720f98	-0.059096903
163	0xbd352d0e	-0.04423242
164	0x3dbff2e8	0.093725026
165	0xbac93144	-0.0015349765
166	0x3d2db0d1	0.042404953
167	0x3dc32c77	0.09529965
168	0x3e154e74	0.14580709
169	0x3dd3e5c7	0.10346561
170	0xbeeed9c9	-0.46650532
171	0xbe13395a	-0.14377347
172	0xbe457755	-0.19283803
173	0xbe36afec	-0.17840546
174	0xbe2691ce	-0.16266558
175	0xbcbd3d86	-0.023100626
176	0xbd9de509	-0.077097006
177	0xbdb56ef1	-0.08859051
178	0x3e8f25c0	0.27958488
179	0xbe088ac2	-0.13334182
180	0x3e7cbe6d	0.24682017
181	0x3c5738d9	0.013136112
182	0x3e03e1a2	0.12879041
183	0xbe643009	-0.22283949
184	0x3ddfbadc	0.109243125
185	0x3e7de986	0.24796113
186	0x3f02e111	0.51124674
187	0xbe85eea3	-0.26158628
188	0x3e56d5cf	0.20979999
189	0x3f5b7142	0.8571969
190	0xbec94dd1	-0.39317182
191	0x3eed0adc	0.46297348
192	0xbcd36875	-0.025806645
193	0x3e65867b	0.22414581
194	0xbe84ccb3	-0.25937423
195	0x3e498d49	0.19682802
196	0xbe4e9cbd	-0.20176978
197	0x3c58cecd	0.013232899
198	0xbeac0586	-0.33597964
199	0x3f17e7fc	0.59338355
200	0xbe6d37a8	-0.23165762
201	0x3e8c97bc	0.27459514
202	0x3f819721	1.0124246
203	0x3e5e3934	0.21701509
204	0x3ec41692	0.3829847
205	0xbf857bd2	-1.0428412
206	0xbef47d40	-0.47751808
207	0xbf7cebdb	-0.98797387
208	0xbdb07942	-0.08616878
209	0x3e5a84d2	0.2133973
210	0x3d4eb64a	0.050466813
211	0x3ed03d6d	0.40671864
212	0xbf2864c1	-0.6577874
213	0x3b1f526d	0.0024310604
214	0xbd22b8f7	-0.039727177
215	0x3e268f2e	0.16265556
216	0x3d3796f3	0.04482169
217	0xbdf12be1	-0.11775947
218	0x3ed4ef05	0.41588607
219	0x3f2a5d76	0.6654886
220	0x3e32914f	0.17438243
221	0x3dbe4b6c	0.09291729
222	0x3e5cd6a9	0.21566261
223	0xbe0bb122	-0.1364179
224	0xbeadc8ab	-0.3394216
225	0x3ef1f2fb	0.47255692
226	0xbe66a241	-0.22522832
227	0x3eed307c	0.46326053
228	0xbede7835	-0.43451086
229	0x3b1a2440	0.0023520142
230	0xbe6fe8bb	-0.23428623
231	0x3f083bfd	0.53216535
232	0x3e1cfdd5	0.15331204
233	0x3f6133d3	0.879697
234	0x3edef9ef	0.4355006
235	0x3f13ab01	0.57682806
236	0x3e5e2f46	0.21697721
237	0xbf669a8d	-0.90079576
238	0xbfbc79b4	-1.4724641
239	0xbf3fa771	-0.7486487
240	0x3e8a3f55	0.27001444
241	0x3dbdf82f	0.09275853
242	0xbf2a4722	-0.6651479
243	0xbd646370	-0.055758893
244	0x3e5c2a6f	0.21500562
245	0xbcf0691c	-0.029346995
246	0xbef3e388	-0.4763453
247	0x3f28fb70	0.66008663
248	0xbf0f9178	-0.5608134
249	0x3ebee469	0.37283638
250	0xbf937548	-1.1520166
251	0xbe4422e8	-0.1915394
252	0xbef4ee49	-0.47838047
253	0xc0075e81	-2.115143
254	0xbf312a17	-0.6920485
255	0xbfafd20e	-1.3735979

layers.0.bias f4 [16]
0	0xbe5738b7	-0.21017729
1	0xbbe9121b	-0.007112754
2	0xbdea9e43	-0.11455967
3	0xbe4c2f32	-0.19939879
4	0x3e76e2fb	0.24110024
5	0xbf474a6f	-0.7784795
6	0x3e2fddf6	0.17174515
7	0x3ecc3324	0.39882767
8	0xbe9106cc	-0.28325498
9	0x3e3e18b7	0.18564115
10	0x3e91c3b4	0.28469622
11	0x3ed46bc6	0.41488475
12	0xbdde9f40	-0.10870218
13	0xbea248ce	-0.3169617
14	0x3ec8392a	0.39106113
15	0x3e81dbe3	0.25363073

layers.1.weight f4 [16, 16]
0	0x3e971e4e	0.29515308
1	0xbf527b9c	-0.8221986
2	0x3e90f877	0.28314564
3	0x3eb771fd	0.35829154
4	0x3f12246f	0.57086843
5	0xbef2ced0	-0.4742341
6	0x3ea0c825	0.31402698
7	0x3ed74448	0.42044282
8	0x3e286ba7	0.16447316
9	0x3f595f9f	0.8491153
10	0x3e5ba7e0	0.21450758
11	0x3ee1596d	0.4401354
12	0xbe5c797d	-0.21530719
13	0xbf89e8ec	-1.0774207
14	0x3ddd574b	0.108076654
15	0xbf0e300b	-0.5554206
16	0xbef70a7f	-0.48250195
17	0x3f568536	0.83797014
18	0x3e7aa57c	0.2447719
19	0xbc8a022e	-0.016846742
20	0xbf3e02a8	-0.74222803
21	0x3f30b536	0.69026506
22	0x3f2d6a96	0.6774076
23	0xbf0ab56c	-0.5418308
24	0xbe2b5763	-0.16732554
25	0xbe89079c	-0.26763618
26	0x3c48794a	0.012235949
27	0xbea1da74	-0.3161198
28	0xbdcf311a	-0.10116787
29	0x3f40a105	0.75245696
30	0xbee67d86	-0.45017642
31	0x3f36200f	0.7114267
32	0x3e00c179	0.12573804
33	0x3ee3d35f	0.444972
34	0xbf0f1044	-0.55884194
35	0xbe9f397a	-0.3109854
36	0xbf0cddc5	-0.55025893
37	0xbeffdf59	-0.49975088
38	0xbe513ac2	-0.2043257
39	0xbe9e2bb6	-0.30892724
40	0xbe90ca31	-0.2827926
41	0xbe531078	-0.20611751
42	0x3da1b2be	0.078954205
43	0xbf41f092	-0.75757706
44	0xbbff6767	-0.007794309
45	0xbe30c14d	-0.17261238
46	0x3e3573cb	0.17719953
47	0xbf2c9925	-0.6742118
48	0xbf544062	-0.8291074
49	0x3f8f1bfd	1.1180416
50	0xbea61a34	-0.32441866
51	0x3c46542b	0.012105028
52	0xbe1fd302	-0.15607837
53	0x3f062c7e	0.5241164
54	0x3f4ddee6	0.8041824
55	0xbc86ab7a	-0.016439188
56	0xbee5c025	-0.44873157
57	0x3e905501	0.28189853
58	0x3d02470b	0.031806033
59	0x3db371f2	0.08761968
60	0x3e956d99	0.2918518
61	0x3f7b584d	0.9818161
62	0xbee26a96	-0.44221944
63	0x3f09e129	0.5385919
64	0x3e4de56c	0.20107049
65	0xbf15884e	-0.5841111
66	0x3ed3724b	0.41298136
67	0x3e8794cb	0.26480708
68	0xbf201d7a	-0.6254498
69	0xbf2ef025	-0.6833518
70	0xbf97bb95	-1.185412
71	0xbf19c482	-0.6006547
72	0x3d8c7c9e	0.06859706
73	0xbf1e4d04	-0.61836267
74	0x3ea9f76b	0.33196577
75	0xbf06c879	-0.52649647
76	0x3cc7889f	0.024357138
77	0xbf219d8f	-0.6313104
78	0x3f12b104	0.57301354
79	0xbeb5b0a2	-0.35486323
80	0x3cdae55f	0.0267207
81	0x3ed7fc4b	0.42184672
82	0xbf3bc988	-0.7335439
83	0xbe6e2284	-0.23255354
84	0xbdec2e75	-0.115322985
85	0xbeefa340	-0.46804237
86	0xbe101094	-0.14068824
87	0xbd0b2208	-0.033968
88	0xbe60dc50	-0.21959043
89	0xbe24733d	-0.16059585
90	0xbde7e5c8	-0.11323124
91	0xbece633c	-0.40310085
92	0xbe39cd68	-0.18144763
93	0xbd99d4dd	-0.075113036
94	0x3e3325ff	0.17494963
95	0xbec92ddb	-0.39292797
96	0x3f8a7a3d	1.0818554
97	0x3e33d811	0.17562892
98	0xbf6a5931	-0.91542345
99	0xbf1d84fb	-0.6153104
100	0x3f2e8296	0.6816801
101	0xbe7c3e1b	-0.24633066
102	0xbf254c4c	-0.64569545
103	0x3edb0bf1	0.42782548
104	0x3e097ba5	0.13426073
105	0xbf5ad88d	-0.8548668
106	0xbf6d78ea	-0.92762625
107	0xbdd535a1	-0.104106195
108	0x3e0adf58	0.13561761
109	0x3f2fa884	0.6861651
110	0x3da0d7f4	0.0785369
111	0xbf25c3fa	-0.6475216
112	0xbf87ec00	-1.0618896
113	0x3e05d419	0.1306919
114	0x3f38e087	0.722176
115	0x3efc1df8	0.49241614
116	0xbf1821ff	-0.59426874
117	0x3eb04b42	0.34432417
118	0xbcfdc75e	-0.030978855
119	0xbf13a789	-0.57677513
120	0xbe2ec13b	-0.17065899
121	0x3da59911	0.08085836
122	0x3f0421d2	0.51614106
123	0xbaf82d18	-0.0018934337
124	0x3f137abb	0.57609147
125	0x3deeabf9	0.11653895
126	0xbce5d108	-0.028053775
127	0x3f561327	0.83622974
128	0x3e3c9048	0.18414414
129	0x3f7c7285	0.9861224
130	0xbf668d61	-0.9005948
131	0xbf16bcb8	-0.5888171
132	0x3d0176ec	0.031607553
133	0xbd7c6aee	-0.061625414
134	0xbc7edbf9	-0.015555375
135	0xbe2ead3e	-0.17058274
136	0x3d720c1b	0.059093576
137	0xbe556be0	-0.20841932
138	0xbf0f97ca	-0.56090987
139	0xbebfbe0f	-0.3744969
140	0xbe2209ac	-0.15824002
141	0x3f3c1553	0.7347004
142	0x3cfaf8dc	0.030636244
143	0xbea0d87b	-0.31415161
144	0xbed177e7	-0.4091179
145	0x3f2d33fc	0.67657447
146	0xbe4ef0fd	-0.20209117
147	0x3e0126cc	0.12612456
148	0xbf6ce5e5	-0.9253829
149	0xbe8e1db1	-0.27757028
150	0xbeba5f95	-0.36401048
151	0xbf02be88	-0.5107198
152	0xbe2364a2	-0.15956357
153	0xbe33de43	-0.17565255
154	0x3d8712c4	0.06595376
155	0xbf5354b8	-0.82551146
156	0x3ecb09f1	0.39656022
157	0x3e956ada	0.29183084
158	0x3f0635b7	0.5242571
159	0xbd68285e	-0.056679122
160	0xbe68247d	-0.22670169
161	0x3f35ecbc	0.71064353
162	0xbf58bd6e	-0.84664047
163	0xbd90ff0f	-0.070798986
164	0x3daa10b4	0.08303967
165	0xbd5da738	-0.05411455
166	0x3daa6888	0.08320719
167	0x3e6d97b8	0.23202407
168	0x3e4f8e61	0.20269157
169	0xbdb15ecd	-0.0866066
170	0xbe890151	-0.26758817
171	0xbe98ed4a	-0.29868537
172	0xbca478e0	-0.020077169
173	0x3e183d7c	0.14867204
174	0x3e1fe875	0.15616019
175	0xbe3d71a5	-0.18500383
176	0xbf13f797	-0.5779967
177	0x3ee00cae	0.43759674
178	0xbe6ffb1b	-0.23435633
179	0x3e1e791b	0.15475886
180	0xbdbb540d	-0.09146891
181	0x3ed6e6da	0.41973
182	0x3ee38621	0.4443827
183	0xbe5692c7	-0.20954429
184	0xbee53d79	-0.44773462
185	0x3e4b0245	0.19825085
186	0xbe284c96	-0.16435465
187	0x3e77ac23	0.24186759
188	0x3ee38585	0.44437805
189	0x3ebbda2b	0.36689886
190	0xbe52bfd4	-0.20580989
191	0x3f1308f2	0.57435524
192	0x3f242e66	0.641333
193	0xbe4b1d70	-0.19835448
194	0xbdc91b16	-0.09819619
195	0xbeea1252	-0.45717102
196	0x3e1ef1e6	0.15521964
197	0x3e463bd4	0.1935876
198	0xbe10d8fe	-0.14145276
199	0xbdb7f4fc	-0.08982274
200	0xbbe5d22e	-0.0070135808
201	0xbeac5156	-0.33655804
202	0xbf16478e	-0.58702934
203	0x3d1d5f3d	0.038420904
204	0xbe030c90	-0.12797761
205	0x3f0c3848	0.5477338
206	0xbdeb1aea	-0.11479743
207	0xbe0bd042	-0.13653663
208	0x3eeacd58	0.4585979
209	0xbe097e89	-0.13427176
210	0xbe27a634	-0.16371995
211	0xbe2fd595	-0.17171319
212	0x3eaae9bc	0.3338145
213	0x3f10e753	0.5660297
214	0x3dbf78b2	0.09349193
215	0x3d95f31e	0.073217615
216	0x3f1e4521	0.6182423
217	0xbf012b2f	-0.5045652
218	0xbf01f8d5	-0.5077031
219	0x3cb90e04	0.022589691
220	0xbee6e4e3	-0.45096502
221	0x3e6286f4	0.22121793
222	0xbdca5604	-0.098796874
223	0x3d4c4bf3	0.04987712
224	0x3e281971	0.16415955
225	0xbe23e8da	-0.16006795
226	0xbeaf38b4	-0.3422295
227	0x3dc7d44f	0.097572915
228	0x3c322b41	0.01087457
229	0xbef66d2e	-0.48130172
230	0x3f1a18e0	0.60194206
231	0x3edc7aa1	0.43062308
232	0x3e3d37d4	0.18478328
233	0x3f7a2422	0.97711384
234	0xbd1d93b2	-0.03847093
235	0x3e66ec43	0.22551064
236	0xbb84f9e6	-0.0040581105
237	0xbef17ca7	-0.47165415
238	0xbe31dfcd	-0.1737053
239	0xbf130426	-0.57428205
240	0x3eaed5aa	0.34147388
241	0x3f068597	0.5254759
242	0xbf4ca5c5	-0.79940444
243	0xbe3dcd19	-0.1853527
244	0xbd0a78de	-0.033806674
245	0xbde41d44	-0.111383945
246	0x3d6768ae	0.056496315
247	0x3ebacac6	0.3648283
248	0x3f0ee72b	0.55821484
249	0xbd699305	-0.057024974
250	0xbebd24b0	-0.36942053
251	0xbf0a658b	-0.5406119
252	0xbe85e044	-0.26147664
253	0x3e429a51	0.1900418
254	0x3e3ba3b9	0.18324174
255	0xbf62fa3e	-0.8866309

layers.1.bias f4 [16]
0	0xbe2fa61d	-0.17153211
1	0x3db0ac37	0.086265974
2	0x3de5c4d6	0.11219184
3	0x3d0b7a31	0.034052078
4	0xbe67d58f	-0.2264006
5	0x3dcd3180	0.10019207
6	0x3e82e5f6	0.2556607
7	0x3c9dccf7	0.019262774
8	0x3e54e857	0.20791756
9	0xbeadb01c	-0.33923423
10	0xbc72cd5b	-0.014819468
11	0xbe18af9d	-0.14910741
12	0x3e28d804	0.16488653
13	0xbe2ce485	-0.16884048
14	0xbd556c4c	-0.052105233
15	0x3da8a015	0.08233658

final.linears.0.weight f4 [96, 48]
0	0x3f4059ae	0.7513684
1	0xbf3a4cac	-0.7277324
2	0x3ba878a1	0.005141333
3	0xbdfd32d4	-0.1236321
4	0xbc4eb919	-0.012617373
5	0xbf904da8	-1.1273699
6	0x3f478cde	0.7794932
7	0x3ef9bb3e	0.48775667
8	0x3e801ada	0.25020486
9	0xbe56843e	-0.20948884
10	0x3d2ade42	0.041715868
11	0x3f3fe52b	0.7495906
12	0x3f730f22	0.94944966
13	0xbf828008	-1.0195322
14	0x3fb0bd7f	1.380783
15	0x3f5c1976	0.8597635
16	0x3d4f73ab	0.05064742
17	0xbc4c03b0	-0.012452051
18	0xbd5b94d1	-0.05360872
19	0x3d186ac2	0.037211187
20	0xbc157194	-0.009121317
21	0x3e2c23a2	0.16810468
22	0x3bee321d	0.0072691576
23	0xbdd47099	-0.10373039
24	0x3cc1c2f9	0.02365254
25	0xbd0854bc	-0.033283934
26	0xbd02e0a3	-0.03195251
27	0xbd4dbc85	-0.050228614
28	0x3e0fd82c	0.14047307
29	0x3dacef54	0.08444086
30	0xbde391de	-0.11111806
31	0xbd070d2d	-0.03297155
32	0x3db377a7	0.08763056
33	0xbdad70a1	-0.08468748
34	0x3b5a82da	0.0033342154
35	0x3d6bc9f5	0.057565648
36	0x3deec885	0.1165934
37	0xbcc0edf5	-0.023550967
38	0xbcd0d056	-0.025489967
39	0x3db8f839	0.0903172
40	0xbd9ec6c9	-0.07752759
41	0x3e00d7b7	0.12582289
42	0xbd841728	-0.06449729
43	0xbce602c1	-0.028077485
44	0x3d9d9147	0.07693725
45	0x3dc70ff7	0.09719842
46	0x3e1e86bd	0.15481086
47	0x3d59818b	0.053102057
48	0x3f96e026	1.1787155
49	0x3ae2eece	0.0017313601
50	0xbdc39bc3	-0.095511936
51	0xbec60559	-0.38675955
52	0xbef558ba	-0.47919255
53	0xbf46ff1b	-0.7773301
54	0xbeb304da	-0.3496464
55	0xbe81fa6d	-0.25386372
56	0xbf2ac70e	-0.66709983
57	0xbf19cb71	-0.6007605
58	0x3f087f7f	0.53319544
59	0xbf4c144d	-0.79718477
60	0xbf350158	-0.70705175
61	0x3ef8ca04	0.48591626
62	0x3f0f9c59	0.5609794
63	0xbe89bcad	-0.2690176
64	0xbde63f33	-0.11242523
65	0x3e772aff	0.24137495
66	0x3c3500ff	0.011047601
67	0x3e2637dd	0.16232248
68	0xbdb20060	-0.08691478
69	0xbe20c992	-0.15701893
70	0xbe0a1285	-0.13483627
71	0x3e750650	0.2392819
72	0x3d9b8572	0.07593812
73	0x3d4f3a05	0.05059244
74	0xbd178ce1	-0.036999587
75	0x3d4c9cab	0.049954098
76	0x3d71c982	0.059030063
77	0xbe1ad4b0	-0.15120196
78	0xbe4e636a	-0.20155111
79	0xbe835d2e	-0.25657028
80	0x3d6c5151	0.057694737
81	0xbd895361	-0.067053564
82	0xbd068cab	-0.032848995
83	0xbd4413d3	-0.04787047
84	0x3c4a2848	0.012338705
85	0xbe44251a	-0.19154778
86	0x3cea996d	0.028637612
87	0x3e63b9ca	0.22238842
88	0x3d285151	0.041093174
89	0xbd4ebc70	-0.050472677
90	0xbdebb9fd	-0.11510084
91	0x3b51a004	0.0031986246
92	0xbdbf6e16	-0.09347169
93	0xbd87d9a4	-0.066333085
94	0x3cc6747f	0.024225472
95	0xbd74f2aa	-0.059801735
96	0x3eaab6e4	0.3334266
97	0x3eb58f5e	0.35460943
98	0x3f15ee3a	0.5856663
99	0xbeedc37d	-0.46438208
100	0xbf0f9c50	-0.5609789
101	0x3dac4902	0.08412363
102	0x3dd55625	0.104168214
103	0x3dad3e0b	0.084590994
104	0xbea247da	-0.31695443
105	0xbe82683b	-0.25470147
106	0xbe569fc4	-0.20959383
107	0x3ea58fa9	0.32336167
108	0x3d05e91c	0.032693014
109	0xbe072d77	-0.13200937
110	0xbea73b37	-0.32662365
111	0xbe36930b	-0.1782953
112	0xbd8cf133	-0.068819426
113	0xbdcfa3ce	-0.10138665
114	0xbe7def24	-0.24798256
115	0xbdb3f788	-0.08787447
116	0x3cd0aa8c	0.025471948
117	0xbea7e041	-0.3278828
118	0x3e2c6132	0.16833952
119	0xbd0e32c0	-0.034716368
120	0xbdb8365e	-0.08994745
121	0x3cff6fcb	0.031181237
122	0x3e610825	0.21975763
123	0x3dec5a09	0.1154061
124	0x3da133f1	0.07871235
125	0xbe300c95	-0.171923
126	0x3df5f304	0.12009242
127	0x3e3238d1	0.17404486
128	0xbe134010	-0.14379907
129	0xbd05c108	-0.032654792
130	0x3e13189b	0.14364855
131	0x3e939593	0.28825054
132	0xbe9b81a7	-0.30372354
133	0x3db106e9	0.08643896
134	0x3e01935b	0.12653868
135	0x3dcda90d	0.100420095
136	0x3e84bc66	0.25924987
137	0x3d34c994	0.044137552
138	0x3d485bb7	0.04891559
139	0x3d2fed90	0.042951167
140	0x3ec6c393	0.38821086
141	0x3d3b2fee	0.045700006
142	0xbda086d2	-0.07838215
143	0x3e58962b	0.21151035
144	0xbe924150	-0.28565454
145	0xbf07a0f6	-0.5297998
146	0xbe81ecf8	-0.25376105
147	0x3f1adb3b	0.6049077
148	0xbe81f056	-0.25378674
149	0xbec6d720	-0.38836002
150	0xbf1c3383	-0.610161
151	0x3f108673	0.56455153
152	0x3eac7bc4	0.33688176
153	0xbe7ab6d9	-0.24483813
154	0xbd18831f	-0.03723442
155	0xbe75ea5b	-0.24015181
156	0x3ed3b633	0.41349944
157	0xbf2e7683	-0.68149585
158	0xbe970187	-0.29493353
159	0x3e5299e1	0.20566513
160	0x3db55fa2	0.08856131
161	0x3d8f69a5	0.07002572
162	0x3da7d31d	0.081945635
163	0x3e066675	0.13125022
164	0x3e275810	0.16342187
165	0xbc2b0f70	-0.010440692
166	0xbdf92037	-0.121643476
167	0xbd99fcb1	-0.075189
168	0x3e051f76	0.13000283
169	0x3ce0a370	0.027421683
170	0x3d98fd75	0.07470218
171	0xbcde3b68	-0.027127936
172	0x3db0e78f	0.08637916
173	0x3e4707d0	0.19436574
174	0xbe3c9e60	-0.1841979
175	0xbd64de01	-0.055875782
176	0xbd52198e	-0.051293902
177	0xbdbbab08	-0.09163481
178	0x3d8f8f8f	0.070098035
179	0x3e349706	0.17635736
180	0x3cba7644	0.022761472
181	0x3e3b4e37	0.18291555
182	0x3dd619ff	0.10454177
183	0x3e097fca	0.13427654
184	0x3e8123d4	0.25222647
185	0x3e00b409	0.12568678
186	0xbdaea83b	-0.08528181
187	0x3dc6c2fc	0.09705159
188	0x3de1c700	0.11024284
189	0xbc1ce8c6	-0.009576982
190	0xbdc4dcc3	-0.096124195
191	0x3d6af0cf	0.05735856
192	0x3d253306	0.040331863
193	0xbf52249b	-0.82087106
194	0x3ba255ed	0.004954091
195	0x3de04078	0.109497964
196	0xbe0dd484	-0.138506
197	0x3f895fa2	1.073231
198	0x3e513d49	0.20433535
199	0x3f2a40b1	0.6650496
200	0x3ec2b0a3	0.38025388
201	0xbf1c81b2	-0.611354
202	0x3f69d0f3	0.91334456
203	0x3f429474	0.7600777
204	0x3e0d55e2	0.13802293
205	0xbf3e0f15	-0.74241763
206	0xbe68b26f	-0.22724317
207	0xbf3808fe	-0.7188872
208	0xbcc59e4e	-0.024123337
209	0x3d5c13f6	0.053729974
210	0x3e3e0387	0.18556033
211	0x3e336a29	0.17520966
212	0xbd519b37	-0.051173415
213	0xbd808b2c	-0.06276545
214	0xbd8d77a2	-0.06907584
215	0xbdc21abb	-0.09477755
216	0xbd06c9ac	-0.032907173
217	0xbe514ed2	-0.20440224
218	0x3d7c7681	0.06163645
219	0xbe2975d7	-0.16548859
220	0xbcdbbb32	-0.02682266
221	0x3e5903b6	0.21192822
222	0x3c910175	0.01770089
223	0x3d86ccc3	0.06582024
224	0xbdf15c47	-0.11785179
225	0xbcb1a458	-0.02168481
226	0x3db71f37	0.08941501
227	0x3cb426e2	0.021991197
228	0xbaed8fd8	-0.0018124534
229	0xbc7f1f99	-0.015571498
230	0xbc558cf8	-0.013034098
231	0x3c9c10f0	0.019051045
232	0xbe0d7dee	-0.1381757
233	0xbc8f4edc	-0.017493658
234	0x3d0b1891	0.033958975
235	0xbcda8949	-0.02667679
236	0xbd91bf2d	-0.07116542
237	0x3c11f2a0	0.008907944
238	0x3d256d2d	0.04038732
239	0xbc7281a7	-0.014801419
240	0xbf5c3610	-0.8601999
241	0xbed42550	-0.41434717
242	0x3e784db0	0.24248385
243	0x3ce23e03	0.02761746
244	0x3ca2d40e	0.019876506
245	0x3f0a7173	0.5407936
246	0xbe9835e8	-0.29728627
247	0x3f3c4103	0.735367
248	0xbf24ca7a	-0.64371455
249	0x3e44cc1b	0.19218485
250	0xbeb3b07b	-0.3509558
251	0xbefb3869	-0.49066475
252	0xbf035396	-0.51299417
253	0x3ecc83ce	0.3994431
254	0x3cdbe9a1	0.026844801
255	0xbf86cc5a	-1.0531113

final.linears.0.bias f4 [96]
0	0x3df6345a	0.12021704
1	0xbcb580a6	-0.02215607
2	0x3de24ad4	0.110494286
3	0x3dc59a13	0.09648528
4	0x3e25da49	0.1619655
5	0xbe135926	-0.14389476
6	0x3e3d365c	0.18477768
7	0x3e48695f	0.19571446
8	0xbe030a78	-0.12796962
9	0x3e2c4d12	0.16826275
10	0x3e3fc0cf	0.18725894
11	0xbdf0f89a	-0.11766167
12	0xbcd00865	-0.025394628
13	0x3c087c71	0.00833045
14	0x3ea6ba18	0.32563853
15	0xbd8d0344	-0.068853885
16	0x3cd367cf	0.025806336
17	0x3de06dc8	0.10958439
18	0xbdbd55a5	-0.09244851
19	0x3e72c462	0.23707727
20	0x3e533166	0.20624313
21	0xbee93383	-0.45547113
22	0xbe0971c4	-0.13422304
23	0x3d555242	0.0520804
24	0x3d943e91	0.07238496
25	0xbf0ce1ac	-0.5503185
26	0x3e9a9ed4	0.301993
27	0x3e081509	0.13289274
28	0x3e3bf606	0.18355569
29	0x3e989b90	0.29806185
30	0x3ec1e3aa	0.37869006
31	0xbe92c54b	-0.28666148
32	0x3e9fa941	0.31183818
33	0x3dd719e5	0.10502986
34	0x3dc19665	0.094525136
35	0x3ef36ba5	0.47543064
36	0x3e5d3b16	0.21604571
37	0xbd801dd8	-0.06255692
38	0x3df8ec9c	0.12154505
39	0xbd5790ca	-0.052628316
40	0x3db673e2	0.08908822
41	0x3e0ecebc	0.1394605
42	0xbd1384e2	-0.0360154
43	0x3d7faf5f	0.062423106
44	0x3e922298	0.28542018
45	0x3ecd996e	0.4015612
46	0xbdb8d269	-0.090245076
47	0xbe001556	-0.12508139
48	0x3e17cb86	0.14823732
49	0xbe403208	-0.18769085
50	0x3e77de77	0.24205957
51	0x3c9ac12b	0.018890938
52	0x3d03d786	0.03218796
53	0x3e193072	0.14959887
54	0x3e447150	0.1918385
55	0x3db0a384	0.08624938
56	0xbe3a2de1	-0.18181564
57	0x3e1cad30	0.15300441
58	0x3eec8549	0.46195439
59	0xbce179f4	-0.027523972
60	0x3eb8452f	0.35990283
61	0x3e9f22e1	0.31081298
62	0x3eb32174	0.3498646
63	0xbe88a3d3	-0.26687488
64	0x3e4a3d1e	0.19749877
65	0xbef895a1	-0.48551658
66	0xbe513855	-0.20431645
67	0x3e30f264	0.17279965
68	0xbdec6509	-0.115427084
69	0x3a88bdfe	0.0010432599
70	0x3d9eaabc	0.07747409
71	0xbe9e5236	-0.30922097
72	0xb9ca8986	-0.00038630905
73	0xbe08bcfc	-0.13353342
74	0xbda3edb7	-0.08004325
75	0x3c187f11	0.009307639
76	0xbbe44018	-0.0069656484
77	0x3ee7d3fb	0.45278916
78	0x3d089ab7	0.033350673
79	0x3eab4507	0.334511
80	0xbdca3e98	-0.0987522
81	0x3e2730f6	0.16327271
82	0x3e7abfbb	0.24487202
83	0x3ea54993	0.32282695
84	0xbd854073	-0.06506433
85	0xbbe6b188	-0.0070402063
86	0xbe2c1630	-0.16805339
87	0x3e6c53bc	0.23078817
88	0xbea85885	-0.32880035
89	0x3dc44ddf	0.09585165
90	0xbc84e1ba	-0.016220916
91	0xbe0c06de	-0.13674495
92	0x3e3aab09	0.18229307
93	0xbe0acdba	-0.13555041
94	0x3caa581f	0.020793973
95	0x3e3191a4	0.17340714

final.linears.1.weight f4 [96, 96]
0	0xbea5076c	-0.32232225
1	0xbeac3342	-0.33632857
2	0xbe895d65	-0.26829067
3	0xbe8824ec	-0.2659067
4	0xbe0e1402	-0.1387482
5	0xbed0e8d4	-0.40802634
6	0x3e11dba9	0.1424395
7	0xbe6b5c64	-0.22984463
8	0xbe6385d6	-0.22219023
9	0xbd9db047	-0.07699638
10	0xbe3ca68d	-0.18422909
11	0xbe329b8b	-0.17442147
12	0xbeb457e7	-0.35223314
13	0xbe2e7701	-0.17037584
14	0xbe8e2c39	-0.27768114
15	0xbe5109e6	-0.20413932
16	0xbe5cb5e1	-0.21553756
17	0xbe255bec	-0.16148347
18	0xbd898269	-0.06714327
19	0xbe928c8f	-0.28622863
20	0xbe8f9343	-0.2804204
21	0xbd9c74dd	-0.076394774
22	0xbd987f02	-0.074461
23	0xbe5029d7	-0.2032846
24	0xbe8b931b	-0.2726067
25	0xbca4dfa4	-0.020126171
26	0xbe151b3f	-0.14561175
27	0xbebafbf0	-0.36520338
28	0xbe89fc54	-0.26950324
29	0xbe980e30	-0.29698324
30	0xbe7b7f94	-0.24560386
31	0xbe13b5b3	-0.14424782
32	0xbe6977da	-0.22799626
33	0xbda88b9a	-0.08229752
34	0xbe1b3ccb	-0.1515991
35	0xbdbf27ce	-0.09333764
36	0xbe44f7bf	-0.19235133
37	0xbe8574a2	-0.26065546
38	0x3d467299	0.048449133
39	0xbe3e0a74	-0.18558675
40	0xbeb20b6f	-0.34774348
41	0xbe87b779	-0.26507166
42	0xbf06871c	-0.5254991
43	0xbe36b14c	-0.17841071
44	0xbe6de2cb	-0.23231046
45	0xbea9aae7	-0.331382
46	0xbe51b10b	-0.20477693
47	0xbdedac57	-0.11605137
48	0xbe200fea	-0.1563107
49	0xbdde4914	-0.10853782
50	0xbe84cb12	-0.2593618
51	0xbe6a3eed	-0.22875567
52	0xbe1c79c1	-0.1528082
53	0xbf92f446	-1.1480796
54	0xbecb4340	-0.39699745
55	0xbc8666ab	-0.016406378
56	0xbde94b37	-0.11391299
57	0xbe6c51ed	-0.23078127
58	0xbe8c85ab	-0.2744573
59	0x3dd844bb	0.10559984
60	0xbe5725f2	-0.21010569
61	0xbe3f474c	-0.18679541
62	0xbe8f9cb8	-0.28049254
63	0xbdee8d5a	-0.116480544
64	0xbe8f4d81	-0.27988818
65	0x3dc38001	0.09545899
66	0xbe2a2640	-0.16616154
67	0xbe7083d5	-0.2348779
68	0x3db88bb1	0.09011019
69	0xbe8aaa40	-0.27083015
70	0xbdd40f92	-0.10354532
71	0xbd87b6c1	-0.066266544
72	0xbe13fdd9	-0.14452304
73	0xbe474575	-0.1946009
74	0xbedb22a5	-0.4279987
75	0xbd007747	-0.03136375
76	0xbe375eda	-0.17907277
77	0xbda03b2d	-0.07823787
78	0xbecdb55f	-0.40177438
79	0xbe5b2bd3	-0.21403436
80	0xbe5f50a4	-0.21808106
81	0xbe5c71fc	-0.21527857
82	0xbeada8e3	-0.33917913
83	0xbec72f79	-0.38903406
84	0x3cc2c2b5	0.023774484
85	0xbe1d7b57	-0.15379082
86	0xbec79fba	-0.3898905
87	0xbe8a5715	-0.27019563
88	0xbe7561b0	-0.23963046
89	0xbe2dc76c	-0.16970605
90	0xbe402181	-0.1876278
91	0xbd6ab9a6	-0.057305954
92	0xbeb1a695	-0.34697405
93	0xbe92af66	-0.28649443
94	0xbd51dc7c	-0.05123566
95	0xbde6e19c	-0.112735
96	0xbea5427b	-0.32277283
97	0xbe53933e	-0.20661637
98	0xbdc64f72	-0.09683122
99	0xbe144c41	-0.14482214
100	0xbe9167ad	-0.2839941
101	0xbedd2ce8	-0.43198323
102	0x3cdd7dde	0.027037557
103	0xbe47831d	-0.1948361
104	0xbe422e5a	-0.18962994
105	0xbe00384c	-0.12521476
106	0xbe8c19a0	-0.273633
107	0xbe17eeb7	-0.14837156
108	0xbeaf8b1f	-0.34285828
109	0xbd22a8a6	-0.039711617
110	0xbe7760c2	-0.24158004
111	0xbe2b76e1	-0.16744567
112	0xbdf43859	-0.1192481
113	0xbe3dd499	-0.18538131
114	0xbea751d5	-0.3267962
115	0xbe6e6e3a	-0.23284236
116	0xbde56498	-0.11200827
117	0xbe189edf	-0.14904355
118	0xbc45ef70	-0.012081012
119	0xbf0f5935	-0.55995494
120	0xbe917642	-0.28410536
121	0xbd002b99	-0.031291578
122	0x3c8a3d35	0.016874889
123	0xbe099cba	-0.13438693
124	0xbe890ca1	-0.26767448
125	0xbe791464	-0.24324185
126	0xbea7e347	-0.32790586
127	0xbe53ac9b	-0.20671313
128	0xbe21a9cd	-0.1578743
129	0xbe0f1d56	-0.13976035
130	0xbd8a6285	-0.06757072
131	0xbe040fe1	-0.12896682
132	0xbe8dddcb	-0.27708277
133	0xbdd86496	-0.1056606
134	0x3d40c96b	0.047067087
135	0xbe29cca9	-0.16581978
136	0xbe819405	-0.25308242
137	0xbe75eb53	-0.2401555
138	0xbe363234	-0.17792588
139	0xbe9da94c	-0.30793226
140	0xbe984b03	-0.2974473
141	0xbe8bb090	-0.27283144
142	0xbe7f95bd	-0.24959464
143	0xbe7948a4	-0.24344116
144	0xbb998856	-0.004685442
145	0xbde8f016	-0.11373918
146	0xbe7a0729	-0.24416794
147	0xbd9288fd	-0.07155035
148	0xbd8d108a	-0.0688792
149	0xbed4b8fa	-0.41547376
150	0xbe8fef05	-0.28112045
151	0xbda30f98	-0.07961959
152	0xbe311856	-0.1729444
153	0xbe177725	-0.14791544
154	0xbe62f1e5	-0.22162588
155	0x3c7210bb	0.014774497
156	0xbe8a3450	-0.26993036
157	0xbe4cc441	-0.1999674
158	0xbe3d36b8	-0.18477905
159	0xbecb64dc	-0.39725387
160	0xbe93f9f6	-0.28901643
161	0xbd8d68f2	-0.06904782
162	0xbe2d8fb8	-0.16949356
163	0xbea0ebd5	-0.31429926
164	0x3d18e654	0.037329033
165	0xbe502cf0	-0.20329642
166	0xbea7d009	-0.32775906
167	0xbc1a230d	-0.009407771
168	0xbe14942c	-0.14509648
169	0x3d5ee452	0.054416962
170	0xbea7b792	-0.3275724
171	0xbddd479c	-0.10804674
172	0xbcfaa28f	-0.030595092
173	0xbe598597	-0.21242367
174	0xbe71b45f	-0.23603962
175	0xbecdf299	-0.4022415
176	0xbe26f03a	-0.16302577
177	0xbe663c41	-0.22483923
178	0xbd202cb1	-0.03910512
179	0xbe579136	-0.21051487
180	0xbda1d047	-0.07901054
181	0xbed141bd	-0.40870467
182	0xbe32dd0d	-0.17467137
183	0xbe6d5017	-0.23175083
184	0xbdf179f4	-0.11790839
185	0xbe7c7670	-0.24654555
186	0xbda639de	-0.08116506
187	0xbd2ddda6	-0.04244771
188	0xbe4f34fb	-0.20235054
189	0xbe5a9d13	-0.21348982
190	0xbdc5581f	-0.096359484
191	0xbd9005e3	-0.07032373
192	0xbe01823b	-0.12647335
193	0xbd378498	-0.044804186
194	0xbcb584bb	-0.022158017
195	0xbdff9eb8	-0.12481445
196	0x3ddca501	0.107736595
197	0x3df6dc7a	0.12053771
198	0x3d8f0bda	0.069846824
199	0x3e1a4f08	0.1506921
200	0xbe074e4c	-0.13213462
201	0x3d992714	0.07478157
202	0x3db4f0df	0.08835005
203	0x3e80462b	0.25053534
204	0x3d2cb4ab	0.042164486
205	0xbe8162df	-0.25270745
206	0xbdfcbb5a	-0.12340422
207	0xbe0e1123	-0.13873725
208	0xbde518f6	-0.111864015
209	0x3d394a12	0.045236655
210	0xbd67f018	-0.056625456
211	0xbe8be630	-0.27324057
212	0xbdaa812e	-0.0832542
213	0x3ea039ae	0.31294006
214	0x3dbacc98	0.091210544
215	0xbe0f0188	-0.13965428
216	0xbd18fffb	-0.037353497
217	0x3d303bd4	0.043025807
218	0xbc91840c	-0.01776316
219	0x3c53251a	0.012887264
220	0xbdb79364	-0.089636594
221	0x3ea62bb1	0.3245521
222	0xbea9af2a	-0.33141452
223	0xbe09320d	-0.13397999
224	0xbbf159e5	-0.0073654526
225	0x3d2071d6	0.039171062
226	0x3e1d2ce7	0.1534916
227	0xbc22fcb6	-0.009947946
228	0x3e1371a5	0.1439882
229	0xbd60ee61	-0.054914836
230	0xbddb7420	-0.107155085
231	0x3d0c2cb5	0.034222323
232	0xbd540184	-0.051759258
233	0x3d02c806	0.03192904
234	0xbe82b0c1	-0.25525478
235	0xbe5440fc	-0.20727915
236	0xbc821850	-0.015880734
237	0x3d341b93	0.04397161
238	0x3d3c5912	0.04598338
239	0xbd7696c3	-0.06020237
240	0xbcd6b194	-0.026207723
241	0x3d8d07ab	0.06886228
242	0xbd326ce2	-0.04356087
243	0xbdedd007	-0.11611944
244	0xbdd1193b	-0.102098905
245	0xbd960768	-0.073256314
246	0x3e066fbf	0.13128565
247	0x3e262af6	0.16227326
248	0x3d3bf8d3	0.045891594
249	0xbd4366f4	-0.047705606
250	0x3c167be9	0.009184816
251	0x3e4d85c5	0.2007056
252	0xbdf945fa	-0.1217155
253	0xbd94e015	-0.07269303
254	0xbd315fc3	-0.043304216
255	0x3cd91d6c	0.026503287

final.linears.1.bias f4 [96]
0	0xbe054ddb	-0.13017981
1	0xbd2b41f7	-0.041810956
2	0x3dcee139	0.101015516
3	0xbb8668bc	-0.004101841
4	0xbe422877	-0.18960749
5	0xbea669a6	-0.32502478
6	0xbc6ad729	-0.014333525
7	0x3cc62884	0.024189241
8	0xbd8e2924	-0.06941441
9	0xbdff4685	-0.124646224
10	0x3d2063cf	0.039157685
11	0xbdcded79	-0.1005506
12	0x3c6e0a49	0.014528819
13	0xbd90070d	-0.07032595
14	0xbd467ba1	-0.048457745
15	0x3f24ef90	0.64428043
16	0xbdbd658e	-0.09247886
17	0xbc72010a	-0.014770756
18	0xbe01992c	-0.12656087
19	0xbdd66016	-0.10467546
20	0xbd8111d0	-0.063022256
21	0xbcaca3ba	-0.021074165
22	0xbcde2217	-0.027115865
23	0xbe00d9d3	-0.12583093
24	0xbe080d4c	-0.13286322
25	0x3dac191d	0.084032275
26	0xbe101414	-0.14070159
27	0xbe89891b	-0.26862416
28	0xbea9e0d2	-0.33179337
29	0x3cbf975d	0.023387605
30	0xbd658e5f	-0.05604398
31	0xbf0b07e9	-0.54308945
32	0xbe2e8eb0	-0.17046618
33	0xbe8363cf	-0.25662085
34	0xbe22ab72	-0.15885714
35	0xbe8b9aa2	-0.27266413
36	0xbd6a9f99	-0.05728111
37	0xbe6b42d6	-0.22974715
38	0xbea76743	-0.3269597
39	0x3d6f3bcd	0.05840664
40	0x3d3f5a57	0.046717014
41	0xbcec06fb	-0.028811922
42	0xbde77ca7	-0.113030724
43	0x3ed650f1	0.41858628
44	0xbdeaad71	-0.114588626
45	0xbd79e8b8	-0.061012954
46	0x3e3bd4e0	0.18342924
47	0xbd999d7b	-0.0750074
48	0xbe4066be	-0.18789193
49	0xbd68545b	-0.056721073
50	0x3d0cbc7e	0.034359448
51	0x3db45cc4	0.08806756
52	0xbe0f5d34	-0.14000398
53	0x3d1fb67a	0.038992383
54	0x3cf67054	0.03008286
55	0xbe2b1b5e	-0.16709659
56	0xbd6577f7	-0.05602261
57	0xbde7d491	-0.11319841
58	0xbdcfa2be	-0.101384625
59	0xbe28f3e2	-0.16499284
60	0xbe8677aa	-0.2626317
61	0xbc4093a8	-0.011753954
62	0xbe0c9d79	-0.13731946
63	0xbe216554	-0.1576131
64	0xbd8c7926	-0.06859045
65	0xbe753ff7	-0.23950182
66	0xbd97ebd5	-0.07418028
67	0xbdf70d85	-0.120631255
68	0x3b8f0ad4	0.0043653045
69	0xbd981376	-0.07425587
70	0xbe462867	-0.1935135
71	0xbcf1086c	-0.029422961
72	0x3dc062e8	0.09393865
73	0xbe2cb43f	-0.16865633
74	0xbdc689fa	-0.09694286
75	0xbd8f085c	-0.06984016
76	0xbe317ef1	-0.1733358
77	0xbe6ed161	-0.23322059
78	0xbe17f93c	-0.14841169
79	0xbdffa565	-0.124827184
80	0x3d875cb6	0.0660948
81	0x3d0b5b6b	0.03402273
82	0xbda2b98c	-0.079455465
83	0x3dd0f8ea	0.102037266
84	0xbdf91ba7	-0.121634774
85	0x3d8d6ea7	0.06905871
86	0xbeae37f1	-0.34027055
87	0xbd9304f0	-0.07178676
88	0x3bed7712	0.0072468603
89	0xbee022c5	-0.43776527
90	0xbd1430f4	-0.036179498
91	0xbdf72fd1	-0.12069667
92	0xbd08dd0f	-0.033413943
93	0xbd08a78e	-0.033362918
94	0xbe180b01	-0.14847948
95	0x3d9a0532	0.07520522

final.linears.2.weight f4 [16, 96]
0	0xbe4acb96	-0.19804224
1	0x3e808102	0.25098425
2	0xbde7164c	-0.1128355
3	0xbdb5631a	-0.08856793
4	0xbd8a7b6a	-0.067618206
5	0xbc60d650	-0.013722971
6	0x3e5ebcc0	0.2175169
7	0xbd1aadd6	-0.03776344
8	0xbbdceb8f	-0.006741948
9	0xbe4ecd71	-0.20195557
10	0x3df35f80	0.118834496
11	0xbd8afd0a	-0.067865446
12	0xbc344a45	-0.011004035
13	0x3e017bf4	0.1264494
14	0xbb6e0d92	-0.0036324007
15	0x3b3bd9ca	0.0028663748
16	0xbde38728	-0.111097634
17	0x3dcc25af	0.09968125
18	0xbd04689b	-0.032326322
19	0x3be5e330	0.0070156083
20	0xbd26db42	-0.040736444
21	0xbd2ce19e	-0.042207353
22	0xbe476ea1	-0.19475795
23	0x3eb714b4	0.35757983
24	0x3e2ed290	0.1707251
25	0x3dee9ab4	0.11650601
26	0xbee361b6	-0.44410485
27	0x3c09884c	0.008394312
28	0xbd75f266	-0.060045622
29	0x3a8991cd	0.0010495723
30	0xbd21c26c	-0.039492056
31	0x38a26d80	7.745158e-05
32	0xbe576b67	-0.21037064
33	0x3dcdf18d	0.10055838
34	0xbd5a9b5f	-0.05337083
35	0x3ea2ab4a	0.31771308
36	0x3df31c0b	0.11870583
37	0x3e63bd36	0.22240147
38	0xba1aa255	-0.0005898823
39	0xbdf50f2d	-0.11965785
40	0x3c061a48	0.008184977
41	0xbd34f661	-0.044180278
42	0xbeb0e36c	-0.3454851
43	0xbb901c36	-0.0043978943
44	0xbe384b78	-0.17997539
45	0xbdf3034a	-0.11865862
46	0xbc266042	-0.010154786
47	0xbca470a0	-0.020073235
48	0x3e078c0c	0.13237017
49	0x3c90f3b9	0.017694341
50	0x3cc081c2	0.023499373
51	0x3bfddd26	0.00774731
52	0x3ed9c9cd	0.42536774
53	0xbd69a834	-0.057045177
54	0x3c1768d1	0.009241299
55	0xbe9fc4db	-0.31204876
56	0x3d204057	0.03912386
57	0x3caf4d8c	0.021399282
58	0xbd057ce2	-0.0325898
59	0x3d20d058	0.039261192
60	0xbe6c44ef	-0.23073171
61	0xbdbdd925	-0.09269933
62	0xbe9fdbef	-0.31222484
63	0x3d000d3e	0.03126263
64	0x3e474c1c	0.19462627
65	0xbdb93fbd	-0.0904536
66	0x3deb588e	0.114915
67	0xbd04bd71	-0.032407228
68	0xbdb9c434	-0.09070626
69	0x3d727e99	0.059202764
70	0x3dfe3361	0.124121435
71	0x3cbe9670	0.023265094
72	0xbd41cfe6	-0.047317408
73	0xbd5eed93	-0.054425787
74	0x3d32cc3c	0.043651804
75	0x3d200593	0.039067816
76	0x3e65d1f2	0.22443369
77	0x3daac944	0.083391696
78	0xbbb7600b	-0.005596166
79	0xbe03af58	-0.12859857
80	0xbe0633b7	-0.13105665
81	0xbc8ba65d	-0.017047102
82	0x3e0c9061	0.13726951
83	0x3cb30893	0.021854674
84	0x3d1f339c	0.038867578
85	0x3dcbc9e9	0.09950621
86	0x3be2f600	0.006926298
87	0x3a0648d0	0.0005122544
88	0xbde1e8c0	-0.11030722
89	0x3c89c6a9	0.016818361
90	0xbd687154	-0.056748703
91	0x3e1ae4aa	0.15126291
92	0x3e1abc83	0.15110974
93	0x3b91cfb5	0.0044498094
94	0x3b84cc75	0.0040526935
95	0x3d7b9633	0.061422538
96	0x3e7556f5	0.23958953
97	0x3e6d0ffe	0.23150632
98	0x3dafc360	0.08582187
99	0x3de1d808	0.11027533
100	0xbd4ba991	-0.049722258
101	0xbae83732	-0.0017716645
102	0xbd5ea6b9	-0.054358218
103	0x3c982385	0.018571625
104	0xbe27e5f5	-0.16396315
105	0x3d82d96b	0.063891254
106	0x3de36c0d	0.111045934
107	0x3de3e0ee	0.11126886
108	0xbcde7b10	-0.02715829
109	0xbe30c733	-0.17263488
110	0x3e24c229	0.16089691
111	0xba4a18b0	-0.0007709367
112	0x3eb4562c	0.35221994
113	0x3d63acb9	0.055584643
114	0xbea5ef8d	-0.32409325
115	0x3dce5682	0.10075094
116	0x3d953f20	0.07287431
117	0xbe4f5040	-0.20245457
118	0x3d433dd7	0.047666397
119	0xbdbb5a3e	-0.09148072
120	0xbc3f3423	-0.011670145
121	0xbce5324b	-0.027978083
122	0xbde7b293	-0.11313357
123	0x3b8ed6f5	0.004359121
124	0x3defe3cc	0.11713371
125	0x3d2eb7ca	0.042655744
126	0x3d168cc1	0.036755327
127	0x3a3e1202	0.0007250608
128	0xbd55cfd2	-0.052200146
129	0xbe073162	-0.13202432
130	0x3ef44e4b	0.47715983
131	0x3dc7db1d	0.097585894
132	0xbdecd20c	-0.11563501
133	0xbe008cec	-0.12553757
134	0xbc659a9a	-0.014013911
135	0xbd5f6254	-0.054537132
136	0xbc9c39d9	-0.019070553
137	0xbd85042c	-0.06494936
138	0x3e4477a3	0.19186263
139	0x3c3f44e2	0.011674138
140	0xbdb772ed	-0.08957467
141	0xbec49784	-0.38396847
142	0x3bc86f1a	0.00611676
143	0xbcee0665	-0.029055784
144	0x3dd7484b	0.10511836
145	0xbe1b9d86	-0.15196809
146	0xbda74980	-0.08168316
147	0x3e45c9d4	0.19315273
148	0x3bb21d67	0.005435634
149	0x3d9bd83b	0.07609602
150	0xbba04465	-0.0048909658
151	0xbe4735c5	-0.19454105
152	0xbd6af149	-0.057359014
153	0xbb18567e	-0.0023244913
154	0xbd86d159	-0.06582899
155	0x3d67a6fb	0.05655573
156	0x3c835dbd	0.016035909
157	0x3ca1da92	0.019757543
158	0xbe9dc0c4	-0.3081113
159	0xbd4e3365	-0.050341982
160	0x3e089387	0.13337527
161	0x3e8b8bd5	0.2725512
162	0x3e83d595	0.25748888
163	0xbd39762f	-0.045278724
164	0x3db7acef	0.08968531
165	0xbd63fdae	-0.05566185
166	0xbd988ce7	-0.0744875
167	0x3d9ef2ee	0.07761179
168	0x3d4bc3de	0.04974734
169	0x3e90a0c7	0.28247663
170	0x3deb644e	0.11493741
171	0xbcd56f73	-0.02605412
172	0xbde14706	-0.10999875
173	0xbe00e989	-0.12589087
174	0x3b0f31cd	0.0021849752
175	0x3b0b4e03	0.0021256215
176	0xbdf83fae	-0.12121521
177	0x3c1fb934	0.009748746
178	0x3d8d1142	0.06888057
179	0xbcfbb7c2	-0.030727271
180	0xbec768f4	-0.3894726
181	0xbdc40726	-0.09571676
182	0x3c73331c	0.014843728
183	0x3ca2b326	0.019860815
184	0xbd341476	-0.043964826
185	0x3c3c2252	0.011482792
186	0xbd49b9b3	-0.049249362
187	0xbe20d9ae	-0.15708038
188	0xbd4f63a6	-0.05063214
189	0xbbf4fbb4	-0.0074762944
190	0xbc9f3cd3	-0.019438183
191	0x3d8fef83	0.07028105
192	0xbaf7e5fc	-0.0018913145
193	0xbdc13668	-0.09434205
194	0xbc363891	-0.011121885
195	0x3da871ed	0.082248546
196	0x3d28d635	0.04121991
197	0x3e2316cd	0.15926667
198	0x3db0c980	0.08632183
199	0x3ccbc2d5	0.024873177
200	0x3d8d383a	0.0689549
201	0xbca51b91	-0.020154746
202	0xbd505f48	-0.050872117
203	0x3da5e4b5	0.08100263
204	0xbda21f5b	-0.07916137
205	0xbe1b3ff3	-0.15161113
206	0x3d9f64ec	0.07782921
207	0xbf4931ef	-0.7859182
208	0xbe0353de	-0.12824962
209	0x3d86a866	0.06575088
210	0x3d000986	0.031259082
211	0x3dc77dbe	0.0974078
212	0x3d97dd86	0.07415299
213	0x3db23cb7	0.08702987
214	0xbd5418f3	-0.051781606
215	0xbe0dd4fe	-0.13850781
216	0xbe10ac93	-0.14128332
217	0xbd760575	-0.060063798
218	0xbeab74c2	-0.33487517
219	0x3ddc825b	0.10767051
220	0x3eadbba5	0.33932224
221	0x3b1ca44d	0.0023901642
222	0x3d6ca677	0.05777594
223	0x3f0c5de6	0.5483078
224	0xbd117ced	-0.03551953
225	0x3d96cfe3	0.0736387
226	0xbe5d1ff2	-0.21594217
227	0x3da95c1a	0.0826952
228	0x3d415bc8	0.04720667
229	0x3e592a94	0.21207649
230	0x3e11092b	0.14163654
231	0xbc86c000	-0.016448975
232	0xbdcb3d05	-0.09923748
233	0x3ce812a6	0.028329205
234	0x3e0719d8	0.13193452
235	0xbd248762	-0.040168174
236	0x3d78de38	0.0607588
237	0xbe14e05a	-0.14538708
238	0x3f2535d7	0.6453528
239	0x3b8ee9c3	0.0043613627
240	0x3e35bad6	0.17747054
241	0xbd0f87d1	-0.035041634
242	0xbcfe272c	-0.031024538
243	0xbd941562	-0.07230641
244	0xbd6eaac3	-0.05826832
245	0x3d652bd8	0.055950016
246	0x3d0a3598	0.033742517
247	0xbd728592	-0.059209414
248	0xbcf575c2	-0.029963378
249	0x3ceccf5f	0.028907476
250	0x3bf73382	0.007543982
251	0x3d023b3c	0.03179477
252	0x3e2c82b6	0.16846737
253	0x3d9809f8	0.074237764
254	0xbc1efbe6	-0.009703612
255	0x3de73ba1	0.1129067

final.linears.2.bias f4 [16]
0	0x3c29ee76	0.010371795
1	0xbd477e9a	-0.04870472
2	0x3db3f61a	0.087871745
3	0xbe913c3d	-0.2836627
4	0xbd4eedc0	-0.050519705
5	0x3dabfd9b	0.08397981
6	0x3c1eaf28	0.009685315
7	0x3cef9c7c	0.029249422
8	0xbd133494	-0.035938814
9	0x3dbd17e3	0.09233072
10	0x3ca919a4	0.02064211
11	0x3c8abb5c	0.016935043
12	0x3c80c5de	0.01571935
13	0xbbc47824	-0.005995767
14	0xbd325628	-0.043539196
15	0xbce31d2c	-0.027723871

layers.0.attn.0.gnn_q.weight f4 [16, 16]
0	0xbb7bd9d7	-0.0038429403
1	0x3b4f809f	0.0031662358
2	0x3ba7b6ab	0.0051182113
3	0xbb8614cc	-0.0040918346
4	0x3bae816d	0.0053254873
5	0xbb1a12eb	-0.002350981
6	0xbb0c5dee	-0.002141829
7	0x3b38a88b	0.0028176631
8	0xb96731ce	-0.0002204843
9	0x3cc32e06	0.023825657
10	0x3b6f8469	0.0036547428
11	0xbc0d8d87	-0.0086397
12	0x39cff464	0.00039664202
13	0xbbbad1bf	-0.005701273
14	0xbbecb75b	-0.007224006
15	0x3b88ef91	0.004178949
16	0xbd906518	-0.07050532
17	0x3caba0cb	0.020950695
18	0x3d8b0644	0.067883044
19	0x3cd111ed	0.025521243
20	0x3d0bbf52	0.034118004
21	0xbd4cbe9f	-0.049986478
22	0xbca056e4	-0.019572683
23	0xbbdfa7b9	-0.006825414
24	0x38237e62	3.897993e-05
25	0xba07ccdc	-0.0005180368
26	0x3cc1f917	0.023678346
27	0xbd393cb3	-0.045223903
28	0x3c81613f	0.01579344
29	0x3c95f3b7	0.018304689
30	0xbd8aedf6	-0.06783669
31	0xbc049427	-0.008091963
32	0xbe5f8a02	-0.2182999
33	0xbdf28be7	-0.118430905
34	0x3e7febee	0.24992344
35	0xbe0415c7	-0.12898932
36	0x3d9a9b5a	0.07549162
37	0xbe77e24d	-0.2420742
38	0xbcd93e22	-0.026518885
39	0x3d5422e3	0.051791083
40	0x3b63e550	0.0034774132
41	0xbe7b1991	-0.24521472
42	0x3d638947	0.05555084
43	0xbe0778e8	-0.13229716
44	0x3ce5be71	0.028044911
45	0x3e1fc956	0.15604147
46	0xbe8cc9b3	-0.27497634
47	0x3b97cd91	0.0046326597
48	0xbe2a0569	-0.16603626
49	0x3d30320e	0.043016486
50	0x3e33d8f3	0.17563228
51	0x3d88866c	0.06666264
52	0x3db3db43	0.08782055
53	0xbe4d0955	-0.20023091
54	0xbcf2d345	-0.029641757
55	0x3cba8a9f	0.022771178
56	0x3b998168	0.004684616
57	0xbdd73e0d	-0.10509882
58	0x3d93ccd7	0.072168045
59	0xbe0119a8	-0.12607443
60	0x3d2afedb	0.041746955
61	0x3dee6a8d	0.11641417
62	0xbe4efe92	-0.20214298
63	0x3b7aa968	0.0038247947
64	0xbce7c8ec	-0.02829405
65	0x3bb66f59	0.005567473
66	0x3d03e56b	0.032201212
67	0x3c5b64df	0.013390749
68	0x3c857385	0.016290436
69	0xbc6dc9ab	-0.014513413
70	0xbb26a308	-0.0025426764
71	0x3c4cb90a	0.012495289
72	0x3afaf2b6	0.001914582
73	0x3cc73e7f	0.024321793
74	0x3c3a1c33	0.011359262
75	0xbc4d92b4	-0.012547184
76	0x3bf9f6f2	0.007628315
77	0x3cc68084	0.024231203
78	0xbc91f31c	-0.017816119
79	0x3bc40e3d	0.0059831426
80	0x3c41f621	0.011838467
81	0x3881492a	6.164827e-05
82	0xbb3bc6d2	-0.0028652442
83	0xbb0c2695	-0.0021385301
84	0xbb42724f	-0.0029670184
85	0x3c15ef97	0.009151361
86	0x3b683c9d	0.003543652
87	0x3c082a44	0.008310858
88	0x3ae3f552	0.0017391837
89	0x3cba72b8	0.02275978
90	0x38330d50	4.2689324e-05
91	0x3b19cbc0	0.0023467392
92	0xbb10ce38	-0.0022095572
93	0x3bdd0f9b	0.006746245
94	0x3c324445	0.010880535
95	0x3b64abee	0.0034892517
96	0x3c669aa6	0.014074957
97	0xbc3bbb68	-0.011458255
98	0xbc8cc046	-0.017181527
99	0xbc57e879	-0.013177984
100	0xbc4db7b3	-0.012556004
101	0x3c940efc	0.018073551
102	0x3bb9ad06	0.005666378
103	0xb992e20a	-0.00028015702
104	0xba6ee2d7	-0.0009112781
105	0x3c38e449	0.011284896
106	0xbc1d68c7	-0.0096075
107	0x3c8b753d	0.017023677
108	0xbbf1f7b2	-0.007384264
109	0xbc6291a6	-0.013828671
110	0x3cc76207	0.024338735
111	0x3b0d42a3	0.002155461
112	0x3d45c49e	0.048283212
113	0xbcc7df46	-0.024398457
114	0xbd3e63cb	-0.04648189
115	0xbd00afaa	-0.031417526
116	0xbc6f76ec	-0.0146157555
117	0x3d01319f	0.031541463
118	0x3c335694	0.010945935
119	0x3c2d0137	0.010559372
120	0x393aeaaf	0.00017825769
121	0x3d0da374	0.03457971
122	0xbb470fa3	-0.003037431
123	0x3ce669a2	0.028126542
124	0xbbc606af	-0.006043277
125	0xbb8db84a	-0.0043249475
126	0x3d3ed24e	0.04658728
127	0x3ae41fa9	0.0017404455
128	0x3d9b0676	0.07569592
129	0xbc63de1e	-0.013907937
130	0xbd9cae0a	-0.07650383
131	0xbc93f9e4	-0.018063493
132	0xbd7089a1	-0.058725003
133	0x3da1b987	0.07896715
134	0x3cdc546d	0.026895726
135	0x38f7905a	0.000118047654
136	0xbb051ec6	-0.0020312532
137	0x3d819e7f	0.06329059
138	0xbd4361a9	-0.047700558
139	0x3d82722f	0.06369435
140	0xbcd7ed82	-0.02635837
141	0xbd5e530f	-0.05427843
142	0x3d9f0d53	0.07766213
143	0x3c2e18c6	0.010626024
144	0x3b301568	0.0026868228
145	0x3c3067dd	0.01076695
146	0x3a80a8ca	0.0009815928
147	0x3c76d724	0.015065942
148	0xbc27ae2d	-0.010234398
149	0x3c58834a	0.0132148955
150	0x3b8d49af	0.0043117623
151	0xbb08e1fa	-0.0020886646
152	0xba857f98	-0.0010185121
153	0x3c86f3cc	0.016473673
154	0xbc215750	-0.009847477
155	0x3b8467bc	0.0040406864
156	0xbb87a55d	-0.004139586
157	0xbc9cf798	-0.01916103
158	0xbab8f2ee	-0.0014110485
159	0x3bab734d	0.005232251
160	0x3cd4cd0f	0.025976686
161	0x3c65ee3e	0.014033852
162	0xbd13a3cb	-0.036044877
163	0x3b8a64c1	0.0042234366
164	0x3a9be5ee	0.0011894086
165	0x3d36b10c	0.04460244
166	0xbb1c8ec5	-0.0023888808
167	0xbc710794	-0.014711279
168	0xba2f1b22	-0.00066797633
169	0x3d917da4	0.07104042
170	0xbacf5a0a	-0.001581968
171	0x3c895acb	0.016766926
172	0xbb356b3f	-0.0027682332
173	0xbd28e843	-0.041237127
174	0x3d587fad	0.052856136
175	0xbc02067f	-0.007936119
176	0x3cf715f7	0.03016184
177	0x3c301505	0.010747199
178	0xbd00cce0	-0.031445384
179	0x3b12bbf8	0.002238987
180	0xbcd69cfa	-0.0261979
181	0x3d539a07	0.051660564
182	0x3c0804d4	0.008301932
183	0xbc7425df	-0.014901607
184	0xbaba69b5	-0.0014222177
185	0x3ce6ac57	0.02815835
186	0xbcaad66a	-0.020854194
187	0x3d190301	0.03735638
188	0xbc4405b1	-0.011964248
189	0xbd41d382	-0.04732085
190	0x3d2a743c	0.041614756
191	0xbba6438e	-0.005073971
192	0x3d370bc1	0.044688944
193	0x3c9def93	0.019279277
194	0xbd56b284	-0.05241634
195	0x3c35128b	0.011051784
196	0xbd11889e	-0.03553068
197	0x3d8f3e61	0.0699432
198	0x3c38aae6	0.011271214
199	0xbcfc091a	-0.030766059
200	0xbb36318a	-0.0027800524
201	0x3d583373	0.05278344
202	0xbd0362db	-0.032076698
203	0x3d54e741	0.051978353
204	0xbc730ee8	-0.014835097
205	0xbd716c1e	-0.058941
206	0x3d8055fc	0.062664
207	0xbc350634	-0.011048842
208	0xbd19e27d	-0.03756951
209	0xbb9fe7af	-0.0048799138
210	0x3d361050	0.04444915
211	0x3bc56202	0.0060236463
212	0x3cfd7d0f	0.030943422
213	0xbd4737d8	-0.04863724
214	0xbc6f4b60	-0.014605373
215	0x3c89e200	0.016831398
216	0x3b2c26be	0.002626821
217	0xbd8a19f9	-0.06743235
218	0x3ce0ab42	0.027425412
219	0xbd0bcc3b	-0.034130316
220	0x3c62e5fd	0.013848779
221	0x3d41fbd0	0.047359288
222	0xbd3dc6ab	-0.046332043
223	0x3b078e5c	0.0020684218
224	0x3cd03db7	0.025420053
225	0xbc8b3cb6	-0.016996723
226	0xbca8559d	-0.020548636
227	0xbc9af727	-0.01891668
228	0xbc92101e	-0.01782995
229	0x3c7e0700	0.015504599
230	0x3c2e2db3	0.010631013
231	0x3bce07a0	0.00628753
232	0xb8b13c3d	-8.451238e-05
233	0x3b2e2cef	0.0026577075
234	0xbc3a588e	-0.011373652
235	0x3ce2d87d	0.02769112
236	0xbbe2a958	-0.00691716
237	0x39c32906	0.00037223863
238	0x3cb6dd49	0.022322314
239	0x3babad1d	0.0052391426
240	0xbc4e68b7	-0.012598208
241	0xbbd87504	-0.006605746
242	0x3c7c9573	0.015416491
243	0xbc2a5eb3	-0.010398555
244	0x3c8b914f	0.017037062
245	0xbca05cec	-0.019575559
246	0xbc06beba	-0.008224184
247	0x3b7da537	0.0038703212
248	0x3a4e8581	0.000787817
249	0xbc42a9f8	-0.011881344
250	0x3c69f332	0.014279174
251	0xbc8ec6d2	-0.01742879
252	0x3bbd4df8	0.005777117
253	0x3c78fa78	0.015196435
254	0xbc8a133f	-0.01685488
255	0xbb0050af	-0.0019579341

layers.0.attn.0.gnn_q.bias f4 [16]
0	0xbe268638	-0.16262138
1	0x3d810345	0.06299452
2	0x3def4f46	0.11685042
3	0x3ce51789	0.027965324
4	0x3da6d84f	0.08146726
5	0xbdce6696	-0.100781605
6	0xbce80986	-0.028324854
7	0xbd3b1b84	-0.045680538
8	0xbb413f26	-0.0029487102
9	0x3ccb4ada	0.024815965
10	0x3ce33aab	0.027737936
11	0xbe048f5c	-0.12945312
12	0x3ba8bd2c	0.005149504
13	0xbcf579da	-0.02996533
14	0xbe00d1cf	-0.12580036
15	0xbc6f36a8	-0.014600433
