checkpoints/cyp1a2_veith_33_train1_pos/Aug31-03:01:15_700.pth (torch, 415238 bytes, 294 tensors)

layers.0.weight f4 [16, 16]
000000 db 39 5c be 05 ab aa 3d 41 5e 58 bd 12 2c 60 3e
       -0.21506445 0.08333401 -0.052824263 0.21891811
000010 01 5b ba bf 9e 83 28 ba 4c 1d 7e bd 29 41 00 3f
       -1.4559022 -0.0006428304 -0.06203966 0.50099427
000020 09 4d 50 3e 0c f8 09 bf ed a9 ac 3f 6f fc bc 3f
       0.20341887 -0.53894114 1.3489357 1.4764537
000030 46 8e 68 3f fb 2d 4e be 50 e5 32 3f 00 3c 86 be
       0.9084209 -0.20134728 0.69881153 -0.2621765
000040 15 89 a6 3e a0 c9 13 3e 4a 20 c5 be cb 50 8c be
       0.3252646 0.14432383 -0.38501197 -0.2740539
000050 3c c5 bb 3f eb 45 bd bc 79 6e ce be aa 8f 2f 3f
       1.4669566 -0.023104629 -0.4031866 0.6857859
000060 64 c8 44 bf 53 5e c2 bf 06 24 71 bb 39 36 cd bf
       -0.7686827 -1.5185035 -0.0036795153 -1.6032172
000070 8e 84 fa bb 38 bb 08 c0 cf 25 f0 3f 1d f9 f8 bf
       -0.0076451963 -2.136427 1.8761538 -1.9451023
000080 f3 c3 0d 3c 89 f3 8a bd 78 9a 19 be 31 3c 4e bc
       0.008652675 -0.06784732 -0.15000331 -0.012587593
000090 4a 15 41 3d ef 7b b0 3b 74 b2 96 3d 8c 93 91 be
       0.047139443 0.005385868 0.07358256 -0.28432882
0000a0 bc f6 69 bd cf c5 c6 bc ab a6 8c 3e bb 2c 59 bc
       -0.05712007 -0.024264244 0.27470908 -0.0132552935
0000b0 59 7f 42 3e 74 28 44 be c7 7e ca 3d d4 b8 f5 3c
       0.18993892 -0.19156057 0.09887462 0.02999536
0000c0 c6 6a ce bb c9 dc 28 bd 96 cf 38 bd c2 0e 35 bd
       -0.0062993495 -0.041226182 -0.045119844 -0.044203527
0000d0 e6 22 f5 3c 59 99 1c bc 02 32 18 3d 27 58 8c be
       0.029923867 -0.009558045 0.037157066 -0.27411005
0000e0 39 3e a4 bd 3b 6d 1a bd 24 b4 86 3e 54 b8 67 bc
       -0.080196805 -0.037701827 0.2630931 -0.014143068
0000f0 3f ff 41 3e 4c b0 24 be 74 35 a0 3d 4e ca fb bb
       0.18945025 -0.16082877 0.078226954 -0.0076840287
000100 dd 4e 2c bc 0c c1 14 bc 4d f8 bc bc eb f2 f8 bc
       -0.010516849 -0.009079229 -0.023067618 -0.03038927
000110 e7 fb 13 3d 25 4a 2e bc 83 37 0c 3d 34 f0 64 be
       0.036128905 -0.010637795 0.034232628 -0.22357255
000120 d9 05 90 bd ae 29 22 bd 92 c1 84 3e a1 3c 68 bc
       -0.07032365 -0.03959053 0.25928932 -0.014174611
000130 59 b7 2a 3e 71 5d e5 bd 8c 44 a1 3d ce 2a f9 3c
       0.16671504 -0.11199463 0.078744024 0.030415919
000140 88 24 4b 3c d1 dc ca bb a7 c9 52 3d 28 2a 6a bc
       0.012398846 -0.006190874 0.051461842 -0.014292277
000150 1d d4 32 3d 94 28 10 bc e8 73 15 3d 36 d4 99 bd
       0.04365932 -0.008798737 0.03648749 -0.07511179
000160 34 0c e2 bc 32 50 92 bd ff 3a 95 3e c7 81 37 bd
       -0.02759371 -0.07144202 0.29146573 -0.0448015
000170 71 bc 39 3e 0c 3f dc 3d 8d e2 c0 3d 5c 8d 09 3e
       0.18138291 0.10754213 0.09418211 0.1343283
000180 70 10 1f 3d db f6 cb bd b2 59 46 3d 66 1b 81 3b
       0.038834035 -0.09959193 0.048425384 0.0039400337
000190 c0 bb 60 bf 78 22 07 bb cb a3 d1 3d 0d 72 24 bf
       -0.87786484 -0.002061991 0.10236319 -0.6423653
0001a0 9f f5 19 be ba 72 ca bf 1c b5 f0 bf e0 e9 78 3f
       -0.15035103 -1.5816262 -1.880527 0.97231865
0001b0 3d 72 9e bf 62 17 b1 3e 7c 5d f8 3f 92 21 ca 3e
       -1.2378613 0.34588152 1.9403529 0.39478737
0001c0 a4 88 71 3e e4 09 c3 bc 9f 9b 0e be 7c 50 42 be
       0.2358728 -0.023808427 -0.13926552 -0.18976015
0001d0 9f 85 57 3f 1a 3f 8a 3b c8 c0 f0 bd 8a 7e 01 bf
       0.84188265 0.004218948 -0.1175552 -0.5058371
0001e0 62 ff 27 bf ad 90 99 be f8 70 ac bf ce eb 5f bf
       -0.6562406 -0.2999319 -1.3471975 -0.87469184
0001f0 f0 28 6c bf 7d b9 68 bf f2 a2 bb 3e 53 86 31 bf
       -0.92249966 -0.9090803 0.36647755 -0.6934559
000200 53 00 7f 3d c1 06 6e 3d 39 f9 12 be d0 58 11 bc
       0.06225617 0.05811191 -0.14352883 -0.008871272
000210 15 82 fb be 7f eb 64 bc fb e0 1b be ff 46 59 3e
       -0.49122682 -0.013972162 -0.15222542 0.21218489
000220 6f 32 e4 be aa c3 f2 bf 6e 57 2c 3f 28 e1 ef 3e
       -0.44569728 -1.8965962 0.6732091 0.46851468
000230 12 32 d5 3e cc ff 65 bf 72 38 16 40 94 3e 47 bf
       0.41639763 -0.8984344 2.3471951 -0.7782986
000240 0f 7a b8 3c 4e 97 9a bc 84 3c 7f 3c 48 4f 6e bb
       0.02251914 -0.018870976 0.015578393 -0.0036363173
000250 2d e5 65 3d fb b6 66 bb 3b f9 ab 3c fd 0b 4a be
       0.056126762 -0.003520428 0.020992866 -0.19731136
000260 7e 77 03 be 7c f6 b2 bd 56 07 c4 3e 42 1c 3c bd
       -0.12838551 -0.087384194 0.38286847 -0.045925386
000270 75 91 79 3e f6 bd e0 bc 32 9e 01 3e 7b 16 ee 3c
       0.24371894 -0.02743433 0.12658003 0.029063454
000280 84 2f 8a 3c 30 2e 0a 3c e2 99 2a 3d f7 86 97 bb
       0.01686836 0.0084338635 0.04165066 -0.0046242434
000290 eb 76 6e 3d 6e 53 0c bc c8 ac cc 3c 35 bc 99 3d
       0.058218878 -0.008564813 0.024984732 0.07506601
0002a0 5c ea 5a 3c 95 b6 b8 bd e7 de 5d 3e 83 93 1d bd
       0.01336154 -0.090192 0.21667062 -0.038470756
0002b0 52 57 ff 3d 79 cc 3d 3e 16 3b fa 3d 66 9d f3 3d
       0.12467827 0.18535031 0.12218301 0.11895256
0002c0 a0 11 b6 3d 5e ae 0f be 5e 19 3c 3e f8 cd 9b bd
       0.088900805 -0.1403136 0.18369052 -0.07607645
0002d0 64 87 1b 3f 22 1a c9 3c fb 08 3a 3e b1 0d 45 bf
       0.60753465 0.024548594 0.18167488 -0.76974016
0002e0 f3 61 b6 be 56 93 82 3e 1e a2 63 3f 0e dd 17 bf
       -0.35621604 0.25503033 0.88919246 -0.5932168
0002f0 a6 f9 14 3f f5 03 60 3f e2 71 9d be 7b 47 5a 3f
       0.58193433 0.8750604 -0.30750948 0.8526532
000300 8f 8a 78 bd 42 6d 56 3e b3 b3 a1 be 09 78 c2 3d
       -0.060679015 0.20940116 -0.31582412 0.09495551
000310 92 5d 93 be 8f 80 10 bd e5 7d b6 be 35 21 08 3f
       -0.28782326 -0.035278853 -0.35642925 0.5317567
000320 e1 ad e8 be 30 43 da 3e df dc e2 3f 05 7a 87 3e
       -0.4544516 0.42629385 1.7723655 0.2646028
000330 90 6e 97 3f 5d 94 f3 bf 64 dc 00 bf 08 6b db bf
       1.1830616 -1.9029652 -0.5033629 -1.7142038
000340 e7 32 9b be fa f5 ca 3d b3 8a 85 bd 81 3b 98 3e
       -0.30312273 0.099101976 -0.065205954 0.29732898
000350 d8 74 f7 bf 71 17 89 bc 51 e0 60 bd 47 82 a4 3e
       -1.9332533 -0.01673481 -0.054901425 0.32130644
000360 ab 58 b5 3e ef 84 1e 3d 8b d7 8c 3e 43 e9 fd 3f
       0.3541921 0.038700994 0.27508196 1.9836811
000370 f2 49 66 3e 52 15 8b be 7b 0e 80 bd 86 4a 87 be
       0.22489145 -0.27164704 -0.06252762 -0.26424044
000380 d2 cd 51 be fb fe fb 3d f4 0b 02 be 29 1a 48 3e
       -0.2048867 0.12304493 -0.12699872 0.1954123
000390 5f a6 80 bf ee 3d 1a bc 68 e9 0d be 51 e1 c2 3e
       -1.0050772 -0.009414179 -0.13858569 0.38062528
0003a0 6b 3f 9d 3e 24 2e 98 3f 74 10 e3 3d b5 50 84 3f
       0.30712447 1.1889081 0.110871226 1.033713
0003b0 3a db 76 3d bf a9 35 bf 86 32 be bf 47 1b 2d bf
       0.060267664 -0.70962137 -1.4859169 -0.67619747
0003c0 41 ad 98 bd d3 d9 9c 3e 92 70 0a bf 14 53 5c 3d
       -0.074549206 0.30634937 -0.5407802 0.053790167
0003d0 d7 48 95 be f3 9d 2b bd 1c dc 06 bf 82 e7 69 3f
       -0.29157135 -0.04189868 -0.5267961 0.9136888
0003e0 48 5d 1c bd cb 55 88 3f 24 22 bd bf 14 dd 6d 3e
       -0.038174897 1.0651182 -1.4776044 0.23228866
0003f0 de 14 81 bf a9 45 3b c0 5a d5 a7 bf 90 cd 25 c0
       -1.0084493 -2.9261267 -1.3111985 -2.5906715

layers.0.bias f4 [16]
000000 4c 81 86 be f1 c6 67 3d 3f 00 71 be ce af 60 be
       -0.2627052 0.05658621 -0.2353525 -0.21942064
000010 ec 22 6a 3e 22 bf 71 bf 2b ce c3 3e 8a e1 d4 3e
       0.22864884 -0.9443227 0.3824323 0.41578323
000020 a5 56 85 be 02 57 47 3e 3e ea 84 3e 78 cc c3 3e
       -0.26042667 0.19466785 0.25959963 0.38241935
000030 4f f0 86 be db 23 36 be 64 c6 a6 3e d4 26 82 3e
       -0.26355216 -0.17787115 0.32573235 0.25420249

layers.1.weight f4 [16, 16]
000000 4c b0 75 bd 9b 64 28 bf f4 df 91 3e 1f 27 1a 3d
       -0.059982583 -0.6577851 0.28491175 0.037634965
000010 e4 80 13 3f 52 7e 93 be b5 8d ae be 43 a1 ff 3e
       0.57618546 -0.28807312 -0.3409249 0.4992772
000020 3b b2 ee 3d ca eb 2b 3f 4d 41 f6 3e 72 9a 8c 3e
       0.116550885 0.6715666 0.48096696 0.27461582
000030 31 98 f9 bd bd ec 7d bf 60 28 b3 3f be d8 ef be
       -0.12187231 -0.9918936 1.3996696 -0.4684505
000040 31 53 18 bf c4 09 37 3e bb be d3 3e bd 94 a5 3f
       -0.5950194 0.17874819 0.41356453 1.2936016
000050 ec 1c 02 bf 3b c6 91 3f 8b 08 3e 3f fd 33 c0 be
       -0.5082538 1.138862 0.74231786 -0.37539664
000060 72 03 04 3f 82 05 0e be 4d 51 bc 3e c8 1d c9 bd
       0.5156776 -0.13869289 0.36780778 -0.098201334
000070 b9 99 e6 bc 64 02 6d 3e 1c b6 63 be 70 2a 12 3f
       -0.028149473 0.23145443 -0.22237438 0.57096004
000080 6d 8a 56 3e 0b 04 b8 3e a3 3c 3b bf 80 82 9e bf
       0.20951243 0.35940585 -0.731394 -1.2383575
000090 87 f1 a8 3d e7 57 31 bf 81 41 95 3c 0a 4a 42 3e
       0.08249193 -0.69274753 0.018219711 0.18973556
0000a0 0c 25 a9 be d5 22 18 bd 46 a8 7b bd cc d9 33 bf
       -0.33036077 -0.037142593 -0.061439775 -0.70254207
0000b0 d3 4e ac 3e ce a9 5a be 68 25 3b be 6a ec 52 bf
       0.33653888 -0.21353838 -0.18275988 -0.8239199
0000c0 95 8a 41 bf 0b 83 6c 3f 6a 32 cd be 54 5c c0 bd
       -0.75602084 0.92387456 -0.40077525 -0.0939261
0000d0 73 e8 1a bf 06 b1 82 3e 84 ec 5e 3f e0 1e f6 be
       -0.6051094 0.25525683 0.87079644 -0.4807043
0000e0 e0 2f 4f be e5 ea 89 3e 44 23 c3 3c 96 0c ff bc
       -0.20233107 0.26937023 0.023820527 -0.031133931
0000f0 ec 09 3b 3e 6f 6f 45 3f 37 30 c5 bf 09 28 e9 3e
       0.18265504 0.7712316 -1.5405339 0.45538357
000100 b5 62 29 3e 59 24 01 bf ee a4 4e 3e d3 b3 27 bb
       0.1654156 -0.5044609 0.20180103 -0.0025589361
000110 37 1e b8 be 03 df 21 3e ae 4d a4 3e c7 21 14 3e
       -0.35960552 0.15807728 0.32090515 0.1446601
000120 c0 d4 81 be a5 0b c2 be 08 ef ff 3e d5 13 3b bf
       -0.25357628 -0.3789951 0.49987054 -0.73077136
000130 45 42 e9 3e c1 64 94 bf b3 27 d8 be 69 39 f4 be
       0.45558372 -1.1593248 -0.42217788 -0.4770005
000140 42 ed c2 bd e0 da c2 3e 82 43 2c bf b7 d8 92 be
       -0.095179096 0.38057613 -0.6729051 -0.28680965
000150 62 4c 0a be cb c3 2d bf 64 25 95 3e 63 a5 ad 3d
       -0.135057 -0.6787688 0.2913009 0.08478811
000160 0e ec dc bc 92 9e fb bd 28 eb b7 bd 1a b7 d8 be
       -0.026968028 -0.12286104 -0.08980399 -0.42327195
000170 bc 06 1d 3e cc d3 31 be 50 d2 56 3e 5b ab c7 be
       0.153346 -0.1736595 0.20978665 -0.3899792
000180 c2 cc 98 3f f7 c9 7f bd 9e e1 3b bf 2e 8a b5 bf
       1.1937487 -0.062448468 -0.7339114 -1.4182794
000190 e8 dc d4 3e e2 6a 12 bf 60 f6 19 bf 82 82 a7 3e
       0.41574788 -0.5719434 -0.60141563 0.32716757
0001a0 ad e6 4e be 21 cc 44 bf 25 87 78 bf f2 57 c1 3b
       -0.20205183 -0.76873976 -0.97081214 0.0059003765
0001b0 62 54 0b 3e 98 15 28 3f 8a d2 f9 be 91 37 19 bf
       0.13606408 0.6565795 -0.4879344 -0.5985041
0001c0 74 48 61 bf c7 56 27 3e 5f 5b 00 3f 0b 20 00 bd
       -0.8800118 0.16341697 0.5013942 -0.03128056
0001d0 c2 b1 33 3c 7a d8 e0 be 5a af d3 be 36 85 ba 3d
       0.010967674 -0.4391516 -0.4134472 0.09107439
0001e0 b1 63 29 be ae 0f ee bb ce d8 04 3f e3 cf 5d 3d
       -0.16541936 -0.0072650528 0.5189332 0.054153334
0001f0 58 b4 17 3e 5f 76 0c 3e d9 e9 29 3d 8e a5 43 3f
       0.1481489 0.1371703 0.04148278 0.7642449
000200 0b 33 23 3e 61 01 47 3f 61 ef 55 bf 71 b8 0b be
       0.1593744 0.7773648 -0.8356839 -0.13644578
000210 f2 30 78 be 9b 52 00 3e 3d d4 db 3d cc d8 98 be
       -0.24237421 0.12531511 0.107338406 -0.29852903
000220 8a 37 fa 3d 2e 74 58 be be a4 1d bf eb 85 e9 be
       0.122176245 -0.21138069 -0.615795 -0.45609984
000230 6b 8e 08 be 16 1e 2d 3f ba 5a 0c 3e cf 36 8a be
       -0.13335578 0.6762403 0.13706484 -0.2699494
000240 b8 b2 a8 be 6b 54 76 3e a8 da 78 be d8 15 bb 3d
       -0.32948852 0.2405564 -0.2430216 0.09135026
000250 c3 b5 dc be 9e ed b7 be d2 5b a8 bd 43 48 85 3e
       -0.43107423 -0.35923475 -0.08220638 0.26031694
000260 50 a6 ec 3d 09 b1 1b bf 04 b5 9a 3d f0 81 da bf
       0.11555159 -0.6081701 0.07554057 -1.7070904
000270 69 35 c8 3e 91 71 35 be 2d 3b 84 3e 8a 80 1b be
       0.3910325 -0.17719103 0.25826398 -0.15185753
000280 fe 7b 87 be 79 1a 19 3f 7f 2b 41 bf d0 00 ed 3a
       -0.26461786 0.5980602 -0.75456995 0.0018081907
000290 47 d4 2e be 1d bd 14 be 87 1a fd bc 40 4f 87 3e
       -0.17073165 -0.14525266 -0.030896438 0.2642765
0002a0 4f 31 0e 3e 2a be d2 3d e6 6f 53 be 8a ae a8 be
       0.13885997 0.10290177 -0.20648155 -0.32945663
0002b0 01 20 b3 3e 40 14 a1 3d aa 24 4c 3e e1 07 36 be
       0.34985355 0.078651905 0.19935861 -0.17776443
0002c0 cf 5b 26 bf 5e a6 82 3f 80 fc cb be a2 25 e8 3c
       -0.6498384 1.0207021 -0.3984108 0.028338257
0002d0 6e 62 0f be 64 83 89 bd 87 7b e9 bd 2c b1 96 3e
       -0.14002392 -0.06714514 -0.11400514 0.29432046
0002e0 f2 83 86 be d0 c8 e4 3e ee 93 eb bd c0 a8 f3 3d
       -0.2627254 0.44684458 -0.11502825 0.11897421
0002f0 b4 f5 bc 3e b7 59 94 3e ad 50 e8 3e eb 96 95 3e
       0.36906207 0.28974697 0.4537405 0.29216704
000300 2b 82 48 3e ee d1 8b be 07 8f ba 3e e2 19 ff 3b
       0.19580905 -0.273086 0.36437246 0.007785068
000310 fe ae e0 3d 69 21 42 3e 13 e0 87 bc a3 88 ba be
       0.10970877 0.18958057 -0.01658634 -0.3643237
000320 89 08 0b be 4e 2a 4a be 09 bc 77 be 52 e2 83 3e
       -0.13577475 -0.197427 -0.24192823 0.25758606
000330 4d 5b e5 be 38 7a 9d 3e 12 88 1c bc 50 e0 87 3e
       -0.4479622 0.30757308 -0.009553926 0.26538324
000340 ad b4 4b 3f 34 b6 84 be 10 3a c9 bd 23 ee 6f 3e
       0.79572564 -0.2592026 -0.09825528 0.23430686
000350 6c 4e 35 3e bd b6 08 3f 7d 14 ee 3c 17 b0 80 be
       0.17705697 0.53403836 0.029062504 -0.25134346
000360 bf 96 ee 3e 5a fd c4 be 6d 94 4f bf 73 26 0d 3e
       0.46599385 -0.38474542 -0.81085855 0.13784198
000370 11 dc df be bb b3 04 3e fb 71 40 bc 53 95 05 3d
       -0.43722585 0.12959187 -0.011745925 0.03261311
000380 bd bf fa 3d da 53 3f 3d cf 40 b4 be eb 35 b6 3d
       0.122436024 0.046710826 -0.35205695 0.08897003
000390 b6 6f 33 be 67 25 6b be e8 c4 4e 3e 2c 1d f1 3e
       -0.17523083 -0.22963487 0.20192301 0.4709257
0003a0 37 b4 10 3e 3d 2a ae 3f 79 9c 3a bc 97 f4 be 3e
       0.14131247 1.360664 -0.011389845 0.37295982
0003b0 e2 d6 d4 3e 38 f0 a9 be 1c ff bd bd 5d 82 10 bf
       0.41570193 -0.33191085 -0.09277174 -0.5644892
0003c0 c3 c7 bd 3e 09 67 b0 3e 5e f2 89 bf dd 5d f7 3e
       0.3706647 0.3445361 -1.077709 0.483138
0003d0 cd 20 c7 be a3 8a 7b 3e b1 7d 83 3e c3 b5 34 3e
       -0.38892213 0.24564604 0.25681832 0.17647462
0003e0 7c 73 a4 3e e0 4b ed 3d 70 b5 a4 be ed 90 b8 be
       0.32119358 0.11586738 -0.32169676 -0.3604807
0003f0 7e 08 71 3e d3 2d dc bd 11 12 c7 3e 07 eb 98 bf
       0.23538396 -0.10750928 0.3888097 -1.1946725

layers.1.bias f4 [16]
000000 43 44 bb bd fc 9a fd bc b5 3d 07 3e f3 f9 34 be
       -0.09143879 -0.030957691 0.13207133 -0.17673473
000010 04 bd 36 bd 00 9d 07 be 44 5b 08 3f 2f b7 f4 be
       -0.044613853 -0.13243484 0.5326426 -0.47796008
000020 a1 46 71 3e cb 26 6c be 66 a5 a3 bd 85 5a 50 be
       0.23562099 -0.23061673 -0.079905316 -0.2034703
000030 08 61 04 bd 4e cd 26 3c 53 1f d5 3d 22 37 98 3d
       -0.0323191 0.010180784 0.10406365 0.07432391

final.linears.0.weight f4 [96, 48]
000000 be 61 59 3f 4c 4f ea be dd 78 c3 3c 2d 49 1d bd
       0.8491477 -0.45763624 0.023861343 -0.038399864
000010 38 58 97 bb 6b d3 9f be 46 98 8f 3f aa 3f c8 3e
       -0.004618671 -0.31215987 1.1218345 0.39111072
000020 b7 ee 0a bf 13 9b 0e be 56 7f 6c be 26 81 ab 3f
       -0.542705 -0.13926344 -0.2309545 1.3398788
000030 b7 f8 ae 3f 2e d8 bf bf 6a 4a 26 40 db b1 b9 3f
       1.3669652 -1.4987848 2.5982919 1.4507402
000040 ff 73 4a 3d db f6 2a bd c7 af a6 3d 43 61 27 3d
       0.04942703 -0.041739326 0.081389956 0.04086424
000050 2e ef cb 3a 3c 82 34 3e f1 43 0b bd 53 a1 59 3d
       0.0015558952 0.17627805 -0.03400034 0.053132366
000060 29 4c ae 3d aa 93 c5 bd 75 d0 2d bd b1 69 f8 bd
       0.0851062 -0.09647305 -0.04243513 -0.12129534
000070 ca e0 30 3e 5b 19 0a 3e 52 e7 9f bd fc 5a 01 be
       0.1727325 0.13486235 -0.07807793 -0.12632364
000080 e7 2d c8 3d 3f fc c2 bd 9d 99 95 3d 08 04 c2 3c
       0.0977438 -0.095207684 0.0730469 0.023683563
000090 92 fd 77 bc 7a 49 d6 3b 4c be 55 3e eb d6 bd 3d
       -0.0151361395 0.006539521 0.20873374 0.09269508
0000a0 b0 e6 7f 3d a6 73 7d bd e0 40 25 bd 54 0d e0 3d
       0.06247586 -0.06187787 -0.040345073 0.10940042
0000b0 32 07 3d 3d a8 1b 00 3e fe 43 c4 bc 2c 38 e2 3d
       0.04614944 0.1251055 -0.023958202 0.1104587
0000c0 bc de ea 3f b6 c7 b2 be 98 3f 97 be 29 0d c7 be
       1.8349223 -0.34917992 -0.29540706 -0.38877228
0000d0 2c 3e b5 be 2f 8a 2a bf e9 df f7 3e e8 bb 19 bf
       -0.35398996 -0.666171 0.48413017 -0.6005235
0000e0 46 aa 24 be 42 26 ff be 3d 5b be be 5d f0 1e bf
       -0.16080579 -0.49833876 -0.37178984 -0.62085515
0000f0 8b 8f 9d bf 6b 58 4a 3f 77 63 31 3f 44 74 1f be
       -1.2309431 0.79041165 0.69292396 -0.15571696
000100 c6 18 8d bd eb 94 c9 3c d5 18 ed 3c e7 0a c8 3d
       -0.06889491 0.024607142 0.028942505 0.097677045
000110 5a 5a 56 be 8c 77 32 be d1 1a ce bd 98 06 ce 3d
       -0.20932904 -0.17428416 -0.100637086 0.100598514
000120 8e 0b 28 bd 11 8f 66 3d e4 f0 45 3d 2d f3 00 3e
       -0.041026644 0.056288783 0.048325434 0.12592764
000130 8b 60 10 3e 45 36 ef bc be 65 1d be e7 58 2a be
       0.14099328 -0.029200682 -0.15370843 -0.16635476
000140 19 16 03 3e 9d 89 83 be 89 f5 b0 3d be 55 6b bd
       0.12801398 -0.25690928 0.08640582 -0.057454817
000150 be 4f dc 3d 24 af 61 bc 25 a8 bd 3d 40 f4 6f 3e
       0.10757397 -0.013774667 0.09260587 0.23433018
000160 5d 98 24 3e e9 11 2e be 1e cb a7 bd a8 21 20 3e
       0.16073747 -0.1699902 -0.081930384 0.15637839
000170 e6 10 c2 bc 2f cb f4 bd bd db f2 3d 13 5a 84 3d
       -0.023689698 -0.11952817 0.11858318 0.06462493
000180 ed a5 3d 3d 93 f6 2b 3e 12 89 9a 3f a1 98 22 bf
       0.046300817 0.1679328 1.207308 -0.63514143
000190 87 60 78 bf ec d4 48 be ca 8a de bc 5e 21 b2 bd
       -0.9702229 -0.19612473 -0.02716579 -0.086977705
0001a0 b3 9e df bb ae de 96 be c0 ae 06 be 41 84 ac bc
       -0.0068243383 -0.29466766 -0.131526 -0.021059157
0001b0 bb 6d cf 3b fe c2 9a bd 54 5c a9 3c b4 0a 52 3b
       0.0063302196 -0.07556723 0.020673908 0.0032049837
0001c0 1c c9 0d 3c 5e b5 6d bc c4 c9 2b be 41 98 ae bd
       0.008653905 -0.014508573 -0.16776186 -0.08525134
0001d0 db 68 af bd 20 99 d6 be fb 35 83 3c 85 6f 4d be
       -0.085649215 -0.419137 0.01601695 -0.20062073
0001e0 2b 72 b2 3d c3 5e bb 3c 1a 57 57 3d e1 76 0c 3d
       0.08713182 0.022872334 0.0525733 0.03429306
0001f0 54 5f 6f 3d ac 9a ea bd 2d dc 48 3d 8d 15 63 3d
       0.05844052 -0.114552826 0.0490381 0.055440474
000200 54 81 c1 bc c6 ae 25 bd cc a2 2a 3d 93 78 6d bc
       -0.023621239 -0.04044988 0.04165916 -0.014494079
000210 87 f5 33 be b3 ad 64 3d fc 07 fb bd 04 4b e7 3d
       -0.1757413 0.055829715 -0.12257382 0.11293605
000220 a8 9b ef 3d 5b 1a 63 bd 59 d5 4d bc ac e5 99 3d
       0.11699611 -0.055445056 -0.012563073 0.075145096
000230 5f c6 c8 3e 4e c1 58 3d 7b b5 26 bd a3 bd fb 3d
       0.39213845 0.052918725 -0.040700417 0.1229203
000240 e1 0b 66 be 3f 00 35 be 0a a7 2d be da d3 77 3d
       -0.22465469 -0.17675875 -0.16958252 0.06050477
000250 38 63 94 3d c6 e7 22 be 75 7f 15 3c 8a a4 86 3d
       0.07245487 -0.15908727 0.009124626 0.06574352
000260 d8 ea d0 3d 4f ba 12 be ec 69 65 3c d5 80 6c be
       0.10201043 -0.14328884 0.0140023045 -0.2309602
000270 ba be 24 bc 24 b5 f8 bd 20 66 15 bc 83 ff 7f 3e
       -0.010055238 -0.12143925 -0.009118587 0.24999814
000280 89 02 59 bd 72 5a 07 bd b4 e8 32 be 73 24 77 bd
       -0.052980933 -0.03304524 -0.17471582 -0.060337495
000290 47 7d 99 bd 00 e1 39 3d 84 c8 05 3e d3 a9 af bc
       -0.07494598 0.045380592 0.13064772 -0.021443283
0002a0 a1 07 ff bc f5 21 0b 3c 02 52 3d bd ed fa c1 ba
       -0.031131567 0.008491983 -0.046220787 -0.0014799513
0002b0 e6 87 64 bd ef 56 3c 3d 47 85 74 bd d4 37 09 bd
       -0.055793665 0.045981344 -0.059697416 -0.033500507
0002c0 92 3e d7 3d 55 af 03 be 64 a5 90 3d f2 0c e1 bc
       0.10509981 -0.12859853 0.07062796 -0.027471993
0002d0 e4 d1 32 bd 12 0b 05 be 69 2f 2b 3e 37 7b 03 3e
       -0.0436572 -0.12992504 0.16717304 0.12839971
0002e0 99 cf ad 3d d1 b6 54 be e3 6a 11 bd 8b dd 3c 3e
       0.08486862 -0.20772864 -0.035502326 0.18443887
0002f0 f3 13 5b 3e d5 fa 05 3e 92 63 6f 3b bf 28 13 3e
       0.21394329 0.13083966 0.0036527854 0.14371012
000300 07 6f 27 bc e8 7f ad be ec d2 61 ba f6 38 ac 3d
       -0.010219342 -0.33886647 -0.00086144987 0.08409302
000310 f5 16 78 bc 2a e4 70 3f 5b 57 c1 3d 5b 91 a4 3d
       -0.015142192 0.9409815 0.0944049 0.08035537
000320 31 39 8e 3e 38 44 ad bf 93 19 99 3f f7 7f 8e 3d
       0.2777801 -1.3536444 1.196093 0.06958001
000330 1b 8c cc 3c fe 7a b0 bd fe 4e 13 bf 8a f7 6c be
       0.024969151 -0.08617209 -0.5754241 -0.23141304
000340 93 77 2e 3d 6a 55 e0 3c c2 79 30 3e 36 06 a7 3d
       0.042594504 0.027384479 0.17233947 0.081554815
000350 28 45 15 bc 07 d8 48 bd 4b d1 95 bd ef db 23 3e
       -0.009110726 -0.049034145 -0.0731531 0.16001867
000360 dc 83 0a bd 3a 6e 8f bd fe f0 a8 bb b0 c5 ef bd
       -0.033817157 -0.07003446 -0.0051556816 -0.11707628
000370 7b 19 4f 3c 2b b2 2f 3e c6 4d cb bc 9c 8d a2 bd
       0.012640352 0.1715781 -0.024817359 -0.07937166
000380 39 87 2f 3d 18 8d 50 bd 02 ab aa 3b 36 06 68 3d
       0.042853568 -0.050915807 0.005208374 0.05664655
000390 f9 8e 0b bc 01 a9 98 bd 47 43 fd 3d e5 bd 91 bd
       -0.008517974 -0.0745411 0.12366348 -0.07116298
0003a0 2f d6 b0 bd 86 c9 91 bd 0c c6 10 bc e7 b4 98 3d
       -0.08634602 -0.07118516 -0.008836281 0.074563794
0003b0 df e7 e5 bd 17 b3 7a 3d 08 d5 67 3d b1 a7 26 3d
       -0.112258665 0.06120595 0.056599647 0.040687267
0003c0 74 54 46 bf 7b b4 2f bf e4 56 97 3e 6f 65 54 3e
       -0.77472615 -0.68634766 0.2955848 0.20741819
0003d0 84 3a 3b 3e aa 2a 01 3e db 0b 00 bf 92 d9 fa 3e
       0.1828404 0.12613931 -0.5001809 0.48994118
0003e0 83 11 7f bf 99 35 56 3d dd c8 b8 3d 77 bc a5 3d
       -0.99636096 0.05229721 0.09022687 0.080925874
0003f0 7a 84 4e bf ee 1d 52 3d 97 9d 18 3e 2f 50 b4 bf
       -0.80670893 0.051298074 0.14903866 -1.408697

final.linears.0.bias f4 [96]
000000 1e 3e af 3d 34 1a 57 3d 12 a9 89 3e 2a 9c 8d 3c
       0.0855677 0.052515224 0.26886803 0.017286379
000010 95 5e 0f 3e fe 2b 4d be 11 8e 90 3e 9f 93 70 3e
       0.14000924 -0.20036313 0.28233388 0.23493813
000020 90 03 04 be 88 8f 0e 3e 13 c4 4d 3e b5 71 0e be
       -0.12891984 0.1392194 0.20094328 -0.13910563
000030 57 6b 11 be d9 80 a0 3b 75 33 c6 3e b9 2b e7 bd
       -0.14201103 0.0048981723 0.38711134 -0.11287636
000040 58 18 5c bc 05 dc 00 bf 88 86 33 be 31 75 76 3e
       -0.013433538 -0.50335723 -0.17531788 0.24068142
000050 1c 55 33 3e c3 df 06 bf 4f d6 99 be 2b 91 c0 3c
       0.17512935 -0.52685183 -0.30046317 0.023506721
000060 bc 52 8e 3c 71 1e 47 bf 13 70 b1 3e 52 db db 3d
       0.017373435 -0.77780825 0.34655818 0.107351914
000070 e0 e5 fa 3d 3a e7 a3 3e 1e 5e c2 3e d2 0b 88 be
       0.122508764 0.3201235 0.3796243 -0.26571518
000080 29 62 49 3e 93 4c 4d 3e 6b ca d4 3d 5c 99 49 3f
       0.19666351 0.20048742 0.10390171 0.7874963
000090 54 0b 1b 3e 90 5f 39 bd 21 fd 03 3e 82 8d 44 be
       0.1514104 -0.04525715 0.1288953 -0.19194606
0000a0 a9 f5 87 bd 70 70 07 3f 03 96 ca bd ee bc 1b bd
       -0.06638653 0.5290594 -0.09891894 -0.038021974
0000b0 3b b2 5f 3e e7 b0 a2 3e de 1f 81 bd 6b b2 36 be
       0.21845333 0.3177559 -0.06304906 -0.17841499
0000c0 9a d1 ca 3e 6e 7a 77 be 3a 27 e8 3d 73 af 2c bd
       0.39613038 -0.24167797 0.11335607 -0.04215951
0000d0 58 be 1b bc a1 61 1e 3d d0 24 ac 3d 0a b6 a8 3d
       -0.009505831 0.038667325 0.08405459 0.08237846
0000e0 aa 7f 8e be ba 52 d6 3d b2 de 8f 3e e3 03 a8 bd
       -0.27831775 0.104649976 0.2809959 -0.08203866
0000f0 b7 82 ca 3e 5a 06 97 3e 0d f8 96 3e b4 52 e4 be
       0.39552853 0.29497033 0.29486123 -0.44594347
000100 95 ad 2d 3e 12 e8 0d bf 2a bd 90 be ab c5 05 3e
       0.16960748 -0.55432236 -0.2826932 0.13063686
000110 64 f3 e7 bd 5c 4e a9 bd b6 aa d6 3d e1 89 c2 be
       -0.1132572 -0.08266899 0.10481779 -0.37995818
000120 33 c4 bb bd 92 4b 9d bd 2f a4 fb bd fa 35 d4 bb
       -0.091682814 -0.076804295 -0.12287175 -0.006476161
000130 60 0d 45 bc 33 03 e5 3e 17 5e 25 3c 2e 25 92 3e
       -0.012027115 0.44729003 0.010093234 0.2854399
000140 1e 32 32 be 5d 2c 9b bd 32 6f 9c 3e 9e f4 9c 3e
       -0.1740193 -0.07576821 0.30553585 0.30655378
000150 20 10 8c bd da 02 25 3c 49 be a1 be 51 e4 08 3e
       -0.06839013 0.010071481 -0.3159049 0.13368346
000160 68 a7 a0 be 9f 32 32 3d d7 60 bd bd d2 49 e5 bd
       -0.3137772 0.043505307 -0.09246986 -0.11195721
000170 36 13 44 3e 6e 57 44 be 0d 35 a2 bd da 83 80 3e
       0.19147953 -0.19173977 -0.07920275 0.25100595

final.linears.1.weight f4 [96, 96]
000000 e8 85 b3 be 92 f7 a1 be b9 ed b7 be e5 d2 e9 bd
       -0.350631 -0.31634194 -0.35923555 -0.11417178
000010 2b b5 5e 3d 91 8c 9d be 55 7f e6 bd a3 76 88 3d
       0.054371994 -0.30771306 -0.112547554 0.06663253
000020 d5 f8 65 3d c5 91 8d 3d 97 13 b0 be 62 39 ba bd
       0.056145508 0.06912569 -0.34389946 -0.09092976
000030 5f 39 c9 be 98 2a 2c be 1e 9a 32 3b 2d 9b 98 be
       -0.39301583 -0.16813123 0.0027252506 -0.2980589
000040 cb 4b 1d be 8a 95 bd 3d 19 bb 58 3d 01 30 01 be
       -0.15360944 0.09257038 0.052912805 -0.12615968
000050 13 37 84 be b4 61 d7 bd c7 a0 0a 3e 57 43 cd be
       -0.25823268 -0.10516682 0.13537894 -0.4009044
000060 bd 67 95 be 9f c4 b3 3c 72 19 be bd ce a1 78 be
       -0.2918071 0.021944342 -0.09282197 -0.24280474
000070 32 f0 de bd 48 46 a2 be f5 3b d1 be 70 c1 eb 3c
       -0.10885657 -0.31694245 -0.40866056 0.028778762
000080 a3 b8 98 be b1 b9 a8 be f3 7a 1e 3d 64 d4 81 be
       -0.29828367 -0.3295417 0.038691472 -0.25357354
000090 bb 30 2f bd 34 36 f8 bc f9 9a 99 3d 07 a1 b6 3d
       -0.042771082 -0.030299284 0.07500262 0.08917432
0000a0 47 bb 96 be 31 9d b7 be 60 08 02 be 33 07 62 bc
       -0.29439756 -0.35862115 -0.12698507 -0.013795662
0000b0 c5 f3 47 be 0b a6 92 be b2 f7 88 3e 32 15 11 bd
       -0.19526584 -0.28642306 0.26751477 -0.035420604
0000c0 21 c0 4a be 0c 69 6b bd 00 3f 8d be f0 69 33 bd
       -0.19799854 -0.057473227 -0.27587128 -0.0438022
0000d0 d5 80 49 3d 62 c8 c4 bf b7 17 d9 be ca 9a a9 be
       0.04919513 -1.5373652 -0.42400905 -0.33125907
0000e0 e6 3c 1a bd fe 9b 1d be 6f 7d c9 be 3e ab c3 3d
       -0.037655734 -0.15391538 -0.3935351 0.09554146
0000f0 83 b1 88 be fd 33 bc be 86 60 39 be 3e e8 ab 3d
       -0.2669793 -0.36758414 -0.18103227 0.08393906
000100 bd 1b 53 bd d6 13 2a 3e ec 05 00 be e2 71 2e be
       -0.051540125 0.1660913 -0.12502259 -0.1703563
000110 b6 7d e1 3d 69 f2 02 be cc 88 8b be 87 c0 df bc
       0.110103056 -0.12787785 -0.27252805 -0.027313484
000120 80 7e 7d bc 51 bd 5b bd 1b 41 8e be 3c 8e cf 3d
       -0.0154720545 -0.053647343 -0.27784047 0.10134551
000130 ff 08 f3 3c 4c ac a0 3d 4a 58 a5 be b5 72 45 3d
       0.029667376 0.07845363 -0.32293922 0.048205096
000140 5c 90 28 3e eb 02 91 be 9f f4 a3 bb 18 3d 4b bd
       0.16461319 -0.2832254 -0.0050035263 -0.04961881
000150 74 f8 7c 3e 86 49 07 bb 08 fd b3 be ec e2 c3 be
       0.24704152 -0.0020643189 -0.35153985 -0.38259065
000160 79 0f c7 bd d6 66 ab bc 0c 6e 24 be fd c4 ef bd
       -0.09719748 -0.02092306 -0.16057605 -0.117074944
000170 e4 18 27 bd 91 a7 d8 be 3e be 42 bd 76 a2 9a 3d
       -0.040795222 -0.42315343 -0.04754471 0.07550518
000180 99 02 cf be 8b 9b 39 be 22 90 68 be ee 4f ef bd
       -0.4043167 -0.18125741 -0.22711232 -0.11685167
000190 c7 71 8d 3d 4f fa a9 be db 4d 84 be 82 df e5 3d
       0.06906467 -0.33198783 -0.2584065 0.11224271
0001a0 2e 90 8a 3e ba 3b 39 bd 03 5c cc be e7 52 1d 3d
       0.27063125 -0.045222975 -0.3991395 0.03840914
0001b0 2b bd 9f be cf c6 77 bd 55 7f 86 bc 31 ce 90 be
       -0.3119901 -0.060492333 -0.016418139 -0.28282312
0001c0 4a b9 f5 bc 4c fe 1f bd ff 46 b0 bc b7 fc 42 be
       -0.02999558 -0.039060876 -0.021518229 -0.19041716
0001d0 d2 e2 89 bd 31 f7 01 be 31 bb 15 3e 44 f5 9e bf
       -0.06732716 -0.12691952 0.14622189 -1.2418599
0001e0 df 93 91 be 0c 41 13 3e e0 27 46 bd 6e 7f 59 be
       -0.2843313 0.14380282 -0.04837787 -0.21240017
0001f0 e9 e6 9e bd d8 79 cd be f0 4b e6 be 0a 60 45 bc
       -0.07758886 -0.40132022 -0.4497981 -0.012046823
000200 7e ac 98 be a6 ec 2c be ab 69 ce 3d 02 db 90 be
       -0.298191 -0.16887149 0.10078748 -0.2829209
000210 eb fc 5b bd 08 aa 2b bd 30 23 fd 3d 4e 25 9f bc
       -0.053708 -0.0419102 0.12360227 -0.019426968
000220 98 53 a6 be 77 83 bf be 5e fd e5 bd 74 da 83 be
       -0.32485652 -0.37404987 -0.112299666 -0.25752604
000230 61 d1 83 be 44 79 89 be 94 52 87 3e 99 4d 90 bd
       -0.2574568 -0.2685033 0.2643019 -0.070460506
000240 56 de eb bd be 06 0d 3c d1 19 b0 be b2 4d 85 bb
       -0.115170166 0.0086075645 -0.34394696 -0.0040681
000250 15 92 42 3c f1 3c c5 be d9 c9 a0 be ba 4d a0 be
       0.011875649 -0.38523057 -0.31403998 -0.313093
000260 69 6b 90 bb 77 81 1f be fd dc c3 be 1b fd e0 3c
       -0.0044073355 -0.1557673 -0.38254538 0.02746444
000270 93 11 96 be aa 60 96 be 06 15 72 bb 13 d0 a3 3d
       -0.29310283 -0.29370624 -0.00369388 0.079986714
000280 0a 29 82 bd c9 74 65 3d 2b 47 cd bc 78 5c 81 be
       -0.06355484 0.056019578 -0.02505835 -0.2526586
000290 70 02 3c bd c2 31 84 be 1c ac b8 be 60 9a 43 3d
       -0.045900762 -0.25819212 -0.3606881 0.047754645
0002a0 e1 00 ab bc 0f 05 59 3c 17 1f 5b be a4 8a 4c bc
       -0.020874443 0.013245835 -0.21398579 -0.012484226
0002b0 69 f2 32 be de 6f 78 3d f1 b6 48 3e 58 1a b9 bd
       -0.17475285 0.06065356 0.19601037 -0.09038228
0002c0 16 14 44 3e 04 f6 aa bd 9e 97 b5 3a ed 2e 14 be
       0.19148287 -0.08347705 0.001385439 -0.14471026
0002d0 a0 f3 26 bd ed 97 0c be 3c be 75 be cd 70 c4 be
       -0.040759683 -0.1372983 -0.2399835 -0.3836731
0002e0 be 54 73 3d bb a3 8a 3b f2 0a 84 bd 5d f7 2a bd
       0.05940699 0.004230944 -0.064474 -0.04173981
0002f0 25 99 53 bd 1f 48 9c be 44 c6 2b 3b 28 44 03 3d
       -0.051659722 -0.30523774 0.0026210705 0.03204742
000300 60 5e 23 bd 70 00 98 bc 7a 23 67 bc 23 0b ec bc
       -0.039884925 -0.018554896 -0.014107579 -0.028813904
000310 b6 9c 11 bd b1 96 bd 3c 34 20 d9 bc a8 38 ba bc
       -0.03554984 0.023143144 -0.026504613 -0.022732094
000320 23 15 35 3c 98 7d e5 3b 6e ef 98 bc 8c b9 81 3d
       0.011052403 0.0070034973 -0.018668856 0.063342184
000330 27 b3 01 bd b5 a2 88 bd 03 7a fc bb 96 ae 0e 3c
       -0.031664994 -0.06671659 -0.0077049746 0.008708617
000340 4f a9 79 ba 78 e9 22 3e d0 6a a6 bb f3 99 16 bd
       -0.0009523825 0.15909374 -0.005078651 -0.03676791
000350 41 fe 1b 3d 19 17 29 3e 02 8b f4 bc 94 a8 7f b9
       0.038084272 0.16512717 -0.02985144 -0.00024381495
000360 f6 27 26 bd 83 52 03 3e cb c7 0f bc f2 5f e9 bd
       -0.040565453 0.12824444 -0.008775662 -0.11395253
000370 ef 66 97 3c e0 ad 1d 3c c0 aa 33 bd c6 15 2d be
       0.0184817 0.009623975 -0.04386401 -0.16902837
000380 38 af 77 bb e0 f0 14 bd 67 ce 90 3d 31 9d 60 3c
       -0.0037793647 -0.03636253 0.07070618 0.013709352
000390 a7 87 82 3d de c1 af bd b0 60 2c 3d f0 8f a6 bd
       0.0637353 -0.08581899 0.042084396 -0.08132923
0003a0 3d 89 86 bc 07 77 40 bd 93 f1 ce bd 92 da 4d bd
       -0.016422862 -0.046988513 -0.101046704 -0.050257273
0003b0 78 35 4f bd d6 42 53 bb d3 ca 38 be de 88 a3 bc
       -0.0505881 -0.0032235882 -0.18046121 -0.019962724
0003c0 eb d2 0b bd e5 f0 f1 3d 12 59 11 bb 30 90 81 3c
       -0.034136694 0.11813525 -0.0022178334 0.015815824
0003d0 32 4e f0 bd c7 de 12 bd 22 18 12 bc f8 10 03 3d
       -0.117336646 -0.03585699 -0.0089168865 0.031998605
0003e0 11 c1 9b 3d 45 72 b6 bd 8c 97 71 bd a5 92 99 3e
       0.07605184 -0.08908514 -0.058982417 0.29994693
0003f0 53 8f 2a bd 5c 02 ca bc a4 2b b4 bc ed 51 07 3d
       -0.04164059 -0.024659328 -0.021993466 0.033037115

final.linears.1.bias f4 [96]
000000 c3 dd 1c be b4 61 0f be 11 66 ac 3d d0 16 bc bc
       -0.1531897 -0.14002115 0.08417905 -0.022960097
000010 ff f1 cf be dd c8 d2 be c1 68 70 bd d4 7a 92 bc
       -0.40614316 -0.41168872 -0.05869365 -0.017880835
000020 72 b9 83 bd f7 50 3b be 79 99 b0 3d a5 3b bd be
       -0.06431855 -0.18292604 0.086230226 -0.36959568
000030 0b ba 7c 3d 91 b5 42 be 5c 34 ce 3c 08 13 2d 3f
       0.061700862 -0.19014575 0.025171451 0.67607164
000040 c9 92 04 be 21 90 d7 bc af 12 5c be a4 31 f2 bd
       -0.12946619 -0.026313843 -0.21491502 -0.118258744
000050 ef e5 94 bd 14 76 8a bd 62 58 15 3d 59 e5 66 be
       -0.07270419 -0.06760803 0.03646124 -0.22548427
000060 3e a2 54 be 38 38 96 3d 8a 35 4f be f6 c4 7e be
       -0.20765015 0.073349416 -0.20235267 -0.24879822
000070 60 be c5 be d7 9d cc be 56 18 4b 3d c3 5b 35 bf
       -0.38621807 -0.39964172 0.049583755 -0.7084314
000080 72 a5 29 be 74 2c 3c be ff 7d 4a be 91 63 9a be
       -0.16567019 -0.18376333 -0.19774626 -0.30154088
000090 6b 4e a9 bd 6f a7 84 be 9a 7b 0b bf d5 9b 82 3d
       -0.0826691 -0.25908992 -0.54485476 0.06377379
0000a0 67 2d d1 bb 04 de 9b bd cf 14 19 be 01 21 13 3f
       -0.006383586 -0.076107055 -0.14949344 0.57472235
0000b0 ed 9f 89 bd 10 0d 48 be fa c6 44 3e 80 d1 a7 bd
       -0.067199565 -0.19536233 0.19216529 -0.08194256
0000c0 79 88 73 be dc ed ee bb 01 f7 ac 3c c2 db f7 3d
       -0.23782529 -0.0072915386 0.021113874 0.12102462
0000d0 3e 38 cb bd 90 c0 08 3c c6 84 1a bc 30 8b a7 bd
       -0.09922837 0.008346692 -0.00943107 -0.08180845
0000e0 d7 cf 69 bc d3 cc 31 bd f4 96 d8 bd d9 6d 07 be
       -0.014270744 -0.043408226 -0.10575667 -0.13225497
0000f0 8b 41 ae be 0f ba ee bd 86 7b 71 be 69 09 3c be
       -0.3403438 -0.116565816 -0.23582277 -0.18362965
000100 41 c8 0d be f0 79 7a be ac f5 0c be a9 f4 3d be
       -0.13845922 -0.24460578 -0.13765591 -0.18550362
000110 11 e8 65 3c 41 d9 6b bd 13 38 8c be f5 4a 0e bd
       0.01403238 -0.057580236 -0.2738653 -0.034739453
000120 95 cc 0e 3e ca 70 3a be 6a 6b ed bd d7 0e 9e bd
       0.1394523 -0.18207088 -0.11592753 -0.07717674
000130 13 7d 3d be 93 29 35 be cb fd 84 be 54 43 04 be
       -0.18504743 -0.1769164 -0.2597488 -0.12916309
000140 fe b6 31 bc b3 f6 97 3c 3a d6 f9 bc b9 77 e4 3d
       -0.010846851 0.018550253 -0.030497659 0.11155648
000150 32 a3 5c be 9b 95 35 3d c6 a4 a8 be c2 bc 18 3b
       -0.21546629 0.044332128 -0.32938212 0.0023305868
000160 4c 45 b1 3c 06 a2 07 bf 11 c8 99 bd e7 e6 55 be
       0.021639489 -0.52981603 -0.07508863 -0.20888864
000170 11 f0 9e bd 7d 64 f4 bd ea dd e2 bd a2 ea 85 3d
       -0.07760633 -0.11933229 -0.11077483 0.06538893

final.linears.2.weight f4 [16, 96]
000000 05 1c ae be 36 1a fa 3e 47 99 5e be b8 48 1f be
       -0.34005752 0.48848122 -0.21738158 -0.15555084
000010 d1 4e e7 bb 84 47 de 3a bc 7a 9a 3e 6d e1 33 be
       -0.007058956 0.0016958569 0.30171764 -0.17566462
000020 c4 a6 53 3d cd 64 f0 bd 44 a4 e6 3d e7 99 15 bc
       0.051672712 -0.11737976 0.112618 -0.009130931
000030 e1 78 e2 bd 2e 1b 9e 3e 5f bc 47 3c 32 b5 d7 ba
       -0.11058212 0.3088011 0.012190907 -0.0016457199
000040 fc ec ea bd d1 e9 64 3e 53 55 46 be d4 21 5c 3c
       -0.114709824 0.22354819 -0.19368486 0.0134358
000050 ea a7 54 3c 7b 15 54 bd 61 ad 8f be e0 c4 13 3f
       0.012979487 -0.051778298 -0.28061965 0.5772228
000060 a2 bd 1f 3e 0c e0 79 3d c8 e5 52 bf 72 4f d9 3b
       0.15599683 0.061004683 -0.8238187 0.006631785
000070 c5 ec cc bd 5b 61 85 3b 29 5e 98 3b e2 96 88 3a
       -0.10006098 0.0040704436 0.0046498966 0.0010420943
000080 e6 e0 fe be 16 36 37 3e fa 8c 5e be 34 0e 1f 3f
       -0.4978096 0.17891726 -0.21733466 0.6213105
000090 a6 52 8f 3e b5 f0 23 3f 58 cc 1b 3d e0 1d 9c be
       0.27992743 0.64039165 0.038036674 -0.30491543
0000a0 f3 0a 2f bc 19 41 f1 3d 63 82 06 bf 73 d9 3c 3c
       -0.010683763 0.117799945 -0.52542704 0.011526453
0000b0 75 66 f6 be ed 46 94 be 4b f8 db bb 46 3d 08 be
       -0.48125044 -0.28960362 -0.0067129484 -0.13304624
0000c0 20 de f8 3d d0 8b b8 bc 2e 04 50 3e 3e a2 a9 bd
       0.12151742 -0.022527605 0.20314094 -0.08282898
0000d0 ad 2b 27 3f 3e b4 0e be c7 f4 7b 3b 3d da d7 be
       0.6530102 -0.13935944 0.003844546 -0.4215869
0000e0 e6 60 1d 3e 27 86 94 3d a7 e2 1c bd 0e ec c6 3c
       0.15368995 0.0725215 -0.03830209 0.024282482
0000f0 dd 33 5d be 16 8d 1c bd c3 f4 16 bf 49 00 02 3d
       -0.21601816 -0.038220488 -0.58967227 0.031738553
000100 b0 8e 82 3d 25 83 0b be 67 85 87 3e 3b 1a 7e be
       0.06374872 -0.13624246 0.26468965 -0.24814694
000110 12 dd 43 bd 74 c3 4c 3e 5a 60 36 3e 60 65 1c 3d
       -0.04781825 0.19996434 0.17810193 0.038182616
000120 00 1d 74 3b 5b fd 51 bc a0 b8 4f bb 90 b8 2c 3e
       0.003724873 -0.012816752 -0.0031695738 0.1686728
000130 de af c6 3e 1a 8b 1e 3e 07 e5 10 3b cd 40 34 be
       0.3880605 0.1548275 0.0022109167 -0.17602845
000140 d7 f5 be bd e3 ab a1 bc 20 05 9c 3e 58 07 5f 3b
       -0.09324234 -0.019735282 0.3047266 0.0034031477
000150 4a 76 f5 3d 57 7d 94 3d cb 72 e9 3c 94 b2 58 bd
       0.119854525 0.07250469 0.02849712 -0.05290468
000160 03 e2 6c be d8 55 e7 3c ef 26 59 be 37 d8 96 3d
       -0.23133092 0.028239176 -0.21206258 0.073654585
000170 55 27 9d 3e 66 f7 97 bb 8a 90 c5 bc 42 f4 56 3e
       0.3069407 -0.0046376465 -0.024116773 0.20991614
000180 ec c9 fd 3e ba 3a dd 3e 60 34 07 3e d1 20 2e 3e
       0.49568117 0.43208867 0.13203573 0.17004706
000190 c2 e0 7b bc f9 9c ec bb 66 99 b2 bd 65 2c 89 bc
       -0.015373411 -0.007220861 -0.08720665 -0.016744802
0001a0 f8 5b 9a be 88 03 2a 3e 4d e8 14 3e dd e7 eb 3c
       -0.30148292 0.1660291 0.1454174 0.028797084
0001b0 0d b3 8c 3c a2 1c b1 be ef ee 57 3d ae d3 dd 3b
       0.017175222 -0.34592158 0.0527181 0.006769619
0001c0 60 ca 12 3f 62 1a d5 3d a8 33 10 bf 6a e9 dc 3d
       0.5734005 0.10405423 -0.5632882 0.10786708
0001d0 4d 58 b3 3d 2d 91 9d be a6 74 8d 3d 1b bb 39 be
       0.087570764 -0.30774823 0.069070145 -0.18137781
0001e0 98 5d bb 3c eb 7d 6b bd 06 86 19 be 79 58 a0 bb
       0.022871777 -0.05749313 -0.14992532 -0.0048933593
0001f0 50 c5 03 3e bd 05 82 3a 23 24 07 3d d3 96 07 bc
       0.12868237 0.0009919923 0.032993447 -0.008275705
000200 78 24 76 bd b9 db 00 bc 9e c4 44 3f 6a c8 ae 3d
       -0.060093373 -0.007864886 0.76862514 0.0853432
000210 82 fe 55 be 2f c7 bd be ee 32 53 bd 34 07 23 be
       -0.20897868 -0.37066028 -0.051562242 -0.15920717
000220 f8 cb 8c bc 6a 6c 82 3d a3 79 9b 3e ea 65 d6 bb
       -0.017187104 0.063683346 0.3036624 -0.006542911
000230 5f a4 14 3d 3e 8c 1f bf c1 c1 4c 3b 95 2c 10 be
       0.03628957 -0.6232337 0.0031243416 -0.14079507
000240 fb 12 46 3e be 52 6b bd 9c 66 4c be a9 8d bd 3e
       0.19343178 -0.057451956 -0.19961017 0.3702214
000250 c6 32 4c bd 67 56 a7 bd 9b 3f 2a 3a 00 5d 7c be
       -0.04985311 -0.08170777 0.00064944633 -0.24644852
000260 be 07 e2 3d 73 57 0b 3e c0 25 23 be 59 e6 d9 3d
       0.11036633 0.13607578 -0.15932369 0.106396385
000270 e9 cf 38 bc fd 22 6d bd ae 22 ea be 73 1c a7 bd
       -0.011280038 -0.057894696 -0.45729584 -0.08159723
000280 e2 be cd 3e 72 b6 84 3e c0 c2 df 3e 37 e9 98 3b
       0.40184695 0.25920445 0.4370327 0.0046664733
000290 6a 08 b8 3e f9 99 f6 bd 2b 8e 07 be 3d bc 25 3e
       0.3594392 -0.12041087 -0.13237827 0.16185088
0002a0 8e 17 41 3b 58 28 1d 3f 19 cc d8 3c 2d 92 af bd
       0.0029463503 0.61389685 0.026464509 -0.08572803
0002b0 85 ca 98 bd eb 52 c4 be 48 a6 e4 3b a8 4b ab 3d
       -0.074605025 -0.3834451 0.00697783 0.0836404
0002c0 e7 b8 06 be 66 68 13 3c 8d 8e 64 3e 43 f9 4e 3b
       -0.13156472 0.0089970585 0.22320004 0.0031581677
0002d0 77 6f 5f bf 79 07 c6 be e6 37 b2 bb c1 bd 03 3d
       -0.87279457 -0.38677576 -0.0054387925 0.032163385
0002e0 71 81 9e bd 8d b8 2d bd cb 4d 26 be bb 34 19 be
       -0.07739533 -0.04241233 -0.16240613 -0.14961521
0002f0 94 a9 8c 3e a1 8c 36 3b 95 c8 14 bd 11 d2 36 3e
       0.27473128 0.0027854817 -0.036324102 0.17853571
000300 99 ea 83 ba 4b 51 da 3c 2a 8c dd bb 17 71 00 3e
       -0.0010064422 0.026650092 -0.0067610936 0.1254314
000310 9a c7 c6 be f7 32 8a 3e ab 85 03 3e 1f a8 eb 3a
       -0.3882416 0.26992008 0.12843959 0.0017979181
000320 a3 eb 80 3d eb ce 0e be 68 7e de bd 40 77 17 3c
       0.06294944 -0.1394612 -0.10863954 0.00924474
000330 b4 b1 5d bc bd ac 8c be 71 b7 8b bd fd bd 8d bf
       -0.013531137 -0.2747554 -0.06822098 -1.1073605
000340 fc 22 b2 be 48 85 bb ba 59 44 38 3e 68 b0 3f 3d
       -0.34792316 -0.0014306689 0.17994823 0.046799093
000350 9a 05 e6 b9 70 55 a2 3c 45 0a de bd 37 0c 28 be
       -0.00043873192 0.01981613 -0.108418025 -0.1641091
000360 44 d9 3c be db ba 07 bf cc 46 93 be f6 23 1f 3e
       -0.18442255 -0.53019494 -0.2876495 0.15541062
000370 62 97 41 3f 46 e0 65 3e 3e 55 e3 3d 0b b8 19 3f
       0.75621617 0.22448835 0.11100243 0.6004645
000380 cf de 07 3c 08 21 f3 3c 2e f5 b4 be a4 a4 09 3e
       0.008292868 0.029678836 -0.35343307 0.13441712
000390 9e 96 64 3d 30 65 98 3e ec 1e 31 3f 90 e9 2c bd
       0.055807702 0.297647 0.6918781 -0.04221493
0003a0 29 7e d8 bd 62 f3 9f bd 75 83 53 3e bf 3c 80 be
       -0.10570938 -0.078100935 0.20655616 -0.25046346
0003b0 71 be f3 bd 65 c1 43 be b9 df 53 3f 9e 2f bf bc
       -0.11901558 -0.19116743 0.8276325 -0.023338135
0003c0 cf 78 95 3e 6f b6 b0 3d 4a 39 04 be 81 82 83 bd
       0.29193732 0.086285464 -0.12912479 -0.06421376
0003d0 06 2f 0e be c1 3d 1a 3d 0e b3 21 3e b7 a6 30 be
       -0.13885126 0.03765655 0.1579096 -0.17251097
0003e0 56 c9 fd bc 56 c5 2b 3d 77 43 6a 3d 3c bd 94 3d
       -0.030979794 0.04193624 0.057193246 0.07262656
0003f0 a2 c9 ac 3e fc 86 51 3d 6b f6 ab 3c ad 76 64 3d
       0.33747584 0.05115412 0.020991525 0.05577724

final.linears.2.bias f4 [16]
000000 00 a9 e9 3b 6b 9b 08 3a 2e a4 1b 3f 59 63 27 bf
       0.007130742 0.00052111474 0.60797393 -0.6538597
000010 f8 86 1a 3d 36 06 e6 3d 12 05 5d 39 8b b0 8d 3d
       0.037726372 0.112316534 0.00021078091 0.069184385
000020 63 c5 a6 bc 11 97 07 be e0 e2 13 be 86 e1 e3 3b
       -0.020357793 -0.13241221 -0.14442015 0.0069543747
000030 c2 bf e8 bc d2 09 04 bd 75 3e 37 bc 5c e9 14 bc
       -0.02841175 -0.032235928 -0.0111843245 -0.00908884

layers.0.attn.0.gnn_q.weight f4 [16, 16]
000000 42 b1 a1 3a 5e 94 16 3c ce 4f 01 bc 18 14 16 3c
       0.0012336152 0.009190647 -0.007892562 0.009160064
000010 e1 82 40 ac 8d 9e c4 39 6d dd b0 b8 2a 8c df 26
       -2.7357493e-12 0.00037502163 -8.433578e-05 1.5511725e-15
000020 a2 5b 2c b4 6e 4d d1 bb 3e cf bf 34 24 fe 5d 31
       -1.6052084e-07 -0.006387404 3.572731e-07 3.2304195e-09
000030 dc 6c 13 bb 1b d3 b3 37 14 46 ae 3b 62 45 16 b2
       -0.0022495305 2.1436766e-05 0.0053184126 -8.746925e-09
000040 8e b9 58 bc 1b 4e dc 3c 2b 20 b9 3b 35 48 e3 3c
       -0.013227833 0.026892712 0.0056495867 0.027744392
000050 31 ee df 2b 88 40 1d bb d9 64 13 b9 25 b5 06 27
       1.5911214e-12 -0.0023994762 -0.00014056581 1.8694434e-15
000060 87 6d a1 b2 8e aa 97 bb 6a de 0a 35 4a 35 97 b1
       -1.8792674e-08 -0.004628486 5.173266e-07 -4.4007367e-09
000070 da 0f a0 bb ac 8a bf 37 23 37 8c ba 7b 32 9f b3
       -0.004884702 2.2833548e-05 -0.0010697584 -7.413197e-08
000080 bf 97 e8 3d 00 95 e1 be 3d 6d 61 bd 01 45 f4 be
       0.11357068 -0.4405899 -0.05503582 -0.47708896
000090 89 09 fe 2a bc 92 28 ba 78 29 6d 39 7e f7 85 a6
       4.512608e-13 -0.00064305565 0.0002261753 -9.295812e-16
0000a0 16 73 a0 33 bf ec a5 bc 9b 9c 96 b5 d1 2a a3 b1
       7.4715146e-08 -0.02025449 -1.1221449e-06 -4.748792e-09
0000b0 90 dc 53 bb b7 09 c5 38 53 80 81 3c 8f 77 30 b3
       -0.003232751 9.3955015e-05 0.01580826 -4.108693e-08
0000c0 a6 45 9a bd a1 f6 66 3e e0 ee 17 3d 41 fb 7a 3e
       -0.07532816 0.22555019 0.037093043 0.24509908
0000d0 c0 be 7a 2b 96 a1 8d bb 78 39 b3 b9 06 88 e2 26
       8.908256e-13 -0.004322241 -0.00034184358 1.5718769e-15
0000e0 a6 43 1d 34 b5 9e 82 3b 50 75 1e 35 83 5b 38 32
       1.4646375e-07 0.0039862045 5.90303e-07 1.0731017e-08
0000f0 88 f1 24 bb 4c f5 fa b7 f4 5d 1a bc 8c d5 2d b4
       -0.0025168378 -2.9916548e-05 -0.009421814 -1.6189568e-07
000100 db d2 85 bd 8b 32 2c 3e 31 9d 14 3d fc 75 37 3e
       -0.06534358 0.16816156 0.036282722 0.17916101
000110 e8 19 11 a8 79 0c e3 3a 35 6b 21 39 04 9f a5 25
       -8.0547345e-15 0.0017322443 0.00015394094 2.873069e-16
000120 b1 42 11 b3 af 00 96 3c 06 85 20 b4 3e ee bc b0
       -3.38211e-08 0.018310873 -1.4949555e-07 -1.3746513e-09
000130 5b 97 38 3b 74 b3 88 b7 94 91 03 bc 67 da 09 34
       0.0028166387 -1.6296028e-05 -0.008030314 1.2838574e-07
000140 42 95 70 3c 47 60 89 bd c2 19 1a bb 73 8c 94 bd
       0.014684023 -0.067078166 -0.0023513888 -0.07253351
000150 61 15 8a 2b d3 35 5a ba 90 c6 49 b8 18 b4 90 a5
       9.811424e-13 -0.00083240605 -4.810706e-05 -2.5102054e-16
000160 c6 db 8d 33 ef 2b b7 ba 10 23 fa b4 c6 da e4 30
       6.605801e-08 -0.0013974885 -4.659164e-07 1.6651363e-09
000170 aa 65 65 3a c2 87 d9 b7 bb 3c 33 bb 8e 9d b2 b3
       0.0008750806 -2.5931633e-05 -0.002734943 -8.31743e-08
000180 ea 77 7f b9 3c 04 08 bc 49 d0 e0 b9 b5 46 20 bc
       -0.00024363367 -0.008301791 -0.00042879794 -0.009782483
000190 ce 56 2b 2c 1f a3 a6 bb 29 28 81 39 b5 c8 0b 27
       2.4348748e-12 -0.0050853635 0.0002463472 1.9398929e-15
0001a0 a5 60 f1 33 ca c0 0f bc 47 fa 12 b5 f4 bc c7 31
       1.12400166e-07 -0.008773992 -5.475344e-07 5.8131437e-09
0001b0 12 ca 5f bb 42 c3 07 b8 cd e4 7f bb 2d b1 90 33
       -0.0034147543 -3.2368356e-05 -0.0039046288 6.7377506e-08
0001c0 d0 04 89 bb 4a 08 e0 bc fc 4e 53 3c 7c 6e e7 bc
       -0.004181482 -0.027347703 0.012897249 -0.028250925
0001d0 14 e2 7b ab 48 51 5b 3b d2 32 c4 39 19 ec 69 26
       -8.948686e-13 0.0033465195 0.00037421897 8.1158086e-16
0001e0 15 80 bb b3 f2 fd 64 3c 47 d5 94 b5 d5 81 c7 b1
       -8.731164e-08 0.013976561 -1.1088931e-06 -5.8064225e-09
0001f0 f0 84 43 3b 8d be c0 35 51 a2 9c bb 9c 12 f7 33
       0.0029833876 1.4360572e-06 -0.004780092 1.1505219e-07
000200 a0 89 e9 bc 7d fa f6 3c 0c 6c a2 3c 7d 83 f7 3c
       -0.028508008 0.030148739 0.019826911 0.030214066
000210 a5 89 82 ab ba f3 2e 3b f9 b9 1a 39 00 01 63 27
       -9.27526e-13 0.0026695565 0.00014755865 3.150312e-15
000220 7d 10 5a b3 ac 21 33 3c 3d c9 e5 b4 13 fa 18 b2
       -5.0772076e-08 0.010933321 -4.2800994e-07 -8.904425e-09
000230 1a f6 ac ba ea 9e 1d 38 42 1c db bb de 2c b6 33
       -0.0013195903 3.7579717e-05 -0.006686718 8.483197e-08
000240 05 e9 09 bd 74 5e c0 3d e5 ed 8b 3c 81 57 cd 3d
       -0.03366949 0.093930155 0.01708121 0.10026456
000250 bd 33 94 2c 70 bd db ba 7e d6 9d b8 cf e5 6a a7
       4.212157e-12 -0.0016764831 -7.526296e-05 -3.2598603e-15
000260 9d cc 89 34 20 27 59 3a 2f 50 08 35 90 81 1e b1
       2.5667114e-07 0.0008283723 5.078063e-07 -2.3065674e-09
000270 a8 70 9d b9 f7 0a a1 b7 ea fc 3e bb d7 35 54 34
       -0.0003002931 -1.9197802e-05 -0.0029142448 1.9763625e-07
000280 06 a3 0f 3d a8 f5 00 be 4a 73 86 bc a7 80 0b be
       0.03506758 -0.1259371 -0.016412396 -0.13623296
000290 52 be 23 ac 1e 2f 8e 3a 7a 2e 12 b9 d7 9e 23 27
       -2.3269342e-12 0.0010847782 -0.00013940959 2.2706901e-15
0002a0 c4 f6 41 b4 57 81 f8 ba c6 a8 02 35 58 a7 43 b1
       -1.8064299e-07 -0.0018959445 4.867437e-07 -2.8471359e-09
0002b0 80 57 2d 3a f6 70 82 37 7f c6 4e 3b 4a 92 a3 33
       0.0006612465 1.554981e-05 0.0031551418 7.616889e-08
0002c0 51 8a c7 ba 92 83 1c bb bf f0 fb 3a 10 b6 45 bb
       -0.0015223717 -0.0023882133 0.0019221528 -0.0030168332
0002d0 6c 77 1a 2c c5 ce 99 bb 00 b7 e8 38 e4 17 8a a6
       2.1951009e-12 -0.0046938383 0.000110967085 -9.582149e-16
0002e0 42 85 5f 34 21 68 1b bc ec 53 ac b4 1d 89 97 32
       2.0816972e-07 -0.0094852755 -3.2098558e-07 1.7641065e-08
0002f0 3e 55 f3 ba 90 f9 8a b8 4d 34 05 bb b1 83 37 b2
       -0.0018564833 -6.6268374e-05 -0.0020325363 -1.0681945e-08
000300 f5 a4 5c bb 80 a1 b2 b8 cc 51 0d 3b 06 74 af ba
       -0.0033667658 -8.517783e-05 0.0021563647 -0.0013386018
000310 1b 96 6b ab ca e6 d9 3a e4 b9 96 b9 74 1c 03 27
       -8.3697085e-13 0.0016624567 -0.0002874873 1.8195326e-15
000320 74 00 d5 b3 f1 41 a8 3b 38 bb 59 35 7e 2c 09 b1
       -9.918668e-08 0.005134814 8.111124e-07 -1.9961415e-09
000330 6d ba f1 3a 30 54 85 b7 4c 4b 7a ba 30 e6 3b b4
       0.00184424 -1.5894038e-05 -0.0009547963 -1.7499474e-07
000340 e9 9e 0b bd 0e 79 54 3d eb 4a 9f 3c 79 f5 52 3d
       -0.034087095 0.05187326 0.019444903 0.051503632
000350 36 c7 e1 2a f1 e3 e6 ba 80 3b 36 38 dc 36 90 26
       4.010626e-13 -0.0017615539 4.3447595e-05 1.0006877e-15
000360 56 b2 3d 33 f0 aa a1 3b 94 6d 26 b3 2e 75 96 31
       4.4167187e-08 0.0049337074 -3.8749548e-08 4.3788964e-09
000370 6a 16 ef b9 31 99 cd b7 1f e0 c0 bb 99 ec 19 b4
       -0.00045602332 -2.450924e-05 -0.0058860923 -1.4335309e-07
000380 6c 54 e6 bb e7 11 1f bc 12 db a3 3b 34 30 41 bc
       -0.007029107 -0.009708858 0.0050004805 -0.011791278
000390 a8 e0 b9 2b a4 42 43 bb fe dc d4 39 e9 10 2c 27
       1.3207395e-12 -0.002979436 0.00040600443 2.3878962e-15
0003a0 6a eb cf 33 f2 b9 e0 bb 30 9e a4 b5 8b 47 98 b1
       9.68201e-08 -0.006858104 -1.2264991e-06 -4.4319157e-09
0003b0 81 8c 31 bb 02 e3 02 37 f2 ba a5 bb b0 49 c5 33
       -0.0027091803 7.801458e-06 -0.005057686 9.186931e-08
0003c0 fc 86 98 3c 4a e0 0b bd 76 f2 46 bc 58 b3 0f bd
       0.018619053 -0.034149446 -0.012142768 -0.035083145
0003d0 ba 1a cd ab 5e 33 13 bb 13 07 a1 38 24 ab 67 25
       -1.4573544e-12 -0.0022461037 7.678396e-05 2.0094041e-16
0003e0 3d ed dd 32 7c 06 2a bc 56 f7 e4 b3 8d 5f 9b 31
       2.583567e-08 -0.010377523 -1.06620675e-07 4.5219566e-09
0003f0 dd 40 76 bb 97 a2 1f 37 fa fe 42 3b 11 b9 54 b4
       -0.0037575283 9.514994e-06 0.0029754029 -1.9811365e-07

layers.0.attn.0.gnn_q.bias f4 [16]
000000 68 31 4c bb c1 08 22 be ea b0 3c 3c 5d d5 2d be
       -0.0031157378 -0.15823652 0.011516789 -0.16975923
000010 e7 3f e4 2b d8 cf ad bb 9e 21 fb 38 b9 53 75 a6
       1.6218111e-12 -0.005304318 0.00011974874 -8.5114916e-16
000020 2a af 43 34 4f ce 35 bc 6b 55 20 b5 3e f4 bc 31
       1.8224515e-07 -0.011096551 -5.9728944e-07 5.4992872e-09
000030 bb 96 87 3a 16 a0 9b b8 40 01 9c bc f7 4c 92 b3
       0.0010344604 -7.420794e-05 -0.019043565 -6.8126546e-08
