checkpoints/cyp2c19_veith_33_train1_neg/Aug29-20:09:55_700.pth (torch, 486591 bytes, 294 tensors)

layers.0.weight f4 [26, 16]
00000000: 2897 fe3e 3cc8 753d d87a 383e 9daf 1f3e
00000010: 6ba2 853e bd44 c3bd 4070 d23e 4174 0b3f
00000020: ee22 8abe 9b2f c4be 7050 d73e 5e5e d03e
00000030: 5651 043f 6aca 983e 45ba 95be 7d31 d5bd
00000040: 2bd3 c63f 90b0 51bd 128f 08bf e09d d9be
00000050: ea93 a4be bc49 4abe 65f9 2cbd 2afb ce3b
00000060: f9f8 8dbe 3011 9bbf f389 bc3d bd0f 64bd
00000070: 990e e03d e777 abbe cc36 9dbe e0c1 5abe
00000080: c497 323e 8c5c 043e e059 8c3d 00fc 353d
00000090: 4e6c a1bd d7f6 863d 5a0c 393e fd8e 56be
000000a0: 54a5 5a3e 70b4 c7bd a915 52bc 310a 4b3e
000000b0: b833 a73e 9d42 bfbd 1872 6d3e 426b 563c
000000c0: b843 223e cede c53a 75fa 683d c903 003d
000000d0: de7e 94bd e9e6 533d 5a4b 343e 0155 31be
000000e0: bc43 603e 7690 c6bd f85d 843e 3389 3e3e
000000f0: 383f 713d 5cc2 babd ee46 7b3e 48f2 b73c
00000100: 331d 0c3e ca28 cf3c 1f4a 5e3d a5ba fb3c
00000110: ba0e 6cbd b971 173d b3c0 433e aee8 213e
00000120: 8004 4c3e 53c1 c3bd 1930 eb3d 708a 453e
00000130: 31df 3dbe a0d3 7bbd c4ff 583e 39ab 9a3c
00000140: 3ca8 223e 5209 563b 8dd8 243d 6141 7e3c
00000150: dcaa 10be 7613 9b3c 6367 803e 311d 173e
00000160: e715 7e3e 02d1 c3bd 1c44 c9bc 5185 653e
00000170: 7ca3 b4bc e53e 17be c699 773e 8d87 933c
00000180: 4a84 5b3f ef84 ecbd 4639 603c 10a9 5d3c
00000190: ec53 c2be 44fc 41be 052d 2abf 0e83 3fbf
000001a0: 87cb 673e dea0 2cbf 9cfd 01bf 3768 2cbf
000001b0: 612c 3dbf 3a05 dfbe be23 5e3e db33 2dbe
000001c0: 8915 273f ee30 edbd 641d bdbe 4fff 8cbe
000001d0: 5b06 3fbe 8d15 afbf 79f2 9dbe 9f9a 96bd
000001e0: e5b5 c63d c0d3 09bf 7ee6 d9bd 017b 98be
000001f0: fe63 d1bd b5d4 4cbe 1ea0 f83d 2562 a4bf
00000200: 04b7 c03f 5699 e83c af31 993f fa66 773f
00000210: 57ff d3be a599 103e 5b17 b2bd e061 943e
00000220: cce7 fabd 0613 97bf b56f 193e f97e a1bd
00000230: 6f62 663e 65a3 e9be 849c dabd 5925 003e
00000240: 6e3f 6f3e 841e 0e3d 2a9f 313e e953 003e
00000250: 864d 2dbd e45a 793d eb8b 203e f948 163e
00000260: 680d 843e a6ad 2cbe 5a77 a93b b7b2 393e
00000270: 7769 3d3d 56ee 9abd f60b 8a3e d16e 273d
00000280: e5a3 cb3e 56ed 9eba 73fa 1d3e acbd f03d
00000290: dc63 a13e 2adf b6be 5616 9bbb 419a 2ebd
000002a0: 92e3 81be 7124 9ebe 543b eabd 644a 13bc
000002b0: 398c 0dbe a87f ae3e e3de 83be e8ca a5be
000002c0: 37c0 9dbf 8da4 9d3d 9ea6 f03e e961 c43e
000002d0: a8b9 06be f107 a53e 07f0 f73e a4ab 453f
000002e0: b849 5a3b a51d 793f 4caa 0e3f 7544 f93e
000002f0: 88bb 403f c749 10be 0027 7ab8 7652 9e3e
00000300: d47d d63f 7ee2 8e3d 4574 923e 62c0 483e
00000310: 00c1 d53d 7ee9 03bf 588a 953f f530 1f3f
00000320: 7e7f de3c 1ca7 a9bf 2276 dd3e 9af3 953f
00000330: e20a 003f 6f28 da3d 9c4c 7d3d 2f41 f0be
00000340: 7c1b b43d af26 533d be2c 9f3f 55ee 7a3f
00000350: ad99 cb3e 97f2 4ebf 2239 3e3d 3e79 953d
00000360: 1d02 323e 8eaf 86bd 5835 7d3d 3210 bc3d
00000370: ca86 ae3d 09fd d73e ab45 393e cb99 49bf
00000380: a70c a6bf 1535 36bd 6bc1 723e d9dc 453e
00000390: cfc7 103d 2bd7 adbf 1023 02bf ab93 073f
000003a0: e2e2 82be ab1c 823f cc71 bb3e 8faa 06bf
000003b0: 2c14 133f ff83 193d e82c 92be 30f4 a0bf
000003c0: da22 153e 6bc7 e0bd 0d77 2fbf 1207 0abf
000003d0: 9f84 81bf 6693 91bf 7721 48be 9f13 173f
000003e0: b16e 8e3d 7f79 ffbd 66e7 e13e 6ed5 3bbe
000003f0: f0b6 fe3e 33ee 89bf 4a27 9a3d 75ac 8cbf
0.49724698 0.06000541 0.18015611 0.15594335 0.26100478 -0.09534595 0.41101265 0.54474264
-0.26979774 -0.3831757 0.42053556 0.40696996 0.5168661 0.2984193 -0.29243675 -0.1040983
1.5533193 -0.051193774 -0.5334331 -0.42503262 -0.321441 -0.1975469 -0.04223003 0.006316562
-0.27729014 -1.211462 0.09205999 -0.05567907 0.10940284 -0.33489916 -0.3070587 -0.2136302
0.17440706 0.12925929 0.0685308 0.04442978 -0.078819856 0.0659005 0.18071118 -0.20952983
0.2135213 -0.097512126 -0.012822547 0.19828106 0.32656646 -0.09338877 0.23188055 0.013087096
0.15846145 0.0015096308 0.05687948 0.03125361 -0.072507605 0.051733885 0.1760687 -0.17317583
0.21900839 -0.096955225 0.25852942 0.18607025 0.05889818 -0.09119102 0.24538776 0.022454396
0.13683014 0.025288004 0.054269906 0.030728647 -0.05763123 0.03697369 0.19116478 0.15811417
0.19923592 -0.09558358 0.11483783 0.19291091 -0.18542172 -0.06148112 0.21191317 0.018880473
0.15884489 0.0032659364 0.04024558 0.015518517 -0.14127678 0.018930178 0.25078878 0.1475723
0.24813043 -0.095613495 -0.02456861 0.22414137 -0.022050612 -0.14770086 0.24179754 0.018008972
0.8574873 -0.115487926 0.01368553 0.013529077 -0.37954652 -0.18943888 -0.66474944 -0.7480935
0.22636233 -0.67432964 -0.507776 -0.6734652 -0.7389584 -0.43558675 0.21693322 -0.16914313
0.65267235 -0.11581598 -0.36936486 -0.27538535 -0.18654768 -1.3678452 -0.30849054 -0.073537104
0.097026624 -0.5383873 -0.10639666 -0.29781345 -0.1022415 -0.20003016 0.12139915 -1.2842451
1.5055852 0.028393429 1.1968287 0.96641505 -0.41405746 0.1412111 -0.08695861 0.28980923
-0.12251243 -1.180268 0.14984019 -0.07885546 0.22498487 -0.45632473 -0.10674384 0.12514247
0.2336404 0.03469707 0.17345873 0.12532009 -0.04231026 0.060877696 0.15678374 0.14676274
0.25791478 -0.16863117 0.0051716985 0.1813458 0.046243157 -0.0756499 0.2696225 0.040877167
0.3977348 -0.0012125175 0.1542757 0.11754927 0.315215 -0.35717136 -0.0047328873 -0.042627577
-0.25368935 -0.30887178 -0.11437097 -0.008989904 -0.13823022 0.3408177 -0.25755987 -0.32381368
-1.2324284 0.07697401 0.4700212 0.3835595 -0.1315676 0.3223262 0.48425314 0.7721503
0.00333081 0.9731086 0.557286 0.4868504 0.7528615 -0.14090644 -5.9640966e-05 0.30922288
1.675715 0.06976794 0.28604332 0.19604638 0.104372025 -0.51528156 1.1682844 0.6218408
0.027160402 -1.3254123 0.4325419 1.1714966 0.50016606 0.10652243 0.06184064 -0.4692473
0.08794305 0.051550563 1.2435529 0.98019916 0.39765683 -0.8083891 0.046441205 0.07298516
0.17383619 -0.06576453 0.06181845 0.091827765 0.08521803 0.42185238 0.18092982 -0.78750294
-1.2972611 -0.044484217 0.23706596 0.19322528 0.035346802 -1.3581289 -0.5083475 0.529597
-0.25563723 1.0164999 0.36610258 -0.52604 0.57452655 0.037479397 -0.28549886 -1.257452
0.14564076 -0.10975536 -0.6854103 -0.5391704 -1.0118598 -1.1373107 -0.19544016 0.59014314
0.069547065 -0.124743454 0.44121855 -0.18343136 0.49748945 -1.0775818 0.07527025 -1.099013

layers.0.bias f4 [16]
00000000: 4b63 803e 1469 7c3f 1998 d13e f54e 7fbe
00000010: e698 993e 71b7 913e 80ab f0be 6425 2c3e
00000020: d577 fabe adde 713e 8def 79bd 8a4d 63bd
00000030: 8373 68be 4937 8cbe 5491 913d 9b90 97be
0.25075755 0.98597836 0.40936354 -0.24932463 0.29999465 0.28460267 -0.47005844 0.16811138
-0.4891955 0.236201 -0.06101947 -0.05549387 -0.22700314 -0.2738593 0.07107797 -0.29602513

layers.1.weight f4 [16, 16]
00000000: 5806 e43e c9c4 04be db20 e73c a9c3 01be
00000010: 9784 5c3e bf15 52be 93c1 9c3c 0a6f 1ebb
00000020: 349c 293e e16d 1f3f bf32 81be da04 17bf
00000030: 035d 5ebd 7db6 d6bb 29a5 643f 00a0 0bbf
00000040: b847 7c3c 441a c03e 7fa7 13bd 2527 1d3e
00000050: 704f 1b3e 128f 843e dd58 2abf b5b7 bb3e
00000060: f450 2ebf d5d0 f43d 54a3 8c3e 15f5 553f
00000070: 0adb 023f 818e 76bf 6dc5 2bbf a37f 893e
00000080: b63a b43e 6829 02bc e5b2 da3d 9c22 1ebf
00000090: ae72 7abe fe4b 2ebc ef42 0f3d 7f4d 0b3d
000000a0: f126 e83d 0375 b13d df43 9ebd 1ba8 ec3d
000000b0: 16df 41be 8421 953e 44eb 003e 464a bbbe
000000c0: 460b bfbe 0d7d d13d 2928 3a3d ba15 0abf
000000d0: fb87 0f3f 061d a93d 65d4 9fbd 21ec e43d
000000e0: df97 97bc 707c 6bbe 6608 753d e4ab 813f
000000f0: afe6 373d aa76 27be 9a53 2e3e 9442 bf3e
00000100: 6d37 983e 02ac a6bc 1348 7c3c 33b2 eebd
00000110: aadb 9cbe 8be8 eebc 1471 fc3c 6a4f 1c3e
00000120: 60a4 9e3d 3a29 423f f247 df3c 06ef f83d
00000130: 2d67 ae3d 7b94 37bf 8277 8dbe c11e 40be
00000140: 86ae e03e 181e 0cbd 8dea 0cba e680 0ebe
00000150: b168 0dbf b1ac 86be 360f dc3d b947 d7bd
00000160: 527b 223e 2acf 5d3f 3a40 68bd 3cc4 eabe
00000170: acc7 83bd 785b 5cbe 36e8 013d f5e7 03bf
00000180: b3c1 adbe fa78 d23d d025 59be 15fd 3ebf
00000190: 138e 4f3d a802 3ebd 6196 a93b 8563 313e
000001a0: 424c b0bd dcfc 743f 2623 87bd b869 3a3f
000001b0: 5c83 933d 71c2 8cbf 4746 af3d 7286 3a3e
000001c0: f865 613d a56f 683e 944f 283d c4c0 aebf
000001d0: 675e 9c3c 9d8e 1dbe 018b 993d bfa9 e4bc
000001e0: 33f5 cfbd 82af 863d 8f20 93bd 1ad6 a73f
000001f0: eb30 9abd 68de 43bd b59d 433d 3ced eabd
00000200: 85e0 88be 4da6 4cbe f602 2c3c 0ab4 263f
00000210: 8d0c 8d3d 7a06 9bbe f561 6c3d 86fd 173d
00000220: 71ce 2ebb 7d84 d23d 7ef6 a33d d125 35bf
00000230: 9712 263e 1544 083e fe51 273e 65b0 f63d
00000240: a9ef ee3e cb2d 5bbd f5ef 39be 8f3a 16bf
00000250: 6d0d adbf 63a8 1bbe 58de b73d b501 dabd
00000260: 3883 0f3e fa89 00bf 8f48 c13b ea0d 52be
00000270: 621c 86be 0c96 923f f64e 10bf 697d 13bf
00000280: 6b42 bdbc 02cf d53d ce65 98bb db05 96bf
00000290: f57b fa3d c9bc f1bd e7e8 07bd 4d75 f63c
000002a0: 0090 c6bd 2d08 d13d f9eb f2bd b4ec 943f
000002b0: a928 10bd 0ebf 02be 7d6a d43d 5922 f83c
000002c0: 4576 a73e 3378 b53d c36e 01be 46e7 e8be
000002d0: 4e96 03be 11af 9f3c f05c 363e 4f52 4b3d
000002e0: f56e b83b 571d 833f 3440 13be b14f d13e
000002f0: 73af fbbd 2700 52bf 238b 26be 7a3e 3dbe
00000300: 520e 99bc 21db 9a3d 0e85 99bd 0ba5 acbf
00000310: 3234 65bd c1a4 6e3e 630f 743e 20da 053c
00000320: 5204 003e 6fe1 ccbd bc75 4f3d 8a7f a73f
00000330: a548 8d3d 2907 ac3d 8424 3dbd e53a 8e3d
00000340: 639b 8bbe 0086 45bd 7e6a 41be 7105 35bd
00000350: 9b10 88bf 79c1 39be 166e 28be 5acf 173e
00000360: dadc 923d 5bb4 2a3f b34f f9bb 43d1 95bc
00000370: fd59 b13d 4a57 1ebf 8e17 7dbf 5817 1e3e
00000380: a691 7d3e 3fdc efbd cd87 583e 9fae 5b3f
00000390: fa4d 90bd 7df5 e13c 6701 023e 79d8 3a3d
000003a0: 7f45 92bd ba84 a1be 38aa 083e 6310 38bf
000003b0: 77b6 0f3e c8ae fa3c 8cb9 41be e1ed cebd
000003c0: e460 d7be 09d6 0b3e 1582 873d 92bc 233f
000003d0: 6776 f6be 65cc ac3d 3ba7 febd 68b4 c53d
000003e0: 7193 bbbd e282 aa3e d121 223e a9e9 b9bc
000003f0: c691 7c3e e34f 73bf 6308 81bf 7b2b 003f
0.4453609 -0.12965693 0.028213909 -0.12672295 0.21534954 -0.20516108 0.019135272 -0.002417507
0.16563493 0.62277037 -0.2523403 -0.5899178 -0.05428792 -0.006552516 0.89314514 -0.54541016
0.015397958 0.3752004 -0.03604841 0.15346964 0.15167022 0.25890404 -0.66541845 0.36663595
-0.68092275 0.11953894 0.2746836 0.8357709 0.5111548 -0.96311194 -0.6709812 0.26855192
0.35201043 -0.007944442 0.10678653 -0.6177156 -0.2445781 -0.010638235 0.034975942 0.034009453
0.113355525 0.08664896 -0.07727789 0.11555501 -0.18932757 0.29127133 0.12589747 -0.36580104
-0.37313288 0.1022893 0.045448456 -0.539394 0.56066865 0.08257489 -0.07804183 0.111778505
-0.018505035 -0.22996688 0.059822462 1.0130582 0.04489773 -0.1635386 0.17024079 0.37355483
0.29729787 -0.020345692 0.015398043 -0.116550826 -0.3063634 -0.02916362 0.030815639 0.15264669
0.07746196 0.75844157 0.027255986 0.12154965 0.08515773 -0.7171094 -0.2763024 -0.18761732
0.4388315 -0.034208387 -0.0005375527 -0.13916358 -0.5523787 -0.26303628 0.10745089 -0.10511727
0.15867355 0.8664423 -0.056701876 -0.4585284 -0.06434569 -0.21519268 0.031715594 -0.51525813
-0.33936843 0.10276981 -0.2120583 -0.7460492 0.050672602 -0.046389252 0.0051753973 0.1732312
-0.08608295 0.9569833 -0.06598501 0.72817564 0.07202789 -1.0996839 0.08558326 0.1821535
0.055028886 0.22698839 0.041091517 -1.3652577 0.019087983 -0.15386434 0.07497216 -0.027912972
-0.1015419 0.06576444 -0.071839444 1.3112214 -0.075288616 -0.047819525 0.047757823 -0.1147103
-0.26733795 -0.19985314 0.010498753 0.6511847 0.068871595 -0.3027838 0.057710607 0.037107013
-0.0026673342 0.102791764 0.08005999 -0.7076083 0.16218029 0.13307221 0.16339871 0.12045363
0.4666722 -0.05351047 -0.18157943 -0.58683103 -1.3519722 -0.15200953 0.089779556 -0.10644857
0.140149 -0.50210536 0.0058985422 -0.2051312 -0.2619353 1.1452041 -0.56370485 -0.57613236
-0.02310296 0.10439874 -0.004650808 -1.1720537 0.12230674 -0.11803586 -0.033181097 0.03008523
-0.096954346 0.102066375 -0.118614145 1.1634736 -0.035195027 -0.12768194 0.103718735 0.030289816
0.3270742 0.08860817 -0.12639908 -0.45488948 -0.12850305 0.019492658 0.1780889 0.049639042
0.0056284615 1.0243329 -0.1437996 0.40881112 -0.12289324 -0.8203148 -0.16264014 -0.18480864
-0.018683586 0.07561327 -0.07496081 -1.3487867 -0.05595798 0.23305036 0.23833995 0.008169681
0.12501648 -0.100039355 0.05064939 1.3085797 0.068986215 0.08399803 -0.046177402 0.06944827
-0.27266988 -0.048223495 -0.1888828 -0.044194642 -1.0630068 -0.1814021 -0.16448244 0.14825192
0.0717103 0.6668145 -0.007608378 -0.01828826 0.08659742 -0.6185194 -0.98864067 0.15438592
0.24762592 -0.117119305 0.21145554 0.85813326 -0.07046123 0.027582878 0.12695847 0.0456166
-0.071421616 -0.31546575 0.13346183 -0.71900004 0.14034449 0.03060092 -0.18918437 -0.101039656
-0.4206611 0.13655867 0.06616608 0.6395961 -0.4813721 0.08437423 -0.124342404 0.096535504
-0.091589816 0.3330298 0.15833212 -0.022694426 0.24664983 -0.9504377 -1.0080684 0.50066346

layers.1.bias f4 [16]
00000000: 771c 96bf ccea 47be 70aa 02be c9aa 53bc
00000010: 5ced c1bd 0aba 18be 2377 9f3e f965 27be
00000020: 983c af3e 70fd a5bd c2a3 39bd e4ce 7cbd
00000030: 2dbf 0ebe 61d4 c33d 54d2 fcbd 0b7e 2c3e
-1.1727437 -0.19523162 -0.12760329 -0.012919136 -0.09469101 -0.14914718 0.31145582 -0.16347493
0.34225917 -0.0810498 -0.045322187 -0.061720744 -0.13940115 0.095619924 -0.123448044 0.16844957

final.linears.0.weight f4 [116, 58]
00000000: 42d8 8f3f b822 0d3f cf9d 78bc ea39 b9bc
00000010: 5b14 d6bc a172 bb3c dce3 09bf 2249 b6be
00000020: 30e6 603f 18a6 19be 4d75 88be e2cb 4b3f
00000030: 093a 1abf 63d7 203e acae 10bf 63ec 8dbe
00000040: 6646 a1bf 3c08 8abf 217b f13e 2a3a 833f
00000050: 5b07 aebf 0b6c 423f 1ac7 c23f 4250 393f
00000060: cab9 f13e d124 2ebd 9962 0bbe 8025 03bd
00000070: b031 02bd b972 293e c773 52bd 5581 20be
00000080: 8519 ec3d fa8f d9bc df4e 7b3e 84d3 603d
00000090: 04f1 bebc 47ab 11bd c668 a3bd 4a8a 1b3e
000000a0: 73a5 173d a2d5 1bbc 2390 973d 85ad 15be
000000b0: 7fdf 873d 14b0 6a3d 15ff a33d 5e14 6c3d
000000c0: 86c3 773d 4f6c aa3c fd63 dabc 2bae 3bbd
000000d0: e792 27bd fc0a e43d ae72 d1bd 7b40 c9bd
000000e0: 3ae2 4cbd 2db2 ddbc 6799 4f3f dfc4 67bf
000000f0: b188 833e 51ff 7a3e 68cd 803e 60a1 7e3d
00000100: 55c5 9c3e 4748 9bbf c473 ee3e 2dd5 233d
00000110: 3d17 2b3e 7bb8 abbf 27e2 cc3c 7328 113f
00000120: de98 bdbf a894 38bf 61ea a43f 9d86 abbf
00000130: 6837 53be 90cc 0a3f fc23 cdbb 2358 28bf
00000140: 1b68 503c ba1a 8abd e451 c23f 959e abbf
00000150: d8b1 eabd f494 05be 29cb 10be 475b 373e
00000160: 5779 5abe c867 cabd 93a0 9d3d c657 0ebd
00000170: 9c21 b83d 0fcd 86bd 90c0 4abd ee55 34bd
00000180: 14e8 5ebd 1595 413e 7d08 ecbd 88b1 423e
00000190: fc6f 1d3e f84c 1b3d 2133 1d3e 4ee0 3d3d
000001a0: 5fc7 6e3c dfa0 703e e970 5b3e 56a7 80be
000001b0: 3d48 3d3d 2890 91bd eced f1bd 6ea1 8d3b
000001c0: cd2f bfbe bf62 3abd f7de 903d f4f2 24bc
000001d0: f105 62be ff9f b73e db90 fb3d e13c 233d
000001e0: 7aeb 9b3d 38a5 e6bb 5bfa 043e 8eea 763e
000001f0: 4da4 80be 1f67 063e 2d38 03bd 9ddc 1c3e
00000200: 7fa3 543d 5430 8cbe 4dd4 a9bd d9e5 2b3e
00000210: 8962 84be 9fb0 c83d ce9d 803e 5e8e f8bd
00000220: aa10 49be ac65 e2bd c0bd 54be ac6a b63d
00000230: 0310 cabd 357c d03e 98d7 e33d 6324 103e
00000240: 5197 a63d cc2b b0bd cd90 b93d 9942 b83d
00000250: acff d9bd 6d2e 0fbd 9a0d 2abe fba2 3b3d
00000260: 73e5 5ebc 1f88 a23d 9ea3 273d d011 19be
00000270: 0b82 ff3d dee7 b3bd 8568 d43c 368e e3bc
00000280: 28c9 9cbc 8fb9 253d 10a7 c03c dd04 a5bd
00000290: f649 ad3c 5ec0 3dbc 4c6e 173d 17ca 21bd
000002a0: 5974 acbc 8930 613c 9a1b c03c a98b 02bd
000002b0: 893e 22bd 99c7 d0bb da34 833d 718d d0bd
000002c0: f813 f03d 8077 123e 8dab 113e 8359 363e
000002d0: 2ba3 dbbd 7076 bd3c beb3 1ebe be01 273e
000002e0: 196c dbbe 49d9 6d3d 00bf 473e 1c0e ac3d
000002f0: ed80 bd3d b2b9 44bd 1a46 733e 46a1 053d
00000300: 233e 853c 79c9 f6bc 4aeb 223e 0e21 9bbb
00000310: ea4b d8bd 5732 613d 80fd 683e 321c 643e
00000320: ed59 fb3d fe5f 763d 7ce8 243e 83df 17be
00000330: ff48 3d3e 882f 193e bdcb 23be c7e1 d73c
00000340: f552 5cbe badd 103e 9989 c8ba 16d2 193e
00000350: a9fb 37bd 4cfa 3ebe ade7 553e 775f 05be
00000360: 321d 9e3e 0fab a3bd e6c7 6abd c1fa 853c
00000370: 5b11 9cbc 0b09 f7bc d52e dd3d 4486 943d
00000380: b69d 5b3d 0700 7c3a 0c6a a83b 190f fc3c
00000390: 7b0f a0bd c48e e73b 7564 d13c 4810 6e3c
000003a0: 7341 0440 a77f e63f 0d70 1ebe 48e0 0cbe
000003b0: ff5f 13be 729a 81be 6af0 e5bf 0efc 5e3f
000003c0: 2010 80be 487d a8be 29d8 dbbd fd10 aabd
000003d0: 0fc4 4dbf a51a dbbe ba18 a9be 870d 833e
000003e0: 23d4 f03e 07ee d13e 065f 3cbf 93f1 b2be
000003f0: 3558 ac3f 8a38 8cbf 0181 99bc 6746 a03c
1.1237872 0.551311 -0.015174343 -0.022610623 -0.026132753 0.022881808 -0.5386331 -0.3560267
0.8785124 -0.15004766 -0.26651993 0.79607975 -0.60244805 0.15707164 -0.5651653 -0.2771941
-1.2599609 -1.0783763 0.47164252 1.0252125 -1.3595995 0.7594611 1.5217011 0.7238809
0.47212058 -0.04251558 -0.13611831 -0.032018185 -0.031785667 0.1654767 -0.051379945 -0.15674336
0.11528305 -0.026557911 0.24541806 0.054889217 -0.023308285 -0.035563733 -0.07978968 0.15189472
0.03702302 -0.009511383 0.07400539 -0.14616974 0.06634425 0.057296827 0.080076374 0.05763661
0.0604892 0.020803599 -0.026659006 -0.045820396 -0.04091158 0.111349076 -0.102269515 -0.09826752
-0.050020434 -0.0270625 0.8109345 -0.90534776 0.25690225 0.24511458 0.25156713 0.062165618
0.30619302 -1.2131432 0.46572697 0.039998222 0.16708083 -1.3415674 0.025010182 0.56702346
-1.4812276 -0.7210183 1.2884027 -1.3400456 -0.20626605 0.5421839 -0.006260393 -0.65759486
0.012720133 -0.06743379 1.5181241 -1.340777 -0.11459702 -0.13045102 -0.1414 0.17905913
-0.2133535 -0.09883076 0.07696643 -0.034751676 0.089907855 -0.065820806 -0.04950005 -0.04402726
-0.054420546 0.18904527 -0.115250565 0.19013035 0.1537475 0.0379152 0.15351535 0.04635649
0.014573901 0.23498867 0.2142979 -0.25127667 0.04621147 -0.07107574 -0.11812958 0.0043222224
-0.37341157 -0.045504328 0.07073777 -0.01006769 -0.22072579 0.35864255 0.12283488 0.03985298
0.07613273 -0.0070387386 0.12986128 0.24112913 -0.25125352 0.13125275 -0.032035995 0.15318532
0.051913735 -0.2738062 -0.08292446 0.16786899 -0.25856426 0.09799313 0.25120395 -0.121365294
-0.19635263 -0.110545486 -0.20775509 0.08907065 -0.09866335 0.40719762 0.111251056 0.1407638
0.0813433 -0.086021036 0.09060822 0.089970775 -0.10644469 -0.034956384 -0.16606751 0.045809727
-0.01360451 0.07936119 0.040927522 -0.14948201 0.124759756 -0.087844595 0.025928745 -0.027777772
-0.019138888 0.040460166 0.023517162 -0.08057568 0.021153431 -0.011581508 0.03697042 -0.03949937
-0.021051573 0.013744482 0.023450661 -0.03187147 -0.03961042 -0.00637145 0.06406565 -0.10183228
0.11722559 0.14303398 0.14225598 0.17807584 -0.10724481 0.023127764 -0.15498254 0.16309258
-0.4285591 0.058068547 0.19506454 0.08401129 0.09253106 -0.048028655 0.2375721 0.032624505
0.01626498 -0.030125367 0.15910068 -0.004734165 -0.105613545 0.05497965 0.22752953 0.2227638
0.12273011 0.06015014 0.16104311 -0.14831357 0.18484877 0.14959538 -0.15995689 0.026352776
-0.2151602 0.14147082 -0.0015299796 0.15021548 -0.044917736 -0.18650168 0.20889159 -0.13024698
0.3088165 -0.07991611 -0.057319544 0.01635492 -0.019051244 -0.03015568 0.10799948 0.07252172
0.0536172 0.0009613041 0.005139595 0.030768918 -0.07815453 0.0070665795 0.025560597 0.014530249
2.0664947 1.8007706 -0.15472431 -0.13757432 -0.14392088 -0.25313145 -1.7963994 0.87103355
-0.25012302 -0.32908082 -0.10734589 -0.083040215 -0.80377287 -0.42793766 -0.33026677 0.25596258
0.47036847 0.41001913 -0.73582494 -0.34949932 1.3464419 -1.0954754 -0.018738272 0.01956482

final.linears.0.bias f4 [116]
00000000: 11e1 003e be95 a23c e911 2f3e ef2f 25bf
00000010: 34e6 5a3e aa65 553d 3160 f73d 31e5 303e
00000020: 92b1 9d3e a5c8 813e 4346 08be 9eaa 043c
00000030: 2ee7 30bd 81bc bc3c 2249 27be 6ebf 4cbd
00000040: d391 af3d 8e43 d03d 7332 1dbe 342d 203e
00000050: d460 9fbe 59eb e33e eb52 fb3d b021 04be
00000060: 11c5 37be f9bd 02bd 3ed8 863e d500 603e
00000070: e979 b23e 5032 2ebe 7dac d23e 9285 263e
00000080: bc27 483e 50cb 14bf ddea 00bd 53bb 95bd
00000090: 5e1a 163e 0c8c 58be 8340 cc3e 4ef2 82be
000000a0: c85d 64bd 147f bebe 1402 733e edf6 0fbf
000000b0: 68cb 973e 3386 1b3d 2a4b c73d a71c 203e
000000c0: 9536 8dbb 90fa ac3e 9554 283e d10a d8bc
000000d0: 2675 55be feb0 9dbd c1b5 843e 6579 f1bd
000000e0: 61f4 26bb 6ae1 7bbe 6dac bcbe 72a0 503e
000000f0: 4953 b03d fc29 28be 6b98 dfbe 8f90 9e3e
00000100: e276 ac3d f65b 383c df3d c7be 72a1 5e3e
00000110: d92e babd a9a4 ebbd 7711 573e 987a a83c
00000120: 6255 e6bc 8805 a6bd dae4 98bd c570 89be
00000130: f92c bb3e 13c3 0ebe 2cce b93e 432a a13e
00000140: 55f3 953c edd1 25bc 642c a0bd 93b2 4d3e
00000150: 65c9 1dbe 6ea0 e9bd 9ffd 2c3d cae5 82be
00000160: fb45 e1be 8b69 563e 7028 b63c a999 11be
00000170: 70c1 bb3d 27e0 283e 12ff 0c3f fd6a 5e3e
00000180: 28d6 65be bb16 773b 7403 783e 5182 a0bd
00000190: 56fe 1cbe 05e9 1a3e 7a8d a23d 0000 96bc
000001a0: c66f dabd 30a0 6fbe 17e8 863e 637b 6d3d
000001b0: 02ab 05bd ea2a b9bc 7cc3 793d 4c2f 053f
000001c0: 706f c93c 4124 833d b72a 563e ab0a 2fbd
0.12585856 0.019846793 0.17096676 -0.64526266 0.21376878 0.052098908 0.12078894 0.1727493
0.30799538 0.25348392 -0.13308053 0.008097319 -0.04318922 0.023039104 -0.16336492 -0.04998725
0.08572736 0.10169135 -0.15351276 0.15642244 -0.31128561 0.44515494 0.12271675 -0.12903476
-0.17946269 -0.031919453 0.26336855 0.21875317 0.34858635 -0.1701138 0.41147223 0.1626189
0.19546407 -0.5812273 -0.031473983 -0.0731112 0.14658496 -0.21147174 0.3989297 -0.2557549
-0.0557535 -0.37206328 0.23731261 -0.56236154 0.29647374 0.03796978 0.09731133 0.1563593
-0.004309485 0.33784914 0.16438515 -0.026372345 -0.2084547 -0.07699774 0.25919917 -0.11790732
-0.002547525 -0.24597707 -0.368503 0.20373705 0.086096354 -0.16422266 -0.43670973 0.30969664
0.084211126 0.011252394 -0.3891439 0.21741274 -0.09090967 -0.11506016 0.21002756 0.02056627
-0.028116886 -0.08106524 -0.07465525 -0.2684385 0.3655775 -0.13941602 0.3629011 0.31477556
0.018304506 -0.010120851 -0.07820967 0.20087652 -0.15408857 -0.11407553 0.04223406 -0.2556594
-0.43998703 0.20938699 0.022236079 -0.14218773 0.09167755 0.16491757 0.55076706 0.217205
-0.22444975 0.0037702757 0.24220067 -0.07837356 -0.15331396 0.15127952 0.07937141 -0.018310547
-0.1066585 -0.2340095 0.26348945 0.057979 -0.03263379 -0.02260347 0.060977444 0.52025294
0.02458927 0.06403399 0.20914732 -0.042734783

final.linears.1.weight f4 [116, 116]
00000000: 4eaa 85be 5a93 50be 0e51 77be 3794 c7bd
00000010: 31de 35be 7af1 82bd 0ccc 11be 316b 16be
00000020: 0249 60be fd15 3cbe 2350 a2bc 5eca e2bd
00000030: dddf 4bbe f61d ac3c dbd0 b4bc 5d4a 58be
00000040: 3922 4bbe e2b8 31be 8ada 80bd 399e 0fbe
00000050: 61d7 88be a425 d5bd 39de 4cbe d6aa fdbf
00000060: 0128 92bc 0e0f 89be 75dd e1bd 50ba 1ebe
00000070: 02db aabd 5d94 a03d e66e 5ebe 7d71 4bbe
00000080: 8342 cfbe 4399 26be 351a 6ebe 2fe2 72be
00000090: 1436 ad3e 9604 87bc aa80 473d e8be 823e
000000a0: 0658 a0bc c896 bebb 2c31 ddbd 5e05 3dbe
000000b0: 7745 d4be c1ce fbbd 658e 29be 253a b3be
000000c0: feb5 a3be ddb5 78bd 739e a33c b2b9 59be
000000d0: 7c7b 03be bffa 95bd 1571 d93d 7a9f b63b
000000e0: 8876 883c 6b3a efbc ee59 8e3e 50b0 b9bd
000000f0: eaee 74be 698c febc f520 3abc 0ebb 92be
00000100: 4966 29be 358a 3cbe fe84 c6bd 567b 34be
00000110: 5292 38be c033 833b 491c e4bc b248 6fbd
00000120: 271d 30bc fa75 61bd 7d8e 93bd 2b95 09be
00000130: 9b28 e03c b795 a83b d3d6 843e 0145 47be
00000140: 63d0 263d 7f82 bf3c 95f1 38bd 759a d93c
00000150: e73a 103d a108 21be 590f 92bd 8227 93bd
00000160: 8eca 5d3e ac6e 39be 2361 26be e561 133d
00000170: 404a 87be 6b1c b0bc 96e4 f2be 072b 54be
00000180: 8f8c 12bd 01f1 21be ce06 3abe 5ea3 8bbe
00000190: e0c1 5cbe 099b 66be 3b7a 0fbc ba51 3ebd
000001a0: f546 cc3c 5546 94be 12b8 733b 2e25 1cbe
000001b0: 4c7a 0e3e 3ab5 cdbc 88db 32be ac83 84be
000001c0: d997 153d 00b1 c6bd 63b1 9abd 05f3 913d
000001d0: 8fcb 80be 6cb1 acbe e6fd 5a3b 62e8 37bd
000001e0: 225d c0be 841b 613c fd3e b6be fe18 74be
000001f0: 541f 96bd 7f74 bebe 16be 74bc 7568 87bd
00000200: 0680 9abe c6aa 32bd c014 723c 1927 18be
00000210: d5a9 70be 089b 85bd 0ea3 aebc f4e3 5bbc
00000220: a76c 58be d5dd 87be 9ee4 9fbe ad1d f23c
00000230: 9059 5bbd c909 adbe 1c62 23be b674 5abe
00000240: f238 58be 9bce 2bbe 45e3 95be f4e4 88be
00000250: da42 8dbe c877 243e 7a69 a0be f3c0 cabe
00000260: aedd 23be 2d22 d83c 475c b7bd 3d2b 09be
00000270: c68e 49bd cb2e 2f3d 946c 6ebd af4a 803d
00000280: 2e2a 1dbe 1fcf 63be eab9 26be 779b ab3d
00000290: 4fdc 94be a57e acbd 6000 6ebd 8e62 4abe
000002a0: 46e8 1fbc 7ec5 fdbd beba edbc 5a0a 02bb
000002b0: e22a 233d cbad abbd 8b3a c03d 1ec8 a5be
000002c0: d3ca 89be 2d0c 8f3d 6ad6 343e 1898 95be
000002d0: 3f16 b1be c072 7bbe 2ca2 43bd fea2 81be
000002e0: 0416 15be 9618 9abd 5eca 75bd 1fe5 033d
000002f0: 557d 86bd e7c4 3abc 7dd4 1bbd ef73 90be
00000300: 36a6 253c d1a9 56bd 596f f2bc 4beb b5be
00000310: 6b18 76bd 19ba d73b 3efb ddbd 3f0c cbbc
00000320: 7256 003d 1fd6 5dbe 39e5 46be 886b cdbc
00000330: 09dd 103e 7dcd f5bd c9b1 69be bb98 133d
00000340: 4ebf a3be 16aa ccbb fb93 f9be fe9f 69be
00000350: 22a8 963d ee5a 81be 0c83 a4bd 6bff cabf
00000360: 36bb a9be 6905 8cbe b28a 91bd 70db 9ebe
00000370: fe15 2a3d c4f3 87be ff97 9f3c 7458 82be
00000380: 48ca 353e 8b64 e03d 2ddf c6be b563 babe
00000390: 7a37 d83c 5f8f 5abd 128a 0cbe ce2b 203d
000003a0: d386 28bd 622a d0bc 9da8 be3b 8cc1 c83d
000003b0: 93a5 25bd 4754 de3d e04e 9ebc 302a e4bc
000003c0: dc83 353c 2d94 1fbd c78e 29bd e591 05bd
000003d0: 1f21 92bb 7d4a 38bd 0281 febe 5380 12bd
000003e0: 9553 56be 44bb a8bd 2262 1f3d ebe2 d8bc
000003f0: ca48 e53d c02e a1bd 49f9 febc ed4b dfbd
-0.26106495 -0.2036871 -0.24152014 -0.097450666 -0.1776054 -0.06393714 -0.14237994 -0.14689328
-0.2190285 -0.18367763 -0.019813603 -0.11073755 -0.19909616 0.02101038 -0.022072246 -0.21122117
-0.19837274 -0.17355683 -0.06291683 -0.14025201 -0.2672682 -0.1040757 -0.20006646 -1.981776
-0.017841341 -0.26769298 -0.11028568 -0.1550076 -0.08342554 0.07840798 -0.21721992 -0.19867511
-0.40480432 -0.16269402 -0.23252185 -0.23719095 0.3383032 -0.016481679 0.048706688 0.25536275
-0.019573223 -0.0058163144 -0.108003944 -0.18459079 -0.41459247 -0.122952946 -0.16558225 -0.35005298
-0.31974787 -0.060720313 0.019973015 -0.21262243 -0.12840074 -0.07323217 0.10617272 0.0055732103
0.016658083 -0.02920266 0.27802986 -0.09066832 -0.23919263 -0.031072812 -0.011360397 -0.28658336
-0.16542925 -0.18412097 -0.09693335 -0.17625174 -0.18024567 0.004003972 -0.027845519 -0.058418937
-0.010749138 -0.05504415 -0.07204912 -0.1343581 0.027363112 0.0051448005 0.25945148 -0.19459917
0.040726077 0.023377655 -0.045152266 0.026562909 0.035212424 -0.15725948 -0.071318336 -0.0718527
0.216593 -0.18108624 -0.16247992 0.03598203 -0.26423836 -0.021497926 -0.47440022 -0.20719539
-0.03577858 -0.15814592 -0.18166658 -0.27273077 -0.21558332 -0.22520079 -0.008757169 -0.04646466
0.024936179 -0.2895991 0.0037188572 -0.15248558 0.1391384 -0.02511083 -0.17466557 -0.25881708
0.036521766 -0.09701729 -0.07553365 0.071264304 -0.25155303 -0.33729112 0.0033415495 -0.044899352
-0.37571055 0.01373947 -0.3559493 -0.23837659 -0.07330194 -0.37198254 -0.014937898 -0.066117205
-0.301758 -0.043619893 0.014775455 -0.14858665 -0.23502286 -0.065237105 -0.021317985 -0.0134210475
-0.21135198 -0.26536432 -0.3122911 0.029555166 -0.05355221 -0.33796528 -0.15955395 -0.21333584
-0.21115473 -0.16778032 -0.29274955 -0.26737177 -0.27590066 0.16061318 -0.31330472 -0.39600334
-0.16002533 0.026383484 -0.089531474 -0.133954 -0.049208425 0.042769235 -0.058209017 0.06264245
-0.15348122 -0.22246979 -0.16281858 0.08379262 -0.29074332 -0.08422593 -0.058105826 -0.19764158
-0.009759968 -0.12391184 -0.02901971 -0.0019842596 0.039835818 -0.08382758 0.09386166 -0.3237924
-0.26912555 0.06984744 0.17659917 -0.292176 -0.34587285 -0.24555492 -0.04776208 -0.25319666
-0.1455918 -0.07524221 -0.060007446 0.03220093 -0.06566874 -0.011399484 -0.03804444 -0.2821345
0.010110429 -0.052408043 -0.02959411 -0.35531077 -0.06008188 0.006583464 -0.10838936 -0.024786113
0.03133244 -0.21663712 -0.19423379 -0.025075689 0.14146818 -0.120020844 -0.22821726 0.036034327
-0.3198189 -0.0062458618 -0.48745713 -0.22814938 0.073562875 -0.25264686 -0.08032808 -1.5859197
-0.33150643 -0.27347878 -0.07106532 -0.31026793 0.04152488 -0.26553166 0.019481657 -0.2545811
0.17752945 0.10956677 -0.38842145 -0.36404195 0.02639364 -0.053359386 -0.13724545 0.039104275
-0.041144203 -0.025410835 0.00581844 0.09802541 -0.040441107 0.108559184 -0.01932472 -0.027852148
0.011078801 -0.03895967 -0.04139593 -0.03260984 -0.0044595147 -0.044992913 -0.497078 -0.03576691
-0.20930322 -0.08238843 0.038911946 -0.02647539 0.11195524 -0.07870245 -0.031124728 -0.109031536

final.linears.1.bias f4 [116]
00000000: d2bb ecbd 7e86 86be b2b3 67be 9a33 4cbe
00000010: f071 2fbf c00a 5cbe 6bbe 12be fb0a 12be
00000020: 9ba6 73bd 43f7 67be 474f 74be 2af3 03be
00000030: 67b4 67be b7f0 99be da10 cabd c26b 92be
00000040: 62be c0bd 0884 8abe c8c6 6cbe 3b80 96be
00000050: f71e 74be 2fa8 a6be df10 b6be ead9 adbe
00000060: 15fa a2be 6b5b f9bd cd61 81be ea43 93be
00000070: c0f5 c0bd 3753 28be a530 0bbe 6da9 5cbe
00000080: bc8c 023e aabe 303f f224 10be 55b5 2dbe
00000090: 0f35 d5bb 572b 94be f302 6ebe cab7 64be
000000a0: 3b1c 85be d368 62be 14ce 8bbe e8ea e8bd
000000b0: 9e0c 76be 85f8 abbe 0244 79be 0b12 62be
000000c0: ca82 57be 4074 a73b 612f 84be bf91 15be
000000d0: 2a13 03be eb02 3abe 0a4a 38bd d57f 2fbe
000000e0: 3d35 49be 1236 e0be 5c8d a4be be3f 93be
000000f0: ba07 7f3d 5dee 0ebe c27d eabc c93d 86be
00000100: 5272 c3be 19c4 d0bd aa9c 75be 5401 2cbe
00000110: e2c2 94bd 68de 6dbe baab 79be 9a10 81be
00000120: 3ea5 43be a92a 4bbe 915e 4ebe 0fa1 4dbe
00000130: 39b1 ebbd b4c3 3abe 1968 14be d248 51bd
00000140: a78e 55be 778b 97be 8f47 b0be 475a 1dbe
00000150: bd43 93be 10f8 b9bc e8b5 3ebe 8317 2cbf
00000160: 038f ebbd 791c 983d 3253 e6bd 1d61 b4be
00000170: 8fc6 7abe cb2a 88bd 2fa7 b5bd 4e42 223d
00000180: bded 71be fda6 81be e13a bdbe d3df 44be
00000190: c4f1 eabc 763e 64be 8361 84be 4094 0fbf
000001a0: c73e 5ebe 1cf2 c7bd c487 adbe 65c0 63be
000001b0: 88b8 3bbd c649 2dbd 50b0 27be de16 643e
000001c0: 45fc 36bd ff82 5ebe 1707 fabc 58bd 76be
-0.115592614 -0.26274484 -0.22627142 -0.1994156 -0.6853323 -0.21488476 -0.14330451 -0.14262001
-0.05948506 -0.22652917 -0.23858367 -0.12885728 -0.22627412 -0.30066463 -0.098664954 -0.28597838
-0.09411313 -0.27053857 -0.23122704 -0.29394707 -0.23839937 -0.3255019 -0.35559747 -0.33955318
-0.31831422 -0.1217564 -0.2526993 -0.28762752 -0.09421873 -0.16437994 -0.13592775 -0.21549006
0.12748998 0.6904093 -0.14076594 -0.16963704 -0.006506569 -0.28939316 -0.23243313 -0.22335735
-0.259981 -0.221103 -0.27305663 -0.1137293 -0.2402825 -0.33588043 -0.24342349 -0.22077195
-0.21045986 0.0051102936 -0.25817397 -0.14606379 -0.1280028 -0.18165176 -0.044992484 -0.17138608
-0.19649215 -0.43791252 -0.321391 -0.2875957 0.062263228 -0.13958116 -0.02862442 -0.26219013
-0.38173157 -0.10193653 -0.23985544 -0.16797382 -0.072637334 -0.23229373 -0.24381915 -0.25207978
-0.19106004 -0.19840492 -0.20153262 -0.2008097 -0.11508412 -0.18238717 -0.14492835 -0.051094837
-0.20855199 -0.2959859 -0.34429595 -0.1536647 -0.28762618 -0.022701293 -0.18624079 -0.67223376
-0.11501887 0.07427306 -0.11246337 -0.35230342 -0.24489807 -0.06648787 -0.08869778 0.039614014
-0.23625846 -0.25322714 -0.36958984 -0.19226007 -0.028679736 -0.22289452 -0.25855646 -0.56085587
-0.21703635 -0.097629756 -0.33892643 -0.22241361 -0.04583028 -0.042306684 -0.16375852 0.22274348
-0.044674177 -0.21729659 -0.030520959 -0.24095666

final.linears.2.weight f4 [26, 116]
00000000: ea91 8f3d 369b 29be aaf7 833e 8e33 aa3e
00000010: 8acd 3cbc 1c85 a3be 7339 e93e 337e d9bc
00000020: 19cb f4bd 35a3 473e 851e 703e 7f1c 6dbd
00000030: 1969 303e 9909 f73d f3ca 713b 6501 fc3e
00000040: 3612 81be 5258 6cbe 4cbe 583d e713 90be
00000050: 6ce4 0b3f 3aa0 13bd 344d 7cbf 87e9 09bd
00000060: ea83 0f3d 003b 19bd 0e54 9c3d 4161 ddbe
00000070: ae73 4e3c c157 503e 979f 823e cfc9 a13e
00000080: 36e1 11bc 2650 993b e2e0 11bd 58eb 47be
00000090: 236c 99bd 46d8 d3be c63b b6bd 32a1 19bf
000000a0: 46b3 363f 8644 c6ba e5ab a13e 3c9d 52be
000000b0: efec f73e 67a6 51bd ff56 1c3d b1ee 8d3c
000000c0: 2340 473e c3af 6ebe 9bff 3fbd 3164 f23e
000000d0: 3df5 45bd fa73 c13a 155e 0cbe 7aff 083e
000000e0: 74fa 933d ca3e bebd bc69 f0bd bbb6 05bd
000000f0: 244c 6f3a 9783 41be adb8 53be acf9 bc39
00000100: 0a30 833e 4c9a 3fbe 05c1 c83e 9e19 68be
00000110: 0980 80be d6ba a0be a139 f43e 0840 c5bc
00000120: e4f9 443d 56c1 9d3e 1640 7fbd 0978 f83d
00000130: ce8e 51be 76b2 cb3c 030c 82be 28c3 a83b
00000140: 9dec 8a3e 73e0 5bbe fdde 773d e24a b83d
00000150: e476 993e a8a8 81bb 57de 1f3e 171f 46bb
00000160: 3f4a 86bd eaf7 ba3d 1503 623e 4d69 843e
00000170: 641e 9f3e c1e9 edbd 7001 153b 5e92 c7bc
00000180: 159d 2f3e b6d1 813c 8ee8 edbc 48bb fdbd
00000190: 2461 1dbc 26b5 46bd b42e f0be 19d4 e0bb
000001a0: a82f 0dbf 0020 4f3e eb34 57bf 85be c3be
000001b0: e42c 1439 0aa0 f7bd 3155 b33d 60a9 1dbc
000001c0: 536b 723d d4bc 7abe 11ff 173b 9dd4 973e
000001d0: 838c 56bd b182 083f 5921 9c3c dd09 90be
000001e0: 158f afbc 6e50 cb3d b280 ad3e c702 843c
000001f0: add8 213d eb68 ecbe 87e9 51bd 358e 63bd
00000200: a0ab 5fbc 7de3 11bf 9a84 c73c f17c e23d
00000210: ecd0 923d b280 0abe 5da2 403d 3946 f93d
00000220: 88f5 e63e 61db bbbe f450 5ebf c389 78be
00000230: 8047 323f 0c79 983b b8b1 0d3e 1007 c03e
00000240: 2a1b b93e 9397 63be fade aebd 2e88 79be
00000250: d10e e5bc 0236 64bb 2687 963e 678f 413e
00000260: f4d3 a93d c751 033f d15c d7be 0b19 5bbe
00000270: b1d9 e63d b2fe 2cbc 420b eebe 156c e5bc
00000280: 24f9 9abe cc7c ac3e ef4c 9fbd 3a98 be3c
00000290: 7a09 883d 9218 333d 1db4 063f 5819 c73d
000002a0: 66ee cbbd 2f1f 3bbb 13ed 75bc 3caa ddbc
000002b0: c88f b2be 287b b9bd 7552 b3be 53f9 e03e
000002c0: 7e25 9cba aa94 9fbd 876c d33d 286f d8ba
000002d0: a390 bcbd dd9b 623e 1dbb 69be 0721 0f3f
000002e0: d3a7 f63c 9b09 9c3d 2ab5 02bd c12e d1be
000002f0: 28cf 8ebc 5575 7d3e fb0f 043f 6a5a 2e3d
00000300: 5a1c bfbc fea3 ddbc 7b04 7f3e a706 3cba
00000310: e115 283c 5387 fb3d 8117 0e3e 0acc 63be
00000320: 8274 f9bd 9f56 b23c 0b25 903d 6bf6 abbb
00000330: 9b73 bcbd c4cc 12bd 7635 d03c 8d19 663c
00000340: 6ade e73d 0aae 97bd 0380 16bc 41d0 6f3c
00000350: b23e eb3d 5bba 3b3d f16a ecbc 42e2 24be
00000360: 7548 933c 443a 2cbf 97ee 813e a29c e639
00000370: 8fb5 e8be 4f1b 3fbe c73b bb3d 615e b23c
00000380: dea8 5c3b 67d9 893e abcf e33d 8492 383d
00000390: 6d72 c7be e952 12be 7420 ed3b 9fd6 16be
000003a0: 8963 74bf ac17 02be 5a53 873d fce4 103e
000003b0: 7368 393f 6a51 8ebe 8d60 84bd fb4d cc3e
000003c0: c985 813d 2d49 adbd 0570 12bc 0ea5 0ebb
000003d0: ec56 303d 05cb c8bd 7ccc 53be 2d91 c43d
000003e0: 6898 b03d 3cda 7fbd 9792 113d 1e3d 583b
000003f0: f513 d53e 9695 113e 450e 4f3e 2a71 013f
0.07010253 -0.16563115 0.2577489 0.33242458 -0.011523614 -0.31937492 0.45551643 -0.026549434
-0.119528 0.19495852 0.23449142 -0.057888504 0.17227592 0.120623775 0.0036894649 0.49219814
-0.25209206 -0.23080567 0.052915856 -0.28140184 0.5464542 -0.036041476 -0.985553 -0.033669975
0.035037912 -0.037409782 0.0763322 -0.4323826 0.012600822 0.20345975 0.25512382 0.3159928
-0.008903792 0.004678744 -0.035614856 -0.1952337 -0.074913286 -0.4137594 -0.0889812 -0.6001159
0.713673 -0.0015126623 0.31576458 -0.20567793 0.48422953 -0.051184084 0.038168903 0.017325731
0.1945806 -0.23309235 -0.046874624 0.47342065 -0.04832958 0.0014759295 -0.13707764 0.13378707
0.072255045 -0.0928932 -0.11738917 -0.03264497 0.00091284723 -0.18897854 -0.20675917 0.00036044174
0.25622588 -0.18711203 0.39209762 -0.22666022 -0.25097683 -0.31392545 0.47700217 -0.024078384
0.048089877 0.30811566 -0.062316976 0.1213227 -0.20464632 0.02486537 -0.2539979 0.0051502176
0.27133647 -0.2147234 0.060515393 0.08998658 0.2997352 -0.003956873 0.1561216 -0.0030230933
-0.0655713 0.09129317 0.22071488 0.25861588 0.31077874 -0.11616851 0.0022736453 -0.024361786
0.17149766 0.015847068 -0.029041555 -0.12389237 -0.00960568 -0.0485126 -0.46910632 -0.0068612215
-0.5515084 0.20227051 -0.8406512 -0.38231292 0.00014131103 -0.12091072 0.08756483 -0.009622902
0.059184384 -0.24486095 0.0023192803 0.296544 -0.052380096 0.5332442 0.01905887 -0.28132525
-0.021430532 0.0992745 0.3388725 0.016114606 0.03951328 -0.46173796 -0.0512481 -0.05555554
-0.013651758 -0.56987745 0.024355222 0.11058987 0.07168755 -0.13525656 0.04702984 0.12171597
0.451092 -0.3669081 -0.86842275 -0.24271302 0.6964035 0.004653102 0.13837326 0.37505388
0.36153537 -0.2222579 -0.08538623 -0.24368355 -0.027961167 -0.003482223 0.29399985 0.1890236
0.0829238 0.5129666 -0.42063 -0.21396272 0.1127199 -0.010558771 -0.46492964 -0.02800564
-0.30268204 0.33688962 -0.07778346 0.023265947 0.066424325 0.043724604 0.5261858 0.09721631
-0.0995758 -0.0028552522 -0.015010136 -0.027058713 -0.3487532 -0.09056693 -0.35023847 0.4394022
-0.0011913029 -0.07792027 0.10323434 -0.0016512619 -0.09207275 0.2212977 -0.22825284 0.5590977
0.030109322 0.076190196 -0.031911053 -0.40855983 -0.017432764 0.2475179 0.51586884 0.042566694
-0.023328949 -0.027055737 0.24904053 -0.0007172622 0.010259123 0.122816704 0.13876154 -0.22245803
-0.12180425 0.02176982 0.070383154 -0.005247881 -0.092017375 -0.03583981 0.025416117 0.014044178
0.11321719 -0.07406242 -0.009185794 0.014637054 0.114865676 0.04583202 -0.028859587 -0.16101936
0.017978886 -0.67276406 0.25377342 0.0004398572 -0.45451018 -0.18662761 0.09142261 0.021773519
0.0033669989 0.26923677 0.11123594 0.045061603 -0.38954487 -0.1428944 0.0072365347 -0.14730309
-0.9546438 -0.12704343 0.06607695 0.1414985 0.72425 -0.2779649 -0.06463728 0.39903244
0.063243456 -0.08461223 -0.00893784 -0.002176586 0.043051645 -0.09804348 -0.20683473 0.095980026
0.08622819 -0.062463984 0.03554019 0.0032995413 0.41616789 0.14217219 0.20220287 0.505633

final.linears.2.bias f4 [26]
00000000: a956 90bb faa3 33bd 5f7d 4c3e 3445 1dbb
00000010: c6d3 a2bd c1ed c9bc b0c8 5e3c f374 e6bc
00000020: 6420 ff3c 6794 13be 779e f5bd 7bd2 5d3d
00000030: 4b64 133d e5b8 193d 20ff 2ebc b78b 88bd
00000040: b0b9 b33d 6ef7 95bd c36d 123d 04bf 863b
00000050: 28ab 7e3d e39d 8ebd 29a3 833b ef85 1b3a
00000060: 19e3 a2bc 3a61 bcbd
-0.004404862 -0.043857552 0.199697 -0.0023997547 -0.07950549 -0.024649503 0.013597652 -0.028131938
0.031143375 -0.1441208 -0.119931154 0.054155808 0.03598432 0.037529845 -0.010680944 -0.066672735
0.087756515 -0.07322584 0.03574921 0.0041121263 0.062174946 -0.06963708 0.004017253 0.00059327384
-0.01988368 -0.09198232

layers.0.attn.0.gnn_q.weight f4 [26, 16]
00000000: 8abd 4bb7 4098 f239 1bcf c2b8 ece2 3a38
00000010: 645d e73c 9a7c e8bc 3817 ad39 8763 833a
00000020: 8737 8538 17e5 a1b7 bd8b 4bba 4295 34b9
00000030: f87f db3a 34f2 b23b e84f 9ab8 bcf4 3939
00000040: eec3 00b8 c868 fc39 abca 2539 5112 ddb8
00000050: 66bb 0b3c ed79 f8bb 8572 603a a683 2ebb
00000060: 4235 0039 f8bd a937 93e4 2cb9 1ad3 db3b
00000070: 3abe adb9 8618 093c bbeb 2638 c37b 81ba
00000080: 6106 9638 1859 d839 33a0 e2b8 9fe9 d338
00000090: c374 ae3c 09b5 e7bc 3b25 9839 8f45 e9bc
000000a0: 30ac e9b7 3022 65b7 73cd 89ba 859a 5b3e
000000b0: 12f6 793b 09c7 a83e 3918 ddb7 ced4 a538
000000c0: 1f0c 9b37 f297 823a 21bf 3439 e2e5 aab8
000000d0: 9dd2 343e fec2 42be c2b6 c63a 64f1 4a3c
000000e0: 41c1 31b8 8d0e a037 fd24 d3ba 17c6 c6bd
000000f0: 17e9 a9ba 169f 0ebe 7959 5c38 83f0 adba
00000100: e09a 02b9 a106 40bb 2cab 24ba 84d5 3339
00000110: dc3f d5bc 4db2 513d 20b0 7fbb 23b4 473c
00000120: 09a0 a439 f5d8 99b8 456f 433b ff34 b9bd
00000130: 7766 e4ba f227 38be cffc 28b9 d517 4b3b
00000140: c48a 93b7 ae7d 193b 4017 bf39 3193 36b9
00000150: 0a71 81bd 47d3 8a3d 3b71 2b3b ca73 f83b
00000160: f16a b838 31fd 3138 09e3 d1ba 94b8 e339
00000170: e893 11bb 5247 1b3c f2f6 ef38 b135 23bb
00000180: 96dc 0a38 f2f4 923a 1377 1e39 8f79 14b8
00000190: 1fdf 623c a455 84bc b12b a73a 3d54 61ba
000001a0: 1f18 df36 8395 a737 259b 7bba dceb 2fbb
000001b0: cb7a 3b3a d741 033a 18e3 1438 1202 52ba
000001c0: b866 a435 84d4 ae38 730e a2b8 e6b4 0a37
000001d0: b67f db3c ecf7 ecbc 780c 8836 432d 16bc
000001e0: 112e 85b9 991e 5cb7 d9f9 90b8 d42e 9b3c
000001f0: 0e31 443a cc72 603c 917a 53b8 d31c 14b8
00000200: 992d 08b8 5504 62ba c4f2 c837 4d0e 76b7
00000210: 4bca c03a ed64 05bb c420 83ba 191c 593b
00000220: e853 1038 e603 dd36 efae 833a 16b0 37bc
00000230: e400 d4ba af6c 3dbc 79b5 2f38 8a65 c739
00000240: 2451 c736 e356 dfba dd83 beb9 3227 1839
00000250: 48ed ad3c 849a d0bc c030 2dbb 456f e0bb
00000260: 4662 72b9 3677 47b8 3b13 dc3a ae44 cbbb
00000270: 0c36 db3a 2921 73bc 8e7b 21b9 414e 013b
00000280: 1a76 4bb8 341f 2cba 97bc 94b9 8300 8238
00000290: 8da5 0bbd e986 183d 032e 90ba 4eb4 183b
000002a0: ec8d 3338 a408 32b8 34e8 b439 406a 8abc
000002b0: abc0 cf39 ac0e 6cbc cd75 1db9 a3b8 4c3a
000002c0: 4203 a3b7 efba b03a 0b9b 1538 ef33 54b8
000002d0: 9d8c f23c 208a febc f189 8a3a b18f 91bb
000002e0: b067 7037 973b 54b6 4ab0 37ba 60e3 ae3c
000002f0: 261b 5fba 6a5a 8b3c f355 13b8 e0a6 7aba
00000300: 8a99 9538 8d43 cd3a 7d68 c739 5b3f 8ab8
00000310: 3512 ddbc 851d e03c fd48 073b 3205 69bb
00000320: 664a 1b39 c09e 6238 4579 b9ba e25c 043c
00000330: aa8b bc39 7bda 203c e423 4039 9c8f d4ba
00000340: ea23 9637 d943 ccba f54c e8b9 3fac 3b39
00000350: 740e a13c 1610 9cbc 7d83 1cbb a4a7 b9bb
00000360: c3fd 36b9 92d7 67b8 c6ed a53a d571 a43b
00000370: b025 3d3b d233 0b3a 6a4c 2ab9 a09a 183b
00000380: dca1 18b8 518b 2fbb b066 a5b9 c470 0f39
00000390: 2422 703c 07d0 75bc 2f3f 3abb 9698 223b
000003a0: 1d90 8eb9 0a1b 00b8 bf9f 1f3b 15db 69bc
000003b0: adb1 c639 95b1 b9bc ed05 78b8 a3d3 163b
000003c0: 3611 a638 fc1d cb39 e0e7 f239 6ba5 e9b8
000003d0: 8b43 143d 18ce 1fbd 30af cc3a 712c f43b
000003e0: 2947 1ab8 1522 8b38 ff25 d2b9 1e07 64bd
000003f0: 9c3e 8aba 31ef 89bd 03d2 3d39 d7a2 80ba
-1.2143873e-05 0.00046271272 -9.289217e-05 4.4557193e-05 0.028242774 -0.028379727 0.0003301443 0.0010024168
6.352277e-05 -1.9299374e-05 -0.0007764658 -0.0001722174 0.0016746512 0.005461002 -7.358176e-05 0.00017734146
-3.0700052e-05 0.00048143254 0.00015811126 -0.00010541513 0.008528566 -0.007582894 0.00085619866 -0.0026628762
0.00012226871 2.0234831e-05 -0.00016488349 0.006708515 -0.0003313886 0.008367663 3.9797025e-05 -0.0009878803
7.1537455e-05 0.0004126511 -0.00010806359 0.00010104779 0.02129591 -0.028284566 0.00029019438 -0.028475551
-2.7855946e-05 -1.3657424e-05 -0.0010513499 0.21445663 0.0038141054 0.32964352 -2.6356533e-05 7.907451e-05
1.8483084e-05 0.0009963496 0.00017237339 -8.149051e-05 0.17658468 -0.19019696 0.0015160667 0.012386654
-4.238007e-05 1.9080262e-05 -0.0016109046 -0.097057514 -0.0012963143 -0.13927874 5.2535415e-05 -0.0013270531
-0.00012455462 -0.0029300826 -0.000628161 0.00017150311 -0.026031427 0.05119543 -0.003901489 0.012188944
0.00031399753 -7.33602e-05 0.002982096 -0.09043311 -0.0017425556 -0.17983988 -0.00016115907 0.0030989547
-1.7588383e-05 0.0023420858 0.00036447681 -0.00017411706 -0.063203886 0.06778579 0.002616002 0.0075821625
8.793723e-05 4.243589e-05 -0.0016013096 0.00043434335 -0.0022213403 0.009477453 0.00011442405 -0.0024903829
3.31072e-05 0.0011211915 0.00015112413 -3.539916e-05 0.0138471415 -0.016154118 0.001275411 -0.00085956213
6.648726e-06 1.9977573e-05 -0.00095980085 -0.0026843464 0.00071517815 0.00050070643 3.5497447e-05 -0.0008011173
1.2248847e-06 8.336551e-05 -7.727453e-05 8.26756e-06 0.026794296 -0.028926812 4.0545674e-06 -0.009166065
-0.0002540206 -1.3120146e-05 -6.912993e-05 0.018943228 0.00074841164 0.013699245 -5.042047e-05 -3.5312794e-05
-3.2467393e-05 -0.00086218613 2.3954904e-05 -1.4666072e-05 0.0014708726 -0.0020354346 -0.0010004272 0.003312832
3.441042e-05 6.586767e-06 0.0010046641 -0.011211416 -0.0016174582 -0.011561557 4.189226e-05 0.0003803189
5.940108e-06 -0.0017039444 -0.0003633787 0.00014510451 0.021231309 -0.025464304 -0.0026426762 -0.006849202
-0.00023115528 -4.755632e-05 0.0016790399 -0.0062032556 0.0016724481 -0.014839449 -0.00015400184 0.001973048
-4.8508962e-05 -0.0006565929 -0.0002836927 6.1989784e-05 -0.03409343 0.037238035 -0.0011000041 0.002330083
4.28091e-05 -4.2446554e-05 0.0003450528 -0.016896367 0.00039625666 -0.014407795 -0.00015016571 0.00078094954
-1.9432631e-05 0.0013483445 3.5668763e-05 -5.0593106e-05 0.029608065 -0.031071723 0.0010569674 -0.004442178
1.4329256e-05 -3.1625148e-06 -0.0007007165 0.021348655 -0.00085108203 0.017010886 -3.5127578e-05 -0.00095616095
7.1334725e-05 0.001566039 0.00038034088 -6.592154e-05 -0.02698622 0.027357826 0.002064287 -0.0035556075
0.00014809667 5.4030446e-05 -0.0014150521 0.008078786 0.00035962212 0.009817715 0.00018323917 -0.0016217115
1.7898117e-05 -0.0015584185 -0.00044307826 0.00017897876 0.019660212 -0.01905064 -0.0023882084 -0.0056657363
-0.00017451406 -5.5275457e-05 0.0012659363 0.0050184526 0.0028861575 0.0005310151 -0.0001624093 0.0023285523
-3.6390367e-05 -0.002678592 -0.0003154776 0.00013679551 0.014656577 -0.015003211 -0.0028419008 0.0024810187
-0.00027191723 -3.054276e-05 0.002435669 -0.014273425 0.00037897882 -0.022667686 -5.9133326e-05 0.002301433
7.9187026e-05 0.00038741517 0.00046330597 -0.00011141117 0.036197226 -0.039014906 0.0015616175 0.007451587
-3.6782734e-05 6.634385e-05 -0.0004008263 -0.05567085 -0.0010547224 -0.06735075 0.0001810268 -0.0009814155

layers.0.attn.0.gnn_q.bias f4 [16]
00000000: 714c c8b7 5f5d 1f3a 610f 9f39 6ab0 1bb9
00000010: f84e 493e f28b 30be 347e b13a 06b3 533c
00000020: c362 d837 21ad 1538 e040 07ba acfe 90bb
00000030: 235e 71bb b7fe ae3b bdd8 cd38 4c1a a5ba
-2.3877454e-05 0.0006079282 0.000303383 -0.00014847671 0.1965903 -0.17240885 0.001354164 0.0129211005
2.5795196e-05 3.5685607e-05 -0.00051595084 -0.0044248905 -0.0036829791 0.005340423 9.8155324e-05 -0.0012596338
