checkpoints/cyp2c19_veith_33_train1_neg/Aug29-20:09:55_600.pth (torch, 486591 bytes, 294 tensors)

layers.0.weight f4 [26, 16]
00000000: 0221 f03e a2b0 3f3d 41b2 ff3d 7ed5 e23d
00000010: 3dd8 6f3e 31f5 80bd ee66 bb3e 51a9 e53e
00000020: ce9e 74be 8ce0 c8be ed6c b03e 57a4 bb3e
00000030: fc41 d93e aa41 7c3e 9d46 6bbe e27b 6cbd
00000040: c33b c93f ec47 65bd 8694 0ebf 4900 debe
00000050: 829c a8be 49d1 75be 5b8f 6b3c 686c 8c3c
00000060: 1b03 97be b4a1 9bbf f502 733d 6a6d 70bb
00000070: 15ae df3c 81a0 aabe 94bc 8dbe 79ae 5fbe
00000080: c687 453e c95f 003e 4cfc 973d 4606 5c3d
00000090: 8046 a8bd 272b 993d e388 483e 97ef 47be
000000a0: 388a 6a3e 27e2 d6bd c842 be3a 30e1 463e
000000b0: fd0b 943e d4af d5bd f405 813e 368f 3b3c
000000c0: d891 2a3e 6713 223c e0ed 5a3d d0d8 1e3d
000000d0: 435f b8bd 4c2b 4d3d 0093 543e b29d 41be
000000e0: 5b5e 7f3e 61f5 d9bd 7f60 813e 8454 5e3e
000000f0: af4c 983d e630 e4bd 145a 983e 054e ed3c
00000100: 6813 243e ec6d 2d3d ce3e 783d cbbf 273d
00000110: cb91 9bbd e54b 403d 5642 3d3e 001a 463e
00000120: 13c0 623e 3daa b3bd fcf4 da3d a538 353e
00000130: 68fd 2bbe e7e2 c7bd a232 7c3e 7b94 983c
00000140: db1e 183e 6c5a 36bc db48 903d f10d f73c
00000150: 0d35 12be 1f5a 213d c637 8e3e bb0a cd3d
00000160: a081 843e 229c b0bd 40aa 893d af3a 983e
00000170: 962d 25bc 7ae6 31be 145b 853e f21f 893c
00000180: da94 5e3f 2ed3 e9bd d62c 923c 7e76 3e3c
00000190: d9e5 b5be 28ed 38be 7199 2bbf 9aa8 4abf
000001a0: 542f 843e 10b0 30bf 2c6d 0ebf a256 26bf
000001b0: 3d76 4cbf 304b ccbe 5a68 923e fb94 2ebe
000001c0: de55 1f3f 6823 93bd 5fde bdbe 6d42 8ebe
000001d0: 3ed9 27be f2d9 b3bf 84f6 98be f758 2bbe
000001e0: 6bc4 e33d 7764 f7be 1533 05be 5614 94be
000001f0: 0dae 47be 34e7 4fbe da09 f03d 296f a8bf
00000200: 7d86 bc3f 74cc 04bd c258 973f 64d5 6a3f
00000210: 5fd7 c9be b211 d93d e720 ffbd d3c2 383e
00000220: 3b8b d8bd 8384 91bf 81c1 2b3e f0ec e7bd
00000230: 9a90 293e 8dc9 d2be 7711 dabd d0db c53d
00000240: 1a9f 703e 2d45 353c 89f1 4c3e 02b6 113e
00000250: 135b 30bd 1641 563d df53 0f3e ebd0 163e
00000260: 798b 853e 6dda 40be 4beb 14bd 9f68 103e
00000270: 433c 373d 6625 d1bc 1431 843e 3635 153d
00000280: a8b5 df3e f8a6 b93c 3f37 1d3e 4f9e c83d
00000290: ca3e b83e 468f c0be b021 6ebc 8715 e2bd
000002a0: 3294 94be 1428 acbe 7b5c ffbd 402c 793c
000002b0: 361c 2ebe 5d20 d33e 5bdc 88be 560f acbe
000002c0: cad6 95bf caa2 793d 2450 e53e 53ee ac3e
000002d0: b39f cebd a2bd b03e 9875 d93e 903d 393f
000002e0: 65cf 423c 1192 723f 2af0 113f 4191 d93e
000002f0: 2e8b 3c3f 8ad5 f2bd c7c8 4d3a 07fb 983e
00000300: a8b0 d73f aeba 843d 32ab 743e 4fbe 263e
00000310: 3bc6 423e 5e79 f0be 5967 8d3f 53b8 183f
00000320: c50e 8f3d 9728 a7bf b6d2 e03e 45a9 8b3f
00000330: 0686 e93e 2d91 283e 2c2a b33d e9c5 eebe
00000340: c58e d03d 3130 0c3d 850e 9f3f 93e3 733f
00000350: 2cb1 d63e b920 51bf 9ede 8c3d 7729 323e
00000360: 60c3 313e 933b 9bbd ff91 153e 0830 563d
00000370: df56 1b3e 24c9 dd3e a406 2b3e e7e9 42bf
00000380: fb3d a7bf 7385 26bd 31f9 653e b4a6 3a3e
00000390: 928b 843b b52c b0bf afda eebe b8ee fd3e
000003a0: 228e a0be e389 803f ff84 c83e f53a e6be
000003b0: c1c5 173f 5778 d1b9 0a72 abbe 0011 a4bf
000003c0: 4093 1d3e 5418 c6bd bc29 2abf 1003 02bf
000003d0: d702 7ebf 9f5c 95bf 8608 65be 4d38 1a3f
000003e0: 57e0 2fbb 6e64 f7bd f222 e13e 579e 65be
000003f0: 3fdb 143f 4a08 85bf 8879 363c e6c7 8abf
0.46900183 0.04679931 0.12485171 0.11075877 0.23422332 -0.062967665 0.36601967 0.4485574
-0.23888704 -0.39233816 0.34458104 0.3664882 0.42433155 0.24634424 -0.22976156 -0.05773533
1.5721363 -0.055976793 -0.5569538 -0.43359593 -0.32931906 -0.24005617 0.01437744 0.017141536
-0.29494557 -1.2158723 0.059328992 -0.003668631 0.027304688 -0.3332558 -0.27682936 -0.218439
0.19290075 0.12536539 0.07421169 0.05371692 -0.08216572 0.07478934 0.19583468 -0.1952499
0.22904289 -0.10492354 0.0014515752 0.1942184 0.28915396 -0.10433927 0.25199854 0.011447718
0.16657197 0.009892321 0.05344951 0.038780987 -0.09002545 0.05009012 0.20759201 -0.18907812
0.24938338 -0.106425054 0.25268933 0.21711928 0.07436501 -0.11142139 0.29756224 0.028967867
0.16023028 0.042341158 0.06060677 0.040954392 -0.07596167 0.04694738 0.18482336 0.19345856
0.22143583 -0.08772705 0.10691258 0.1769739 -0.16795886 -0.09760075 0.2462869 0.018625489
0.1485552 -0.011129957 0.07045146 0.030158015 -0.1427805 0.039392587 0.27776927 0.10011812
0.25880146 -0.0862353 0.06721926 0.29732272 -0.010081669 -0.17373076 0.2604605 0.016738866
0.8694588 -0.114172325 0.017843645 0.01162493 -0.35526922 -0.18059218 -0.6703101 -0.79163516
0.25817358 -0.6901865 -0.55635333 -0.6497594 -0.7986792 -0.39901114 0.2859524 -0.17049019
0.622404 -0.071844876 -0.37083718 -0.27785054 -0.16391465 -1.4050887 -0.29875576 -0.16733156
0.11121448 -0.48318836 -0.13007767 -0.28921765 -0.19499989 -0.2030304 0.11720629 -1.3158923
1.4728543 -0.032421544 1.1823962 0.9173186 -0.39422128 0.10599078 -0.124574475 0.1804307
-0.10573431 -1.1368564 0.16773035 -0.11324489 0.16559067 -0.41169396 -0.106478624 0.096610665
0.23498192 0.011063856 0.20014013 0.14229587 -0.043055605 0.052308165 0.13996838 0.14728133
0.26082972 -0.18833323 -0.036357205 0.1410241 0.044735204 -0.025530528 0.25818694 0.0364277
0.4369328 0.022662625 0.15353106 0.0979582 0.35985404 -0.3760931 -0.014534399 -0.11039262
-0.29019314 -0.33624327 -0.12468811 0.015208304 -0.17002949 0.4123563 -0.26730618 -0.3360545
-1.1706173 0.060946263 0.44787705 0.33775577 -0.10089054 0.34519678 0.4247253 0.7235956
0.011890267 0.9475413 0.57007086 0.42493632 0.7364987 -0.118571356 0.00078500476 0.2987902
1.6850786 0.06480919 0.23893431 0.16283534 0.19020931 -0.46967596 1.1047164 0.59656256
0.06985239 -1.3059262 0.4391076 1.0911032 0.45610064 0.1646163 0.08748278 -0.46635368
0.10183481 0.034225646 1.2426306 0.95269126 0.41932046 -0.81690556 0.06878398 0.1739863
0.17359686 -0.07579722 0.14606474 0.0522919 0.15169857 0.4331752 0.16701752 -0.76138157
-1.306579 -0.04065461 0.2245834 0.18227655 0.0040449584 -1.3763644 -0.46651217 0.4959619
-0.3135844 1.004208 0.39163968 -0.44966856 0.59286124 -0.00039953247 -0.33485442 -1.2817688
0.15388203 -0.09672609 -0.6646993 -0.50785923 -0.99223083 -1.1668891 -0.22366533 0.6024216
-0.0026836598 -0.12079702 0.43971974 -0.22423683 0.58147043 -1.0393155 0.011137374 -1.0842254

layers.0.bias f4 [16]
00000000: 793d 833e 6827 6a3f 1427 d53e bac5 7dbe
00000010: 21bc 993e cbaa 943e 935a f0be b12c 123e
00000020: a96e f9be 2e44 783e 2fbf 76bd 7302 66bd
00000030: 6a21 5cbe d34f 85be 4c5f 8f3d 5422 97be
0.25632837 0.9146638 0.41631377 -0.24782458 0.30026343 0.29036555 -0.46944103 0.14274861
-0.4871724 0.24244758 -0.06024092 -0.05615468 -0.21497121 -0.26037464 0.07000598 -0.29518378

layers.1.weight f4 [16, 16]
00000000: 4307 d43e eedf cebd 1269 593c ddc1 0cbe
00000010: c42a 3d3e 18fa 45be 2b87 ab3c ccda 7d3a
00000020: 0d2b 253e b79e 1a3f 0b7f 5bbe c38b 18bf
00000030: d328 8abd 4365 613c 3da4 583f 8f11 0abf
00000040: 88b8 fd3c bd73 b23e 8466 fb3b 6b0a 0b3e
00000050: 6c6b fa3d 0079 7d3e 6e00 1ebf e3cb 913e
00000060: c6aa 26bf 4214 123e a3ec 813e 4552 543f
00000070: 4734 f03e 9580 73bf 7b5a 29bf 2a27 883e
00000080: e988 9d3e 9c28 073b f346 973d db05 1abf
00000090: 820f 7bbe bfac 4a3c 74f5 383d c0e2 2b3d
000000a0: 08ed da3d 77d4 a43d be5c a6bd 0e8a 083e
000000b0: 7aed 4abe 8541 8b3e 72b7 d53d 3950 afbe
000000c0: 6ea5 a7be 7d34 af3d 25ad 033d e0dd 12bf
000000d0: f8cf 123f 9c6e c73d 81ee 3cbd 2dc9 b73d
000000e0: fafb 57bc d213 4ebe 54e2 413d b868 813f
000000f0: 6e5b 1a3d 5e1b 29be f71e 4b3e 169a b73e
00000100: bdbe 8a3e 704d 3cbc e17b d2bc 992c e6bd
00000110: 5662 93be 3cca 15bd 162b bc3c b428 133e
00000120: 6d42 453d ad39 3c3f 093e 283d 4ac8 233e
00000130: 732b 7f3d c3d2 3cbf e81a 96be 517d 24be
00000140: 4fc6 ca3e f96b b9bc a47d 00bc 96c5 13be
00000150: 339a 0cbf f293 88be 846c f13d a27b b4bd
00000160: ada8 173e dd32 5b3f 732c b0bd 5733 eabe
00000170: b425 99bd 98e5 50be d727 113d 1bdf 01bf
00000180: 2a52 8fbe 633e e23d fb91 23be e13c 46bf
00000190: 1e17 4a3d d112 0fbd 6480 593d 3e92 293e
000001a0: 8015 68bd 2095 793f 66b6 72bd 89c1 363f
000001b0: 61ee 933d 1414 88bf d2b6 e43d 189d 2d3e
000001c0: 1353 163d 45b9 633e 7da2 383d 7e74 a8bf
000001d0: 1af1 f33c 906f ebbd 008c ad3d ff9d f3bc
000001e0: addc 05be cdfa 523d 214b 8bbd 81bd a33f
000001f0: d201 d6bd e079 8dbd f2f1 3b3d 9dfa f3bd
00000200: 858c 80be 740d 49be 9703 893d 17f1 243f
00000210: e531 933d db11 93be 23cf 8e3d cdeb 533c
00000220: c1cf d53c 51d9 ef3d 5fff a93d a427 39bf
00000230: 6bd4 0b3e f597 203e 94a7 433e 9b98 ba3d
00000240: a794 e03e db77 5abd 3147 22be 025f 17bf
00000250: b13f a7bf 77b3 28be 03c2 963d 2efd 91bd
00000260: 6f17 103e ecb7 f8be 50bc 72bd 9373 5bbe
00000270: 6aa2 78be 327f 913f 9282 03bf a48f 12bf
00000280: ac85 f5bc 6220 c23d 693c e43a 7669 92bf
00000290: 9620 163e 0018 a2bd 7a09 8fbc 4025 283b
000002a0: f0a6 b5bd 4bb5 ff3d 3883 d2bd 962f 943f
000002b0: 9b20 52bd a4e2 19be 6d09 063e ed9f 703c
000002c0: 91a2 853e c616 fe3d bfd8 18be 066a debe
000002d0: 6c07 11be 7d48 673c 965e 133e b47e aa3d
000002e0: 8580 acbc c3a0 7b3f e88a f5bd 1683 d63e
000002f0: b1b9 c6bd 608b 4fbf 0acc 36be 03f7 34be
00000300: 5cc4 a0bc 2113 aa3d 6fda efbd ab95 a9bf
00000310: 6665 4cbd 090f 663e 256e 723e 78c8 b73c
00000320: 53b5 ed3d 42c5 afbd 0b69 4f3d dd6a 9f3f
00000330: 4417 613d 8dec a83d 681b 8fbd 79a5 873d
00000340: e14b 7abe d798 2abd b04a 47be 3fe0 81bd
00000350: c89f 8cbf af52 2abe 10e7 2bbe 2e10 e63d
00000360: 434f 853d de04 2c3f f1ef 4cbb d9b9 f8bc
00000370: 4c5b 373d 6079 1abf 9630 7abf 8538 f93d
00000380: e252 5a3e acbc fabd 34d8 553e ac42 5d3f
00000390: 2446 a9bd 3d43 8f3c 34b7 fd3d ddc2 513d
000003a0: f5c2 7bbd 9cf3 a7be 7857 123e db47 38bf
000003b0: 67bc 083e aa80 0b3d 002e 4abe d9c2 8ebd
000003c0: 6d9f c7be 3dd2 e83d edd4 1e3d b173 233f
000003d0: 6529 f5be f604 ad3d 2682 0cbe 1575 a73d
000003e0: 412a d1bd 9ea4 a33e 7931 253e 2827 19bd
000003f0: c1e4 853e 137c 71bf 11d2 82bf 18bb ff3e
0.4141179 -0.10101305 0.01326968 -0.13745828 0.18473345 -0.19333684 0.020938477 0.00096837874
0.16129704 0.6039843 -0.21435182 -0.5958826 -0.06746068 0.013757053 0.8462561 -0.5393304
0.03097178 0.34853926 0.007672133 0.13578193 0.1222752 0.24753189 -0.61719406 0.28475866
-0.6510433 0.1426554 0.25375852 0.82938033 0.46914884 -0.95118076 -0.6615369 0.2659238
0.30768517 0.002062357 0.07386579 -0.60165185 -0.24517635 0.012370287 0.045155957 0.041964293
0.106897414 0.08048337 -0.08123158 0.13333914 -0.19817153 0.27198425 0.1043538 -0.34240893
-0.327434 0.08554933 0.032147545 -0.57369804 0.57348585 0.09737894 -0.046125893 0.08973918
-0.0131826345 -0.20124748 0.047334984 1.0110083 0.03768485 -0.16514346 0.19836031 0.35859746
0.27098647 -0.011493072 -0.025693836 -0.11238975 -0.28785962 -0.03656982 0.022969764 0.14370996
0.04815905 0.73525506 0.041074786 0.15994373 0.062297296 -0.73759097 -0.29317403 -0.1606343
0.39604422 -0.022634493 -0.007842455 -0.14430842 -0.5492279 -0.26675373 0.11788276 -0.088126436
0.14810438 0.85624486 -0.08602228 -0.45742294 -0.074778944 -0.20400083 0.035438385 -0.50731057
-0.27992374 0.110470556 -0.15973656 -0.77436644 0.049338453 -0.034930054 0.05310096 0.16559693
-0.05666113 0.9749317 -0.05925598 0.7138906 0.072232015 -1.0631127 0.11167683 0.16954458
0.03670032 0.22238643 0.045076836 -1.316055 0.029778052 -0.11495888 0.084739685 -0.029738424
-0.13072462 0.051508714 -0.06801439 1.2792207 -0.10449566 -0.069080114 0.045885034 -0.11913035
-0.25107208 -0.19634038 0.06690138 0.64430374 0.07187251 -0.2872456 0.06973102 0.012934637
0.026100041 0.11711372 0.08300661 -0.7232611 0.1365525 0.15682967 0.19106895 0.091111384
0.43863413 -0.05333696 -0.1584747 -0.59129345 -1.3066312 -0.1647471 0.073612235 -0.07128368
0.14071439 -0.4857782 -0.05926162 -0.21430807 -0.24280706 1.1366942 -0.5137111 -0.5725043
-0.029970966 0.09478833 0.0017413023 -1.1438434 0.14660868 -0.07914734 -0.017460573 0.0025656968
-0.088697314 0.12485751 -0.10278934 1.1577022 -0.051300626 -0.15027863 0.13089533 0.014686567
0.2610059 0.124066874 -0.14926432 -0.43440264 -0.14162987 0.014116404 0.1439155 0.08324948
-0.021057377 0.9829218 -0.11989385 0.41896886 -0.097033866 -0.81072044 -0.17851272 -0.17672352
-0.019624881 0.0830443 -0.11711585 -1.32488 -0.04990139 0.22466673 0.2367483 0.022434458
0.116068505 -0.08582546 0.050637286 1.2454487 0.05495383 0.082482435 -0.06987649 0.06623358
-0.24443008 -0.041649666 -0.19462085 -0.063416 -1.0986261 -0.16633104 -0.16787362 0.11233555
0.065092586 0.67194927 -0.0031270946 -0.030362057 0.0447648 -0.60341454 -0.97730386 0.12168983
0.2132068 -0.122430176 0.20883256 0.8642986 -0.082653314 0.017488116 0.12388459 0.051211227
-0.061465222 -0.32803047 0.14291179 -0.7198464 0.1335312 0.03405825 -0.1974411 -0.06970758
-0.3898882 0.11368225 0.03877728 0.63848406 -0.47883144 0.08448212 -0.13721523 0.081766285
-0.102131374 0.3196153 0.16132154 -0.037390858 0.26151088 -0.9432995 -1.0220357 0.4994743

layers.1.bias f4 [16]
00000000: 434b 88bf 8003 37be 80f9 09be 04f0 32bc
00000010: 24b6 bbbd 4530 f2bd cb74 8c3e 4d8b 06be
00000020: 62cf a13e c2c4 aabd 03e5 d4bc 0f55 7fbd
00000030: 3423 ddbd 8d47 c43d 0efc 0abe f8fa 113e
-1.0647968 -0.17872429 -0.13474083 -0.010921482 -0.091656 -0.11825613 0.27432856 -0.13139077
0.31603533 -0.0833831 -0.025988108 -0.062336978 -0.1079773 0.0958396 -0.13572714 0.14255893

final.linears.0.weight f4 [116, 58]
00000000: 55c9 933f 603d 0d3f acde c3bc 3583 7ebd
00000010: 28ad 13bd 9032 5a3d 1d37 19bf 3855 abbe
00000020: e625 673f b3aa 22be 8234 a8be 5c71 4f3f
00000030: 24c1 08bf 2e23 153e cc80 f9be 563c 80be
00000040: c075 a4bf b32a 8bbf e76e dc3e cb3f 863f
00000050: 5334 aabf 470d 3a3f e6bf be3f e366 433f
00000060: ab02 013f b385 40bd eaa1 02be 2454 eabc
00000070: 6eb7 1dbd c13d 273e 3e42 6abd 351c 1dbe
00000080: 50d7 fa3d da86 bcbc 2110 653e cb30 db3c
00000090: 3380 79bc 2caf 28bd 48bf 72bd cc30 183e
000000a0: 28a1 d63c 497b 1c3b b377 af3d 2de6 1ebe
000000b0: fb6c 613d da4e 553d 7d16 9f3d 2ba7 673d
000000c0: 22ba 853d 1367 2a3c a850 a3bc 470e 1cbd
000000d0: 641c 593c 42b0 db3d 8ea0 a0bd af75 bdbd
000000e0: d4a0 53bd 1fa9 fbbc baeb 4e3f 9f38 6ebf
000000f0: 8dcb 843e 7e71 7d3e 0caa 773e 9f09 423d
00000100: 1d00 973e a792 9cbf a117 de3e 4410 c83d
00000110: 038c 4e3e 7a29 a4bf 272b d43b 3be4 113f
00000120: 0782 c1bf 9100 42bf acd6 9c3f 8bb0 acbf
00000130: 1f84 4abe e9ae 073f a1b7 e93c 39c1 29bf
00000140: e8e2 0739 7e44 9bbd 0743 bf3f 2078 a8bf
00000150: 10a4 fcbd facc ffbd 14b1 18be 0d30 353e
00000160: e3fa 58be 45aa d4bd 45eb 9b3d 4a91 11bd
00000170: bbef af3d 48bc 46bd 0e6a 76bd 101e 43bd
00000180: 0b9c 74bd da4a 473e a262 dcbd ac76 4b3e
00000190: d87c 143e 34f7 683d 0253 323e c844 333d
000001a0: b951 8c3c ae27 673e 7d43 5c3e 4e0a 89be
000001b0: 5e7f 813d 79a8 91bd 3d23 e1bd 44dd ff3b
000001c0: e88b b7be 6323 66bd 0978 ad3d 879d 02bc
000001d0: 6305 58be 3f53 b53e 3f88 033e 362f 083d
000001e0: e598 8d3d a0e3 24bd d24c 043e cad5 6c3e
000001f0: fb54 88be 7727 103e 6b04 09bd 801f 0c3e
00000200: c39c 303d 813e 9abe 4a69 abbd 4629 353e
00000210: 8a9e 87be d3ed c63d 7bf6 983e e4fa f9bd
00000220: a751 3fbe c535 fabd 66ee 49be bcd5 d53d
00000230: d7a1 a8bd c1f1 d23e 33ac 003e a6fa 0c3e
00000240: 3255 c03d bf17 c3bd 5416 e23d 8033 ca3d
00000250: fc2b ecbd 03bb f3bc ee0a 37be 4cb9 523d
00000260: 20fe 3bbc bed4 9a3d 028c 543d f7c1 20be
00000270: c7ad 143e d943 c9bd 4f26 5c3c e86b 02bd
00000280: c62d 88bc 0566 003d b697 403c 3b3c 8fbd
00000290: 2d7f 053d 3e72 88ba 6ec3 9a3d e21f febc
000002a0: 65d0 c8bc 2621 b43b cf77 853c 3a33 e3bc
000002b0: 36d7 10bd 24db 05bd 6425 8a3d 0865 e3bd
000002c0: 9a44 ec3d 22d1 113e f280 153e 4d9d 493e
000002d0: 1a8d 05be 9d55 b73c 75f2 1ebe 8fd4 243e
000002e0: f909 cabe af68 7c3d 02d1 543e 145c ad3d
000002f0: f1a5 eb3d ba7c 45bd b2cb 823e f61c a53c
00000300: 18ac 083c bab4 2bbd 322d 2b3e de98 8cbc
00000310: dad3 edbd 52d3 953d 1832 6d3e a62a 693e
00000320: ae82 013e cccb 7c3d ff47 233e 0a30 13be
00000330: 0c3d 333e e634 1b3e 0455 23be 166f bb3c
00000340: b3b0 5ebe 8d05 193e 8394 cbbb 87a9 193e
00000350: 1976 11bd db28 43be 75f7 543e 1dd6 07be
00000360: 13bf 8d3e 0763 98bd 4bca 60bd 12c4 223c
00000370: 7ccb e1bc c172 0bbd bc5c e33d 5829 9e3d
00000380: 1972 6a3d 4bd2 de3b 245e 4d3c fb82 b53c
00000390: ba34 9dbd 023c 703c 5da1 163d e95f 3b3b
000003a0: be85 0340 eba2 e23f 9d7b 1cbe 5b3c 04be
000003b0: 3535 0cbe 5cc1 80be e60e eabf 3deb 5f3f
000003c0: 92d8 80be f159 9bbe 1710 93bd 5dbd 83bd
000003d0: 1ee7 49bf 3492 d7be e86b 9cbe f590 533e
000003e0: 5a49 f03e 6e8b d63e bd6b 3abf 5871 a7be
000003f0: 9703 ae3f 08f6 88bf fcbc 4bbc 6d4d d0bc
1.1545817 0.55171776 -0.02390989 -0.062136848 -0.036053807 0.053270876 -0.5984972 -0.33463454
0.90292203 -0.15885429 -0.3285256 0.8103235 -0.5341971 0.14564201 -0.48731077 -0.25046033
-1.2848434 -1.0872406 0.43053362 1.0488218 -1.3297218 0.7267651 1.4902313 0.7632887
0.50394696 -0.047002506 -0.12757078 -0.028604575 -0.03850501 0.16332151 -0.05719208 -0.15342791
0.12248099 -0.023013521 0.22369434 0.026756665 -0.015228319 -0.041182682 -0.05926445 0.14862365
0.026199892 0.0023877195 0.08567753 -0.15517493 0.055035572 0.05207715 0.07767961 0.05655591
0.06529643 0.010400551 -0.01993592 -0.038099553 0.013251398 0.10726978 -0.078431234 -0.09250962
-0.05166705 -0.030720292 0.8082844 -0.93055147 0.25936547 0.24750325 0.24185961 0.047372457
0.29492274 -1.2232255 0.43377402 0.097687274 0.20170598 -1.2825158 0.0064748707 0.5698888
-1.5117806 -0.75782114 1.2253013 -1.3491377 -0.19776963 0.53001267 0.028529944 -0.6631046
0.00012959132 -0.07581423 1.494233 -1.3161659 -0.1233598 -0.12490268 -0.149113 0.17694111
-0.21189456 -0.10384039 0.076132335 -0.03553895 0.08590647 -0.048519403 -0.060159735 -0.04763609
-0.059719127 0.19462147 -0.10761 0.19869488 0.14500749 0.056876376 0.17414477 0.043766767
0.017128812 0.2257373 0.2151012 -0.26765674 0.063231215 -0.07112212 -0.10993049 0.0078083593
-0.35848927 -0.05618609 0.084701605 -0.007972128 -0.21095805 0.35415074 0.12844943 0.03324815
0.06913928 -0.040256143 0.1291993 0.23128429 -0.26627335 0.14077555 -0.03345148 0.13683891
0.04311825 -0.30125812 -0.08369692 0.17691526 -0.26488143 0.0971333 0.2987555 -0.12206057
-0.18683492 -0.12217287 -0.19719848 0.10441157 -0.082339935 0.4120007 0.12565689 0.1376749
0.0939125 -0.095260136 0.11039415 0.09873104 -0.11531827 -0.02975226 -0.17875263 0.051446244
-0.011474162 0.075601086 0.051891334 -0.15698992 0.14519416 -0.09827394 0.013436868 -0.03184119
-0.016623389 0.031347293 0.011754921 -0.0699391 0.032591987 -0.0010410023 0.075568065 -0.031021062
-0.024513433 0.0054971157 0.01629248 -0.027734388 -0.03536149 -0.032679692 0.06745413 -0.111032546
0.11536522 0.14239934 0.1459997 0.19688912 -0.13042107 0.02237969 -0.15522178 0.1609671
-0.39460734 0.06162327 0.20782855 0.08464828 0.1150626 -0.04821465 0.25546032 0.020155411
0.008341812 -0.0419204 0.1671646 -0.017162737 -0.11612673 0.07315697 0.2316364 0.22770175
0.12647507 0.061717793 0.15945433 -0.14373794 0.17503756 0.15156898 -0.159504 0.022880118
-0.21747093 0.14943524 -0.0062127723 0.15006076 -0.035513017 -0.19058554 0.20797522 -0.13265271
0.2768484 -0.07440763 -0.05488042 0.009934442 -0.02756285 -0.034044985 0.11101672 0.077227294
0.05723772 0.006799971 0.012534652 0.022157183 -0.076760724 0.0146627445 0.03677498 0.0028591102
2.055038 1.7705969 -0.1528153 -0.12913649 -0.13692172 -0.25147521 -1.8285797 0.8746832
-0.2516523 -0.30342057 -0.07180803 -0.064326026 -0.7886828 -0.42103732 -0.30551076 0.20660765
0.46930963 0.4190325 -0.72820646 -0.32703662 1.3594846 -1.0700083 -0.012435194 -0.025427544

final.linears.0.bias f4 [116]
00000000: f1be 023e 9539 c93c ec65 293e 95b9 27bf
00000010: 4ea0 5f3e b247 a53d 5ca9 083e 1f59 2e3e
00000020: ad85 983e 2b2d 803e 67cd 12be 315c 8b3c
00000030: 0616 3cbd 81dc 1f3d ca10 13be 35e9 22bd
00000040: d774 af3d 456e d53d 7bb8 1fbe 84dc 1e3e
00000050: 3c32 a2be b7e1 dc3e e7d1 023e 8ac7 13be
00000060: 4fe4 32be 3c0e 03bd 0515 8d3e 48e9 563e
00000070: 96b8 b13e 4a71 30be 9ece d23e 0b82 283e
00000080: 7444 393e 0cdb 17bf f468 22bd f959 a6bd
00000090: 8274 123e 7af1 5abe 61ac d23e 2539 80be
000000a0: 3d7d 8abd aef5 bebe d0ab 713e fc0a 09bf
000000b0: 04e3 973e cfd5 3f3d c774 c33d 02f1 283e
000000c0: 4a1d 93bb d74b b83e 0521 473e 9fb1 d5bc
000000d0: 9528 5dbe 4278 93bd a4d5 873e e328 f7bd
000000e0: fc10 bc3c 50ff 7ebe 0fb6 efbe 6588 5e3e
000000f0: d56a ae3d a5da 27be 2610 d3be d3dd 973e
00000100: 3672 a53d 4769 363c 2d70 c2be 136e 623e
00000110: ca7d d2bd beab d0bd cdab 593e 1123 bb3c
00000120: b826 06bd 6ece bfbd 10e1 8bbd 07ce 86be
00000130: 759d bd3e 5ba7 00be a26f c23e 5598 993e
00000140: 0fea ab3c 35bd a5bb 62f6 b8bd 890f 5d3e
00000150: 1a15 20be 8944 e0bd 748a 3f3d ee4a 80be
00000160: cea2 f9be e66f 533e 26bc 393c 34b5 13be
00000170: aa7d 913d 5ec8 393e 9efc 043f 2a05 693e
00000180: 6e03 6cbe ccae 363c 6b5b 723e 3dce 97bd
00000190: e518 1ebe 8c43 1d3e 6c82 d03d ba3d 70bc
000001a0: c3ad dcbd 1195 6ebe 8847 8a3e bacb 783d
000001b0: 0404 27bd abb2 7bbc cc75 6f3d a6e3 003f
000001c0: 3bd1 333d 161a c83d ef16 663e 27dc f2bc
0.12768151 0.02456359 0.16542786 -0.6551755 0.21838495 0.080703154 0.13345855 0.17026184
0.29789487 0.2503446 -0.14336167 0.017011734 -0.04591944 0.03902865 -0.14361873 -0.039773185
0.08567207 0.10421423 -0.15597717 0.15513808 -0.3167895 0.43140957 0.12775384 -0.14431587
-0.17469905 -0.031995997 0.275551 0.20987427 0.3471114 -0.17230716 0.4117326 0.16455857
0.18092519 -0.59318614 -0.039650872 -0.0812263 0.14302257 -0.21381178 0.4114714 -0.25043598
-0.067621686 -0.37296814 0.23600698 -0.53532386 0.29665387 0.046834763 0.09543758 0.16498187
-0.0044895755 0.3599536 0.1944619 -0.026085673 -0.21597512 -0.07200672 0.26530182 -0.120683454
0.022957318 -0.24902081 -0.46818587 0.21731718 0.0851647 -0.16392 -0.41223258 0.29661426
0.08078425 0.0111334985 -0.37976208 0.22112302 -0.102778986 -0.10189007 0.21256943 0.02284387
-0.03275177 -0.09365545 -0.06830037 -0.2632906 0.37034193 -0.12563841 0.37975794 0.29999033
0.020985631 -0.0050579556 -0.09031369 0.21587957 -0.1563305 -0.10950572 0.0467629 -0.25057167
-0.48757023 0.20648155 0.011336362 -0.14424592 0.07104047 0.1814284 0.51947963 0.22755876
-0.23048183 0.011150073 0.23667686 -0.07412384 -0.15439184 0.15357798 0.10181126 -0.014663154
-0.1077533 -0.23299052 0.270077 0.060741164 -0.040775314 -0.015362422 0.05846195 0.50347364
0.04390071 0.097706005 0.22469686 -0.029645992

final.linears.1.weight f4 [116, 116]
00000000: 4b32 89be c192 57be 2e06 86be eceb 71bd
00000010: 1901 38be efca 59bd 8a3e 1abe d3b0 1bbe
00000020: 2332 60be 7af7 3abe c757 08bd 76b8 20be
00000030: 3665 46be e9ed fa3c fb72 943c 64ae 53be
00000040: 69fa 46be b55e 4bbe 77db 9abd b6ca 30be
00000050: 39ab 87be 0964 edbd 6221 55be c70d febf
00000060: 2cf1 4fbd df1d 8abe da90 09be 8595 18be
00000070: b1df b6bd 29eb 9f3d e928 53be 297a 47be
00000080: 2252 b0be fa3a 15be a662 71be 5faa 7ebe
00000090: 7a8e 9c3e 3532 93bc 872a b43c fdef 8a3e
000000a0: 4c72 f5bc 03fa b53c 065a 0fbe 9002 60be
000000b0: 5ac0 d9be eaca f7bd 8048 32be a7ec a9be
000000c0: 80ba 9cbe eb26 a8bd 1536 953c 70a8 64be
000000d0: 6ad6 b7bd 5c83 bdbd 34de b93d 420d 8dbc
000000e0: 53e0 013d 9dfb 42bd 7afc 9d3e b50d a9bd
000000f0: a3c3 7dbe 9b6b 5bbd 79c6 36bc 8894 8abe
00000100: 3770 2dbe e8fa 37be be01 9cbd 0d4a 40be
00000110: 0218 49be de89 8a3b 1013 5cbd 0995 18bd
00000120: e29e 3ebc 8832 36bd beef acbd 04ff 27be
00000130: 494c 0e3d e569 a13c 9d36 5c3e a850 34be
00000140: 0288 313c f09b c43c 036b 7dbd 6273 f7bb
00000150: e995 313d 5e81 1cbe bb56 c6bd 3eb3 8bbd
00000160: 2296 6d3e d4c2 50be 3b3e 1cbe 3a4b b03c
00000170: dcd4 80be b7a6 18bd f102 f1be fad3 4ebe
00000180: 5985 31bd fa71 2cbe d095 84be 7c02 8cbe
00000190: 8a30 57be 44e6 5ebe 086b c03c c961 8bbc
000001a0: 28ee ea3b 16c6 8fbe 39b8 12bd f570 00be
000001b0: 88f5 bd3d ba1b 05bd bd3f 2fbe a930 89be
000001c0: 0d14 1a3d 3d93 c4bd 03ba d1bd c1ec af3d
000001d0: 8337 80be 0228 a8be 62c2 86bb d5e4 e3bc
000001e0: c499 b9be 2d3c 8e3c b5d1 acbe 544c 6ebe
000001f0: 78a2 82bd 25dd b9be 8da0 40bd 62e1 bfbd
00000200: 484b 91be 0e3c 13bd 1b58 c93c adc9 1abe
00000210: 4fe1 5cbe a878 b2bd d729 33bd 5ca4 24bd
00000220: 48fe 5bbe 4669 8abe 37c1 9cbe 12b4 08bb
00000230: 2a1e 9bbd 16f8 a8be 58d3 25be 8af0 56be
00000240: 587b 46be 1510 37be 89ae 90be eed9 85be
00000250: 2f56 7ebe ecae 2b3e 7e25 97be 0c09 c8be
00000260: 55ea 0dbe c897 203d b8ff b8bd 79f3 01be
00000270: af73 25bd 7a9f b63c fb33 71bd f2c6 523d
00000280: 5b98 33be 0d0b 6bbe ca10 1abe a748 4c3d
00000290: 1b09 89be f496 dbbd a50f 8ebd 511c 4cbe
000002a0: 4538 7fbc c316 1fbe 9790 f4bc ac1f aebc
000002b0: 3e54 2e3d 71d9 bebd 3ebd e73d 5883 94be
000002c0: 3223 7fbe 6bcb 753d 22de 283e 19b7 91be
000002d0: c3ad a7be c1c9 81be 7098 52bd 3e46 83be
000002e0: 97e2 37be b7b4 d6bd 5920 c3bd 7a71 053d
000002f0: 05f2 1dbd 438d adbc b4af 54bd 344d 8ebe
00000300: b4df 113d 9fc1 41bd eb76 18bd 4b82 afbe
00000310: 55cf 88bd 8085 9f3c bfd2 bfbd 0865 7cbd
00000320: 12d2 eb3c e552 5cbe fbc2 38be e180 e5bc
00000330: 03d9 1f3e 29e4 1ebe adb2 62be 0bea 8b3c
00000340: 320b 98be 144a 0e3a 4ee4 f7be 8457 5abe
00000350: f0d5 853d 6799 84be f8c6 16be 095f cbbf
00000360: c083 aabe cd72 8abe 1a41 89bd ca5e 95be
00000370: 8bba 153d aa76 81be 4501 88bb 8c40 7fbe
00000380: a145 253e 8933 953d ea97 c2be c4e1 b3be
00000390: 9bc2 f73c a959 28bd 109f 2dbe ce2f ca3c
000003a0: 3e58 12bd dae8 a6bc 36ae fc3b f5c2 f13d
000003b0: 7479 04bd cb9b 1b3e 6a3f a0bc 74a6 f5bc
000003c0: e2e3 df3c 0ee2 2fbd 66a0 febc 528e ffbc
000003d0: aab7 91bb d2f2 50bd 789e dcbe b29a 0dbd
000003e0: 5367 55be 9233 8abd a5fd 0e3d e7bf b03c
000003f0: de06 fa3d 56f5 a1bd f228 e3bc 116d fbbd
-0.26796183 -0.21052076 -0.2617659 -0.059062883 -0.17969169 -0.05317205 -0.1506292 -0.15204172
-0.21894126 -0.18258467 -0.033286836 -0.15695366 -0.19374546 0.030631023 0.018121233 -0.20671993
-0.19431461 -0.19860347 -0.07561391 -0.17264828 -0.2649782 -0.11591346 -0.20813516 -1.9847955
-0.05076711 -0.26975915 -0.13434163 -0.14900787 -0.089293845 0.07808525 -0.20621075 -0.19480194
-0.34437662 -0.14573279 -0.23572788 -0.24869679 0.3057745 -0.017968277 0.021992935 0.27136222
-0.029961728 0.022213941 -0.13999185 -0.21875978 -0.42529565 -0.1209925 -0.17410469 -0.33188364
-0.30611038 -0.08210548 0.018214265 -0.22329879 -0.08976443 -0.092535704 0.09075585 -0.017218236
0.031708073 -0.04760324 0.30856687 -0.082545675 -0.2478166 -0.053569417 -0.011155718 -0.27066445
-0.16937338 -0.17966807 -0.0761752 -0.18778248 -0.19638065 0.004227861 -0.053729117 -0.037251506
-0.01163456 -0.044481784 -0.08444165 -0.16405874 0.03474072 0.019703815 0.21505208 -0.17608893
0.010835649 0.024000138 -0.061869632 -0.0075515965 0.043355856 -0.15283725 -0.09684511 -0.06821297
0.23201802 -0.20386821 -0.15258114 0.021520246 -0.251624 -0.037268367 -0.47072557 -0.2019805
-0.04334006 -0.16840354 -0.25895548 -0.27345645 -0.2101461 -0.21767527 0.023488536 -0.017014401
0.0071695037 -0.28080815 -0.03582022 -0.1254309 0.09275347 -0.032497145 -0.17114158 -0.26794937
0.03761678 -0.09598396 -0.10240557 0.08590079 -0.25042352 -0.32843024 -0.0041125277 -0.027819077
-0.36250126 0.017362678 -0.33753744 -0.23271304 -0.06378645 -0.36301532 -0.047028113 -0.0936916
-0.28377748 -0.035945944 0.024578145 -0.15115996 -0.21570323 -0.087144196 -0.043741073 -0.040195808
-0.2148372 -0.27033442 -0.3061616 -0.0020859283 -0.07574113 -0.33001775 -0.16193902 -0.20990196
-0.1938299 -0.17877229 -0.2825816 -0.2614283 -0.24837564 0.16765946 -0.29520792 -0.39069402
-0.13858922 0.03920725 -0.090331495 -0.12690534 -0.040393528 0.022292841 -0.058887463 0.05145926
-0.17538588 -0.22953434 -0.15045467 0.049873974 -0.2676476 -0.107221514 -0.06936578 -0.19932677
-0.015577381 -0.15536027 -0.029854102 -0.021255337 0.04256081 -0.093188174 0.11315392 -0.29006457
-0.2491577 0.060008448 0.16490987 -0.28460005 -0.32749757 -0.2534924 -0.051414907 -0.25639528
-0.17957531 -0.10483687 -0.09527654 0.032578923 -0.038560886 -0.021185523 -0.051925376 -0.27793276
0.03561373 -0.047303792 -0.037222784 -0.34279093 -0.066801704 0.019472837 -0.093663685 -0.06161979
0.028786693 -0.21515997 -0.18043129 -0.028015556 0.15610127 -0.15516724 -0.22138472 0.017079374
-0.2969604 0.00054279086 -0.4841637 -0.21322447 0.06534946 -0.25898287 -0.14724338 -1.5888377
-0.33303642 -0.2704071 -0.0670187 -0.2917388 0.036554854 -0.25285846 -0.004150542 -0.24926966
0.16139843 0.0728522 -0.38006526 -0.35133183 0.030244162 -0.04110113 -0.16955209 0.024680998
-0.035728686 -0.020374704 0.0077111972 0.11804763 -0.03234239 0.15196149 -0.019561488 -0.029986598
0.027330343 -0.042940192 -0.031082343 -0.031195793 -0.0044469433 -0.05101282 -0.43089652 -0.034571357
-0.20840196 -0.067481175 0.034909863 0.021575881 0.12208341 -0.07908122 -0.027729485 -0.12276662

final.linears.1.bias f4 [116]
00000000: b146 03be 4413 8abe 2e12 6fbe 2621 43be
00000010: 7ef5 30bf 6b15 57be f925 03be 7249 1ebe
00000020: b228 90bd 9e23 74be ec5c 80be 7b21 01be
00000030: 89fb 78be 7a75 95be 2935 ecbd 547a 92be
00000040: a226 d7bd 82a4 88be a184 62be 5b05 98be
00000050: 0cac 60be 961d a5be 1da2 b1be 9433 afbe
00000060: c9b8 a3be 8aee 05be 1809 78be e8b0 94be
00000070: 1796 bbbd 2cdc 21be cbeb 17be 1da0 5abe
00000080: 9e17 ee3d 3cb9 2f3f 25d8 0fbe 067a 24be
00000090: b3fa 52bc 062a 96be 008c 71be 81a1 6cbe
000000a0: d081 81be 2f55 4abe 86aa 8cbe aa5d e8bd
000000b0: 8ede 74be 6518 aabe 9da9 85be 9b7a 60be
000000c0: 3684 5cbe 09eb 123c cdbe 87be 35bc 1ebe
000000d0: d03c 05be 2eac 58be dada 77bd cd67 37be
000000e0: 60d5 4abe 746c e0be 71a9 a5be 3dca 9bbe
000000f0: a98c 503d 4c09 14be 92aa 0fbd 38e4 88be
00000100: 1057 c9be 87a6 02be 6e27 6fbe 169e 32be
00000110: daed 8bbd e50b 82be 1a7a 73be e9c1 85be
00000120: 0bca 49be 4546 53be ef4e 53be 11c5 69be
00000130: 0184 dfbd bcdb 3dbe 1026 1cbe 2947 76bd
00000140: e7ec 5cbe 1b54 9ebe b404 a5be bc7a 32be
00000150: 4b4f 94be 8ba3 45bc 463a 3fbe 85d7 2cbf
00000160: 9fb9 f2bd c645 933d 8402 06be 9785 b6be
00000170: 246f 73be 892f 5dbd ead2 6bbd 2947 513d
00000180: 454d 7abe dc4b 7cbe bd1e c0be 4e7e 45be
00000190: 83ef 04bd 8d7c 67be 0dd5 87be a18c 14bf
000001a0: 543d 63be 16af d4bd 0ba2 b0be 9638 68be
000001b0: 2692 81bd 3654 f2bc 38cc 23be c01f 683e
000001c0: f2b6 2fbd ec0a 60be 2c16 34bd 174a 7fbe
-0.12819935 -0.26967824 -0.23346779 -0.19055614 -0.6912459 -0.21004264 -0.12807454 -0.15457705
-0.07039012 -0.23841712 -0.25070894 -0.12610428 -0.24314703 -0.2919119 -0.11533577 -0.28608954
-0.105054155 -0.2668801 -0.22120906 -0.29691586 -0.2194063 -0.32249135 -0.34693995 -0.34219038
-0.31976917 -0.13079277 -0.24222219 -0.2904122 -0.09159487 -0.15806645 -0.14836042 -0.21350141
0.11625598 0.6864202 -0.14047296 -0.16062173 -0.012877154 -0.29328936 -0.23588562 -0.23108484
-0.25294352 -0.19759057 -0.2747385 -0.1134599 -0.23913023 -0.33221737 -0.26105967 -0.2192177
-0.2153481 0.00896717 -0.26512757 -0.15501483 -0.1301148 -0.21159431 -0.060511447 -0.1791069
-0.19807959 -0.43832743 -0.32355836 -0.30427733 0.050915394 -0.14456671 -0.035074778 -0.26736617
-0.39324236 -0.12758838 -0.23354885 -0.17443117 -0.06832476 -0.253997 -0.23777047 -0.26124504
-0.1970598 -0.20632274 -0.2063558 -0.22829081 -0.109138496 -0.18540853 -0.15248895 -0.060126457
-0.21574746 -0.30923542 -0.3223015 -0.17429632 -0.28966746 -0.012062917 -0.18674573 -0.67516357
-0.11851811 0.071910426 -0.13086897 -0.35648796 -0.23772866 -0.05400041 -0.05757419 0.051093254
-0.24443538 -0.24638313 -0.3752345 -0.19286463 -0.03245498 -0.22606106 -0.26529732 -0.5802708
-0.22191364 -0.103849575 -0.3449863 -0.22677836 -0.06326704 -0.02958117 -0.15995872 0.22668362
-0.04289908 -0.21879166 -0.043966457 -0.24930607

final.linears.2.weight f4 [26, 116]
00000000: ba4e be3d 4b31 2abe bfb5 8c3e 7bb5 af3e
00000010: 3e81 95bc be0c a3be ec7b de3e c07f e3bc
00000020: 93b7 c6bd 0f03 3f3e bad4 5f3e 4866 4cbd
00000030: b19a 123e df29 ff3d 1cb1 333c 4580 fc3e
00000040: e21a 81be a7b2 69be cbb3 513d e7e6 91be
00000050: e2cb 053f 6bd2 2bbd 51f9 74bf 9101 bbbc
00000060: b2d1 1b3d 2e50 45bd e1f9 6e3d e6f9 debe
00000070: 513f 8b3c 92f9 403e 9673 7d3e da1f 8e3e
00000080: 2a80 f3bb 8c17 473b 4ae0 20bd 66ff 3abe
00000090: ee5d b7bd 5a0c cbbe 2b75 aabd 5072 17bf
000000a0: 912b 323f 85bb 6aba ecfd 8e3e e32b 55be
000000b0: 0801 ef3e 54f1 37bd 4696 5f3d 2ee0 f33c
000000c0: 4973 323e db69 68be 96ec 42bd e18a ef3e
000000d0: 52e9 8abd 1099 b339 3c76 19be 908b eb3d
000000e0: 798a a23d f5c1 b9bd 3c49 cfbd 8cac 9cbc
000000f0: 9ec6 5e3a fff8 29be 13e3 3fbe 620a 5539
00000100: ff8e 903e e041 32be 4c8b c03e c323 72be
00000110: 28be 54be 0612 9dbe ce89 f53e 6a2d d6bc
00000120: 4037 743d dcd8 a73e 6d6b 50bd 12a3 d33d
00000130: 8bd5 5abe ba13 3f3c d144 79be 7fb9 08bb
00000140: 9721 8e3e 1abf 5abe d34f ad3d 93e6 c83d
00000150: 5e01 8c3e cf45 c9bb 10e1 243e 19ed d9bb
00000160: 5008 82bd 34e9 a83d 1417 633e c372 733e
00000170: f6a1 9b3e 9bbd b9bd c39e 483b b568 13bc
00000180: e6eb 223e d490 eb3b cf58 24bd e8f9 e5bd
00000190: 2497 94bc e3f8 5fbd c3fe e5be 18c9 adbb
000001a0: b39f 08bf 04ec 4b3e 5fea 57bf d5f8 c3be
000001b0: 755f d0ba 6667 ffbd 4370 8f3d 72d3 35bc
000001c0: c7eb 2e3d 4fcc 6fbe 3b52 0a3c 6525 7f3e
000001d0: ddda 45bd 987f 033f ebef cf3c d429 8fbe
000001e0: effe e5bc 7a24 b93d 0899 9c3e 6227 833c
000001f0: 5c7b 383d 03dc e3be 4bd9 72bd df31 86bd
00000200: 9232 bfbc 2cb8 0ebf 2bbc e03c b44c e13d
00000210: 8e9f 863d b4fc e3bd f72c 613d 2134 e13d
00000220: 72ac d83e 39f1 cabe 3ee8 59bf 20d4 7cbe
00000230: 512b 2f3f e4f8 253c 17f2 133e 7780 b23e
00000240: 062c b43e 4043 65be 007e 9fbd fcd5 7abe
00000250: 5b22 19bd b20e b6bb da46 8e3e 5652 403e
00000260: 046d 8a3d f8d1 033f 4712 d0be 5c6f 55be
00000270: 16e0 d83d 5025 62bc d63b e2be 8b43 25bd
00000280: eea2 8cbe 118e aa3e bac5 7cbd 110b 143d
00000290: 8862 8a3d 3188 4e3d 3256 033f b569 c43d
000002a0: 4e0f bdbd 28b7 24bb 46e7 b9bc f09c 0ebd
000002b0: dcd5 adbe cf4b e9bd d81f afbe b0cf d53e
000002c0: 2f15 e2ba 6c43 95bd 9aaa e03d 2be2 5dbb
000002d0: 88c5 e9bd 77a2 693e ca7b 5abe 2db8 113f
000002e0: 0ae5 3e3d f90a 903d f328 37bd a0f1 cbbe
000002f0: 9ed1 aebc 7e4d 733e a8c6 003f a2cb f63c
00000300: baeb debc a578 c0bc 78bc 6c3e 4b0c 5f3b
00000310: fa4d c63b f022 c63d 33bd 4a3e 03da 5ebe
00000320: f435 e5bd a12b e63c 12ef a53d 2f94 ccbb
00000330: 790a c0bd 2353 34bd 1a05 0b3d 9731 1c3c
00000340: 4053 f03d 554e 82bd 31c5 08bc ccb3 863c
00000350: b478 e33d 078f 583d 65b3 07bd 33dc 1dbe
00000360: 6166 b63c 95d3 2bbf 6b28 843e aace 733a
00000370: ded4 dabe c985 2fbe d8a6 c53d eadc 963c
00000380: 0505 9a3b 865a 843e 9e99 e63d 0841 4e3d
00000390: 55c4 babe 7bec 32be 44f2 e13b a108 25be
000003a0: 2dde 74bf 1426 0ebe 355a 5d3d c436 1e3e
000003b0: ff31 343f 1e17 84be bbf5 44bd 0664 cb3e
000003c0: 6593 693d fdc9 abbd 35ad 80ba d1dd d9bb
000003d0: 5c93 653d e401 f1bd 48f7 56be 45aa b53d
000003e0: a4be ae3d 22cc 95bd e187 153d 489c 623b
000003f0: 8b12 e63e fdc2 e93d fef8 5d3e 71b3 003f
0.0929236 -0.16620366 0.2748241 0.34318146 -0.018250104 -0.3184566 0.4345392 -0.027770877
-0.09702983 0.1865351 0.21858492 -0.04990223 0.14316823 0.12459158 0.010967519 0.49316612
-0.25215822 -0.22822057 0.051196855 -0.28496477 0.52264225 -0.041948717 -0.95692927 -0.022827895
0.038041778 -0.04817217 0.05834377 -0.43550032 0.016997965 0.18845204 0.24751124 0.27758676
-0.00743105 0.0030379025 -0.0392764 -0.1826149 -0.089534625 -0.3965786 -0.08323129 -0.591588
0.6959773 -0.0008954334 0.27928102 -0.20817523 0.46680474 -0.044907883 0.05458667 0.029769983
0.1742679 -0.2269663 -0.047588907 0.46785644 -0.067827836 0.0003425558 -0.14986509 0.11501229
0.07936568 -0.090701975 -0.1012139 -0.019125246 0.0008498224 -0.1659889 -0.18738966 0.00020317131
0.28234097 -0.17407942 0.37606275 -0.23646455 -0.20775664 -0.30677813 0.479567 -0.026144702
0.059623003 0.32782638 -0.0508837 0.103338376 -0.21370523 0.011662418 -0.24342658 -0.0020862517
0.27760002 -0.21361962 0.08462491 0.098096035 0.27344793 -0.006142355 0.1610148 -0.0066505787
-0.06349242 0.08247605 0.22176772 0.23774247 0.30397004 -0.090693675 0.0030612207 -0.008997132
0.159103 0.0071888957 -0.040123757 -0.112293065 -0.018138476 -0.054680716 -0.4492093 -0.0053035133
-0.5336868 0.19914252 -0.84341997 -0.3827578 -0.0015897589 -0.124708936 0.07003834 -0.011097776
0.042705324 -0.23417781 0.008442457 0.24916609 -0.048304427 0.5136657 0.025382956 -0.279616
-0.028075663 0.090401605 0.30585504 0.01600999 0.04503952 -0.44503793 -0.059289258 -0.06552481
-0.023339543 -0.55749774 0.027433475 0.11000958 0.065734014 -0.11132184 0.054974522 0.10996271
0.42319065 -0.39637163 -0.8512 -0.24690294 0.6842547 0.010130141 0.14447819 0.34863636
0.35189837 -0.22388935 -0.077877045 -0.24495691 -0.03738628 -0.005555951 0.2778843 0.18781409
0.06759074 0.5149226 -0.40638945 -0.20843261 0.10589616 -0.013802841 -0.44186276 -0.040347617
-0.27468055 0.33311513 -0.061712004 0.036143366 0.067570746 0.05042285 0.513034 0.095904745
-0.09231435 -0.0025133584 -0.022693288 -0.034817636 -0.33952224 -0.113914125 -0.34203982 0.41760015
-0.0017248745 -0.0728825 0.1097004 -0.003385673 -0.11414629 0.22815882 -0.21336284 0.56921655
0.046605147 0.07033343 -0.044716787 -0.39832783 -0.021340188 0.2376003 0.50303125 0.030126397
-0.027212013 -0.023495028 0.2311877 0.0034034427 0.006051776 0.096746325 0.19798736 -0.21762852
-0.11191931 0.028096976 0.0810224 -0.006243251 -0.093769975 -0.044024598 0.033940412 0.0095333075
0.11734629 -0.06362597 -0.008347795 0.016443156 0.11107007 0.052870777 -0.03313007 -0.1541603
0.022265615 -0.67119724 0.25812086 0.00093005097 -0.4274053 -0.17140879 0.096509635 0.018415887
0.0047003054 0.25850314 0.11259769 0.050354987 -0.36477914 -0.17473023 0.0068953354 -0.16116573
-0.95651513 -0.13881713 0.054041106 0.15450579 0.7038879 -0.25798887 -0.04808591 0.3972475
0.057025332 -0.083881356 -0.0009817245 -0.006648757 0.056048736 -0.11767939 -0.20992768 0.08870367
0.085324556 -0.07314326 0.036506537 0.0034578014 0.44936022 0.11414144 0.21677014 0.50273806

final.linears.2.bias f4 [26]
00000000: 3caa 3abc 7cdb 48bd 87fb 4f3e c810 84bc
00000010: c552 f9bd 194e 93bc fb28 f13b 2024 e2bc
00000020: 16d5 013d 48c5 efbd 8f1d f1bd be52 643d
00000030: 1e58 0b3d 1f80 283d 06ac 97bb adb4 81bd
00000040: 7bff bb3d a5e5 8dbd ecf5 103d b3d0 b5ba
00000050: 2dda 833d f712 84bd 933c 563b dbfb c1bb
00000060: 841c 91bc 5885 b6bd
-0.011393126 -0.04903744 0.20310794 -0.016121283 -0.1217399 -0.017981576 0.0073596216 -0.027605116
0.031697355 -0.1170755 -0.11773216 0.05574297 0.034019582 0.04113781 -0.004628661 -0.06333289
0.091795884 -0.06928567 0.03539078 -0.0013871401 0.06438098 -0.0644893 0.0032689914 -0.005919916
-0.017713793 -0.08912152

layers.0.attn.0.gnn_q.weight f4 [26, 16]
00000000: f66b b3ba 2162 95ba 851e 9ab8 2895 bb37
00000010: 3167 833c 5ce5 89bc e266 cf3a f07a 05bc
00000020: 1237 de39 e8ab e8bb dc68 12ba fe74 ec3b
00000030: 4235 13b9 cfdd d73b 72fe 4dba 48b5 dd3a
00000040: 12d1 e73a c78e 77ba 1679 7f38 b711 8ab8
00000050: ace4 2bbb ed83 b33b 4daf 0abb 79b0 723c
00000060: 28bf 503b aba1 e1bb 1e14 8c3a eeb2 e7bc
00000070: 64fd 39ba ea37 fabc e894 16ba dd3e 793b
00000080: 44c3 6bb9 4669 103a ed7e 18b8 df15 79b7
00000090: 1c50 393d eefc 5dbd 4b63 93b9 5150 edbd
000000a0: a4f0 813c cced 2bbd 8e87 3db9 0ca3 653e
000000b0: d654 b3bb 909b 943e bf2a fbb9 89a3 e9b9
000000c0: d656 e4ba 7426 13bb 716a 15b7 b310 34b8
000000d0: d462 843e 00cc 91be e96c 19ba e6dc da3c
000000e0: 7c1c 66bc 1172 9d3c 74b2 14b9 129f 02bd
000000f0: 06d3 043c a4f4 04bd 99ca 7fbb 9d70 0e3c
00000100: f8f3 4cbc d040 af3a 7ffc ceb9 a6e2 d738
00000110: 9632 0bbd a4d8 913d 24c1 163c 655c e53d
00000120: d2d5 52bc 8e8e d53c d544 99bb fb78 59be
00000130: 38cc 0e3c 4d35 8cbe 9851 74bb 1786 123c
00000140: 3610 c9bb 3a79 a3ba 418a 02b9 9df4 b638
00000150: e61a c5bc 4d15 fb3c e372 a43b f066 0f3c
00000160: 5c3e 5abb 6ed8 953b c121 05bb f568 1bbc
00000170: 5e48 8c3a b0d5 2cbc 98f6 c83a ed28 70bb
00000180: 7062 aeba e0ca bebb 5367 9338 e60a fc37
00000190: e1f7 82bb 40e7 a93b 09e2 393b 3e2b 933c
000001a0: 004d 5738 b22a 653b 4473 6bba 1ee4 d1bc
000001b0: e220 e5ba 9a88 e2bc 3d9a 893b a9b9 07bc
000001c0: e562 b23b 4575 dc3a 3a3e 1c39 3704 b2b8
000001d0: f109 673b 5bd4 16bb 095c 8ebb c3b0 933c
000001e0: ce98 0cbc 086b 133c 8e7a 103b ff7d b1bc
000001f0: b882 be3b 9378 99bc c2e2 86bb 3289 223c
00000200: d633 adbb 8a6a e2b8 bbd7 2db9 b157 9138
00000210: 9184 ab3c 2378 bfbc 7d88 d03b 4634 d33c
00000220: 163f 04bc b880 3f3c 17fc 14bb 6d78 16bd
00000230: abdc 853b c9eb 1cbd f02b 16ba 9084 143b
00000240: 2d91 653b 0803 44b9 70c8 1039 4cf8 a2b8
00000250: 5c1e 813d 9d3a 83bd 70b1 60bb 534e 3bb9
00000260: 83dd 7aba 2e9c cabb 7a4b ba3a 4aec fe39
00000270: 44fe 01b9 06b5 f9ba 70d5 d0b8 9cb5 f039
00000280: c029 6f39 7083 cd3a fd60 5938 0035 d7b6
00000290: 3191 77bb 296f e73b c8c2 a1b8 ea76 0abc
000002a0: 3a1c 673b 79a8 2abc cd38 41b9 4b23 ba3c
000002b0: 5834 28bb a8a5 e23c c64e 133b 2fef cfbb
000002c0: 73ae 77bb 682b d13a fa9e d7b8 62b6 2638
000002d0: b3b3 54bc 6248 7a3c f944 733b 2467 d23b
000002e0: 1a07 14bc ae1d 133b 0ba4 d5ba fd17 acbc
000002f0: 6b91 983b 81f1 cfbc 7b59 82ba 0053 2f3b
00000300: 13e3 f7ba 40a8 b9ba 03f3 93b6 a20d 3e38
00000310: 24f5 393d c637 34bd 472d 403b 50bc 993c
00000320: 03da a03b 57fe e4bb 609a 7fba b587 ddbc
00000330: 57c7 8abb 86a6 e2bc 680f 453b 72a5 f6bb
00000340: 85e2 cf3b 9f78 b1ba a4c9 7839 0f61 9bb8
00000350: d527 913c c58e 93bc 8700 ffbb 8c2e 50bd
00000360: eadf be3c 18e8 fabc 601e 383b d5d5 603d
00000370: f4a4 4fbc 5b53 603d ae11 783b 49e0 26bc
00000380: cc59 f0ba 2c28 583b 8a5e 83b8 0586 7738
00000390: 5c2b 403c 9995 5bbc e431 743b 3043 6cbc
000003a0: 1066 28bb eefd 593b b44d c5ba 2b8f 853c
000003b0: 3295 173a 5f0c 8a3c 5c73 a63a 4635 2cbb
000003c0: 04e5 d33b aba1 54bb 14ec 1e39 a7cd 16b9
000003d0: 7e49 963c f396 5dbc 165c 0dbc c949 0c3c
000003e0: 3d32 91bb 2056 133b 0687 653b 4c40 2fbc
000003f0: b51e 6c3b 2c9f 39bc b16c 64bb a9ee ec3b
-0.0013688791 -0.0011397043 -7.348977e-05 2.2361593e-05 0.016040416 -0.016833 0.0015823508 -0.008146986
0.0004238417 -0.007100571 -0.0005585083 0.007216095 -0.00014038853 0.006587721 -0.00078580447 0.0016914988
0.0017686209 -0.0009443578 6.0909508e-05 -6.5836524e-05 -0.0026228828 0.0054783733 -0.0021161616 0.014812582
0.003185222 -0.0068857274 0.0010687148 -0.028283563 -0.0007094948 -0.03054424 -0.00057442347 0.0038031854
-0.00022484089 0.0005508851 -3.6357833e-05 -1.4846649e-05 0.045242414 -0.05419629 -0.00028112004 -0.11587585
0.015861817 -0.041974828 -0.00018074943 0.22425479 -0.0054727597 0.29024935 -0.000479063 -0.00044563066
-0.0017420899 -0.002245334 -8.905875e-06 -4.2930897e-05 0.2585665 -0.28475952 -0.00058527157 0.02671666
-0.014044877 0.01921943 -0.00014180859 -0.031889983 0.0081069525 -0.03245987 -0.003903067 0.008693841
-0.012509339 0.0013370756 -0.00039479506 0.000102942155 -0.03398379 0.07121399 0.009201322 0.111992635
-0.012868362 0.026068952 -0.004677395 -0.21237557 0.008715682 -0.27384415 -0.003728008 0.008943102
-0.0061359657 -0.0012472041 -0.0001244927 8.723999e-05 -0.024060678 0.030649805 0.0050185784 0.00875257
-0.003330133 0.0045729196 -0.0020314308 -0.009485473 0.001070272 -0.010548994 0.001533228 -0.0036645487
-0.0013304483 -0.0058225244 7.028752e-05 3.0045816e-05 -0.0039968346 0.005185038 0.0028363487 0.017964955
5.1331706e-05 0.0034968075 -0.00089817145 -0.02562147 -0.0017481113 -0.027653027 0.004199295 -0.008284011
0.005443918 0.0016819617 0.000149005 -8.4884865e-05 0.0035253728 -0.0023014757 -0.0043444675 0.018028622
-0.008581353 0.008997686 0.0022045705 -0.021666525 0.0058139227 -0.018734252 -0.004116387 0.009920405
-0.0052857203 -0.00010796364 -0.00016578932 6.9304726e-05 0.020937236 -0.023372715 0.006363927 0.025781762
-0.0080716815 0.011688404 -0.0022733265 -0.03673594 0.0040851436 -0.0383108 -0.0005728593 0.0022662021
0.0035029158 -0.00018693146 0.00013807579 -7.771011e-05 0.06304619 -0.06407664 -0.0034285448 -0.00017862888
-0.0009569751 -0.006183169 0.0014213168 0.00048622704 -0.0001239712 -0.0019051142 -9.957969e-05 0.00045911677
0.00022808369 0.001567943 5.182716e-05 -6.4136693e-06 -0.003777575 0.007062812 -7.713359e-05 -0.008451203
0.0035264627 -0.010416144 -0.00018427074 0.022721907 -0.0025665965 0.027666882 0.0022477373 -0.0063456516
-0.0037793189 0.0015958371 -0.000102816106 3.974734e-05 -0.012982297 0.0152760465 0.0037119968 0.0064209867
-0.009034896 0.002244811 -0.0016299499 -0.021007532 0.004656007 -0.025383713 -0.000994488 0.0026752353
-0.0018912278 -0.0014164522 -4.4092317e-06 4.5312227e-05 0.0453998 -0.043998502 0.0029323862 0.018766552
0.0049088015 -0.0069883275 -0.00097504817 -0.02704225 -0.004235189 -0.027667295 0.0030068997 -0.007527047
0.006344142 -0.0013539976 0.0002372624 -7.4090545e-05 0.017719189 -0.018012414 -0.0077820453 -0.05082564
0.02330013 -0.030628249 0.0028094277 0.054891426 -0.012673605 0.054766994 0.0037852335 -0.01018531
-0.0018337308 0.0032982929 -6.264176e-05 5.9014204e-05 0.011729088 -0.013402366 0.0037261182 -0.014420316
-0.00256956 0.0033262926 -0.0015053065 0.01630362 0.00057824247 0.016851602 0.0012699175 -0.002627687
0.00646651 -0.0032444994 0.00015156 -0.00014381726 0.01834559 -0.013524759 -0.008627912 0.008562514
-0.0044310377 0.0022481754 0.0035023107 -0.010696482 0.0036029045 -0.011329453 -0.0034854824 0.007230599

layers.0.attn.0.gnn_q.bias f4 [16]
00000000: c7a2 09ba e096 d2b7 e440 b9b7 f11e 1cb8
00000010: 454b 703e 42bb 4dbe fb47 afba bb4b 8b3c
00000020: ffa1 20bc b5b3 1e3c 1045 d839 3dc5 63bc
00000030: 8494 d23b 063a 8abc a6a0 6cbb 32d7 023c
-0.0005250391 -2.5104207e-05 -2.2083936e-05 -3.7222115e-05 0.23466213 -0.20090964 -0.0013372892 0.017003885
-0.009804248 0.0096864 0.00041250186 -0.013902006 0.006426396 -0.01687337 -0.0036106496 0.007985877
