checkpoints/cyp1a2_veith_25_train1_neg/Aug30-22:42:43_300.pth (torch, 464262 bytes, 294 tensors)

layers.0.weight f4 [23, 16]
00000000: 094c 123f a3cb 053e 6bc9 b83e 17d6 143e
00000010: c662 ccbe 70ae 863f 15c8 a0be f140 2f3e
00000020: 0e0e 2b3f d983 b6be bbd5 0cbf f5fa 193e
00000030: 609e 093e 086b 813d 7531 a13d 153d 28bf
00000040: 957a 4f3f 2423 193c a977 04be 9250 4f3c
00000050: 9612 243e be4c e2bd f152 0ebf 487a c6bc
00000060: 136a 2fbd 789e 0abf 9268 69bf 20b5 73bc
00000070: c0f4 6f3b 0d97 25be fd8c 81be f0a0 93bf
00000080: cf83 763e 8454 4abc ec09 8cbd 669e dc3c
00000090: c3ba d3bb 03a4 6b3e 64de 28bc cdf7 89bd
000000a0: 92b4 a93d c57a f3bd 9013 033e 0a0a 283e
000000b0: 7723 e7bc e6bc cfbc fdee c43e de65 513e
000000c0: a61c 663e 9aad 3f3d 4948 5dbd 451c a1bc
000000d0: 9781 6d3c 51b4 6f3e f258 0a3d 0cc1 ef3a
000000e0: e413 c33d 5348 ddbd dc95 d73d f1ad e03d
000000f0: 0e1b 8ebc af46 3abd 81d8 e23e b312 583e
00000100: fe6e 623e 1720 8b3c 07fb 30bd ecbe 14bd
00000110: 921a 8cbc 1b58 463e 18cd 043a fef9 6b3b
00000120: 85bf 753d 9636 f3bd 5c86 993d 3e53 ac3d
00000130: e0b5 87bc 8d97 3b3d e2e3 a33e c953 203e
00000140: 69aa 47bc d9a2 1b3d 1c0d f7bc 2a00 a63c
00000150: 60b8 1d3d c3a5 6f3e 8b09 823d 5946 3a3d
00000160: 4ef3 113e 0f2d d93c 9397 6c3d 5e30 fb3c
00000170: f52d 663c e1d9 523d 46e0 533e a81d e33d
00000180: 80cd 833f 128b 4fbe 7200 c9be d838 22be
00000190: 6f82 bb3e df4b 87bf 7912 c0bb 78be 37be
000001a0: 341e 44bf b901 2cbf 0981 3bbd 042e d6bd
000001b0: 7f4a 33be aec8 4ebe 16e5 8e3e 94b2 e33c
000001c0: 1071 1d3f 9acf 82be bf94 18bf 0a0e 71be
000001d0: b30a 1e3f e5a9 dabf 7e4d 193d fde0 94be
000001e0: bada 8cbf 48da debe b877 203e ecc9 6dbe
000001f0: b343 59be 5e21 98be f56a babe edcb 333e
00000200: 0c9f b63f d89e 0fbb 4925 813f 9ef9 e03c
00000210: 5a9d 7dbf 769d 203e f188 b1be 7275 0d3d
00000220: 4a21 ee3d e17f 6ebf 4a7e 0dbf 9a35 d43c
00000230: b6c4 223c 32e5 dabd fedf 393c d43d 2cbf
00000240: 6cdd ed3e a642 0cbc 700c c4bd abe8 703d
00000250: 009a 833d 34b8 c53e 8869 e73d e91b 893d
00000260: ceb3 6f3e 3092 8fbe d83a 4d3e da6f d53c
00000270: c0b8 503c 8988 5b3d 2047 183e 60e5 873e
00000280: 982c 8c3f 253d 88bd 8564 bbbd 30d8 2ebd
00000290: ba20 983d 9eee 7aba 5a96 6b3d bf30 05bd
000002a0: 39b8 00bb 3c03 3fbf 8476 2a3e b31d 2bbd
000002b0: 51f8 3dbd e62e 3abd 0776 b6bd c9a1 713e
000002c0: 2231 64bf 6b58 103d 206f d33e 7ef0 173d
000002d0: f0eb d5be 4e6e 4bbd 8504 1cbe 0e81 083d
000002e0: 040d 06bd 84db 143f 9280 d7be 6b86 443d
000002f0: 7004 373d ee03 533d ec7f 243e 0615 edbe
00000300: d449 983e 6644 933c 9579 4bbe cd1a db3b
00000310: c3b6 803e dc9e f33d ade5 893d d489 283a
00000320: f303 8e3d a4be 2cbe f3d1 813e 60aa 53bd
00000330: ea5f c8ba a518 dd3c b0d6 5abe 6c1b 9e3e
00000340: 707e 30be 51a0 c1bc 8ae9 c53f 2a6c c33a
00000350: c66a c3bf 0207 debe 869f f43d 1fee b2bc
00000360: 899f 88be 0482 f43d 6d13 2e3e 8077 12bc
00000370: fe31 22bc 4012 fbba 38f2 e83c 3768 573e
00000380: 02b0 07bf b467 a73d 2726 d03f ff11 c33d
00000390: 00ae d3bf 5785 973e 1175 73be 025e d83d
000003a0: b4a6 3d3e 024e a73e 67bf d7be a3d2 bc3d
000003b0: 734b dc3d 0e8e a73d 226c 693d c782 06bf
000003c0: e130 20bc dc2e 31be b4d1 b9be f04c 28be
000003d0: 2ef7 ca3e 4d1e b5bf 1309 58bd a6fa 72be
000003e0: 4ee6 64bf 340e afbc 6aaa 33be 93b6 2bbe
000003f0: fe35 10be f859 26be 31f7 5cbe 2a42 89be
0.5714727 0.13065962 0.3609117 0.14534794 -0.39919108 1.0521984 -0.3140265 0.17114617
0.6681832 -0.35647467 -0.55013627 0.15037139 0.13439322 0.06319243 0.07870761 -0.65718204
0.8104642 0.009346757 -0.12936272 0.012653487 0.16022715 -0.11049794 -0.5559531 -0.02422823
-0.04282577 -0.54148054 -0.91175187 -0.0148747265 0.0036614388 -0.16170903 -0.25302878 -1.1533489
0.24073718 -0.012349252 -0.0683783 0.026930999 -0.0064614727 0.23011784 -0.010306928 -0.067367174
0.08286394 -0.11888651 0.12800431 0.1641008 -0.028215153 -0.025358628 0.38463584 0.20449015
0.22471866 0.04679642 -0.054024015 -0.0196668 0.014496229 0.23408629 0.03377623 0.0018291785
0.09525278 -0.108048104 0.1052663 0.10970677 -0.017346885 -0.045477565 0.44305804 0.21100883
0.22112653 0.016983075 -0.04320815 -0.03631489 -0.017102513 0.19369547 0.0005065962 0.0036007161
0.0599971 -0.11875646 0.0749633 0.08414315 -0.016566217 0.045798827 0.32009798 0.15656962
-0.012186625 0.0379971 -0.030157618 0.02026375 0.03850591 0.23403077 0.063494764 0.045477245
0.1425297 0.026510743 0.05776174 0.030662712 0.014049043 0.051477317 0.20691022 0.11089641
1.0297089 -0.20267895 -0.39258152 -0.15841997 0.3662295 -1.0570029 -0.005861577 -0.17943752
-0.76608586 -0.6719013 -0.045777354 -0.104579955 -0.17508887 -0.2019374 0.27909154 0.027795114
0.61500645 -0.25549012 -0.5960197 -0.23540512 0.61735076 -1.7083098 0.037427418 -0.29077902
-1.100425 -0.4352591 0.15670669 -0.23221558 -0.21217231 -0.29712957 -0.36409727 0.1755826
1.4267287 -0.0021914747 1.0089504 0.027462777 -0.99068224 0.15685067 -0.3467479 0.034535833
0.11627443 -0.9316388 -0.55270827 0.025904465 0.009934595 -0.10688247 0.011344908 -0.6728184
0.46457994 -0.008560812 -0.09572685 0.05881564 0.064258575 0.38617098 0.11299425 0.066947766
0.23408434 -0.2804122 0.20041978 0.026054312 0.01273936 0.053597007 0.14870882 0.26542187
1.0951109 -0.066522874 -0.09150032 -0.04268664 0.07428117 -0.00095723 0.057516433 -0.03251719
-0.0019641055 -0.7461431 0.16646773 -0.04177637 -0.04637939 -0.045454882 -0.08909231 0.23596872
-0.8913747 0.035240572 0.4129572 0.037094586 -0.4178157 -0.04966574 -0.15236099 0.0333262
-0.032727256 0.58147454 -0.4209028 0.047979753 0.044681966 0.05151742 0.16064423 -0.46305102
0.29743826 0.01797695 -0.19870599 0.0066865445 0.25139436 0.118955344 0.0673326 0.00064292294
0.06934347 -0.16869599 0.2535549 -0.051676154 -0.0015287374 0.02698929 -0.2137096 0.30880296
-0.17235732 -0.023636015 1.5461895 0.0014909555 -1.526696 -0.43364722 0.11944489 -0.02184206
-0.26684216 0.11938861 0.16999598 -0.008939624 -0.009899614 -0.0019155219 0.028435811 0.21035849
-0.5300294 0.08174077 1.6261643 0.09524917 -1.6537476 0.29593918 -0.23775126 0.105648056
0.18520623 0.32676703 -0.42138216 0.09219863 0.10756578 0.08181392 0.05698789 -0.525433
-0.009777279 -0.17303032 -0.36292803 -0.164356 0.39641708 -1.4149872 -0.05274303 -0.23728427
-0.8941392 -0.021369077 -0.17545477 -0.16768865 -0.14083096 -0.16245258 -0.21578671 -0.26808292

layers.0.bias f4 [16]
00000000: 9800 993e 628d 46bb eef4 9cbe 07a6 40bc
00000010: 19cf acbe 12bf 953e 8d0c 163d d4ca 6c3e
00000020: e9b8 3ebe 5dca 3d3e 76ba adbe 43fd c53e
00000030: 5533 c8be 7e73 033d 8f07 1bbf 77ff 4c3e
0.29883265 -0.0030296673 -0.30655617 -0.011758334 -0.33751753 0.29247338 0.036633063 0.23124248
-0.18625225 0.18534227 -0.3393132 0.38669786 -0.39101663 0.032092564 -0.6055841 0.20019327

layers.1.weight f4 [16, 16]
00000000: d0ac cb3a 0175 c8be e684 1a3e 781c 863e
00000010: e786 46bd 114b 9a3e 379f 87be a523 94be
00000020: c808 ac3c 1559 d63d f192 4a3f 8aa2 65bf
00000030: 8e1e 86bd 8314 e2bc 08c3 18bb d89d 9a3d
00000040: 36e3 083f 631c 0c3e ae76 d63d 6ba7 42be
00000050: 505d f13d 7df9 59bf 2573 e0be 4d35 cb3d
00000060: 0d30 df3e 02a8 fb3e 1381 25be 4c42 f7be
00000070: c99c 11be 135b 2c3f 9b4e 463f fd07 80be
00000080: cf66 9bbd 91d6 c33e 1f47 4cbd 8834 303e
00000090: fb48 763c 072b 19bf e251 25bf 136c 93bd
000000a0: 2aa3 e03c a00d 803d 0e06 52be 69b4 00be
000000b0: a0a5 823e e996 86bd e158 6b3d 8a7d db3d
000000c0: e7f4 3f3f c776 703d 7824 963e 36a7 c4be
000000d0: 6ab2 ed3d 9715 46bf bdac 0abf 7e2d 833e
000000e0: 3ac7 da3e 9305 133f 9c81 8cbe f204 16bf
000000f0: 14f4 26bc 79ab 5e3f a6cb 423f 0059 97be
00000100: e6af c43d 4e79 cc3e c9c5 d53c 0009 933e
00000110: 4d44 d43d 3dd4 04be 64f8 c33c 9fcb 92bd
00000120: b600 63be 1e7d 483e eb44 01be c6a9 0a3f
00000130: 815b 3c3e 7a2e a23d 61d2 bbbe 1d8d 943e
00000140: cbc0 a8be d0a9 c9be 54bd 6fbe 16ca 53bf
00000150: 9126 b8be aede a63d 1320 13bc c2da 163e
00000160: 9ef3 9c3d 1dda 6ebe 9e2d 9fbe 7530 a4be
00000170: 4dad b1bc 3979 e7be 3b96 da3e 62c5 07bf
00000180: 5081 31be 75f2 3bbe 1aee 97be 4b31 05bf
00000190: 2b8c ce3e b435 993e 113b 4b3f 2141 8f3e
000001a0: df10 b2bc 55c6 a7bd d793 2abf 2d00 583f
000001b0: bc92 b6bd ed92 0fbe 28d8 cabe d5df b23d
000001c0: fd60 2f3f d8ae 98bd 5cd2 7c3e a1ff 48bd
000001d0: 263c 053e e45d 8abf 62c1 f0be 9584 073e
000001e0: f7dd 173e e19d 033f 71a3 8ebe 9140 18be
000001f0: ce43 213e 2cca 2c3f 221b 1b3f 0b8a 59be
00000200: 1ffa f4be 7d25 943e 5907 e7be e012 01bf
00000210: 6a42 d5bd 1c48 8dbf d7e0 20bf 10f0 f43d
00000220: c16b 133f 54cb 88be a05e 57bf e7f6 afbe
00000230: ca0f a03e f3ef bebe 13b8 d83e ba87 76bd
00000240: a26c 2fbe 4cb7 02bf ac2d dbbc f787 71bf
00000250: a3f8 6dbd 4400 9abe 3fdd 953f 02d9 483e
00000260: 3774 1f3e 8f46 2bbd cae1 27be 6c4e f73e
00000270: aa83 aabd bf92 69be b436 0f3f 549c 1cbd
00000280: 246b 7f3d 88ce 733e 210b b1bc 5533 31bf
00000290: 63fe ce3d b0cf 633e f62c 0a3f 8aba 6a3e
000002a0: 3e05 ccbd ca44 5cbd d5cc 28bf 5de8 423f
000002b0: 6200 0cbc 9780 3e3e b12a 69be aaaf 893e
000002c0: 0331 3d3f 557f 093e 4741 023f 0207 5dbd
000002d0: 29b2 b03e 6ad6 63bf ac79 44bf 2bc7 af3e
000002e0: f7f9 013e 94ee b83e 811a 42bf b6c3 81bb
000002f0: 06b8 4d3e ae4d 3c3f 7048 c83d 6418 913d
00000300: 8be9 533f 3a67 003e 4e80 113f be6e 71bf
00000310: 46be 1abe dda0 adbe dfba c0be c085 0abc
00000320: 2bee a0bd e6cc 423e e489 69be ddf7 86bf
00000330: 7c16 1abf b9eb 7a3f d564 1e3f 7205 9fbe
00000340: 2d4d 9e3e 93c1 2a3d d69c 0cbe cf8b 47bf
00000350: 2dc4 a43e b389 18bf 7a14 8a3e f148 e63d
00000360: 1e0b 2e3e e7fd 903e 8a83 33bf f841 843e
00000370: 36d4 5cbd 88e4 be3e 680a 123f a22c b3bd
00000380: 945c 2bbd ab76 073e 04fb f7bd 7ec0 02bf
00000390: ab5b 3dbe a16c 043e 48e5 93bd 4b4b df3b
000003a0: b086 073d 5fc0 61bd 41be cabe 4f1b d7bd
000003b0: c84d 02be b2a9 f7bc 4b89 72bd 33a7 5ebd
000003c0: 71e1 9c3e b16f 7cbd 5686 8e3e 3cd3 2abf
000003d0: 1cae 0dbe c2cc f23e b4ac 3c3f bdf0 153e
000003e0: d1ed c7bd 09c8 a4bb c10d d7be 0619 0c3f
000003f0: d99a d9bd ca00 df3d b942 a1be 6aa9 15be
0.0015539173 -0.39151767 0.15089759 0.26193595 -0.048468497 0.30135396 -0.2648866 -0.28933445
0.021000281 0.1046621 0.79130465 -0.8970114 -0.065487966 -0.027597671 -0.0023309607 0.075496376
0.53471696 0.13682704 0.10471855 -0.19009177 0.11785376 -0.85146314 -0.43837848 0.09922276
0.43591347 0.49151617 -0.16162519 -0.48292768 -0.14219965 0.6732647 0.7746369 -0.25006095
-0.075879686 0.3824964 -0.049872514 0.17207539 0.015032048 -0.5983128 -0.6457807 -0.07198348
0.027421553 0.06252599 -0.20510122 -0.12568821 0.25516987 -0.065717526 0.05745781 0.10717304
0.74983066 0.058707025 0.29324698 -0.38408822 0.116062954 -0.77376693 -0.5416983 0.25620645
0.42730123 0.5743038 -0.27442634 -0.58601296 -0.010190029 0.86980397 0.7609199 -0.2956009
0.096038625 0.39936298 0.026095288 0.28717804 0.1036459 -0.12971587 0.023922153 -0.07167744
-0.2216824 0.19578978 -0.12623946 0.54165304 0.18394281 0.07919021 -0.36683944 0.2901391
-0.3295959 -0.3938737 -0.23412067 -0.82730234 -0.35966924 0.081479415 -0.008979815 0.14731887
0.07663654 -0.23325391 -0.3108949 -0.3206822 -0.021689082 -0.45209673 0.42692742 -0.5303556
-0.17334485 -0.18354209 -0.29673845 -0.5202834 0.40341315 0.29923785 0.79387003 0.27979377
-0.02173656 -0.08192126 -0.66631836 0.8437527 -0.08914706 -0.14020891 -0.3961804 0.08734099
0.6850737 -0.07455224 0.2468962 -0.04907191 0.13011226 -1.0809903 -0.4702254 0.1323417
0.14830767 0.5141278 -0.2785907 -0.1486838 0.15748522 0.6749599 0.60588276 -0.21244065
-0.47847077 0.2893485 -0.45122793 -0.50419426 -0.10413058 -1.1037631 -0.6284308 0.11959851
0.57586294 -0.26717627 -0.8412876 -0.3436806 0.31262046 -0.37292442 0.42327937 -0.060188033
-0.17131284 -0.5106094 -0.026755176 -0.9434809 -0.058098447 -0.30078328 1.1708144 0.19614032
0.15571676 -0.041815337 -0.16394725 0.4830202 -0.08325894 -0.22809885 0.55942845 -0.038235024
0.062358037 0.23809254 -0.021611752 -0.6921895 0.10107114 0.22247195 0.53974855 0.22922722
-0.09961937 -0.05377654 -0.6593755 0.7613581 -0.008545013 0.1860374 -0.22770192 0.26891834
0.7390291 0.1342748 0.50880855 -0.05396176 0.34510925 -0.88999045 -0.76748157 0.3433164
0.1269301 0.3611952 -0.7582169 -0.003960098 0.2008973 0.7355603 0.09779441 0.0708473
0.82778233 0.12539378 0.568364 -0.94309604 -0.15111646 -0.3391179 -0.3764257 -0.00845474
-0.07857927 0.19023475 -0.22806507 -1.0544392 -0.6019056 0.98015934 0.6187261 -0.31058842
0.30918255 0.041688513 -0.13731703 -0.77947706 0.3218092 -0.5958511 0.26968747 0.11244381
0.16996428 0.28318712 -0.7012259 0.2583158 -0.053913318 0.3728373 0.5704713 -0.087487474
-0.041836336 0.13228862 -0.12108424 -0.5107497 -0.18492 0.12932064 -0.07221466 0.0068143955
0.033087432 -0.0551151 -0.39598277 -0.105032556 -0.12724984 -0.030232284 -0.059212964 -0.054358672
0.30640748 -0.061629955 0.27836865 -0.6672857 -0.13835949 0.47421843 0.73701024 0.14642616
-0.09762157 -0.005028729 -0.4200268 0.5472568 -0.10625238 0.108888224 -0.31496218 -0.14615408

layers.1.bias f4 [16]
00000000: faa4 e7bc a988 833e 112f 41be 37b5 e0bd
00000010: f184 adbc a73f 8e3c a1fd d63b 71b6 a2be
00000020: c96f 8d3d 24b3 93bd c393 afbd 14c1 413c
00000030: 928b fdbd ba6c a7be ea17 d5bd bf8f ae3e
-0.02827691 0.256902 -0.1886561 -0.10972064 -0.021181555 0.017364336 0.0065609966 -0.31779817
0.06906087 -0.07211903 -0.08573105 0.011825819 -0.123801365 -0.3270014 -0.10404952 0.34094045

final.linears.0.weight f4 [110, 55]
00000000: 6857 a7be 2380 29be f4b4 22bd 9b37 4cbd
00000010: 9850 b7bd 9664 b13d 1bb9 a0be c7dd 093d
00000020: d779 d23d 2a4d 453d e8ef d33d 64d7 353e
00000030: 5102 8dbe f311 1abe c84c 2dbd 2c64 a6be
00000040: 1dda e2bb 0e2f aebe ec81 513d 3405 4e3f
00000050: c66c f53d 0c5a d6bd 7340 d43e 2795 113b
00000060: 9b56 0a3d 9b31 88bd 68c2 72bc 7d42 e8bc
00000070: 1ce2 313d 1158 e7bb c6a2 e1bc ac68 80bd
00000080: c2c3 873d e805 7ebd 78e8 20bc 19eb 0f3d
00000090: 81aa 593c 9759 2fbc e495 2d3d a07b 333d
000000a0: f3a2 50bd a4b2 babc 062c 9a3c 363d a8bc
000000b0: 482d 403d 9959 4f3c 0d7f b8bc 19f0 18bd
000000c0: bf06 863c 6b74 66bc 62df 1bbd 3baa 823b
000000d0: 6377 00be 8a55 77bb e4d9 47bd 6ed7 fdbe
000000e0: 2b51 0d3f e4ec babd 3f0f 6bbe 6081 1dbe
000000f0: 01f4 a3be 8e96 a93f 9087 92bf b258 40bf
00000100: 3f4e 9abe 8306 91be 9093 6bbc 74e8 823f
00000110: 05a9 003e 7e70 403f 1e7b 89be a4bc 3b3f
00000120: 2a64 4e3e 547d ab3f 60b6 edbd d906 2e3f
00000130: 8aca 1a3f d218 dbbe a078 513d f4d9 11bd
00000140: 49e3 483c 7dca 6dbc 90ec 7b3c aac8 6a3c
00000150: f766 9cbd af04 c8ba 2aed 91bc 516e b1bd
00000160: df33 5f3d cc9a 0bbe cc28 c03d 5985 37bd
00000170: a66a a93d e739 c8bd 0e2b 053c e0ad 55bd
00000180: 043d 27bd fb9c eebc b8e2 713d 1e01 61bd
00000190: 26ec 383d ebaf d73c 0d07 3d3d a17a 453c
000001a0: 6a4e a5bd 5545 073c 48a8 2bbd d61f 1b3c
000001b0: e249 febb 9fac 153d 7d76 093f 0c01 1b3f
000001c0: 410f a0be 3b1e 85be e24b a3be 8378 673d
000001d0: 3b76 a83d 4636 82bd 5659 873e 489a 283f
000001e0: 4e20 c3be cf32 3bbe f7e9 363f 1dcc 58bf
000001f0: 68d4 44bd 86a2 503f ff6d 4abf 751f a93d
00000200: 48c0 61bf fa9a 743e 3b73 b33d 23ac 8f3e
00000210: a42a 0a3e fd16 d93c f0cd bf3b c24b 3a3c
00000220: 0027 8b3c 6f79 063d 8ab4 28bc 4b66 c93b
00000230: d74a a5bc a727 173d f200 e2bb ffb1 393c
00000240: 0958 2abd 81d9 523d e0c7 c23c 8ede fabc
00000250: c0d5 abbb 506f 17bd 3393 c03c 693f 40bd
00000260: acec 5e3b 8e56 f2bc 682b d73c 4552 923b
00000270: 5e39 efbc 3fb1 bc3c 3484 cabc 49c2 f5bc
00000280: 7468 6c3b 42f2 7dbd 1424 2ebc 81fa 9abc
00000290: 1c5b fbbb 0374 2e3f 1cbf 46be 2248 cb3d
000002a0: cabd cb3d b8b8 523d 9198 993c 8f23 47bf
000002b0: a715 29bf 06eb c1bd d1a6 4cbd 2074 083f
000002c0: c89a 70be e0d6 4b3e 0b95 65bf 803b 273f
000002d0: 50de fdbd 1100 a3bd 15d5 3cbe 5e19 3b3e
000002e0: a645 e8bb e27c 08bd 6caa 69be e078 82be
000002f0: 9ea6 e5bb 8d5a 263d 7aab c43d f01c 4a3d
00000300: aa12 613d d5f2 f13c a6c2 46bd 0d67 143d
00000310: f30e cf3d 6151 e13c 3c6d 88bc fbcd 8ebd
00000320: 06d9 80bb 39cc 2a3c 501a bb3c 25a0 88bd
00000330: da6c 87bd e10e c6bc 5add 99bc 7434 2d3d
00000340: d43c 62bd 2c8f 03bd 2219 0bbd bffa 983c
00000350: 635e debd 67bd 03bd 2769 a9bc ab71 633d
00000360: d1e3 fcbc 0767 a4bd f14d 00be 4e40 ddbd
00000370: 7f4b 08bf 1907 6b3e c075 1f3c b620 44bd
00000380: 444a ffbc 52ae c73e e0b9 4abd 68b4 293e
00000390: 5699 78be d764 c23e c50e eabd b27a c13e
000003a0: c9b6 393f 466c 313f 88dc 2e3f 33e2 223f
000003b0: 7cbb 7abe 7e34 29bf 7ec9 033e 3298 5c3e
000003c0: ddda 62be aaa5 613f a0bd 113e d360 0f3d
000003d0: bde6 053d c12f ecbb 3d94 82bc 560f 8d3b
000003e0: 79a8 403d 16c7 63bc 171a d13c 12fd 70bd
000003f0: b7e7 5c3d 101a 9fbc 1cf9 5ebc 187e 273d
-0.32683873 -0.16552787 -0.03972335 -0.049857717 -0.08950919 0.08661763 -0.31391224 0.03365877
0.10277145 0.048169293 0.10348493 0.17757946 -0.2754083 -0.1504591 -0.042309552 -0.324983
-0.006922974 -0.34020275 0.051149294 0.8047669 0.119836375 -0.10466394 0.4145542 0.0022214146
0.033774 -0.066500865 -0.014816858 -0.028352017 0.043428525 -0.007060059 -0.027543437 -0.062699646
0.06629135 -0.06201735 -0.00982105 0.035136316 0.01328528 -0.010702512 0.042379275 0.04381907
-0.05093665 -0.02279026 0.01881982 -0.020537 0.046918184 0.012655639 -0.02252152 -0.03733835
0.016360639 -0.014065842 -0.03805483 0.003987578 -0.12545542 -0.0037740194 -0.04879178 -0.49578422
0.5520198 -0.091272146 -0.22955035 -0.15381384 -0.32022098 1.3249071 -1.144762 -0.7513534
-0.30137822 -0.2832528 -0.014378443 1.0227189 0.12564476 0.7517165 -0.26851743 0.7333472
0.20155397 1.3397622 -0.11607051 0.679792 0.604653 -0.42792374 0.051140428 -0.035608247
0.01226122 -0.014513609 0.015376225 0.014330069 -0.076368265 -0.0015260185 -0.017813284 -0.08663619
0.054492828 -0.13633269 0.093827814 -0.044804905 0.08272295 -0.09776669 0.008127941 -0.052167773
-0.040829673 -0.029127588 0.059054106 -0.054932706 0.045147084 0.026329001 0.046149302 0.012053163
-0.08071597 0.008256276 -0.041908532 0.0094680395 -0.0077602724 0.036541577 0.53696424 0.6054847
-0.31261638 -0.25999627 -0.31893831 0.056511413 0.08225676 -0.06358008 0.26435345 0.65860415
-0.38110584 -0.182811 0.7145075 -0.8468645 -0.04805413 0.8149799 -0.7907409 0.08257953
-0.8818402 0.23887244 0.08762213 0.28061017 0.13492829 0.02650022 0.005853407 0.011370601
0.01698637 0.03283065 -0.01029695 0.0061462275 -0.020177288 0.03690305 -0.0068970853 0.0113339415
-0.041587863 0.05147696 0.023776948 -0.0306237 -0.005243987 -0.03697139 0.02350769 -0.046935473
0.003401558 -0.029582288 0.026265815 0.0044653737 -0.02920216 0.023033736 -0.024721242 -0.029999869
0.0036073 -0.061998613 -0.010628719 -0.018918278 -0.007670773 0.6814577 -0.1940884 0.099258676
0.09948309 0.051445693 0.018749507 -0.77788633 -0.66048664 -0.09468655 -0.049963776 0.5330219
-0.23496544 0.19906187 -0.89680547 0.65325165 -0.12395918 -0.07958997 -0.1844066 0.18271396
-0.007088381 -0.033322223 -0.22818917 -0.25482845 -0.0070083877 0.0406137 0.09603019 0.049344003
0.05494944 0.029534737 -0.048525475 0.03623109 0.10110273 0.027504625 -0.01665365 -0.069728814
-0.003932121 0.010424667 0.022839695 -0.0667117 -0.06612559 -0.024177017 -0.018782306 0.04228635
-0.05523379 -0.03211896 -0.033959515 0.018674253 -0.108578466 -0.03216305 -0.020680023 0.055528324
-0.03087035 -0.080274634 -0.12529732 -0.10803281 -0.532402 0.22951926 0.009732664 -0.047882758
-0.031163342 0.39000183 -0.04949367 0.16572726 -0.24277243 0.3796756 -0.11428598 0.37788922
0.72544533 0.6930584 0.68305254 0.636264 -0.24485582 -0.6609572 0.12869832 0.21542433
-0.22153802 0.8814341 0.14232492 0.03500445 0.032690752 -0.007207841 -0.015939826 0.0043048067
0.047035668 -0.013902446 0.025525136 -0.058835097 0.053931918 -0.019421607 -0.013609197 0.040891737

final.linears.0.bias f4 [110]
00000000: c4e8 c9bd a73f b03d cc62 9e3e 444d b33b
00000010: 0288 dfbd 06e2 ff3d 6e16 8e3c 47be 853e
00000020: 1afa d73c 1657 ae3d f150 e7bd 9dd0 82bd
00000030: 983e 6db8 c9d5 333e fa0b e2bc ffc5 79bb
00000040: d3fe 8bbe 3393 aa3d 7ee2 26bc d456 93bc
00000050: 315c 1b3e 8ceb 683e 79d1 c4bd 243a d2be
00000060: 4f90 e2bd edbd 5dbc 75ef fb3c 4aca 00be
00000070: a91c 873e f5aa 143e 21fe a73e ff2f 52bd
00000080: 479b 00be 2ca8 9c3e 2952 9dbe 8a42 2c3e
00000090: 46ad 313d eb0e cdbd 102e 35be 8971 5e3d
000000a0: 83dc d33e cac5 c83e 2c34 12bf 563c 2b3e
000000b0: cee0 d93d 156b d0be 2808 ca3c d980 03be
000000c0: 692b aabe 712a 16bd b036 863e 98e6 ec3e
000000d0: 86d5 883e 7ef5 b6bd 554f a23e 12b3 523e
000000e0: dbce b83c 0f4c dc3e c8fe 12bf 285f 523e
000000f0: b550 853e 156d 093e c935 a03d 9aff 42be
00000100: 3007 293d e7eb 4ebe ef9d 493d c6a4 2f3e
00000110: 1bc3 1a3e 311f ed3e 75d9 013e 8156 00bf
00000120: 5b95 813e 2fcf 493e 0b2e ffbd 75ab 6c3e
00000130: b9b3 e2bd 31ba 90be 4e6c c03e fd66 debd
00000140: a255 4fbe 1482 a13e 87ad e8bc 8366 1f3c
00000150: 740f a4bc 02c5 023e 009c 623e 0b54 b73d
00000160: 48af a93e dcad 6c3e 174c 47be 43b6 2c3d
00000170: 9a27 2c3e 57a8 f9bd 5e20 18bc f7c5 5ebe
00000180: 00eb 6e3c c174 debc 3f02 8dbd 1af8 b4be
00000190: c1f9 5c3d ee37 f73d cbe2 e03d b0b8 8b3e
000001a0: c4fc b93e 7d61 8d3e 7720 c3be 4815 2c3e
000001b0: d7cd f33c 954a 80bd
-0.0985885 0.08605891 0.3093475 0.0054718573 -0.10914613 0.124942824 0.01734468 0.26121733
0.026364375 0.08512704 -0.11294735 -0.06387446 -5.65635e-05 0.17562021 -0.027593601 -0.00381124
-0.27342853 0.08328857 -0.010185836 -0.017985739 0.15171887 0.22746104 -0.09610266 -0.41059983
-0.11062681 -0.013534051 0.03075383 -0.12577167 0.26389053 0.1451834 0.32811072 -0.051315304
-0.12559234 0.30597055 -0.30726746 0.16822258 0.043378137 -0.10012611 -0.17693353 0.054307494
0.41379175 0.392134 -0.5711086 0.16722235 0.10638581 -0.40706697 0.024662092 -0.1284212
-0.33236244 -0.03666157 0.26213598 0.4626968 0.26725405 -0.08933543 0.3170115 0.20576122
0.022559574 0.43026778 -0.57420015 0.20544112 0.26038137 0.13420518 0.07822759 -0.19042817
0.04126662 -0.20207177 0.049222883 0.171527 0.1511349 0.4631286 0.1268061 -0.50131994
0.25309262 0.1970794 -0.12459954 0.2311228 -0.110694356 -0.28267053 0.3758263 -0.10859487
-0.2024751 0.31544554 -0.028403057 0.009729031 -0.0200269 0.12770465 0.22129822 0.08951577
0.3314154 0.23113197 -0.1946262 0.042166006 0.16811982 -0.121903114 -0.009285061 -0.21755205
0.014582396 -0.027155282 -0.06885194 -0.35345536 0.05394912 0.120712146 0.10980757 0.27289343
0.36325657 0.2761344 -0.38110706 0.16804993 0.029761238 -0.062642254

final.linears.1.weight f4 [110, 110]
00000000: 014d 063e 6452 a0bd 1b4c 0a3c 6c22 7bbd
00000010: 5312 8d3d 9319 313e 672f 37bf 11c3 92bd
00000020: 7932 3abd 1c80 1dbd bf5f ebbd bbe1 64bd
00000030: d055 803c c2f0 82bd 9aae f43b c6ff 60bb
00000040: df07 5abd c4ab 8cbd 94b6 72bd 4e4f 6bbc
00000050: f169 82bd 8191 1cbd e8a5 a13d f120 253d
00000060: b660 a0bd 8a69 55bd 25ee c6bd 5870 ebbb
00000070: 9948 3a3c d6b0 20bd c0d6 86bd 2065 bbbd
00000080: 7b1e afbc 9ed8 a0bd ae00 aa3d 7c9d 2cbd
00000090: b128 09bd fc9f 07be db75 f73d 8560 76bd
000000a0: ce84 acbd 05fc 9cbd afcd d03d 7829 9fbd
000000b0: f91a a6bb aeca 38bd 61ad 813c 361b 35bd
000000c0: f3c2 903e 87b6 e1bd 0222 dfbd e5b3 80bd
000000d0: fa7c 1bbe 425c 54be 33b0 9fbd 9f37 cebd
000000e0: 28e6 e6bd 0fbc 31bc 59f8 a43d 46e2 273d
000000f0: e564 07bd edfc 56bd 1166 b7bd 4462 d33c
00000100: a017 6dbd 0f18 5d3e 4a96 64bd 215d 32be
00000110: 6d09 13bd be41 28be eb45 6fbd e926 d83d
00000120: 4093 cfbd 6c46 d0bd 82e6 11be db29 fdbd
00000130: 2f84 49bd 153d bd3d 09cf 343e c46b a53c
00000140: 3598 50bd 8914 0cbc e288 b3bc e6eb b2bd
00000150: 9a57 2bbe df01 e6bd 39b7 debd a966 abbd
00000160: 387e 8dbd 2322 153e 7984 a73e 221b 343d
00000170: 336a 63bd 10a9 2e3e effc 6d3d cf2e 72bd
00000180: 424f b4bd 43b4 f5bd a981 48bd 8348 7f3d
00000190: 0b37 d9bd d702 67bd 485b 8fbd 3bbb 91bd
000001a0: 838f 76bd 5492 2d3b 03f1 2abe 0db8 b63c
000001b0: 0292 a53d 530d 113c 50bf af3d ea6a db3d
000001c0: b758 ec3d bc18 e63d 87a1 af3a ef46 313e
000001d0: 03cd a3bc bb18 d03d 6317 ce3d 0e36 723d
000001e0: 6718 6d3d 38f1 3db9 b033 cc3d 6a4e e03d
000001f0: 0ab2 11bd ee7c 0bba e4db e83d c7bc 283e
00000200: d885 96bc de43 643d ddf2 ca3d 3253 c43d
00000210: a587 2fba d318 f33e 7690 8a3e 5db9 ed3d
00000220: 4db7 de3d 386e 73bb ca78 3d3d 7d9b 02bd
00000230: ea8b e73c b636 793d 7807 dd3a 6c46 4e3e
00000240: d556 003e 1a7f 053e aa1f e83c c534 69be
00000250: 92b2 313b f28c d33d 11e2 f43d 748e 7e3e
00000260: 3cf5 15be c325 323d 4f35 6e3e 7e67 f73e
00000270: 95ae 523d 1fff f33c de15 11bd 5a48 34bd
00000280: 4e1c a73c 4c13 d23d 94ff c13d b169 29bd
00000290: 1f29 ba3e 2f15 18bc 8b0e 6a3d 9c2b b43c
000002a0: 8749 0e3e 5cd9 fa3d 08e4 c73d 4264 cd3d
000002b0: 4661 b23c ecaa b43c 26e3 f93d 1256 ad3b
000002c0: c13e 3c3d 392a 1fbe 8089 d03d 1e4b 283e
000002d0: 79b1 913d 3c56 9abe d354 d63d c618 6f3e
000002e0: 9baa f63d 5cfb 4c3c dcb8 be3d 704c 3ebd
000002f0: 3900 6f3c 93f1 a23c e1fc cc3c 836e 213d
00000300: 3555 89bb dccc e23d 9c25 dbbc 518b f43d
00000310: b301 e03d e5c3 3f3e 50a1 9a3d 2a8d e23d
00000320: e931 ed3c be72 59bc faae 113e 56f9 d9bd
00000330: 21d5 1abe b0ac 3c3e 10ad de3c 4311 ab3d
00000340: 37ef af3d 84df 883e 0349 da3d e10d b03d
00000350: 6c33 273e 8ca5 af3d 37a7 51bc 6cc3 0c3e
00000360: 3d8f 03be 999a 9a3d c8d8 763d 4b99 103d
00000370: 3765 fdbd 8b97 a6be 58a8 1fbe c83d 53bd
00000380: 480d cabd 03ae cfbe 2339 d3be 0632 97be
00000390: 6fb4 8ebe ef47 debe efac 84be 2c61 aebe
000003a0: 4d3a 94be daaa febe 34b8 41be f42f 95be
000003b0: 41ab adbe 3590 c6be 0fb3 18be 55ae 0abf
000003c0: eedc 9cbe febd aabe bd43 d3bd 28b3 4e3d
000003d0: b29c 4dbe d97a 2ebe aa14 90be 1a7b 84be
000003e0: 489c efbe 450e c6be 72c4 dabd 5bcc 3abe
000003f0: 0a84 bebd dfc3 10be 64b6 8abe aa93 a5bd
0.13115312 -0.07828215 0.0084409965 -0.061312124 0.06888261 0.17294912 -0.71556705 -0.07166112
-0.04545829 -0.038452253 -0.114928715 -0.055879336 0.015665919 -0.06393577 0.007467103 -0.003433214
-0.053230163 -0.06868699 -0.05925615 -0.014362169 -0.06367863 -0.0382247 0.07892972 0.04031462
-0.07830946 -0.052102603 -0.09713391 -0.0071850233 0.011369848 -0.039231144 -0.06583929 -0.091501474
-0.021376839 -0.078538164 0.08300911 -0.042142376 -0.033486072 -0.13244623 0.12083026 -0.060150642
-0.08423768 -0.076652564 0.10195481 -0.077715814 -0.0050691334 -0.045115165 0.015829744 -0.044215403
0.28273734 -0.110211425 -0.10895158 -0.06284312 -0.15184394 -0.20738319 -0.07797279 -0.10069203
-0.112743676 -0.010848059 0.08055181 0.040987276 -0.033055205 -0.052487303 -0.089550145 0.025803693
-0.05788386 0.21591209 -0.05580739 -0.17418338 -0.03589766 -0.16431329 -0.05841629 0.105542965
-0.101355076 -0.10169682 -0.14248088 -0.12361499 -0.049198326 0.09240166 0.17657103 0.020192988
-0.050926406 -0.008549818 -0.021915857 -0.087364 -0.16732636 -0.11230826 -0.10874791 -0.0836919
-0.0690884 0.14563803 0.32718256 0.04397119 -0.0555212 0.1705668 0.058102544 -0.05912667
-0.0880418 -0.11997273 -0.04895178 0.062325012 -0.10606202 -0.056399193 -0.069998324 -0.071157895
-0.060195457 0.0026484923 -0.16693501 0.02230456 0.080844894 0.008853274 0.08581412 0.107137516
0.115403585 0.112351865 0.0013399579 0.17312215 -0.019995218 0.10160967 0.100630544 0.05913358
0.0578846 -0.00018114306 0.09970796 0.10952456 -0.035570182 -0.0005321045 0.11370066 0.16478263
-0.018374369 0.055728786 0.09909604 0.09586181 -0.0006695933 0.47479877 0.2706334 0.11607621
0.108748056 -0.0037144553 0.04625777 -0.031886566 0.028264958 0.060843192 0.0016863188 0.20144051
0.12533124 0.13036767 0.028335411 -0.22774036 0.0027114493 0.103296176 0.11957181 0.24859029
-0.1464433 0.043493044 0.23262523 0.48321146 0.051436026 0.029784737 -0.035421245 -0.044014312
0.020399239 0.10257587 0.09472576 -0.04136056 0.36359498 -0.009282394 0.057142776 0.02199345
0.13895236 0.12248489 0.097602904 0.10028888 0.0217749 0.022054158 0.12201528 0.0052898014
0.045958284 -0.1554345 0.10182476 0.16434905 0.07113928 -0.30143917 0.10465398 0.23349294
0.12044259 0.012511101 0.09312603 -0.046459615 0.014587455 0.019890582 0.025022926 0.039412033
-0.0041910657 0.1107423 -0.026751332 0.11940635 0.10937824 0.18727072 0.07550299 0.11062081
0.028954463 -0.013271986 0.14226905 -0.1064326 -0.15120365 0.1842525 0.027182132 0.08352902
0.085905485 0.2673303 0.10658457 0.08596397 0.1632821 0.085764974 -0.012796215 0.13746423
-0.1284761 0.075490184 0.060265332 0.03530244 -0.12372821 -0.32537493 -0.15591562 -0.05157259
-0.098658144 -0.40562448 -0.4125453 -0.29530352 -0.27872035 -0.43414256 -0.25913188 -0.3405851
-0.2895073 -0.49739724 -0.18917924 -0.29138148 -0.3391972 -0.38781896 -0.14912055 -0.5417226
-0.30637306 -0.33348078 -0.103156544 0.050463825 -0.20079306 -0.1703905 -0.28140765 -0.2587517
-0.4679892 -0.38682762 -0.10682 -0.18242018 -0.09302528 -0.14137219 -0.27092278 -0.08084805

final.linears.1.bias f4 [110]
00000000: 9e0f 98bd 50be e43d de35 8ebe abd5 3bbb
00000010: 5f15 11be 5739 1b3e a80b b2be 4722 80be
00000020: 3222 10be f6a4 8bbe 7c09 8e3d fe00 51be
00000030: 598d 8fbe 35e0 22bd 4968 4fbe f373 aabe
00000040: 1dee d7bd 3cb7 083e 669c 97bd 01e2 903d
00000050: fffe 1d3d 0f85 5cbd 4d73 8b3d 4f92 13be
00000060: bbc2 f7be 13a2 8dbe 6921 6abe 7a9d 22be
00000070: a6d2 dabd d4b9 9cbe 38ae f3be 899e 69bd
00000080: 8e0d 48bd 49ca 9abe 5b3a 63be 3c47 14be
00000090: f760 9cbe fc64 32bf 57ea 62be 537d 01be
000000a0: a17e 77be 7b3e ddbd 4553 39be 5f1f 043e
000000b0: 1307 fbbd 5f48 e5bd badd 7cbe d87a abbd
000000c0: eaac 98be 2549 74be 57ee d1bd 4d5b 8abe
000000d0: 1783 74be 21c1 46be 5b68 68be e9bc 34be
000000e0: dd8d 99be 1f8e 0ebe da29 81be 8b72 483d
000000f0: 254f f7bc 6b38 94be d531 5cbd a3c3 8c3c
00000100: 89d6 8dbe 69cd 8cbe 810d c7bd 6e9f 943d
00000110: 5cf5 67bd 0aa7 08be 54fc 17be f524 a13d
00000120: 2855 91be bd00 4abe 959a 55be 51f3 013e
00000130: a9ff 82be 8d9f 20bd 2387 fdbd 34a1 87be
00000140: a331 12bf 43b0 67be 4318 e4be 14a9 33bd
00000150: 9f9e aa3d f919 f5bd 048b bebe 954c b0be
00000160: a066 a1be 2c94 b1bd 3439 c23d b3bb 28be
00000170: baa2 b2be 9fbb 5fbd 70d4 e3bd c4d7 40be
00000180: 50bb c9bd fbfc 1b3e 9a21 88be 29a6 8ebd
00000190: 0f32 91be ab3b 00be 8b47 59be de46 08be
000001a0: dee5 4b3e 7961 2ebe 58c8 7dbe f97f 92bd
000001b0: 01c2 84be 5a28 afbe
-0.07424854 0.11169112 -0.27775472 -0.0028661292 -0.14168309 0.15158592 -0.34774518 -0.25026152
-0.14075544 -0.27274293 0.06935403 -0.20410535 -0.28037527 -0.0397646 -0.20254625 -0.33291587
-0.105434634 0.13351148 -0.074028775 0.07074357 0.03857326 -0.053837832 0.06809101 -0.14411281
-0.48390755 -0.27662715 -0.22864307 -0.15880385 -0.10684709 -0.30610526 -0.47593856 -0.057035957
-0.04884105 -0.30232456 -0.2219023 -0.14480299 -0.30542728 -0.6968534 -0.22159706 -0.12645464
-0.24169399 -0.10802933 -0.18098171 0.12902592 -0.12257209 -0.11195444 -0.24693957 -0.0837304
-0.29819423 -0.23856027 -0.10250538 -0.27022782 -0.23878132 -0.1940961 -0.22696058 -0.17650189
-0.29991046 -0.13921402 -0.25227243 0.04893736 -0.030189106 -0.28949293 -0.05375846 0.01718313
-0.2770274 -0.27500466 -0.097193725 0.07256971 -0.056630477 -0.1334497 -0.1484235 0.07868377
-0.28385282 -0.19726844 -0.2085975 0.12690474 -0.25585678 -0.03921466 -0.12379291 -0.26490176
-0.5710699 -0.22625832 -0.4454976 -0.043862417 0.08331036 -0.119678445 -0.37215436 -0.34433427
-0.3152361 -0.0867084 0.09483567 -0.16477852 -0.34889776 -0.05462229 -0.111245036 -0.18832308
-0.0985018 0.15233223 -0.26588136 -0.06965286 -0.28358504 -0.12522762 -0.21218698 -0.13308284
0.19911906 -0.1702937 -0.24783456 -0.07153315 -0.25929263 -0.34210473

final.linears.2.weight f4 [23, 110]
00000000: c2a6 72bd c126 123d 8d6e fa3e 56b1 9e3d
00000010: 9bd1 92bc a66a 183c a2ae 30bd 8f94 73bd
00000020: 95ff 10be 0676 8bbe b14c 8e3d cd6d 123e
00000030: bce6 133d d056 193d 840f b0bd a1d8 03be
00000040: 10c1 b83d f81a 79ba 035e bd3d 40df a3bc
00000050: bba1 413e 4db3 69be faf0 ee39 4410 88bc
00000060: e925 bb3c 5330 6c3d 1850 383e c0cd 0cbe
00000070: 3370 58be aee3 763e 9389 55be e477 8ebd
00000080: b567 523e d7a8 3d3e ae71 06be 90ce 1b3e
00000090: 3589 a83e a049 683c a4c6 6abb 9c98 7ebd
000000a0: 2bfb e73d d29e a93d 6282 96bd ee32 863d
000000b0: 4ff8 c4bc 55e0 12be a907 0d3d bdc8 d4bd
000000c0: ab2a 1d3f 8240 56be 4b20 29bd e08a cfbe
000000d0: 1498 cf3e efb8 163f ace4 733d 43ef 2d3d
000000e0: ca78 e03c 10b5 67be f3a4 debd 5ea7 28be
000000f0: dff1 82bc 7adc fcbe 735c 2abe c485 163c
00000100: 6171 593e d998 e1bb 32f5 38be 4830 853e
00000110: c3b6 8a3d 2110 2a3e 79fb 2d3e 5238 95bd
00000120: 3d91 cbbe c70b 8c3d 0868 9f3d 5787 c2bc
00000130: 1e00 ea3e 9f8e 1fbd 0dfd ddbe e5eb 57be
00000140: c25e 573c 020c ac3e ccf9 a8bd dc1f a9bd
00000150: 4007 893d 4f35 2f3d 7dda a93e 73cb d33e
00000160: 5e9c 3e3d 5afe 89be c20c 91bd 8fb4 d8be
00000170: 63c7 e7bd 8adc 923a e92f b7bd 4eb5 853d
00000180: c390 1e3e 0774 883b 07e1 5b3d 4c44 c8bd
00000190: ee15 9dbd 84d1 993e e4bc 60bc fb88 963d
000001a0: 288a 7b3d 7c95 e6be 51e6 c3be 7ce8 70bd
000001b0: 05a3 c8be b9d7 febc db8f 6a3e 5f0c 83bb
000001c0: b5e9 4ebe c298 cc3d dd50 aabd 9a03 4b3c
000001d0: d16d fe3d d15d d83e 4f02 d2bd 62b4 22bd
000001e0: f3a0 63bd c3ae 4a3f 6ca8 27bd e404 47bd
000001f0: d5ca e7be 0eed 8e3d f726 2fbe b9d5 69bb
00000200: 2f3f 87bd 329a 30be d3d5 253e 2b04 27bd
00000210: f491 113c 4944 7fbd 9aeb 08bc a241 1d3e
00000220: b2c1 2ebe d243 7c3e d016 df3e 5f44 143e
00000230: 9f92 7dbe 7fbc 92bd f423 25be 06c6 69bd
00000240: 1e89 80be 5669 50bc 87b8 8d3e 8a86 14bd
00000250: 417f 0bbb 9580 983e 07a0 b03e 553e 1e3e
00000260: 3fe5 78bd dd5d 293d e0f7 483d c471 73be
00000270: 4db6 263d ac52 2d3e a5ba a0be 46c9 ac3e
00000280: ccf2 acbe b820 97be 5963 51bd 94b6 abbe
00000290: f6b9 6c3e 6e23 133e 2371 063c 1159 94bd
000002a0: d8ea a5bd 6cec 443c 688f 203c 0d65 363e
000002b0: 7a8e 103e 08ab 293d cd71 923e d3d4 183e
000002c0: 58a5 4e3d 907e 343d 3c11 383d 42a0 c3bc
000002d0: 8c96 86be 4c89 12bd d03a 28be a812 95bc
000002e0: 5d2c 2ebe b9a9 f5bb c58c 1f3e fca3 f6bd
000002f0: 23ff e43d 0d50 9fbe 96f8 003c 67c3 c5be
00000300: 4c62 9b3d d934 33be 0fb5 713d a6cf 9a3b
00000310: 15a8 46be 48e2 b73d 882a e1bd d711 5cbd
00000320: 15e4 253c be97 febe 40ef cabb 7144 13bb
00000330: 64c1 d53d 482c da3d fbda 993e 52e1 c1bc
00000340: fcfc 2dbd 11b3 1abe 7147 a53d 7820 323d
00000350: 13d2 043e 91a5 bebd 9747 74bd 0872 023f
00000360: 0f50 21bf 35a0 0fbd a7f6 26bc 2771 2c3e
00000370: 4a5a 0e3d 198e 9bbe 60e9 19be d2d0 00bb
00000380: 4e76 dd3c 6bbf 8e3f 9c02 cdbc fdcd 15bd
00000390: cb5b 793d 8fb6 5b3c a0b3 c33b 7334 3e3d
000003a0: 0ff7 2b3e 309d 31bd 7440 cd3d 8e3d 143e
000003b0: 1a2f 073d 0f6a b53d 38a6 5f3e 4af7 e2bd
000003c0: 351a ecbd ed16 8fbd 4b8c f13d 81bd de3b
000003d0: 54ae 8f3e 29dc 6cbe 4281 2abe afb1 b3bd
000003e0: d58d c33e 5499 943e 59e4 e03e 7c01 423c
000003f0: f1c2 b23d a5c9 b33c 1272 d03c 4a82 86bc
-0.059241064 0.03568149 0.4891247 0.07748668 -0.017922213 0.009302771 -0.043135293 -0.05946785
-0.14159997 -0.27238482 0.069482215 0.14299698 0.036108717 0.037436306 -0.08596709 -0.12875606
0.09021199 -0.0009502615 0.09246447 -0.020003915 0.18909352 -0.22822304 0.0004557444 -0.016609319
0.022845225 0.057663273 0.17999303 -0.13750362 -0.2113655 0.2411029 -0.20853262 -0.06956461
0.20547374 0.18521439 -0.13129303 0.15215516 0.3291718 0.01417771 -0.0035823965 -0.06215726
0.11327203 0.08282246 -0.07349087 0.06552683 -0.024044184 -0.14343388 0.034431133 -0.1038985
0.6139323 -0.20923045 -0.041290563 -0.4053564 0.40545714 0.58875936 0.05954425 0.042464506
0.027401347 -0.22627664 -0.10871305 -0.16470096 -0.015984474 -0.4938696 -0.16636829 0.009187166
0.21234657 -0.006884676 -0.18062285 0.26013398 0.0677314 0.16607715 0.1699046 -0.07286133
-0.39759246 0.06838184 0.07783514 -0.023746176 0.45703214 -0.038954373 -0.43357125 -0.2108608
0.013145151 0.3360291 -0.0825077 -0.0825803 0.06690836 0.04277545 0.33174506 0.41366157
0.046535842 -0.26951867 -0.070825115 -0.42325255 -0.11317327 0.0011204642 -0.08944685 0.06528722
0.1548491 0.004164222 0.0536814 -0.097786516 -0.076701984 0.3004266 -0.01371691 0.07350346
0.061411053 -0.45035923 -0.38261655 -0.058815464 -0.39186874 -0.031108724 0.22906439 -0.0039992775
-0.2020634 0.09990074 -0.08316205 0.012390995 0.124232896 0.42259076 -0.102543466 -0.039722808
-0.055573415 0.79172915 -0.040932104 -0.04858865 -0.45271936 0.06978808 -0.17104708 -0.0035680367
-0.06603848 -0.17246321 0.16194849 -0.04077546 0.008884896 -0.06232098 -0.008356953 0.15357068
-0.17066076 0.24635246 0.43572092 0.14479207 -0.24762963 -0.07164859 -0.16126996 -0.057073615
-0.25104612 -0.012720427 0.27679846 -0.03626112 -0.0021285566 0.297856 0.3449709 0.15453465
-0.0607655 0.04134928 0.049064517 -0.23773867 0.0407012 0.16926068 -0.31392398 0.3374731
-0.3377899 -0.2951715 -0.051120136 -0.33537734 0.23117813 0.14368984 0.008205685 -0.072435506
-0.081014335 0.012019258 0.009799816 0.17811985 0.1411685 0.041422874 0.28602448 0.14924936
0.050450653 0.044066012 0.04493831 -0.023880128 -0.26286733 -0.035775468 -0.16428685 -0.018197373
-0.17009111 -0.007497039 0.15581043 -0.12042996 0.11181476 -0.3111576 0.0078717675 -0.38625643
0.07587108 -0.17500629 0.05901056 0.0047244607 -0.19400056 0.089787066 -0.1099444 -0.05372795
0.01012518 -0.49725145 -0.0061930716 -0.0022471214 0.10437277 0.10652977 0.3004988 -0.023667011
-0.042477593 -0.15107371 0.08070267 0.043487996 0.12970762 -0.09308923 -0.059638586 0.5095525
-0.63012785 -0.035064895 -0.010190642 0.16840039 0.034754075 -0.3038185 -0.15030432 -0.0019655717
0.027033951 1.1152166 -0.025025658 -0.0365734 0.060878556 0.013410225 0.0059723407 0.04643674
0.16793464 -0.043362796 0.10022059 0.14476606 0.033003904 0.0885812 0.21840751 -0.11082323
-0.11528436 -0.069867946 0.11794337 0.006797493 0.2806269 -0.2313086 -0.1665087 -0.08774125
0.38194147 0.2902323 0.43924215 0.011841174 0.08728588 0.021946738 0.025445018 -0.016419549

final.linears.2.bias f4 [23]
00000000: 5ca9 ebbc 38f3 e0bb 4d1c bebd d127 443d
00000010: 5c70 7abd d24d ddbc cdba e13c 1dc5 9cbb
00000020: 210f 63bc 74e9 5abc 670a 323d 91db f3bc
00000030: e0eb a43b 94c5 3f3c faa7 f93c 8756 dc3c
00000040: 20d6 2d3d d5a4 ddbc 4244 4fbb fc21 2bbd
00000050: 610f 4d3c af4d 95bc ed1c 3f3d
-0.02876728 -0.0068649314 -0.09282742 0.047889534 -0.06114231 -0.027014647 0.027554894 -0.00478424
-0.0138585875 -0.013361324 0.04346695 -0.029767783 0.0050330013 0.011704821 0.030475605 0.026896728
0.042440534 -0.027056137 -0.0031626378 -0.041780457 0.012515874 -0.018225519 0.046658445

layers.0.attn.0.gnn_q.weight f4 [23, 16]
00000000: cccf 8a34 1c3c b738 2165 d3b5 b7df 9abc
00000010: 4eae a1b4 e493 fdb9 6bda ad35 a75e f3b7
00000020: fc8f 463a 2c9a ce39 bc9d 2dbc ef51 9abb
00000030: 192f 2fba ed5e a5b9 415a 95b2 c29a 9c3c
00000040: 2ecf 82b5 e5e6 6b3a 52d3 7d35 82e5 a23b
00000050: 625c 7338 3fc9 2a3a 37f6 7fb6 0d79 d2b6
00000060: 3492 87ba 0c13 eab9 0055 57bc 80a0 3c3b
00000070: 82a0 f739 92e1 233a 84cc a6b1 e153 833c
00000080: 38a8 0a36 0985 d03a f2b3 18b7 ba64 1abc
00000090: 80bf c9b6 4201 6fb9 dd89 1937 6ead 8cb8
000000a0: 6cab e23a d6fc a639 fff9 253e c445 6ebb
000000b0: a590 4cba 082a 06b9 1796 3fb2 45a6 90be
000000c0: a039 9eb6 6ab4 bdb9 24fc a737 a0ea db3a
000000d0: 7368 0c38 304c 9b39 6a39 a1b6 3c5c b5b6
000000e0: 58d0 17ba 05c3 17b9 1373 633e c832 3bbb
000000f0: f263 22b8 b6d1 8539 b606 41b1 80ef d9be
00000100: a2f6 4635 8070 893b 30b0 d535 e142 353d
00000110: dcd4 a538 4650 a43a 721e b5b6 395b ae37
00000120: d5a1 07bb 1ae3 79ba 0198 7cbd 0ae5 063c
00000130: 5412 913a a124 7d3a d6c0 abb2 e8e9 e93d
00000140: 5ef6 0bb6 b360 aa3a 49b9 dc36 143f 443c
00000150: 7893 6838 810f 883a f12f ecb3 4b01 13b6
00000160: 61d7 9dba d7ac 47ba 5abf d0bd 6c42 f33b
00000170: 3612 983a 808a 513a d925 4733 4b19 363e
00000180: 64c1 9cb5 a551 41ba 3c05 9236 565e 8a3b
00000190: 4da6 fdb6 6f8a 3db9 b94e e2b5 ac10 0d37
000001a0: d2c1 ecb8 54ac 7538 d519 04bd 1eba 003a
000001b0: 26b8 5939 0229 d0b7 6d75 6832 07ed 2f3d
000001c0: 6a75 0f34 f0d7 36ba 8557 2636 c090 c13b
000001d0: 23d3 ceb7 4f8f bcb9 ca70 40b5 da2d 3c37
000001e0: 98d8 ae39 500d 0b39 969c 4ebc 949a b4ba
000001f0: 762f 89b9 fcd3 c1b9 c13c 9132 4645 cd3c
00000200: 2065 e9b5 487a 4f39 8666 0e37 3654 4e3c
00000210: 3bfb 3738 6af9 213a 1188 08b6 6817 8334
00000220: 415c 5aba e782 f2b9 f4de 9fbc 8ce0 6d3b
00000230: 7d55 013a b90a df39 e45f 0633 4b91 e13c
00000240: b06b 62b5 64a7 fa38 f5b0 42b6 8c92 e4bb
00000250: d415 b437 50c8 b438 d2be 2fb4 47e4 a7b7
00000260: c331 0db8 6eb0 88b8 1de0 be3a 54fa 873a
00000270: 4705 3639 c4c1 3139 6257 ae31 ce66 18bc
00000280: 1b60 5a36 43c2 d5b9 e185 56b5 26c2 b236
00000290: e351 52b7 4a7e e9b8 bead 7136 f43c 3cb6
000002a0: fcdb ed39 82bf fd38 8721 4ebd e066 1237
000002b0: c882 20b9 e539 e4b8 864f 0eb3 9c25 c33d
000002c0: 0489 2636 4ef5 9b39 4707 61b7 28f9 b0bb
000002d0: 13db 0938 d5cb eb38 8583 bfb6 eba0 0eb7
000002e0: a884 66ba 0028 28b8 adbe f73b 2dea 1fb9
000002f0: 4f27 97b7 d4ea 4c38 7537 8532 ac4c ccbc
00000300: 02bd 98b6 c353 33ba ec74 7537 5fe2 f73b
00000310: f109 ee37 4e5d 8839 df16 afb6 e11a 6436
00000320: 57d8 47ba ec5b 4db9 7d0a 86bc 0e5f 193b
00000330: f7f9 9a39 f028 5a39 bf2e fb32 ae70 e83c
00000340: 1ecb 5e35 0147 1f3a 175d 13b7 10ca 4abc
00000350: 4c75 03b8 c3fb 15ba fd7f 46b6 2c9c a4b6
00000360: 3454 2e3a 5ebf d239 596b 83bc a3e4 4bbb
00000370: c971 f5b9 714a b5b9 ebd2 b532 4e3d 5f3c
00000380: a1e4 f1b5 fc1e 81b9 ed52 cf36 8148 453c
00000390: fcd0 0a37 e471 063a a6ba b036 b02f b7b6
000003a0: 7e3c fab6 d056 cdb9 5956 1abb c966 8d3b
000003b0: 5255 443a abf9 173a 54b5 2832 38de 633b
000003c0: a0e8 06b5 ba9e d1b8 2f36 2536 5545 063c
000003d0: e6b2 2b37 9889 6a39 16b6 a4b5 24f1 0db5
000003e0: 5f5f deb9 db65 32b9 7c0b 223c ffae 0d3b
000003f0: ba38 b339 f2e9 7139 8c26 65b2 b54a 68bc
2.5855695e-07 8.737316e-05 -1.5750157e-06 -0.018905504 -3.011541e-07 -0.00048366108 1.2953072e-06 -2.9011933e-05
0.0007574556 0.0003940625 -0.010596689 -0.0047094743 -0.00066827383 -0.00031541978 -1.7386926e-08 0.019116763
-9.746052e-07 0.00089989445 9.4557356e-07 0.004971207 5.8021753e-05 0.00065149734 -3.8141277e-06 -6.27258e-06
-0.0010343255 -0.0004464615 -0.013142824 0.002878219 0.000472311 0.0006251569 -4.8544866e-09 0.016031208
2.0661519e-06 0.0015908788 -9.101803e-06 -0.009423429 -6.0125603e-06 -0.00022793285 9.151609e-06 -6.708024e-05
0.0017293519 0.00031850365 0.16208647 -0.0036357502 -0.0007803536 -0.00012794894 -1.115179e-08 -0.28251854
-4.7154754e-06 -0.00036183308 2.0025363e-05 0.0016778298 3.3475877e-05 0.00029620668 -4.804858e-06 -5.404958e-06
-0.00057912385 -0.00014473133 0.22211866 -0.0028564204 -3.871689e-05 0.00025523984 -2.8089011e-09 -0.42565536
7.4119646e-07 0.0041943192 1.5921014e-06 0.044253234 7.907461e-05 0.001253613 -5.3977647e-06 2.0784895e-05
-0.0020695825 -0.0009532437 -0.0616684 0.008233318 0.0011068084 0.0009656642 -1.9994712e-08 0.11421567
-2.0856019e-06 0.0012998789 6.578081e-06 0.01197793 5.545045e-05 0.0010380597 -1.0998327e-07 -2.190546e-06
-0.0012042337 -0.00076170027 -0.101927474 0.0074236896 0.0011602107 0.00079933554 4.636772e-08 0.17783086
-1.167919e-06 -0.00073745317 4.3517484e-06 0.0042226715 -7.5593475e-06 -0.00018076015 -1.6861223e-06 8.408137e-06
-0.00011289459 5.8573045e-05 -0.032251198 0.0004910546 0.00020763333 -2.4814628e-05 1.3530877e-08 0.042950656
1.3360628e-07 -0.0006974926 2.478687e-06 0.005907148 -2.4655432e-05 -0.00035964928 -7.1689703e-07 1.1216349e-05
0.0003334924 0.00013261032 -0.012610575 -0.0013778978 -0.00026166037 -0.0003696977 1.690785e-08 0.025057446
-1.7389284e-06 0.00019786612 8.48773e-06 0.01259332 4.3864577e-05 0.0006178828 -2.034478e-06 2.4417682e-07
-0.0008329787 -0.00046255367 -0.019515492 0.003629717 0.0004933698 0.00042541864 3.128652e-08 0.027535101
-8.4348267e-07 0.00011952108 -2.9011255e-06 -0.0069754776 2.1467837e-05 8.62038e-05 -1.6367565e-07 -2.0014251e-05
-3.3663364e-05 -6.517848e-05 0.001456264 0.0010374286 0.00017358839 0.00016952219 5.0740008e-09 -0.009301854
3.2540472e-06 -0.00040771262 -7.991603e-07 5.3274152e-06 -1.2536041e-05 -0.00011133829 3.601293e-06 -2.8049662e-06
0.00045368064 0.00012099651 -0.050324943 8.726231e-06 -0.00015307509 -0.00010882671 -3.3134278e-08 0.09528658
2.4815681e-06 0.0002974667 -1.34127395e-05 -0.0054007955 3.2867374e-05 0.0001124364 -5.7075545e-06 -8.501326e-06
-0.0008793571 -4.0091574e-05 0.007560572 -0.00015250659 -1.8018907e-05 4.885609e-05 1.5508457e-08 -0.024938904
-4.5519564e-06 -0.00068407896 1.4630361e-05 0.0075648273 2.837644e-05 0.0002600946 -5.218069e-06 3.3990293e-06
-0.00076234847 -0.00019584567 -0.016362423 0.0023402604 0.00029559407 0.0002080535 2.9241503e-08 0.028374042
8.299702e-07 0.0006075949 -8.783557e-06 -0.012377277 -3.1342075e-05 -0.00057214143 -2.9578798e-06 -4.9057617e-06
0.00066501205 0.000401969 -0.016042398 -0.003111162 -0.00046814818 -0.00034578473 2.1167088e-08 0.013625456
-1.8022439e-06 -0.00024627883 6.1787346e-06 0.012041212 8.274099e-06 0.00051286654 5.2669375e-06 -5.4593766e-06
-7.457623e-06 -0.00039165327 -0.0023550002 0.0043152315 0.00074895204 0.00057973963 9.820116e-09 0.0034769904
-5.0257404e-07 -9.995462e-05 2.4618455e-06 0.008195241 1.0234047e-05 0.00022367237 -1.2271946e-06 -5.28775e-07
-0.00042414197 -0.00017013347 0.009890433 0.0021619198 0.00034183805 0.00023070702 -1.3338319e-08 -0.014177968

layers.0.attn.0.gnn_q.bias f4 [16]
00000000: 76ac 44b5 615c 8d3b c633 3636 6651 233d
00000010: 1495 1d37 cbb2 61b9 ae65 06b7 07eb 4d38
00000020: 1de1 9fba 0451 af37 33f6 603d 6160 1e3b
00000030: 69da c139 ea45 21b9 1a9d cb32 e319 c2bd
-7.3266654e-07 0.004313991 2.715025e-06 0.03987255 9.392639e-06 -0.00021524278 -8.010697e-06 4.9094695e-05
-0.0012197826 2.0899352e-05 0.054922294 0.0024166333 0.00036974557 -0.00015380202 2.3703752e-08 -0.09477594
