checkpoints/cyp1a2_veith_25_train1_neg/Aug30-22:42:43_200.pth (torch, 464262 bytes, 294 tensors)

layers.0.weight f4 [23, 16]
00000000: 09b9 223f 0894 343e ade4 a03e 04f7 233e
00000010: 784e 9ebe 1c36 643f 0323 a6be 579f 3f3e
00000020: 387f fc3e 97d1 bfbe f329 efbe 4163 023e
00000030: 4ae9 ff3d 0628 25bd 3ccc de3d d31f 17bf
00000040: 7ea3 593f 03f5 043e 2cd3 d0bd e9b3 a13d
00000050: 73a6 d23d 9636 f5bd 00c1 04bf 1a05 773d
00000060: 588c f2bc aec3 06bf 3dc1 3fbf bf71 61bc
00000070: edbe da3c 0106 81be d1ac 9bbe 2be3 7ebf
00000080: 3fb2 943e ada6 21bd 91e7 a1bd 2194 3f3b
00000090: a8a9 81bc 6a44 8d3e 3742 7a3c 4b28 bbbd
000000a0: 92ee cc3d b96d 03be ba5b 113e a141 543e
000000b0: 94dd 0e3c f18d b2bc 61a1 bd3e c1b4 683e
000000c0: 6800 953e aaec eb3c ad2c a4bd 68cc ddbc
000000d0: 6e1b d23c 4257 863e b046 443d 776f 9cbc
000000e0: 185e cf3d fa4a 05be d86a 073e 9f76 033e
000000f0: be79 ab3c 064f 95bd d216 da3e 3a6a 643e
00000100: dd4d 843e fee9 493c acbc 0dbd 6a6a efbc
00000110: e402 b7bc f95e 7e3e 280e 123d d556 2cbd
00000120: b893 913d da56 0cbe dc19 8c3d 5740 033e
00000130: 9ebb 843b 23d3 453d 016b a73e 7e6c 5f3e
00000140: 4cb0 78be f9b3 8e3d 4110 a6bd 356e 833d
00000150: 36ac a63d 6fa7 873e 7cd5 603d 1863 263d
00000160: 8593 0b3e b877 053e 21dd 1e3d 7b14 093d
00000170: 0399 473c b399 3c3d bf4b e63d 0ad8 423d
00000180: af12 793f 8e14 75be 7bde b6be 46af 2dbe
00000190: 24ad 973e 47bd 6bbf 45e5 09bd 2a83 4dbe
000001a0: b0fa 11bf e587 10bf 0b35 cfbd a3cb e0bd
000001b0: 0c8b 32be e438 62be 7620 5e3e e57d b0bc
000001c0: 2fab 153f 78f2 a1be 601f 0cbf fb69 92be
000001d0: 8483 103f 3bed bfbf 9a95 b23b 350b a8be
000001e0: c58d 54bf 3357 c2be fd68 e03d 20a3 88be
000001f0: 1b48 42be 2c38 adbe f61f 00bf de2f a93d
00000200: 866b b03f 76de 8d3d 27f9 7c3f 8b37 a23d
00000210: 5e45 79bf 0d92 213e b07d a5be 2139 a83d
00000220: 3eb0 873d 892b 4cbf efbd fabe d376 6e3d
00000230: 538c 363d ff21 47be 253e 8a3d fffb 18bf
00000240: 322a f63e 382c 31bd 64b1 37be 59d6 573d
00000250: 6d6d 0d3e 6d53 ee3e d0cc ec3d c63d 4e3c
00000260: 65cd 7f3e ba96 7fbe cb4d 303e fd4d 9e3d
00000270: fa98 303d c9fc 883d dae8 463e c3b6 8b3e
00000280: e2f0 a33f f9fc a3bc d84b 04be 1742 2ebd
00000290: 36cf 113e b77a d0bd fc40 87bd 83bf f6bc
000002a0: bcc6 42bd 64cc 3fbf 7aca 0dbd f07c a0bd
000002b0: 7562 35bd d1e1 0dbe 2d39 21be ab15 4abc
000002c0: 941c 4ebf 3631 253d 800c cc3e 3776 563d
000002d0: 31d6 d2be 2364 0dbd 0f55 b5bd 2d40 f2bc
000002e0: 6965 18bd e330 fc3e 7175 50be 6794 a63d
000002f0: 48f9 283d d020 d83d c945 2c3e f684 85be
00000300: 51c7 863e 883d 283c 91a5 2cbe b6d9 c1bc
00000310: 926a 633e 9bad 413d 4166 913d f223 513d
00000320: 2a66 e33c 4765 19be ea1d 783e 29a6 ecbc
00000330: 90ca f6bc 20f4 d0bc a28f 5ebe c517 8e3e
00000340: e029 51be 0897 87bc e742 b63f 5eeb 3ebc
00000350: 0c82 b4bf 50b3 e1be 770a e43d b44f 5fba
00000360: 56c0 54be 4a7b f83d f9e0 293e bebe 1bbd
00000370: 7e12 3dbc 2c94 463d 540a e2bd 6634 3b3e
00000380: 27c0 eebe cf93 1d3e 7fe6 c83f 1b4e f83d
00000390: c839 c6bf 7d3e 763e 03c6 5ebe e507 d33d
000003a0: 41d0 243e d068 8e3e 2e2e b9be 33fb fa3d
000003b0: b815 e03d d157 323d 37f5 d3bc e0ee 07bf
000003c0: b71a 7a3c 61e1 50be 02fd c3be c77c 3abe
000003d0: b908 b93e 9d98 9fbf a81c babd 8cfd 76be
000003e0: 1dd9 2fbf feb2 1bbd d09f 38be 4325 4dbe
000003f0: e3ad 0cbe 2520 5fbe 568f a6be 5bb5 88be
0.6356359 0.17634594 0.31424466 0.16012198 -0.30919242 0.89145064 -0.32448587 0.18713127
0.4931581 -0.37464592 -0.46711692 0.12733175 0.12495668 -0.040321372 0.10878798 -0.59032935
0.85015094 0.1298409 -0.10196528 0.07895643 0.10285654 -0.11973302 -0.51856995 0.0603076
-0.029607937 -0.52642334 -0.74904233 -0.013760029 0.026702369 -0.25199893 -0.30405286 -0.9956538
0.2904224 -0.039465595 -0.07905496 0.0029232579 -0.015827969 0.27591258 0.015274576 -0.09138545
0.10006441 -0.12834825 0.14195147 0.2072816 0.0087198205 -0.021796199 0.37037185 0.22725202
0.29101872 0.028799374 -0.08016334 -0.027075008 0.025647845 0.26238447 0.047918975 -0.01909612
0.10125369 -0.13016883 0.13224351 0.12838219 0.020932075 -0.07290463 0.42595536 0.22306147
0.25840655 0.0123238545 -0.03460376 -0.029225547 -0.022340246 0.24840917 0.03565803 -0.042074997
0.07108253 -0.13705006 0.0684087 0.12817512 0.004050686 0.04829706 0.32698825 0.2181873
-0.24286002 0.06967921 -0.08108569 0.06417505 0.081383154 0.2649493 0.054891095 0.040621847
0.13630493 0.1303395 0.038785104 0.033466797 0.012182477 0.046045016 0.11244916 0.047569312
0.97294134 -0.23933622 -0.35716614 -0.16961393 0.29624283 -0.9208569 -0.033665914 -0.20069566
-0.57023144 -0.5645736 -0.10117539 -0.109763406 -0.17435855 -0.22092015 0.2169207 -0.021544406
0.5846433 -0.316303 -0.54735374 -0.28596482 0.56450677 -1.4994272 0.005449963 -0.3282105
-0.83028823 -0.37957153 0.10957525 -0.26686954 -0.18972819 -0.33831918 -0.5004877 0.08261083
1.3782814 0.06927197 0.98817676 0.0792075 -0.9737147 0.1577837 -0.32322454 0.082140215
0.066254124 -0.7975393 -0.48973033 0.05821879 0.044567417 -0.19446562 0.067501344 -0.59759516
0.48079067 -0.04325506 -0.17938763 0.052694652 0.13811274 0.46548024 0.115625024 0.01258797
0.24980696 -0.24959841 0.17217176 0.07729719 0.04311464 0.0668884 0.19424763 0.27287874
1.2807887 -0.020018088 -0.12919557 -0.042543497 0.14239201 -0.10179656 -0.06604192 -0.030120617
-0.04755281 -0.7492125 -0.034616925 -0.0783633 -0.04428335 -0.13855673 -0.15744467 -0.012334268
-0.80512357 0.040330134 0.39853287 0.052358832 -0.4117904 -0.034519326 -0.08854114 -0.029571617
-0.037206087 0.49256048 -0.203573 0.08133774 0.041253358 0.105531335 0.16823496 -0.26078004
0.2632394 0.010268576 -0.16860034 -0.023663383 0.22208622 0.047284704 0.070995815 0.05105967
0.027758677 -0.1498004 0.24230161 -0.028887825 -0.030125886 -0.025507033 -0.21734479 0.2775251
-0.2042613 -0.01655151 1.4239167 -0.011652796 -1.4102187 -0.44082117 0.111348085 -0.00085186516
-0.20776495 0.121328905 0.16589727 -0.038023703 -0.011540053 0.04848115 -0.11037126 0.18281707
-0.46630976 0.15388416 1.5695342 0.121242724 -1.5486383 0.24047275 -0.21755223 0.1030424
0.16095068 0.2781434 -0.36168045 0.12254944 0.109416425 0.04354078 -0.025873763 -0.5309887
0.015265158 -0.20398475 -0.38278967 -0.18211661 0.36139467 -1.2468449 -0.09087497 -0.24120158
-0.68690664 -0.038012497 -0.18029714 -0.20033745 -0.13738208 -0.21789606 -0.32531232 -0.26700863

layers.0.bias f4 [16]
00000000: b7ff a23e dca1 0f3d b3a7 a9be d99d 353c
00000010: 6d7b b5be 3ae9 993e 2659 023d 18fe 8d3e
00000020: d754 38be be9c 2a3e 6d2e b7be 2ca5 9f3e
00000030: 562d c8be 16bf 203c db87 13bf 2a03 613e
0.3183572 0.03506647 -0.33135757 0.011084997 -0.3544573 0.3006075 0.0318233 0.2773292
-0.18001114 0.16661355 -0.35777608 0.31180704 -0.3909709 0.009811183 -0.57629174 0.21973863

layers.1.weight f4 [16, 16]
00000000: fdfd 21be fc94 b9be 6607 6c3e 1c20 8c3e
00000010: e8a9 47bd 9a57 953e 2242 7cbe abb8 a5be
00000020: c889 de3c 71f1 893d 56ef 483f 101e 61bf
00000030: 6e12 babb 9e87 e0bc 7265 1cbb 7ae9 193e
00000040: ce73 343e cbf7 ef3d a42c d13c 2ef5 66be
00000050: 0a0b 353e f855 55bf 74eb fcbe 3858 1a3e
00000060: ed13 e53e d1c0 9d3e 51da 21be 431d 1cbf
00000070: 6261 30be c778 ce3e 6c0b 463f ddad aabe
00000080: 9614 e4bd 2b87 b23e 4f10 bcbd 2192 1d3e
00000090: b359 a6bd 4f9b 21bf 6447 1fbf 6a05 2ebd
000000a0: 7d86 9b3c 4000 813d 939a 4dbe 6758 2cbe
000000b0: 727f 8d3e 7382 eebd 2043 9d3d d29c a23c
000000c0: 89b4 c83e 2054 0e3d 38cb 5a3e 1eb6 e6be
000000d0: 1c0e b33d 5e12 4dbf b3fd 2ebf 3759 a53e
000000e0: 04d2 fb3e 29c5 d93e da3d a0be 050a 38bf
000000f0: 2d00 c3bd 62ce 0f3f 2b8f 413f a1e3 94be
00000100: 9387 103c 484c b63e e042 243d bb69 843e
00000110: 2dc2 db3d 0f4f b3bd c01a 3f3d eb41 88bd
00000120: b1d0 79be e350 6e3e 3efa d6bd d2d8 083f
00000130: 2702 443e 4435 393d 5bc8 babe 5df4 a73e
00000140: ee40 8fbe cb63 b1be 7ffa 7ebe b078 4ebf
00000150: 3a09 c4be 0734 8b3d 4cbf 89bc 09b0 213e
00000160: 619b 953d c408 43be b44e a0be fe07 96be
00000170: fa3c 403d 93dd e7be 8f2a be3e 6701 fabe
00000180: c879 b1bd 1f80 7cbe 689e 90be 3e25 fabe
00000190: cb82 c93e e565 a33e 7524 493f 4ec5 913e
000001a0: e603 f33c 0f0a 09be 75b9 29bf 4854 683f
000001b0: 4c51 4cbd a47b abbd d377 ddbe d624 0c3e
000001c0: 8283 d33e f1ac 00be bb78 163e 525a 4bbd
000001d0: 981c 0a3d 76ff 87bf 9f2b eebe 39af ba3d
000001e0: a767 223e 1ae0 f13e a702 8ebe d43a 35be
000001f0: 5af2 2b3d 1f99 fa3e cdcb 1c3f edd2 50be
00000200: 5c21 c8be f43f 853e f198 84be 0751 0abf
00000210: f2c4 903a 803b 83bf 0362 15bf bdd9 573e
00000220: fb14 0b3f 5238 35be 429b 54bf 35fc ccbe
00000230: b092 6c3e cbec 9fbe d0ab c33e 1547 45be
00000240: efc8 23be 8f82 fabe cdf7 99bd f20b 73bf
00000250: d938 eabc 6a96 b1be 5700 913f a358 6f3e
00000260: b7dc 2b3e 2fcc 583d f912 18be f5cb dc3e
00000270: 7c22 b3bb 0e2e 09be bbb0 0c3f 3d3c d4bc
00000280: 20ff 943d 0e81 593e 97a8 93bc dd95 3dbf
00000290: d1c3 1f3e bc27 843e 1cb7 143f 12ea 823e
000002a0: a63b fabd 43bd 8e3b 45ed 17bf 8e22 353f
000002b0: 7822 81bc 7ecd aa3d 1f3b 43be e625 5d3e
000002c0: 69ff 1d3f 4465 be3d 8a75 e13e 56b2 85bd
000002d0: 1644 8e3e 330d 5fbf 2b56 43bf 5a11 a23e
000002e0: 8957 153e 5173 843e e24d 40bf e71e d3bc
000002f0: 6975 213e 1956 1d3f ddef ce3d 77d9 063e
00000300: 143c 353f 68e7 2d3e 1f4a 033f d4a3 74bf
00000310: 3a7d e8bd d6ad babe 9c49 d5be fb7f 0a3d
00000320: 91f7 04be f7e7 8f3d b46a 80be fd3c 86bf
00000330: b5b6 00bf 1fec 223f be26 193f c233 b1be
00000340: 2c5c e83d 7e41 853d ce32 a7bc d742 6abf
00000350: 31be d23e b729 12bf 0054 b13e 7897 873e
00000360: 4457 1f3e 330c 293e 46a7 4bbf 6607 783e
00000370: 78bd 49bd 9d63 7d3e e854 153f 8339 e23d
00000380: cf3d a4bd 2edf e23d 909f febc 06e7 0abf
00000390: 0700 ecbd c492 f53d 8de7 7dbd 4e69 093d
000003a0: e244 fd3c e67a b6bd 42da d0be d613 b6bd
000003b0: bd28 85bd a984 2abe f080 b5bd e314 7ebd
000003c0: 89ec a53e 5c15 8abc b75d 873e ab6b 25bf
000003d0: 8e26 b4bd 41a3 f73e 55f2 323f ad0a d63d
000003e0: 4e3a b0bd d46e b93c a07a cfbe 6684 123f
000003f0: 690f d2bd 5c5c 013e 2b84 a1be 8657 edbd
-0.15819545 -0.3624648 0.23049697 0.27368248 -0.04874602 0.29168397 -0.24634603 -0.32367453
0.027165309 0.067355044 0.784902 -0.87936497 -0.0056784665 -0.027408417 -0.0023864177 0.1503047
0.17622301 0.11717185 0.025533982 -0.22554466 0.17679992 -0.833343 -0.49398386 0.15072715
0.44741765 0.3081117 -0.15805937 -0.6098215 -0.17224649 0.4032652 0.7736118 -0.33335772
-0.11136739 0.3486875 -0.09182798 0.15387775 -0.081225775 -0.6312761 -0.6221831 -0.042485632
0.018985027 0.06298876 -0.20078497 -0.16830598 0.27636296 -0.11645975 0.07678819 0.019850168
0.39200237 0.034748197 0.21366584 -0.4506082 0.087429255 -0.8010615 -0.68355864 0.32294628
0.49183667 0.42533234 -0.3129719 -0.7189029 -0.09521518 0.5617429 0.7560908 -0.29079917
0.008821386 0.35605073 0.04010284 0.25861916 0.107303955 -0.087553136 0.04665637 -0.06653198
-0.24396016 0.23273043 -0.10496949 0.5345584 0.19141446 0.045216814 -0.36480984 0.32803622
-0.27979225 -0.34646448 -0.24900244 -0.80652905 -0.3828829 0.06797033 -0.01681485 0.15789808
0.07305027 -0.19046313 -0.31310046 -0.29302973 0.04693315 -0.45286235 0.37141845 -0.48829195
-0.08665806 -0.2465825 -0.28245854 -0.4885654 0.393576 0.31913677 0.78571254 0.28470844
0.029664945 -0.13382743 -0.6629861 0.90753603 -0.04988222 -0.08373192 -0.4325548 0.13685927
0.4131127 -0.12565972 0.14694493 -0.049646683 0.033718675 -1.0624835 -0.46517655 0.09115452
0.15859853 0.47241288 -0.277364 -0.17698222 0.04197917 0.48944947 0.61248475 -0.20392962
-0.3908795 0.26025355 -0.25897935 -0.5402989 0.0011045022 -1.0252533 -0.5835268 0.21079154
0.5432889 -0.17697266 -0.83049405 -0.4003617 0.23102832 -0.31235346 0.3821702 -0.19265397
-0.15994619 -0.48927733 -0.075179674 -0.949401 -0.02859156 -0.3468507 1.1328229 0.23373656
0.16783415 0.0529291 -0.14850987 0.43124357 -0.0054667573 -0.13396475 0.5495717 -0.02590763
0.07275224 0.21240637 -0.018024726 -0.740568 0.15602042 0.25811565 0.580919 0.25569206
-0.12218408 0.004356058 -0.5934642 0.7075585 -0.015763506 0.08339976 -0.19065522 0.21596488
0.6171785 0.09296659 0.44034988 -0.065281555 0.2778632 -0.87129515 -0.76303357 0.31653863
0.14584173 0.2586923 -0.7511884 -0.025771571 0.15767445 0.614595 0.10104344 0.13168894
0.70794797 0.16982806 0.51284975 -0.9556248 -0.1135201 -0.3646075 -0.41657722 0.033813458
-0.12985064 0.07026666 -0.25081408 -1.0487362 -0.5027879 0.6364154 0.5982474 -0.346098
0.113457054 0.06506632 -0.020409968 -0.9150824 0.4116073 -0.570949 0.346344 0.2648275
0.15560633 0.1650856 -0.79552114 0.24221572 -0.049252957 0.2474503 0.5833268 0.11046126
-0.080196016 0.110777244 -0.031081945 -0.54258764 -0.11523443 0.11990884 -0.061988402 0.033547692
0.030916635 -0.0891016 -0.40791517 -0.08890502 -0.06501911 -0.16652168 -0.088624835 -0.062031638
0.32407025 -0.016855888 0.26438686 -0.64617413 -0.08796416 0.4836674 0.6990102 0.10451255
-0.08604871 0.022635855 -0.40523243 0.57233274 -0.102568455 0.12632889 -0.3154615 -0.115889594

layers.1.bias f4 [16]
00000000: 2373 dcbb 2dc3 663e 29cf 2fbe 29b0 c3bd
00000010: 8785 523d da58 b83c c77c 9f3c 8c2d aebe
00000020: 0ddc 8b3d ceba 47bb 20b8 bdbd 779b 0fbb
00000030: 4629 8abd 5159 bcbe 6a2e cdbd 36e4 8d3e
-0.0067275926 0.22535391 -0.17168869 -0.09555084 0.051396873 0.022503305 0.019468678 -0.34019125
0.06829081 -0.0030476335 -0.09263635 -0.0021912733 -0.067461535 -0.36786893 -0.100186184 0.27713174

final.linears.0.weight f4 [110, 55]
00000000: 064b cabe 152b 8fbe 17e0 b83c 7035 043c
00000010: 3353 6cbe a948 b23d aa75 f0be 3c73 80bd
00000020: d23f 423e a57a 603e e688 0e3e 482f dd3d
00000030: 861c b7be 923a 2dbe b7e4 f6bd 1ad0 afbe
00000040: 693b 763b 0755 d4be 367e eb3d c6f0 613f
00000050: 8d34 1b3d afaf 5bbe 11bf d93e 7805 dbbc
00000060: be7c 2b3b 7219 70bd 88af e9bc 12f9 f3bc
00000070: 3a8e 2f3d 3330 7f3c b139 5fbd a803 3cbd
00000080: 058e d03c e82a 31bd d332 13bd 66c0 633d
00000090: 9419 673c 973a 07bd d0ea b53c 51c2 813a
000000a0: affe 1fbd caf1 2dbd ff8d 013c 5f9d 20bb
000000b0: 107b 443d 0b44 a03c 15b9 56bd d7c0 69bc
000000c0: d19d 483d 505f 7a3b ed27 2ebd d7af a83c
000000d0: 1e4f c2bd 2244 45bc 9ef4 fdbb 1521 fdbe
000000e0: 1508 053f 763d d0bc 1d92 90be cefe bfbd
000000f0: da29 85be 93e1 963f 6754 52bf ba12 2abf
00000100: e851 abbe c34d 25be 26a6 11be 3396 613f
00000110: 1837 173e 5c45 353f d423 1cbe 9b3f 333f
00000120: 6d1b 453e 65f7 863f 3f5a 72be fb38 003f
00000130: 3ff1 1c3f fbfb f5be bd10 8b3d dfbb a0bd
00000140: 77df 153d 3737 89bd 17bc 593c d257 073d
00000150: 59d8 aebd 2ad5 363a faa1 313a f789 d1bd
00000160: 64ea 933d cd3f 19be cf4f b43d 09cc 31bd
00000170: 679d c73d 8562 e3bd efce d8bb 45e6 7fbd
00000180: 7278 8fbd f59d 13bc 15ea 8b3d 07da 7cbd
00000190: 96c7 5d3d a2ab dd3c b8a0 533d de5c 7f3c
000001a0: 3c70 d1bd 9612 bbbb 3067 2dbd ba10 3cbc
000001b0: 184a e3bc 2e3d 3d3d 091f 1b3f ac76 2a3f
000001c0: 01ab adbe b010 9cbe 78df afbe fff3 603e
000001d0: 6204 173e 73b5 693d a4ea 853e 7045 5a3f
000001e0: bce6 e1be f5e9 7ebe 9927 383f ad14 62bf
000001f0: 4b4f c5bd b565 553f bd19 3bbf 8d6f 103e
00000200: c311 70bf b8fa 553e 86d9 2b3e 991a a13e
00000210: 814e a93c a6d3 133d 1aab d53b b003 fe3c
00000220: 5b57 813c 32e2 0c3d a01f babb e8f6 ef3b
00000230: 7891 0dbd caa3 173d a767 113d 9583 303b
00000240: a2d1 febc d29c 4a3d 383a b03c 5f87 50bd
00000250: 5512 0f3c 6d00 dabc bff1 be3c 9a0f babc
00000260: bfd9 bbbb 8429 823b 1ebb e53c 7b05 cebb
00000270: 0763 21bd 3216 433d f3e2 eebc 8880 abbc
00000280: c358 a4ba 9152 b8bd 56cb fbbb 2c7c 30bc
00000290: 6359 933c f206 293f 0728 00be 5dd8 083e
000002a0: 9c03 bf3d 3b5c e0bd ac77 0cbd f0aa 37bf
000002b0: f87c 31bf e3cb 90bd 7420 cebd 476a 2b3f
000002c0: 958c 00be 8778 523e 8993 75bf 2c52 313f
000002d0: a2d6 afbd 5503 6abc e066 44be e998 583e
000002e0: 639b 00be 6423 353d b7af 98be dcca 23be
000002f0: 9831 3bbb 3be2 8b3d da3b da3d 8dd0 503d
00000300: 68b6 8e3d 66a6 ef3c 966d 3abd c07b 753d
00000310: ab24 9b3d 52de 1d3d d300 ecbc 0d8e a0bd
00000320: fdec 1dbc 20ed 373d 09cd eb3c 15ff 8bbd
00000330: 04f6 c6bd f491 46bc 6ec0 e93a 4332 e93c
00000340: 3204 b9bd c6c6 96bc 3978 f3bc 32a1 5c3b
00000350: 8da0 d9bd ce5b 86bd be67 00bd 5427 af3d
00000360: a603 e7bc d4c5 dfbd 91d2 2fbe fd5a cabd
00000370: 5c4d 1abf 4737 d6bb d75a 00bc 002b d2bd
00000380: b71b d0bd d027 de3e baa9 a5bd 64d6 6d3d
00000390: 7082 9dbe 6ee5 013f b668 22be 7c06 e83e
000003a0: 83b0 203f ac43 263f e1fe 293f 07b1 313f
000003b0: 91e3 89be 95f2 22bf e1b1 9b3e 1053 7c3e
000003c0: c289 31be 7db8 623f 9a65 7a3e 0ce8 373d
000003d0: 5f03 8a3d 88b3 81bc 0640 453d 251c 143a
000003e0: 1f92 893d 4080 c5bc b1e5 003d 6d00 86bd
000003f0: ae6e 9f3d 197d 403c 0c35 f5bb 1b56 393d
-0.39510363 -0.27962556 0.022567792 0.008069381 -0.23078613 0.08705265 -0.4696477 -0.06271979
0.18969658 0.21921785 0.1391941 0.10800034 -0.3576395 -0.16916874 -0.12055343 -0.34338456
0.0037572032 -0.4147112 0.11498682 0.88258016 0.037891913 -0.21453737 0.42528585 -0.026736006
0.0026166881 -0.058618017 -0.028526083 -0.029781852 0.042860247 0.015575456 -0.05449838 -0.045901924
0.025458345 -0.04325381 -0.03593714 0.055603407 0.014105219 -0.03301486 0.022206694 0.000989983
-0.039061245 -0.042466916 0.00790739 -0.0024507863 0.047968924 0.019563695 -0.0524226 -0.014267168
0.04897863 0.0038203783 -0.042518545 0.02059166 -0.09487747 -0.01204017 -0.007750108 -0.49439302
0.5196546 -0.025419932 -0.28236476 -0.09374772 -0.26008493 1.178759 -0.8216004 -0.66434824
-0.33460927 -0.16142945 -0.14223537 0.8811981 0.1476711 0.7080896 -0.15248042 0.7001893
0.19248743 1.0544249 -0.23667239 0.50086945 0.6130561 -0.48043808 0.06790302 -0.078483336
0.036590066 -0.066999845 0.013289473 0.033042736 -0.08537359 0.0006974513 0.00067761505 -0.10231393
0.07222441 -0.14965744 0.08804285 -0.043407474 0.09746819 -0.111027755 -0.0066164653 -0.06247546
-0.07005395 -0.009009828 0.06831757 -0.061731365 0.054145418 0.02705938 0.051666945 0.015586106
-0.10226485 -0.0057090027 -0.042334735 -0.011478597 -0.027745292 0.046200924 0.6059423 0.6658733
-0.33919528 -0.30481482 -0.3435018 0.21968077 0.14747766 0.05705781 0.2615558 0.85262203
-0.4412135 -0.24893935 0.7193542 -0.883128 -0.096342646 0.8335832 -0.7308615 0.14105053
-0.937771 0.20896423 0.16782197 0.31465605 0.020667316 0.036090516 0.006520641 0.031007618
0.015788725 0.034395404 -0.0056800395 0.0073231347 -0.034562558 0.037021436 0.03549924 0.0026933898
-0.03110582 0.04946596 0.021512136 -0.05091035 0.008732398 -0.026611531 0.023308633 -0.022712518
-0.0057327445 0.003972234 0.028043326 -0.0062872744 -0.03940108 0.04762859 -0.029160952 -0.020935312
-0.001253866 -0.09000123 -0.0076841516 -0.010771792 0.017986959 0.6602622 -0.12515269 0.13363786
0.0932686 -0.109550916 -0.034293815 -0.71745205 -0.6933131 -0.07070138 -0.10064784 0.6695904
-0.12553628 0.2055379 -0.95928246 0.6926601 -0.0858586 -0.014283021 -0.19179869 0.2115208
-0.12559275 0.044223204 -0.2982156 -0.15995353 -0.0028563496 0.068302594 0.10655947 0.05098014
0.06968385 0.02925415 -0.045514666 0.05993247 0.07575353 0.0385421 -0.028808987 -0.07839594
-0.009639022 0.044903874 0.028784292 -0.068357624 -0.097148925 -0.012119759 0.0017833838 0.02846635
-0.09034003 -0.01840533 -0.029720413 0.0033665416 -0.10626326 -0.06560479 -0.031348936 0.08552423
-0.028199982 -0.109264046 -0.17170168 -0.09880636 -0.6027429 -0.0065373513 -0.007834158 -0.10262108
-0.10161536 0.4338975 -0.080890134 0.058065787 -0.30763578 0.50740707 -0.15860257 0.45317447
0.62769336 0.6494701 0.6640454 0.6941075 -0.26931432 -0.636514 0.30409148 0.24641061
-0.17337707 0.88562757 0.2445282 0.04489903 0.06738924 -0.015832677 0.04815676 0.0005649946
0.067173235 -0.024109006 0.03146905 -0.0654305 0.07784782 0.011748576 -0.0074831303 0.045248132

final.linears.0.bias f4 [110]
00000000: dfa3 c9bd 20b9 a93d 0dfc 9b3e 480f 3d3c
00000010: 00bf ccbd 883d 073e a82b f83c ffdc 8b3e
00000020: f3db f13c edf7 df3d 6093 d5bd 2dc9 7cbd
00000030: 84a9 053c 2d5d 303e 9b43 a5bd df27 0e3c
00000040: 5da4 81be 670b bc3d 30b9 b7bb b39a 3fbc
00000050: 60ed 2d3e b0a4 5e3e b2d1 93bd 1ee5 08bf
00000060: f63f 93bd d342 243c 0134 e33c ace5 e2bd
00000070: f843 8e3e fbbb 243e 153d a53e b985 05bd
00000080: 591e 08be 1542 913e 8430 9abe 56e8 1f3e
00000090: 7c0f 213d 61f2 88bd fcdc 39be c8da 923d
000000a0: 136d d43e 2a4f c73e b941 ffbe 924f 1f3e
000000b0: c6c6 df3d 8104 9abe 43b2 723d 1b55 01be
000000c0: b243 85be 6225 40bd 6067 883e a16e c93e
000000d0: 6b19 823e 9dfe b8bd cf2a a23e 90a7 5e3e
000000e0: 9c34 373d 94b3 da3e ec06 07bf fd82 5f3e
000000f0: 311a 893e f625 173e da02 cb3d db18 2abe
00000100: 4563 7d3d 872d 3abe dc60 16bb 9e60 f13d
00000110: a0a8 1f3e 7c48 eb3e e561 103e af6c ddbe
00000120: 396f 813e 49a1 153e 0a74 e2bd c663 253e
00000130: ee91 acbd 9517 91be d8cb bd3e 8d37 bcbd
00000140: 3497 43be d122 8a3e 30a0 a1bb d2fe 873c
00000150: 4ece 61bc 0192 fe3d 6da2 5f3e 1b6d ed3d
00000160: 7973 a83e 4d92 633e fd83 3ebe 78af 093d
00000170: 8c90 333e 347b c6bd f28a 7ebd bf8c 45be
00000180: 4d4b 0a3d 921f 06bd 5b9b 72bd 60d2 b5be
00000190: a772 753d 56fd f33d 3c63 c73d 0c6c 843e
000001a0: 85c8 b53e 7e2c 913e 9635 a0be bb7e 253e
000001b0: d545 b33c 7942 3dbd
-0.09845709 0.08287263 0.30465737 0.011539288 -0.09997368 0.13207066 0.030294254 0.27317044
0.029523825 0.1093596 -0.104285 -0.061715294 0.008158091 0.17223044 -0.08069535 0.008676498
-0.25320712 0.09181862 -0.005606793 -0.011694598 0.16985083 0.21742511 -0.072177306 -0.53474605
-0.07189934 0.010025698 0.027734758 -0.11078963 0.2778623 0.16087334 0.32273164 -0.03259823
-0.13292827 0.2837073 -0.3011514 0.15615973 0.039321408 -0.06686855 -0.18150705 0.071706355
0.41489467 0.38927585 -0.4985483 0.15557697 0.10926585 -0.3008156 0.059252035 -0.12630121
-0.2602821 -0.04691065 0.2664137 0.39342216 0.25410017 -0.09032939 0.31673285 0.21743608
0.044727907 0.42715132 -0.52744937 0.21827312 0.26777795 0.14760575 0.09912653 -0.16611044
0.06186225 -0.1818143 -0.0022945916 0.117860064 0.15591669 0.4595374 0.14099844 -0.43246982
0.2528017 0.14612307 -0.11057289 0.16151342 -0.084262714 -0.28338304 0.37069583 -0.09190283
-0.19100648 0.26979688 -0.004932426 0.016601 -0.013782097 0.12430192 0.21839304 0.11593076
0.329006 0.22223778 -0.18605037 0.033614606 0.17535609 -0.09691468 -0.062144227 -0.19291972
0.03376322 -0.03274495 -0.05923019 -0.35512066 0.059923794 0.11913554 0.09735724 0.25863683
0.35504547 0.28354257 -0.31290883 0.16161625 0.021883884 -0.04620597

final.linears.1.weight f4 [110, 110]
00000000: ffe6 a53d 4662 d6bd da69 7abc c6c2 a5bd
00000010: dbd9 3c3d 8e86 123e 7b83 3fbf 6c1a c8bd
00000020: f09d 7abd 59ea e9bc 2353 a4bd 1b3a a9bd
00000030: b6e3 e73c fe28 9ebd 6a36 013c ab6e a33a
00000040: b80c 86bd 778c c2bd b7f5 5ebd ac6b 86bd
00000050: 5807 87bd 59a6 74bd 4659 113d 233a bf3c
00000060: 6bc8 c6bd fe56 95bd b42d b3bd d41a df3c
00000070: a81d 7338 a5ad b8bd c595 eabd 96eb febd
00000080: ab38 cebc 8b77 bcbd f6a3 b53d 13a6 26bd
00000090: d101 19bd ac6e 15be 085e b43d 58bd b4bd
000000a0: f186 00be 5e4d a4bd 7108 993d 3bd4 4abd
000000b0: c9ab c5bc 49c0 f2bd 3e78 c83c 513d 7cbd
000000c0: 067a 7e3e cde2 2dbe 07ce 16be 32d0 2dbd
000000d0: 88b6 28be 6fb0 f4bd ee96 b9bd 8b36 0fbe
000000e0: 4f3c d5bd beab 59bb ecf6 8a3d d8a8 2b3d
000000f0: 53e4 7abd 00d5 afbd e568 d5bd fe13 5f3c
00000100: 3cb0 c9bd f60b 373e c547 66bd 9572 f7bd
00000110: ba63 c5bd 9035 19be 72f0 b2bd b529 623d
00000120: f572 d7bd b4c8 1ebe fc37 2bbe a672 04be
00000130: 3134 33bd 5c12 143e 040a d13d 689c a0bc
00000140: af50 c2bd dcca 09bd baba 1ebd 5e00 bbbd
00000150: 987c 00be 903a 10be b5f7 1abe e30f c1bd
00000160: 0a5b e5bd c56c d43d 84af 9c3e b5d2 163e
00000170: dc61 d2bd 2eb6 2e3e c9b0 9e3d 3432 a4bd
00000180: baa7 fabd 1659 babd 76e6 9fbd 485e abbb
00000190: ad6e 33be 0749 75bd 8025 febd babc a3bd
000001a0: fdc4 c7bd b4c0 05bd 266d 3abe 276f 973c
000001b0: f1f6 1a3d 1a6c 23bc 5a2a f13d 8133 a03d
000001c0: 5aff e63d 28f5 0d3e a82f 3d3b e8cf 453e
000001d0: dec2 85bc baa0 133e 3226 d13d 59b3 853d
000001e0: 0ad8 733d f4d0 1e3b 4fd9 023e d912 ae3d
000001f0: 3406 1abb e5b4 c8bc 1ce5 d83d 5f88 333e
00000200: 6249 e63b 65a0 613d 076c e13d afa4 ad3d
00000210: 78db 953c 0905 fe3e e370 1f3e dd13 113e
00000220: 91a7 e43d 9536 9ebc 48d3 ab3d d24e abbc
00000230: 3624 303d 0f17 623d c37f d33c aaf8 3c3e
00000240: df2f 1a3e 7191 0b3e 5a68 963b eca1 69be
00000250: 6b81 4b3c 52f1 d63d ea0e ee3d 83fa b13e
00000260: 9d08 08be 8d28 2e3d 1226 803e 720f df3e
00000270: c6a0 4e3d aa50 e13c 83c1 37bb 2b2b 3fbd
00000280: e709 583c 9c64 1b3e 3f29 b23d 96b5 23bd
00000290: d120 ab3e be9c 61bc 9ee4 993d 81ab 1b3d
000002a0: cd36 f83c 7002 ee3d 70b6 e83d ce13 eb3d
000002b0: cefb 843c 9f49 433b 03a1 003e 7c45 483d
000002c0: 2267 bd3d 3e9c e2bd adc0 993d 85ac 223e
000002d0: 35dc a33d f9d9 90be 4c0f f13d 725c 563e
000002e0: e578 ea3d a6eb 743c a075 d33d 131f 53bd
000002f0: 37c1 083c 640b 1f3d c031 2a3d 1477 903d
00000300: 4502 9d3c c7d5 d43d b091 e6bc a6bb 0d3e
00000310: c452 e33d da92 4b3e 7450 823d 167a cc3d
00000320: 5404 553d 5165 ba3c 195d 003e 78f8 a9bd
00000330: e79c cbbd 6acd 303e 7d2c 463d e183 c73d
00000340: 084f 623d 2a55 3b3e a1ad e33d 8663 a63d
00000350: 4a52 383e 91b5 293d e652 0b3c 9e15 213e
00000360: 8a87 febc ee10 d43d 1387 833d 7661 7a3c
00000370: 1c17 02be c22e 9dbe 5b74 47be e192 c5bd
00000380: 7e93 0ebe b0a8 e0be 1732 c2be ffa5 9cbe
00000390: 20a7 b7be d1e2 c8be 5b96 bebe e4d0 dabe
000003a0: 1af1 84be 6633 01bf 7e1b 1ebe 97a9 6ebe
000003b0: a2f7 b3be a287 dabe 9db5 33be d43f 25bf
000003c0: 0fb6 b8be 9001 aebe 854a 1dbe e5c0 ba3d
000003d0: bc08 45be 5ec0 7cbe 52fa a3be ca30 7dbe
000003e0: d144 f7be b6da d2be 6670 12be bcdf 71be
000003f0: ec49 1ebe e1bb 1fbe d80b b0be 3357 13be
0.081007 -0.10467963 -0.015284026 -0.08093791 0.0461062 0.14309141 -0.7481 -0.097706646
-0.061185777 -0.028554128 -0.080236696 -0.08263036 0.028306823 -0.077226624 0.0078865085 0.0012468895
-0.06545395 -0.09499448 -0.05443355 -0.065635055 -0.065931976 -0.059728954 0.03548553 0.023343151
-0.097061954 -0.07291983 -0.087489516 0.027234472 5.7963334e-05 -0.09017495 -0.114543475 -0.12447278
-0.025173506 -0.092024885 0.08869164 -0.040685724 -0.037355248 -0.14592999 0.088069975 -0.08825177
-0.12551476 -0.08022569 0.07472313 -0.049518805 -0.024129765 -0.11853082 0.024471398 -0.061581913
0.24851236 -0.16981049 -0.1472703 -0.04243488 -0.1647588 -0.119477145 -0.09061991 -0.1398565
-0.104118936 -0.0033213939 0.06785378 0.04190907 -0.061252903 -0.085855484 -0.10420398 0.013615606
-0.09848067 0.17875656 -0.05622079 -0.12082402 -0.09638162 -0.14961839 -0.087372676 0.055215556
-0.10519973 -0.1550625 -0.16720575 -0.1293436 -0.043750945 0.14460129 0.102069885 -0.01960583
-0.094880454 -0.033640727 -0.038752295 -0.091309294 -0.12547529 -0.1408484 -0.15133555 -0.09426858
-0.11199005 0.10372309 0.30602658 0.14728816 -0.102725714 0.17061684 0.07748563 -0.08017388
-0.122390226 -0.09099023 -0.07807629 -0.005229745 -0.17522688 -0.059884097 -0.12409496 -0.07994981
-0.097543694 -0.03265448 -0.182057 0.018485619 0.037833158 -0.009974504 0.11775656 0.078223236
0.11279173 0.13863051 0.0028867517 0.19317591 -0.016328271 0.14416781 0.10212363 0.065283485
0.059532203 0.0024233432 0.12778209 0.08499689 -0.0023502233 -0.02450032 0.10590574 0.1753249
0.007027791 0.055084605 0.11006933 0.084786765 0.018293127 0.49613217 0.15570407 0.14167733
0.11164773 -0.019313136 0.08389908 -0.020911608 0.043003283 0.05519777 0.025817757 0.18454233
0.15057324 0.136297 0.0045900764 -0.22815675 0.012420992 0.10495247 0.116239384 0.34761438
-0.13284536 0.04251914 0.25029045 0.4356647 0.050446294 0.027504284 -0.0028038926 -0.046672028
0.013185955 0.15175098 0.08699273 -0.039968096 0.33423474 -0.01377028 0.075143084 0.038005356
0.030299569 0.11621559 0.11362922 0.11478387 0.016233351 0.002979852 0.12561421 0.04889439
0.09248187 -0.11064957 0.07507453 0.15886123 0.080009855 -0.282913 0.11770496 0.20933703
0.1144884 0.014948761 0.103251696 -0.051543307 0.008346847 0.038829222 0.04155135 0.07053962
0.019166121 0.10392337 -0.028145641 0.13841113 0.11099771 0.19880238 0.063630015 0.099842235
0.05200608 0.02275339 0.12535514 -0.08299345 -0.09942036 0.17265859 0.04838227 0.09741951
0.05525115 0.18294206 0.111171015 0.08124451 0.18000141 0.04143292 0.008503651 0.15730903
-0.03107049 0.103547916 0.06422248 0.015282026 -0.12704128 -0.30699736 -0.1947798 -0.096471556
-0.13923451 -0.43878698 -0.3792884 -0.30595395 -0.35869694 -0.39235547 -0.37224087 -0.42737496
-0.25965196 -0.5046905 -0.15440175 -0.23306881 -0.35149866 -0.42681605 -0.17549749 -0.6455052
-0.360764 -0.33985567 -0.15360458 0.09118823 -0.19241613 -0.24682757 -0.32026917 -0.24725643
-0.4829469 -0.41182488 -0.14300689 -0.23620504 -0.15457886 -0.15599014 -0.34384036 -0.14388733

final.linears.1.bias f4 [110]
00000000: 95c0 10bd 500f f23d bd57 82be 812a 733c
00000010: 94bd 93bd 1975 883e 9372 a2be f7da 6bbe
00000020: a1ef ebbd 3de7 77be b7bc 4b3d ce28 3fbe
00000030: 4434 81be 32f2 a3bc 67f9 3bbe 6c14 90be
00000040: 61ba a5bd baba 433e 28fb 3fbc 335b c43d
00000050: 5ffd 833d 159f 34bd 085c ac3d b050 c4bd
00000060: 0c70 f3be 86cb 79be a0a8 5cbe 36b8 c6bd
00000070: f777 4abd 4b55 88be 844f dcbe aa6b 79bc
00000080: 3199 a4bc 4020 7bbe 4650 42be 8af4 acbd
00000090: d65e 95be d82c 30bf 0f80 07be 7e8b a8bd
000000a0: 47ae 56be bf50 d5bd 1752 47be efeb 523d
000000b0: 292c afbd 1c33 a2bd 6e74 51be 7fa4 28bd
000000c0: cd0b 8fbe 3dd0 41be fa73 6ebd 7803 81be
000000d0: accd 5dbe 046a 32be b6f4 48be 7230 34be
000000e0: a9a6 8abe 2756 d6bd df5d 4fbe e82c 473d
000000f0: ad23 8abc d860 88be 95dc 9bbc 8800 ec3c
00000100: 3f47 85be a81b 81be da47 22bd c2e2 9a3d
00000110: 07c1 85bd b725 02be e228 18be 5722 e73d
00000120: 8213 89be a384 16be 6e07 2ebe 7e75 bb3d
00000130: d29d 70be 323d 3f3b 8287 c3bd de62 81be
00000140: b85c fabe fdd5 45be 102c cfbe befa e6bb
00000150: 9122 003e 6360 d1bd d23d b2be dee1 a7be
00000160: 1331 89be e421 8abd 4796 ce3d a828 0ebe
00000170: 3258 a4be 19c4 b9bd cc8b e5bd 8e11 5abe
00000180: 92ac 95bd 8e8f b3bc 1fed 21be 1dc6 02bd
00000190: 4326 8cbe 0094 debd 5ddf 3ebe 37f4 91bd
000001a0: 1f74 5f3e 4b3a 20be b0bb 51be a0c2 de39
000001b0: 6ebb 6ebe 42e0 a1be
-0.03533991 0.11819327 -0.25457564 0.014841677 -0.072138935 0.26651838 -0.31728038 -0.23032747
-0.11520315 -0.24209304 0.04974052 -0.1866791 -0.25235188 -0.020012949 -0.18356858 -0.2814058
-0.080921896 0.191142 -0.011717595 0.09587707 0.06444811 -0.044097025 0.08415991 -0.095857024
-0.47546422 -0.24394044 -0.215487 -0.09703104 -0.049430814 -0.26627573 -0.43029416 -0.015223423
-0.020092579 -0.24524021 -0.18975934 -0.084450796 -0.29173917 -0.68818426 -0.13232444 -0.08229731
-0.20964919 -0.10415792 -0.19464909 0.051494535 -0.08553345 -0.079199046 -0.2045457 -0.0411725
-0.2793869 -0.18927093 -0.058216073 -0.2519796 -0.21660489 -0.17423254 -0.196246 -0.17596605
-0.27080277 -0.10465651 -0.20250653 0.04862681 -0.016862715 -0.26636386 -0.01902608 0.028808847
-0.2603092 -0.25216413 -0.039619304 0.07562782 -0.06530958 -0.127097 -0.14859346 0.11285847
-0.26772696 -0.14699034 -0.16995022 0.09153269 -0.23497704 0.0029180762 -0.095473304 -0.25270742
-0.48898864 -0.19319911 -0.40463305 -0.0070489338 0.12513186 -0.102234624 -0.3481279 -0.3278951
-0.26795253 -0.067447454 0.10087257 -0.13882697 -0.32098538 -0.09070606 -0.11208305 -0.21295759
-0.07308306 -0.021919038 -0.15813111 -0.031927217 -0.2737294 -0.108680725 -0.18639894 -0.071266584
0.2182164 -0.15647237 -0.20481753 0.00042488147 -0.23313686 -0.31616408

final.linears.2.weight f4 [23, 110]
00000000: d4e8 bebd c036 0f3d 2a24 d33e b9cb 473d
00000010: 2d3f 893b 7d74 993c 57f9 68bd 8456 f5bc
00000020: ab2a d6bd ff98 5bbe 8e3c c63b 048e fd3d
00000030: 3d59 593d 78ff 853d 5bb7 a7bd 3013 febd
00000040: d3ef a03d f4b8 24bb 3c91 963d 61dd fab9
00000050: a792 0d3e d535 53be acef 58bb a7b0 e9bc
00000060: c77b 4ebc e61d e13d 5596 313e 418c f0bd
00000070: aad5 4cbe 56b5 5a3e d098 59be 4300 3fbd
00000080: 8ace 4e3e 8cd9 173e a877 7abd 3167 0e3e
00000090: 69ee 8b3e e0bb 45bc 38e6 1bbc 9151 babb
000000a0: dbab a53d 56e4 863d d565 5dbd 6fe4 c93d
000000b0: eefd 47bd 4161 19be d4d8 423c 5f10 adbd
000000c0: 85b2 093f 911a 10be 99aa 6dbd b9a1 adbe
000000d0: 0d96 cb3e 0307 083f f86e 343d 03e8 a53c
000000e0: 5d7d ed3c 863e 5bbe 52c3 cebd 10e5 0fbe
000000f0: d915 c1bc 4114 ebbe 2327 19be 4fe7 a03c
00000100: 71fc 433e faf4 c3bc 0057 41be d34c 543e
00000110: 410c af3d 133a 393e 398f e13d d41b 13bd
00000120: b245 adbe e474 553d d29c 5d3d cfd9 93bc
00000130: 10f7 d23e b9ec 9cbc e5e2 c1be a011 34be
00000140: 78a7 343c 11b1 833e 279b a5bd 3d92 92bd
00000150: b5ec 663d edf8 043d acbe 963e d5c5 b13e
00000160: 3de0 833d 30fa 64be bc76 9ebd 560d b8be
00000170: a6eb dbbd b6ef ab3b 74af aabd 8c5e 123d
00000180: a41d 203e de4a 973d 8111 b93c fe2f 6dbd
00000190: 68bd b2bd 1496 7c3e c4c6 1ebd e3a5 8e3d
000001a0: 9f85 963d 8767 c1be e577 b9be b56e 98bd
000001b0: 494c a9be f2a1 d6bc 9f32 513e 6a70 1dbc
000001c0: 0832 3fbe afe4 5e3d 5287 7fbd 2b5f 6a3c
000001d0: e68b f53d 191c c53e f884 aebd 520c 44bd
000001e0: 6f3c 89bd 7dff 313f 1759 44bd 2108 ddbc
000001f0: a594 c3be d8ac 663d baef 21be bcaa 81b9
00000200: c0ec 80bd 6c3c 2cbe d786 fd3d af89 00bd
00000210: e923 133c d3a9 98bd a65e ccbc 47fe e33d
00000220: 7904 13be 4bb8 5d3e 7cc2 bf3e 5ab0 1a3e
00000230: f738 84be ca7e 13bd 146a 22be 2ded 85bd
00000240: 6a13 43be da72 c63b f522 813e f618 b7bc
00000250: 3173 32bc 0924 933e 79d7 9f3e e685 253e
00000260: 15d1 50bd 4d3b 803d 9da1 ba3c 952d 55be
00000270: c406 263d 1ef0 263e 6e3b 7dbe ebfb a23e
00000280: f8dd 8ebe 702c 85be 4a2a 00be 53f7 8bbe
00000290: 1150 563e 4ca0 063e 3599 6a3c 299e b2bd
000002a0: 032c 97bd ae5f d8bb 8302 c73c eb64 223e
000002b0: 0c0f 073e 3312 663d f18c 763e 2108 1a3e
000002c0: e08b ae3c 7ce7 4a3d a082 2d3d 2aa4 0b3c
000002d0: 68fc 5abe d875 debc b6e0 f7bd 2678 0dbc
000002e0: 8e67 0cbe 175e d4bc 6d24 343e ecec dfbd
000002f0: c6b0 ac3d 769e 81be 21e2 19bc addb acbe
00000300: 3ef5 993d a194 34be dbe0 6c3d e66c cebb
00000310: 8c32 2abe 3474 8b3d f293 cdbd 8d36 32bd
00000320: b1a8 e93b 1e01 e4be b299 a33c ef4a 00bb
00000330: 6b35 b43d bc8b 823d 9272 7e3e 3d7b 03be
00000340: dac1 bcbc b409 abbd 2ded 8d3d 24e8 cd3c
00000350: 3955 f33d f6e2 a0bd 6432 45bd 9104 ec3e
00000360: 6dc1 11bf de01 dbbc 0a3e 87bc 7c81 123e
00000370: 150b 6e3d fae4 8dbe 1d8f 15be 2738 4cbc
00000380: 9805 2a3d 3eb9 683f 2391 5fbb 8065 82bd
00000390: f106 c73c e91b 483c 8a82 543b ee3d 673d
000003a0: 5a0c 1f3e 1da8 0fbd 1893 093e 742e 143e
000003b0: 8670 443b 4ddd d43d 5822 693e a507 84bd
000003c0: 0c12 8bbd 8a4d 56bd 1b49 113e e90b 003c
000003d0: eb3e be3e 7117 4abe ab49 22be 1e1a 68bd
000003e0: 3549 c73e bb38 813e 3287 b33e 6f42 263c
000003f0: a5cd d03d b607 c13c 6c9c a839 8401 bcbb
-0.09321752 0.034964323 0.41238528 0.04877827 0.0041884393 0.018732304 -0.056878414 -0.02994848
-0.10457357 -0.21445082 0.006049699 0.12380603 0.05306362 0.065428674 -0.08189269 -0.124060035
0.07858243 -0.0025134655 0.0735192 -0.00047848656 0.13825475 -0.20626004 -0.003310184 -0.028526617
-0.012602753 0.10992031 0.17342503 -0.11745501 -0.20003381 0.21358237 -0.212497 -0.04663111
0.20195976 0.14829081 -0.06114927 0.13906552 0.2733033 -0.012068719 -0.009515338 -0.005685993
0.080894195 0.065865204 -0.054052193 0.098580234 -0.04882615 -0.14978506 0.011892516 -0.08450388
0.53788024 -0.14072634 -0.058024023 -0.33912447 0.39762917 0.531357 0.04405114 0.020252233
0.028990442 -0.2141057 -0.10095848 -0.14052224 -0.023569988 -0.4591389 -0.14956336 0.019641547
0.19139268 -0.023920525 -0.18880844 0.20732431 0.08547259 0.1808856 0.11013646 -0.03591521
-0.33842236 0.05211343 0.054104634 -0.018048195 0.4120412 -0.019155847 -0.3786842 -0.17584848
0.011026256 0.25721028 -0.080862336 -0.07156799 0.056378085 0.032463957 0.29442346 0.34721246
0.064392544 -0.22361064 -0.077374905 -0.35947675 -0.10738306 0.0052470816 -0.08334246 0.0357347
0.15636307 0.07387327 0.022591354 -0.057907097 -0.087275326 0.24666625 -0.038763776 0.06965234
0.07349705 -0.37774298 -0.36224285 -0.07442991 -0.33066013 -0.026200268 0.20429467 -0.009609321
-0.18671429 0.05441731 -0.06238491 0.014304916 0.11989574 0.38498 -0.085214555 -0.047863312
-0.0670098 0.6953047 -0.047936525 -0.026981415 -0.38199344 0.05631718 -0.15814105 -0.00024732004
-0.062951565 -0.16819924 0.12379234 -0.031381305 0.00898073 -0.074542664 -0.024947476 0.11132484
-0.14357175 0.21652333 0.37453067 0.15106335 -0.2582471 -0.036009587 -0.15860778 -0.06539378
-0.19050375 0.006056172 0.25221983 -0.02235077 -0.010891722 0.2873843 0.3121908 0.1616436
-0.050980646 0.06261311 0.022782141 -0.2081817 0.040533796 0.16302535 -0.24729702 0.31832823
-0.27903724 -0.26010466 -0.12516132 -0.2733713 0.2092898 0.13147086 0.014318754 -0.08721573
-0.073814414 -0.006603203 0.02429319 0.1585881 0.13189334 0.0561697 0.24077202 0.15042163
0.021306932 0.049537167 0.0423609 0.0085230265 -0.21385348 -0.027155802 -0.12103407 -0.008634603
-0.13711378 -0.025923772 0.1759202 -0.10933861 0.08432154 -0.2531621 -0.009392292 -0.3376135
0.07517479 -0.17634822 0.057831626 -0.006299603 -0.16620845 0.06809273 -0.10037984 -0.043509055
0.0071307053 -0.44532102 0.019970749 -0.0019575914 0.08799251 0.063743085 0.24848393 -0.1283998
-0.023041654 -0.0835146 0.06930003 0.025135107 0.11881489 -0.07855789 -0.04814376 0.46097234
-0.5693577 -0.026734289 -0.016509075 0.14307207 0.058116037 -0.27713758 -0.14605375 -0.01246456
0.04150924 0.9090766 -0.0034113608 -0.06367016 0.024295302 0.012213686 0.003242644 0.056455545
0.15532055 -0.035072435 0.13435018 0.14470845 0.0029974296 0.10393772 0.22767007 -0.064467706
-0.067905515 -0.05232004 0.14188044 0.00781534 0.37157378 -0.19735505 -0.15848415 -0.056665532
0.3892304 0.25238594 0.35064083 0.010147675 0.101954736 0.023563247 0.0003216 -0.0057374854

final.linears.2.bias f4 [23]
00000000: ec87 88bb 36af 09bb 495b 14be 4d18 f03c
00000010: 0ba2 99bd b3be 82bc 366a 953c 6181 b6bc
00000020: 079b 463b 6f37 b73c c6b6 e03c bf11 89bc
00000030: 4e21 953c ca2e 303a 5079 c23c 2a8f 453d
00000040: 2caa 1b3d dd24 58bc d845 aabb 094d 29bd
00000050: 8e80 a83c 89b1 bdbc 6ed7 3f3d
-0.004166594 -0.0021008975 -0.14487948 0.029308463 -0.0750161 -0.015960073 0.018239122 -0.02227849
0.0030304806 0.0223653 0.027430903 -0.016732095 0.018204357 0.00067208393 0.023739487 0.048232235
0.038004085 -0.013192383 -0.0051963143 -0.041333232 0.020569112 -0.023155944 0.04683631

layers.0.attn.0.gnn_q.weight f4 [23, 16]
00000000: a67a 933b aba5 1035 5365 1238 3c6b 153d
00000010: 5e07 843a 1e4c 4e3b c9d1 1bba e8b4 81b8
00000020: 2e8b 2732 0e19 1dbb 97fe 243d 7dcd 663c
00000030: 135c fb3a b95b f33a 54c6 86b5 2901 32bd
00000040: 723e ce3a bc75 edb3 c7d4 28b5 1023 9d3b
00000050: 7af0 6f3b b625 093c 0e46 f4ba 58af afb8
00000060: ce07 17af a4b1 e6bb 767c 80bc 45ad d13b
00000070: bcee d03b 9241 c33b 8941 3437 8661 a03c
00000080: d0ae 97bb a594 eb35 30e0 8ab5 bdc6 493d
00000090: 20fd f2bb 07f2 6ebc 5582 db3b c675 a9bb
000000a0: 0a42 beb2 02d7 663c 3dfc 673e ccf1 703c
000000b0: 8d11 9ebc b663 1dbc c81c feb5 3262 a6be
000000c0: 3010 c63b 607e 8336 383c d734 8400 f33c
000000d0: ade5 ebbb bd66 8ebc 8726 593b bacb 3e3a
000000e0: b828 e132 ef6a 763c 30ca 883e 99bf 05b9
000000f0: 8e0a 8cbc 29d4 51bc 3fef cd37 8364 d9be
00000100: eaef 933b e8fd beb6 52bd 47b6 7681 413d
00000110: d439 983b 919f 833c 2723 09bb a249 e839
00000120: 3089 4830 92f9 75bc 5fb2 bdbd 8fb8 af3c
00000130: b18f aa3c 73eb 613c a4dd efb7 a4cf 123e
00000140: 1cd9 843b 5f70 b235 aed8 4cb7 a162 8d3b
00000150: 03fa 69ba 7e21 d5ba 30ca 1a3a f886 c8b9
00000160: fe7f ca30 8581 cd3a 1ad5 19bd a8e1 803a
00000170: d396 2cbb 57db 10bb b274 9d36 b092 9b3d
00000180: 3bb1 a2ba 8055 2e35 49f7 03b7 d5fe 12bd
00000190: 4410 23ba 2bc7 20ba d6a3 423a dc8f 27ba
000001a0: aea5 b3b2 b043 5338 ac6e 24bd c374 21bc
000001b0: cc70 403a 0c9b c13a 2227 a4b7 a3b3 223d
000001c0: 5e99 97b9 cad3 7c34 63cd 1ab7 40a9 c0bb
000001d0: 4d98 11bb 9aa6 afbb 92a0 4e3a 1562 043a
000001e0: 3738 a9b1 32a2 403b 2c4c bcbb 0957 8ebb
000001f0: b8ad 7fbb c43d 98bb 6cff 4337 a09d 6c3c
00000200: 981d cbb9 53ad 6635 2566 15b7 b75b 5a3c
00000210: 60bb e63a 13fd 923b 0c3b a0b9 bbbb 5bba
00000220: e70d 89b1 7aeb 7abb 72ff b7ba c347 113c
00000230: 1df9 993b bc16 b03b 5870 70b7 057b ff3b
00000240: e2fc 1e3b d6e7 3636 6cc9 0fb7 f0a8 903c
00000250: 18f4 10ba 1c68 96ba 8dd1 c23a 75b4 baba
00000260: 1c92 ab30 b6da e53a a58b f83c 0693 dd3b
00000270: dccb 55bb d943 0c39 472d 6fb7 e564 cfbc
00000280: 54d7 14bc 4073 8bb4 71a0 edb6 5e51 db3a
00000290: fe13 913b 9c13 3d3c f1fb d5ba 32e5 0aba
000002a0: f9e9 2bb2 5cc4 3dbc 904d 16bd c296 1d3c
000002b0: e4d6 563c 1cac 313c 9388 cbb7 d764 663d
000002c0: 79d8 a639 def4 7a35 f0cc 27b6 ff43 f53a
000002d0: a35e 95bb 2821 26bc c394 0c3b fded a139
000002e0: a7af 4232 8c22 0b3c 93ba af3c d1f1 dabb
000002f0: 1022 24bc c38d dabb 68f8 fb37 217f c8bc
00000300: a5b9 8bbb 23f0 d335 d6e5 ad37 6cab e4b9
00000310: 369e 543a cc08 aa3a 0788 8d39 585e 9cba
00000320: 3aad a4b1 406b 20ba ae0c a83b 340d 463a
00000330: 2528 4b39 d47d 123b 4cea 5eb5 0d9b 56bc
00000340: afe3 333b 7e7d 99b5 1fc1 08b7 0384 46bc
00000350: fd99 65bb 10ff 07bc e3b5 ac3a 5d14 123a
00000360: b97a 6331 6185 c23b 4fda 6bbc 09b3 e8bb
00000370: 3f01 e0bb 227b cdbb cf5a 3537 fbd1 af3c
00000380: b484 98bb 92ee 0fb6 6a11 3ab7 5578 ffbc
00000390: 118b 25ba 4378 14bb a4c9 1a3a bc3e 1b39
000003a0: 0442 8bb1 b527 d13a 3e00 bdbc 3e29 46bc
000003b0: 123a e9ba 74ad cfba ec06 50b7 f25d e33c
000003c0: cd40 95b8 b215 c3b5 1ef0 98b7 3cf5 fdba
000003d0: c02a b1b9 c65c 9dba a2bb ff39 f1a2 04ba
000003e0: 0369 15b2 9598 e439 1137 183b a02d 88b8
000003f0: 4e16 29ba 168a c839 3efc 00b7 82ce 9f3b
0.004500705 5.388526e-07 3.4903478e-05 0.03647922 0.0010072996 0.0031478475 -0.0005944041 -6.184896e-05
9.752325e-09 -0.0023971233 0.04028186 0.014087078 0.001917722 0.0018566764 -1.0041499e-06 -0.043458138
0.0015735163 -1.1057588e-07 -6.289451e-07 0.0047954395 0.003661184 0.008370807 -0.00186366 -8.3773106e-05
-1.3736143e-10 -0.0070402194 -0.015684348 0.006398829 0.0063761156 0.0059587443 1.0744095e-05 0.019577753
-0.0046289936 1.7552126e-06 -1.0347048e-06 0.049261797 -0.0074154288 -0.014584071 0.0066988864 -0.0051715104
-2.2148942e-08 0.014089348 0.22654815 0.014706086 -0.019295478 -0.0096062925 -1.8932851e-06 -0.32496792
0.00604441 3.918816e-06 4.0090686e-07 0.029663332 -0.0071990103 -0.017382974 0.0033134536 0.00072782824
2.6211964e-08 0.015040143 0.26716757 -0.00012755244 -0.017094877 -0.012806931 2.4549312e-05 -0.42459497
0.004514684 -5.692e-06 -2.976351e-06 0.047242604 0.0046455655 0.016067298 -0.0020925493 0.0004430535
7.295453e-10 -0.0150131155 -0.09262537 0.02145031 0.02082047 0.013789046 -2.859423e-05 0.14337021
0.0040542018 1.3294738e-06 -1.2209797e-05 0.004314736 -0.0008925499 -0.0016260592 0.0005904762 -0.00038247532
1.4733812e-09 0.0015678859 -0.037556745 0.0009832876 -0.0026335015 -0.0022103393 4.6925497e-06 0.07596338
-0.0012412438 6.494447e-07 -7.865784e-06 -0.035887558 -0.00062203803 -0.0006133194 0.0007424926 -0.0006391981
-2.0913685e-08 5.036936e-05 -0.040144607 -0.009854498 0.0007341027 0.0014770939 -1.9568546e-05 0.039722096
-0.00028915232 2.3546377e-07 -9.226936e-06 -0.005879551 -0.0022216022 -0.0053604366 0.0007882203 0.0005050016
-4.9249382e-09 0.002939355 -0.005746385 -0.0043438715 -0.0039013457 -0.004646035 1.1682376e-05 0.014441878
-0.00038741226 8.5933897e-07 -8.904874e-06 0.013327531 0.001760345 0.004485735 -0.00030561571 -0.0008382161
-3.9888053e-09 -0.0038287328 -0.0014037921 0.008867207 0.004698886 0.005373804 -1.4331272e-05 0.0077966475
0.0024259617 2.725506e-06 -8.570361e-06 0.01765868 -0.0005529537 -0.0011475119 0.0014863476 -0.0014244454
1.2483414e-09 0.0017536494 0.030340025 0.0067619113 -0.003262273 0.00013376716 -1.4256052e-05 -0.025316665
-0.009084541 -2.5974623e-07 -7.0818282e-06 0.0016732623 0.004427432 0.01154032 -0.0016325695 -0.0005298435
-1.0006709e-08 -0.01158246 -0.036695063 0.009618463 0.013112757 0.010844257 -2.4263083e-05 0.056248512
0.00031823272 9.3488586e-07 -2.5004229e-06 0.0018712281 -0.0045584007 -0.010139741 0.0021450974 0.00030885628
1.1332225e-08 0.008492123 0.02145127 -0.006681659 -0.010017887 -0.0066697313 3.0037205e-05 -0.024474682
-0.004264074 1.5790614e-06 2.0730233e-05 -0.00043615268 0.00081107335 0.0012972592 0.00026994964 -0.0011929972
-4.7927218e-09 -0.0006119497 0.0051284647 0.0007555068 0.00019374544 0.0022352831 -8.304239e-07 -0.01309849
0.0027448942 -1.1435911e-06 -8.151196e-06 -0.012116435 -0.003503441 -0.008300558 0.0013176765 0.00055724924
3.3102607e-09 0.00593631 -0.014395311 -0.007101421 -0.006836086 -0.006270782 1.0809584e-05 0.021462431
-0.0046544913 -2.1447527e-06 -1.10905185e-05 -0.031185308 -0.0006314973 -0.002265469 0.00059046806 0.00014805322
-4.0529375e-09 0.0015957268 -0.023071405 -0.012094794 -0.0017793796 -0.001584454 -1.2399378e-05 0.027754758
-7.116944e-05 -1.4534946e-06 -1.8231625e-05 -0.0019375454 -0.00033791922 -0.0012005798 0.00048777187 -0.00050596806
-8.696818e-09 0.0004360123 0.0023226182 -6.493484e-05 -0.0006450162 0.00038249855 -7.688124e-06 0.0048769126

layers.0.attn.0.gnn_q.bias f4 [16]
00000000: 3ea0 063b 1b9c 5ab6 bcb1 4b37 0eec c83d
00000010: af65 893b af70 403c 527b 85bb 5dd5 6c3b
00000020: cd96 2a32 0125 47bc 8ebe 763d 1ce7 ad3c
00000030: f24d 9f3c 24e9 193c b89a 2537 5fcb acbd
0.002054229 -3.2575397e-06 1.2141125e-05 0.09810649 0.00419303 0.011745616 -0.004073539 0.0036137917
9.9295905e-09 -0.0121548185 0.06024032 0.021228366 0.019446347 0.009393964 9.87079e-06 -0.084372275
