checkpoints/cyp1a2_veith_33_train1_neg/Aug31-05:17:38_600.pth (torch, 471814 bytes, 294 tensors)

layers.0.weight f4 [24, 16]
1.2466279 0.029728223 1.1279203 1.242947 0.6735832 0.027948178 0.2080957 0.19502695
0.11946133 -1.6130726 -0.096259184 -0.07057671 0.18077146 0.80854696 0.10102283 0.18297172
0.78214926 -0.10359158 -0.063120574 -0.056156155 -0.27534157 0.108770765 -0.67625266 -0.09499198
-0.031523373 -0.9762831 -0.087350056 -0.82402426 -0.07651375 -0.3136658 0.8718202 -0.7100225
0.1172255 -0.032409668 0.0044115805 0.053027 -0.05261742 0.05610164 0.027908169 0.10055067
-0.061347093 -0.18364887 0.05444724 0.018415958 0.013110489 -0.06381061 -0.00067888806 -0.037861396
0.13325652 -0.010938223 0.012440459 0.04899471 -0.0458077 0.05475456 0.018293796 0.08593554
-0.02578126 -0.18224889 0.037623223 0.029398227 -0.013424956 -0.04847675 -0.01155828 -0.022743557
0.10391905 0.06403452 0.024768708 0.03712307 -0.04099594 0.05090161 0.01633867 0.013754116
-0.0042685904 -0.15124342 -0.02999164 0.03598845 -0.040284384 -0.056787584 -0.0072692544 -0.018309424
0.046219185 0.0075378204 0.030066226 0.038567644 -0.029434433 0.008433944 0.025838269 0.013719512
-0.009684083 -0.077255055 -0.0037529748 -0.03518685 -0.008224639 -0.03823942 0.025180599 -0.00018102967
0.8671482 -0.23754545 -0.6179818 -0.69073546 -0.95942247 0.21632503 0.32706004 -0.16345231
0.05949131 -1.0947962 -0.1974235 -1.7435831 -0.19930387 -1.1174935 1.8469472 0.37069866
0.07165652 -0.08390037 -0.9391603 -1.0224473 -0.5825293 0.04700276 -1.1423012 -0.23165312
-0.15744478 -0.09628865 0.01787497 -0.3527999 -0.1539817 -0.6497985 0.37689435 -1.2335697
0.7904568 -0.09354159 0.42099005 0.46238104 -0.30817607 0.10422118 -0.33274862 -0.037281755
0.02888385 -1.0110053 -0.10315261 -0.82882977 -0.031034619 -0.40908524 0.8746451 -0.3555727
0.18528304 -0.010153646 0.07437222 0.090922 -0.057575185 -0.024190577 -0.025248045 -0.029018441
-0.005993681 -0.24715166 -0.021991171 0.0487913 -0.004421366 -0.07648302 -0.067421 -0.027578117
0.13100007 -0.010035517 -0.17925334 -0.18872404 0.23512195 0.012020111 -0.16359057 0.0065110056
-0.02144531 -0.18581222 -0.016001219 -0.068540365 0.029582065 0.26595578 0.10818183 -0.16697854
-0.9622969 -0.018061075 -0.25183985 -0.29389766 0.12202958 -0.003936883 0.22209468 0.007419717
-0.02403323 1.2354085 0.027535543 -0.23991609 0.008195538 0.15200472 0.26828554 0.21726598
-0.0893476 0.1216775 0.42410848 0.4621863 -0.18375272 -0.11847564 -0.6245309 -0.0695395
-0.08746978 0.08563189 0.1153387 1.0658742 -0.005236678 -0.22667621 -1.1226765 -0.65311277
0.21281813 0.12485882 0.70700264 0.7623208 0.6658256 -0.09942488 -0.10831891 0.1430207
0.0020024832 -0.31693923 0.061761115 0.91877645 0.16298078 0.7955952 -0.94852626 -0.14297202
-1.352423 0.16726422 0.13547696 0.14261796 -0.59492874 -0.20885013 -1.7602091 -0.21110602
-0.29053628 1.7206982 0.2532827 1.260931 -0.09775035 -0.69817764 -1.3313736 -1.9079142
-0.036401242 -0.0019351089 -0.19587207 -0.18581386 -0.18542717 -0.017795546 -1.40301 -0.1606005
-0.17221518 0.008034166 0.08003134 0.03346643 -0.05183204 -0.2086796 -0.028578348 -1.5496969
00000000: 8191 9f3f 9a88 f33c b15f 903f e318 9f3f
00000010: f36f 2c3f 94f3 e43c 0a17 553e 25b5 473e
00000020: 24a8 f43d 2a79 cebf 8923 c5bd 868a 90bd
00000030: 271c 393e effc 4e3f 0fe5 ce3d f05c 3b3e
00000040: ef3a 483f d327 d4bd 5c45 81bd ff03 66bd
00000050: 92f9 8cbe 35c3 de3d e51e 2dbf 288b c2bd
00000060: a71e 01bd b0ed 79bf 96e4 b2bd 41f3 52bf
00000070: 3eb3 9cbd ce98 a0be 9c2f 5f3f 09c4 35bf
00000080: ec13 f03d 00c0 04bd 058f 903b d732 593d
00000090: 5d85 57bd d5ca 653d ac9f e43c 82ed cd3d
000000a0: 1747 7bbd 730e 3cbe 1204 5f3d 10dd 963c
000000b0: 60cd 563c 23af 82bd 68f7 31ba 8d14 1bbd
000000c0: 6674 083e 3c36 33bc 11d3 4b3c adae 483d
000000d0: dba0 3bbd 5146 603d dfdc 953c f9fe af3d
000000e0: 3933 d3bc 749f 3abe cf1a 1a3d 8dd4 f03c
000000f0: 59f4 5bbc 8e8f 46bd f15e 3dbc b250 babc
00000100: 83d3 d43d 8824 833d bfe7 ca3c 5c0e 183d
00000110: 5ceb 27bd 357e 503d add8 853c f258 613c
00000120: 88df 8bbb 8edf 1abe 07b1 f5bc a068 133d
00000130: 3d01 25bd 199a 68bd ed32 eebb a5fd 95bc
00000140: 5450 3d3d d2ff f63b 724d f63c 1bf9 1d3d
00000150: 7b20 f1bc 862e 0a3c c7aa d33c cec7 603c
00000160: fda9 1ebc e637 9ebd 78f4 75bb 1620 10bd
00000170: a3c0 06bc f0a0 1cbd 8b47 ce3c c8d2 3db9
00000180: 6dfd 5d3f 1d3f 73be 0e34 1ebf 0ad4 30bf
00000190: b69c 75bf 4f84 5d3e 6a74 a73e 0b60 27be
000001a0: 29ad 733d 4822 8cbf 6329 4abe bb2d dfbf
000001b0: 5016 4cbe 070a 8fbf c468 ec3f 37cc bd3e
000001c0: a7c0 923d f5d3 abbd cf6c 70bf 8edf 82bf
000001d0: a420 15bf f785 403d ed36 92bf 7a36 6dbe
000001e0: 3439 21be fc32 c5bd 876e 923c 30a2 b4be
000001f0: 61ad 1dbe 3259 26bf 4cf8 c03e 9de5 9dbf
00000200: 605b 4a3f bc92 bfbd 028c d73e 35bd ec3e
00000210: 41c9 9dbe ea71 d53d 075e aabe c1b4 18bd
00000220: d39d ec3c 9f68 81bf ad41 d3bd 302e 54bf
00000230: 503c febc 9f73 d1be bee8 5f3f a00d b6be
00000240: d6ba 3d3e 7a5b 26bc 7650 983d 5035 ba3d
00000250: f5d3 6bbd 512b c6bc fdd4 cebc 15b8 edbc
00000260: a466 c4bb 5315 7dbe d426 b4bc 63d9 473d
00000270: 1be1 90bb 21a3 9cbd 0514 8abd 81eb e1bc
00000280: e224 063e 026c 24bc 308e 37be e040 41be
00000290: cfc3 703e 00f0 443c 4984 27be 465a d53b
000002a0: 13ae afbc 8f45 3ebe fd14 83bc e45e 8cbd
000002b0: 1656 f23c 5b2b 883e 6f8e dd3d 6cfc 2abe
000002c0: 1759 76bf d2f4 93bc 27f1 80be c179 96be
000002d0: a5ea f93d f800 81bb ca6c 633e 1921 f33b
000002e0: 56e1 c4bc de21 9e3f 3892 e13c 90ac 75be
000002f0: 9446 063c 20a7 1b3e b95c 893e f97a 5e3e
00000300: e0fb b6bd 0e32 f93d bf24 d93e afa3 ec3e
00000310: ac29 3cbe 5ba3 f2bd 42e1 1fbf ba6a 8ebd
00000320: 5b23 b3bd c65f af3d b236 ec3d 916e 883f
00000330: 7098 abbb cf1d 68be ddb3 8fbf 6632 27bf
00000340: ffec 593e fbb5 ff3d 20fe 343f 7527 433f
00000350: 8c73 2a3f 469f cbbd 4ed6 ddbd 0574 123e
00000360: 183c 033b dc45 a2be 39f9 7c3d ef34 6b3f
00000370: 6fe4 263e 21ac 4b3f 9ed2 72bf 4267 12be
00000380: 321c adbf 5047 2b3e 79ba 0a3e 710a 123e
00000390: 404d 18bf cfdc 55be 884e e1bf 2d2c 58be
000003a0: 2cc1 94be d73f dc3f 45ae 813e 3066 a13f
000003b0: 5631 c8bd c5bb 32bf 736a aabf 8836 f4bf
000003c0: 7819 15bd 7ba3 fdba b092 48be fd45 3ebe
000003d0: 9fe0 3dbe f7c7 91bc d595 b3bf 7574 24be
000003e0: 2d59 30be bca1 033c 79e7 a33d 1814 093d
000003f0: d54d 54bd 1bb0 55be 241d eabc 785c c6bf

layers.0.bias f4 [16]
-0.24134763 0.0011902117 0.24103333 -0.44132215 0.24709894 -0.049865883 0.20314243 0.90376055
-0.63105404 -0.24664809 -0.24252033 0.22994861 -0.15214902 -0.35099405 0.3400817 -0.30317003
00000000: d523 77be e100 9c3a 71d1 763e faf4 e1be
00000010: 8107 7d3e 2b40 4cbd 9204 503e da5c 673f
00000020: c28c 21bf 5191 7cbe 4057 78be a677 6b3e
00000030: f4cc 1bbe 7eb5 b3be 301f ae3e 1a39 9bbe

layers.1.weight f4 [16, 16]
-0.41819644 0.11665499 0.051459607 0.05577981 -0.39338472 0.56735367 -0.0031429164 0.014176922
0.18711986 0.37317717 -0.07194724 -0.2672055 -0.2271163 -0.024911031 -0.87557817 -0.20160584
-0.1100042 1.0726706 0.19130786 0.0033051972 -0.45985222 -0.6562245 -0.59288204 0.5836394
-0.4043116 0.09281716 -0.62826896 -0.6643479 0.32799178 0.31424958 0.40231264 0.15991114
0.2895126 -0.063304685 0.12258831 -0.6193336 0.3676036 -0.57460177 -0.15761346 -0.16322356
0.15378769 0.34860247 -0.31413493 0.16498512 -0.03086409 -0.15240704 0.005924377 0.019541925
-0.28986904 -0.1681001 -0.051278375 -0.03449807 -0.33911887 -0.19275147 0.06352652 -0.07079379
-0.034359355 0.34654117 -0.4250844 -0.087803796 -0.07569409 0.10867053 -0.1398272 -0.0671013
0.32638082 -0.1921848 0.21555644 -1.238709 0.39288154 -0.7051131 -0.2526751 -0.33333567
0.07400216 0.73818254 -0.2411071 0.17659186 0.00063109584 -0.110909164 0.12089733 0.08312972
-0.09494632 -0.9641294 -0.59193146 -0.1338169 0.32252264 0.5593076 0.6197088 -0.29600716
0.42760512 0.10976471 0.49574128 0.56845146 -0.09622558 -0.3533811 -0.47001666 -0.30750284
0.37236002 0.1266328 0.07082769 -0.9011867 0.2820628 -0.42666036 -0.31368968 -0.2920804
1.0684103 0.3092898 0.05964555 -0.0470769 0.19782624 -0.33463362 -0.35133338 0.09938378
-0.12957926 0.22117293 -0.6857546 -0.17934535 0.122530386 -0.27026993 0.49938667 0.90712184
-0.42460966 0.87855065 -0.9905785 -0.17851475 -0.22947034 0.04309301 -0.36467275 -0.041065827
0.12524322 -0.11578095 -0.98053825 -1.1819122 0.24601209 -0.77910244 0.9596832 0.4370594
0.5623755 0.49409267 -0.027003257 0.26793426 0.59478176 -0.18326457 0.099135436 0.06593551
-0.37731585 -0.12537391 -0.11050533 0.32638147 -0.33136627 0.29489857 0.14687875 0.06504452
-0.82918787 0.050676256 -0.28753334 0.024006963 -0.25026715 0.20138249 0.12903392 -0.11517864
-0.05943217 0.6468711 0.749888 -0.0016461441 -0.42059338 -0.7320657 -0.7095841 -0.22324759
-0.3687936 -0.272078 -0.3951665 -0.33326945 0.28887615 0.31996542 0.6230396 0.29267612
0.36074555 -0.30807802 -0.12365055 -0.19710769 0.3834514 -1.1007614 -0.04658642 -0.1295291
-0.4474059 -0.159456 -0.5440945 0.33376494 0.028438503 -0.024476802 0.8490714 0.21784097
0.051811207 0.75632936 -1.1087067 -0.8196017 -0.13728982 -1.0064979 -0.041510154 0.8740356
0.1735313 0.53108394 -0.5159545 -0.47877276 0.4919048 0.009908643 0.23443577 0.13895746
-0.3066716 -0.3204836 0.103212066 -0.4539836 -0.3103778 -0.509576 0.114209265 -0.14422593
-0.09225595 1.0041242 -0.9474555 -0.07180199 -0.17890503 0.053513475 -0.14780782 -0.17570396
0.3428017 0.38843256 0.12855074 -0.394655 0.25128677 0.35203487 -0.14477172 -0.09675302
0.9185911 0.039465703 0.839677 -0.062584445 0.17938435 -0.29645032 -0.38155666 0.104230665
-0.37753132 -0.059067734 -0.06990969 0.0059058624 -0.35471734 0.3206251 -0.13591677 -0.024074027
0.406733 0.61454517 -0.1674505 -0.21788691 -0.25934142 -0.0006452291 -0.978167 -0.32945898
00000000: d81d d6be d0e8 ee3d 4fc7 523d 5f79 643d
00000010: b969 c9be 173e 113f 63f9 4dbb 5246 683c
00000020: 599c 3f3e 1411 bf3e 1359 93bd 29cf 88be
00000030: 2d91 68be 3812 ccbc e425 60bf c371 4ebe
00000040: e249 e1bd 454d 893f 35e6 433e 029c 583b
00000050: c071 ebbe 54fe 27bf 1ec7 17bf 6469 153f
00000060: ee01 cfbe ec16 be3d 3cd6 20bf b412 2abf
00000070: 8aee a73e 52e5 a03e ecfb cd3e bfbf 233e
00000080: ff3a 943e e3a5 81bd 940f fb3d a68c 1ebf
00000090: 8a36 bc3e 1a19 13bf 6c65 21be 1424 27be
000000a0: 857a 1d3e 067c b23e 4bd6 a0be dcf1 283e
000000b0: b0d6 fcbc 9710 1cbe 4721 c23b 6316 a03c
000000c0: b769 94be 6f22 2cbe 4609 52bd d94d 0dbd
000000d0: fda0 adbe a460 45be 311a 823d 56fc 90bd
000000e0: 65bc 0cbd d86d b13e aaa4 d9be 7ad2 b3bd
000000f0: 8105 9bbd a88e de3d dd2e 0fbe 686c 89bd
00000100: 631b a73e 18cc 44be d4ba 5c3e 048e 9ebf
00000110: c527 c93e 4b82 34bf a15e 81be f9aa aabe
00000120: 728e 973d 88f9 3c3f c8e4 76be 7fd4 343e
00000130: 2070 253a 5824 e3bd 0599 f73d ea3f aa3d
00000140: 3773 c2bd 2fd1 76bf d288 17bf 4c07 09be
00000150: b021 a53e c82e 0f3f 3ca5 1e3f 408e 97be
00000160: 0fef da3e 52cc e03d cdd1 fd3e 0986 113f
00000170: eb11 c5bd 5eee b4be 06a6 f0be 0371 9dbe
00000180: f9a5 be3e 07ac 013e 1c0e 913d 2cb4 66bf
00000190: 896a 903e 3a73 dabe ef9b a0be 908b 95be
000001a0: abc1 883f 3c5b 9e3e e44e 743d b5d3 40bd
000001b0: f692 4a3e 1955 abbe f8e1 b3be b989 cb3d
000001c0: 6db0 04be 287b 623e 9d8d 2fbf 4fa6 37be
000001d0: 36f1 fa3d d260 8abe 9caf ff3e 2339 683f
000001e0: 7066 d9be b2e8 603f 8d96 7dbf 92cc 36be
000001f0: 46fa 6abe 4c82 303d 63b6 babe a434 28bd
00000200: c23f 003e 901e edbd 8e04 7bbf e648 97bf
00000210: 98ea 7b3e 4273 47bf ccad 753f 40c6 df3e
00000220: d7f7 0f3f b7f9 fc3e ef35 ddbc ae2e 893e
00000230: 9e43 183f b5a9 3bbe 8507 cb3d 3209 873d
00000240: 8b2f c1be 0562 00be 9e50 e2bd 791b a73e
00000250: d7a8 a9be f2fc 963e 6267 163e 1036 853d
00000260: a845 54bf e891 4f3d 9237 93be 40aa c43c
00000270: 0423 80be 3637 4e3e 7821 043e c7e2 ebbd
00000280: 266f 73bd 5899 253f a9f8 3f3f 6ec3 d7ba
00000290: 0458 d7be a868 3bbf 4ea7 35bf 049b 64be
000002a0: 84d2 bcbe cf4d 8bbe 4353 cabe 4ba2 aabe
000002b0: 93e7 933e 82d2 a33e 867f 1f3f a5d9 953e
000002c0: a4b3 b83e 67bc 9dbe 803c fdbd 99d6 49be
000002d0: be53 c43e c0e5 8cbf 67d1 3ebd 47a3 04be
000002e0: 6312 e5be 6f48 23be c749 0bbf 3de3 aa3e
000002f0: ddf7 e83c 9383 c8bc be5c 593f b411 5f3e
00000300: fd37 543d cd9e 413f 1aea 8dbf 6bd1 51bf
00000310: b495 0cbe ecd4 80bf 8d06 2abd ccc0 5f3f
00000320: 30b2 313e 1ef5 073f 9815 04bf b421 f5be
00000330: f2da fb3e dc57 223c ee0f 703e dd4a 0e3e
00000340: 0f04 9dbe 6d16 a4be d960 d33d 8a70 e8be
00000350: d7e9 9ebe 9373 02bf 8ce6 e93d f6af 13be
00000360: b0f0 bcbd 2487 803f 728c 72bf ec0c 93bd
00000370: e132 37be f230 5b3d ef5a 17be bdeb 33be
00000380: b483 af3e a2e0 c63e cea2 033e 3810 cabe
00000390: a9a8 803e ea3d b43e 0a3f 14be 7326 c6bd
000003a0: c928 6b3f caa6 213d 12f5 563f 462c 80bd
000003b0: 88b0 373e 56c8 97be 655b c3be e376 d53d
000003c0: c94b c1be 02f1 71bd d02c 8fbd f785 c13b
000003d0: 839d b5be f928 a43e c42d 0bbe e536 c5bc
000003e0: 4f3f d03e d552 1d3f 2578 2bbe bf1d 5fbe
000003f0: 66c8 84be 9824 29ba 2769 7abf d9ae a8be

layers.1.bias f4 [16]
-0.26612416 -0.23282154 -0.1893297 -0.019246856 -0.86045873 -0.058478475 0.30677766 -0.1649782
0.026348557 0.08976239 -0.12553494 -0.08197139 0.23948398 0.35512778 -0.019076671 -0.21897368
00000000: 6d41 88be c568 6ebe a5df 41be 95ab 9dbc
00000010: 0647 5cbf 2087 6fbd f611 9d3e 0cf0 28be
00000020: eed8 d73c 58d5 b73d 3b8c 00be 9ee0 a7bd
00000030: 4a3b 753e 4fd3 b53e ae46 9cbc a33a 60be

final.linears.0.weight f4 [112, 56]
0.0017017035 0.0050906776 1.4893186 0.9477291 -3.1079233 0.22001782 0.020772927 -0.015683409
0.02690364 0.30117446 0.13136974 0.0024233973 -0.014601629 0.009990192 -0.017612744 -0.022314677
0.0062229363 -0.024286108 0.022566993 -0.0024038278 0.034923118 -0.0015459319 -0.011677029 -0.014085927
0.0034674914 0.04776449 0.011432486 -0.019615937 0.0059232754 0.010814772 0.002492225 0.23204842
-0.19405629 0.00023144571 -0.09598109 0.007953505 -0.1318968 0.004251326 0.026746739 -0.0012902137
0.14869371 -0.024551045 -0.0034984574 0.07735286 -0.09377368 0.096050754 0.028753985 0.10807345
-0.108249605 0.080062486 -0.09128193 -0.07259454 -0.18639065 0.022914242 -0.108649105 -0.07212596
0.24672894 0.43544003 0.07826814 0.07001397 0.048394494 -0.055050693 -0.30173966 -0.29557347
0.123303555 0.07841163 0.17156178 0.30294174 -0.11710929 0.16330896 -0.21205506 0.14394991
0.035538614 -0.36928165 0.13910384 0.034606833 -0.061180998 0.27247852 0.2417861 -0.03133152
-0.004910378 0.212206 -0.04686729 0.14225622 -0.17231819 0.057167597 0.2961018 -0.16300152
0.26244643 -0.014115101 0.1879244 0.1711165 0.072444536 0.13636874 -0.15062475 0.27517864
0.12248624 -0.55743176 1.1173592 0.50870645 -0.04489164 0.47678307 -0.60196143 -1.0154897
-0.2059068 -0.3819653 0.27590388 -0.052635822 -0.37988055 0.082794994 0.038307264 -0.3731533
-0.25376236 0.033458687 0.00663146 -0.079303175 -0.04621019 -0.053202633 -0.3035059 0.0064536068
0.069590464 -0.0042770123 -0.064917505 0.093281314 0.013033212 -0.31298894 0.16476089 -0.4218419
-0.5375374 0.3012121 -0.053342912 0.008840131 -0.026167171 -0.09766536 -0.31927183 0.12361564
-0.055396993 -0.02561125 0.073188044 -0.07037441 0.016572163 -0.06665773 0.04264515 0.07780116
-0.096473575 -0.07403128 -0.10341159 0.07022912 -0.05503581 -0.028053144 0.05058647 -0.019774953
-0.035296626 -0.03036742 -0.049857713 0.062236317 0.04078193 0.05816958 0.012587394 -0.033211216
-0.07116828 0.059976507 -0.065491915 0.03464459 0.119889356 -0.07121552 -0.033848733 0.09486916
0.1098819 -0.47499946 0.096324325 0.08677902 0.05872427 -0.19835897 -0.19485432 -0.8638504
1.1724347 -0.11011221 1.0783913 1.836355 0.9140377 0.05876856 -1.0161979 -0.6516964
-1.1633573 1.1007785 0.49423593 -0.8767758 0.73380023 -0.13631998 0.93977076 -1.6343193
-0.0779226 0.008990874 -0.046130903 0.10432937 -0.10007107 0.0027400446 0.0027536973 -0.14022355
0.100493476 0.07140087 0.020045856 -0.1289411 0.07966824 0.08440671 -0.099594906 0.13023734
0.041043192 0.12573911 0.009383518 -0.018988103 0.10768439 -0.009984863 0.014177147 -0.12877671
0.03553991 -0.03106016 0.0012218979 0.09065063 0.18010527 0.017483884 0.03676813 0.06261799
-0.1855948 -0.15232666 0.2004183 0.028789615 0.000424682 0.065488204 0.10537787 0.03801746
-0.03306135 -0.06359943 -0.06612865 0.07067832 0.2895152 0.2714829 0.1109843 -0.12467879
0.0464197 0.015209104 0.2450702 -0.1189541 0.23242924 0.2311548 0.2189519 -0.28027242
-0.07361986 0.0052041737 0.10393629 -0.13804527 0.102751926 -0.044482104 0.047548994 0.19364429
00000000: b20b df3a b3cf a63b fea1 be3f 609e 723f
00000010: 37e8 46c0 5a4c 613e fc2b aa3c 7e7a 80bc
00000020: 0665 dc3c 8a33 9a3e ca85 063e dcd1 1e3b
00000030: ac3b 6fbc e7ad 233c 9a48 90bc 45cd b6bc
00000040: c6e9 cb3b a9f3 c6bc 6ade b83c 8a89 1dbb
00000050: 8b0b 0f3d dea0 caba 0251 3fbc a9c8 66bc
00000060: da3e 633b b3a4 433d 524f 3b3c 9ab1 a0bc
00000070: 0918 c23b 7130 313c 9954 233b 1a9e 6d3e
00000080: b1b6 46be 3cb0 7239 bc91 c4bd 6b4f 023c
00000090: f40f 07be b54e 8b3b fa1b db3c 631c a9ba
000000a0: 2a43 183e 461f c9bc 6046 65bb 2d6b 9e3d
000000b0: 6a0c c0bd 42b6 c43d 7a8d eb3c 9d55 dd3d
000000c0: f8b1 ddbd cdf7 a33d 05f2 babd 72ac 94bd
000000d0: 31dd 3ebe a6b6 bb3c 6c83 debd c6b6 93bd
000000e0: 83a6 7c3e fff1 de3e 0c4b a03d 7c63 8f3d
000000f0: 4e39 463d d67c 61bd 9f7d 9abe 6855 97be
00000100: 9386 fc3d 4796 a03d e4ad 2f3e 2e1b 9b3e
00000110: ffd6 efbd 773a 273e f624 59be 9b67 133e
00000120: f090 113d 7c12 bdbe 3d71 0e3e e5bf 0d3d
00000130: ed98 7abd 4e82 8b3e c796 773e 7b55 00bd
00000140: 3ce7 a0bb 884c 593e eaf7 3fbd 9dab 113e
00000150: 2e74 30be 9228 6a3d a89a 973e dfe9 26be
00000160: 615f 863e 0643 67bc 416f 403e 2a39 2f3e
00000170: cd5d 943d 3fa4 0b3e 603d 1abe 37e4 8c3e
00000180: 11da fa3d d9b3 0ebf a005 8f3f 963a 023f
00000190: 4ce0 37bd e91c f43e 251a 1abf 91fb 81bf
000001a0: 3bd9 52be f590 c3be 4643 8d3e a998 57bd
000001b0: b47f c2be 6c90 a93d 14e8 1c3d f30d bfbe
000001c0: 24ed 81be fa0b 093d b84c d93b b469 a2bd
000001d0: e546 3dbd 01eb 59bd 2065 9bbe c778 d33b
000001e0: 7285 8e3d 2e26 8cbb 78f3 84bd 460a bf3d
000001f0: 4189 553c 1640 a0be 14b7 283e a9fb d7be
00000200: 0d9c 09bf 7938 9a3e 197e 5abd 32d6 103c
00000210: 895c d6bc c704 c8bd 9977 a3be 322a fd3d
00000220: f5e7 62bd afce d1bc 9de3 953d 7520 90bd
00000230: 58c2 873c d983 88bd aeac 2e3d 3756 9f3d
00000240: f093 c5bd b69d 97bd 75c9 d3bd 49d4 8f3d
00000250: 3b6d 61bd b5cf e5bc c233 4f3d 15ff a1bc
00000260: 3293 10bd 18c5 f8bc 9a37 4cbd 82eb 7e3d
00000270: f40a 273d 3a43 6e3d 5b3b 4e3c 7c08 08bd
00000280: adc0 91bd eda9 753d a020 86bd 7ce7 0d3d
00000290: 8d88 f53d 71d9 91bd f8a4 0abd c34a c23d
000002a0: c309 e13d 2133 f3be b045 c53d 33b9 b13d
000002b0: dc88 703d 9d1e 4bbe e487 47be 4d25 5dbf
000002c0: 5712 963f 8382 e1bd ba08 8a3f ae0d eb3f
000002d0: 60fe 693f 4db7 703d c612 82bf 93d5 26bf
000002e0: e4e8 94bf 4fe6 8c3f 7e0c fd3e 6174 60bf
000002f0: 55da 3b3f 7797 0bbe d194 703f 6031 d1bf
00000300: e295 9fbd 754e 133c c2f3 3cbd a3aa d53d
00000310: 10f2 ccbd 5292 333b 6077 343b c396 0fbe
00000320: 86cf cd3d 9f3a 923d 3537 a43c 2309 04be
00000330: 1a29 a33d 6ddd ac3d 6af8 cbbd f05c 053e
00000340: e81c 283d c1c1 003e 54bd 193c f08c 9bbc
00000350: a289 dc3d 8d97 23bc 4447 683c 0bde 03be
00000360: 4c92 113d e071 febc 1728 a03a 0aa7 b93d
00000370: 846d 383e 5d3a 8f3c 2e9a 163d dc3d 803d
00000380: 900c 3ebe 85fb 1bbe 743a 4d3e 33d8 eb3c
00000390: daa7 de39 ae1e 863d 5ad0 d73d 32b8 1b3d
000003a0: 576b 07bd 6b40 82bd 756e 87bd ccbf 903d
000003b0: 563b 943e cfff 8a3e bd4b e33d 9857 ffbd
000003c0: 9522 3e3d 9b2f 793c aff3 7a3e 359e f3bd
000003d0: ee01 6e3e d8b3 6c3e ed34 603e de7f 8fbe
000003e0: 02c6 96bd c687 aa3b 8ddc d43d bd5b 0dbe
000003f0: 9a6f d23d de32 36bd bcc2 423d b04a 463e

final.linears.0.bias f4 [112]
-0.21185686 0.14283969 0.02372851 0.036064606 -0.21044019 0.55108035 -0.2300424 0.069347665
-0.25198486 0.19842497 0.10176625 -0.14151232 0.24308802 0.07615794 0.06238892 0.39410684
0.040378783 0.048748687 0.19160971 0.0035093506 0.11328626 0.37654456 0.21689136 0.31103078
0.21112864 0.28147572 0.0006348149 -0.36399803 0.39476746 0.048522856 -0.25081387 0.14958878
0.025873743 -0.5291394 0.18292062 -0.03919584 0.088868774 -0.17560719 0.29194766 -0.1519179
0.5097493 0.21532339 -0.18541065 -0.14500342 0.14062856 -0.00884015 0.33885598 0.40669912
-0.51952314 0.1964048 0.041420087 0.3223209 0.30767107 0.2977035 0.2242209 -0.22673157
-0.16539654 -0.11238883 0.1264232 -0.0563123 0.31603003 0.0048423805 -0.323629 0.1858541
-0.11533996 -0.04767442 0.08699312 -0.011053943 0.28584403 0.201741 -0.07054767 0.05711042
-0.057720434 0.0145222 -0.17620146 0.06258402 -0.07941125 0.10144894 -0.44343945 -0.31606406
0.21774743 0.016835641 0.294706 0.44069535 -0.15410122 -0.044662643 -0.35171488 0.0030945917
-0.092040904 -0.16622594 0.1855239 -0.10803033 0.057184704 -0.15581274 0.37702683 0.14012048
0.17697757 -0.26324072 0.11539061 0.44057655 0.10319541 0.26558504 -0.20294087 -0.3379316
-0.0035588543 -0.70608 0.37467498 0.5979139 -0.068986095 0.008219923 -0.059860237 0.033173863
00000000: 01f1 58be 9144 123e 4b62 c23c 7bb8 133d
00000010: a27d 57be 9a13 0d3f 3c90 6bbe 2606 8e3d
00000020: 2904 81be ea2f 4b3e d36a d03d 9be8 10be
00000030: 11ec 783e b2f8 9b3d 868b 7f3d 5fc8 c93e
00000040: 3964 253d b4ac 473d 5635 443e 22fd 653b
00000050: a002 e83d 73ca c03e c518 5e3e 6d3f 9f3e
00000060: 1b32 583e 961d 903e b569 263a f35d babe
00000070: f61e ca3e e7bf 463d ad6a 80be cd2d 193e
00000080: 2cf5 d33c ae75 07bf 8b4f 3b3e d18b 20bd
00000090: d500 b63d 5fd2 33be 2a7a 953e 5e90 1bbe
000000a0: ee7e 023f bc7d 5c3e 4adc 3dbe c77b 14be
000000b0: ef00 103e 47d6 10bc 887e ad3e de3a d03e
000000c0: 78ff 04bf 571e 493e 1ca8 293d 3f07 a53e
000000d0: 1087 9d3e 986c 983e 2a9a 653e 522c 68be
000000e0: b65d 29be 1d2c e6bd 1575 013e baa7 66bd
000000f0: b0ce a13e d5ac 9e3b b3b2 a5be 8a50 3e3e
00000100: 5b37 ecbd 4146 43bd 7329 b23d 991b 35bc
00000110: 265a 923e 3195 4e3e 4c7b 90bd 9eec 693d
00000120: 436c 6cbd 86ee 6d3c 286e 34be 0d2c 803d
00000130: 5ea2 a2bd 76c4 cf3d 7f0a e3be 26d3 a1be
00000140: 2ff9 5e3e e6ea 893c b4e3 963e d2a2 e13e
00000150: b6cc 1dbe 2df0 36bd f913 b4be a2ce 4a3b
00000160: f17f bcbd 2237 2abe faf9 3d3e 013f ddbd
00000170: 823a 6a3d 608d 1fbe a909 c13e be7b 0f3e
00000180: 9c39 353e 7dc7 86be ea51 ec3d 4093 e13e
00000190: 1d58 d33d c3fa 873e bbcf 4fbe 5f05 adbe
000001a0: ab3b 69bb a9c1 34bf 66d5 bf3e e310 193f
000001b0: 9548 8dbd dbac 063c 0230 75bd 51e1 073d

final.linears.1.weight f4 [112, 112]
0.040693942 -0.26092976 0.0142735485 -0.42967728 -0.07588098 -0.37659192 -0.050012726 0.032543663
-0.14631754 -0.39060855 -0.31906044 -0.33906806 -0.302323 -0.2764147 -0.020154882 -0.21979019
-0.006606777 -0.1422434 -0.20898199 -0.059841305 -0.28725788 -0.35998133 -0.3107782 0.012502506
0.046639714 -0.16560319 -0.06791113 -0.15928772 0.08174501 -0.15342613 -0.08931463 -0.24235426
-0.27718416 0.13140677 -0.40212965 0.0613427 0.009508988 -0.05364572 -0.36623964 -0.04231435
-0.27060926 -0.2067092 0.005025948 -0.23038192 -0.30710113 -0.1314796 -0.15256384 -0.32380643
0.055462975 -0.021221712 -0.09203397 -0.19742465 -0.014952626 -0.3011869 -0.4620678 -0.2850187
0.0551578 -0.26796708 -0.11140769 -0.022631718 -0.33104202 0.18635416 0.050738662 0.09150711
-1.4003079 -0.11006202 0.017583372 -0.25046256 -0.033372063 -0.28390533 0.0647719 -0.3520947
-0.032468643 -0.36726373 0.1098788 -0.16123712 -0.20734383 -0.18763284 0.041977886 -0.0071631493
-0.023794247 -0.21759996 0.044601616 -0.08940926 0.05184693 -0.24702491 -0.16231932 0.08665383
-0.1801914 -0.4360647 -0.06730887 -0.02294549 -0.05786531 -0.29582986 -0.07211255 -0.34398723
-0.012519364 0.05639259 -0.38937294 -0.40662873 -0.3603318 0.019187834 0.0045293495 0.0892304
-0.16457756 0.2054788 -0.22071303 -0.33647704 0.0343549 -0.02495043 -0.35172042 -0.5071725
0.23299308 -0.1958497 -0.10647154 -0.4820587 -0.06778831 -0.3729702 -0.08282366 0.046040386
-0.14027202 -0.31565994 -0.3781235 -0.2257883 -0.2618566 -0.3028704 -0.0805316 -0.6238075
-0.08430906 -0.16712384 -0.048163846 -0.42441088 -0.36119318 -0.31541598 -0.45466903 -0.09490269
-0.044926573 -0.10657015 -0.082664005 -0.061544675 -0.13459596 -0.074864686 0.040086437 -0.36820683
-0.36456937 0.37310654 -0.5951147 -0.017770596 -0.015575634 -0.07242075 -0.3504023 0.0065209586
-1.1163361 -0.27940625 0.0071218447 -0.16490203 -0.2617742 -0.07134728 -0.22825511 -0.3972423
0.23728406 -0.125306 -0.04426854 -0.5568544 -0.24797997 -0.27695894 -0.47586805 -0.2599947
0.035352737 -0.2457725 -0.02817654 0.07421677 -0.16799493 -0.14883739 0.12454125 -0.0020742798
-0.26373968 -0.1447656 -0.06951346 -0.16590099 -0.3862575 -0.26555398 0.22298798 -0.37128565
-0.18662736 -0.35607344 0.00035978816 0.0019393677 -0.43487313 -0.23414715 0.29498765 0.05886542
-0.10721839 -0.3083111 -0.13137409 -0.33767375 0.19401011 -0.19959852 0.08164534 0.06515897
-0.41419604 -0.20203505 -0.049175035 -0.072220065 -0.041790634 -0.31513143 -0.320413 -0.54408735
0.014734455 0.10237363 -0.29294518 -0.32455227 -0.36273354 -0.069384016 -0.029630566 0.22554
-0.2786282 0.2456581 -0.5553778 -0.38044098 0.03545806 -0.009492564 -0.28255972 -0.32226768
0.010505991 -0.07071102 0.00081373914 -0.028902812 -0.04582897 -0.04385454 -0.033590257 -0.09696881
-0.010037086 -0.008014373 -0.02721357 0.03695963 0.2699406 -0.023904402 0.0784543 -0.054586787
0.0049003754 -0.001450316 -0.020782221 -0.0131142875 -0.027816001 -0.028683146 -0.022673365 -0.014430933
-0.026938854 0.05664244 -0.053511105 0.14700519 -0.072483376 -0.046977118 0.05534847 -0.02588441
00000000: b1ae 263d 9698 85be 9adb 693c a9fe dbbe
00000010: 7d67 9bbd a8d0 c0be 25da 4cbd 814c 053d
00000020: 44d4 15be d8fd c7be e45b a3be 549a adbe
00000030: 15ca 9abe 3a86 8dbe da1b a5bc ae10 61be
00000040: aa7d d8bb 41a8 11be 60ff 55be 281c 75bd
00000050: 7713 93be 794f b8be 521e 9fbe 50d7 4c3c
00000060: 4909 3f3d e293 29be fe14 8bbd 521c 23be
00000070: ee69 a73d bd1b 1dbe 97ea b6bd b72b 78be
00000080: 15eb 8dbe 7f8f 063e f0e3 cdbe 7c42 7b3d
00000090: 96cb 1b3c 9dbb 5bbd c383 bbbe d051 2dbd
000000a0: 4c8d 8abe 94ab 53be b5b0 a43b 3de9 6bbe
000000b0: 5c3c 9dbe 97a2 06be b239 1cbe f5c9 a5be
000000c0: 252d 633d 28d9 adbc 4e7c bcbd b029 4abe
000000d0: dcfb 74bc 2b35 9abe 2794 ecbe f9ed 91be
000000e0: 25ed 613d fb32 89be b729 e4bd 2766 b9bc
000000f0: 577e a9be a0d3 3e3e 58d3 4f3d 1468 bb3d
00000100: 4a3d b3bf 3268 e1bd 010b 903c a13c 80be
00000110: 25b1 08bd 0a5c 91be 21a7 843d c245 b4be
00000120: d7fd 04bd fe09 bcbe 2308 e13d 581b 25be
00000130: f151 54be d322 40be 01f1 2b3d dab8 eabb
00000140: 27ec c2bc 86d2 5ebe 2fb0 363d 341c b7bd
00000150: 725d 543d 19f4 7cbe 0937 26be 9077 b13d
00000160: 1884 38be df43 dfbe 3cd9 89bd 2ef8 bbbc
00000170: 2d04 6dbd 0377 97be bfaf 93bd 181f b0be
00000180: 051e 4dbc ebfb 663d e45b c7be a431 d0be
00000190: 697d b8be ce2f 9d3c f06a 943b 6ebe b63d
000001a0: 0587 28be 0969 523e 9902 62be b846 acbe
000001b0: b9b7 0c3d d864 ccbc b314 b4be 0fd6 01bf
000001c0: bd95 6e3e d38c 48be c00d dabd 66d0 f6be
000001d0: 99d4 8abd f3f5 bebe 739f a9bd d894 3c3d
000001e0: 78a3 0fbe 2e9e a1be 6799 c1be 0c35 67be
000001f0: 1112 86be d411 9bbe c0ed a4bd d9b1 1fbf
00000200: 3aaa acbd 8322 2bbe 7447 45bd 624c d9be
00000210: 50ee b8be 347e a1be 61ca e8be 575c c2bd
00000220: ed04 38bd 7341 dabd bf4b a9bd 4516 7cbd
00000230: 86d3 09be a852 99bd ad31 243d 9b85 bcbe
00000240: d6a8 babe d207 bf3e 7059 18bf a493 91bc
00000250: f230 7fbc 5551 94bd ee67 b3be c4ad d53b
00000260: 1ae4 8ebf 560e 8fbe 5d5e e93b 14dc 28be
00000270: 4507 86be 861e 92bd b5bb 69be 5863 cbbe
00000280: 98fa 723e 3750 00be ee52 35bd 038e 0ebf
00000290: 76ee 7dbe 90cd 8dbe faa4 f3be 061e 85be
000002a0: 08ce 103d c9ab 7bbe 7dd2 e6bc f6fe 973d
000002b0: dd06 2cbe d468 18be 7c0f ff3d a4f0 07bb
000002c0: e308 87be 6f3d 14be 135d 8ebd f3e1 29be
000002d0: 8bc3 c5be b1f6 87be f656 643e 2719 bebe
000002e0: 3e1b 3fbe 424f b6be f3a1 bc39 6232 fe3a
000002f0: b1a7 debe 45c4 6fbe 9f08 973e de1c 713d
00000300: 5195 dbbd f4da 9dbe ee86 06be 93e3 acbe
00000310: 96aa 463e 8e63 4cbe ac35 a73d 1172 853d
00000320: 8111 d4be 47e2 4ebe c36b 49bd 1de8 93bd
00000330: a82c 2bbd e858 a1be 2c0d a4be 4f49 0bbf
00000340: c968 713c 44a9 d13d e9fc 95be b72b a6be
00000350: 36b8 b9be 3519 8ebd cdbb f2bc f5f3 663e
00000360: 5ba8 8ebe cc8d 7b3e 3d2d 0ebf 29c9 c2be
00000370: 793c 113d b386 1bbc abab 90be 4500 a5be
00000380: 5221 2c3c f0d0 90bd 1c51 553a 97c5 ecbc
00000390: 28b7 3bbd d1a0 33bd f095 09bd 9597 c6bd
000003a0: 9772 24bc b74e 03bc feee debc fb62 173d
000003b0: a835 8a3e 2ad3 c3bc a6ac a03d 6596 5fbd
000003c0: 5493 a03b 8818 beba 7a3f aabc 4fdd 56bc
000003d0: 62de e3bc ebf8 eabc 7ebd b9bc b86f 6cbc
000003e0: dfae dcbc e701 683d 762e 5bbd 8788 163e
000003f0: 2a72 94bd 146b 40bd 14b5 623d 8b0b d4bc

final.linears.1.bias f4 [112]
-0.21857509 -0.45805436 -0.0699064 -0.24771222 -0.21337822 -0.1698552 -0.20637172 -0.27682722
-0.18296498 -0.2924129 -0.068705246 -0.17984237 -0.13132353 -0.12760969 -0.09767765 0.070865355
-0.21867375 0.019965153 0.070451714 0.02276129 -0.34272382 -0.2488976 -0.19946852 -0.11768727
-0.07210276 -0.6126417 -0.09423214 -0.271857 -0.358289 0.13984315 -0.24273236 -0.11049115
-0.22499262 -0.27670926 -0.0049264347 -0.014381172 -0.0052993987 -0.25150988 -0.13220336 -0.13468976
-0.078099 -0.27706978 -0.39497873 -0.35483748 -0.20121227 -0.46226835 -0.17965414 -0.27398545
-0.2565848 -0.22512898 -0.14049493 -0.2893958 -0.1657055 -0.0782698 -0.2799806 -0.20029724
-0.32547465 -0.16625133 -0.31920856 -0.24782383 -0.3387023 -0.24228154 -0.92949545 -0.14041597
-0.23113339 -0.28420377 -0.06755192 0.025816012 -0.10903346 -0.19450563 -0.002677642 -0.28689054
-0.19736859 -0.17682081 -0.1358937 -0.17860013 -0.28090477 -0.22771767 0.050762426 -0.1734689
-0.02503813 -0.036068704 0.20654681 -0.18921147 -0.25065872 -0.3633177 -0.31800932 -0.62721145
-0.0839544 0.07598487 -0.08413373 0.060120802 -0.27893147 -0.08963821 -0.26766315 -0.37091103
-0.14165005 -0.09506864 -0.1711658 -0.07533817 -0.15559651 0.07091272 -0.10787566 -0.011691899
-0.030537589 0.024165899 0.053466804 0.04165737 -0.25980413 -0.1608135 -0.0063517336 -0.2863033
00000000: 26d2 5fbe 1a86 eabe 162b 8fbd 46a8 7dbe
00000010: d27f 5abe 86ee 2dbe 1c53 53be 4cbc 8dbe
00000020: 2c5b 3bbe 25b7 95be 56b5 8cbd 9928 38be
00000030: ad79 06be 1dac 02be 380b c8bd db21 913d
00000040: 03ec 5fbe f68d a33c fd48 903d e375 ba3c
00000050: 7f79 afbe 03df 7ebe 7a41 4cbe 0606 f1bd
00000060: 9daa 93bd 16d6 1cbf c8fc c0bd d730 8bbe
00000070: a871 b7be 0b33 0f3e d58e 78be 2f49 e2bd
00000080: 7764 66be d6ac 8dbe ee6d a1bb 029f 6bbc
00000090: 94a6 adbb e7c5 80be 5160 07be 1dec 09be
000000a0: 5ef2 9fbd 17dc 8dbe a73a cabe 42ad b5be
000000b0: 970a 4ebe 70ae ecbe 41f7 37be d247 8cbe
000000c0: 155f 83be 3688 66be e7dd 0fbe b02b 94be
000000d0: b4ae 29be eb4b a0bd 9e59 8fbe b81a 4dbe
000000e0: 9da4 a6be ca3d 2abe 4e6f a3be 88c5 7dbe
000000f0: 636a adbe a718 78be 6af3 6dbf 34c9 0fbe
00000100: 3bae 6cbe 2883 91be a958 8abd 1a7c d33c
00000110: ef4c dfbd 7c2c 47be 617b 2fbb 51e3 92be
00000120: fe1a 4abe 8410 35be b827 0bbe f4e2 36be
00000130: c0d2 8fbe d22e 69be 43ec 4f3d d5a1 31be
00000140: c41c cdbc c7bc 13bd 0281 533e a7c0 41be
00000150: 5756 80be c704 babe 1ed2 a2be ee90 20bf
00000160: 49f0 abbd f59d 9b3d 4e4e acbd 3b41 763d
00000170: 1bd0 8ebe 3d94 b7bd 250b 89be 0de8 bdbe
00000180: b60c 11be 59b3 c2bd 1646 2fbe e64a 9abd
00000190: b154 1fbe b03a 913d eaed dcbd 618f 3fbc
000001a0: f729 fabc 90f7 c53c 0200 5b3d eba0 2a3d
000001b0: 0c05 85be 4bac 24be 3422 d0bb 5996 92be

final.linears.2.weight f4 [24, 112]
0.40875325 0.054627527 0.20941517 -0.07554546 0.07555889 -0.044896353 -0.0873807 -0.12973233
0.060430158 -0.10072772 0.0011472878 0.36691684 -0.18900417 0.26397973 -0.13999088 0.0066198115
0.046718918 0.17463042 0.380062 0.14782855 -0.29971537 -0.24089563 -0.600708 -0.17802912
0.0011801684 -0.0055066524 0.04713772 0.24555713 0.15006144 -0.0026655977 -0.44523516 0.14271565
-0.14691056 -0.21648894 0.0062489426 -0.11028461 0.1447685 0.466919 0.0029946135 -0.0069263284
-0.058179878 0.56422335 -0.13983639 -0.46605647 -0.01956323 -0.0033912307 -0.17392965 0.14039004
0.25538832 0.0023135107 0.0014755821 0.5321878 -0.015637461 0.0292116 -0.69447976 -0.022784865
-0.76898086 0.13851207 0.1248834 0.22860509 -0.4435024 0.36738157 0.0027888124 -0.09796023
-0.2540105 0.11442041 -0.021817917 0.20756361 -0.11812898 -0.11825967 -0.12029616 0.010382232
-0.052503176 -0.41179293 0.0265447 -0.013894539 -0.041047942 -0.432461 -0.27317432 -0.20531516
0.07328819 -0.007841332 -0.0030459927 0.007895423 0.23817152 0.38728574 0.37552795 -0.013555288
-0.06486185 0.0077509237 0.16620265 0.098032534 -0.28969118 -0.28830346 -0.10820881 0.03234037
0.16725539 -0.15529577 1.1296469 -0.12377577 0.09248746 -0.13116555 0.289304 -0.12093752
0.0012946184 -0.21404703 -0.006751098 -0.0664936 0.33862904 0.3254416 0.004614491 -0.31329435
0.15623924 -0.045378026 -0.12523752 -0.48284838 -0.13478006 0.23657556 0.20263524 -0.27423614
0.06805245 -0.6924627 -0.0011696358 0.03934715 -0.2184173 0.11118985 0.11098916 0.0068787173
-0.2279214 0.21377778 -0.07735846 0.05189023 0.27354926 -0.45741162 -0.021592623 -0.13515651
-0.3942767 -0.029975042 -0.024719192 0.17710428 -0.38762262 0.02124091 0.36718485 0.093341686
0.118514694 -0.4278341 0.0035141022 -0.07210466 -0.091771185 -0.40487647 -0.0062871487 0.018952249
0.200483 -0.21382666 -0.1275335 0.42410716 -0.2712488 0.0038654376 -0.055320803 0.32699293
-0.19553936 -0.033552464 0.30331564 -0.588317 -0.20315744 0.0046399776 -0.212493 0.4803569
0.06751473 0.0033127556 0.030547367 -0.029268237 0.36085674 -0.26216987 0.000103650265 0.2800554
0.17695372 0.70692044 -0.038456134 0.1704955 0.06702485 -0.20590276 -0.18697765 -0.24742612
-0.15166877 0.08283901 0.031750355 0.67961884 0.47262344 0.122947834 -0.119316325 -0.13685209
-0.22857744 0.18376839 0.005474302 -0.0072105397 0.4370459 0.27325112 0.4228155 -0.014314009
-0.01669085 0.010404951 0.23039025 -0.30749017 -0.5672126 0.24797542 0.076532245 0.0030380522
-0.11692027 -0.18627495 0.5315506 -0.33296457 0.27611673 -0.021149864 -0.055887204 0.14433855
0.004734991 0.03504684 0.005560615 -0.0054053077 -0.118212864 -0.49595138 0.0033404357 0.055390224
-0.080632605 0.59946215 -0.009353543 -0.23067959 0.050341044 -0.19902602 0.091774195 -0.12874664
-0.10309238 -0.09664901 0.14742365 0.008008168 0.10607669 0.10337987 0.09170807 -0.0043138037
0.06429987 -0.0957149 -0.029920986 -0.10017062 0.20799571 -0.21919921 -0.24267231 0.018132837
-0.02705766 0.88522816 0.15289181 0.013380294 -0.034595307 -0.11625639 -0.41206974 0.07208576
00000000: 1b48 d13e 1dc1 5f3d ee70 563e 94b7 9abd
00000010: 9fbe 9a3d 3de5 37bd a7f4 b2bd 8dd8 04be
00000020: 9d85 773d 564a cebd 9760 963a 86dc bb3e
00000030: 4f8a 41be 5a28 873e c559 0fbe 01eb d83b
00000040: 565c 3f3d 51d2 323e 7d97 c23e 5e60 173e
00000050: 4b74 99be 58ad 76be 00c8 19bf 444d 36be
00000060: e1af 9a3a 2671 b4bb 7b13 413d 5473 7b3e
00000070: b5a9 193e 4fb1 2ebb ddf5 e3be 0d24 123e
00000080: b96f 16be 47af 5dbe eec3 cc3b e6dc e1bd
00000090: 323e 143e 0210 ef3e 4741 443b 41f6 e2bb
000000a0: 064e 6ebd f170 103f 4531 0fbe f49e eebe
000000b0: 1143 a0bc 693f 5ebb 9d1a 32be 68c2 0f3e
000000c0: 42c2 823e 459e 173b 5268 c13a 763d 083f
000000d0: 221a 80bc 2a4d ef3c 6dc9 31bf 53a7 babc
000000e0: eedb 44bf 1cd6 0d3e dec2 ff3d 7417 6a3e
000000f0: bf12 e3be 7019 bc3e 82c4 363b 609f c8bd
00000100: aa0d 82be 3f55 ea3d 7dbb b2bc 8e8b 543e
00000110: 9bed f1bd 2032 f2bd d55d f6bd 3d1a 2a3c
00000120: 920d 57bd 86d6 d2be 4574 d93c eca5 63bc
00000130: e321 28bd 876b ddbe 81dd 8bbe 233e 52be
00000140: 1e18 963d ee78 00bc 479f 47bb ce5b 013c
00000150: 3ce3 733e 514a c63e 3345 c03e 0017 5ebc
00000160: 4ad6 84bd 76fb fd3b 0731 2a3e 48c5 c83d
00000170: 6752 94be 839c 93be 959c ddbd 5677 043d
00000180: ff44 2b3e db05 1fbe 4598 903f 277e fdbd
00000190: 116a bd3d 4350 06be a71f 943e 17ae f7bd
000001a0: 2fb0 a93a 252f 5bbe 5138 ddbb cc2d 88bd
000001b0: c960 ad3e 48a0 a63e 2835 973b 1e68 a0be
000001c0: 2efd 1f3e 4fde 39bd 443e 00be e737 f7be
000001d0: c903 0abe dd40 723e 9d7f 4f3e ae68 8cbe
000001e0: 155f 8b3d 3c45 31bf 774e 99ba 7a2a 213d
000001f0: c9a8 5fbe 81b7 e33d 494e e33d dd66 e13b
00000200: 3a64 69be 90e8 5a3e 1d6e 9ebd da8a 543d
00000210: a60e 8c3e db31 eabe 03e3 b0bc 7866 0abe
00000220: a3de c9be 388e f5bc e77f cabc d35a 353e
00000230: 7976 c6be 6b01 ae3c a7ff bb3e ed29 bf3d
00000240: d5b7 f23d 120d dbbe da4c 663b 9cab 93bd
00000250: 88f2 bbbd f84b cfbe 6d04 cebb bf41 9b3c
00000260: 6a4b 4d3e 60f5 5abe 2498 02be 9324 d93e
00000270: 1fe1 8abe 4853 7d3b 1198 62bd 9e6b a73e
00000280: 783b 48be 4f6e 09bd 304c 9b3e f19b 16bf
00000290: 8108 50be f40a 983b c497 59be 57f1 f53e
000002a0: 2a45 8a3d d11a 593b 793e fa3c f1c3 efbc
000002b0: 37c2 b83e 213b 86be d05e d938 6c63 8f3e
000002c0: 5b33 353e bdf8 343f 2e84 1dbd 5f96 2e3e
000002d0: 5344 893d 2cd8 52be 1277 3fbe 465d 7dbe
000002e0: 0f4f 1bbe 80a7 a93d a90c 023d 80fb 2d3f
000002f0: b3fb f13e 13cc fb3d 1e5c f4bd f422 0cbe
00000300: 3410 6abe c82d 3c3e c661 b33b 6446 ecbb
00000310: 7bc4 df3e 92e7 8b3e 467b d83e 4e85 6abc
00000320: 40bb 88bc 8779 2a3c 6ceb 6b3e 5a6f 9dbe
00000330: d834 11bf 45ed 7d3e f0bc 9c3d 0f1a 473b
00000340: e573 efbd dcbe 3ebe b313 083f 557a aabe
00000350: 2c5f 8d3e 7b42 adbc fbe9 64bd 7ccd 133e
00000360: fc27 9b3b 468d 0f3d d235 b63b 021f b1bb
00000370: 9619 f2bd 57ed fdbe 36eb 5a3b dce0 623d
00000380: b522 a5bd 5a76 193f 9a3f 19bc 4537 6cbe
00000390: 6932 4e3d 7acd 4bbe 1cf4 bb3d 29d6 03be
000003a0: 1922 d3bd ebef c5bd 3af6 163e b134 033c
000003b0: bc3e d93d d3b8 d33d 71d1 bb3d cf5a 8dbb
000003c0: a6af 833d 2c06 c4bd db1c f5bc 4126 cdbd
000003d0: d4fc 543e c275 60be 177f 78be 518b 943c
000003e0: 07a8 ddbc 509e 623f ac8f 1c3e 0539 5b3c
000003f0: cfb3 0dbd d517 eebd cefa d2be b3a1 933d

final.linears.2.bias f4 [24]
0.023840994 -0.0344606 0.05950867 0.13443565 -0.0005962318 -0.15256771 0.019009437 0.03137624
-0.071615614 0.011645462 -0.050007373 -0.040544204 0.040213574 0.017942363 -0.031456623 0.011298456
0.1268476 -0.04482505 0.004046263 0.030625442 0.019307291 -0.0086422535 0.051896796 0.120453775
00000000: 304e c33c 8f26 0dbd 5dbf 733d 80a9 093e
00000010: 704c 1cba b63a 1cbe aeb9 9b3c 5f84 003d
00000020: 35ab 92bd 9ccc 3e3c 88d4 4cbd ae11 26bd
00000030: fdb6 243d ddfb 923c a9d8 00bd 291d 393c
00000040: 56e4 013e 799a 37bd 8496 843b 35e2 fa3c
00000050: 532a 9e3c 3d98 0dbc bc91 543d 78b0 f63d

layers.0.attn.0.gnn_q.weight f4 [24, 16]
-1.0337733e-33 -9.218464e-34 1.060154e-33 7.440297e-34 5.0730814e-34 1.0470274e-33 -1.0252175e-33 1.0307291e-33
1.1192397e-33 1.0523011e-33 1.0613031e-33 9.861852e-34 1.0610531e-33 -1.0313548e-33 1.0495262e-33 -1.084537e-33
1.0524318e-33 1.0714019e-33 -1.0703649e-33 7.392821e-34 -8.386936e-34 1.0760664e-33 1.0389272e-33 1.0575048e-33
-1.08248e-33 -1.029753e-33 -9.0017135e-34 1.076579e-33 1.079903e-33 -9.86552e-34 -8.19225e-34 1.091272e-33
-1.0586846e-33 1.0497287e-33 -9.637567e-34 -1.0403484e-33 -2.7439248e-34 -1.0198622e-33 -5.041122e-34 3.6632282e-34
1.05768465e-33 3.7329024e-34 -1.06317155e-33 4.5600727e-34 -1.0560069e-33 9.719193e-34 5.999574e-34 -3.61234e-34
1.049114e-33 -1.0711002e-33 8.32149e-34 -9.596159e-34 -8.765724e-34 1.2116115e-34 -1.0525521e-33 1.0593706e-33
-1.0695028e-33 -1.03774e-33 1.0521395e-33 9.777146e-34 9.937791e-34 -9.726739e-34 1.5933941e-34 8.86781e-35
-1.0070749e-33 -7.906433e-34 1.0210947e-33 -1.0671934e-33 1.2123094e-34 -1.0524163e-33 -1.0769351e-33 -1.01968065e-33
9.855526e-34 1.0568842e-33 -9.7932675e-34 -1.0292876e-33 -9.909528e-34 7.5277547e-34 4.14705e-34 1.0424852e-33
-1.084934e-33 -8.800403e-34 9.096506e-34 1.0817508e-33 -2.1196209e-34 -1.0585514e-33 -1.0695904e-33 1.0604215e-33
-7.173075e-34 -1.0651591e-33 -1.0605364e-33 3.4741632e-34 1.0005651e-33 1.0466608e-33 -3.448773e-36 -1.035729e-33
-1.0327425e-33 -9.657549e-34 1.0815087e-33 1.039113e-33 -9.143762e-34 -1.0613449e-33 -1.0490409e-33 -2.3759335e-36
-1.0221366e-33 -1.0574648e-33 1.0586804e-33 -1.0726498e-33 1.0629578e-33 -1.0870956e-33 -1.0617591e-33 1.0795774e-33
-1.0689024e-33 -1.0715382e-33 -1.06304895e-33 1.01637925e-33 -9.043769e-34 1.0393843e-33 1.0568371e-33 -1.0076318e-33
-1.0978437e-33 1.0698552e-33 1.0643183e-33 -1.0342752e-33 1.048203e-33 -1.0250782e-33 -9.700778e-34 1.0735875e-33
-7.280239e-34 1.0651019e-33 -1.0388277e-33 -1.0215575e-33 8.963218e-34 8.2496855e-34 1.0302139e-33 -1.0728785e-33
1.0202495e-33 1.0412819e-33 1.0695375e-33 9.410264e-34 -1.040719e-33 1.0427607e-33 -8.770792e-34 3.3459372e-34
1.1596875e-33 1.0065476e-33 9.790421e-34 8.846518e-34 -1.0651007e-33 1.0525418e-33 1.0302078e-33 -1.016389e-33
-1.0694487e-33 -1.0495361e-33 -9.793587e-34 9.872191e-34 -1.0726715e-33 8.455473e-34 5.867805e-34 -8.779438e-34
1.0477449e-33 -1.0566582e-33 -9.375615e-34 -1.0697533e-33 -1.0559246e-33 -1.0349625e-33 -9.962772e-34 2.838926e-34
1.0378633e-33 1.0673361e-33 1.0310484e-33 -5.5558657e-34 -1.073376e-33 4.730917e-34 2.8586523e-34 5.1136107e-34
-2.9438135e-34 -1.069219e-33 9.444547e-34 1.0686081e-33 -1.0433639e-33 1.0858679e-33 -1.07995155e-33 -1.0561022e-33
1.0895388e-33 -1.0803066e-33 -9.994166e-34 1.0637409e-33 -1.0642067e-33 -1.0064298e-33 -1.0852745e-33 8.966825e-34
-1.041288e-33 -1.0612752e-33 -1.07766705e-33 1.0009451e-33 -1.9751648e-34 -1.0208731e-33 1.0064188e-33 -1.0779615e-33
1.0515121e-33 -1.0517926e-33 -1.0341731e-33 1.0481622e-33 -1.0247157e-33 -1.0494461e-33 -6.409776e-34 6.588503e-34
3.6923986e-34 4.056514e-34 5.2789904e-34 1.04016685e-33 1.0088013e-33 7.802471e-34 -9.976606e-34 8.911741e-34
-1.0153782e-33 1.0678859e-33 9.772144e-34 1.0270798e-33 9.795155e-34 1.032026e-33 1.0655811e-33 -9.721405e-34
-1.0606872e-33 -1.0302979e-33 1.0667705e-33 -1.06718265e-33 6.713217e-34 -8.624968e-34 -9.847952e-34 5.4893984e-34
-1.085062e-33 -1.0403176e-33 1.0190893e-33 1.0553001e-33 1.0661654e-33 -1.0450685e-33 -3.4117825e-35 3.2784923e-34
-9.842447e-34 -9.999143e-34 4.330214e-34 9.259524e-34 1.031314e-33 -9.847601e-34 1.0158546e-33 6.824663e-34
-1.0436483e-33 -1.0515689e-33 1.078944e-33 9.354268e-34 -1.1063132e-33 -4.290373e-35 8.654076e-34 -1.041917e-33
00000000: dac3 ab88 022b 9988 f725 b008 0c3f 7708
00000010: 0195 2808 9ff7 ad08 ee57 aa88 5e42 ab08
00000020: 31f7 b908 f0d7 ae08 d756 b008 aedb a308
00000030: 354c b008 fb5c ab88 e861 ae08 1a33 b488
00000040: 7fdd ae08 6604 b208 4ad8 b188 2aab 7508
00000050: 155a 8b88 cdca b208 139f ac08 48b5 af08
00000060: 9bdb b388 d918 ab88 0e91 9588 9be0 b208
00000070: fe6d b308 48eb a388 fa1d 8888 9451 b508
00000080: 76e7 af88 856a ae08 ad21 a088 87db ac88
00000090: 765d b687 2474 a988 2085 2788 9976 f307
000000a0: eebc af08 0b18 f807 51a6 b088 cf88 1708
000000b0: 9175 af88 e07c a108 bb5e 4708 c814 f087
000000c0: 6050 ae08 90f7 b188 b443 8a08 8c71 9f88
000000d0: 44a5 9188 010d 2107 9de2 ae88 a404 b008
000000e0: 9eb3 b188 946c ac88 11d1 ae08 6173 a208
000000f0: b01e a508 f99c a188 64cc 5307 30bf eb06
00000100: 3b54 a788 3f5e 8388 91a8 a908 6351 b188
00000110: c024 2107 d7dc ae88 c1ef b288 6b6c a988
00000120: c5c0 a308 e29a af08 f4b7 a288 0d05 ab88
00000130: 78a6 a488 0e27 7a08 33cf 0908 6b36 ad08
00000140: fd43 b488 c638 9288 4224 9708 97bc b308
00000150: 7bdf 8c87 cce1 af88 58b7 b188 5831 b008
00000160: c65d 6e88 dcfa b088 3b36 b088 d3e5 e607
00000170: 553f a608 07e8 ad08 d0b1 9284 0a17 ac88
00000180: 0298 ab88 ac76 a088 4bb2 b308 fba6 ac08
00000190: 43ed 9788 9f58 b088 444d ae88 401f 4a84
000001a0: e2d4 a988 94b3 af88 49e7 af08 7a39 b288
000001b0: 399d b008 ef9f b488 3d6a b088 2560 b308
000001c0: 149a b188 320a b288 1aa1 b088 fedf a808
000001d0: f043 9688 85b2 ac08 e198 af08 eb6b a788
000001e0: 1b69 b688 9cc2 b108 18d7 b008 34d9 ab88
000001f0: a029 ae08 0152 aa88 8c2e a188 5d61 b208
00000200: 6ded 7188 6df8 b008 d89a ac88 40bc a988
00000210: 50ed 9408 4812 8908 742c ab08 3443 b288
00000220: 9d84 a908 3c03 ad08 18b5 b108 d65a 9c08
00000230: 4aeb ac88 2342 ad08 d3ba 9188 2c60 de07
00000240: a7af c008 cd3d a708 d8ab a208 edfc 9208
00000250: 60f8 b088 2de2 ae08 322c ab08 68e0 a888
00000260: 51b1 b188 5462 ae88 50b9 a288 a807 a408
00000270: 663a b288 9b7d 8c08 c4fd 4208 99df 9188
00000280: 2416 ae08 4591 af88 75c7 9b88 46be b188
00000290: 1172 af88 70f6 ab88 f288 a588 d3ad bc07
000002a0: d371 ac08 7557 b108 f34f ab08 14a0 3888
000002b0: 5e58 b288 3136 1d08 73fd bd07 caed 2908
000002c0: 64a6 c387 8ca7 b188 a9ec 9c08 908d b108
000002d0: cb5b ad88 b66b b408 0f70 b388 9f79 af88
000002e0: db07 b508 297f b388 7b0e a688 89be b008
000002f0: 59d2 b088 ca38 a788 7952 b488 a8fc 9408
00000300: 7e03 ad88 a855 b088 e30e b388 7f4f a608
00000310: b045 8387 249f a988 5238 a708 691b b388
00000320: 61b6 ae08 4fc2 ae88 dcd4 ab88 e427 ae08
00000330: 9642 aa88 805e ae88 5800 5588 c9f0 5a08
00000340: e866 f507 01cd 0608 af6c 2f08 ced3 ac08
00000350: a99d a708 0ba4 8108 cac3 a588 5b12 9408
00000360: 6ab5 a888 d86e b108 1b5e a208 25a7 aa08
00000370: fbbf a208 8879 ab08 cf0c b108 4986 a188
00000380: a53c b088 0730 ab88 663f b108 ee50 b188
00000390: bc15 5f08 8e4e 8f88 8ea0 a388 a36a 3608
000003a0: 6f49 b488 38da ac88 4453 a908 8157 af08
000003b0: a925 b108 4ca4 ad88 c766 3586 a8e4 d907
000003c0: 2489 a388 a723 a688 63e5 0f08 a9d9 9908
000003d0: 3f5b ab08 109f a388 adc9 a808 d0c9 6208
000003e0: e467 ad88 cbb8 ae88 3445 b308 a86c 9b08
000003f0: 5cd1 b788 881d 6486 5eca 8f08 3f1e ad88

layers.0.attn.0.gnn_q.bias f4 [16]
-1.0148173e-33 1.0367617e-33 -1.017248e-33 -9.658273e-34 -2.4261949e-26 1.0317615e-33 1.0069309e-33 -9.865108e-34
-1.6179698e-35 1.0433601e-33 -8.540498e-34 1.0145215e-33 -1.0304369e-33 1.0340283e-33 4.040927e-26 -6.682954e-29
00000000: 8e9d a888 f742 ac08 f204 a988 c079 a088
00000010: 5947 f094 486e ab08 1b4e a708 87e9 a388
00000020: 540d ac85 a15b ad08 43e7 8d88 f990 a808
00000030: f035 ab88 b3ce ab08 d618 4815 da6e a990
