checkpoints/cyp1a2_veith_33_train1_neg/Aug31-05:17:38_500.pth (torch, 471814 bytes, 294 tensors)

layers.0.weight f4 [24, 16]
00000000: b724 9b3f a21c d23c 5acc 8c3f 5022 9a3f
00000010: 0412 263f 14df 003d dc8d 363e e48f 2e3e
00000020: 6e4e 043e ad0c d1bf ddc7 a1bd e0f3 12bd
00000030: 716d 213e 0bc6 453f 2aee 803d 51ec 303e
00000040: 0147 433f 6465 c5bd 5e4c 65bd 9112 2ebd
00000050: a8a3 80be d383 ca3d e0cc 36bf 752e d2bd
00000060: 946b 22bd ae50 80bf 0707 b3bd 8cd6 52bf
00000070: e743 9ebd 0839 90be 0b2c 5c3f 02d0 3cbf
00000080: 4715 f73d cb84 8dbc 7c59 bf3b d71b 703d
00000090: 580f 6dbd dbb2 713d 502a 073d f31b d33d
000000a0: c2cc 89bd d02d 47be 690f 3b3d d8f1 c53c
000000b0: 8555 543c 050f 83bd 546f c43a af4f e3bc
000000c0: 5aa7 133e 3bee c13a fced b03c 7c2e 313d
000000d0: 3fa7 5cbd 5210 4e3d 3c2b 953c 31c5 903d
000000e0: 06b8 24bc d2bc 4abe 4122 673d 3eda c13c
000000f0: 8e57 a1bb 1029 7fbd 9e25 95bb 75e5 e0bc
00000100: 0642 d43d c595 713d 5d02 963c 1d9b 2f3d
00000110: b7e3 49bd 2d31 253d 7f29 f13b 6dea e73b
00000120: 947a e4bb 6c15 1abe b3d6 cebc 8380 e33c
00000130: 249e 3cbd 7711 55bd ecd6 81ba 8bd4 16bc
00000140: 379f 743d 2032 6d3b 36b7 153c 5add 1a3c
00000150: 3b96 21bc 5a7c b2bb 869b 243d 936b e33b
00000160: 1366 953c 17e1 c2bd 9166 a7bb 73e5 98bc
00000170: 70a9 d239 c2cd d4bc 74b7 3f3d abfc adbc
00000180: ed03 543f 1e85 80be c892 18bf 504e 1ebf
00000190: 3559 61bf e3bd 6e3e fcd8 9f3e d5c7 f8bd
000001a0: a2d2 723d 05ee 8abf 8246 40be 976d d8bf
000001b0: f9f9 4ebe 70b0 88bf 6b64 e63f 57dd be3e
000001c0: f5d0 8c3d 05b8 8dbd 4f26 5ebf 0cbe 6dbf
000001d0: 22d3 05bf 4603 063d a268 91bf 1e44 54be
000001e0: 0ec0 1dbe 69d9 eabd 71c4 903c 075b bfbe
000001f0: 3f9b 1ebe e250 1ebf b5bf d53e 623e 9dbf
00000200: c549 563f af48 dcbd 5fcc e43e 8e8f f53e
00000210: 9aeb 9fbe 7383 e63d d4ef b1be 9ba6 48bd
00000220: f50b 013d 4dec 8bbf b8ed fbbd 90d6 56bf
00000230: 6dd9 46bd bb29 c1be 6e71 5e3f d525 c4be
00000240: 3079 563e 8a48 fcbb 87a6 b33d 3321 ce3d
00000250: c724 54bd bfd5 e9bc 5144 0cbd 41d0 903b
00000260: 77b8 4ebb 881c 8bbe 5195 9bbc b54e 873d
00000270: e019 27ba dd48 4fbd 95ac 68bd 2c1f 7cbd
00000280: 1542 123e 8773 1bbc 128d 69be f986 84be
00000290: 826f 963e 3b5c b13b d834 43be 6aa0 143c
000002a0: 4471 06bd d514 49be f874 7fbc b11c 10be
000002b0: b11c 153d 0987 b23e a71f 3c3e 1552 79be
000002c0: 1a46 71bf 4833 93bb fce5 8fbe 8f42 94be
000002d0: 03c3 bb3d 1c7c e13b e582 5d3e 9bc5 9d3c
000002e0: 6384 06bd 8ddf a13f 3df9 413d edf5 89be
000002f0: 9c2d a53c ddf8 c03d 0cb4 9e3e 137d 803e
00000300: 8e92 cebd ea48 f53d d99e cf3e f812 e23e
00000310: 55c6 14be 7ab3 09be fca2 14bf 11a8 94bc
00000320: b631 bebd 9034 e43d a25f f73d c042 853f
00000330: 7382 883b dc70 4fbe c02b 8ebf f054 1ebf
00000340: f5f4 683e 410d 073e ab6e 213f c17d 303f
00000350: f5c1 203f 1efc dcbd 6557 07be f5c6 ee3d
00000360: f436 273c 1458 abbe bcd0 623d e9b3 683f
00000370: c756 233e 2292 3f3f 74ea 79bf c9ab 1dbe
00000380: 8efa a7bf fdf9 1b3e 02e2 dd3d 7e94 183e
00000390: 5e5d 0bbf 3b98 4dbe 979b dfbf 92ea 67be
000003a0: fd07 98be c75c da3f f9a4 833e 8cdf 9b3f
000003b0: 6c39 c2bd a686 2abf c2e3 a3bf 9889 efbf
000003c0: ac66 4bbd 576c a6bb ca2a 33be 86c1 34be
000003d0: a8fa 2dbe b291 ddbc 5a99 b6bf 79bc 22be
000003e0: 3319 3bbe 1948 4d3d ac14 9a3d 6d1c 9f3d
000003f0: c546 77bd 253f 3fbe bfba acbd f601 c8bf
1.212058 0.025648419 1.0999863 1.2041721 0.6487124 0.031462744 0.17827553 0.17047077
0.12920544 -1.6331993 -0.07899449 -0.03587711 0.15764405 0.77255315 0.06295426 0.17277648
0.7628022 -0.09638479 -0.055981033 -0.042498175 -0.2512486 0.09888425 -0.71406364 -0.10262767
-0.039653376 -1.0024621 -0.08741575 -0.8235862 -0.07727795 -0.2816851 0.86004704 -0.73754895
0.12064605 -0.017275235 0.005839525 0.0586203 -0.05787596 0.05900846 0.032999337 0.10308065
-0.067285076 -0.1945107 0.045668993 0.024163172 0.012959843 -0.06399349 0.0014986792 -0.027747957
0.14419308 0.001479573 0.021597855 0.04325722 -0.053870436 0.050308533 0.018209092 0.07068861
-0.01005364 -0.19798592 0.05642915 0.023663636 -0.0049237674 -0.06229502 -0.0045516035 -0.027453164
0.103641555 0.058980722 0.018311674 0.042872537 -0.04928943 0.0403301 0.007359683 0.0070775063
-0.0069726203 -0.15047234 -0.025248861 0.02777124 -0.046049252 -0.05201861 -0.0009905971 -0.009205948
0.05972215 0.0036193207 0.009137919 0.009452188 -0.009862478 -0.005446953 0.04018738 0.006940314
0.01823715 -0.09515589 -0.0051086624 -0.018664097 0.00040180562 -0.02597702 0.046805814 -0.021238646
0.8281849 -0.2510156 -0.5959897 -0.61838245 -0.88026744 0.23314624 0.31220233 -0.1214749
0.059282906 -1.0853888 -0.18776897 -1.6908444 -0.20212545 -1.0678844 1.7999395 0.37278244
0.06875793 -0.069198646 -0.86777204 -0.92868114 -0.5227529 0.032717966 -1.1360056 -0.2072911
-0.15405294 -0.11467249 0.017671796 -0.37374136 -0.15488909 -0.6184217 0.41747823 -1.2284663
0.83706313 -0.10756051 0.44687173 0.47961086 -0.31234437 0.11255541 -0.34753287 -0.048987012
0.031505544 -1.0931488 -0.12301201 -0.83921146 -0.048547197 -0.3772715 0.8689183 -0.38310114
0.20944667 -0.007699077 0.08771997 0.10064926 -0.051792886 -0.028544305 -0.03424484 0.004419357
-0.0031543055 -0.27170205 -0.018992098 0.06606809 -0.00063744 -0.050606597 -0.056805212 -0.061553165
0.14283021 -0.009487993 -0.2280772 -0.25884226 0.2938195 0.005412606 -0.19063127 0.009071449
-0.032822862 -0.19636853 -0.015591852 -0.14073445 0.036404315 0.3486865 0.1837145 -0.24347718
-0.9424759 -0.004492197 -0.28105152 -0.2895703 0.09168055 0.00688125 0.21631964 0.019259265
-0.032841098 1.2646347 0.047356833 -0.2694544 0.02016335 0.09422467 0.3099674 0.25095424
-0.10086547 0.11976798 0.4055088 0.44155097 -0.14528783 -0.13447371 -0.58061194 -0.018146547
-0.09286825 0.11142838 0.120787874 1.0410995 0.0041659414 -0.20257896 -1.1107101 -0.61848354
0.22749694 0.1318865 0.6305949 0.68941885 0.62795955 -0.10790275 -0.13216932 0.11659042
0.010205973 -0.33465636 0.055374846 0.9089952 0.15951072 0.74832356 -0.9762337 -0.15397562
-1.3123338 0.15232082 0.10834123 0.14900395 -0.5443934 -0.20077603 -1.7469357 -0.22648075
-0.29693595 1.7059563 0.25711802 1.2177596 -0.094836086 -0.6661171 -1.2803881 -1.8713865
-0.049658462 -0.005078833 -0.17496791 -0.17651948 -0.16990149 -0.027047012 -1.4265549 -0.15892209
-0.18271331 0.050117586 0.07523474 0.07769094 -0.060370225 -0.18676431 -0.084340565 -1.5625598

layers.0.bias f4 [16]
00000000: caff 7bbe 2e05 b03a f504 7a3e d8d5 e2be
00000010: a71c 803e 30aa 7abd dda3 563e 94b3 5c3f
00000020: e793 15bf 04e8 77be a034 5fbe 4e57 733e
00000030: e324 18be eb33 b7be 2ba1 af3e 3080 9ebe
-0.24609295 0.0013429278 0.24415953 -0.44303775 0.2502186 -0.06119746 0.20960946 0.86211514
-0.58428806 -0.242096 -0.21797419 0.23763773 -0.14857821 -0.35781798 0.3430265 -0.30957174

layers.1.weight f4 [16, 16]
00000000: 4a6d dcbe eb05 003e 6526 ff3c b233 2e3d
00000010: 2f8b c0be 49bd 113f 8ee9 bc3c b91a 713c
00000020: 724d 423e 3f2b b83e ea13 b1bd 8ac4 8abe
00000030: 56ab 60be 107e 9cbd 1382 55bf db45 21be
00000040: 195d 3abe 579b 903f 7c39 503e 2933 703d
00000050: 3de7 e2be 174d 2bbf 47c1 11bf 955c fc3e
00000060: e04e f2be 79b2 313d ce0d 20bf df6d 2bbf
00000070: 73bc d33e f6c4 a83e 0eaa ee3e ae51 243e
00000080: fde1 8d3e 18c9 5abd 9994 f73d 7216 1fbf
00000090: 3927 a33e d521 11bf f94e 06be cb05 1fbe
000000a0: 79d8 0c3e e837 c73e e208 b9be 7d64 163e
000000b0: 2ae1 2ebd 797f 13be 4231 14bc 9eea 20bc
000000c0: 9702 8dbe 1b14 00be c3e6 6bbd 1873 74bd
000000d0: 6a92 97be 8c7d 60be 0012 4a3d 4aff 93bd
000000e0: edc2 91bc 9f1a ad3e 7def d6be 0655 a2bd
000000f0: 2ceb 4ebd 818d bd3d 82c5 efbd 011c babc
00000100: 662d a73e c587 40be 8a99 673e a64b 99bf
00000110: 8700 ba3e 45a4 27bf c0de 55be 50f1 98be
00000120: 77a3 233d f3ce 403f b989 75be 174a 383e
00000130: aba1 fcbc 3e31 a7bd ba6e e13d 0131 303d
00000140: 89c3 09be 6a27 76bf 77e6 1bbf 441d 4fbe
00000150: b225 a33e c624 0c3f 471c 283f 9ebe 70be
00000160: 050f fa3e bd29 413e 67d3 ef3e c536 103f
00000170: d5da 04be 36a1 bdbe 457e 09bf 5826 8ebe
00000180: d5c7 c33e 0b36 f73d 0e9c a53d 77d3 64bf
00000190: 3aa9 983e 5e25 e1be f2e0 90be 2191 a4be
000001a0: f37a 883f 865d a03e f2ea 603d 13b6 4bbd
000001b0: 5b1d 4e3e 08c2 bebe dc28 afbe bdac 853d
000001c0: 6a13 dabd 9e50 713e 62ec 20bf 92af 39be
000001d0: 488b e43d f061 90be 1197 f13e 8576 603f
000001e0: 1025 d7be 9649 5e3f 16a1 7dbf 12cd 1dbe
000001f0: c3b2 59be e9c9 833d 88dd b6be 617a 29bc
00000200: 752c ce3d 906a 16be cab4 66bf bb0b 98bf
00000210: a1b7 a13e d844 48bf 8217 793f 20e2 d23e
00000220: 04ef 0d3f d926 013f 2832 16bd c752 923e
00000230: 89da 153f 8fac 4ebe bcc6 d13d 3188 a83d
00000240: c710 bdbe d78c bfbd 1a3a 03be 0dab a43e
00000250: 44c8 a2be 6723 9f3e 6918 1f3e 7ccd ab3d
00000260: cc66 53bf 66ed 4a3d edcd 95be 4b00 003d
00000270: 1f8c 84be 9d2b 513e 36e5 f23d 014f a5bd
00000280: d0dd 78bd 902f 243f 6373 313f 7eb5 09bc
00000290: a454 bebe b876 3cbf 6c8c 3abf 84dd 8cbe
000002a0: 2349 c3be 2a74 84be ae3a cfbe 4c3e a8be
000002b0: cb27 8b3e 6b15 af3e 0f38 1d3f 1467 8e3e
000002c0: 5399 b73e 4c02 b2be b8a6 19be d7b6 5cbe
000002d0: 241d ba3e a639 88bf c981 9fbd 7142 02be
000002e0: 2401 f2be fec9 18be 3aac 09bf 438c b93e
000002f0: f156 7f3c de67 883d 53a1 4f3f 8b56 293e
00000300: 3d74 803d 08ed 383f b63a 85bf 03aa 57bf
00000310: add6 11bd 3245 84bf 5470 24bd fe20 4a3f
00000320: 2a2e 313e 2b63 083f bfa8 03bf 33c2 ebbe
00000330: 9117 053f a6b4 e13c b36d 833e aea2 133e
00000340: eafa 9abe 97db 9fbe 5ff4 f63d 4958 edbe
00000350: 1414 97be 0997 04bf 5e97 f03d 4d50 20be
00000360: 654d acbd d778 773f d77b 6dbf a3ec 8ebd
00000370: 8ca3 2dbe ae95 003d 2336 02be 1124 1dbe
00000380: 4025 af3e 1f27 ca3e 61fd 123e 8fe7 c5be
00000390: 79a9 693e 0f93 ac3e b0b2 dabd 3fd7 eabd
000003a0: acf3 6b3f 248b 183d 9d01 4f3f 5508 88bd
000003b0: a5c1 323e 62ef a9be c6b5 bfbe 7d2f b43d
000003c0: ce64 c2be ce89 0cbd 2f8b 20bd 5cf2 693c
000003d0: a1f1 a7be f337 a73e ff3c f5bd 4c44 f0bc
000003e0: 1603 d43e 13e5 193f d546 31be ac19 7dbe
000003f0: 699e 85be 7123 86bd 0532 73bf eae7 95be
-0.4305213 0.12502258 0.031146238 0.04252977 -0.3760619 0.5692945 0.023060586 0.014715844
0.18974856 0.35970494 -0.086463764 -0.27103072 -0.2194036 -0.07641232 -0.834016 -0.15749304
-0.18199576 1.1297406 0.20334429 0.05864254 -0.44317046 -0.66914505 -0.5693554 0.49289384
-0.47325802 0.043383095 -0.62521064 -0.66964525 0.41354713 0.3296277 0.46614116 0.16046783
0.27711478 -0.053414434 0.1208889 -0.62143624 0.31865862 -0.5669225 -0.13116063 -0.15529554
0.13754453 0.3890984 -0.3613959 0.1468677 -0.042695202 -0.14404096 -0.009044947 -0.009821562
-0.27541038 -0.1250767 -0.05759312 -0.059680074 -0.29603893 -0.21922892 0.049333572 -0.07226427
-0.017793143 0.33809373 -0.4197959 -0.07926373 -0.050517246 0.09255505 -0.117075935 -0.022718431
0.32651824 -0.18801792 0.22617164 -1.1976211 0.36328527 -0.6548503 -0.20885754 -0.29871607
0.039950814 0.7531578 -0.23978318 0.17997013 -0.030838808 -0.08163689 0.110074475 0.043015484
-0.13453497 -0.9615389 -0.60898536 -0.20226008 0.31864697 0.5474361 0.6566815 -0.23510215
0.48839584 0.18863578 0.46840975 0.5633357 -0.12974103 -0.37037057 -0.53708297 -0.2776363
0.38238397 0.12070855 0.08086406 -0.8938517 0.2981661 -0.4397382 -0.2829662 -0.32141975
1.0662521 0.31321353 0.05491156 -0.049734186 0.20128386 -0.3725741 -0.3421086 0.06527088
-0.10648234 0.2356591 -0.6286069 -0.18133381 0.11159378 -0.2819972 0.47185567 0.87680846
-0.42020464 0.86831033 -0.9907392 -0.1541026 -0.21259598 0.06434996 -0.3571589 -0.010344119
0.10067073 -0.14689088 -0.9011961 -1.187858 0.3158541 -0.7823005 0.97301495 0.41188145
0.55442834 0.504499 -0.036668926 0.2857878 0.58536583 -0.20183013 0.10242984 0.082291014
-0.36926863 -0.09353035 -0.12815133 0.3216175 -0.31793416 0.31081697 0.15536655 0.083888024
-0.8257873 0.049542807 -0.2925867 0.03125028 -0.25888154 0.20426793 0.11860125 -0.080717094
-0.060758412 0.64135075 0.6931669 -0.0084050875 -0.3717395 -0.7361865 -0.72870517 -0.27512753
-0.38141736 -0.25869876 -0.40474457 -0.3286003 0.27178797 0.34196028 0.61413664 0.27813017
0.35859165 -0.34767377 -0.15005004 -0.21554123 0.36350358 -1.0642593 -0.077884264 -0.12720658
-0.47266495 -0.14920804 -0.5377842 0.36239824 0.015584693 0.06660436 0.81105536 0.1653692
0.06272171 0.7223668 -1.0408542 -0.8424379 -0.03560512 -1.0333617 -0.040146187 0.7895659
0.17302766 0.5327632 -0.5142936 -0.460466 0.51989084 0.02755196 0.2566963 0.14417526
-0.30269557 -0.3122222 0.12058329 -0.4635642 -0.29507506 -0.5179296 0.11747621 -0.15655632
-0.08413199 0.9666876 -0.9276709 -0.069787286 -0.1695692 0.031392746 -0.12715964 -0.1534579
0.34208107 0.39482972 0.14354469 -0.38653228 0.22818555 0.33705947 -0.10678613 -0.11466836
0.9216869 0.03724207 0.80861837 -0.06642214 0.17456682 -0.33190447 -0.3744337 0.0879812
-0.37967533 -0.03431111 -0.039195236 0.014278974 -0.32801536 0.32659873 -0.11974525 -0.029329441
0.41408604 0.60115165 -0.17312177 -0.24716824 -0.2609742 -0.06549729 -0.949982 -0.292785

layers.1.bias f4 [16]
00000000: 9dec 83be 9116 6cbe 8683 38be 3ede e8bc
00000010: e6d0 45bf b70e 7ebd 3ecd a03e e45d 28be
00000020: 31aa c63c 48c8 ad3d 3cf0 fcbd bfbc ebbd
00000030: f5a9 5e3e 2e36 a63e 3dc0 a0bc 4621 3fbe
-0.2576646 -0.23055483 -0.18018922 -0.028426286 -0.7727188 -0.062025752 0.31406587 -0.16442066
0.024251075 0.08485466 -0.123505086 -0.1151061 0.21744521 0.3246321 -0.019622916 -0.18665037

final.linears.0.weight f4 [112, 56]
00000000: a00c e8ba 8fce c9bc 38b5 bc3f 2089 723f
00000010: f8ab 45c0 e1a3 4f3e 1612 853c c7bf ccbc
00000020: 002c 6d3c c830 9f3e 39d4 163e 5de4 b9bb
00000030: 6c30 a73b 7638 023b cda8 85bc d904 ddbc
00000040: f8c0 85ba f31e c63b 2966 7d3c 8f91 9b3b
00000050: 659e ae3c 2ca0 623a e906 c5bc 841e 83bb
00000060: 30b5 48bc 957d e63c 56dd b03c 2a8e 11bd
00000070: 4ac2 093d 7934 03bc f46b 2c3c c0db 663e
00000080: 2b02 3fbe 3560 7a3b 32a9 aabd 3578 873c
00000090: d17d f8bd 0b43 f9bb 42e3 1a3d 2acc d7bb
000000a0: 6f02 203e e4ba c4bc cc69 a2bb 987e a23d
000000b0: 06cb bfbd 7e50 d73d bb04 713c a8b6 d63d
000000c0: 02de c8bd 1ffb 933d 65fd acbd a148 60bd
000000d0: 3de8 37be a471 a93c 5fa4 dbbd 782d 74bd
000000e0: 97af 893e f65f 0b3f 0535 603d e035 5f3d
000000f0: cf98 213d 0b68 91bb 6bd4 c0be c366 b5be
00000100: 68fc 3e3e 2419 e73d 867b 7f3e 1649 dc3e
00000110: 209f 1cbe e811 5d3e f3de adbe fb6e 703e
00000120: a6d5 39bc 4a49 b2be 2491 803e 0453 083d
00000130: 20b3 293c 83c6 d53e beba 383e f403 003d
00000140: c993 873c a629 833e 5a07 2cbd 8c0f 203e
00000150: ce94 0cbe be9e 793d 842e 763e a61d 1abe
00000160: aeea 633e 895b fcbc 0358 443e 55c0 043e
00000170: d204 2d3d 30af 3f3e ab7a ebbd df59 753e
00000180: 2e67 d43d 7245 fcbe 16c6 7b3f bdce 063f
00000190: d4f1 0abe bcdf e33e cc4c 15bf c5c2 6abf
000001a0: c2e7 50be 1f36 b9be c7ae 803e d915 67bd
000001b0: df81 efbe 97c2 d33d c358 7f3c 8b2e babe
000001c0: b1c3 65be 6f64 b9bc e1d8 9d3c ce6d d2bd
000001d0: e16c 44bd d39f 20bd 853b 9ebe 5d65 d53d
000001e0: 696a 8e3d 0863 debb 9ffb 8cbd 76c7 ee3d
000001f0: fadc 7fbd c643 96be 6c08 4e3e c4c9 bbbe
00000200: c257 febe 8fa2 9c3e ff9d b8bd c4ec 1cbc
00000210: 4e4d fd3c 39ef b9bd 8907 8fbe 4a51 833d
00000220: f413 8dbd 66bd e3bc 80f7 a13d 5f16 babd
00000230: 2c25 bc3c a099 a4bd 406a 433d 9f3e a73d
00000240: 7a48 cabd 3734 a2bd b8d1 e4bd 9938 983d
00000250: 4cd2 95bd 72f3 c9bc 4aca 693d 17dc b8bc
00000260: 6560 02bd d1a6 41bd 03b5 4bbd 7c6c 823d
00000270: 434f 103d 98e6 983d 7267 cabb 0158 75bd
00000280: 8da5 92bd 9961 753d e4db 96bd 77de 973c
00000290: 00e6 123e 8efa 88bd 3ec9 10bd 37fd b63d
000002a0: 7a47 253e 05ab 0bbf f3c8 e03d 37fe 9f3d
000002b0: 086e 8e3d 167a 68be c7a0 f6bd 4dc0 74bf
000002c0: b6d6 923f 729a 83bd 4728 7c3f fe5c e53f
000002d0: bfb0 7a3f 9c9f d8bd 5b61 85bf d38c 3abf
000002e0: a9ad 9abf 35ac 8f3f c91e 093f caa3 64bf
000002f0: 7805 313f 0658 31be 6251 6e3f c87a d0bf
00000300: ae48 93bd e036 2c3c 8fc6 93bd 0c9d c23d
00000310: fd01 f8bd 3532 6bbc 832e 4cbc 511a 11be
00000320: 8b6b c93d 6ca5 623d 433a be3c d7f8 06be
00000330: 9317 b63d ec10 b63d ba75 efbd e701 053e
00000340: 99bd 193d 4fe7 113e 7395 643c 2832 c4bc
00000350: ad48 af3d 5b21 abbc 46b0 be3b 65ca c1bd
00000360: 7b78 1f3d 5e21 d8bc b35a 01bc b69d b03d
00000370: 36f0 143e f6b2 9a3c 35d0 023d ab8c 743d
00000380: 0698 36be a626 f4bd d0ab 543e f5fb f43c
00000390: a8b9 143b 795c a23d 13b4 093e 0b39 9d3d
000003a0: 16ce 00bc 5eee 52bd d83d 02bd 41bf 663d
000003b0: 53b7 973e 99cb 853e 0f8e d33d b055 03be
000003c0: 835f 953d d7e3 3f3d 6cb5 8b3e 5440 e1bd
000003d0: 6baf 813e fe46 793e 5e74 8f3e b75e 7dbe
000003e0: f08e adbd 11e5 af3b 9ee6 e53d 40b2 22be
000003f0: eff3 db3d 8764 95bd d443 533d ee7c 463e
-0.0017703958 -0.024634628 1.4742804 0.94740486 -3.0886211 0.20277359 0.016243976 -0.02499379
0.014475822 0.31091905 0.14729394 -0.005672975 0.005102208 0.001987008 -0.016315842 -0.02697985
-0.0010204604 0.00604617 0.015466251 0.0047475765 0.021315763 0.0008645083 -0.024051147 -0.0040014405
-0.01225023 0.028136054 0.021589916 -0.03553597 0.033632554 -0.008008116 0.010523785 0.22544765
-0.18653171 0.0038204317 -0.08333053 0.016536811 -0.121333726 -0.007606869 0.037814386 -0.0065856175
0.15625928 -0.024014898 -0.0049564596 0.07934302 -0.093648955 0.105133995 0.0147106005 0.10484058
-0.0980797 0.07225632 -0.08446769 -0.054756764 -0.17959686 0.02068407 -0.10724711 -0.059613675
0.26891777 0.544433 0.054738063 0.05449474 0.03945237 -0.0044374517 -0.37662062 -0.35429963
0.18650973 0.11284092 0.24949464 0.4302451 -0.15295076 0.21588862 -0.3395916 0.23479836
-0.011342442 -0.3482154 0.25110734 0.033282295 0.010357648 0.41753015 0.18039986 0.03125377
0.016549962 0.25617713 -0.0419992 0.1563093 -0.1372864 0.060942404 0.24041182 -0.15050372
0.22257492 -0.030805366 0.19174199 0.12963994 0.042240925 0.18719172 -0.114980064 0.23960064
0.103712425 -0.49271733 0.9834913 0.5265921 -0.13568813 0.44506633 -0.5832031 -0.91703445
-0.20400909 -0.36174104 0.25133345 -0.05641732 -0.4677877 0.103398494 0.015585127 -0.36363634
-0.22437932 -0.022630898 0.019268455 -0.1027485 -0.047955398 -0.03921492 -0.30904785 0.10419724
0.0695389 -0.006786708 -0.068839304 0.11659138 -0.0624666 -0.29348582 0.201204 -0.36677372
-0.4967633 0.30592772 -0.0901451 -0.009577934 0.03092065 -0.09078831 -0.27935436 0.06411989
-0.068885714 -0.027800273 0.07908535 -0.09086298 0.022966944 -0.08037114 0.04770875 0.08166241
-0.09877105 -0.079201154 -0.11172813 0.0743267 -0.073155016 -0.024652217 0.057077684 -0.022565885
-0.03183021 -0.04727823 -0.049733173 0.06368348 0.03523184 0.07465857 -0.0061768824 -0.05989838
-0.071604826 0.05990753 -0.073661596 0.018538697 0.1434555 -0.066884145 -0.03534817 0.08935016
0.16140547 -0.5455783 0.10975828 0.078121595 0.069545805 -0.22702822 -0.120423846 -0.9560593
1.1471775 -0.064259425 0.9849896 1.7919004 0.97925943 -0.10577318 -1.0420336 -0.7287113
-1.2084247 1.1224428 0.535626 -0.8931242 0.6914897 -0.17318735 0.9309293 -1.628747
-0.07191597 0.01051113 -0.072156064 0.095026106 -0.12109754 -0.014355232 -0.012462261 -0.14170195
0.09834965 0.05533354 0.02322114 -0.13180862 0.08891215 0.08889946 -0.116923764 0.12989007
0.03753433 0.14248393 0.013951647 -0.023949698 0.08558784 -0.020889929 0.0058193533 -0.09462432
0.03893326 -0.026383098 -0.00789516 0.08623831 0.14544758 0.018884163 0.031936843 0.059704464
-0.1783143 -0.11921434 0.20768666 0.029905299 0.0022693668 0.07927794 0.13447599 0.07676896
-0.007861635 -0.051496856 -0.03179726 0.056334738 0.29632053 0.26131895 0.1032983 -0.12825656
0.07293608 0.046848144 0.2728685 -0.10998598 0.25329146 0.24343488 0.2801847 -0.24743162
-0.08474529 0.005367883 0.11225627 -0.1588831 0.10739886 -0.07294565 0.051578358 0.19383594

final.linears.0.bias f4 [112]
00000000: 2633 76be f929 293e 7d10 9e3c 9b34 143d
00000010: 4bab 6bbe b200 053f dc2b 81be 49f4 cc3d
00000020: dce4 7ebe 73db 453e acc4 d83d 1b2f 27be
00000030: 6d3c 563e 48cb a63d 1c4e 813d 424c cd3e
00000040: 5c2e 723d 580a 273d a1ba 5d3e 0129 fa3b
00000050: 3a87 f63d b746 ab3e 12ca 683e ea84 a93e
00000060: 9a9e 683e 1a78 943e dcac 853b 70c8 bebe
00000070: d3a5 c83e fc90 293d 125b 61be 0929 163e
00000080: ff66 fe3c 10a9 04bf 09a5 2f3e 13aa 0ebd
00000090: fc9d bc3d 34a2 32be 939f 913e bb1c 17be
000000a0: 1834 013f bac3 5d3e c5da 3abe 9140 0dbe
000000b0: 951d 213e 4ed5 aebc 2ba9 ac3e 8430 ce3e
000000c0: f613 06bf 45db 3e3e af03 503d 1a4e a93e
000000d0: a4bb a63e 91e0 943e 521d 6f3e 5912 6abe
000000e0: 42fb 21be 8640 e5bd 85e5 0e3e f1ad 3ebd
000000f0: 869d a23e 4f56 013c 354c 9dbe ccd0 523e
00000100: 8bfe e0bd 12cc 1cbd e2e6 c73d b8b0 52bc
00000110: 53e8 8e3e 1fb9 523e c208 9bbd e11a 993d
00000120: f758 90bd a673 993c 63de 33be e10e 743d
00000130: dae3 90bd 2f53 c93d 4815 e2be 0194 9bbe
00000140: 0c76 703e 447c 8e3c c557 9c3e 3eae d63e
00000150: 9a53 4cbe f837 22bd ba79 96be 2e7d 073d
00000160: ef16 b6bd de5b 17be 2353 473e afc5 bdbd
00000170: 6c35 933d f28e 1fbe cc53 b63e d63c 103e
00000180: 7965 4e3e e934 7ebe 8c1f e23d a8dc d03e
00000190: c341 db3d 9e83 8d3e ebb3 54be 4ef8 a9be
000001a0: 3528 3cbc fc38 33bf 2128 bf3e 2ad3 113f
000001b0: e3e5 83bd 22df 8a3c ee8c 8dbd 1f10 253d
-0.24042949 0.16519918 0.019294972 0.03618298 -0.23014562 0.51954186 -0.25228775 0.10007531
-0.2489199 0.19321994 0.10584387 -0.16326563 0.20921488 0.081442416 0.06313726 0.40097243
0.059126243 0.04078135 0.21653225 0.0076342826 0.12037511 0.3345239 0.22733334 0.33109218
0.22716752 0.2899788 0.0040794443 -0.37262297 0.39189014 0.041398033 -0.22007397 0.14664091
0.031054972 -0.5182047 0.171528 -0.034830164 0.09209821 -0.17444688 0.28442058 -0.14757054
0.50470114 0.21656695 -0.18247516 -0.13794161 0.15733941 -0.021341946 0.33722815 0.4027139
-0.5237421 0.18638332 0.050784763 0.330674 0.32565033 0.2907758 0.23351029 -0.22858562
-0.15818503 -0.111939475 0.13954742 -0.046552602 0.31760806 0.007894113 -0.30722204 0.20587462
-0.1098605 -0.038280554 0.09760834 -0.012859516 0.27911624 0.2057843 -0.0757003 0.0747583
-0.07048219 0.018731903 -0.17565303 0.059584502 -0.07074709 0.09830319 -0.4415686 -0.30386356
0.23482531 0.017393239 0.30535713 0.4192981 -0.19953766 -0.039604157 -0.29389745 0.033078365
-0.08891093 -0.14781138 0.19465308 -0.09266221 0.07187924 -0.15581873 0.35610807 0.14085707
0.20155896 -0.24824871 0.11041173 0.40793347 0.107059024 0.27639478 -0.20771758 -0.33197254
-0.0114841955 -0.70008826 0.37335303 0.56962836 -0.06440332 0.016952101 -0.06911646 0.040298577

final.linears.1.weight f4 [112, 112]
00000000: 4126 213d d835 80be 36c3 723c 9ebd e1be
00000010: a0fb 93bd 0047 b9be 5f23 b8bd 8b49 b0bc
00000020: 220f 38be 9f6d bfbe 4b8f a7be 0d5c a7be
00000030: debd 96be 0522 85be b09c 56bd 6d2f 6dbe
00000040: 2644 87bc 9a5d 18be ae01 6dbe ef44 a0bd
00000050: 5594 89be 16ab afbe 0073 96be 6c0a c9bb
00000060: 1892 e33c 1c0a 60be 4f77 e1bd 13dc 2dbe
00000070: 3b86 8a3d b862 57be 16b6 d6bd f25a 6bbe
00000080: 7289 83be 9b42 ec3d baad cebe 2c6a 123d
00000090: 0a3c 9ebc 4ce7 7bbd 3fe1 aebe 3a3b 4fbd
000000a0: 1362 8abe 03c8 7cbe bad1 04bb 28c2 68be
000000b0: a8da a1be 2b45 14be e6fa 22be 4b7f 9dbe
000000c0: 7e8a 833d 3c6e 7abc ba42 b3bd 92e5 5cbe
000000d0: 28ac c83b 8a78 a3be ddec f1be b83c 8abe
000000e0: 185a 243c be6c 74be fefa 23be 9b25 bfbd
000000f0: 9e4f aebe 6db9 0e3e 2186 283d 52e0 c13d
00000100: 6299 a9bf d09e e7bd 3125 79bb 55fe 89be
00000110: 16e7 26bd 92a2 8cbe e3cd 423d 320f b6be
00000120: e543 1ebd 1cb0 bfbe cbbc c43d 4d43 26be
00000130: 2628 38be 9542 73be 6839 643c e7fa 0e3c
00000140: dc15 04bd bc69 40be 0e73 de3c d69c a0bd
00000150: 4ac9 623d 93db 78be 243a 2abe 3e5e 953d
00000160: 93b2 31be 2b15 dfbe cec4 94bd fc81 6ebc
00000170: 4f82 80bd fb4e 8ebe 3688 aabd 6cc2 b3be
00000180: d3ee 1ebc cca6 293d 857c bfbe 6907 cdbe
00000190: 18e4 c1be d638 2abd 84d2 213d 0377 dc3d
000001a0: b061 13be df41 423e e94a 64be edf8 abbe
000001b0: 4c42 803d bb00 8fbc b0cf a1be 32a2 fdbe
000001c0: a193 7d3e 7277 5fbe f4de ecbd 9ad1 f4be
000001d0: f060 89bd d63a bebe 42ac dabd 0750 323d
000001e0: 8780 44be fbe9 9dbe 6a05 b7be 1bf3 64be
000001f0: b3a0 80be b000 96be 8c37 93bd a6b0 1bbf
00000200: 8e62 b5bd ce5f 36be 7914 c6bd 90a4 d1be
00000210: 5d3e a8be f8b8 a5be 38c2 e2be 451a 27be
00000220: 13d9 c4bd e489 f4bd 9f97 efbd b666 93bd
00000230: 0fb4 16be 14e4 00be 03e9 c03b 0380 b6be
00000240: 988e b5be 2f49 c43e 8e88 14bf 3405 cf3b
00000250: ed84 22bd fae2 d8bd 1477 afbe 46f0 37bc
00000260: 4d74 8cbf f343 a6be d447 533c 5196 13be
00000270: d36f 96be 0a25 f1bd a349 80be 7b04 c4be
00000280: 050d 583e 4e08 c8bd 89e1 44bd 829a 1cbf
00000290: 8796 90be 1768 8ebe edbb debe 34b2 76be
000002a0: e2cf f73c 4ecf 59be 54fe 63bd e12c b93d
000002b0: 636a 1ebe 172b 2cbe a3c9 cc3d 9deb 25bc
000002c0: 2657 7cbe 60b6 1abe 6f83 c4bd 7af0 39be
000002d0: 17c6 e2be 335b 92be c0b2 373e 41b2 b5be
000002e0: b3c7 32be 418c afbe cab8 ff3b c95c 3f3d
000002f0: 7c58 c8be ede7 89be e0af 753e 148f d43c
00000300: 3f27 fdbd 8486 8fbe a869 06be 7769 b6be
00000310: 9562 583e 77ba 67be e138 943d 49e6 643d
00000320: 0eff d0be 7e1d 39be b251 57bd 8be5 3ebd
00000330: 7a9d 74bd a09e 97be 46e3 9dbe 194f 0dbf
00000340: a02f 9d3c 70f9 b03d f8e7 97be 19ca 9cbe
00000350: e1ac b6be 694b c9bd a5d3 d33b 9bee 3f3e
00000360: 298d 91be 2843 5e3e ccb1 08bf 4d63 b9be
00000370: e18b 213b 78c2 20bd 1af0 6ebe 51e2 97be
00000380: a34c 843c 74c0 9dbd dcf4 95bb a42e cfbc
00000390: 58d5 b0bd 6d82 60bd 6e29 b0bc 7a2a dfbd
000003a0: 95da cebb 086d 4bbc 7fa2 04bd f5e8 2b3d
000003b0: 8003 963e 9a24 05bd 8b13 b63d 8dd3 83bd
000003c0: 6d11 a4bc 6ba8 beba 5796 d0bb 0c9f 6abc
000003d0: e775 dabc 1cb3 24bd 147f b7bc 2df1 5abc
000003e0: bd35 acbc 20c5 4d3d 3197 8bbd 2d79 343e
000003f0: d48d 92bd 24f4 06bd c24c 703d 8d2b b9bc
0.039343122 -0.2504108 0.01481705 -0.4408998 -0.07225728 -0.3618698 -0.089911215 -0.021519443
-0.17974523 -0.37388322 -0.3272651 -0.32687417 -0.29441732 -0.26002517 -0.052395523 -0.23162623
-0.016511988 -0.14879456 -0.23145172 -0.07825648 -0.2687098 -0.34310216 -0.29384613 -0.0061352756
0.027779624 -0.21878856 -0.110090844 -0.16978483 0.06763884 -0.21033752 -0.10483949 -0.22983912
-0.256908 0.115361415 -0.40366918 0.035745785 -0.019315738 -0.06149988 -0.34156224 -0.050593592
-0.2702795 -0.24685673 -0.0020266608 -0.22730315 -0.31612134 -0.1447951 -0.15916023 -0.3076118
0.064229 -0.015285071 -0.087529615 -0.21571949 0.0061240382 -0.31927902 -0.47251025 -0.2699945
0.010031246 -0.23869607 -0.16013715 -0.093333445 -0.34045118 0.13937922 0.04114354 0.09466614
-1.3249934 -0.11309588 -0.0038016553 -0.26951852 -0.040747724 -0.2746778 0.04755963 -0.35558468
-0.038638968 -0.37439048 0.09606322 -0.1623661 -0.17984065 -0.23755868 0.013929702 0.008726812
-0.03224741 -0.18790334 0.027154472 -0.07842414 0.055367745 -0.24302511 -0.16623741 0.07293366
-0.17353277 -0.43570837 -0.072641 -0.014557358 -0.062748544 -0.27794632 -0.083267614 -0.3510927
-0.009700495 0.041418836 -0.37399688 -0.40044716 -0.37869334 -0.04155811 0.039507404 0.10764887
-0.14392734 0.1897044 -0.22294201 -0.33588353 0.06262645 -0.017456403 -0.31603765 -0.49537808
0.24763347 -0.21822909 -0.115659624 -0.47816163 -0.067079425 -0.37154263 -0.10677387 0.04353335
-0.19189654 -0.30842575 -0.35746318 -0.22358362 -0.25122604 -0.292974 -0.07188329 -0.6081642
-0.088566884 -0.17809984 -0.096718736 -0.40945864 -0.3286008 -0.32367682 -0.44288802 -0.16318615
-0.09611716 -0.11940363 -0.11698841 -0.07197325 -0.14717124 -0.12587005 0.005887152 -0.3564454
-0.35460353 0.38337085 -0.58020866 0.006317759 -0.03967755 -0.10590167 -0.34270537 -0.011226719
-1.0972992 -0.32473716 0.012895543 -0.1441281 -0.2938219 -0.11774643 -0.2505618 -0.38284668
0.21098717 -0.09767209 -0.04806665 -0.6117326 -0.28239843 -0.2781379 -0.4350275 -0.24091417
0.030250493 -0.21270487 -0.055662468 0.09041763 -0.15470271 -0.16813312 0.09999397 -0.010126975
-0.2464262 -0.15108633 -0.095953815 -0.18158141 -0.44291756 -0.28585204 0.17939281 -0.3548756
-0.17458992 -0.34286693 0.007804011 0.046719346 -0.39130008 -0.26934758 0.23992872 0.025947131
-0.12361001 -0.28032315 -0.13126242 -0.35627338 0.21131356 -0.22629724 0.07237411 0.05588368
-0.4081959 -0.18077657 -0.052568145 -0.046605628 -0.059720494 -0.2961321 -0.30837458 -0.5519882
0.019187748 0.086413264 -0.29669166 -0.30622938 -0.3567877 -0.098288365 0.006464439 0.18743365
-0.2842801 0.21705306 -0.53396297 -0.36208573 0.0024650025 -0.03924796 -0.23333779 -0.29664853
0.016149824 -0.07702723 -0.0045763087 -0.025290795 -0.08634442 -0.054811884 -0.02150413 -0.10896774
-0.006312678 -0.012416132 -0.03238153 0.041970212 0.29299545 -0.03250561 0.08890446 -0.064368345
-0.02002784 -0.0014546042 -0.006365578 -0.014320146 -0.026667548 -0.040209875 -0.022399463 -0.013363165
-0.021021718 0.05023682 -0.06815947 0.1762435 -0.07155958 -0.032947674 0.058666952 -0.022603774

final.linears.1.bias f4 [112]
00000000: da3b 5ebe 676c e8be 1b6e 71bd 6ca2 81be
00000010: 3c59 55be 3290 2ebe 902f 62be d292 8bbe
00000020: 2db8 58be fb26 97be 8d9f 89bd 7466 3bbe
00000030: f9ee 0dbe 264b 11be 19ad c0bd 320e 8d3d
00000040: f022 61be c3ed cb3c 0ba4 913d 02ea e03c
00000050: 7c9e b0be d2ad 80be 9f29 50be 0e53 09be
00000060: d6eb b1bd ebbb 20bf 8511 cebd 0fec 8dbe
00000070: 9918 b6be c528 133e cbaf 76be edcb e7bd
00000080: 4f03 5bbe 22c6 90be 9310 c9bc 18f8 7bbc
00000090: bbca e0bb d072 86be 8563 01be 0333 0ebe
000000a0: 719c 91bd 9852 8fbe b0c8 ccbe 4c9f b4be
000000b0: 6223 4bbe c4c4 f4be ecb5 3ebe 433c 8bbe
000000c0: 7eea 8bbe e77a 66be 8f73 06be 1b8c 97be
000000d0: d163 2fbe b370 ccbd dfa4 90be 0d12 48be
000000e0: a26b a6be b57f 2ebe ea42 a1be e784 81be
000000f0: 500f afbe 3124 70be 823b 74bf 62fc 2abe
00000100: 7131 79be bf6a 96be 5718 2ebd a121 bc3c
00000110: 0de3 dabd d04c 58be 6fce 8c3b 74b9 9dbe
00000120: dc25 3ebe 4d9f 34be eb65 c2bd 1a18 35be
00000130: b606 92be 5cca 64be 81d2 503d 9cbd 2ebe
00000140: 8f8b 1fbd e481 b9bc 1fee 463e 385b 14be
00000150: de9c 79be b7b4 bfbe 78fd a1be 4cce 1fbf
00000160: ccdb b3bd e1bb da3d 8851 b0bd d3df a13d
00000170: 79db 91be 2dea b8bd 16dd 8dbe 57e7 bfbe
00000180: 7a58 f1bd 0ccc c1bd 95d7 28be 9085 9ebd
00000190: 1fa9 26be a783 863d c8c7 d0bd ceb7 01bc
000001a0: 38db 7ebc c84e fd3c a302 293d ee9f e93c
000001b0: 7dfd 85be b4b5 2fbe 1d69 07bd 9771 99be
-0.21702519 -0.45395204 -0.058942895 -0.2531923 -0.20834821 -0.17047194 -0.22088456 -0.27260453
-0.21164007 -0.29521927 -0.06719885 -0.18300802 -0.13860692 -0.14188823 -0.09408016 0.06887473
-0.21985984 0.024893647 0.07111367 0.027455334 -0.34495914 -0.25132614 -0.20328377 -0.13410589
-0.0868756 -0.6278674 -0.10061935 -0.2771916 -0.35565642 0.14371021 -0.24090497 -0.11318193
-0.21387981 -0.28276163 -0.024544036 -0.015378974 -0.006860105 -0.2625947 -0.1263562 -0.13886647
-0.07109917 -0.27992702 -0.39996862 -0.35277784 -0.19837716 -0.4780637 -0.18624085 -0.27194414
-0.2732734 -0.22507821 -0.1313002 -0.2959908 -0.1712792 -0.09982433 -0.28250787 -0.19538136
-0.32503992 -0.17040904 -0.31496364 -0.2529671 -0.3419137 -0.23451306 -0.954033 -0.16697839
-0.24335267 -0.29378316 -0.04250368 0.022965254 -0.10687838 -0.21123052 0.0042970697 -0.30805552
-0.1856913 -0.17638893 -0.094920956 -0.17684975 -0.28520745 -0.22342819 0.050982002 -0.17064518
-0.038951453 -0.022644944 0.19426773 -0.14487922 -0.24376246 -0.37442562 -0.31638694 -0.6242416
-0.08782157 0.10680366 -0.08609301 0.07904019 -0.28487757 -0.090290405 -0.27707738 -0.37481186
-0.11784454 -0.09462747 -0.16488488 -0.07740319 -0.16275452 0.065680794 -0.10194355 -0.007917358
-0.0155551955 0.030921355 0.04126228 0.028518643 -0.2616996 -0.17159158 -0.03305923 -0.29969475

final.linears.2.weight f4 [24, 112]
00000000: 8898 cd3e bffc 553d b127 533e 1ba5 c3bd
00000010: b212 bc3d a177 02bd 13c8 5dbd b091 01be
00000020: 91ed 7f3d 501a c5bd 8a9b 40b9 5e1b af3e
00000030: ce58 41be f7e2 803e 21d2 1dbe 9ed5 f83b
00000040: b485 743d 08be 3e3e b27d b63e 596e 1c3e
00000050: 210c 93be 0933 72be 799c 18bf cd63 51be
00000060: 4f42 463b 74b4 41bb 7098 fc3c 7b71 6f3e
00000070: 49bd 1e3e 0c42 c3bb c50e e2be d02c 0f3e
00000080: b533 2bbe 1a92 54be d866 3a3b 5b6b ecbd
00000090: 83c9 0b3e f757 e53e 76ae bc3b 9e6e 0abc
000000a0: 0b2f 80bd b88b 0f3f 9c51 0ebe 6ce5 f5be
000000b0: e9a9 8a3b a23d 70bb 9698 3abe db81 033e
000000c0: 32a6 843e e572 3739 8538 68bb ddd3 083f
000000d0: 6b53 d6bc e671 1f3d 6926 2bbf e60c 1bbc
000000e0: b6ee 41bf 721b 0b3e 264f f63d a2f5 6a3e
000000f0: 1684 dcbe e324 b43e 9a2c 7d3a 8ba1 c0bd
00000100: 5403 7dbe c2fc 013e 91a7 f2bc 0959 703e
00000110: 0278 e6bd 934a bcbd 3b74 eabd b54a 17bc
00000120: 0bb7 46bd a3ab c2be 9c63 df3c 9264 e1bc
00000130: 79ae 15bd 496c d5be eebd 89be 95d3 4bbe
00000140: 50f8 9a3d 6bbf 27bc 39df 393b bb10 c83b
00000150: 7e98 5d3e cc2b c93e e6a2 b63e 4808 0fbc
00000160: 1f78 3abd 3d4d 033c d100 1d3e 5d5f ce3d
00000170: 5487 93be 2a6d 82be b968 d9bd d3d0 f33c
00000180: 3cb1 0f3e 3704 0dbe 510e 8b3f a5bf 06be
00000190: 06e9 c03d 39a3 fdbd 1b86 6f3e 4586 0abe
000001a0: 5f31 22ba 3393 37be 7069 c8bc 225d 88bd
000001b0: 1b3a ad3e 8872 a23e 1d6c d43b 7d9c 96be
000001c0: f541 2f3e ae20 28bd 25b0 05be 3296 f3be
000001d0: 9b78 07be 50bd 6c3e 59cb 483e e297 8abe
000001e0: 5178 a43d b45a 2cbf 9697 b7ba 1b8e 0b3d
000001f0: c462 49be 606b ac3d 2e20 bd3d 6979 51ba
00000200: 9a97 5fbe 573c 503e bd94 99bd 356f 3e3d
00000210: e852 7d3e c875 e9be e83a bdbc 6e8d 0abe
00000220: d31a bebe f872 a8bc d04c 883c bdf0 2d3e
00000230: a3b6 bdbe a1f7 ad3c e213 aa3e 0ad0 7b3d
00000240: 6df4 ed3d 8b92 d1be c003 8d3b 1de4 38bd
00000250: 44be 99bd eabb cfbe 46c7 0cbc 4af5 4d3b
00000260: be56 4e3e f8be 68be 0708 01be 6e07 ce3e
00000270: 2d39 88be ebe3 b03a 7c99 6bbd fadb b63e
00000280: 0fbe 4ebe 7874 2abd be1b 8e3e e83b 11bf
00000290: f288 3abe 400d 22bb 0d9a 40be 9cb1 f13e
000002a0: b9dc 923d 52a4 4d3c f1e4 d83b 173a aabc
000002b0: 53e9 b23e a7c8 72be 8885 613a 6a65 8d3e
000002c0: b1f9 373e 47f8 303f dadb 85bc edca 2c3e
000002d0: a7e8 593d 9269 40be a031 42be 0751 73be
000002e0: 00e9 26be ab02 a63d 3d5c 093d 1951 2e3f
000002f0: a498 f53e 9f02 0a3e f77d adbd 6b44 18be
00000300: 1493 6ebe 5ba2 443e 48a9 3d3b f290 1fbb
00000310: b3ae d03e 9b68 873e afff cc3e 0d98 c6bb
00000320: 8c13 36bd c3da 8d3b 5aaa 683e 9658 9ebe
00000330: 1f7a 0dbf bc76 733e 22b0 923d d042 b73b
00000340: 8228 f0bd 8739 2bbe 905c 013f 210d 9ebe
00000350: ecc2 843e 905b 8cbc aea6 7abd a031 103e
00000360: b1f4 c33b ad30 4d3d a507 de3c c50c fcbb
00000370: 9c2e 02be 519f f3be 6f3a 723b 3f52 803d
00000380: fe3e 9fbd df78 1b3f 380b 8abb a154 74be
00000390: 0fc5 263d 9ced 4fbe 8b12 a23d 8ec8 09be
000003a0: 078f a9bd 161d bdbd 0459 0e3e 2c55 66bb
000003b0: 3ba4 bb3d a625 d83d c2b4 a83d 2821 83bc
000003c0: d30f 8d3d 6f76 a1bd 9524 09bd 1c7d b6bd
000003d0: 66bc 523e 6e87 60be f883 66be fce7 303c
000003e0: a070 f8bc d437 523f fb5d 293e 02d5 983c
000003f0: 0271 29bd 9463 c6bd 3e7f cdbe 4a1a b13d
0.40155435 0.05224299 0.2062061 -0.09552976 0.09183253 -0.03185237 -0.054145884 -0.12653232
0.06248242 -0.09624159 -0.0001836849 0.34200567 -0.18881533 0.2517316 -0.15412189 0.0075938245
0.05969782 0.18627179 0.35642773 0.1527647 -0.2872019 -0.23652281 -0.5961376 -0.20448227
0.0030251925 -0.0029557021 0.030834407 0.23383133 0.15501894 -0.005958801 -0.44151893 0.13981938
-0.16718943 -0.20758858 0.0028442647 -0.11543914 0.1365109 0.44793674 0.005758102 -0.008449225
-0.06258973 0.5607257 -0.13898319 -0.48026597 0.0042316807 -0.003665783 -0.1822227 0.12842505
0.25908047 0.00017495042 -0.003543408 0.5344828 -0.026162824 0.03892698 -0.66855484 -0.009463524
-0.7575487 0.13584688 0.12026815 0.22945264 -0.43069524 0.35184392 0.000965783 -0.09405812
-0.24708301 0.12694076 -0.029620918 0.23471464 -0.112533584 -0.091939114 -0.114479505 -0.00923412
-0.048514407 -0.38021573 0.027269177 -0.027513776 -0.036543343 -0.41684178 -0.26902717 -0.19904931
0.07566893 -0.010238509 0.002836181 0.00610551 0.21640202 0.39291227 0.35671157 -0.008730002
-0.045524713 0.0080140205 0.15332343 0.10076783 -0.28814185 -0.2547391 -0.106156774 0.029762661
0.14032453 -0.13771139 1.0863744 -0.13159044 0.09419446 -0.12384648 0.23391001 -0.13527782
-0.00061871664 -0.17927246 -0.024464339 -0.06658389 0.33833393 0.31728005 0.0064826147 -0.29416266
0.17115004 -0.04104679 -0.13055475 -0.47575527 -0.13229601 0.23119092 0.19608821 -0.27069002
0.08030761 -0.673259 -0.0014006968 0.03407107 -0.19666582 0.08418918 0.092346534 -0.0007990809
-0.21835175 0.20335518 -0.07499073 0.046492774 0.24738657 -0.45597672 -0.023099378 -0.13530514
-0.3712984 -0.020562634 0.01663819 0.16986366 -0.37053403 0.021236243 0.33218294 0.0614777
0.11618886 -0.40932116 0.0043034256 -0.04513942 -0.075069934 -0.40573055 -0.008592432 0.0031426721
0.20150277 -0.22729099 -0.12600718 0.40240043 -0.26606122 0.0013495659 -0.05751942 0.35714704
-0.20189689 -0.04161498 0.2775554 -0.56732035 -0.18216303 -0.0024727136 -0.18808766 0.47205818
0.07171006 0.012551384 0.006619089 -0.020779653 0.34943637 -0.23709355 0.00086029666 0.27616435
0.17966343 0.6912884 -0.016340185 0.16874285 0.05320039 -0.18790272 -0.18964243 -0.23761378
-0.1629982 0.081059776 0.03353523 0.68092495 0.47968018 0.13477562 -0.084712915 -0.1486985
-0.23298293 0.19202559 0.002894001 -0.0024347869 0.40758285 0.26446995 0.4003882 -0.0060606063
-0.044452235 0.004329057 0.22721234 -0.3092696 -0.55264467 0.23775762 0.07162501 0.0055926815
-0.11726476 -0.16721164 0.50531864 -0.30869392 0.25929964 -0.017133504 -0.061194114 0.1408143
0.005980097 0.05009525 0.027103255 -0.007691952 -0.12713093 -0.47582486 0.0036961099 0.06265687
-0.07775687 0.6073131 -0.004212763 -0.23860408 0.040715273 -0.20305485 0.07913693 -0.13455412
-0.082792334 -0.09234063 0.13901144 -0.0035145981 0.09162184 0.10554056 0.08237602 -0.016007021
0.06887784 -0.078839175 -0.033482153 -0.089105815 0.20579681 -0.21926662 -0.2251128 0.010797497
-0.030327141 0.82116437 0.16539757 0.018656258 -0.04136754 -0.09686962 -0.4013614 0.08647592

final.linears.2.bias f4 [24]
00000000: 1fbc f83c 0639 bdbc f713 193d efc9 ed3d
00000010: c652 7fbc df0c 22be fceb 8e3c 3972 f43c
00000020: 0129 5abd 9cdf ed3c d354 eebc 4dc7 b4bc
00000030: fc79 043d 9cb7 f93b 37b1 28bd 83af b53b
00000040: 80c8 f23d efa9 6bbd 88c8 04bc b0e0 c83c
00000050: 14a6 9a3c 75af 98bc f815 463d 3378 da3d
0.03036314 -0.02309848 0.037372556 0.116107814 -0.0155837 -0.15825222 0.01744651 0.029839622
-0.05326176 0.02903729 -0.029093182 -0.02206769 0.032342896 0.007620765 -0.04118463 0.0055446043
0.118546486 -0.05753511 -0.008104451 0.024521202 0.01887802 -0.018638352 0.048360795 0.106674574

layers.0.attn.0.gnn_q.weight f4 [24, 16]
00000000: dac3 ab88 022b 9988 f725 b008 0c3f 7708
00000010: 0f1f 24a5 e31c b69a ee57 aa88 d01b 660e
00000020: 31f7 b908 3a97 ff0f d756 b008 aedb a308
00000030: 354c b008 fb5c ab88 b149 f524 fc95 6ea4
00000040: 7fdd ae08 6604 b208 4ad8 b188 2aab 7508
00000050: 9662 e4a4 2cd9 0099 139f ac08 ba0f 880b
00000060: 9bdb b388 002b 9b8a 0e91 9588 9be0 b208
00000070: fe6d b308 48eb a388 7b61 a124 ff7e 10a4
00000080: 76e7 af88 856a ae08 ad21 a088 87db ac88
00000090: 3a64 0d23 adbc c919 2085 2788 02be da8d
000000a0: eebc af08 081e ec8c 51a6 b088 cf88 1708
000000b0: 9175 af88 e07c a108 f74c c7a2 9a36 e522
000000c0: 6050 ae08 90f7 b188 b443 8a08 8c71 9f88
000000d0: f4f5 ba23 a4b1 1a19 9de2 ae88 968c 8b0c
000000e0: 9eb3 b188 b857 c48d 11d1 ae08 6173 a208
000000f0: b01e a508 f99c a188 bea6 86a3 046c 0f23
00000100: 3b54 a788 3f5e 8388 91a8 a908 6351 b188
00000110: b9bd faa4 a9d7 c399 c1ef b288 94ad b48c
00000120: c5c0 a308 e01b 848c f4b7 a288 0d05 ab88
00000130: 78a6 a488 0e27 7a08 7676 bd24 66a8 34a4
00000140: fd43 b488 c638 9288 4224 9708 97bc b308
00000150: 4859 f5a1 449a 7519 58b7 b188 9c35 968b
00000160: c65d 6e88 1b27 b60e 3b36 b088 d3e5 e607
00000170: 553f a608 07e8 ad08 3c12 2221 a805 8622
00000180: 0298 ab88 ac76 a088 4bb2 b308 fba6 ac08
00000190: 7630 6da4 50cd 4d9a 444d ae88 a09f ab0d
000001a0: e2d4 a988 a7ef 3d0f 49e7 af08 7a39 b288
000001b0: 399d b008 ef9f b488 9a34 4324 b1a8 e6a3
000001c0: 149a b188 320a b288 1aa1 b088 fedf a808
000001d0: 1ea1 2ba3 8e71 d71a e198 af08 42db be8e
000001e0: 1b69 b688 aded 3590 18d7 b008 34d9 ab88
000001f0: a029 ae08 0152 aa88 60bc 6da1 f9c0 3123
00000200: 6ded 7188 6df8 b008 d89a ac88 40bc a988
00000210: 8eb0 0da4 de48 4819 742c ab08 98f6 fe8d
00000220: 9d84 a908 2282 5f8f 18b5 b108 d65a 9c08
00000230: 4aeb ac88 2342 ad08 3d04 c723 755a 22a3
00000240: a7af c008 cd3d a708 d8ab a208 edfc 9208
00000250: 7847 eb24 c1ec a51a 322c ab08 bd40 718e
00000260: 51b1 b188 24e4 0790 50b9 a288 a807 a408
00000270: 663a b288 9b7d 8c08 6f50 c1a4 8421 3f24
00000280: 2416 ae08 4591 af88 75c7 9b88 46be b188
00000290: 1ab8 30a5 ed57 a29a f288 a588 ce0a 350e
000002a0: d371 ac08 fa2e d50f f34f ab08 14a0 3888
000002b0: 5e58 b288 3136 1d08 91de 0225 3f0c 81a4
000002c0: 64a6 c387 8ca7 b188 a9ec 9c08 908d b108
000002d0: 0463 cea4 65ca 109a 0f70 b388 05e8 5a0d
000002e0: db07 b508 b4b2 080e 7b0e a688 89be b008
000002f0: 59d2 b088 ca38 a788 1a0d 9824 3bfe 13a4
00000300: 7e03 ad88 a855 b088 e30e b388 7f4f a608
00000310: 7436 e023 509d 7999 5238 a708 2581 8f0d
00000320: 61b6 ae08 1ce8 490d dcd4 ab88 e427 ae08
00000330: 9642 aa88 805e ae88 91a9 aca3 d65e dc22
00000340: e866 f507 01cd 0608 af6c 2f08 ced3 ac08
00000350: f350 0b25 0185 041a cac3 a588 0e3b c30c
00000360: 6ab5 a888 6f12 870e 1b5e a208 25a7 aa08
00000370: fbbf a208 8879 ab08 1a95 cfa4 6adf 4424
00000380: a53c b088 0730 ab88 663f b108 ee50 b188
00000390: 92ed 33a5 b536 d39a 8ea0 a388 2b7d 8a0e
000003a0: 6f49 b488 963b 1610 4453 a908 8157 af08
000003b0: a925 b108 4ca4 ad88 34b5 0525 8cc8 85a4
000003c0: 2489 a388 a723 a688 63e5 0f08 a9d9 9908
000003d0: 0798 ec24 9726 bc19 adc9 a808 4d37 e50c
000003e0: e467 ad88 90bb 290d 3445 b308 a86c 9b08
000003f0: 5cd1 b788 881d 6486 19af ada4 04ca 2424
-1.0337733e-33 -9.218464e-34 1.060154e-33 7.440297e-34 -1.4235256e-16 -7.5320105e-23 -1.0252175e-33 2.836308e-30
1.1192397e-33 2.5203192e-29 1.0613031e-33 9.861852e-34 1.0610531e-33 -1.0313548e-33 1.0637665e-16 -5.1735065e-17
1.0524318e-33 1.0714019e-33 -1.0703649e-33 7.392821e-34 -9.904625e-17 -6.6613024e-24 1.0389272e-33 5.240896e-32
-1.08248e-33 -1.4942132e-32 -9.0017135e-34 1.076579e-33 1.079903e-33 -9.86552e-34 6.998776e-17 -3.1332592e-17
-1.0586846e-33 1.0497287e-33 -9.637567e-34 -1.0403484e-33 7.664849e-18 2.0859118e-23 -5.041122e-34 -1.348103e-30
1.05768465e-33 -3.6379632e-31 -1.06317155e-33 4.5600727e-34 -1.0560069e-33 9.719193e-34 -5.4020548e-18 6.2128386e-18
1.049114e-33 -1.0711002e-33 8.32149e-34 -9.596159e-34 2.0270326e-17 7.997488e-24 -1.0525521e-33 2.1500953e-31
-1.0695028e-33 -1.210055e-30 1.0521395e-33 9.777146e-34 9.937791e-34 -9.726739e-34 -1.4598927e-17 7.774919e-18
-1.0070749e-33 -7.906433e-34 1.0210947e-33 -1.0671934e-33 -1.0874162e-16 -2.0249632e-23 -1.0769351e-33 -2.783786e-31
9.855526e-34 -2.0354597e-31 -9.7932675e-34 -1.0292876e-33 -9.909528e-34 7.5277547e-34 8.2166365e-17 -3.9173917e-17
-1.084934e-33 -8.800403e-34 9.096506e-34 1.0817508e-33 -1.6625478e-18 1.2697357e-23 -1.0695904e-33 -5.785856e-32
-7.173075e-34 4.490412e-30 -1.0605364e-33 3.4741632e-34 1.0005651e-33 1.0466608e-33 5.491187e-19 3.632676e-18
-1.0327425e-33 -9.657549e-34 1.0815087e-33 1.039113e-33 -5.143223e-17 -4.2558857e-23 -1.0490409e-33 1.0577117e-30
-1.0221366e-33 9.364575e-30 1.0586804e-33 -1.0726498e-33 1.0629578e-33 -1.0870956e-33 4.232844e-17 -2.5008094e-17
-1.0689024e-33 -1.0715382e-33 -1.06304895e-33 1.01637925e-33 -9.3040465e-18 8.9105373e-23 1.0568371e-33 -4.7049754e-30
-1.0978437e-33 -3.5879055e-29 1.0643183e-33 -1.0342752e-33 1.048203e-33 -1.0250782e-33 -8.0548036e-19 9.636053e-18
-7.280239e-34 1.0651019e-33 -1.0388277e-33 -1.0215575e-33 -3.072405e-17 1.0354473e-23 1.0302139e-33 -1.5713324e-30
1.0202495e-33 -1.10198115e-29 1.0695375e-33 9.410264e-34 -1.040719e-33 1.0427607e-33 2.1577418e-17 -8.801193e-18
1.1596875e-33 1.0065476e-33 9.790421e-34 8.846518e-34 1.0203608e-16 6.86249e-23 1.0302078e-33 -2.9736714e-30
-1.0694487e-33 -2.679981e-29 -9.793587e-34 9.872191e-34 -1.0726715e-33 8.455473e-34 -8.383667e-17 4.1444912e-17
1.0477449e-33 -1.0566582e-33 -9.375615e-34 -1.0697533e-33 -1.5327943e-16 -6.714368e-23 -9.962772e-34 2.2315175e-30
1.0378633e-33 2.1021516e-29 1.0310484e-33 -5.5558657e-34 -1.073376e-33 4.730917e-34 1.1351111e-16 -5.596558e-17
-2.9438135e-34 -1.069219e-33 9.444547e-34 1.0686081e-33 -8.9506e-17 -2.9941995e-23 -1.07995155e-33 6.745572e-31
1.0895388e-33 1.6849337e-30 -9.994166e-34 1.0637409e-33 -1.0642067e-33 -1.0064298e-33 6.594169e-17 -3.2090885e-17
-1.041288e-33 -1.0612752e-33 -1.07766705e-33 1.0009451e-33 2.430919e-17 -1.2904767e-23 1.0064188e-33 8.844146e-31
1.0515121e-33 6.22173e-31 -1.0341731e-33 1.0481622e-33 -1.0247157e-33 -1.0494461e-33 -1.8720092e-17 5.973153e-18
3.6923986e-34 4.056514e-34 5.2789904e-34 1.04016685e-33 1.2083755e-16 2.74044e-23 -9.976606e-34 3.008005e-31
-1.0153782e-33 3.329782e-30 9.772144e-34 1.0270798e-33 9.795155e-34 1.032026e-33 -9.002453e-17 4.2689964e-17
-1.0606872e-33 -1.0302979e-33 1.0667705e-33 -1.06718265e-33 -1.5606267e-16 -8.735594e-23 -9.847952e-34 3.414016e-30
-1.085062e-33 2.9628187e-29 1.0190893e-33 1.0553001e-33 1.0661654e-33 -1.0450685e-33 1.1597305e-16 -5.8019295e-17
-9.842447e-34 -9.999143e-34 4.330214e-34 9.259524e-34 1.0260623e-16 1.945433e-23 1.0158546e-33 3.531632e-31
-1.0436483e-33 5.2302916e-31 1.078944e-33 9.354268e-34 -1.1063132e-33 -4.290373e-35 -7.532342e-17 3.5732945e-17

layers.0.attn.0.gnn_q.bias f4 [16]
00000000: 8e9d a888 f742 ac08 f204 a988 c079 a088
00000010: 5610 11ac e73a 9aa0 1b4e a708 55bc 3a17
00000020: 540d ac85 eb55 2e8f 43e7 8d88 f990 a808
00000030: f035 ab88 b3ce ab08 588f 262c 2872 80aa
-1.0148173e-33 1.0367617e-33 -1.017248e-33 -9.658273e-34 -2.0614808e-12 -2.6127593e-19 1.0069309e-33 6.033755e-25
-1.6179698e-35 -8.5954095e-30 -8.540498e-34 1.0145215e-33 -1.0304369e-33 1.0340283e-33 2.366959e-12 -2.281658e-13
