checkpoints/cyp1a2_veith_33_train1_neg/Aug31-05:17:38_300.pth (torch, 471814 bytes, 294 tensors)

layers.0.weight f4 [24, 16]
0	0x3f92a3e8	1.145627
1	0xbd11c29a	-0.035585977
2	0x3f697303	0.9119112
3	0x3f828726	1.0197494
4	0x3eca3865	0.3949615
5	0x3d659a6e	0.05605548
6	0x3bfac14d	0.007652438
7	0x3d921ede	0.07134794
8	0x3d923c08	0.07140356
9	0xbfc8cbc2	-1.5687182
10	0xbde627ef	-0.112380855
11	0xbb9f722c	-0.0048659053
12	0x3e12b95d	0.14328523
13	0x3f0809c3	0.53139895
14	0x3d057ed5	0.03259166
15	0xbbddb4a2	-0.006765918
16	0x3f3ac396	0.7295469
17	0xbdf611d2	-0.12015118
18	0xbd938f58	-0.07205075
19	0xbdcdd3f3	-0.10050192
20	0xbe16d4b4	-0.14729577
21	0x3df769cc	0.12080726
22	0xbf35604b	-0.70850056
23	0xbd803446	-0.0625997
24	0xbd7bd997	-0.061486807
25	0xbf78deca	-0.9721495
26	0xbdcf2d27	-0.10116034
27	0xbf441e62	-0.7660886
28	0xbd678fc1	-0.05653358
29	0xbe787cf8	-0.24266422
30	0x3f4a5881	0.79041296
31	0xbf3fce2b	-0.7492396
32	0x3e0fd77d	0.14047046
33	0x391d3110	0.00014990964
34	0x3ce11314	0.027474917
35	0x3d83f53a	0.06443258
36	0xbd86ec7d	-0.06588075
37	0x3dbeaa77	0.09309857
38	0x3d4fb2ad	0.050707508
39	0x3dca9beb	0.0989302
40	0xbd5ec7df	-0.05438983
41	0xbe645e30	-0.22301555
42	0x3d91b09b	0.07113763
43	0x3cf304ce	0.029665377
44	0xbbff0c1c	-0.007783426
45	0xbd8a214b	-0.067446314
46	0x3b7c5b1c	0.0038506454
47	0xbb649924	-0.0034881318
48	0x3e1c32cd	0.15253754
49	0xbc961251	-0.01831928
50	0x3d0c7f23	0.034300935
51	0x3d4d295d	0.050088275
52	0xbd5eb2a8	-0.0543696
53	0x3d747317	0.05968007
54	0x3cfa228e	0.030534055
55	0x3dbb617e	0.091494545
56	0x3be6fc27	0.007049102
57	0xbe64579d	-0.22299047
58	0x3dc3c506	0.095590636
59	0x3ce78ff3	0.028266883
60	0xbcf29b00	-0.029614925
61	0xbd787d9d	-0.06066667
62	0xba974dd6	-0.0011543583
63	0xbc2f24c7	-0.010689921
64	0x3df3ea8f	0.11909973
65	0x3d775d8d	0.06039195
66	0x3ceada48	0.028668538
67	0x3d46222c	0.048372433
68	0xbd482b29	-0.048869286
69	0x3d284e1a	0.04109011
70	0x3d2abc6b	0.041683596
71	0x3d031584	0.03200294
72	0x3c4fa27f	0.012673019
73	0xbe387de3	-0.18016772
74	0xbb33859b	-0.0027392867
75	0x3d015a15	0.03158005
76	0xbd93a866	-0.07209854
77	0xbd291956	-0.041283928
78	0xbc0a46c2	-0.008439722
79	0x3b005754	0.0019583302
80	0xbccaf48b	-0.02477481
81	0xbcb6fe5a	-0.022338081
82	0xbd11faaa	-0.035639443
83	0x3bbbdc69	0.005733062
84	0x3d6b2dab	0.0574166
85	0xbba161b2	-0.0049249763
86	0x3d88a998	0.066729724
87	0xbc03d8cc	-0.008047294
88	0x3c747d9a	0.014922524
89	0x3c7658b2	0.015035795
90	0xbc761194	-0.015018839
91	0xbcfda2fa	-0.030961502
92	0x3c107492	0.008816855
93	0x3d8adc90	0.0678035
94	0x3d7b5f48	0.061370164
95	0x3cf0b4fa	0.029383171
96	0x3f390f31	0.72288805
97	0xbe8928ee	-0.2678904
98	0xbf055eed	-0.5209797
99	0xbf12761e	-0.5721148
100	0xbf2c0302	-0.6719209
101	0x3e851b10	0.2599721
102	0x3ec3d81f	0.38250825
103	0xbde0c13a	-0.10974355
104	0x3d6b93d0	0.05751401
105	0xbf79544b	-0.97394246
106	0xbe6966fb	-0.2279319
107	0xbfc07294	-1.5034966
108	0xbe8990d8	-0.2686832
109	0xbf683ad7	-0.9071478
110	0x3fcfe26d	1.6240975
111	0x3ebd3f49	0.36962345
112	0x3d9c1e6f	0.07622992
113	0xbd5c8915	-0.05384167
114	0xbf2305b6	-0.6368059
115	0xbf37dbbe	-0.71819675
116	0xbe8fc103	-0.28076944
117	0x3ce5a06a	0.028030593
118	0xbf8ae63c	-1.0851512
119	0xbe34653c	-0.17616743
120	0xbe2c68e8	-0.16836894
121	0xbdde3d19	-0.10851497
122	0xbba0a6c5	-0.004902693
123	0xbebc93bf	-0.3683147
124	0xbe07d9ae	-0.13266632
125	0xbecb5872	-0.39715916
126	0x3ecb64ff	0.3972549
127	0xbf90b116	-1.1304042
128	0x3f50321f	0.8132648
129	0xbe00affa	-0.1256713
130	0x3f0a38ca	0.53992903
131	0x3f1d5326	0.61455
132	0xbe800259	-0.2500179
133	0x3df7581e	0.12077354
134	0xbec0ddff	-0.3766937
135	0xbdba1651	-0.09086288
136	0x3af6ce72	0.0018829836
137	0xbf92444d	-1.1427094
138	0xbe20bdf0	-0.15697455
139	0xbf31f759	-0.6951805
140	0xbdd029ba	-0.10164209
141	0xbec9fa89	-0.39448956
142	0x3f3f53d6	0.747373
143	0xbedc7e28	-0.43065
144	0x3e70b25e	0.23505542
145	0xbc9fcca2	-0.019506756
146	0x3e039331	0.12849118
147	0x3e1217e0	0.1426692
148	0xbc2a2b1a	-0.010386253
149	0x3ba51a39	0.0050385264
150	0xbd20e576	-0.03928133
151	0xbcaa513f	-0.020790694
152	0xbc50931c	-0.012730386
153	0xbeb19c51	-0.34689572
154	0xbd54e9a3	-0.051980626
155	0x3cbc7b81	0.02300811
156	0xbc73546b	-0.01485167
157	0xbce57d3c	-0.028013818
158	0xbb681339	-0.0035411848
159	0xbd6fa2e0	-0.05850494
160	0x3e411f49	0.1885959
161	0xbcbe8962	-0.023258869
162	0xbec36a7e	-0.38167185
163	0xbed42d58	-0.41440845
164	0x3ee61ba2	0.44942957
165	0x3c8597da	0.01630776
166	0xbe847707	-0.2587206
167	0xbc6a9507	-0.014317757
168	0xbd21fc91	-0.039547507
169	0xbe68267f	-0.22670935
170	0xbd0be600	-0.034154892
171	0xbe871a66	-0.26387328
172	0x3e03f87c	0.12887758
173	0x3f23aede	0.639387
174	0x3e96cb90	0.2945218
175	0xbea07698	-0.3134048
176	0xbf6fcbc8	-0.9367032
177	0xbc0bae4d	-0.008525443
178	0xbe7b5ab7	-0.24546324
179	0xbe849b26	-0.2589962
180	0xbc883630	-0.016627401
181	0xbc105426	-0.008809125
182	0x3e824530	0.2544341
183	0x3b074f76	0.0020646728
184	0xbc47afa3	-0.012187871
185	0x3fa49a0d	1.2859513
186	0x3ccb1add	0.024793083
187	0xbe9a9b7f	-0.3019676
188	0xbc28fe17	-0.010314486
189	0x3cddd865	0.027080724
190	0x3ea4d372	0.3219257
191	0x3e86d841	0.26336864
192	0xbd470f81	-0.04859877
193	0x3dfef0b6	0.12448256
194	0x3ea3ed94	0.32017195
195	0x3eb9c0b3	0.3627983
196	0xbdf3e139	-0.11908192
197	0xbe058b34	-0.13041383
198	0xbf0ab979	-0.5418926
199	0xbd859e91	-0.06524385
200	0xbdc70ec1	-0.09719611
201	0x3dc9adb4	0.09847584
202	0x3dee2c26	0.116295144
203	0x3f608328	0.8770013
204	0xbcbdc5c1	-0.023165585
205	0xbe226bc3	-0.1586142
206	0xbf70f530	-0.94124126
207	0xbf185a8c	-0.59513164
208	0x3e822a39	0.25422838
209	0x3df77e0e	0.1208459
210	0x3ee6d1b1	0.45081857
211	0x3efe370a	0.49651366
212	0x3ecce5b8	0.40019011
213	0xbddac9e0	-0.10683036
214	0xbe31cd36	-0.17363438
215	0x3d9f58b9	0.077805944
216	0x3b8555d9	0.0040690717
217	0xbeb597cb	-0.3546737
218	0x3d9dd277	0.077061586
219	0x3f3ad0b1	0.7297469
220	0x3e27389e	0.16330191
221	0x3f0d1a88	0.5511861
222	0xbf4d37a4	-0.80163026
223	0xbe75cc65	-0.24003752
224	0xbf98e586	-1.1945045
225	0x3e507b77	0.20359598
226	0x3dd1b25c	0.102390975
227	0x3e04b492	0.12959507
228	0xbeb6dd16	-0.3571555
229	0xbe61325b	-0.21991865
230	0xbfd504df	-1.6642112
231	0xbe4037f1	-0.1877134
232	0xbe98b7e5	-0.298278
233	0x3fca8baf	1.5823878
234	0x3e80576c	0.25066698
235	0x3f71400f	0.9423837
236	0xbdea9747	-0.11454635
237	0xbf0585a4	-0.52157044
238	0xbf82d1b1	-1.0220243
239	0xbfe22f68	-1.7670717
240	0xbda5e954	-0.081011444
241	0x3d1315f4	0.035909608
242	0xbe1c026c	-0.15235299
243	0xbe3d2e5b	-0.18474714
244	0xbdb2f444	-0.08737996
245	0xbd9dbe46	-0.077023074
246	0xbfb18f03	-1.3871769
247	0xbe3a1dc4	-0.18175417
248	0xbe560f59	-0.20904292
249	0x3ddf8183	0.10913374
250	0x3da4f522	0.08054568
251	0x3d9441a7	0.07239085
252	0xbd188783	-0.03723861
253	0xbdfb7166	-0.122774884
254	0xbdb7cdc2	-0.08974792
255	0xbfbe36fb	-1.4860529

layers.0.bias f4 [16]
0	0xbe83fb4a	-0.25777656
1	0xbc71ff45	-0.014770334
2	0x3e836f94	0.25671065
3	0xbeef9634	-0.46794283
4	0x3e8447fe	0.25836176
5	0xbdc5fc4f	-0.09667265
6	0x3e6152a9	0.22004189
7	0x3f2dadbf	0.6784324
8	0xbef3dcd0	-0.47629404
9	0xbe74294b	-0.23843877
10	0xbe500c83	-0.20317273
11	0x3e826450	0.25467157
12	0xbe31b6e6	-0.17354926
13	0xbec96f85	-0.39342895
14	0x3eb41674	0.3517338
15	0xbeaff00d	-0.34362832

layers.1.weight f4 [16, 16]
0	0xbed744c5	-0.42044654
1	0x3df800fd	0.121095635
2	0x3d96e05e	0.073670134
3	0x3bc61913	0.0060454695
4	0xbe7be592	-0.24599293
5	0x3f0e8761	0.5567532
6	0xbd8c34a5	-0.06845979
7	0x3ce66a96	0.028126996
8	0x3e833633	0.25627288
9	0x3eb398ad	0.3507742
10	0xbe0d39d7	-0.13791595
11	0xbe6b64ed	-0.22987719
12	0xbe83f1e8	-0.25770497
13	0xbdfa0673	-0.12208261
14	0xbf5384fa	-0.8262478
15	0xbd10dcca	-0.03536681
16	0xbe4e9259	-0.20173015
17	0x3f9440c7	1.1582268
18	0x3ec8580c	0.39129674
19	0x3d6f3287	0.058397796
20	0xbec61aa3	-0.38692197
21	0xbf40f088	-0.7536702
22	0xbf3cf43e	-0.73810184
23	0x3e0dde4d	0.13854332
24	0xbf23926e	-0.6389531
25	0x3a1a748e	0.0005892002
26	0xbf241fd0	-0.6411104
27	0xbf1e1bbb	-0.61761063
28	0x3eba8534	0.3642975
29	0x3ed04208	0.40675378
30	0x3f1182fb	0.56840485
31	0x3e112fde	0.14178416
32	0x3e606bb9	0.21916093
33	0x3ad4a057	0.0016222101
34	0xbc2a1380	-0.010380626
35	0xbf216357	-0.63042206
36	0x3e50b674	0.203821
37	0xbf0eb945	-0.5575145
38	0x3b75ac3e	0.0037486698
39	0x3c504e34	0.012713958
40	0x3deea231	0.11652029
41	0x3ee179a8	0.4403813
42	0xbeeb4b68	-0.45955968
43	0x3d1da233	0.038484763
44	0xbd129ebc	-0.035795912
45	0xbd7a3adf	-0.0610913
46	0xbcfe6eb2	-0.031058643
47	0xbc74b5d2	-0.014935927
48	0xbe6d53db	-0.2317652
49	0xbd3170e0	-0.043320537
50	0xbd0d0f70	-0.03443855
51	0xbdee9492	-0.11649431
52	0xbe5f4052	-0.2180188
53	0xbe9537a8	-0.29144025
54	0xbbb8413e	-0.005623012
55	0xbd21584a	-0.03939084
56	0x3cb3a3f5	0.021928767
57	0x3ea5f180	0.32410812
58	0xbec9b760	-0.39397717
59	0xbd7e7250	-0.062120736
60	0x3c8ada93	0.016949927
61	0x3d9474d3	0.07248845
62	0xbd92b67f	-0.071637146
63	0x3d00665c	0.031347618
64	0x3e85e96c	0.2615465
65	0xbe252760	-0.16128302
66	0x3dbeff13	0.09325995
67	0xbf8ac4e0	-1.0841331
68	0x3dfab078	0.1224069
69	0xbefc46a0	-0.49272633
70	0xbae25208	-0.0017266879
71	0xbdd0b40a	-0.1019059
72	0xbd361db2	-0.044461913
73	0x3f469108	0.7756505
74	0xbe837120	-0.25672245
75	0x3df765f2	0.120799914
76	0xbd0823b5	-0.033237178
77	0x3c2b26cf	0.010446264
78	0x3d37b354	0.044848755
79	0x3c402417	0.0117273545
80	0xbe249d49	-0.16075625
81	0xbf70f07a	-0.9411694
82	0xbf01c18a	-0.5068594
83	0xbec019e0	-0.3751974
84	0x3ec8ec59	0.3924282
85	0x3ec81e86	0.39085788
86	0x3f58de37	0.8471407
87	0xbe01a5da	-0.12660924
88	0x3f3d80ec	0.74024844
89	0x3ea1546b	0.31509718
90	0x3eb81068	0.35950017
91	0x3f0c46d3	0.5479557
92	0xbdc004e0	-0.0937593
93	0xbee1bef7	-0.44091007
94	0xbf2c2cdb	-0.67255944
95	0xbdd5e9ee	-0.10445009
96	0x3ec1d363	0.37856588
97	0x3dfb1e2d	0.12261615
98	0xbc3a6871	-0.01137744
99	0xbf5e30e6	-0.86793363
100	0x3e25e4cc	0.1620056
101	0xbef9ce2f	-0.48790118
102	0xbe4b5a75	-0.19858725
103	0xbe93555b	-0.2877606
104	0x3f880c46	1.0628746
105	0x3ea4de95	0.32201067
106	0x3c255650	0.010091379
107	0xbdf46385	-0.11933044
108	0x3e6aaf92	0.22918537
109	0xbece2537	-0.40262768
110	0xbea0aa70	-0.31380033
111	0x3d163c31	0.036678497
112	0xbd1833d9	-0.03715882
113	0x3e763977	0.24045359
114	0xbea6dce4	-0.325904
115	0xbe4c3481	-0.19941904
116	0x3d67e2cb	0.05661277
117	0xbea2fd66	-0.31833953
118	0x3ea6e346	0.3259527
119	0x3f2a15e7	0.6643967
120	0xbec8a404	-0.39187634
121	0x3f5427e3	0.8287336
122	0xbf7e2b1e	-0.9928454
123	0xbc0aa18d	-0.008461368
124	0xbe5d1816	-0.2159122
125	0x3de35f11	0.11102117
126	0xbea5ed59	-0.32407644
127	0x3cc8c88f	0.024509696
128	0x3da19018	0.07888812
129	0xbe65155f	-0.22371434
130	0xbf12e624	-0.57382417
131	0xbf9a9743	-1.2077411
132	0x3f0933db	0.5359475
133	0xbf4be761	-0.7964993
134	0x3f6b6469	0.9195009
135	0x3e8f0a1f	0.2793741
136	0x3f0641fb	0.5244443
137	0x3f0e3a75	0.5555795
138	0xbd8c3d68	-0.0684765
139	0x3ea869e8	0.328933
140	0x3f0a9b2c	0.54143023
141	0xbe70e8a2	-0.23526242
142	0x3dc34b30	0.09535825
143	0x3d52dd00	0.051480293
144	0xbeb3d0e5	-0.3512031
145	0xbd8bb0bd	-0.068208195
146	0xbdf9cade	-0.12196897
147	0x3e8b238b	0.27175555
148	0xbe73b076	-0.23797783
149	0x3ead310d	0.33826485
150	0x3e167229	0.14691986
151	0x3dba5323	0.09097888
152	0xbf57ec7e	-0.84345233
153	0x3d17cbfd	0.037059773
154	0xbe91b918	-0.28461528
155	0x3dd3a8e4	0.10334948
156	0xbe91dbaf	-0.28487918
157	0x3e4145f5	0.18874343
158	0x3df9eeba	0.122037366
159	0xbc8efed4	-0.017455496
160	0xbd4ebbe7	-0.050472166
161	0x3f1a7ab0	0.60343456
162	0x3ef0c1f5	0.47022977
163	0xbd0e69d6	-0.0347689
164	0xbe9abc68	-0.30221868
165	0xbf3e9db3	-0.7445938
166	0xbf4974eb	-0.7869403
167	0xbe9833ca	-0.29727012
168	0xbed3a009	-0.41333035
169	0xbe4807bd	-0.19534202
170	0xbedf6eb2	-0.4363914
171	0xbed0ebdf	-0.40804955
172	0x3e58d8d8	0.2117647
173	0x3e8d8aaa	0.27644855
174	0x3f168417	0.58795303
175	0x3e367fb3	0.17822151
176	0x3ea5332e	0.3226561
177	0xbed3e3c3	-0.41384706
178	0xbe8cc52e	-0.27494186
179	0xbe8a440d	-0.27005044
180	0x3ea37e07	0.3193209
181	0xbf6e5e14	-0.931123
182	0xbd914a6d	-0.07094274
183	0xbd424685	-0.047430534
184	0xbeff9baa	-0.4992345
185	0xbdda8db3	-0.10671558
186	0xbf03430e	-0.5127419
187	0x3ead6f5f	0.33874032
188	0xbb65bd3c	-0.003505542
189	0x3e4954c4	0.19661242
190	0x3f3e0eda	0.7424141
191	0x3ce39035	0.027778724
192	0x3ddd247b	0.10797974
193	0x3efc64f3	0.49295768
194	0xbecf181f	-0.4044809
195	0xbf6e133a	-0.9299809
196	0x3e849224	0.25892746
197	0xbf8cb98f	-1.0994128
198	0xbe4ef3d6	-0.20210204
199	0x3efc696e	0.49299186
200	0x3e3f0230	0.18653178
201	0x3f08c388	0.53423357
202	0xbf04934c	-0.5178726
203	0xbdf03d83	-0.117304824
204	0x3edaaba7	0.42709085
205	0xbab5d6b0	-0.0013873186
206	0x3e967a07	0.29389974
207	0x3e534b7e	0.20634267
208	0xbe93db52	-0.28878266
209	0xbe8bb644	-0.27287495
210	0x3c69df75	0.014274468
211	0xbefecb23	-0.49764356
212	0xbeb87fae	-0.36034912
213	0xbf094ef3	-0.5363609
214	0x3e16ad24	0.14714485
215	0xbe2e72ba	-0.17035952
216	0xbd845fcb	-0.064635836
217	0x3f611c25	0.8793357
218	0xbf60c168	-0.87795115
219	0xbde2e086	-0.11077981
220	0xbdd0b958	-0.101916015
221	0xbbad1952	-0.0052825594
222	0xbdd70932	-0.10499801
223	0xbdde674c	-0.10859546
224	0x3e9e684d	0.3093895
225	0x3ee712f3	0.45131645
226	0x3e15f5a4	0.14644486
227	0xbeb17555	-0.3465983
228	0x3de4071b	0.11134168
229	0x3e96ff9c	0.2949189
230	0x3d017c3d	0.031612623
231	0xbe049453	-0.12947206
232	0x3f61a59f	0.8814334
233	0xbc92cb63	-0.017919248
234	0x3f31e213	0.69485587
235	0xbe180bff	-0.14848326
236	0x3df96d27	0.12179022
237	0xbea6b51e	-0.32560056
238	0xbec6f154	-0.38855994
239	0x3d08d1b0	0.0334031
240	0xbec5f6d4	-0.38664877
241	0xbceef416	-0.029169124
242	0xbd090c81	-0.03345919
243	0x3c25284e	0.01008041
244	0xbeb32cc3	-0.34995088
245	0x3e9b73f2	0.30361897
246	0xbe5410ec	-0.2070958
247	0xbd649289	-0.05580381
248	0x3ed79e2e	0.4211287
249	0x3f150b83	0.5822069
250	0xbe4befd3	-0.19915704
251	0xbea1d4ad	-0.3160757
252	0xbe79f3a7	-0.24409352
253	0xbe1b3d57	-0.15160118
254	0xbf67eb86	-0.90593755
255	0xbe3f36f9	-0.18673314

layers.1.bias f4 [16]
0	0xbe63ca2f	-0.22245096
1	0xbe84f875	-0.25970808
2	0xbdb57156	-0.08859508
3	0xbd196e8f	-0.037458953
4	0xbedef570	-0.4354663
5	0xbd79e1f5	-0.061006505
6	0x3e372646	0.17885694
7	0xbe3a6ecf	-0.18206333
8	0xbb839c32	-0.0040164227
9	0x3d736c9d	0.059429754
10	0xbdf53eba	-0.11974855
11	0xbdf60246	-0.120121524
12	0x3e1aee2e	0.15129921
13	0x3e822cc0	0.25424767
14	0xbd322a73	-0.043497514
15	0xbd8a6eab	-0.067593895

final.linears.0.weight f4 [112, 56]
0	0xbc4775f3	-0.012174117
1	0xbc407aed	-0.011748058
2	0x3fb8b4cf	1.4430178
3	0x3f61fa8f	0.8827295
4	0xc03e89a3	-2.9771507
5	0x3e30db50	0.17271161
6	0x3ca365f8	0.019946083
7	0xbcfed97b	-0.031109562
8	0x3cbe81ef	0.023255317
9	0x3e8a0891	0.2695966
10	0x3e0e3de7	0.13890801
11	0x354f7c00	7.7293953e-07
12	0xbc8c5cf5	-0.01713417
13	0x3c483320	0.01221922
14	0xbc14ceed	-0.009082538
15	0xbc2ce312	-0.010552185
16	0x3c7d6e5d	0.015468207
17	0x3b58e863	0.0033097498
18	0xb9b93ca8	-0.00035331142
19	0xbbf672b2	-0.007520997
20	0x3cac6fe9	0.021049457
21	0x3bfe47c4	0.00776002
22	0xbc7d2785	-0.015451317
23	0x3c81e5cf	0.015856652
24	0xbcd98907	-0.026554598
25	0xbcd70173	-0.026245808
26	0x3d60e86f	0.054909166
27	0xbd6b316e	-0.057420187
28	0x3d944ebb	0.07241579
29	0x3c02e136	0.007988265
30	0x3d15d17e	0.03657674
31	0x3e3ffeab	0.18749492
32	0xbe20c850	-0.15701413
33	0xbd0725a3	-0.032994878
34	0xbd418d94	-0.04725416
35	0x3d5e1912	0.054223128
36	0xbde21016	-0.110382244
37	0xbccc0c0c	-0.024908088
38	0x3d85fc97	0.06542318
39	0xbd115e1e	-0.035490148
40	0x3e0b1405	0.13581856
41	0xbd346504	-0.04404165
42	0xb9ad6cdd	-0.0003307824
43	0x3d36b63b	0.044607382
44	0xbddc8a0f	-0.1076852
45	0x3da56f65	0.080778874
46	0x3cc48433	0.023988819
47	0x3d7c35dc	0.0615748
48	0xbda2ba8e	-0.07945739
49	0x3ceec662	0.02914733
50	0xbd97e4a7	-0.07416659
51	0xbc88a3c6	-0.016679656
52	0xbdeede17	-0.11663454
53	0x3d1863dc	0.03720461
54	0xbdb629b0	-0.0889467
55	0xbd1f864d	-0.03894644
56	0x3ed4ca04	0.41560376
57	0x3f20bc5b	0.6278741
58	0xbd0e5bcd	-0.034755517
59	0xbd0600f1	-0.03271574
60	0xbd8bf409	-0.068336554
61	0x3e351c49	0.17686571
62	0xbf2748f8	-0.65345716
63	0xbecd31e9	-0.4007714
64	0x3edbd848	0.42938447
65	0x3d980bb9	0.07424111
66	0x3eaa4fc8	0.33263993
67	0x3f15ca84	0.5851214
68	0xbe6e7ccb	-0.23289792
69	0x3e8d20a6	0.2756397
70	0xbefe618e	-0.49683803
71	0x3eeed736	0.46648568
72	0xbe234f5e	-0.15948245
73	0xbe82e3e5	-0.25564495
74	0x3ecbe939	0.39826372
75	0x3e0f7368	0.14008868
76	0x3e813351	0.25234464
77	0x3f00ab0e	0.5026101
78	0x3bd55e07	0.006511453
79	0x3dd5d399	0.1044075
80	0xbb618873	-0.0034413605
81	0x3e11d988	0.14243138
82	0x3d504247	0.050844457
83	0x3e495b37	0.19663702
84	0x3cd46453	0.025926745
85	0x3e609a50	0.21933866
86	0x3e4f7f8d	0.202635
87	0xbdd41509	-0.10355575
88	0x3df0e44b	0.117622934
89	0xbd1a30dc	-0.037644252
90	0x3e1f14b5	0.15535243
91	0x3d3661f3	0.044527005
92	0xbc493daa	-0.012282768
93	0x3e97adfa	0.2962492
94	0xbd060ed6	-0.032728992
95	0x3e49e7bb	0.19717304
96	0x3cd9c8d4	0.02658502
97	0xbe9d0ddf	-0.30674645
98	0x3f16f63a	0.5896946
99	0x3ed6e282	0.41969687
100	0xbea4d555	-0.3219401
101	0x3eb39650	0.35075617
102	0xbe9361a0	-0.2878542
103	0xbf210870	-0.629035
104	0xbe506165	-0.20349653
105	0xbe68f563	-0.22749858
106	0x3e251a25	0.16123255
107	0x3c24565a	0.010030353
108	0xbf4db61e	-0.80356014
109	0x3e0f894f	0.14017223
110	0xbc050956	-0.008119902
111	0xbe339b99	-0.17539825
112	0xbe5a7192	-0.21332386
113	0xbd9a908a	-0.075471
114	0x3d753418	0.059864134
115	0xbdf37d79	-0.118891664
116	0xbd0311df	-0.031999465
117	0x3a9b0cbf	0.001182936
118	0xbed5c0d5	-0.41748682
119	0x3e6f3a0b	0.23361985
120	0x3d4891c1	0.048967127
121	0xbda982c4	-0.08276895
122	0xbde99761	-0.11405826
123	0x3e199e1e	0.15001723
124	0xbe883811	-0.26605275
125	0xbe93ad89	-0.28843334
126	0x3e998db8	0.29990935
127	0xbe856cda	-0.2605961
128	0xbeeace61	-0.4586058
129	0x3eaf05d8	0.34184146
130	0xbcc8b25a	-0.024499107
131	0xbd6958d3	-0.056969475
132	0x3d8e638e	0.06952582
133	0xbe02c32a	-0.12769762
134	0xbe8cb917	-0.27484962
135	0xbb05c0ae	-0.0020409035
136	0xbdcece5f	-0.10097956
137	0xbcc0c05b	-0.023529222
138	0x3db90337	0.09033816
139	0xbdfb637a	-0.12274833
140	0x3d204785	0.039130706
141	0xbe04e37e	-0.12977406
142	0x3d92a60a	0.07160576
143	0x3da24495	0.07923237
144	0xbdc30deb	-0.09524139
145	0xbdc39957	-0.09550732
146	0xbdb7ecb4	-0.089806944
147	0x3dae40fc	0.085084885
148	0xbdd23d93	-0.102656506
149	0xbbbc38d1	-0.0057440777
150	0x3d75c63a	0.060003497
151	0xbbcfb2d3	-0.006338456
152	0xbc5c5e3d	-0.0134502025
153	0xbe1d4012	-0.15356472
154	0x3cf7fcff	0.030272005
155	0x3ca83526	0.020533156
156	0xbd3aaa92	-0.045572825
157	0x3dd49e6f	0.10381781
158	0xbc8bdda7	-0.017073466
159	0xbdeaa3c3	-0.11457016
160	0xbd73c95b	-0.0595182
161	0x3c66bd9c	0.014083292
162	0xbd6e0422	-0.05810941
163	0x3d19e0fe	0.037568085
164	0x3ddebaee	0.10875498
165	0xbce083fb	-0.027406683
166	0xbd515e48	-0.051115304
167	0x3d7ed1d8	0.06221184
168	0x3e064767	0.13113175
169	0xbf3e5dd8	-0.74361944
170	0x3e11663d	0.14199157
171	0x3de73c09	0.11290748
172	0x3df4679e	0.11933826
173	0xbe0785e4	-0.13234669
174	0x3dfa160d	0.12211237
175	0xbf862524	-1.0480084
176	0x3f841db8	1.032157
177	0x3b0b366a	0.002124215
178	0x3f3dc462	0.7412778
179	0x3fc58f54	1.5434365
180	0x3f8cbe00	1.0995483
181	0xbe470aea	-0.19437757
182	0xbf87ec92	-1.061907
183	0xbf6979bd	-0.9120138
184	0xbf9a772a	-1.2067616
185	0x3f7e459a	0.99324954
186	0x3f255d86	0.6459583
187	0xbf523843	-0.821171
188	0x3f135e08	0.57565355
189	0xbe6ab8f5	-0.22922118
190	0x3f6d70da	0.9275032
191	0xbfb57d7c	-1.417892
192	0xbd85b243	-0.06528141
193	0x3c59bce9	0.013289669
194	0xbdf298df	-0.11845564
195	0x3d728e83	0.05921794
196	0xbe09c587	-0.13454257
197	0x3cd8047f	0.026369331
198	0xbcd60a1c	-0.026127867
199	0xbe059cb9	-0.13048066
200	0x3da6477a	0.08119102
201	0x3c40f913	0.011778134
202	0x3c9e1314	0.019296207
203	0xbe3314b0	-0.1748836
204	0x3dc8d358	0.098059356
205	0x3dc936ec	0.09824929
206	0xbdf150c6	-0.117829844
207	0x3df6383e	0.12022446
208	0x3d097917	0.033562746
209	0x3e7448c6	0.23855886
210	0x3b10a1de	0.0022069137
211	0xbc951932	-0.01820049
212	0x3b1f8990	0.0024343468
213	0xbd1671ce	-0.036729626
214	0xbccea6cc	-0.02522602
215	0x3d7a4a38	0.061105937
216	0x3c023c4b	0.007948945
217	0xbc22e018	-0.009941123
218	0xbd356beb	-0.04429237
219	0x3c880764	0.016605087
220	0x3e37362e	0.17891762
221	0x3c5d9de8	0.013526417
222	0x3d768b35	0.060191352
223	0x3db1963a	0.086712316
224	0xbe20d34e	-0.15705606
225	0xbd2e41ec	-0.042543337
226	0x3e62cd4c	0.22148627
227	0x3d84ee16	0.06490724
228	0xbabfff88	-0.0014648298
229	0x3db77572	0.08957948
230	0x3e1709d7	0.14749847
231	0x3e2127a9	0.15737785
232	0x3c9e4bea	0.019323308
233	0xbcf0492d	-0.029331768
234	0x3c378628	0.011201419
235	0xbd89ed36	-0.067346975
236	0x3e9518d7	0.29120514
237	0x3e51462c	0.20436925
238	0x3dc7c6ca	0.09754713
239	0xbe33c491	-0.17555453
240	0x3dc944d4	0.09827581
241	0x3e14d8ac	0.14535779
242	0x3ea3d1f1	0.3199611
243	0xbd3ab11f	-0.045579072
244	0x3e83b2e7	0.2572243
245	0x3e37be4d	0.17943688
246	0x3ec3568b	0.38151965
247	0xbe216d7f	-0.15764426
248	0xbda1e1bc	-0.079043835
249	0xbd29ee00	-0.04148674
250	0x3df39431	0.118935
251	0xbe3e5ab3	-0.18589287
252	0x3e0ec659	0.13942851
253	0xbe10f774	-0.14156896
254	0x3d5e9782	0.054343708
255	0x3e4274fa	0.18989936

final.linears.0.bias f4 [112]
0	0xbea5b48a	-0.32364303
1	0x3e6eab08	0.2330743
2	0xbb34a15b	-0.0027561996
3	0x3d4e6812	0.050392218
4	0xbe92e8d0	-0.28693247
5	0x3ee92205	0.45533767
6	0xbe983e17	-0.2973487
7	0x3e1a3105	0.15057762
8	0xbe5ff23b	-0.21869747
9	0x3e3b4ae8	0.18290293
10	0x3e05286b	0.130037
11	0xbe5067ce	-0.20352098
12	0x3dd550b1	0.10415781
13	0x3dbea971	0.09309662
14	0x3d88cfc9	0.06680257
15	0x3ed5cf5e	0.4175977
16	0x3de03c6d	0.10949025
17	0xbad71306	-0.0016408868
18	0x3e788c41	0.24272253
19	0x3ca3a27b	0.019974938
20	0x3e200825	0.15628107
21	0x3e686d43	0.2269793
22	0x3e87a742	0.26494795
23	0x3eb5b5ab	0.35490164
24	0x3e78fd79	0.24315442
25	0x3e9e0799	0.30865172
26	0x3caef2aa	0.021355946
27	0xbeca870f	-0.39556167
28	0x3ebba4a5	0.3664905
29	0x3cf16ec2	0.029471759
30	0xbe265c40	-0.16246128
31	0x3e0b3da5	0.13597734
32	0x3d7c04fd	0.061528195
33	0xbef215cf	-0.47282264
34	0x3e120f39	0.1426362
35	0xbc9ce10d	-0.019150281
36	0x3dc2fcba	0.0952086
37	0xbe22cc36	-0.15898213
38	0x3e79193c	0.24326032
39	0xbe0c4021	-0.13696338
40	0x3ef5b0ab	0.4798635
41	0x3e6493e5	0.22322042
42	0xbe3474ce	-0.17622682
43	0xbdae27e6	-0.08503704
44	0x3e57fb32	0.21091917
45	0xbd1ed3df	-0.038776275
46	0x3ea9404c	0.33056867
47	0x3ecbe6b9	0.39824465
48	0xbf044695	-0.516702
49	0x3e04eeb5	0.12981685
50	0x3d926f82	0.07150175
51	0x3eaa3fe1	0.3325186
52	0x3eb56780	0.35430527
53	0x3e8730bc	0.2640437
54	0x3e7fd85b	0.24984877
55	0xbe67d598	-0.22640073
56	0xbdf79ac6	-0.120900676
57	0xbdcd00e6	-0.10009937
58	0x3e392594	0.18080741
59	0xbd1b522c	-0.037920162
60	0x3ea365bd	0.31913558
61	0x3cf0671d	0.029346043
62	0xbe81de14	-0.25364745
63	0x3e78a7dc	0.24282783
64	0xbdc5b80e	-0.09654246
65	0xbc1fec87	-0.009760982
66	0x3df00842	0.11720325
67	0x3a9580eb	0.0011406218
68	0x3e78405f	0.24243306
69	0x3e6a85b0	0.2290256
70	0xbd8baa35	-0.06819574
71	0x3e061634	0.13094407
72	0xbdf1a11f	-0.117983095
73	0x3cd47376	0.025933962
74	0xbe41f259	-0.18940105
75	0x3d38aa49	0.04508427
76	0xbd2b7d51	-0.041867558
77	0x3dd569be	0.10420559
78	0xbed30d92	-0.4122129
79	0xbe8e5a08	-0.27803063
80	0x3e82a9ee	0.2552027
81	0x3d166689	0.03671888
82	0x3e97d6ab	0.29655966
83	0x3eb46c8d	0.35239068
84	0xbec50c44	-0.3848592
85	0xbc7393c4	-0.014866773
86	0xbe37a7e9	-0.17935146
87	0x3de19db8	0.110164106
88	0xbd98541a	-0.07437916
89	0xbdb71c62	-0.089409605
90	0x3e626402	0.22108462
91	0xbd7bfb41	-0.06151891
92	0x3dd9af52	0.10629143
93	0xbe1adfd5	-0.15124448
94	0x3e925d83	0.2858697
95	0x3e12d5bd	0.14339347
96	0x3e7cab72	0.24674776
97	0xbe561fbe	-0.20910546
98	0x3de31881	0.11088658
99	0x3e9e6986	0.30939883
100	0x3df3d452	0.11905731
101	0x3e97ee3c	0.29673946
102	0xbe641846	-0.22274885
103	0xbe9b7cca	-0.30368644
104	0xbd041e23	-0.032255303
105	0xbf2e5607	-0.6810002
106	0x3ebac9b2	0.36482006
107	0x3ef5dda7	0.4802067
108	0xbd336713	-0.04379947
109	0x3c950fad	0.018195951
110	0xbd9cfb4b	-0.07665118
111	0x3d7e9f2f	0.062163528

final.linears.1.weight f4 [112, 112]
0	0x3ca74907	0.020420564
1	0xbe60a4cc	-0.21937865
2	0xbc232f4a	-0.009960005
3	0xbeebb90a	-0.4603961
4	0xbd94dc82	-0.07268621
5	0xbea8401b	-0.3286141
6	0xbe5495dd	-0.20760293
7	0xbe9f1c38	-0.31076217
8	0xbe3be548	-0.18349183
9	0xbeaef30d	-0.34169808
10	0xbeab2845	-0.3342916
11	0xbe87f6d2	-0.26555496
12	0xbe89bdb0	-0.26902533
13	0xbe7f6ab1	-0.24943043
14	0xbe62ab6a	-0.22135702
15	0xbe881c88	-0.26584268
16	0xbc6067b6	-0.013696602
17	0xbe20f18d	-0.15717144
18	0xbe7a786d	-0.24460001
19	0xbe0dd5ad	-0.13851042
20	0xbe3d1068	-0.1846329
21	0xbe930560	-0.28715038
22	0xbe89fa14	-0.26948607
23	0xbcbad62a	-0.0228072
24	0xbda49143	-0.08035519
25	0xbe8124a8	-0.2522328
26	0xbe3c0185	-0.18359955
27	0xbe3a4b6a	-0.1819283
28	0xbc2c96ef	-0.010534032
29	0xbeab2cdc	-0.33432662
30	0xbd8526e8	-0.065015614
31	0xbe5bafe5	-0.21453817
32	0xbe697b9a	-0.22801057
33	0x3dcca688	0.09992701
34	0xbecaaa94	-0.39583266
35	0xbce2ba9d	-0.027676875
36	0xbdcac600	-0.09901047
37	0xbe080ebc	-0.1328687
38	0xbe9a7110	-0.30164385
39	0xbdfba964	-0.12288168
40	0xbe740845	-0.2383128
41	0xbeb9bba2	-0.36275965
42	0xbb957c89	-0.004561965
43	0xbe59c234	-0.21265489
44	0xbe8f2abc	-0.2796229
45	0xbdebc53c	-0.11512229
46	0xbe490f8a	-0.19634834
47	0xbe8db0a2	-0.27673823
48	0x3d4add9e	0.049527757
49	0xbc88e971	-0.016712876
50	0xbdb3d1c0	-0.08780241
51	0xbe6a224e	-0.22864649
52	0xbd609580	-0.054830074
53	0xbeb4993d	-0.35273162
54	0xbefd2823	-0.49444684
55	0xbe772b57	-0.24137627
56	0xbd173703	-0.036917698
57	0xbe2e2fc0	-0.17010403
58	0xbe964dcb	-0.29356226
59	0xbe37b11d	-0.17938657
60	0xbeb6dba3	-0.35714445
61	0x3cc750bb	0.024330487
62	0x3c18d691	0.0093285
63	0x3dde05b5	0.10840932
64	0xbf8a4e50	-1.0805149
65	0xbe32388b	-0.17404382
66	0xbd91dda0	-0.0712235
67	0xbe84e696	-0.25957173
68	0xbdd6047d	-0.10450075
69	0xbe834ef9	-0.2564619
70	0x3c91a34c	0.017778061
71	0xbeb2b6fe	-0.34905237
72	0xbd3252f2	-0.043536134
73	0xbecba1aa	-0.39771777
74	0x3d4878cd	0.04894333
75	0xbdcb865d	-0.09937737
76	0xbdee7fdb	-0.1164548
77	0xbe95538d	-0.29165307
78	0xbdd3ece6	-0.10347919
79	0x3c7804e6	0.015137887
80	0xbd6bdd74	-0.05758424
81	0xbe053f80	-0.13012505
82	0xbdc438a2	-0.09581114
83	0xbd5fc133	-0.05462761
84	0x3daeb564	0.08530691
85	0xbe5ebd09	-0.21751799
86	0xbe207b13	-0.15671949
87	0x3d7f15e9	0.062276755
88	0xbe241620	-0.16024065
89	0xbec718c5	-0.38886085
90	0xbde83186	-0.11337571
91	0xbd100b61	-0.0351671
92	0xbe63b6cb	-0.22237699
93	0xbe7b932c	-0.2456786
94	0xbdf13a8a	-0.117787436
95	0xbeaf08f7	-0.34186527
96	0xbe04abd5	-0.12956174
97	0xbbf1146c	-0.007357171
98	0xbebdf42e	-0.37100357
99	0xbec2ba21	-0.3803263
100	0xbed2ef03	-0.41197976
101	0xbde10542	-0.10987331
102	0x3d4ab238	0.04948637
103	0x3d2beec1	0.04197574
104	0xbdb0472c	-0.08607325
105	0x3e17bb74	0.14817601
106	0xbe5e1f12	-0.2169154
107	0xbea91efc	-0.33031452
108	0x3c1abe04	0.009444717
109	0xbe968ae0	-0.29402828
110	0xbe6f1bf8	-0.23350513
111	0xbef2078b	-0.4727138
112	0x3e92ee51	0.28697446
113	0xbe5d453a	-0.21608439
114	0xbde97001	-0.11398316
115	0xbef78746	-0.48345393
116	0xbda74130	-0.081667304
117	0xbebd48f5	-0.36969724
118	0xbe5647f2	-0.20925882
119	0xbd855fce	-0.06512414
120	0xbe8b0cb0	-0.27158117
121	0xbe9661df	-0.29371545
122	0xbebe19c6	-0.3712904
123	0xbe5f91a9	-0.21832909
124	0xbe7487e6	-0.23879966
125	0xbe9108ab	-0.28326926
126	0xbe759b5c	-0.23985046
127	0xbf320660	-0.6954098
128	0xbdce5b5a	-0.10076018
129	0xbe49e723	-0.19717078
130	0xbe833f05	-0.25634018
131	0xbecc057c	-0.39847934
132	0xbeab65f6	-0.33476228
133	0xbead1742	-0.33806807
134	0xbeec9262	-0.4620543
135	0xbea33e12	-0.31883293
136	0xbe425431	-0.18977429
137	0xbe535231	-0.20636822
138	0xbe79893e	-0.2436876
139	0xbdde48e1	-0.10853744
140	0xbe3d476f	-0.18484281
141	0xbe6668d1	-0.22500922
142	0xbd75eef3	-0.060042333
143	0xbebcf02b	-0.36901984
144	0xbeb72398	-0.35769343
145	0x3ec7efb5	0.3905007
146	0xbf0dc8cf	-0.55384535
147	0xbda5f2e9	-0.08102972
148	0xbd320d4c	-0.043469712
149	0xbe64f01f	-0.22357224
150	0xbeba0275	-0.3633
151	0xbcbc74a2	-0.023004834
152	0xbf91dce6	-1.1395538
153	0xbedcb50b	-0.43106875
154	0xbd529ac7	-0.05141714
155	0xbe2e9d53	-0.17052202
156	0xbebf80c5	-0.3740293
157	0xbe5b5d58	-0.21422327
158	0xbe916741	-0.2839909
159	0xbec4f24f	-0.38466117
160	0x3e136b76	0.14396462
161	0xbdb91d2f	-0.090387695
162	0xbe08c475	-0.13356192
163	0xbf36d1dd	-0.71413976
164	0xbeecd1d8	-0.46253848
165	0xbea732c4	-0.3265592
166	0xbedf5e52	-0.43626648
167	0xbe3eda7d	-0.18638034
168	0x3d0285a6	0.03186574
169	0xbe1820fb	-0.14856331
170	0xbdebe596	-0.115183994
171	0x3d8afc5f	0.06786417
172	0xbe4ab4b4	-0.19795495
173	0xbe3df5f9	-0.18550862
174	0x3cb92dbe	0.02260482
175	0xbcfa1b96	-0.030530732
176	0xbe2066a0	-0.15664148
177	0xbe3e0b5a	-0.18559018
178	0xbe56e96d	-0.20987482
179	0xbe39b413	-0.18135099
180	0xbf07354c	-0.528157
181	0xbe9cac5f	-0.3060026
182	0x3d19fe42	0.037595995
183	0xbebfb3b0	-0.37441778
184	0xbe2997b3	-0.16561775
185	0xbeaa84ee	-0.33304542
186	0xbc5f5cf2	-0.013633
187	0xbabf7f87	-0.001461015
188	0xbeb75a67	-0.3581116
189	0xbe86e9d8	-0.26350284
190	0x3e0113a1	0.12605144
191	0xbc9324ec	-0.017961942
192	0xbe408a2a	-0.18802705
193	0xbe7bbe3e	-0.2458429
194	0xbe5a8033	-0.21337967
195	0xbecd2920	-0.40070438
196	0x3e982930	0.29718924
197	0xbe927012	-0.28601128
198	0xbafab03c	-0.0019126008
199	0xbd3478b8	-0.04406044
200	0xbedb20f6	-0.42798585
201	0xbe179e0e	-0.14806387
202	0xbe119d74	-0.1422022
203	0xbc9d1161	-0.019173326
204	0xbe1c6c54	-0.15275699
205	0xbe6272ba	-0.22114077
206	0xbe94c4fe	-0.29056543
207	0xbf0d9db6	-0.5531877
208	0xbd6c816f	-0.057740625
209	0x3ca27ffb	0.019836416
210	0xbea3b3e9	-0.31973198
211	0xbe8e9600	-0.27848816
212	0xbebb08af	-0.36530063
213	0xbe0ddbda	-0.13853398
214	0x3bc78dad	0.006089887
215	0x3d95f253	0.0732161
216	0xbe99855f	-0.29984567
217	0x3dc7a767	0.09748726
218	0xbefa88c7	-0.48932478
219	0xbeb0b169	-0.34510353
220	0xbd78595b	-0.06063209
221	0xbdee23ce	-0.11627923
222	0xbe1ed3c5	-0.15510471
223	0xbe8d198d	-0.27558556
224	0x3cbc2047	0.02296461
225	0xbd85657b	-0.065134965
226	0xbd4ff222	-0.050768025
227	0xbd1547f1	-0.03644556
228	0xbe548ed8	-0.20757616
229	0xbd9ca359	-0.076483436
230	0xbd044971	-0.0322966
231	0xbd53d434	-0.051716045
232	0x3c3db10a	0.011577854
233	0x3c9da2a4	0.019242592
234	0xbd32f0f9	-0.04368684
235	0x3c1cdc87	0.009574062
236	0x3eaec5d8	0.34135318
237	0xbd5d6361	-0.054049853
238	0x3d9d7a64	0.0768936
239	0xbd6050c6	-0.05476453
240	0xbd8f0e57	-0.06985157
241	0xbc966c5a	-0.018362213
242	0xbd51585a	-0.05110965
243	0xbcfbb603	-0.030726438
244	0xbd04daf1	-0.03243536
245	0xbd8d0456	-0.06885593
246	0xbc3d3c88	-0.011550076
247	0x3d13d708	0.03609374
248	0x3b908120	0.004409924
249	0x3d1f501f	0.03889477
250	0xbda2bdf7	-0.07946389
251	0x3e75fce2	0.24022248
252	0xbd95b96c	-0.07310757
253	0xbcd27926	-0.025692534
254	0x3d45a4df	0.048252936
255	0xbcf27d18	-0.029600665

final.linears.1.bias f4 [112]
0	0xbe558fdd	-0.2085566
1	0xbee1aad0	-0.44075632
2	0xbce0d707	-0.027446283
3	0xbe83f42b	-0.25772223
4	0xbe43e060	-0.19128561
5	0xbe212a91	-0.15738894
6	0xbe576ad8	-0.21036851
7	0xbe7fdbd9	-0.24986209
8	0xbe8b5fbd	-0.2722148
9	0xbe98c25e	-0.2983579
10	0xbd7ad04b	-0.0612338
11	0xbe4e253a	-0.20131388
12	0xbe223c59	-0.15843333
13	0xbe2f43fc	-0.17115778
14	0xbdda278a	-0.10652073
15	0x3d4fbc0c	0.050716445
16	0xbe59625f	-0.21228932
17	0x3cf25e82	0.02958608
18	0x3da0486d	0.07826314
19	0x3cdc3066	0.026878547
20	0xbeb00626	-0.3437969
21	0xbe82d95e	-0.25556463
22	0xbe59ba05	-0.21262367
23	0xbe318177	-0.17334543
24	0xbe0509e9	-0.12992062
25	0xbf25cc12	-0.6476451
26	0xbdcebe01	-0.10094834
27	0xbe965f75	-0.29369703
28	0xbea76fba	-0.32702428
29	0x3de054fd	0.1095371
30	0xbe6a7b55	-0.2289861
31	0xbdf416d1	-0.119184144
32	0xbe2949cf	-0.16532062
33	0xbe9072c4	-0.2821256
34	0xbdb92e53	-0.09042039
35	0xbd06f67b	-0.032949906
36	0xbce7c717	-0.028293176
37	0xbe8ca814	-0.27471983
38	0xbdc59e1a	-0.09649296
39	0xbe09d47f	-0.13459967
40	0xbd2f6d2f	-0.042828735
41	0xbe9212fa	-0.28530103
42	0xbec27b4f	-0.37984702
43	0xbeace222	-0.33766276
44	0xbe3d57c2	-0.18490508
45	0xbeeb0c15	-0.45907655
46	0xbe49ed70	-0.19719481
47	0xbe860de0	-0.2618246
48	0xbe9ac0e3	-0.30225286
49	0xbe5a9b6a	-0.21348348
50	0xbda05077	-0.078278475
51	0xbe9da7c1	-0.3079205
52	0xbe49a969	-0.19693531
53	0xbe6c0404	-0.23048407
54	0xbe912a5d	-0.28352633
55	0xbe382609	-0.1798326
56	0xbe9f1632	-0.3107162
57	0xbe41d41e	-0.18928573
58	0xbe95a547	-0.2922766
59	0xbe8ab6bb	-0.27092537
60	0xbeb7a07c	-0.35864627
61	0xbe492805	-0.19644172
62	0xbf7340d9	-0.95020825
63	0xbe6843a9	-0.2268206
64	0xbe872696	-0.26396626
65	0xbe9dcad4	-0.30818808
66	0xbd0c164d	-0.034200955
67	0x3be91f76	0.007114346
68	0xbdb8ada5	-0.09017495
69	0xbe72e1c4	-0.23718935
70	0x3c9f3118	0.01943259
71	0xbeb5d10c	-0.35511053
72	0xbe1ab72e	-0.1510894
73	0xbe3b9a53	-0.18320589
74	0xbd2bf172	-0.041978307
75	0xbe25b389	-0.16181768
76	0xbe908c95	-0.28232256
77	0xbe4eb685	-0.20186813
78	0x3d415254	0.047197655
79	0xbe1ceea6	-0.15325412
80	0xbda00bfa	-0.07814784
81	0x3c8924e0	0.016741216
82	0x3e1b1676	0.15145287
83	0x3c935bb7	0.017988069
84	0xbe66444e	-0.22486994
85	0xbebe50c3	-0.3717099
86	0xbe988a74	-0.2979313
87	0xbf1076ec	-0.5643146
88	0xbdd354ba	-0.10318895
89	0x3e2be5da	0.167869
90	0xbdd9d798	-0.10636824
91	0x3e0b7756	0.13619742
92	0xbe917ca3	-0.28415403
93	0xbdeb8f5c	-0.11501953
94	0xbe8f31fd	-0.27967826
95	0xbebddac0	-0.37080956
96	0xbd86757e	-0.065653786
97	0xbdd8433c	-0.10559699
98	0xbe0dd604	-0.13851172
99	0xbd862e86	-0.065518424
100	0xbe38691b	-0.18008845
101	0x3d3faaa5	0.0467936
102	0xbdeb92cc	-0.11502609
103	0xbb040e27	-0.0020150037
104	0x3d22c352	0.039737053
105	0x3cb715f3	0.022349333
106	0xbca695ca	-0.020335097
107	0xba3ed9bf	-0.00072803715
108	0xbe80b2b1	-0.2513633
109	0xbe4fd78f	-0.20297073
110	0xbdd15b03	-0.10222437
111	0xbea88c6c	-0.32919633

final.linears.2.weight f4 [24, 112]
0	0x3ec57046	0.3856222
1	0x3d3a42fa	0.04547403
2	0x3e524116	0.20532641
3	0xbe38cf09	-0.18047728
4	0x3da4a7a8	0.080397904
5	0xbbec44be	-0.007210343
6	0x3d26e4be	0.04074549
7	0xbdeb476d	-0.11488233
8	0x3d4fca82	0.050730236
9	0xbdbce290	-0.09222901
10	0xbb701950	-0.0036636181
11	0x3e871892	0.26385933
12	0xbe316db0	-0.17326999
13	0x3e72b1e3	0.23700671
14	0xbe1e80b4	-0.15478784
15	0x3b6985cd	0.003563273
16	0x3d9cc320	0.07654405
17	0x3e44dffc	0.19226068
18	0x3e8d5ac1	0.27608302
19	0x3de451a6	0.11148386
20	0xbe749435	-0.23884661
21	0xbe58a641	-0.21157171
22	0xbf07f527	-0.5310845
23	0xbe608586	-0.21925935
24	0xbb2ffb1b	-0.0026852551
25	0xbc0dd1ef	-0.008656009
26	0x3d01a320	0.03164971
27	0x3e619a1c	0.22031444
28	0x3e43c71b	0.19118921
29	0xbddef844	-0.10887197
30	0xbed14392	-0.40871865
31	0x3dfae929	0.12251503
32	0xbe44f985	-0.19235809
33	0xbe234840	-0.1594553
34	0x3a99bd4c	0.0011729388
35	0xbdf74b87	-0.120749526
36	0x3de6feb7	0.11279052
37	0x3ec454bd	0.383459
38	0x3bcb2318	0.006199252
39	0xbc2a391b	-0.010389592
40	0xbd778902	-0.060433395
41	0x3f03fd0d	0.51558
42	0xbdf45c4a	-0.11931665
43	0xbeff9ecc	-0.4992584
44	0x3d5d4d56	0.05402883
45	0x3b906604	0.0044066925
46	0xbe1a7d78	-0.15086925
47	0x3de2e8f1	0.11079586
48	0x3e7345eb	0.2375714
49	0xbc19002a	-0.009338418
50	0xbc1c1422	-0.009526284
51	0x3f066dba	0.5251118
52	0xbcfbce7e	-0.030738112
53	0x3e1491ed	0.14508791
54	0xbf10124b	-0.5627791
55	0xbc601076	-0.0136758
56	0xbf35ca7e	-0.71012104
57	0x3e02de85	0.12780197
58	0x3de2171e	0.110395655
59	0x3e567f75	0.20947058
60	0xbebfadbc	-0.37437236
61	0x3e8579a7	0.26069376
62	0xbb4d66d6	-0.0031341813
63	0xbda735ee	-0.08164583
64	0xbe548457	-0.20753609
65	0x3e10c5f6	0.14138016
66	0xbd3caa75	-0.046060998
67	0x3e7c8015	0.24658234
68	0xbda617eb	-0.08110031
69	0xbd13c4a4	-0.036076203
70	0xbdb5af71	-0.088713534
71	0xbd5281fe	-0.0513935
72	0xbd4ecaab	-0.050486248
73	0xbe8ef45f	-0.27920815
74	0x3bb0245a	0.005375427
75	0xbd61b485	-0.055103797
76	0xbcdc2f36	-0.02687798
77	0xbeb95579	-0.36198023
78	0xbe830303	-0.25588235
79	0xbe2f8417	-0.17140232
80	0x3d722d0d	0.059124995
81	0x39a33176	0.00031126634
82	0x3bef3729	0.007300277
83	0xbcb1ebb3	-0.021718835
84	0x3e285848	0.16439927
85	0x3ec9475c	0.39312255
86	0x3e939f95	0.2883269
87	0x3c7cd8ef	0.01543258
88	0xbd7696e4	-0.060202494
89	0x3b3e0370	0.0028993748
90	0x3dc1b4bf	0.09458303
91	0x3dbcc472	0.092171565
92	0xbe8f937c	-0.2804221
93	0xbe5c8394	-0.21534568
94	0xbdfdad16	-0.12386529
95	0x3c3b20b6	0.011421373
96	0x3de7c1e5	0.11316279
97	0xbdef08c9	-0.116715975
98	0x3f710146	0.9414257
99	0xbddf4a2b	-0.10902818
100	0x3d823074	0.06356898
101	0xbe07ba42	-0.13254645
102	0x3dbca3a7	0.09210902
103	0xbdc1e4cb	-0.09467467
104	0xbb1064ba	-0.0022032694
105	0xbda8f546	-0.08249907
106	0xbd8d6885	-0.06904701
107	0xbd342144	-0.043977037
108	0x3eb0022c	0.34376657
109	0x3e88cbe9	0.2671807
110	0xba518404	-0.0007992389
111	0xbe6f8c2c	-0.23393315
112	0x3e4150e6	0.18878517
113	0xbc99ed63	-0.018789953
114	0xbe2ce2b1	-0.16883351
115	0xbed412c3	-0.41420564
116	0xbdc24dce	-0.09487496
117	0x3e60bcd0	0.21947026
118	0x3e2d602c	0.16931218
119	0xbe88488f	-0.26617858
120	0x3dc851f0	0.09781253
121	0xbf1cd4ea	-0.6126238
122	0xbc357df7	-0.011077396
123	0x3ba6f1b4	0.005094731
124	0xbe1411ec	-0.14459962
125	0x3d2c3533	0.042042922
126	0x3da4e3e4	0.08051279
127	0xbce6b96e	-0.028164592
128	0xbe36683c	-0.178132
129	0x3e2f1df0	0.17101264
130	0xbd4f4467	-0.050602343
131	0x3d6de444	0.05807902
132	0x3e3db9e0	0.18527937
133	0xbed8db92	-0.4235502
134	0xbd5757c4	-0.052573934
135	0xbdf4d7b1	-0.11955202
136	0xbea1c84e	-0.31598133
137	0xbb593816	-0.0033145002
138	0x3dd78dd9	0.10525102
139	0x3df2d7b5	0.11857549
140	0xbeac3200	-0.33631897
141	0x3d02c6ce	0.031927876
142	0x3e80078f	0.25005767
143	0x3c4a4aca	0.012346933
144	0x3dbab48a	0.09116466
145	0xbeb402fb	-0.35158524
146	0xbaeb0ebf	-0.0017933472
147	0x3adec038	0.0016994542
148	0xbd25f9e1	-0.040521506
149	0xbecf3004	-0.4046632
150	0xbc1c6ffa	-0.009548182
151	0xbd052c66	-0.032513045
152	0x3e3f1fde	0.186645
153	0xbe973445	-0.29532066
154	0xbdecb789	-0.11558444
155	0x3eabd8d3	0.3356386
156	0xbe5eb765	-0.21749647
157	0xbb279e16	-0.0025576404
158	0xbd914e79	-0.070950456
159	0x3ec76623	0.38945112
160	0xbe48e926	-0.19620189
161	0xbd951e16	-0.07281129
162	0x3e7a01ca	0.24414745
163	0xbf00b184	-0.5027087
164	0xbe14463c	-0.14479917
165	0xbd0b0bbb	-0.033946734
166	0xbe020feb	-0.12701385
167	0x3eee1d37	0.46506664
168	0x3d0f3bf0	0.03496927
169	0x3c929568	0.017893508
170	0xbd312857	-0.04325136
171	0xbc8635be	-0.016383048
172	0x3ea28cfb	0.31748185
173	0xbe174fad	-0.14776488
174	0x3b98b092	0.0046597207
175	0x3e833ea0	0.25633717
176	0x3e2bf2f0	0.16791892
177	0x3f1ab759	0.60436016
178	0x3cd01ea3	0.025405234
179	0x3e161165	0.14655073
180	0x3cefdf94	0.029281415
181	0xbdeeee0e	-0.11666499
182	0xbe35bb2f	-0.17747186
183	0xbe4a993a	-0.19785014
184	0xbe32ce33	-0.17461471
185	0x3d795593	0.060872626
186	0x3d2ad255	0.041704495
187	0x3f2570c9	0.6462522
188	0x3eef8367	0.4677994
189	0x3e246167	0.16052781
190	0xbcc1afad	-0.023643339
191	0xbe3e5dea	-0.18590513
192	0xbe55d58a	-0.2088224
193	0x3e2e7d2c	0.17039937
194	0xba1d9c84	-0.00060123974
195	0xbd131fe0	-0.03591907
196	0x3ea516b7	0.32243893
197	0x3e7e84fa	0.24855414
198	0x3eb5fa56	0.35542554
199	0x3c458c23	0.012057337
200	0xbdca5fa8	-0.09881526
201	0x3ab647f7	0.0013906945
202	0x3e4e5f88	0.2015363
203	0xbe930485	-0.28714386
204	0xbefaa488	-0.48953652
205	0x3e4ec580	0.20192528
206	0x3da11e2c	0.07867083
207	0x3cc4c313	0.0240188
208	0xbdc61255	-0.09671465
209	0xbdffcab4	-0.124898344
210	0x3edb4805	0.42828384
211	0xbe8c0e08	-0.27354455
212	0x3e671737	0.2256745
213	0xbbcd7b46	-0.006270799
214	0xbcf2c922	-0.029636923
215	0x3dc83ac9	0.097768374
216	0x3ccb8b7d	0.024846787
217	0x3d0c51ad	0.03425758
218	0x3dc81c4d	0.09771023
219	0x3c05d554	0.008168537
220	0xbdde541a	-0.10855885
221	0xbece6c7b	-0.4031714
222	0xbbd3c190	-0.0064622834
223	0x3d879eee	0.0662211
224	0xbd881f63	-0.066466115
225	0x3f1afbeb	0.60540646
226	0xbca86abd	-0.02055871
227	0xbe7f382f	-0.24923776
228	0x3c91b851	0.017788084
229	0xbe5d92e0	-0.2163806
230	0x3d3a0ff5	0.045425374
231	0xbe19fb89	-0.1503736
232	0xbcd5fefb	-0.02612256
233	0xbd85c9d4	-0.06532636
234	0x3dffb298	0.12485236
235	0xbccf9de8	-0.02534385
236	0x3d9359e3	0.07194879
237	0x3dbb6176	0.091494486
238	0x3d8e4074	0.06945887
239	0xbceeee84	-0.029166467
240	0x3da0ad88	0.078455985
241	0xbd8865bd	-0.0666003
242	0xbd88f2fc	-0.066869706
243	0xbdb9c395	-0.090705074
244	0x3e492d24	0.19646126
245	0xbe5a1775	-0.2129801
246	0xbe230d65	-0.15923078
247	0xbbb93bdd	-0.005652888
248	0xbd40f2c3	-0.047106516
249	0x3f2b70e4	0.6696913
250	0x3e13d9e6	0.1443859
251	0x3cb8b467	0.02254696
252	0xbd61e607	-0.05515101
253	0xbceacc15	-0.028661767
254	0xbeb7cf39	-0.35900286
255	0x3d9e7dd6	0.07738845

final.linears.2.bias f4 [24]
0	0x3d455110	0.04817301
1	0xba63f615	-0.0008696032
2	0xbd261eaa	-0.040556587
3	0x3da644ec	0.081186146
4	0xbd689f20	-0.05679238
5	0xbe03431e	-0.12818572
6	0x3ca2525f	0.019814668
7	0x3ca7f1e7	0.02050109
8	0xbc970034	-0.018432714
9	0x3d89d39d	0.06729815
10	0x3c9c4805	0.01907731
11	0x3cdf8dbf	0.02728927
12	0x3c45d8f9	0.012075656
13	0xbc1e143a	-0.009648377
14	0xbd4a9d68	-0.04946652
15	0xbb027796	-0.0019907705
16	0x3dae21a8	0.08502513
17	0xbdb0f807	-0.086410575
18	0xbcd3b2e9	-0.025842147
19	0x3c895ffb	0.0167694
20	0x3cbe433d	0.023225421
21	0xbd754ffe	-0.05989074
22	0x3cf250d4	0.029579557
23	0x3d87b551	0.0662638

layers.0.attn.0.gnn_q.weight f4 [24, 16]
0	0xa8df9d06	-2.4826072e-14
1	0xad317949	-1.0088216e-11
2	0xafff9f41	-4.6497386e-10
3	0xa5f37a06	-4.2236467e-16
4	0xb6be3852	-5.668998e-06
5	0xb4a58444	-3.082988e-07
6	0x212cfafa	5.860803e-19
7	0x31d27b70	6.1258376e-09
8	0x07af8591	2.6409577e-34
9	0x32a99d35	1.9745679e-08
10	0x19942ff1	1.5322205e-23
11	0x2cafbf68	4.9950495e-12
12	0x9eb9e37e	-1.9681725e-20
13	0xa693b49f	-1.0249131e-15
14	0x36c192b5	5.768927e-06
15	0xb69baba7	-4.639343e-06
16	0xa95ad6cd	-4.8592034e-14
17	0x2fb41acb	3.2760847e-10
18	0xb13f0783	-2.7798428e-09
19	0xa56a0a68	-2.029979e-16
20	0xb81bb42b	-3.7122674e-05
21	0xb60c28b4	-2.0885318e-06
22	0x9fc1eb99	-8.212844e-20
23	0x3405f7d7	1.2476754e-07
24	0x87921b48	-2.1983673e-34
25	0x3425cf9c	1.544235e-07
26	0x9a0df4d3	-2.9355884e-23
27	0x2e37de31	4.1806728e-11
28	0x1f08bbc8	2.895445e-20
29	0x26fe69b7	1.7653445e-15
30	0x381a8acd	3.684573e-05
31	0xb7ebf63c	-2.8128845e-05
32	0xaaede960	-4.2261594e-13
33	0x2ed9411b	9.8795826e-11
34	0xb04bdb8f	-7.416298e-10
35	0xa7287ea8	-2.3383344e-15
36	0xb8fd5918	-0.00012080575
37	0xb60d69cc	-2.107222e-06
38	0x229df3e0	4.281315e-18
39	0x33ab3ffa	7.974445e-08
40	0x870737b1	-1.0172637e-34
41	0x332451a8	3.825849e-08
42	0x9a52b656	-4.3574272e-23
43	0x2d8ea09c	1.6214856e-11
44	0x1fb66df8	7.7261926e-20
45	0x27bb88ce	5.205125e-15
46	0x38fd04be	0.000120648634
47	0xb8913f39	-6.925915e-05
48	0x2a49f1c6	1.7936268e-13
49	0xb047962d	-7.260919e-10
50	0x31b74fd8	5.335078e-09
51	0xa580eb68	-2.2363978e-16
52	0x388d36cc	6.733611e-05
53	0x36829f82	3.892871e-06
54	0x217a6244	8.483335e-19
55	0xb476b4c5	-2.2976299e-07
56	0x87010b10	-9.708132e-35
57	0xb49ec606	-2.9573874e-07
58	0x1a5dfcfc	4.5906088e-23
59	0xaeb6e979	-8.317875e-11
60	0x9f9f9bb4	-6.759671e-20
61	0xa7ca6fb4	-5.618737e-15
62	0xb88d35f1	-6.733451e-05
63	0x3857be18	5.1437033e-05
64	0x28e2c3e3	2.5175993e-14
65	0xaf4d8bc0	-1.869429e-10
66	0x311504d6	2.1685103e-09
67	0x25162868	1.3024116e-16
68	0x37e3d38c	2.7159018e-05
69	0x35e3fe0e	1.6986758e-06
70	0x216b8a52	7.980416e-19
71	0xb3c73fb9	-9.278251e-08
72	0x08782077	7.4667948e-34
73	0xb401b5c1	-1.2080183e-07
74	0x160c5df8	1.1338761e-25
75	0xae1e6171	-3.6011586e-11
76	0x1ce51806	1.5160159e-21
77	0x2503b4e6	1.142373e-16
78	0xb7e74e6b	-2.7573862e-05
79	0x37b5b823	2.1662627e-05
80	0xaa470397	-1.7675996e-13
81	0x2d78e0ac	1.4147055e-11
82	0xb0824418	-9.478098e-10
83	0xa6628017	-7.8583095e-16
84	0xb78d4a77	-1.6843185e-05
85	0xb5333224	-6.675566e-07
86	0x2007961c	1.1484612e-19
87	0x32c41fec	2.283192e-08
88	0x886e5dc6	-7.173075e-34
89	0x331da663	3.670574e-08
90	0x198bce6c	1.4455636e-23
91	0x2d85c62c	1.5208355e-11
92	0x9e564d5a	-1.1345062e-20
93	0xa6fbebe9	-1.7480567e-15
94	0x378d83c1	1.6869863e-05
95	0xb74ff1e3	-1.239448e-05
96	0xa9952138	-6.622692e-14
97	0xafad9458	-3.157392e-10
98	0x31953092	4.3419925e-09
99	0xa658b4fc	-7.5185334e-16
100	0x38620211	5.3884523e-05
101	0x36625a17	3.3729063e-06
102	0x219ebabb	1.0755924e-18
103	0xb4566941	-1.9968594e-07
104	0x088bee4c	8.4217815e-34
105	0xb46c4b16	-2.2006529e-07
106	0x19ef7920	2.4760943e-23
107	0xae95e0bb	-6.815656e-11
108	0x9f467bb6	-4.2030462e-20
109	0x262d0dea	6.004029e-16
110	0xb863b66f	-5.4290922e-05
111	0x3831731f	4.2307303e-05
112	0x2a8b1126	2.470326e-13
113	0x2f22c63b	1.480424e-10
114	0xb0830888	-9.533929e-10
115	0x2686756c	9.329945e-16
116	0xb72f2f27	-1.0441791e-05
117	0xb5702a6e	-8.946871e-07
118	0xa02df0af	-1.4733306e-19
119	0x3396b282	7.01739e-08
120	0x87c951d3	-3.029121e-34
121	0x338db6d1	6.599078e-08
122	0x9954ce5c	-1.1001817e-23
123	0x2d85f80b	1.5230503e-11
124	0x1ebddb4f	2.0101857e-20
125	0x269a7402	1.0717341e-15
126	0x37314f37	1.0568466e-05
127	0xb70e0b85	-8.466542e-06
128	0x2a7ea716	2.2617701e-13
129	0xb01352d0	-5.359597e-10
130	0x3190072f	4.1917683e-09
131	0x25b2f17f	3.1041722e-16
132	0x382706e8	3.9822335e-05
133	0x36440c63	2.9213486e-06
134	0xa1e9ba32	-1.583798e-18
135	0xb44587b6	-1.8396426e-07
136	0x88404cd7	-5.7868223e-34
137	0xb478358c	-2.311628e-07
138	0x1a30ccb2	3.65613e-23
139	0xae9167ac	-6.6122524e-11
140	0x9f9ceacb	-6.6457e-20
141	0xa700c884	-1.7872268e-15
142	0xb8296c22	-4.0393446e-05
143	0x38064776	3.2014643e-05
144	0x2ab22756	3.1646447e-13
145	0xafca539e	-3.6803e-10
146	0x310b3499	2.025706e-09
147	0x2680307c	8.894926e-16
148	0x37396c73	1.105211e-05
149	0x3596e6fa	1.1243094e-06
150	0xa22dc4b9	-2.3550016e-18
151	0xb3a2498a	-7.5570895e-08
152	0x086b647e	7.083587e-34
153	0xb3e9b8c4	-1.0883517e-07
154	0x1a239409	3.3827192e-23
155	0xae09d4cd	-3.13392e-11
156	0x9f6db004	-5.03323e-20
157	0xa78d02d8	-3.9138445e-15
158	0xb74100ce	-1.1503884e-05
159	0x371aef1c	9.234787e-06
160	0x291a8ff5	3.4319732e-14
161	0xae5a569b	-4.9644382e-11
162	0x3080b68b	9.365108e-10
163	0x24a1f568	7.0238354e-17
164	0x37912f2c	1.7307313e-05
165	0x3575e464	9.1601964e-07
166	0xa08f9dca	-2.4329558e-19
167	0xb33d9fc0	-4.4150283e-08
168	0x88820542	-7.8253265e-34
169	0xb34859e5	-4.6647887e-08
170	0x9907b8a0	-7.016621e-24
171	0xad902b12	-1.6390032e-11
172	0x1d25bb23	2.1934316e-21
173	0x25004b96	1.112784e-16
174	0xb790f446	-1.7279886e-05
175	0x37608b25	1.33838375e-05
176	0x2b060199	4.760858e-13
177	0xaf1bb1f2	-1.4160387e-10
178	0x2e9d083b	7.1409954e-11
179	0x27043726	1.8348576e-15
180	0x368c705e	4.1854064e-06
181	0xb483eb5e	-2.4571904e-07
182	0xa254d365	-2.8843269e-18
183	0x3306c3f5	3.1377528e-08
184	0x88ade1de	-1.046516e-33
185	0x31851caa	3.874068e-09
186	0x1a135c7d	3.04736e-23
187	0xabf586c3	-1.7445701e-12
188	0x9f34dfc9	-3.8301593e-20
189	0xa72cc5a7	-2.3976943e-15
190	0xb690f666	-4.320219e-06
191	0x361556e8	2.2253316e-06
192	0x2abdecee	3.3737547e-13
193	0xae5e7692	-5.0582268e-11
194	0x2dea8af8	2.6664435e-11
195	0x26be948e	1.3224164e-15
196	0x34e00ec4	4.1733995e-07
197	0xb4846c9e	-2.4665945e-07
198	0xa21e3aed	-2.1444188e-18
199	0x32b771f8	2.135583e-08
200	0x0882a184	7.8620625e-34
201	0x314d644c	2.9888438e-09
202	0x19845b6a	1.3685402e-23
203	0xab88d5da	-9.722737e-13
204	0x9e6b0e15	-1.24437085e-20
205	0xa685d53a	-9.286524e-16
206	0xb547d94c	-7.4449486e-07
207	0xb54c768e	-7.616844e-07
208	0xaa1f933d	-1.417312e-13
209	0x2ec7dbc6	9.088512e-11
210	0x302a46a3	6.194602e-10
211	0xa5c9bcd8	-3.4995907e-16
212	0x3785dc90	1.5957543e-05
213	0x3539a235	6.915391e-07
214	0x21800bba	8.676721e-19
215	0xb2f5e67e	-2.862657e-08
216	0x078f9ca2	2.160831e-34
217	0xb31cd8a1	-3.6518603e-08
218	0x9a07e20e	-2.809995e-23
219	0xad1e6cc8	-9.0054145e-12
220	0x1df53a30	6.4911124e-21
221	0x27867245	3.7316363e-15
222	0xb785ed57	-1.5965355e-05
223	0x374b09cf	1.2102027e-05
224	0x29ceaaa1	9.177837e-14
225	0xaf89f826	-2.5096475e-10
226	0x30ed4f4d	1.7266558e-09
227	0x248f8ae1	6.2251634e-17
228	0x3783b6c0	1.5701517e-05
229	0x359f64f4	1.1875804e-06
230	0xa186317d	-9.093293e-19
231	0xb3a2eb09	-7.5864655e-08
232	0x0820a43c	4.8341305e-34
233	0xb3d55185	-9.933414e-08
234	0x1957ce4f	1.1156903e-23
235	0xade53c89	-2.6061169e-11
236	0x9ecb55d3	-2.1528957e-20
237	0xa71fb376	-2.2162969e-15
238	0xb783db5e	-1.5718568e-05
239	0x3750f0f9	1.2453872e-05
240	0x297412cb	5.4195184e-14
241	0xae9d0f1b	-7.142217e-11
242	0x3008fb89	4.9833965e-10
243	0x23a7bcd0	1.8186141e-17
244	0x36a8bc5e	5.028719e-06
245	0x34b413d1	3.354203e-07
246	0xa10bd4b3	-4.7376537e-19
247	0xb2734fd5	-1.4162613e-08
248	0x882ef345	-5.2647182e-34
249	0xb2dba2c3	-2.5568971e-08
250	0x982a7c2c	-2.2034676e-24
251	0xacde7b94	-6.3233394e-12
252	0x9e31f7d5	-9.4215524e-21
253	0xa6bc796b	-1.3078031e-15
254	0xb6a6b657	-4.9684127e-06
255	0x368f3996	4.268436e-06

layers.0.attn.0.gnn_q.bias f4 [16]
0	0x2ed152c9	9.518925e-11
1	0xb0b0c7ad	-1.2862437e-09
2	0x33a34890	7.603478e-08
3	0x2ae33710	4.0361508e-13
4	0xbad8af42	-0.0016531723
5	0xb8c31d5e	-9.303795e-05
6	0xa5ec3207	-4.0973374e-16
7	0x372573c2	9.861718e-06
8	0x0882961c	7.859381e-34
9	0x35c435fb	1.4618848e-06
10	0x1b46b517	1.643669e-22
11	0xb050ef78	-7.6010265e-10
12	0xa062d6eb	-1.9214055e-19
13	0xa8112feb	-8.0595075e-15
14	0x3acdae83	0.0015692267
15	0xba93fd95	-0.0011290783
