checkpoints/cyp1a2_veith_25_train1_pos/Aug30-19:52:22_500.pth (torch, 415238 bytes, 294 tensors)

layers.0.weight f4 [16, 16]
0.55524117 0.26376855 -0.0655327 0.24892971 -0.08050317 -0.43315807 -0.9138106 1.6464309
1.5904298 -0.06286773 -0.1889526 0.3156072 -0.05534541 -0.7130777 0.994689 -0.41977623
0.25269842 0.12531185 -0.06901383 -0.06420674 0.026254985 0.12655725 0.023231637 0.073302746
-0.14765315 -0.05498444 0.079787165 -0.12688999 0.049737364 -0.36065146 0.4074787 -0.21304987
0.26182365 0.054214492 -0.019573221 -0.010193142 -0.034346852 0.14257285 0.0016956432 0.06900297
-0.15180422 -0.044738296 0.08155623 -0.06820483 0.07490159 -0.34627596 0.38363376 -0.2322523
0.23842965 -0.02236581 -0.009323647 -0.00019048335 0.0011911612 0.119833626 0.039656784 0.023354854
-0.11968445 -0.043984883 0.07073471 0.057668112 0.033092808 -0.29411006 0.33099303 -0.18656628
0.19838828 -0.010393891 -0.01859882 -0.021679875 0.011489731 -0.014573023 0.003991394 0.063815154
0.16473575 0.00058847177 0.04127417 0.018152168 -0.012569351 0.24654083 0.34592357 0.16549715
-1.0006062 -0.26693898 0.26716182 -0.2638333 0.30324465 1.341197 1.021716 -1.5373542
0.019674214 0.3154385 1.3639282 -0.31388983 0.32681802 0.9718781 -1.5571167 0.72054964
1.5704134 -0.15498704 -0.2640548 -0.11751651 -0.27754784 -1.1531335 0.48976123 -0.7056176
-0.25601318 -0.40980464 -1.2575197 -0.1519364 -0.3245542 0.0012996187 2.46074 -0.0038575483
-0.22905932 -0.25190482 -0.20436502 -0.21608947 -0.28624707 -1.6243707 1.0620692 -1.5856524
-0.37888935 -0.24828058 -1.7477661 -0.35036662 -0.3397414 -0.3095402 -0.48503953 -0.19450659
0.37310812 -0.020836476 -0.008095675 -0.007969129 0.017910888 0.22869189 -0.081555374 0.029363591
-0.33599997 -0.034721825 0.1464364 0.067184195 0.013509332 -0.38350388 0.58193797 -0.26496467
0.2903046 -0.016915 -0.0021015382 0.009858058 0.03426758 0.20366006 -0.1545976 0.13287848
-0.38673735 0.0064405566 0.13486136 0.09798778 -0.022691907 0.08792651 0.51261127 0.05802377
-0.42151693 0.22340819 0.086313695 0.22381328 0.05874533 0.2829567 -0.8362159 1.1321675
0.15843323 0.15031259 0.3948211 0.320756 0.08807247 -1.4698809 -0.6896997 -1.0266234
-0.5656131 -0.18621421 0.22926092 -0.16815314 0.23798952 0.7668878 0.8519896 -1.0328298
1.9764129 0.21814299 1.2678095 -0.18898053 0.22061719 -0.36554918 -0.7219541 -0.14623606
-0.5765755 0.24222413 0.017732719 0.22446077 -0.004086848 0.3056688 -0.89733326 1.0024906
-1.9467155 0.06417197 -0.14794916 0.28146818 0.0403085 -0.6588292 -1.0856589 -0.55486304
-0.35184976 0.25567415 -0.17131959 0.15044893 -0.17073274 -0.8236329 -1.0468823 1.6184769
-0.22649255 -0.059123512 -1.0659114 0.13841078 -0.15715131 2.1454709 -0.6731029 1.4283099
-0.8717189 0.22195621 0.055363074 0.16165103 -0.015001739 -0.44714394 -0.5751682 1.1349951
1.4953026 0.1578922 -0.11337185 0.1996175 -0.0028176904 -0.90828073 -1.3206867 -0.6004968
-0.72241074 0.17063625 0.008906978 0.20456073 -0.08247581 -0.3595254 -0.51830804 0.5309897
-0.83554846 0.027190713 -0.45825666 0.20420466 -0.06657087 -1.8395488 -1.1911058 -1.2975341
00000000: 4924 0e3f ac0c 873e 0236 86bd 6ee7 7e3e
00000010: d9de a4bd e5c6 ddbe 7eef 69bf 3fbe d23f
00000020: 3493 cb3f ccc0 80bd ca7c 41be 4497 a13e
00000030: deb1 62bd 438c 36bf f0a3 7e3f e9ec d6be
00000040: b061 813e c051 003e 1f57 8dbd d37e 83bd
00000050: b214 d73c 3998 013e 4650 be3c c01f 963d
00000060: 6332 17be 5d37 61bd 7467 a33d 73ef 01be
00000070: 68b9 4b3d 4fa7 b8be 0ca1 d03e bf29 5abe
00000080: c00d 863e 0410 5e3d 0558 a0bc 2301 27bc
00000090: 49af 0cbd 9efe 113e 5840 de3a 6e51 8d3d
000000a0: 9172 1bbe 813f 37bd f406 a73d f9ae 8bbd
000000b0: 0166 993d 154b b1be a56b c43e 8cd3 6dbe
000000c0: e726 743e 8138 b7bc 36c2 18bc 7cbc 47b9
000000d0: bd20 9c3a 556b f53d 276f 223d ae52 bf3c
000000e0: 1f1d f5bd 7e29 34bd 5cdd 903d 6635 6c3d
000000f0: 538c 073d 9895 96be eb77 a93e 3b0b 3fbe
00000100: 4c26 4b3e 234b 2abc 8d5c 98bc fe99 b1bc
00000110: 6d3f 3c3c b0c3 6ebc 3dca 823b 85b1 823d
00000120: 7db0 283e ac43 1a3a 1b0f 293d dbb3 943c
00000130: aeef 4dbc 3375 7c3e e51c b13e 1678 293e
00000140: dd13 80bf 3aac 88be 6fc9 883e 2915 87be
00000150: e242 9b3e 58ac ab3f 97c7 823f 06c8 c4bf
00000160: d12b a13c 2881 a13e 3395 ae3f 2bb6 a0be
00000170: b154 a73e 01cd 783f 9a4f c7bf f175 383f
00000180: 4e03 c93f ecb4 1ebe 3132 87be 7fac f0bd
00000190: c01a 8ebe e199 93bf fcc1 fa3e 5ba3 34bf
000001a0: 2914 83be ead1 d1be 68f6 a0bf 3795 1bbe
000001b0: f82b a6be f857 aa3a c47c 1d40 ecce 7cbb
000001c0: 878e 6abe abf9 80be 1045 51be 8f46 5dbe
000001d0: fa8e 92be 61eb cfbf e2f1 873f a8f6 cabf
000001e0: c9fd c1be 443d 7ebe cdb6 dfbf 4163 b3be
000001f0: 96f2 adbe 0e7c 9ebe 1a57 f8be bc2c 47be
00000200: 0708 bf3e 42b1 aabc b9a3 04bc f390 02bc
00000210: dbb9 923c 352e 6a3e 8106 a7bd ea8b f03c
00000220: 3008 acbe 7938 0ebd 6cf3 153e de97 893d
00000230: 3f56 5d3c 9f5a c4be e3f9 143f 73a9 87be
00000240: cea2 943e 5391 8abc f6b9 09bb b183 213c
00000250: 295c 0c3d 438c 503e d54e 1ebe 4c11 083e
00000260: 7002 c6be 4e0b d33b 1919 0a3e d1ad c83d
00000270: 61e4 b9bc d012 b43d 7e3a 033f 55aa 6d3d
00000280: 11d1 d7be 1ec5 643e 3cc5 b03d 4f2f 653e
00000290: f19e 703d b3df 903e 3f12 56bf ddea 903f
000002a0: 523c 223e 8beb 193e fe25 ca3e 213a a43e
000002b0: 575f b43d 0f25 bcbf 2990 30bf 6568 83bf
000002c0: 05cc 10bf f0ae 3ebe 60c3 6a3e 5630 2cbe
000002d0: 86b3 733e c252 443f fe1b 5a3f c433 84bf
000002e0: 19fb fc3f e060 5f3e 9547 a23f 1d84 41be
000002f0: 79e9 613e 4329 bbbe fcd1 38bf e8be 15be
00000300: 749a 13bf 9a09 783e 3544 913c 0bd9 653e
00000310: f7ea 85bb 9f80 9c3e a2b7 65bf 9d51 803f
00000320: f92d f9bf 986c 833d fc7f 17be 991c 903e
00000330: 871a 253d 08a9 28bf dff6 8abf 810b 0ebf
00000340: a725 b4be b9e7 823e 676e 2fbe 490f 1a3e
00000350: 90d4 2ebe 9bd9 52bf 3d00 86bf 402a cf3f
00000360: aaed 67be 7f2b 72bd c96f 88bf 8ebb 0d3e
00000370: 46ec 20be 654f 0940 7950 2cbf dcd2 b63f
00000380: f828 5fbf 7d48 633e 64c4 623d d987 253e
00000390: dbc9 75bc 0df0 e4be 393e 13bf 8547 913f
000003a0: 1366 bf3f 7eae 213e 802f e8bd 8868 4c3e
000003b0: 00a9 38bb 1685 68bf 430c a9bf 29ba 19bf
000003c0: e9ef 38bf 45bb 2e3e 93ee 113c 5e78 513e
000003d0: 14e9 a8bd b713 b8be d6af 04bf f1ee 073f
000003e0: 81e6 55bf 0fbf de3c 9ea0 eabe 071b 513e
000003f0: 4f56 88bd 5676 ebbf 2876 98bf 9915 a6bf

layers.0.bias f4 [16]
-0.35317925 0.27154315 0.24143864 -0.6278421 -0.01209632 -0.50189847 0.22806317 0.49760792
-0.63014734 -0.5044553 0.24435346 0.2860705 -0.010872115 -0.15817899 0.1463789 0.3356538
00000000: e9d3 b4be b407 8b3e b13b 773e 43ba 20bf
00000010: a52f 46bc 6b7c 00bf 6489 693e 77c6 fe3e
00000020: 5651 21bf fc23 01bf cb37 7a3e d577 923e
00000030: f520 32bc acf9 21be 5ae4 153e d1da ab3e

layers.1.weight f4 [16, 16]
0.39082435 0.022898741 -0.012434503 -0.050242275 0.9819306 0.2974157 0.6515514 0.16409534
-0.4319191 0.073356606 0.39924163 0.08331884 -0.14887127 -0.06693654 -0.108147226 -0.1472096
-0.0005585691 1.4054865 0.8242306 0.5602591 -0.5780043 0.8218278 0.76416385 -1.2494258
-0.11525996 0.20502184 0.2244338 -0.117497444 0.16687761 0.14996545 -0.18153012 0.26851994
0.44913244 -0.13113655 0.539803 -0.13653292 -0.44241047 -0.47426027 -0.38673416 -0.629478
-1.0099125 -0.3525023 0.06123915 -0.8023161 -0.10883562 -0.09394998 0.42460817 -0.5572761
-0.88570005 0.87580454 0.2371358 0.23941623 -0.93139714 0.14275557 0.10105198 0.09881577
0.08470546 0.4606454 0.12969914 0.0041949507 0.91307247 0.2658997 -0.5032247 0.9980611
-0.12883426 -0.5458789 0.42221016 0.051414993 -0.540095 -0.5753825 -0.8556388 -0.5572483
-1.2632352 -0.3147123 0.12377435 -0.83763236 0.056526825 -0.1393537 0.7300511 -0.3358625
-0.10321376 0.18805555 -0.3472134 0.086786166 -0.3036179 -0.17206393 -0.5091129 -0.55970544
0.51933426 -0.6375481 0.33708403 0.03606548 -0.09343503 0.25925535 0.64862615 -0.5444249
0.6109912 0.672295 0.30593073 -0.7116544 0.49520773 -1.0766598 -0.4026152 0.8599552
0.015510089 -0.650322 -0.41932267 0.024517255 0.26307556 0.2970513 0.23461333 -0.48122537
-0.84343517 -0.58292013 -0.1298043 0.3070833 -0.8183259 0.11206588 -0.2230371 -0.319644
0.09069561 0.5620244 0.0078080506 -0.13147214 0.1426007 -0.23488554 -0.08957298 0.69763243
0.3738015 0.10853148 -0.13022058 -0.14150229 -0.114091024 0.13060151 0.14707024 -0.34221432
0.13202132 -0.1360845 0.20065698 -0.053587068 -0.13643126 0.026964137 0.07269916 -0.18326886
-0.43893343 -0.031116731 0.17736387 0.069495775 -0.7655121 -0.63961935 -0.8932299 -0.40446237
-0.8844488 -0.060344882 0.13341969 -0.66862106 0.5745866 0.26017758 0.44825527 -0.049131826
-0.07362565 0.24610254 -0.13219692 -0.015866408 -0.6934205 -0.470576 -0.824816 -0.31371075
0.9220634 -0.2296888 -0.23285256 0.16795512 0.13128851 0.5632486 0.3346708 -0.30275297
-0.37123775 0.69691026 0.54751056 0.6607923 -0.37742758 0.7635857 0.47448272 -0.7226207
0.16074179 0.49325353 0.15030608 -0.17267746 0.10863107 -0.05781043 -0.106334016 0.46717232
0.21757798 -0.21131934 0.22843695 0.1369615 -0.5599221 -0.1562844 -0.5818477 -0.82971233
-0.9840045 -0.09822342 0.24325548 -0.80276376 0.16994618 0.34448496 0.64498943 -0.3132469
0.73009586 0.16104633 -0.14094436 -0.17163114 0.4238768 0.22137204 0.45441952 -0.033729613
-0.06320356 -0.20266092 0.19960825 -0.25940672 -0.30092096 -0.026555745 -0.111649714 -0.14234161
-0.036029022 -0.007251923 0.1118813 -0.19820288 -0.14151978 -0.32793972 -0.12068743 0.492351
-0.18647712 0.008086994 -0.5086459 -0.09305046 0.15002769 -0.1798909 -0.24870485 0.15749897
0.08209393 0.09505384 0.2095116 -0.4933273 -0.03327937 -0.48815334 -0.27316958 0.507367
0.10999944 -0.035957996 -0.34767473 0.054485373 0.326935 -0.026722595 -0.10471537 -0.0609506
00000000: 211a c83e 2496 bb3c 16ba 4bbc d8ca 4dbd
00000010: ce5f 7b3f df46 983e 13cc 263f 9c08 283e
00000020: 8024 ddbe fd3b 963d 6669 cc3e 11a3 aa3d
00000030: b671 18be 0616 89bd 4b7c ddbd 1dbe 16be
00000040: f06c 12ba fbe6 b33f c700 533f 246d 0f3f
00000050: 17f8 13bf 4f63 523f 3ea0 433f 2fed 9fbf
00000060: 6a0d ecbd 3ff1 513e f9d1 653e 80a2 f0bd
00000070: f7e1 2a3e 8b90 193e 08e3 39be 727b 893e
00000080: b0f4 e53e a948 06be 8830 0a3f 49cf 0bbe
00000090: a083 e2be 3ed2 f2be 0502 c6be 7825 21bf
000000a0: d044 81bf 2e7b b4be e7d5 7a3d 9764 4dbf
000000b0: 36e5 debd d968 c0bd 3e66 d93e a6a9 0ebf
000000c0: 3dbd 62bf ba34 603f bad3 723e 8729 753e
000000d0: 0b70 6ebf 842e 123e 57f4 ce3d ec5f ca3d
000000e0: 0e7a ad3d b7d9 eb3e dacf 043e cc75 893b
000000f0: 1ebf 693f 0124 883e 55d3 00bf ef80 7f3f
00000100: 21ed 03be b8be 0bbf ee2b d83e 8798 523d
00000110: aa43 0abf 444c 13bf 250b 5bbf d3a7 0ebf
00000120: b1b1 a1bf f821 a1be 687d fd3d 136f 56bf
00000130: ac88 673d bdb2 0ebe a1e4 3a3f 2bf6 abbe
00000140: bc61 d3bd a291 403e f4c5 b1be f2bc b13d
00000150: ce73 9bbe 8731 30be 3955 02bf db48 0fbf
00000160: 17f3 043f 5a36 23bf 4796 ac3e 66b9 133d
00000170: dd5a bfbd 1ebd 843e 5d0c 263f 6e5f 0bbf
00000180: eb69 1c3f 861b 2c3f f4a2 9c3e fc2e 36bf
00000190: de8b fd3e fdcf 89bf 9423 cebe 0626 5c3f
000001a0: 071e 7e3c 817b 26bf 76b1 d6be 69d8 c83c
000001b0: d7b1 863e 1c17 983e 7a3e 703e 2c63 f6be
000001c0: 5eeb 57bf 413a 15bf 6beb 04be 063a 9d3e
000001d0: ce7d 51bf cc82 e53d d663 64be 61a8 a3be
000001e0: 9fbe b93d d5e0 0f3f adda ff3b a2a0 06be
000001f0: eb05 123e d685 70be 0a72 b7bd 0a98 323f
00000200: e962 bf3e c145 de3d 8b58 05be fae5 10be
00000210: 8ea8 e9bd 67bc 053e 9599 163e b736 afbe
00000220: 9930 073e bc59 0bbe 0679 4d3e 1d7e 5bbd
00000230: a3b4 0bbe e5e3 dc3c 4ce3 943d d5aa 3bbe
00000240: e2bb e0be 84e8 febc e09e 353e cd53 8e3d
00000250: 9af8 43bf 18be 23bf b7aa 64bf b115 cfbe
00000260: 3d6b 62bf 322c 77bd 2c9f 083e c02a 2bbf
00000270: 1b18 133f ff35 853e b781 e53e 743e 49bd
00000280: 0bc9 96bd 4e02 7c3e a15e 07be 45fa 81bc
00000290: 0284 31bf 56ef f0be 2427 53bf b29e a0be
000002a0: 590c 6c3f 8a33 6bbe e770 6ebe 6dfc 2b3e
000002b0: 7f70 063e 0f31 103f f959 ab3e 7002 9bbe
000002c0: e012 bebe b668 323f a729 0c3f af29 293f
000002d0: 303e c1be 5a7a 433f 66ef f23e acfd 38bf
000002e0: 7f99 243e ba8b fc3e d6e9 193e 5cd2 30be
000002f0: f779 de3d a1ca 6cbd a6c5 d9bd 3631 ef3e
00000300: c3cc 5e3e 1964 58be 60eb 693e a33f 0c3e
00000310: 0e57 0fbf 0509 20be f9f3 14bf 0768 54bf
00000320: b8e7 7bbf 5c29 c9bd f717 793e ed81 4dbf
00000330: 5f06 2e3e 5560 b03e 071e 253f e661 a0be
00000340: 90e7 3a3f 54e9 243e b853 10be 13c0 2fbe
00000350: 6106 d93e 5aaf 623e ada9 e83e 1028 0abd
00000360: de70 81bd 5886 4fbe 1b66 4c3e f5d0 84be
00000370: 5012 9abe 6f8b d9bc 9ba8 e4bd 00c2 11be
00000380: 2b93 13bd 8aa1 edbb 0622 e53d b2f5 4abe
00000390: 90ea 10be b7e7 a7be f92a f7bd 6e15 fc3e
000003a0: dcf3 3ebe 507f 043c 9e36 02bf 3d91 bebd
000003b0: dca0 193e 5235 38be 7cac 7ebe 6947 213e
000003c0: dd20 a83d 96ab c23d 358a 563e 6595 fcbe
000003d0: f34f 08bd 3cef f9be e2dc 8bbe cee2 013f
000003e0: 6347 e13d b148 13bd 6c02 b2be 0e2c 5f3d
000003f0: 0664 a73e 58e9 dabc 0375 d6bd 56a7 79bd

layers.1.bias f4 [16]
0.16230077 0.13713671 -0.5183599 0.016428834 0.0042648106 0.17612292 0.07151915 0.020313745
-0.16297825 -0.57725614 0.042748485 -0.14313394 0.34194875 -0.012794341 0.16458556 0.107248165
00000000: 2c32 263e 916d 0c3e 3cb3 04bf c395 863c
00000010: d3bf 8b3b 9159 343e a278 923d 0369 a63c
00000020: c5e3 26be 0fc7 13bf 0919 2f3d b491 12be
00000030: e813 af3e 5b9f 51bc 1e89 283e eda4 db3d

final.linears.0.weight f4 [96, 48]
0.85237104 -0.2479975 -0.25893658 -0.29138985 -0.07346221 -1.3839064 0.5392674 1.1827676
-0.32377836 -0.23560366 -0.15827309 0.9149386 1.0583205 -1.075905 1.8570358 0.6702725
0.07478118 0.027915161 0.002633113 -0.0024891829 0.049620405 0.2728484 -0.08790747 -0.0010451503
-0.040931255 0.1306157 0.025200598 -0.027824208 0.075427346 0.1278512 -0.013259023 0.12340501
0.044948656 -0.09723024 0.020772418 0.06100177 0.078845434 -0.05545406 0.054054916 0.027809376
0.0050706556 0.0011453945 -0.035938233 0.114834435 0.08162693 -0.027577687 0.03379345 0.04258589
0.13737662 0.7177422 -0.45867434 -0.4106537 -0.3425856 -0.19376037 0.003961636 -0.02691435
-0.6391174 -0.31990072 0.0073100207 -0.1657309 -0.18227197 -0.040502783 0.13014783 -0.22140779
0.06211971 0.28143543 0.028935576 -0.043653093 -0.030352954 0.11780103 -0.111746095 0.112338506
0.021184798 -0.06521352 0.014989562 -0.16582634 0.22889738 -0.060485013 -0.03560196 0.038838603
0.009442522 -0.184658 0.13336399 -0.018112406 0.01731338 -0.020428773 -0.015362814 0.027722362
0.13683808 -0.07218296 -0.371388 0.04972598 -0.0415185 -0.27583143 0.08284152 -0.008397006
0.17989624 1.0987577 -0.36721015 -0.10821882 -0.8980983 0.13780423 -0.052389104 -0.069846004
-0.5239515 0.0476981 0.022350576 0.04697424 -0.022418197 0.0042874985 0.053301107 -0.01478345
0.14539385 0.04631658 -0.09560548 0.07615637 -0.02495656 0.11361779 -0.0701397 -0.038050078
0.007360812 0.07572611 -0.051798597 -0.17808963 0.13473856 0.027706927 -0.051374618 -0.0478
-0.0049560014 -0.07671525 0.2246533 0.026940243 -0.042654566 -0.10820984 -0.026503094 0.057858184
0.030738536 0.014550281 -0.050073534 0.0779025 -0.0119505515 -0.050770435 0.08915624 0.095268115
-0.41668037 0.23806578 0.10884602 0.05730784 -0.009009451 0.48543742 -0.07990707 0.05520052
0.00022336288 -0.07592236 -0.22928962 0.38230836 -0.16285361 -0.47704488 -0.17346069 -0.38022536
0.17289115 0.090183176 -0.011987627 0.0352613 -0.081780665 0.12265089 0.10002147 -0.41951838
0.15330634 0.058302376 0.023599407 -0.10012677 -0.010099275 0.35621288 -0.14087139 -0.13161524
-0.37067562 1.4262476 0.41714323 0.5773585 0.04910042 0.80896264 0.7944789 -0.69916576
0.2532034 0.47250116 0.121772714 0.19124149 0.3426169 0.09031029 -0.18371044 0.27614793
-0.36873242 -0.124629974 -0.12956168 -0.14874464 -0.336938 0.7500538 0.026731018 0.77556515
-0.1528253 -0.3476956 0.8336038 0.7172673 0.1001751 -0.60483974 -0.2682839 -1.0360261
0.023363382 0.057804316 0.04334822 0.11369703 0.036061462 0.052405953 -0.068089336 -0.03443003
0.09827223 -0.002656017 0.006566693 -0.046261515 -0.082094766 0.11283445 0.06310213 0.029963706
-0.017078703 0.037215512 0.0077626156 0.0044743465 -0.027037064 0.036911115 -0.027405133 -0.004378363
-0.018705983 -0.020543505 -0.0059238025 0.023491502 0.0455594 0.024718981 -0.03868695 -0.006431749
-0.12258957 -0.3357555 0.13193575 0.041152302 -0.048382483 0.27022564 -0.2494011 0.018189965
-0.121992 0.007521925 -0.21162753 -0.05871565 -0.17224249 0.11347201 0.22816056 -0.39289677
00000000: fd34 5a3f 0ef3 7dbe 5693 84be 0d31 95be
00000010: 5b73 96bd d823 b1bf 6e0d 0a3f ee64 973f
00000020: 47c6 a5be 1642 71be 5712 22be 6b39 6a3f
00000030: 0c77 873f 41b7 89bf 59b3 ed3f fb96 2b3f
00000040: e026 993d 56ae e43c 4e90 2c3b 8f21 23bb
00000050: c43e 4b3d c9b2 8b3e d508 b4bd 6dfd 88ba
00000060: 88a7 27bd 1fc0 053e 7c71 ce3c 98ef e3bc
00000070: a779 9a3d 6deb 023e 603c 59bc c4bb fc3d
00000080: 151c 383d a620 c7bd eb2a aa3c fedc 793d
00000090: b779 a13d cc23 63bd b068 5d3d 7dd0 e33c
000000a0: be27 a63b 1021 963a f833 13bd 512e eb3d
000000b0: 052c a73d 9aea e1bc 006b 0a3d 8b6e 2e3d
000000c0: 75ac 0c3e f4bd 373f 5dd7 eabe 3441 d2be
000000d0: 6167 afbe 1e69 46be 9dd0 813b 7c7b dcbc
000000e0: 339d 23bf 07ca a3be e688 ef3b 5cb5 29be
000000f0: 81a5 3abe 3fe6 25bd 7945 053e b9b8 62be
00000100: 3d71 7e3d 4e18 903e 4d0a ed3c 96cd 32bd
00000110: c2a6 f8bc ab41 f13d 23db e4bd bb11 e63d
00000120: be8b ad3c aa8e 85bd c896 753c 61ce 29be
00000130: 1364 6a3e 22bf 77bd 5cd3 11bd 3a15 1f3d
00000140: cfb4 1a3c fd16 3dbe 9290 083e 7860 94bc
00000150: cad4 8d3c 3e5a a7bc 50b4 7bbc 021a e33c
00000160: 481f 0c3e a9d4 93bd 9126 bebe 78ad 4b3d
00000170: 4d0f 2abd c739 8dbe d1a8 a93d 9993 09bc
00000180: b836 383e 18a4 8c3f f802 bcbe d4a1 ddbd
00000190: c5e9 65bf 8d1c 0d3e f595 56bd 6c0b 8fbd
000001a0: af21 06bf 155f 433d 8e18 b73c 1068 403d
000001b0: 5ea6 b7bc 257e 8c3b 4352 5a3d 4936 72bc
000001c0: 20e2 143e 74b6 3d3d cecc c3bd dff7 9b3d
000001d0: b371 ccbc 72b0 e83d 67a5 8fbd 66da 1bbd
000001e0: f732 f13b 4a16 9b3d c42a 54bd 215d 36be
000001f0: e8f8 093e a3f9 e23c 316e 52bd efc9 43bd
00000200: f465 a2bb e31c 9dbd 840b 663e c9b1 dc3c
00000210: 8eb6 2ebd 1f9d ddbd 041d d9bc b4fc 6c3d
00000220: 62cf fb3c 4d64 6e3c e819 4dbd 598b 9f3d
00000230: 3fcc 43bc a9f4 4fbd 8c97 b63d ee1b c33d
00000240: 2157 d5be 84c7 733e aaea de3d a0bb 6a3d
00000250: 609c 13bc 418b f83e 51a6 a3bd f119 623d
00000260: 8436 6a39 2f7d 9bbd e6ca 6abe ecbd c33e
00000270: 19c3 26be 3a3f f4be ae9f 31be e6ac c2be
00000280: 610a 313e f5b1 b83d c067 44bc 276e 103d
00000290: 9f7c a7bd 6430 fb3d 0ed8 cc3d 1dcb d6be
000002a0: 56fc 1c3e 79ce 6e3d 8b53 c13c 440f cdbd
000002b0: 6e77 25bc 8961 b63e 9740 10be 25c6 06be
000002c0: 32c9 bdbe 488f b63f cc93 d53e c4cd 133f
000002d0: 861d 493d 2d18 4f3f f862 4b3f 87fc 32bf
000002e0: e0a3 813e aceb f13e f963 f93d cfd4 433e
000002f0: 7b6b af3e 9af4 b83d 971e 3cbe 4363 8d3e
00000300: 7fca bcbe 003e ffbd d1ab 04be 8450 18be
00000310: 2383 acbe 8703 403f 02fb da3c 708b 463f
00000320: 3c7e 1cbe 2805 b2be 0f67 553f d49e 373f
00000330: 9a28 cd3d c7d6 1abf 825c 89be 819c 84bf
00000340: 9064 bf3c 38c4 6c3d e78d 313d fdd9 e83d
00000350: 2fb5 133d a0a7 563d 6c72 8bbd 8106 0dbd
00000360: f342 c93d 9210 2ebb 6a2d d73b b77c 3dbd
00000370: 4d21 a8bd c015 e73d b13b 813d 7276 f53c
00000380: a3e8 8bbc 4b6f 183d 8a5d fe3b 8a9d 923b
00000390: d57c ddbc 1c30 173d bb80 e0bc 5f78 8fbb
000003a0: 4a3d 99bc da4a a8bc 751c c2bb 4071 c03c
000003b0: 7e9c 3a3d 767f ca3c 3576 1ebd 6cc1 d2bb
000003c0: 3e10 fbbd 25e8 abbe 2a1a 073e 518f 283d
000003d0: b62c 46bd 045b 8a3e 0163 7fbe 1f03 953c
000003e0: f1d6 f9bd 7b7a f63b e3b4 58be d27f 70bd
000003f0: 5660 30be 0364 e83d eca2 693e c429 c9be

final.linears.0.bias f4 [96]
0.15180221 -0.0050175525 -0.31418878 0.43615517 0.23644076 -0.10311299 -0.45114902 0.42561355
-0.041023742 -0.020094521 0.44212347 -0.47268748 0.2657824 -0.34646684 0.40273842 0.089792475
0.022503247 0.16527025 0.6066212 0.78267 -0.12116594 -0.39211807 -0.567027 0.2071492
-0.21808739 0.0031116412 0.47240523 0.19896123 0.20881328 -0.46889213 0.36047676 0.056397185
0.22559798 0.24603854 -0.038604647 -0.30929556 0.2721835 -0.21575563 0.1478903 -0.07306711
-0.14399923 0.17576936 -0.20663734 0.24578945 0.0840435 0.39206415 -0.09612522 -0.091755606
0.27045655 -0.48676053 0.38687134 0.10340255 0.17401566 0.15794346 -0.061552074 -0.24216041
0.09679111 0.00991656 0.36129674 0.09888035 0.2359654 0.2772266 0.36622575 0.13106367
0.22435784 0.02090378 -0.1790233 0.3324677 -0.048057165 -0.10444281 -0.4372716 -0.2043797
0.06930571 0.5156655 0.11054085 -0.19021843 0.11376888 0.4072224 -0.027607162 0.092865855
-0.10085158 0.18761761 0.38334852 0.15656568 -0.005624543 0.17804463 -0.3522411 0.2019598
-0.06151618 0.022787126 0.11412141 -0.1309429 0.33671075 -0.29053694 -0.26136658 0.6709552
00000000: 0a72 1b3e 486a a4bb 5add a0be bb4f df3e
00000010: 871d 723e e72c d3bd 01fd e6be 05ea d93e
00000020: 8308 28bd 449d a4bc 025e e23e 1804 f2be
00000030: a114 883e 1a64 b1be bb33 ce3e 1ee5 b73d
00000040: bb58 b83c 9b3c 293e 874b 1b3f 105d 483f
00000050: d925 f8bd b3c3 c8be ae28 11bf eb1e 543e
00000060: 4d52 5fbe adec 4b3b 19df f13e 7ebc 4b3e
00000070: 26d3 553e a112 f0be 6990 b83e bc00 673d
00000080: 2803 673e 87f1 7b3e e81f 1ebd fd5b 9ebe
00000090: a35b 8b3e 0bef 5cbe 8e70 173e 35a4 95bd
000000a0: 8974 13be e2fc 333e bd98 53be 3bb0 7b3e
000000b0: 001f ac3d a2bc c83e 4ddd c4bd 5dea bbbd
000000c0: 4879 8a3e ad38 f9be 0014 c63e b7c4 d33d
000000d0: 2931 323e eebb 213e 071e 7cbd e6f8 77be
000000e0: 6b3a c63d 1179 223c e3fb b83e c881 ca3d
000000f0: eaa0 713e a5f0 8d3e f181 bb3e 8e35 063e
00000100: 10be 653e 673e ab3c e251 37be 3539 aa3e
00000110: 97d7 44bd 1de6 d5bd 10e2 dfbe e948 51be
00000120: 27f0 8d3d a702 043f 3e63 e23d 9fc8 42be
00000130: a9ff e83d 747f d03e 6a28 e2bc 7430 be3d
00000140: 468b cebd d51e 403e 4246 c43e c152 203e
00000150: 164e b8bb 5551 363e f258 b4be 8dce 4e3e
00000160: 64f8 7bbd 11ac ba3c 7cb8 e93d e515 06be
00000170: 5a65 ac3e 42c1 94be d7d1 85be b8c3 2b3f

final.linears.1.weight f4 [96, 96]
-0.40402612 -0.21567808 0.01610016 -0.36962378 -0.16279776 -0.059543688 0.14906923 -0.35440707
-0.21321012 -0.21781588 -0.16218798 0.089926235 -0.117324986 -0.31949848 -0.182147 -0.26659858
-0.5090034 0.0044327546 -0.22564083 -0.31144226 -0.11910775 -0.1677847 0.2608695 -0.11926469
-0.048437674 -0.3284571 -1.4676931 -0.49816614 -0.25157535 0.00042765052 -0.370993 0.032693338
-0.42054692 -0.40938604 -0.38047674 -0.121493205 -0.32340708 -0.07944101 -0.03093801 -0.048557583
-0.30486286 -0.05564928 -0.23824085 -0.19903179 -0.16549823 -0.14860037 -0.22398584 -0.20506214
-0.18202777 0.29947004 -0.34483823 0.017606696 -0.128773 -0.7258444 -0.41853815 -0.033963263
0.01482527 -0.17970347 -0.32511312 -0.08660425 -0.5928734 0.016477114 -0.35500997 -0.41386545
-0.321663 -0.08357254 -0.071191646 -0.26060984 -0.014721345 -0.34809226 0.036570735 -0.34417975
-0.5644685 -0.11856472 -0.2510509 -0.072099015 0.0067751477 -0.32304844 -0.35699832 -0.13978192
-0.040501397 -0.29130206 -0.43962356 -0.13704771 -0.20688762 -0.06622967 -0.36654314 -0.34563923
-0.29396674 -0.21490477 -0.25137243 -0.17165 -0.23898016 -0.1842711 -0.15679117 -0.17548153
0.098907195 0.120503195 0.35491794 -0.012020485 -0.0758446 -0.09939456 -0.09070742 0.30438885
0.121863 0.11198163 -0.16524981 0.076908045 -0.1661051 0.026308745 0.2619726 -0.08655395
0.09339915 -0.20898008 -0.26658344 -0.24262823 0.2879401 -0.068915635 -0.061579343 -0.19064014
0.101525895 0.030626 0.20137797 -0.00871034 0.00040265292 0.2678192 0.00094135606 -0.2211314
0.036259983 0.5780998 0.12130007 -0.9505428 0.06900118 0.4272617 0.057465192 -0.2273767
-0.03343317 0.112542875 0.107938446 -0.16514798 -0.0015729339 0.23396681 0.054012816 0.2394877
-0.2592064 0.039996617 0.1621592 -0.44079253 -0.0016563598 0.050639953 0.051168073 0.011947098
-0.1746907 0.07940152 0.015284104 0.11696297 0.025168639 0.10398453 0.012441938 0.21700352
0.008366764 -0.053656377 -0.14273664 0.16991463 -0.16919616 0.09025098 0.20845564 0.23291953
0.017965619 -0.20196867 0.024978265 -0.08448624 -0.20119408 0.011559156 -0.07263154 0.47517285
0.14100313 -0.5486618 0.06448023 -0.56316847 0.059030063 0.23182283 0.11741771 0.039859295
0.027757088 0.25986606 0.08525391 -0.7977202 0.3556381 0.1590022 0.007045345 0.08478977
-0.070592366 -0.18508232 0.23564877 -0.12687287 -0.02998993 -0.027837109 0.2782223 0.067743964
-0.053464312 0.0042505222 -0.084229104 -0.13669372 -0.06222974 -0.0712873 -0.03499301 -0.0348352
-0.08614485 -0.15281658 -0.24946636 -0.29273605 0.008620252 -0.073921055 0.23356842 -0.022912215
0.048497424 -0.091886535 -0.09196811 -0.11839646 0.08296452 0.29616863 -0.041644264 -0.1064284
-0.038081147 -0.028775867 -0.08070001 -0.8818576 -0.12220332 0.043811258 -0.05306637 -0.07116274
-0.028245602 0.03927166 -0.06146985 -0.046307474 -0.033107653 0.113961294 -0.025199864 -0.004534623
0.07617384 0.24105173 -0.026220035 -0.18660262 -0.07623574 -0.06830359 -0.06469464 0.024683615
-0.044733804 -0.115539685 -0.11131017 -0.040242217 -0.07678853 -0.13129249 -0.08141906 -0.067537114
00000000: 83dc cebe b7da 5cbe 7ce4 833c 543f bdbe
00000010: 75b4 26be 15e4 73bd 9ba5 183e d874 b5be
00000020: c153 5abe 200b 5fbe 9b14 26be 3f2b b83d
00000030: 1548 f0bd 4e95 a3be be84 3abe 9c7f 88be
00000040: 0c4e 02bf a440 913b 640e 67be 5c75 9fbe
00000050: c4ee f3bd c1cf 2bbe b090 853e 0c41 f4bd
00000060: 9566 46bd 872b a8be 5edd bbbf a20f ffbe
00000070: 7cce 80be 4836 e039 cbf2 bdbe 73e9 053d
00000080: ed51 d7be 0c9b d1be d9cd c2be 6ed1 f8bd
00000090: 9d95 a5be f8b1 a2bd b671 fdbc 51e4 46bd
000000a0: fc16 9cbe 80f0 63bd 69f5 73be fdce 4bbe
000000b0: 5e78 29be b22a 18be 8b5c 65be cffb 51be
000000c0: 7d65 3abe 2354 993e a38e b0be eb3b 903c
000000d0: 12dd 03be f0d0 39bf a24a d6be 101d 0bbd
000000e0: b0e5 723c 3004 38be 3a75 a6be 925d b1bd
000000f0: 8dc6 17bf 03fb 863c dec3 b5be 2ce6 d3be
00000100: 03b1 a4be 1428 abbd edcc 91bd a76e 85be
00000110: cc31 71bc 2639 b2be 32cb 153d 5438 b0be
00000120: 0281 10bf 0fd2 f2bd be89 80be a6a8 93bd
00000130: 0f02 de3b 9b66 a5be 7cc8 b6be fe22 0fbe
00000140: cbe4 25bd 8b25 95be 5716 e1be 3c56 0cbe
00000150: 59da 53be 6ca3 87bd 8bab bbbe a0f7 b0be
00000160: cf82 96be ff0f 5cbe e3b3 80be 05c5 2fbe
00000170: 37b7 74be 90b1 3cbe dd8d 20be 6eb1 33be
00000180: db8f ca3d 61ca f63d ceb7 b53e 91f1 44bc
00000190: 6a54 9bbd 608f cbbd d0c4 b9bd dbd8 9b3e
000001a0: 4f93 f93d a056 e53d 3f37 29be f781 9d3d
000001b0: 7517 2abe 7085 d73c 4621 863e 3343 b1bd
000001c0: 0e48 bf3d e0fe 55be a07d 88be 8973 78be
000001d0: e36c 933e a423 8dbd 9f3a 7cbd 2b37 43be
000001e0: cfec cf3d 61e3 fa3c 0736 4e3e d0b5 0ebc
000001f0: 291b d339 991f 893e 56c5 763a 4570 62be
00000200: 5985 143d 59fe 133f 2c6c f83d c656 73bf
00000210: 7e50 8d3d 0cc2 da3e 9f60 6b3d 70d5 68be
00000220: 38f1 08bd e17c e63d d50e dd3d 8d1c 29be
00000230: e72a ceba ff94 6f3e 8b3c 5d3d 433c 753e
00000240: b4b6 84be 7ed3 233d 100d 263e 8faf e1be
00000250: 361a d9ba d76b 4f3d 9d95 513d c3bd 433c
00000260: 1ee2 32be 449d a23d 2e6a 7a3c 488a ef3d
00000270: 762e ce3c d7f5 d43d 45d9 4b3c 2c36 5e3e
00000280: c014 093c cac6 5bbd 8e29 12be 1afe 2d3e
00000290: c241 2dbe 81d5 b83d 6575 553e 7582 6e3e
000002a0: a22c 933c e0d0 4ebe 389f cc3c 1f07 adbd
000002b0: d205 4ebe 9d62 3d3c d8bf 94bd db49 f33e
000002c0: 2063 103e 1a75 0cbf 360e 843d cf2b 10bf
000002d0: 82c9 713d f762 6d3e b278 f03d 8043 233d
000002e0: d562 e33c 2a0d 853e 9a99 ae3d 6437 4cbf
000002f0: 3216 b63e 79d1 223e a3dc e63b 42a6 ad3d
00000300: bb92 90bd 3886 3dbe e94d 713e f6ea 01be
00000310: 71ad f5bc a60a e4bc 2773 8e3e 59bd 8a3d
00000320: 65fd 5abd f747 8b3b 4f80 acbd 70f9 0bbe
00000330: 9de4 7ebd 13ff 91bd d554 0fbd 5baf 0ebd
00000340: b66c b0bd f37b 1cbe 1c74 7fbe 80e1 95be
00000350: f53b 0d3c ec63 97bd 8f2c 6f3e 66b2 bbbc
00000360: 3ca5 463d 022f bcbd c759 bcbd d879 f2bd
00000370: 4de9 a93d 6aa3 973e 2d93 2abd 22f7 d9bd
00000380: fafa 1bbd 5ebb ebbc 0c46 a5bd 6bc1 61bf
00000390: bc45 fabd 6f73 333d 1f5c 59bd c5bd 91bd
000003a0: 5263 e7bc 52db 203d cfc7 7bbd e8ac 3dbd
000003b0: e49b 07bd 8a64 e93d f26f cebc 2d97 94bb
000003c0: 0801 9c3d 44d6 763e 66cb d6bc c214 3fbe
000003d0: 7c21 9cbd c1e2 8bbd a07e 84bd 4b35 ca3c
000003e0: cb3a 37bd 12a0 ecbd 96f6 e3bd 06d5 24bd
000003f0: 4e43 9dbd 8a71 06be 09bf a6bd e650 8abd

final.linears.1.bias f4 [96]
-0.29059562 -0.37367582 -0.2569313 0.07046516 -0.27071074 -0.044922616 -0.13099308 -0.037959505
-0.113229915 -0.29304588 -0.1739907 -0.24372013 -0.012290806 -0.0016482035 -0.19182329 0.038628217
-0.3436683 -0.011784202 -0.14568236 -0.17078547 -0.13165274 0.08414477 -0.07846002 -0.1664478
-0.08572012 -0.25080976 -0.17062362 0.8267884 -0.2040567 -0.12593287 0.034636967 -0.20939906
0.0389105 0.03996426 -0.7368971 -0.38605657 -0.20958862 -0.3157263 -0.06720461 0.034332905
-0.021536425 0.16128255 -0.25844154 0.3075725 -0.15612434 -0.15631488 -0.20405552 -0.09279155
-0.18852511 -0.006542386 -0.15100896 -0.029922737 -0.16989683 -0.2584776 -0.3593264 -0.1417916
-0.20603085 -0.1836663 -0.23806353 -0.14919508 -0.18360467 -0.14831537 0.4997659 -0.22659421
-0.0865548 -0.15153666 -0.05156997 -0.040286228 -0.021142244 -0.12662555 -0.49548003 -0.6933762
-0.121185005 -0.10127376 -0.27554905 -0.21685271 -0.15006714 -0.15728538 -0.16002004 -0.19848703
0.06704957 -0.036439084 -0.2520617 -0.065048814 -0.14867485 -0.13962443 -0.14581084 -0.20807251
-0.018533727 -0.15032081 -0.16014513 -0.21241546 0.05061806 -0.29013526 -0.13910288 0.405878
00000000: f3c8 94be 7052 bfbe 808c 83be 0a50 903d
00000010: 999a 8abe c700 38bd 0d23 06be 6d7b 1bbd
00000020: 16e5 e7bd 1c0a 96be 9e2a 32be c591 79be
00000030: 605f 49bc 8808 d8ba 536d 44be 9f38 1e3d
00000040: 4bf5 afbe 8712 41bc c22d 15be 63e2 2ebe
00000050: facf 06be 1854 ac3d a6af a0bd 4b71 2abe
00000060: 088e afbd 236a 80be f5b7 2ebe 68a8 533f
00000070: 3df4 50be 8cf4 00be 7edf 0d3d b56c 56be
00000080: 9e60 1f3d 90b1 233d 4aa5 3cbf 35a9 c5be
00000090: 669e 56be e1a6 a1be 92a2 89bd a9a0 0c3d
000000a0: 286d b0bc 4127 253e 7352 84be 257a 9d3e
000000b0: 0fdf 1fbe 0211 20be eef3 50be 7f09 bebd
000000c0: ba0c 41be 8361 d6bb 18a2 1abe 8720 f5bc
000000d0: 6ff9 2dbe 2d57 84be a1f9 b7be d131 11be
000000e0: c0f9 52be 0513 3cbe edc6 73be 98c6 18be
000000f0: dd02 3cbe fcdf 17be 51e1 ff3e 5008 68be
00000100: a543 b1bd 6d2c 1bbe 083b 53bd 2c03 25bd
00000110: 8032 adbc 21aa 01be 8faf fdbe 1a81 31bf
00000120: d82f f8bd 9e68 cfbd c414 8dbe a30e 5ebe
00000130: 33ab 19be 6b0f 21be 4bdc 23be 2f40 4bbe
00000140: 4951 893d 2641 15bd 3b0e 81be 5038 85bd
00000150: 383e 18be b5f9 0ebe 704f 15be f610 55be
00000160: 0bd4 97bc b3ed 19be 16fd 23be 7083 59be
00000170: e254 4f3d 9c8c 94be fc70 0ebe 3ecf cf3e

final.linears.2.weight f4 [16, 96]
-0.42503902 -0.0001953748 0.0035084572 0.004529217 -0.5092922 0.13441087 0.41017357 0.130675
0.08994499 -0.028196137 -0.08969552 -0.003180335 -0.13923389 0.016922005 0.13887127 -0.050744947
0.053578824 0.26366958 -0.31791696 0.059804857 -0.109672524 -0.035825465 0.013323976 0.41377205
0.058928303 -0.0068333093 -0.5546214 0.0037892764 -0.017857509 -0.39690053 -0.19822739 0.0013563919
0.01857453 0.2683292 -0.005045219 0.10373206 0.6077206 0.33939257 -0.06852497 0.016255433
-0.05975594 -0.007076461 -0.45540413 -8.9180256e-05 -0.57261175 0.068416856 0.07179246 0.013904034
-0.09772781 0.0317467 0.26565215 -0.00013357648 0.4152298 -0.3338362 0.35055134 -0.35625908
-0.31036994 -0.17341052 -0.16449012 0.05955102 -0.32815537 -0.15580277 0.0026198803 0.054853436
0.13403648 0.059365105 0.1037244 0.13680092 0.01705391 -0.2880864 0.03208372 -0.004879577
-0.02336968 -0.011735604 0.13038006 0.22983952 0.13217701 -0.03786627 -0.017242791 -0.029356353
-0.0687747 -0.13999832 0.40788502 0.015485399 0.42455855 0.1953142 -0.22531675 0.04395783
-0.103342965 -0.1523638 0.16576359 0.21704201 0.18538997 0.00057582906 0.12366293 -0.00260315
0.24926569 0.23262088 0.112402536 0.04758875 4.720397e-05 0.055178348 -0.21183802 -0.092651874
0.082118616 -0.0031705038 0.056902107 -0.4957391 -0.022367159 -0.09072514 0.056529418 -0.07784174
0.12484336 0.03645504 -0.31573325 -0.066141345 0.117738396 -0.053523622 -0.26942927 -0.15277718
0.12160737 0.22841848 -0.32305905 -1.0487257 0.09741991 -0.2273549 -0.08209093 0.084587954
-0.048608914 -0.107679054 0.7854951 0.43841475 -0.14074843 0.18626064 0.040942736 -0.023705058
-0.08653741 0.42517257 0.11315057 -0.349795 0.0087089585 -0.42336565 0.05056183 -0.0815571
-0.00560738 -0.04957055 -0.15373479 0.0986627 -0.0898141 0.22989422 0.23104477 -0.30230537
0.06247045 0.12265866 0.048321992 -0.0561148 0.12609477 -0.030453106 0.6361593 0.06876977
0.14523625 0.01586851 0.17715508 0.12318617 -0.031485524 -0.023053467 0.6963103 0.5920892
0.055159643 0.043400288 0.108475134 0.18542032 -0.049266547 0.05136848 0.059989583 -0.081952706
-0.08132544 -0.12379873 0.05945969 0.031610835 -0.3531105 -0.34498304 -0.02332601 0.037108082
0.04362443 -0.030178493 0.08341469 -0.19285984 -0.06501005 0.20386374 0.026000727 -0.023563353
0.37764737 -0.44192258 -0.49126455 0.04700701 -0.093008906 0.076947846 -0.19831827 -0.07837174
0.09266637 0.20229271 0.050298654 -0.104806446 -0.028500427 -0.1348233 0.050933007 -0.0888419
0.062745094 0.014736565 -0.2116317 0.027361304 0.09427475 -0.0528773 0.21231386 -0.23435035
0.1219079 0.1748363 -0.20110874 0.42832878 0.08670029 -0.1089165 -0.10811506 0.1661928
-0.06350316 -0.09145188 -1.0560149 0.48050076 -0.030678095 0.21942984 0.029639723 -0.048334073
-0.08998023 0.29160672 0.16465952 0.55504215 -0.05215667 -0.29648858 0.060120653 -0.12212056
0.15918653 -0.06219919 -0.06361985 0.29679692 -0.040474024 0.13968559 0.36541134 -0.16948509
0.0075364574 0.08495459 0.053467795 -0.043200694 0.11557646 0.019764045 -0.55718243 0.09823934
00000000: b79e d9be 86dd 4cb9 25ee 653b d369 943b
00000010: f960 02bf 01a3 093e 4502 d23e abcf 053e
00000020: 1435 b83d 96fb e6bc 49b2 b7bd 2b6d 50bb
00000030: 5493 0ebe 04a0 8a3c 4534 0e3e efd9 4fbd
00000040: 7875 5b3d b3ff 863e 03c6 a2be f0f5 743d
00000050: fd9b e0bd b9bd 12bd ce4c 5a3c eed9 d33e
00000060: ce5e 713d f4e9 dfbb abfb 0dbf 8255 783b
00000070: e949 92bc 8c36 cbbe 1ffc 4abe f6c8 b13a
00000080: 9d29 983c 7262 893e 5d52 a5bb 7971 d43d
00000090: 9493 1b3f ddc4 ad3e d256 8cbd 1d2a 853c
000000a0: a5c2 74bd a8e1 e7bb bb2a e9be 4906 bbb8
000000b0: af96 12bf 231e 8c3d ed07 933d bfcd 633c
000000c0: 8525 c8bd d408 023d 8f03 883e aa10 0cb9
000000d0: 0099 d43e 94ec aabe 777b b33e 9767 b6be
000000e0: cfe8 9ebe 8792 31be 1970 28be c5eb 733d
000000f0: fb03 a8be c38a 1fbe 4cb2 2b3b ffad 603d
00000100: dc40 093e d328 733d 756d d43d 8a15 0c3e
00000110: a4b4 8b3c 1080 93be 386a 033d dce4 9fbb
00000120: c571 bfbc b146 40bc 5a82 053e 0d5b 6b3e
00000130: 6959 073e a919 1bbd c140 8dbc bc7c f0bc
00000140: c0d9 8cbd b85b 0fbe 4ed6 d03e 79b6 7d3c
00000150: bd5f d93e 7200 483e 6fb9 66be 200d 343d
00000160: 7aa5 d3bd 4205 1cbe eebd 293e 4340 5e3e
00000170: ded6 3d3e 3cf3 163a fe42 fd3d 9c99 2abb
00000180: 813f 7f3e 2b34 6e3e 4d33 e63d 6cec 423d
00000190: e0fc 4538 b102 623d 11ec 58be 44c0 bdbd
000001a0: ce2d a83d 3ac8 4fbb 2f12 693d 84d1 fdbe
000001b0: 553b b7bc 1ace b9bd 648b 673d 7d6b 9fbd
000001c0: e0ad ff3d e151 153d caa7 a1be 1d75 87bd
000001d0: d420 f13d 963b 5bbd a2f2 89be 9f71 1cbe
000001e0: 490d f93d 89e6 693e ff67 a5be a53c 86bf
000001f0: 1784 c73d b9cf 68be 4a1f a8bd 733c ad3d
00000200: 241a 47bd d686 dcbd 3516 493f e677 e03e
00000210: 5b20 10be 1cbb 3e3e 92b3 273d 1c31 c2bc
00000220: 873a b1bd 38b0 d93e 7cbb e73d 5518 b3be
00000230: 05b0 0e3c 62c3 d8be ec19 4f3d 6907 a7bd
00000240: 1dbe b7bb 7d0a 4bbd a76c 1dbe ab0f ca3d
00000250: 74f0 b7bd 6469 6b3e 0097 6c3e c5c7 9abe
00000260: 04e1 7f3d 7734 fb3d 48ed 453d a2d8 65bd
00000270: fd1e 013e cb78 f9bc 56db 223f 2ad7 8c3d
00000280: d0b8 143e adfe 813c 2468 353e 0849 fc3d
00000290: f7f6 00bd a0da bcbc 6441 323f 2893 173f
000002a0: 14ef 613d 80c4 313d 3628 de3d d3de 3d3e
000002b0: b8cb 49bd c167 523d a3b7 753d d2d6 a7bd
000002c0: f48d a6bd 308a fdbd 018c 733d 5d7a 013d
000002d0: e6ca b4be 9ea1 b0be 3016 bfbc a5fe 173d
000002e0: 88af 323d e338 f7bc 52d5 aa3d 0d7d 45be
000002f0: fd23 85bd a8c1 503e 7aff d43c ef07 c1bc
00000300: ff5a c13e ad43 e2be 0787 fbbe 6c8a 403d
00000310: 747b bebd d596 9d3d f213 4bbe 5d81 a0bd
00000320: dec7 bd3d d225 4f3e f605 4e3d c3a4 d6bd
00000330: ba79 e9bc 1f0f 0abe 219f 503d bef2 b5bd
00000340: 8080 803d a271 713c fbb5 58be d024 e03c
00000350: 1f13 c13d de95 58bd ce68 593e 8af9 6fbe
00000360: d9aa f93d 4908 333e 73ef 4dbe e94d db3e
00000370: ec8f b13d 9d0f dfbd 6e6b ddbd 722e 2a3e
00000380: f20d 82bd 204b bbbd 7f2b 87bf 3204 f63e
00000390: a150 fbbc 37b2 603e 01cf f23c f3f9 45bd
000003a0: 8e47 b8bd 7a4d 953e 819c 283e 3e17 0e3f
000003b0: 3ba2 55bd 5acd 97be 1341 763d 581a fabd
000003c0: cb01 233e 94c4 7ebd 204b 82bd c4f5 973e
000003d0: 17c8 25bd bd09 0f3e 3217 bb3e 808d 2dbe
000003e0: 63f4 f63b acfc ad3d 0c01 5b3d 36f3 30bd
000003f0: 5ab3 ec3d 35e8 a13c 82a3 0ebf b531 c93d

final.linears.2.bias f4 [16]
-0.002817824 0.33502507 -0.11818741 -0.42583877 0.008976083 -0.0019094361 -0.0068945666 0.05129091
-0.23679608 0.15607707 -0.02129531 0.06506621 0.025836516 0.05074327 -0.016351718 -0.0053465427
00000000: 3eab 38bb 6888 ab3e 3e0c f2bd 8a07 dabe
00000010: 6c10 133c 0b46 faba d1eb e1bb 6b16 523d
00000020: ac7a 72be abd2 1f3e 8173 aebc 6f41 853d
00000030: 1aa7 d33c 2dd8 4f3d 0af4 85bc 0d32 afbb

layers.0.attn.0.gnn_q.weight f4 [16, 16]
-2.8698261e-12 -0.0060415943 -3.6730767e-06 -5.372198e-07 2.0908192e-06 4.7240873e-09 -0.03197596 7.759485e-12
-9.93563e-12 -4.2524935e-13 -3.9406685e-05 -0.032605663 -1.4356973e-12 2.4608682e-05 -1.3074133e-09 0.034312304
-2.7849528e-11 -0.0048107714 -3.7485938e-06 -5.4619536e-06 3.1129027e-06 -1.138182e-08 0.3428222 9.9809674e-12
-1.0638672e-11 -4.2928982e-13 0.0004748396 0.25695288 -1.266073e-11 -0.00020358349 -1.6227684e-08 -0.23286335
1.782525e-11 0.0055214083 8.1587723e-07 -7.1032787e-07 6.6096277e-07 -1.0141196e-08 0.17914705 1.426569e-12
8.065992e-12 1.2502903e-13 8.116138e-05 0.15991223 -2.2507673e-12 -3.0982257e-05 -1.3092243e-09 -0.0914888
-7.016587e-12 0.0045895805 2.8377915e-06 3.8058567e-07 -3.2816758e-06 -1.6644172e-09 -0.123844676 -7.602459e-12
1.539616e-11 2.79308e-14 -8.2526654e-05 -0.13691239 8.901158e-12 3.5790756e-05 -3.996198e-09 0.056147967
1.6434566e-11 -0.0035171912 -1.6083007e-07 2.3669844e-07 1.7865042e-07 1.8855886e-09 0.005962809 3.5151701e-12
-5.145241e-12 -1.219624e-13 -2.3768012e-05 -0.019804997 -1.270087e-11 8.273803e-06 4.5599555e-10 -0.012155517
1.2337304e-11 -0.0037146166 -2.7687456e-06 -3.720961e-07 3.0823207e-06 -3.5211005e-09 -0.04636898 4.8910754e-12
-9.993655e-12 1.4641795e-14 -5.218367e-05 -0.04353979 -6.964775e-12 3.375732e-05 1.0071672e-09 0.03693825
-4.1438524e-12 -0.0023382283 -1.622548e-06 -5.1296195e-07 1.7255601e-06 -5.4745797e-10 0.010956431 7.741686e-12
-8.878658e-13 -9.138754e-14 -7.783263e-06 0.023119763 -1.1581287e-11 5.5833275e-06 6.11626e-10 -0.01010853
-8.768103e-12 0.009483244 6.5219547e-06 1.2049984e-06 -4.318592e-06 4.2765222e-09 0.018756192 -1.1803069e-11
1.7825666e-11 5.7974464e-13 1.4509938e-05 0.025865782 1.5904621e-11 -1.5397762e-05 -5.6288835e-10 -0.0043788003
-2.573102e-12 7.544481e-05 1.6962179e-06 2.5267124e-07 -8.5172644e-07 -4.9058575e-09 0.015068802 1.7531249e-12
5.331407e-12 -1.0652884e-13 1.7156219e-05 0.0020248473 -4.779296e-12 -1.5586256e-05 5.730975e-10 -0.017141897
2.7232708e-12 0.0015151643 1.4761657e-07 2.1418904e-07 -5.196003e-07 -3.480436e-09 -0.07121545 -1.3785185e-12
4.109608e-12 -4.1848818e-14 -2.7254173e-06 -0.062797174 -1.9795863e-11 6.695541e-06 2.3778801e-09 0.038797103
-1.6417246e-11 -0.0004374151 -2.8118566e-07 -1.8049134e-07 6.0764606e-08 -4.05478e-09 0.0031153222 -3.7773786e-12
3.892338e-12 5.9934994e-14 -2.0345595e-05 0.002391741 -3.1741252e-11 1.5611e-05 -1.7836086e-09 0.0083078705
1.6975936e-11 -0.00015232025 -2.7743831e-06 -3.2557503e-07 2.3015557e-06 5.015353e-09 -0.021228833 6.0054153e-12
-4.5351656e-12 -1.0271798e-13 -1.4279609e-05 -0.01436041 -8.363343e-12 1.2068102e-05 2.1221744e-09 0.023387687
1.3650279e-13 -0.0036175884 -1.1581471e-06 -6.599984e-07 1.0978027e-06 -1.1193274e-10 -0.014579778 4.480564e-12
-6.7198014e-12 -7.4184345e-14 1.2303575e-05 -0.004619118 -3.301737e-12 2.2951501e-06 -8.638057e-10 0.024917211
-1.5633118e-12 0.005167438 1.3321608e-06 6.3140175e-07 -2.413248e-06 3.6221781e-09 0.020396538 -8.275035e-12
9.60245e-12 3.5986272e-13 -1.823909e-05 0.03291498 2.5894725e-12 7.7377135e-06 1.7745516e-09 -0.023583258
-1.1362957e-11 0.0077081947 5.262872e-06 1.9792838e-06 -3.1503587e-06 -2.7607165e-09 0.00469113 -1.3411762e-11
6.514577e-12 5.7654776e-13 -4.6063367e-05 0.0037570032 4.3687096e-11 7.6368015e-06 2.9991685e-09 -0.0041225622
-6.30582e-12 -0.0025317965 1.8310973e-07 -1.0481913e-06 -4.5208438e-08 4.1546502e-10 0.020854298 -2.246511e-12
-1.5531393e-12 -1.0455816e-13 0.00010761154 0.022075187 -2.4800065e-11 -4.7384354e-05 -3.0825666e-09 -0.013084045
00000000: 31f2 49ac 91f8 c5bb fa7e 76b6 7735 10b5
00000010: 0050 0c36 8351 a231 39f9 02bd 9d81 082d
00000020: 19ca 2ead e464 efaa 9b48 25b8 848d 05bd
00000030: 720e caab be6e ce37 84b0 b3b0 0f8b 0c3d
00000040: 90f7 f4ad ada3 9dbb 5a90 7bb6 d345 b7b6
00000050: 43e7 5036 c689 43b2 6486 af3e 4896 2f2d
00000060: 5228 3bad 2fab f1aa e4f3 f839 548f 833e
00000070: dcba 5ead 0779 55b9 0e65 8bb2 bb73 6ebe
00000080: e5ca 9c2d eeec b43b a802 5b35 5cad 3eb5
00000090: 046d 3135 7439 2eb2 5372 373e 91c5 c82b
000000a0: 00e6 0d2d 2ac5 0c2a 2f35 aa38 08c0 233e
000000b0: 3862 1eac f2f2 01b8 3cf0 b3b0 7b5e bbbd
000000c0: ccdf f6ac 3164 963b e370 3e36 4c53 cc34
000000d0: c33a 5cb6 79c1 e4b0 47a2 fdbd 6ebe 05ad
000000e0: 126d 872d 0a94 fb28 2912 adb8 c332 0cbe
000000f0: 4097 1c2d 081e 1638 ee4e 89b1 69fb 653d
00000100: 5a8f 902d ad80 66bb a2b0 2cb4 2c27 7e34
00000110: 0ed3 3f34 a093 0131 ab63 c33b ad5b 772c
00000120: 3608 b5ac 4551 09aa 6b61 c7b7 173e a2bc
00000130: a26f 5fad b7cf 0a37 abaf fa2f ef27 47bc
00000140: 470a 592d ed70 73bb b0ce 39b6 80c4 c7b4
00000150: ded9 4e36 dbf7 71b1 66ed 3dbd e416 ac2c
00000160: 6ccf 2fad aee1 8328 cadf 5ab8 c756 32bd
00000170: 1e0d f5ac a596 0d38 8c6c 8a30 904c 173d
00000180: 81cc 91ac f63c 19bb 53c6 d9b5 7ab2 09b5
00000190: cb99 e735 ee7b 16b0 9a82 333c 7431 082d
000001a0: 79e9 79ab 54c9 cda9 dc94 02b7 a865 bd3c
000001b0: 7bbd 4bad 6b58 bb36 5b1f 2830 3f9e 25bc
000001c0: 0740 1aad 9c5f 1b3c 2ad7 da36 6ebb a135
000001d0: 6ce8 90b6 b0f0 9231 96a6 993c 4ca4 4fad
000001e0: d5cb 9c2d 012f 232b b66f 7337 7ae4 d33c
000001f0: 06e6 8b2d 712a 81b7 bfb9 1ab0 0a7c 8fbb
00000200: e310 35ac 2038 9e38 9aa9 e335 dfa6 8734
00000210: 32a2 64b5 6190 a8b1 23e3 763c fbba f62b
00000220: 0c95 bb2c b2e1 efa9 b3ea 8f37 4db3 043b
00000230: 1228 a8ac 3bbf 82b7 2788 1d30 2a6d 8cbc
00000240: 16a2 3f2c 7a98 c63a 8980 1e34 d6fb 6534
00000250: a97a 0bb5 7a2c 6fb1 68d9 91bd 5d02 c2ab
00000260: 0f98 902c 6778 3ca9 50e6 36b6 ce9b 80bd
00000270: 5220 aead 42aa e036 1c68 2331 b6e9 1e3d
00000280: 5a68 90ad dc54 e5b9 ddf5 96b4 15cd 41b4
00000290: b27d 8233 3952 8bb1 6f2a 4c3b 9ae7 84ac
000002a0: 10f3 882c 2cf6 8629 d5ab aab7 c1be 1c3b
000002b0: 7999 0bae 5ef4 8237 2623 f5b0 bc1d 083c
000002c0: 6952 952d 28b8 1fb9 8a2f 3ab6 b1ca aeb4
000002d0: 6d74 1a36 8353 ac31 17e8 adbc f94b d32c
000002e0: 2491 9fac e24c e7a9 7492 6fb7 ed47 6bbc
000002f0: 2621 13ad 1a78 4a37 b0d5 1131 8997 bf3c
00000300: 40b0 192a 1015 6dbb a271 9bb5 bf2a 31b5
00000310: 3758 9335 8824 f6ae 05e0 6ebc 55a5 9d2c
00000320: 976e ecac 5d0c a7a9 746b 4e37 f85b 97bb
00000330: ce56 68ac 6106 1a36 ec70 6db0 2e1f cc3c
00000340: 3e04 dcab 9d53 a93b b2cc b235 997d 2935
00000350: 49f3 21b6 08ea 7831 a416 a73c 7293 11ad
00000360: 97ed 282d af95 ca2a 2600 99b7 dcd1 063d
00000370: ca37 362c 3ad1 0137 7ce4 f330 ad31 c1bc
00000380: 35e6 47ad 0695 fc3b ba97 b036 d6d3 0436
00000390: c06a 53b6 0ab7 3db1 0db8 993b 35f1 6bad
000003a0: 1836 e52c a548 222b 2a34 41b8 0e38 763b
000003b0: 4c23 402e d01f 0037 ee19 4e31 8f16 87bb
000003c0: c7dd ddac 7fec 25bb d29c 4434 94af 8cb5
000003d0: 342b 42b3 8167 e42f a2d6 aa3c 8b15 1eac
000003e0: be95 daab ad71 eba9 81ad e138 06d7 b43c
000003f0: c824 daad 90be 46b8 16d5 53b1 765e 56bc

layers.0.attn.0.gnn_q.bias f4 [16]
2.3467181e-11 0.0016785864 1.3990556e-06 3.4849609e-06 -6.514426e-07 -1.0684423e-08 0.17704386 -1.843358e-12
2.968657e-12 6.890281e-14 -0.00032722406 0.06346176 6.0916654e-12 0.00014498568 1.0858641e-08 -0.14028624
00000000: 656b ce2d 0304 dc3a 2fc7 bb35 2cdf 6936
00000010: cbde 2eb5 978e 37b2 fc4a 353e fcb6 01ac
00000020: 92e6 502c c427 9b29 458f abb9 3df8 813d
00000030: d854 d62c 4c07 1839 cf8c 3a32 32a7 0fbe
