checkpoints/cyp1a2_veith_25_train1_pos/Aug30-19:52:22_400.pth (torch, 415238 bytes, 294 tensors)

layers.0.weight f4 [16, 16]
000000 34 49 0c 3f ee 77 77 3e 3c c0 71 bd 68 48 4b 3e
       0.547992 0.24166843 -0.05902122 0.1985184
000010 82 3f 94 bd 68 4a c0 be 9b 74 43 bf 93 78 bf 3f
       -0.07238676 -0.37556767 -0.763498 1.4958671
000020 f1 37 bc 3f b7 70 94 bd 87 42 7d be 03 e6 b0 3e
       1.4704572 -0.07248061 -0.2473241 0.34550485
000030 9e 0b 95 bd cf 9c 2c bf c6 0e 87 3f 33 71 c7 be
       -0.072776064 -0.6742677 1.0551383 -0.38953552
000040 25 fa 86 3e a1 87 00 3e bb 78 8e bd c6 23 5a bd
       0.2636272 0.12551738 -0.06956621 -0.053256772
000050 ff 1f 88 3c df f8 07 3e a2 d0 13 3d f8 32 c0 3d
       0.01661682 0.1327853 0.03608764 0.093847215
000060 5e de 3e be a6 85 c5 bd 12 13 b7 3d 94 dc 07 be
       -0.18639514 -0.09644632 0.08939184 -0.13267738
000070 2b c7 8a 3d ce d4 c8 be f5 4e df 3e 80 0d 65 be
       0.067762695 -0.39224857 0.43614927 -0.22368431
000080 6e 7d 8e 3e 8c 86 99 3d f1 4e 96 bc f7 5c 1b bc
       0.2783007 0.07496366 -0.01834819 -0.009482614
000090 9a e5 fd bc e7 22 1f 3e 61 4b 1d 3d 8a 46 fe 3d
       -0.030993272 0.15540658 0.038401965 0.12415798
0000a0 68 90 3b be 48 56 b8 bd 2a bc 9c 3d 89 6a f9 bd
       -0.18316805 -0.09000832 0.07653077 -0.12178523
0000b0 e6 2a a7 3d 0c 2d ca be 24 2b e1 3e 4f 9b 80 be
       0.08162479 -0.39487493 0.43978226 -0.2511849
0000c0 59 ff 76 3e 24 b1 84 bc 02 41 96 bc 95 ab 19 bc
       0.24120845 -0.016197748 -0.018341545 -0.009379287
0000d0 30 2e 46 bc 20 97 ee 3d f2 3d 86 3c 63 12 40 3d
       -0.012095973 0.116499186 0.01638696 0.046892535
0000e0 47 2c 15 be f8 d4 73 bd 48 7b 98 3d 23 87 c4 3c
       -0.14567672 -0.059529275 0.07445389 0.02399022
0000f0 28 a5 9a 3c ba 08 a9 be 90 da be 3e a2 9b 5b be
       0.01887758 -0.3301447 0.37276125 -0.21446088
000100 90 9a 41 3e 09 6a 84 3c 5c 25 d9 bc 66 f1 04 bd
       0.18906617 0.016163843 -0.026507072 -0.032456778
000110 90 ee d1 ba e0 f7 b7 bd 7a 28 ac 3c 9f fe 0b 3e
       -0.0016016532 -0.08982825 0.021015394 0.13671349
000120 fb 42 de 3e 06 65 7f 3b 40 aa 18 bc 0f eb 5c bc
       0.43410477 0.0038970127 -0.0093179345 -0.013483777
000130 51 93 b5 bc 09 8b 05 3f 2a ff d0 3e e1 75 ab 3e
       -0.022164972 0.52165276 0.40819675 0.33488372
000140 65 34 69 bf 8c 35 87 be ef 93 89 3e a3 44 77 be
       -0.9109557 -0.2640804 0.26870677 -0.24147277
000150 cf 13 94 3e 07 1c 93 3f a7 22 6c 3f 4f 75 c2 bf
       0.28921363 1.1492928 0.92240375 -1.519205
000160 01 74 83 bd b6 c8 8b 3e 9f 74 a1 3f d8 90 be be
       -0.0641861 0.27301568 1.2613715 -0.37219882
000170 8e e2 ac 3e 85 4b 6a 3f 1d aa c4 bf 26 3b 22 3f
       0.33766598 0.91521484 -1.5364414 0.63371503
000180 79 0e b5 3f 6f 7b 21 be 69 d4 87 be 26 00 9e bd
       1.4145042 -0.15769742 -0.26529244 -0.07714872
000190 19 13 88 be 95 5c 88 bf 16 6c d2 3e db 4f 19 bf
       -0.2657707 -1.0653254 0.41098088 -0.59887475
0001a0 fe 40 66 be c8 a3 d4 be 0a 81 a3 bf 01 7a c3 bd
       -0.2248573 -0.41531205 -1.2773755 -0.09544755
0001b0 b6 bf b0 be e8 57 a4 bd 5b 36 1a 40 f9 5c a0 bc
       -0.34521264 -0.08024579 2.4095676 -0.019575583
0001c0 26 60 52 be cd 09 68 be 4e 11 6b be 5f 24 31 be
       -0.2054449 -0.22659989 -0.2295582 -0.1729903
0001d0 ce e3 8b be 8a bf b4 bf 33 f2 6f 3f 1e 40 b9 bf
       -0.2732224 -1.4120953 0.9372894 -1.4472692
0001e0 d5 14 0c bf 5d 20 46 be 2b 69 c4 bf d5 ff cf be
       -0.5471929 -0.19348283 -1.5344595 -0.40624872
0001f0 0f 88 bf be 92 0d bb be 4f 66 f3 be 5a e0 84 be
       -0.37408492 -0.3653379 -0.47538993 -0.25952417
000200 b3 aa cd 3e 8f 14 0b bd 5b ed f7 3b 55 9f 81 bb
       0.40169296 -0.033955153 0.007566137 -0.0039557614
000210 33 e2 03 3d 20 dc 83 3e ec 19 88 bc d4 fa 82 3b
       0.032198142 0.2575388 -0.016613923 0.003997186
000220 d1 aa ee be 0e ad 87 bd 31 4a 32 3e 2c 19 a6 3d
       -0.46614698 -0.066248044 0.17411114 0.0811027
000230 d5 2f d8 3c f4 95 e2 be 32 08 26 3f 78 79 9f be
       0.026389996 -0.4425503 0.64856255 -0.3114736
000240 a5 fa 92 3e b2 bf 66 3a cd 09 a2 bc b0 e0 8e b9
       0.28706852 0.00088023685 -0.019780064 -0.00027251756
000250 81 a0 10 3c 60 70 6b 3e ae 63 1b be a6 c4 ef 3d
       0.00882733 0.22992086 -0.15174744 0.117074296
000260 2b 03 c6 be 58 7e 72 bc e0 b0 13 3e 60 6c c6 3d
       -0.38674292 -0.0148006305 0.14422941 0.0968864
000270 14 16 d8 bc 29 12 82 3e c2 7a 00 3f f8 5a 1a 3e
       -0.026377715 0.2540448 0.50187314 0.15073764
000280 fc 7c cb be 6d 95 6e 3e 8d c4 d0 3d 33 10 57 3e
       -0.39743793 0.23299189 0.10193739 0.21002273
000290 73 a2 42 3d 7c d0 4b 3e 53 57 29 bf 39 0e 90 3f
       0.047518205 0.19903749 -0.6614887 1.125434
0002a0 96 14 a2 3e c3 b4 16 3e 20 02 97 3e 06 e8 a2 3e
       0.3165633 0.14717393 0.2949381 0.31817645
0002b0 88 2a d2 3d 93 98 ad bf 7e 52 25 bf a9 4a 6b bf
       0.102620184 -1.3562187 -0.64579 -0.919108
0002c0 dc 3c 02 bf 3f 31 3c be 46 9d 83 3e c8 7c 1c be
       -0.50874114 -0.18378161 0.25705928 -0.15281975
0002d0 0d b3 88 3e 15 14 31 3f a9 fa 38 3f 03 0c 5b bf
       0.26699105 0.6917127 0.7225748 -0.85565203
0002e0 09 22 f4 3f d8 48 73 3e c9 68 9a 3f 57 8b 7c be
       1.9072887 0.23758256 1.2063228 -0.24662529
0002f0 b6 10 7b 3e 41 7e b7 be 36 cb 23 bf 5b ae 03 be
       0.24518093 -0.35838512 -0.6398195 -0.1285948
000300 02 52 10 bf c2 c4 80 3e 76 7f 46 3c 81 23 3e 3e
       -0.56375134 0.25150114 0.01211535 0.18568231
000310 96 64 d7 bc f7 a6 8a 3e 26 f4 49 bf 9b 4a 77 3f
       -0.02629308 0.2708051 -0.78888166 0.96598214
000320 df bb f4 bf e3 eb ba 3d 7d 65 1c be ce 38 a3 3e
       -1.9119834 0.09127023 -0.1527309 0.31879276
000330 e7 78 ff 3c 99 9d 1a bf 1f 57 91 bf 38 8b 02 bf
       0.03118558 -0.60396725 -1.1354712 -0.5099368
000340 c9 d7 94 be 2f 5f 93 3e b6 d5 3c be dd 8e 10 3e
       -0.2907088 0.28783557 -0.18440899 0.14116998
000350 85 25 38 be 95 57 31 bf b2 71 5c bf 6e a8 ca 3f
       -0.17983063 -0.69274265 -0.86110985 1.5832651
000360 75 82 d7 be 43 0e 3c bd 82 9e 7d bf b5 0d 0e 3e
       -0.42091718 -0.04591204 -0.9906999 0.13872416
000370 5e 68 30 be 20 60 05 40 cc 68 21 bf 8c f2 a5 3f
       -0.17227313 2.083992 -0.6305053 1.2964644
000380 c2 22 5d bf 06 7a 89 3e d4 15 18 3d a1 14 30 3e
       -0.8638116 0.2685091 0.037130192 0.1719537
000390 bc 55 9a bc 53 d0 e9 be 29 24 07 bf 29 77 9b 3f
       -0.01883971 -0.4566675 -0.5278955 1.214574
0003a0 c3 96 c4 3f bb 86 5d 3e e2 52 81 be d3 f3 4f 3e
       1.5358509 0.21633427 -0.25258547 0.20307855
0003b0 f0 b7 34 bd db 92 77 bf 0a 9f a5 bf 8e ae 1d bf
       -0.04412073 -0.9670846 -1.293916 -0.61594474
0003c0 94 c8 2e bf 93 47 18 3e a9 59 65 bc 09 0c 2c 3e
       -0.6827481 0.14871053 -0.013998427 0.16801466
0003d0 08 22 98 bd 14 1d b8 be 39 29 dd be a7 c4 e6 3e
       -0.07428366 -0.35959685 -0.43195513 0.4507191
0003e0 61 c6 4f bf 58 1f e0 3d 63 4d f9 be 9f df 5b 3e
       -0.8116208 0.10943478 -0.48691854 0.21472023
0003f0 83 53 90 bd 39 64 df bf 0a 17 a2 bf 47 a4 9a bf
       -0.070471786 -1.745246 -1.2663281 -1.2081383

layers.0.bias f4 [16]
000000 62 25 b4 be 48 54 83 3e 8f 31 6b 3e a4 46 1c bf
       -0.3518477 0.2565024 0.22968124 -0.6104529
000010 91 07 a8 bc ec 20 00 bf 65 00 66 3e 77 e6 06 3f
       -0.02051142 -0.50050235 0.22461088 0.5269541
000020 11 86 1e bf 2e bc f4 be c2 a9 6e 3e 2e dc 9c 3e
       -0.6192332 -0.4779982 0.23306945 0.30636734
000030 d1 d4 b5 bc ae 20 1b be 9b 2d 1e 3e d9 d7 a7 3e
       -0.022196205 -0.15149185 0.15447085 0.32781866

layers.1.weight f4 [16, 16]
000000 9a 89 cb 3e a3 87 29 bd 9e b5 dd bc 82 30 55 bd
       0.3975342 -0.04138912 -0.02706414 -0.052048214
000010 87 35 80 3f 64 b7 91 3e b7 01 30 3f a2 b2 3f 3e
       1.0016335 0.28460228 0.68752617 0.18720487
000020 48 f8 d6 be e2 e3 a1 3d 21 ff ac 3e 88 be 07 3e
       -0.419863 0.07904793 0.33788398 0.13256276
000030 24 e7 e0 bd c5 32 ee bc 70 6c dd bd 38 c8 05 be
       -0.109815866 -0.029076943 -0.108116984 -0.13064659
000040 aa 30 9d 3c 75 91 9e 3f 53 3b 22 3f a9 a2 0e 3f
       0.019188244 1.238814 0.6337177 0.5571695
000050 6f 67 19 bf 01 9c 52 3f c5 7b 44 3f 27 42 a0 bf
       -0.5992345 0.82269293 0.7675136 -1.2520188
000060 63 39 ff bd 57 fa 41 3e c2 b7 3c 3e 86 66 88 bd
       -0.124621175 0.18943153 0.18429473 -0.0666018
000070 3e 64 24 3e c9 bd f8 3d be df 3c be 8a 6c 83 3e
       0.16053864 0.12145574 -0.18444726 0.25668746
000080 c9 14 f1 3e 9e 7c 2b be f8 a8 01 3f 6a 11 23 be
       0.4708617 -0.16746756 0.5064845 -0.15924612
000090 2d d9 f1 be 89 8e fe be 43 8f c0 be d7 d4 1e bf
       -0.47236004 -0.4971812 -0.376093 -0.6204352
0000a0 72 fd 7b bf 3e 63 ac be 88 04 6f 3c 8a 3e 2a bf
       -0.984336 -0.33669466 0.014588483 -0.6650168
0000b0 c7 6b 03 be 61 e3 cd bd ed 2a c5 3e 50 73 10 bf
       -0.12834083 -0.10053135 0.38509312 -0.5642595
0000c0 ff fd 62 bf f1 32 46 3f 9e f6 28 3e 2f bc 68 3e
       -0.8866882 0.7742148 0.16500327 0.22728036
0000d0 ca 62 6d bf ef 7b 0e 3e c3 97 e4 3d 26 6a be 3d
       -0.92728865 0.13914464 0.11161759 0.0929759
0000e0 1c 16 c0 3d 52 42 eb 3e b2 6c 30 3e 38 6a 1c 3c
       0.09379217 0.45949036 0.17228964 0.009546809
0000f0 4b 42 63 3f b1 fb 8d 3e 79 4e fa be ce 4b 80 3f
       0.8877303 0.27731088 -0.48887995 1.0023134
000100 7d 01 bb bd 15 b5 08 bf 7e 49 f1 3e 34 b7 2a 3d
       -0.09131143 -0.5340131 0.47126383 0.041678622
000110 62 96 22 bf 87 e2 26 bf aa d6 62 bf 70 40 13 bf
       -0.63510716 -0.65189403 -0.886088 -0.575202
000120 1a 76 a0 bf a4 c4 c8 be f4 ba 0c 3e 1a e1 39 bf
       -1.2536042 -0.39212525 0.13743192 -0.726091
000130 47 51 3f 3d 6b 45 3c be 76 e4 2c 3f cd f4 b7 be
       0.04670837 -0.18385856 0.67536104 -0.35928956
000140 47 c2 07 be dc e3 25 3e ac b7 b1 be 91 0c 86 3d
       -0.13257705 0.16200203 -0.34710443 0.065453656
000150 73 29 a7 be 2e 99 42 be 3e ff 15 bf 6e ea 02 bf
       -0.3264881 -0.19003746 -0.58592594 -0.5113896
000160 34 83 dc 3e db 24 2c bf 43 85 b6 3e a8 ee 92 bc
       0.4306885 -0.67243737 0.35648546 -0.017936066
000170 f0 b0 70 bd cb 14 87 3e 7e a3 18 3f 62 66 15 bf
       -0.05876249 0.2638305 0.5962447 -0.5835935
000180 14 24 2b 3f 1c 13 1b 3f 8e 65 78 3e 3a 93 24 bf
       0.66851926 0.60576034 0.2425749 -0.6428715
000190 05 79 0e 3f 03 4a 80 bf 7e f3 d8 be c7 34 4d 3f
       0.5565341 -1.0022587 -0.4237327 0.80158657
0001a0 25 f4 1b 3c dd ac 30 bf 8c 9e f4 be 88 40 69 3d
       0.009518658 -0.6901377 -0.47777212 0.056946307
0001b0 88 65 65 3e 3a 49 94 3e c1 31 8b 3e 85 39 07 bf
       0.22402012 0.28962117 0.27186397 -0.5282214
0001c0 ad 8e 51 bf 68 60 16 bf f5 a0 fa bd 6f 24 9a 3e
       -0.8185833 -0.58740854 -0.12237731 0.30105922
0001d0 91 0d 53 bf 3b ce dc 3d 85 db 4b be 62 8b 99 be
       -0.82442576 0.10781523 -0.19907959 -0.29989153
0001e0 17 9d b9 3d 91 4e 0c 3f 2c 54 ab 3d 28 d1 21 be
       0.09063166 0.5480738 0.08365664 -0.15802443
0001f0 e5 cc 1c 3e 48 84 86 be ef fb b4 bd ba eb 26 3f
       0.15312536 -0.26272798 -0.08837115 0.6520344
000200 99 2d cc 3e 16 64 ca 3d 89 73 16 be 3c 05 13 be
       0.39878538 0.09882371 -0.1469251 -0.14357466
000210 65 f1 fc bd 5e 31 03 3e 21 a2 19 3e 55 21 a9 be
       -0.1235073 0.12811801 0.15003254 -0.33033243
000220 16 e3 02 3e 0f 5d 09 be b8 91 4a 3e 2d d9 9f bd
       0.12781939 -0.13414405 0.1978215 -0.07805095
000230 af 1f 1e be a7 f8 f0 3c 97 c2 4a 3d 1a 5d 25 be
       -0.15441774 0.029415442 0.04950198 -0.16148797
000240 09 5a d8 be 69 60 91 bd 24 03 48 3e f0 c0 8e 3d
       -0.4225619 -0.07098467 0.19532448 0.06970394
000250 b8 20 40 bf 91 cc 22 bf 62 b1 60 bf db dc d6 be
       -0.75049925 -0.63593394 -0.87770665 -0.41965374
000260 1e b4 58 bf e6 82 86 bd d4 da 2d 3e ba b9 18 bf
       -0.84649837 -0.06567936 0.16978008 -0.59658396
000270 74 8b 0e 3f 81 7d 8c 3e f6 1e ec 3e 99 a2 b0 bd
       0.5568154 0.27439502 0.4611737 -0.08624763
000280 69 03 6d bd b4 4f a1 3e 90 f3 1d be f8 43 dd bc
       -0.05786458 0.3150612 -0.15424943 -0.02700995
000290 39 94 2d bf ba 56 ef be 39 7a 4e bf 79 b2 94 be
       -0.67804295 -0.46745855 -0.80655247 -0.29042414
0002a0 cc 30 6c 3f 86 c5 83 be 00 78 3d be de 2f e1 3d
       0.9226196 -0.25736636 -0.18502808 0.10995458
0002b0 a8 7c 2e 3e 07 60 0d 3f 9a c0 a5 3e f6 f4 bb be
       0.1703974 0.5522465 0.32373506 -0.36710328
0002c0 08 36 bf be eb 18 20 3f 02 0d c1 3e 30 42 29 3f
       -0.3734591 0.6253802 0.37705237 0.6611662
0002d0 97 3b c5 be a7 fb 42 3f 97 03 02 3f cf 1d 36 bf
       -0.38522026 0.7616524 0.5078673 -0.71139234
0002e0 3c fd e6 3d 0c 20 ff 3e 62 a2 f6 3d b1 e6 34 be
       0.112787694 0.49829137 0.12042691 -0.17666127
0002f0 d8 2a c8 3d d7 68 cc bd b4 ce e0 bd e0 7f 02 3f
       0.09773797 -0.09980934 -0.109769255 0.5097637
000300 40 f2 8e 3e 8f 79 44 be 0b ff 42 3e ec 9c d5 3d
       0.27919197 -0.19186996 0.19042604 0.10430321
000310 9b 2c 1c bf 53 10 24 be 34 0f 12 bf 2c f0 57 bf
       -0.6100556 -0.16021852 -0.5705445 -0.8435085
000320 21 33 69 bf a8 37 e1 bd 88 5a 83 3e 18 d0 28 bf
       -0.9109364 -0.10996944 0.25655007 -0.65942526
000330 c5 00 2a 3e dd 29 cb 3e e3 38 1c 3f 79 75 b9 be
       0.16601856 0.39680377 0.610243 -0.36222437
000340 19 28 3c 3f 91 a8 23 3e 16 ce ca bd 8c 26 46 be
       0.73498684 0.15982272 -0.09902589 -0.19350642
000350 0e ae db 3e 40 25 53 3e 30 59 e9 3e db 95 23 bc
       0.4290623 0.20619678 0.45575857 -0.009984459
000360 28 4e 2c bd 1e 88 53 be 63 3d 23 3e e2 00 96 be
       -0.042066723 -0.20657393 0.15941386 -0.2929755
000370 32 5b a7 be 1f 10 f6 bc 58 88 01 be ee 2d 16 be
       -0.32686764 -0.030036984 -0.12649667 -0.14665958
000380 ee c4 b9 bc eb 14 20 bd 1c 9a b8 3d 6c fe 4c be
       -0.022676911 -0.03908245 0.09013769 -0.20018929
000390 5d 46 10 be 2d 82 ac be 62 ae cd bd 87 3c f9 3e
       -0.14089341 -0.33693066 -0.100430265 0.4867899
0003a0 19 7a 43 be 85 1e d2 3b 10 9a 02 bf 47 1d a7 bd
       -0.19089545 0.0064123296 -0.5101633 -0.08159881
0003b0 52 3a 1d 3e 4b fb 33 be ae be 76 be 3c b9 54 3e
       0.15354279 -0.1757633 -0.24096176 0.20773786
0003c0 70 64 43 3e 7f 2b a0 3d 2f 33 7f 3e 06 61 0b bf
       0.19081283 0.07820796 0.24921869 -0.5444492
0003d0 1f 2a 35 3d 3e 9e 06 bf 9b 53 4c be 19 5e 09 3f
       0.044229623 -0.5258521 -0.19953768 0.53659207
0003e0 e1 a9 ba 3d 84 d4 8b bd 55 d2 ba be 49 7f 2f bb
       0.09114433 -0.068276435 -0.36488596 -0.0026778749
0003f0 db ae a5 3e ae 04 9e bd 12 b4 ec bd 45 08 e7 bd
       0.32359967 -0.07715736 -0.11557783 -0.11280874

layers.1.bias f4 [16]
000000 67 b7 1d 3e 11 cc fa 3d 54 e9 ce be c5 28 c4 3b
       0.15401994 0.12245954 -0.4041239 0.0059863054
000010 54 31 a0 bb bc 8d 39 3e 24 7d 60 3d 06 30 27 3d
       -0.004888693 0.18120474 0.054806843 0.040817283
000020 ae b8 01 be 81 07 14 bf b4 ff 23 bb 24 83 11 be
       -0.12668106 -0.5782395 -0.0025024237 -0.14210182
000030 c8 a6 b6 3e 99 4b 5c bc 60 cf 1a 3e f1 3a 08 3e
       0.3567412 -0.013445758 0.1511817 0.13303734

final.linears.0.weight f4 [96, 48]
000000 c6 c4 5f 3f 07 9e 89 be 03 66 98 be 3a bd a3 be
       0.8740963 -0.26878378 -0.2976533 -0.31980306
000010 92 ec 2e 3d a2 a7 a6 bf 98 56 1f 3f 88 76 8b 3f
       0.04270608 -1.3019907 0.62241507 1.0895548
000020 21 4b cf be 06 10 51 be d5 e8 31 bd 0b 74 6e 3f
       -0.40487006 -0.20416269 -0.043434937 0.9314582
000030 c5 94 90 3f 3f 49 85 bf da 9d e9 3f 6f 05 40 3f
       1.1295401 -1.0412978 1.8251297 0.7500829
000040 bc 9b f7 3c da 98 02 3d 35 e7 46 3c 48 49 1a bc
       0.030225627 0.03188405 0.012140085 -0.009416886
000050 aa 61 bb 3d ca 5b 8d 3e fc d1 88 bd 89 55 86 3b
       0.09149487 0.27609092 -0.06680676 0.004099552
000060 1c 5e 0a bd b6 cc 07 3e b7 ff 01 3d 24 99 ef bc
       -0.033781156 0.13261685 0.03173801 -0.029247828
000070 93 4f ca 3d f3 65 df 3d 98 fb a8 bb 5e 26 f1 3d
       0.09878459 0.10908117 -0.0051569454 0.11774896
000080 91 33 58 3d 69 f0 05 be c6 ea 27 3c 58 e8 97 3d
       0.052783553 -0.1307999 0.010248845 0.07417363
000090 27 bc 9e 3d 5f b6 5f bd 20 9f 23 3d 95 de 28 3d
       0.07750731 -0.054617282 0.039946675 0.041227896
0000a0 be ea ab bc ee 54 17 3b 21 7c d2 bc 27 81 ff 3d
       -0.020985957 0.0023091394 -0.025693955 0.12475806
0000b0 7b a8 a9 3d 64 db 9e bc 6f e6 13 3d 4d 8f 60 3d
       0.08284088 -0.019391723 0.03610843 0.054824162
0000c0 a7 19 54 3e 37 ad 25 3f 82 98 e4 be b1 b2 bc be
       0.2071291 0.6471743 -0.44647604 -0.3685508
0000d0 5e a7 ce be 0d d8 48 be 0e cf ed b9 4e 6b 67 bd
       -0.40362066 -0.19613667 -0.0004535843 -0.056498818
0000e0 48 87 19 bf 9e 0c a6 be de 9c 9f bb 7d 5d 7d be
       -0.5997205 -0.324315 -0.004870995 -0.24742694
0000f0 5c f4 89 be 26 0a b0 ba 3e 84 1a 3e b3 98 83 be
       -0.26944244 -0.0013430759 0.15089509 -0.25702438
000100 b4 0b 51 3d 46 7f 8b 3e c8 4f 23 3d 0e 4c 5b bd
       0.05103655 0.2724554 0.039871007 -0.05353933
000110 f2 e4 1b bd b4 c7 f6 3d 54 35 d7 bd 51 b8 01 3e
       -0.038060136 0.12049809 -0.105082184 0.12667967
000120 58 1c 12 3d 53 03 93 bd f6 1d 01 3c e8 bb 18 be
       0.035671562 -0.071783684 0.007880678 -0.1491543
000130 9f ac 79 3e 03 35 a2 bd c0 5d 47 bd f7 e8 17 3d
       0.24382256 -0.079202674 -0.04867339 0.037087407
000140 0f 84 4b 3d 21 b3 58 be 76 2c 4e 3d 7c 24 e5 bc
       0.049686488 -0.21162082 0.05033537 -0.027971499
000150 26 55 22 3d 26 11 7b bc aa 6e cc bc 5c 83 e2 3b
       0.039631985 -0.015323913 -0.024955112 0.006912632
000160 8a 53 31 3e 79 9a 8d bd a0 2b c2 be c7 45 8d 3d
       0.17317024 -0.06914229 -0.37923908 0.068980746
000170 6c d9 86 bd c4 72 9e be 27 c0 c4 3d 47 cd 95 bc
       -0.06584439 -0.30946934 0.09606963 -0.01828636
000180 bb 00 60 3e c1 f3 7b 3f 3f ec af be 7c 21 69 bd
       0.21875279 0.98418814 -0.3435993 -0.0569167
000190 4d 66 74 bf 49 e8 3c 3e d3 cb a0 bd bd 87 aa bd
       -0.954686 0.18447985 -0.078513764 -0.08326671
0001a0 ea c8 bb be 50 01 2f 3d fb b9 7e 3c ee 7e be 3d
       -0.36676723 0.04272586 0.015547271 0.09301554
0001b0 24 fd 91 bd af f9 97 3d 9d fe 8a 3d 28 99 81 bc
       -0.07128361 0.0742067 0.06786845 -0.0158201
0001c0 a6 46 03 3e e4 ca 44 3d bd 1b 78 bd 12 1b 20 3d
       0.12819919 0.048045054 -0.06057333 0.039088316
0001d0 a8 9c 15 bd 72 f3 d4 3d 3a 4f 60 bd 05 8d 53 bd
       -0.036526352 0.10397996 -0.054763056 -0.05164816
0001e0 90 c4 dd 39 99 fd 49 3d 9c 62 16 bd 49 74 fd bd
       0.00042298855 0.049314115 -0.036715135 -0.12375695
0001f0 39 13 14 3e 47 33 28 3c f6 66 8e bd a5 48 5f bd
       0.14460458 0.010266132 -0.06953232 -0.05451264
000200 10 d5 12 bc 85 b2 c3 bd 9e 2f fb 3d 16 7a 49 3d
       -0.008961931 -0.09555534 0.12264942 0.049188696
000210 f5 79 ec bc 71 e7 ba bd 4c cb ee bc 80 45 2e 3d
       -0.028866747 -0.09126175 -0.029149674 0.04254675
000220 5b 80 24 bc 6c a3 c4 3c b8 43 10 bd e3 e9 cf 3d
       -0.010040368 0.024003707 -0.03522083 0.10152032
000230 b1 37 a0 3c 2f ff 74 bd 43 45 f3 3d 78 63 af 3d
       0.019557806 -0.059813675 0.11878445 0.08563894
000240 7e 00 e4 be cb 21 75 3e 66 49 e4 3d b9 57 88 3d
       -0.44531626 0.23938672 0.11146812 0.06657357
000250 ef 79 69 3c 18 28 ef 3e a3 59 3a be d4 a9 46 3d
       0.014250263 0.46710277 -0.18198256 0.048501804
000260 a6 13 51 3d 1a 64 9f bd aa 21 48 be 0c a8 af 3e
       0.05104413 -0.07782765 -0.19544092 0.34307897
000270 33 d3 3b be 71 1e ff be b9 f5 2c be b3 cd d9 be
       -0.18342285 -0.49827912 -0.16890611 -0.4253975
000280 58 ab 34 3e 70 26 d2 3d 82 75 d8 bb e8 04 be 3c
       0.17643487 0.102612376 -0.006605805 0.023195699
000290 70 27 c4 bd 80 c9 05 3e b4 24 c7 3d 74 63 d7 be
       -0.095778346 0.13065147 0.097237974 -0.42068064
0002a0 da 35 17 3e 3c 1a 77 3d 06 57 82 3d b1 c8 c8 bd
       0.14766636 0.060327753 0.06364255 -0.09803904
0002b0 44 ff 87 3a 5a cd b6 3e 9c 73 ff bd 97 08 ff bd
       0.0010375758 0.35703546 -0.124732226 -0.1245281
0002c0 89 e6 c7 be da 3b 9f 3f fb 12 b7 3e f9 ce 07 3f
       -0.39043072 1.244014 0.35756668 0.5305019
0002d0 e1 cb 92 3d d5 fc 49 3f 6f 19 3b 3f 02 16 1e bf
       0.07167793 0.78901416 0.73085684 -0.6175233
0002e0 4d ae 52 3e 67 1b 05 3f 5d 57 e7 3d de 7e 45 3e
       0.20574303 0.5199494 0.1129596 0.19286677
0002f0 40 cf a7 3e 68 fb 9d 3d dc 5e 4a be 5c 40 8a 3e
       0.32775307 0.077139676 -0.19762748 0.27002227
000300 de 41 c7 be 60 e4 e7 bd d4 23 e8 bd 22 37 fa bd
       -0.3891744 -0.11322856 -0.11334959 -0.12217547
000310 6d 95 e2 be ab c5 55 3f 4e 04 27 3d 2d 00 4e 3f
       -0.44254628 0.8350474 0.04077559 0.8046902
000320 b9 32 ec bd b3 e9 d6 be 76 49 64 3f 51 4f 39 3f
       -0.11533112 -0.41975173 0.8917459 0.7238665
000330 3c a9 7f 3e 0d 56 21 bf 2e ed 73 be 11 b7 86 bf
       0.24966902 -0.6302193 -0.23820946 -1.0524617
000340 aa d1 7d 3a a1 64 85 3d d4 3e 70 3d 87 20 f0 3d
       0.00096824265 0.06513334 0.058653668 0.11724954
000350 9e 4a 7b 3c 6b 08 6a 3d 78 ee ac bd e0 42 24 bd
       0.015337614 0.057136934 -0.08443922 -0.04010284
000360 5b 84 d9 3d b4 5c ca ba 86 a6 aa 3b 43 50 72 bd
       0.10620948 -0.0015439005 0.0052078394 -0.059158575
000370 c1 68 d9 bd c5 95 03 3e 5f ae 8b 3d 3f 5e b8 3c
       -0.10615683 0.12850101 0.06820368 0.022505878
000380 70 27 bb bc 7d fd 12 3d cd 2c e5 3b b3 d2 e6 bb
       -0.022845954 0.035886277 0.006993866 -0.0070441603
000390 73 3c 38 bd d3 50 41 3d cb 64 ab bc ff e9 2e 3c
       -0.044979524 0.04719622 -0.020922085 0.010675906
0003a0 fc bf 17 bd a8 c3 05 bd 03 ff 12 3c 55 8a 07 3c
       -0.037048325 -0.032657295 0.008971932 0.008272727
0003b0 3a b4 81 3c 06 e7 e6 3c 36 5f 30 bd 20 2a cf ba
       0.015833009 0.028186332 -0.04305955 -0.0015805401
0003c0 c5 87 3e be e2 37 9d be 6d 01 4a 3e 93 f5 de 3c
       -0.1860648 -0.30706698 0.19727106 0.027216708
0003d0 12 a6 d0 bd eb 00 ab 3e 48 0a 92 be 0a 35 a1 3d
       -0.101879254 0.33399138 -0.2852347 0.078714445
0003e0 d8 64 26 be bb 53 00 bd b4 a6 63 be 59 01 27 bd
       -0.16249406 -0.03132985 -0.22231561 -0.04077277
0003f0 70 54 9b be 6b 49 1a 3e 69 1a 93 3e 41 cf f1 be
       -0.30337858 0.15067069 0.28731087 -0.47228435

final.linears.0.bias f4 [96]
000000 68 44 1b 3e a6 6c d2 bc 01 ed 8c be cb 00 de 3e
       0.15162814 -0.025686573 -0.2752457 0.4335998
000010 55 97 78 3e 14 1b c1 bd 82 c5 e4 be 0e 44 c0 3e
       0.24276479 -0.09428993 -0.44681937 0.37551922
000020 50 e3 e5 bc 77 8e 8f bc b9 80 e1 3e e6 2c e7 be
       -0.028062493 -0.017523987 0.4404352 -0.45151442
000030 21 b9 89 3e cf 15 aa be cd 4f c9 3e 1b fc bc 3d
       0.26899055 -0.33219764 0.39318696 0.09227773
000040 9b 3f ff 3c 09 11 21 3e 25 ab 12 3f 50 c2 3d 3f
       0.03115826 0.15729155 0.57292396 0.7412462
000050 b6 d3 1b be 20 02 bf be 98 d1 05 bf 40 ef 59 3e
       -0.1521748 -0.3730631 -0.5227294 0.21282673
000060 95 0d 4a be b7 c7 35 3c ed 1c f0 3e 96 8a 46 3e
       -0.19731744 0.011094979 0.4689707 0.19388804
000070 70 af 50 3e 9c c6 d0 be 1a cf ba 3e d9 01 9c 3d
       0.20379424 -0.40776527 0.3648613 0.0761754
000080 18 e6 71 3e aa 75 6c 3e e5 eb f5 bc 67 c1 2f be
       0.2362293 0.2309176 -0.03001971 -0.17163621
000090 f7 4f 92 3e 6f d5 43 be 88 f0 1d 3e ea be 6a bd
       0.28576633 -0.19124387 0.15423787 -0.057310976
0000a0 84 d4 06 be 33 5e 32 3e bc 80 4c be 5d ff 87 3e
       -0.13167006 0.17418747 -0.19970983 0.26562014
0000b0 1a e1 c8 3d 4f e9 c8 3e f0 9c b0 bd 33 70 a2 bd
       0.0980856 0.392405 -0.086236835 -0.079315566
0000c0 0c f5 84 3e 0f d5 ea be cd b6 c6 3e 43 ee b8 3d
       0.25968206 -0.45865676 0.3881134 0.0902982
0000d0 ff 52 34 3e 87 cd 22 3e 2b 8a 41 bd 47 f6 6f be
       0.17609785 0.15898715 -0.047250908 -0.23433791
0000e0 40 3f d6 3d 20 c4 8d 3c 20 c1 bc 3e 5f 22 d3 3d
       0.10461283 0.017305434 0.36866093 0.1030929
0000f0 6b a6 76 3e 97 df 8f 3e 49 a0 bc 3e 7e de 14 3e
       0.24086921 0.28100273 0.36841038 0.14537999
000100 b7 6b 6c 3e c8 88 50 3c 72 f9 2f be 54 01 91 3e
       0.23087965 0.012727924 -0.17185 0.28321326
000110 7c dd 5e bd 6a 12 ad bd d7 22 d7 be d1 14 36 be
       -0.054410443 -0.08450778 -0.42018768 -0.17781378
000120 1a 1f a1 3d 56 a6 02 3f 1b de eb 3d c9 4f 37 be
       0.0786726 0.5103506 0.11516973 -0.1790153
000130 b3 ef 1b 3e 2d 9d d2 3e 15 16 b0 bc 5b 56 e2 3d
       0.15228157 0.4113554 -0.021494905 0.11051627
000140 0e 74 c4 bd 91 4b 40 3e b2 dd c3 3e 2c f8 15 3e
       -0.09592448 0.18778826 0.38255078 0.14645451
000150 58 76 d7 bb ed 5c 22 3e 74 b7 a6 be c5 d8 58 3e
       -0.006575387 0.15855761 -0.3256184 0.21176441
000160 3c 67 6b bd 43 22 9c 3c 1b 89 d8 3d fe 50 17 be
       -0.0574715 0.019059306 0.10573026 -0.1477699
000170 41 cb ac 3e 3b 70 90 be 1d f0 6e be 0e 60 1a 3f
       0.3374882 -0.28210625 -0.23333783 0.6030282

final.linears.1.weight f4 [96, 96]
000000 5a cc d0 be d5 a9 55 be 47 58 f7 bc 0b ce b9 be
       -0.40780908 -0.20865567 -0.030193461 -0.3629001
000010 c6 bc 6b be 20 73 89 bd 7a 98 fc 3d b3 c0 b0 be
       -0.2302123 -0.067114115 0.1233377 -0.34522018
000020 90 a8 7d be 63 54 71 be 2e 81 76 be 87 ac 9e 3d
       -0.24771333 -0.23567347 -0.24072716 0.07747751
000030 0b ba 38 be aa e4 9b be 9a aa 3b be 62 1f 9a be
       -0.1803972 -0.30447894 -0.18326798 -0.30102068
000040 b5 97 03 bf b2 08 b6 bc ef 06 71 be ae 7d 9e be
       -0.5140336 -0.022220943 -0.23537801 -0.3095526
000050 a2 3d d7 bd a5 34 3f be f5 ea 59 3e 16 ce 2a be
       -0.105098024 -0.18672426 0.21281035 -0.16680178
000060 ca 33 bd bd 0e 5b 9f be 73 b7 b4 bf ea 02 06 bf
       -0.092383936 -0.31124157 -1.4118484 -0.52348197
000070 f8 8e aa be 93 73 06 bd 67 85 ba be d4 62 67 3c
       -0.33312201 -0.032825064 -0.36429903 0.014122684
000080 26 c5 ca be 17 64 ab be 4b fb b1 be ba fd 14 be
       -0.39603537 -0.334748 -0.34762034 -0.14549914
000090 0d c2 a1 be 33 d9 56 bd 39 4a 03 bd d5 9d 03 be
       -0.31593361 -0.05245323 -0.032053206 -0.12853177
0000a0 03 b6 9d be b8 94 db bd 6f d1 6f be 7b 26 72 be
       -0.30802926 -0.10721725 -0.23419736 -0.23647492
0000b0 85 49 2d be 9e 03 5e be 1c 86 70 be 8d 1a 62 be
       -0.16922577 -0.21681067 -0.23488659 -0.22080441
0000c0 2a ad 3a be 36 cb 8d 3e c2 97 c7 be 2e 4d 36 3c
       -0.1823012 0.276941 -0.3898297 0.0111267995
0000d0 0b 85 25 be 95 18 3a bf f2 f4 d2 be a9 86 65 bd
       -0.16164033 -0.7269376 -0.41202503 -0.056036625
0000e0 59 70 08 bd 5c 1e 5f be 61 67 a2 be f1 2f 14 be
       -0.033310268 -0.21788925 -0.31719497 -0.14471413
0000f0 8e fc 23 bf 76 6e 00 3d 58 82 ae be b5 f4 cd be
       -0.6405724 0.031355344 -0.3408382 -0.4022576
000100 1c c6 ac be 2d d9 c7 bd c9 df e7 bd df e2 7e be
       -0.33744895 -0.0975822 -0.113219805 -0.24891232
000110 f5 7b 33 bd 69 fa ac be f3 36 a8 3c 6e c4 bc be
       -0.043819387 -0.33784798 0.020534014 -0.36868614
000120 b3 8d 14 bf c1 f1 36 be 29 ba 82 be 2a 59 ad bd
       -0.58028716 -0.1786566 -0.25532654 -0.08464272
000130 d1 3a 4b 3b 4e 1e ae be 4a d3 b9 be 8e 69 7f be
       0.00310104 -0.34007496 -0.36294013 -0.2494261
000140 9b d5 23 bd fc b6 81 be 20 04 eb be 5e 96 f7 bd
       -0.039998632 -0.25334918 -0.45901585 -0.12089227
000150 bc 46 72 be c8 9c 93 bd bd 2f c7 be 04 ad a6 be
       -0.23659796 -0.07207638 -0.3890361 -0.32553875
000160 3e a7 8e be 5f 09 60 be 74 4f 7b be 2d dc 10 be
       -0.2786197 -0.21878575 -0.24542028 -0.1414649
000170 5f f7 7e be 2f 86 6c be 24 d7 2c be e0 89 21 be
       -0.24899052 -0.23098062 -0.16878945 -0.15775251
000180 b7 be 74 3d 6f 7e 08 3e 26 b8 a0 3e f4 61 9d bd
       0.059752192 0.1332948 0.31390494 -0.07684699
000190 f5 75 08 be e5 46 22 be 6b 95 db bd df 50 9e 3e
       -0.13326247 -0.15847357 -0.107218586 0.30921075
0001a0 9b e6 c1 3d 62 64 9b 3d bb 80 48 be 58 37 32 bb
       0.09467813 0.07587506 -0.19580357 -0.0027193632
0001b0 9d 45 4c be 65 d7 07 bd 83 b5 50 3e 62 db 03 be
       -0.1994843 -0.0331644 0.20381741 -0.12876657
0001c0 86 a8 06 3d c8 dc 24 be e9 13 85 be 23 df 6f be
       0.03287556 -0.16099846 -0.25991753 -0.23424964
0001d0 a1 df 94 3e 90 bd 04 be 9f 76 6f bd 88 f8 5a be
       0.29076865 -0.12962937 -0.058462735 -0.2138387
0001e0 78 fc ae 3d 92 a6 47 3c 6f 72 21 3e 0d 9e 8d bd
       0.08544248 0.01218571 0.15766309 -0.069149114
0001f0 c6 0e 49 bc 3c 2a 68 3e 3e d9 89 bd a7 83 69 be
       -0.012271589 0.22672361 -0.06730889 -0.22804128
000200 45 ff 8f bc cc f3 08 3f d4 e0 b5 3d 50 c8 74 bf
       -0.017577777 0.53497005 0.08880773 -0.9561815
000210 55 a1 05 3d fd 69 aa 3e 64 f8 b5 3d f5 4f 9f be
       0.03262456 0.33283988 0.088852674 -0.3111569
000220 57 d7 b8 bd 74 b1 eb 3d 6d e8 98 3d fa de 59 be
       -0.09025448 0.11508456 0.07466207 -0.21276465
000230 cf bc b2 bc 46 52 30 3e 87 8c f6 3c 87 c1 2a 3e
       -0.021818547 0.17218885 0.030096306 0.16675387
000240 1b e9 93 be bd 0b 8d 3d 1e c5 fd 3d d5 1f 13 bf
       -0.28888783 0.068870045 0.12391113 -0.57470447
000250 44 07 8f bc a0 9e 59 38 16 e3 a7 bb 5f df fa bb
       -0.01745952 5.1884563e-05 -0.0051235063 -0.0076560224
000260 23 e3 4b be e1 4d 37 3d 01 6d de bc a5 62 01 3e
       -0.19910865 0.044752005 -0.027151586 0.12635286
000270 4c 96 5e bd 2e a0 de 3d 0c 9a e2 bb 07 e4 11 3e
       -0.054342553 0.108703956 -0.0069153365 0.14247142
000280 03 79 12 bd fb be 91 bd 8e 44 73 be 77 f8 3d 3e
       -0.035759937 -0.07116505 -0.2375662 0.18551813
000290 44 6c 26 be 85 a9 96 3d de f2 45 3e 63 5c 14 3e
       -0.16252238 0.07356552 0.19330928 0.14488368
0002a0 c1 19 2b 3b 83 82 63 be fb 28 1b bc ba 90 c7 bd
       0.002610788 -0.22217755 -0.00947022 -0.09744401
0002b0 4f 5a 31 be 09 26 c7 bc f2 a5 fd bd 6f ea b4 3e
       -0.17319606 -0.024310129 -0.12385167 0.3533511
0002c0 79 d7 c9 3d ed 04 15 bf 03 47 a1 3c 18 56 0b bf
       0.09855551 -0.5821064 0.019687181 -0.54428244
0002d0 b9 e8 12 3d 20 ea 45 3e 06 fd 96 3d fb 0f a6 bb
       0.035866473 0.19327593 0.07372479 -0.005067823
0002e0 72 bd 21 bd ca bb 7b 3e 88 3e 4b 3d 24 0b 4e bf
       -0.03948731 0.24583355 0.04962018 -0.8048575
0002f0 41 9b 83 3e 20 18 0f 3e e1 f7 9d bc d7 6c be 3d
       0.25704387 0.13974047 -0.019283237 0.09298103
000300 79 1a 8f bd af d5 21 be b8 f2 67 3e 4e ae 0b be
       -0.06987471 -0.1580417 0.22651184 -0.1364071
000310 16 16 0c bd a0 41 95 bd 9f eb 9c 3e 40 d3 ad 3d
       -0.03420075 -0.072879076 0.30648515 0.08487558
000320 be e2 8e bd 2d 50 e6 3c d3 3c f0 bd 4c 2d da bd
       -0.069768414 0.028114403 -0.11730351 -0.10653171
000330 ac ff 9b bd a3 5a a9 bd 72 3c d9 3c ab 80 c7 bd
       -0.07617125 -0.08269241 0.02651808 -0.09741338
000340 ba cc ad bd 18 fb 1e be c4 9e 99 be 33 41 9d be
       -0.08486314 -0.15525472 -0.3000394 -0.30713806
000350 b8 16 ad 3d 04 f8 9c bd 31 2c 80 3e e4 89 91 bd
       0.08451599 -0.07664493 0.25033715 -0.07106379
000360 68 b4 ad 3d 52 43 01 be 18 65 9c bd f8 c8 18 be
       0.084816754 -0.12623337 -0.076364696 -0.14920413
000370 9d 33 eb 3d d5 22 af 3e fc 32 3a bd 70 89 40 be
       0.11484454 0.34206262 -0.04545878 -0.18802428
000380 2b 9a 1a bd ee 1c 85 3c 12 a9 b9 bd fc ca 6f bf
       -0.037744682 0.016249146 -0.09065451 -0.93669105
000390 18 3d d3 bd 88 98 81 3d 98 42 33 bd e6 cf 0c be
       -0.10314387 0.06327921 -0.04376468 -0.13751182
0003a0 20 b8 15 bd 02 05 9f 3d fc 6d 91 bd 21 c9 9a bd
       -0.03655255 0.07764627 -0.07101056 -0.075578935
0003b0 35 33 f7 bc 03 8c b6 3d 2e 41 03 bd d6 f3 f0 3b
       -0.030175785 0.08913424 -0.032044582 0.0073532863
0003c0 fa 12 c9 3d dd 41 3a 3e 9f ff d3 bc 2f 2c 82 be
       0.098180726 0.18189187 -0.025878726 -0.25424334
0003d0 8d b9 1c bd 85 31 95 bd c6 8b 8b bd 07 10 22 3d
       -0.038262893 -0.07284836 -0.06813769 0.039566066
0003e0 d4 63 6d bd 49 b6 e2 bd 9b 4b e0 bd ba 59 15 bd
       -0.05795653 -0.110699244 -0.109519206 -0.036462523
0003f0 d2 65 d4 bd 66 40 c7 bd 89 49 bd bd e0 8a 81 bd
       -0.10370983 -0.0972908 -0.09242541 -0.063253164

final.linears.1.bias f4 [96]
000000 37 be 93 be 71 3c b7 be b2 1d 6f be 2e a1 27 3d
       -0.2885606 -0.357883 -0.23351172 0.040925197
000010 24 6f 8d be 57 81 2c bd 79 ef 08 be 8e 7a 80 bd
       -0.27623856 -0.042115536 -0.13372602 -0.062733755
000020 9d 9a db bd b3 40 a9 be 0e 78 32 be ff 39 6f be
       -0.107228495 -0.33057174 -0.1742861 -0.23361968
000030 e0 10 17 bc 3c c6 2c 3c dd 13 50 be 22 a2 c1 3b
       -0.009220332 0.01054531 -0.20320077 0.0059092203
000040 18 8e b5 be 64 00 1a 3b ef 64 10 be f8 06 2f be
       -0.3545997 0.0023498768 -0.14101003 -0.17092502
000050 a1 56 fb bd b4 3d ae 3d 1d 80 a4 bd 70 e1 2d be
       -0.122723825 0.08507863 -0.08032248 -0.16980529
000060 0e 27 a5 bd 47 46 4d be 1f 21 26 be 40 96 57 3f
       -0.0806409 -0.2004634 -0.16223572 0.8421364
000070 6c 9c 5a be 2e ed f6 bd bd a4 ca 3c 47 1c 5c be
       -0.21348733 -0.12056957 0.024736756 -0.21495162
000080 d5 0f 07 3d ab 32 00 3d 96 59 37 bf 9d 2b c5 be
       0.032974083 0.03129832 -0.7162107 -0.38509837
000090 64 fa 5c be b7 6e a5 be 32 a9 8b bd e3 60 41 3d
       -0.21579891 -0.3231103 -0.06819381 0.04721154
0000a0 b6 ea 00 bd 02 b9 33 3e 72 e9 81 be cc b5 8d 3e
       -0.031473838 0.17551044 -0.25373417 0.27677763
0000b0 71 23 15 be ae 5f 17 be 5f 85 54 be 45 53 a3 bd
       -0.14564301 -0.14782593 -0.20754002 -0.07974867
0000c0 7e 54 3c be 7e 96 21 bb b8 ce 23 be e2 3a 45 bc
       -0.18391606 -0.002465635 -0.15996826 -0.012037965
0000d0 70 06 29 be a5 c0 7e be a6 8d b4 be 18 1a 10 be
       -0.16506362 -0.24878176 -0.3526432 -0.14072454
0000e0 71 3a 4e be 68 37 39 be ce 95 7e be e1 63 1c be
       -0.20139481 -0.18087542 -0.24861833 -0.15272476
0000f0 40 a7 35 be c3 c9 0e be 16 4d ef 3e 32 c8 75 be
       -0.17739582 -0.13944153 0.467385 -0.2400215
000100 53 45 5d bd 0d ee 27 be 1b 56 9f bc de c5 00 bd
       -0.05402119 -0.16399403 -0.019450238 -0.0314387
000110 2a ee 0b bc 22 55 f3 bd b4 01 f4 be fd 7a 32 bf
       -0.008540669 -0.11881472 -0.4765755 -0.69718915
000120 32 e2 e6 bd 13 97 dd bd 5c b2 8d be 70 17 66 be
       -0.11273612 -0.10819831 -0.2767514 -0.22469878
000130 9c 53 28 be d3 f9 35 be b9 fa 44 be ae 54 45 be
       -0.16438144 -0.17771082 -0.19236268 -0.19270584
000140 96 c7 85 3d 05 bb 19 bd c2 c9 81 be 4e dd c9 bd
       0.065322086 -0.03753187 -0.25349241 -0.09856664
000150 72 7d 0f be 98 a7 04 be 24 b1 2d be 62 1a 53 be
       -0.14012697 -0.12954557 -0.16962105 -0.20615533
000160 5a 1a 76 bc 9c 22 24 be 24 03 27 be c2 2d 53 be
       -0.015020931 -0.16028827 -0.16309792 -0.20622924
000170 92 c7 5c 3d 0e 40 97 be 8f 01 18 be 97 03 ba 3e
       0.053901263 -0.29541057 -0.14844345 0.36330864

final.linears.2.weight f4 [16, 96]
000000 90 f9 c4 be 30 c0 66 ba d1 bb 1e 3c f5 e4 9c 3b
       -0.3847165 -0.0008802442 0.009688334 0.004788036
000010 fb 44 02 bf 8b 82 f6 3d 42 03 c6 3e 9a 9e e0 3d
       -0.50886506 0.12036618 0.3867436 0.10967751
000020 5e fb ad 3d a0 b8 85 bd af 59 bd bd bd 9b 18 bb
       0.0849521 -0.06529355 -0.092456214 -0.0023286187
000030 4e 03 0e be 7c 8a 3a 3c 8a 7f 00 3e 9e 6e 7c bd
       -0.13868448 0.011385556 0.12548652 -0.06162893
000040 19 cf 61 3d 0f 14 72 3e 20 dd 98 be 40 9f 48 3d
       0.055129144 0.23640464 -0.29856205 0.048979998
000050 e2 be c6 bd 65 e5 8b bd 90 5d 1d 3c bc d0 c7 3e
       -0.09704377 -0.06830863 0.009604827 0.3902644
000060 72 c3 95 3d 76 78 6e bb f0 2a 09 bf fa ca 60 3b
       0.07312669 -0.0036387718 -0.5358114 0.003430067
000070 8e 90 02 bd 65 5f c1 be e5 d7 3d be dd 1d 63 bb
       -0.03187614 -0.37768093 -0.18539388 -0.003465525
000080 1e d1 a5 3c 50 f3 78 3e 59 23 06 bc 06 a7 c5 3d
       0.020241316 0.24311566 -0.0081871385 0.09650998
000090 73 0f 14 3f d7 06 9c 3e 3a 6f 6c bd 18 76 8e bc
       0.57836074 0.30473968 -0.05772326 -0.017390296
0000a0 9f 09 91 bd fa 13 3f bc 15 85 dc be ef 6f 02 3c
       -0.07081913 -0.011662478 -0.43070284 0.007961257
0000b0 42 3d 0c bf 34 d1 c1 3d 3e eb 49 3d 9c 98 e7 3c
       -0.5478097 0.094637305 0.04929661 0.028271012
0000c0 17 33 9c bd 8a d0 02 3d 58 8c 6d 3e 54 74 87 3b
       -0.07626932 0.03193716 0.23198068 0.0041337404
0000d0 08 8e ce 3e 2c 1e ad be c3 2f b3 3e e9 12 aa be
       0.40342736 -0.33812082 0.34997377 -0.33217552
0000e0 fb 0e 94 be 54 d0 10 be d8 c9 06 be 02 e9 63 3d
       -0.2891768 -0.14141971 -0.13162935 0.055642135
0000f0 ec 79 a0 be e7 b1 12 be 39 3e 0c 3b 2c d8 87 3d
       -0.3134302 -0.14325677 0.0021399392 0.066330284
000100 e2 25 25 3e 4c 20 8a 3d ba fd d2 3d 75 89 13 3e
       0.16127732 0.067444414 0.10302301 0.14407904
000110 a1 2a 4c 3c 78 5d 84 be f8 c6 67 3d 67 7e 88 bb
       0.012461335 -0.2585256 0.056586236 -0.004165459
000120 ec 99 cd bc cc 4b bd bb 04 22 e1 3d d7 94 58 3e
       -0.02509781 -0.005776858 0.10992816 0.21150528
000130 e1 1d 16 3e 35 40 2e bd d4 14 5d bc 07 fc 48 bd
       0.14659835 -0.0425417 -0.013493735 -0.049068477
000140 4e b0 89 bd 60 51 0b be 18 b0 cf 3e 86 16 0f 3d
       -0.067230806 -0.13605261 0.40564036 0.03493359
000150 cf 78 c0 3e 44 ed 43 3e 1d b9 4d be 03 fd 94 3d
       0.3759217 0.19133478 -0.20090146 0.07274821
000160 11 cd dc bd 85 ac 15 be f9 64 1d 3e b1 b2 42 3e
       -0.10781301 -0.14616592 0.1537055 0.19013478
000170 9a a2 13 3e fe e1 b8 3c 76 89 05 3e 65 a0 a3 bb
       0.14417496 0.022568699 0.13040718 -0.0049934858
000180 25 56 79 3e 0e d2 5b 3e 3e ba bb 3d 65 dc 46 3d
       0.24349268 0.21466848 0.09166382 0.04855003
000190 c6 65 16 3c aa 54 3b 3d 33 08 35 be 97 0f 9f bd
       0.009179538 0.04573504 -0.17678909 -0.077666454
0001a0 c2 c2 8c 3d d1 1b 8c 3c 33 0c 59 3d 21 25 e7 be
       0.068730846 0.017103108 0.05299015 -0.45145515
0001b0 21 fe 84 bc e1 91 aa bd 79 23 a2 3d 44 ab 42 bd
       -0.01623446 -0.083286054 0.07916922 -0.047526613
0001c0 f8 d3 ed 3d 46 f3 c3 3c a2 b6 9b be 5f 9c 4c bd
       0.116126955 0.023919713 -0.30412775 -0.049953815
0001d0 99 6a e4 3d bf d4 5c bd ae c3 7b be 40 4b 24 be
       0.111531444 -0.053913828 -0.24586365 -0.1604433
0001e0 55 71 d3 3d af 08 54 3e 22 35 9a be 32 49 82 bf
       0.10324351 0.20706438 -0.30118662 -1.0178587
0001f0 fb ce ab 3d 2e c8 5e be 57 a0 82 bd e8 44 b3 3d
       0.08389088 -0.2175605 -0.06378239 0.08753377
000200 c3 d2 46 bd 47 7d bf bd 61 82 41 3f 6f 5d d8 3e
       -0.04854084 -0.09350067 0.7558957 0.42258784
000210 7f 67 0a be 9f 8d 36 3e 95 60 20 3d 25 4d fb bc
       -0.13516043 0.17827462 0.039154608 -0.030676434
000220 1c 8c 9e bd e6 84 e7 3e fa 2a d3 3d 78 96 8e be
       -0.077415675 0.4521858 0.103109315 -0.27849174
000230 d7 9c 6d bc 9f 4b d0 be 65 76 61 3d ee 3b c9 bd
       -0.014502726 -0.40682694 0.05504455 -0.09825884
000240 6b e6 b6 3b eb 09 28 bd 47 03 f6 bd 09 e2 c7 3d
       0.005581667 -0.041025084 -0.12012344 0.0975991
000250 90 97 b1 bd f0 c4 77 3e 0f bb 53 3e 24 e9 92 be
       -0.086714864 0.2419622 0.20676826 -0.28693497
000260 41 12 55 3d 20 96 d8 3d e2 39 56 3d e6 1e 08 bd
       0.05201936 0.10575509 0.052301295 -0.033232592
000270 da 14 03 3e 6d d5 3b bd 7a bd 1a 3f 61 c6 59 3d
       0.12800923 -0.045857836 0.6044537 0.053167704
000280 33 fe df 3d 10 f3 6a 3c 76 5f 17 3e c4 da bb 3d
       0.109371565 0.014340177 0.14782509 0.091725856
000290 dc 8a 38 bd f9 c5 e8 bc 1a 27 29 3f 18 ef 15 3f
       -0.0450543 -0.028414713 0.6607529 0.58567953
0002a0 cf 92 95 3d 37 24 35 3d 81 a2 de 3d ae a1 41 3e
       0.07303392 0.04422399 0.10870839 0.18909332
0002b0 ac 2e b7 bc 2b c2 25 3d 9c 2a 71 3d ed 37 8a bd
       -0.022361122 0.040468376 0.058878526 -0.06748948
0002c0 d7 cb 87 bd e7 dc c9 bd 98 b4 47 3d 56 2e 4e 3c
       -0.06630676 -0.09856587 0.048756212 0.01258429
0002d0 10 27 b1 be 5b 3e a0 be e9 ae 6c bc bb 34 09 3d
       -0.34600115 -0.31297573 -0.014445999 0.033497553
0002e0 1f 86 c6 3b 8f 2a e9 bc 84 87 6e 3d 35 db 3e be
       0.006058469 -0.028462676 0.058234707 -0.18638308
0002f0 b7 5a a0 bd 58 9a d8 3d 8d bb 9c 3c 6c b7 c6 bc
       -0.078298025 0.10576314 0.0191324 -0.024257384
000300 70 55 b9 3e dd 20 d6 be ac 2d e6 be f5 49 15 3d
       0.36197996 -0.41821948 -0.4495672 0.036447484
000310 bb 0b 98 bd e5 5c a7 3d 2c a9 36 be dc 54 95 bd
       -0.074241124 0.08172015 -0.17837971 -0.07291576
000320 38 95 98 3d 3e 24 02 3e 84 2a 3a 3d b1 0b e7 bd
       0.07450336 0.12709138 0.045450702 -0.11281527
000330 1d 4e b6 bc f1 05 e7 bd b6 3a 84 3d 75 bf 1d bd
       -0.022254044 -0.1128043 0.06456511 -0.038512666
000340 7d f0 80 3d d1 8b 0c 3c 26 4e 51 be eb b6 b9 3c
       0.062958695 0.008578257 -0.20439968 0.02267023
000350 03 4a ab 3d 5d ca 65 bd 1c e4 3d 3e 12 ae 5c be
       0.08363726 -0.05610119 0.18544048 -0.21550778
000360 53 47 c3 3d 12 c8 12 3e 65 6c 3f be 8e 45 de 3e
       0.095350884 0.14334133 -0.18693693 0.4341244
000370 d5 54 b8 3d ce ce ce bd 7b 89 cc bd 2f 29 32 3e
       0.090005554 -0.100980386 -0.0998716 0.17398523
000380 9d f6 68 bd 57 4b aa bd 67 4b 7e bf d9 6d e8 3e
       -0.056875814 -0.08315151 -0.99333805 0.45396307
000390 43 14 34 bd c1 b0 50 3e ac e5 0b 3c 7e b5 37 bd
       -0.043964636 0.20379926 0.008538645 -0.04485082
0003a0 8c 31 83 bd ef db 8c 3e d9 22 27 3e c5 7f 03 3f
       -0.06405935 0.27511546 0.16321887 0.51366836
0003b0 c0 fc 49 bd 7a b6 8c be e1 86 61 3d 4c 9e c5 bd
       -0.049313307 -0.2748297 0.05506027 -0.09649333
0003c0 62 68 31 3e 96 56 57 bd 56 a8 83 bd 8b b4 8c 3e
       0.17324975 -0.05257281 -0.06428592 0.27481493
0003d0 a0 0c 52 bd 97 66 0e 3e b9 bf af 3e c0 66 28 be
       -0.05128157 0.13906322 0.3432596 -0.16445446
0003e0 e6 cd fa 3c 8a 32 ab 3d 84 bc 98 3d 76 73 b7 bc
       0.030615758 0.08359249 0.074578315 -0.022393923
0003f0 1e ff c5 3d 8c f3 bf 3b 02 9f 04 bf e2 60 b2 3d
       0.096678 0.0058578905 -0.51805127 0.08709885

final.linears.2.bias f4 [16]
000000 56 b9 62 bb 71 3a 8c 3e e1 5a 01 be ed 25 c0 be
       -0.0034595332 0.27388337 -0.12632324 -0.37528935
000010 63 bb fb ba fe e2 ea 3b b5 fd b2 bb 4b 11 31 3d
       -0.0019205626 0.007168173 -0.005462373 0.043229382
000020 a9 6e 42 be 76 1f 0d 3e 0c e4 a6 bc a6 6c 8c 3d
       -0.18987526 0.13781533 -0.020372413 0.068566605
000030 72 90 13 3d 63 33 71 3d a9 2f b6 bc 88 6e 33 bc
       0.036026426 0.058886897 -0.022239523 -0.010951646

layers.0.attn.0.gnn_q.weight f4 [16, 16]
000000 a9 8a 9e 33 03 a0 09 33 f3 58 a5 39 9f d4 26 39
       7.3826705e-08 3.2043328e-08 0.00031537525 0.00015910201
000010 ae ef a3 3a 1a bb bc 2f 5a 2d 8b bd db c1 c5 b3
       0.0012507343 3.4329944e-10 -0.067957595 -9.2087895e-08
000020 f4 6c 4e 34 da 49 69 30 6c 3b 5b bb 30 64 81 bd
       1.9224882e-07 8.4869856e-10 -0.0033452166 -0.063179374
000030 6c 51 5e b4 d6 d9 81 3a 1a 66 b7 35 ac 69 90 3d
       -2.0704982e-07 0.0009906839 1.3664278e-06 0.07051405
000040 76 72 6c b4 47 f4 0c 33 04 b1 59 b9 ab 5f bc b9
       -2.2020853e-07 3.281846e-08 -0.00020760676 -0.00035929432
000050 79 5c d8 3a 66 e5 02 af 4d 24 ae 3e bd 6b 88 34
       0.0016507051 -1.190493e-10 0.3401207 2.5410364e-07
000060 b2 c9 c1 b2 a2 b9 f7 af 5b d4 c3 3b dc 5c 86 3e
       -2.2559878e-08 -4.5060938e-10 0.0059762425 0.2624272
000070 24 0b 0c 35 02 89 4e bb 00 64 44 b7 b8 8c 81 be
       5.2170276e-07 -0.0031514768 -1.1705793e-05 -0.25302672
000080 d5 c2 8f b3 0a 2d f5 33 d4 e6 e8 b7 df 7e ca b8
       -6.694396e-08 1.1416894e-07 -2.7764043e-05 -9.655742e-05
000090 16 c5 46 3b f0 8c b1 30 8d 95 80 3e 1f cb c9 33
       0.0030329875 1.2918502e-09 0.25114098 9.3967394e-08
0000a0 d6 62 6a 34 be 4f b5 30 82 ea f3 3a 86 b8 6e 3e
       2.1828905e-07 1.3192147e-09 0.0018609317 0.23312578
0000b0 0c de 67 b5 b9 12 75 ba 37 16 80 b6 4b 3b 1d be
       -8.6377327e-07 -0.0009348798 -3.8172834e-06 -0.1535465
0000c0 9d 7b 90 33 6f a3 5a b3 47 4d c4 38 c5 96 b7 38
       6.728008e-08 -5.0905722e-08 9.360402e-05 8.754203e-05
0000d0 ff 30 ad 3a bf ab 80 b0 5d b6 2e be 22 a8 41 33
       0.0013213455 -9.362039e-10 -0.17061754 4.508923e-08
0000e0 4d 96 01 b4 4c ba c8 b0 41 21 d5 ba 93 f4 41 be
       -1.206874e-07 -1.4604864e-09 -0.0016260521 -0.18940954
0000f0 fc fd 9a 34 ee 43 fb 39 13 59 2a 36 48 f9 e4 3d
       2.8869533e-07 0.00047925062 2.5383822e-06 0.11180359
000100 a4 4d 55 33 0c 08 b1 30 fc 44 ae 38 f4 30 86 38
       4.966354e-08 1.2880732e-09 8.309816e-05 6.398736e-05
000110 d0 ca 2e bb b1 97 93 af 27 6b 02 be b2 93 ce b3
       -0.0026671179 -2.6846927e-10 -0.12736188 -9.619488e-08
000120 b1 42 ba 31 b3 67 32 2e 4a 78 91 ba fa 2d ec bd
       5.4208944e-09 4.0564618e-11 -0.0011098471 -0.11532207
000130 0e a6 c0 b4 89 9a b6 39 ae 98 e5 35 4d bc c2 3d
       -3.5883608e-07 0.00034828883 1.7106265e-06 0.09508572
000140 cc 35 1b b4 09 e6 4f 32 c8 df 1f 39 46 14 71 b8
       -1.4455071e-07 1.210129e-08 0.00015246787 -5.747776e-05
000150 ed 0e 92 3a f8 c1 4d 2e 8c 52 46 3c 7f 0a f2 33
       0.0011143364 4.6783882e-11 0.012104642 1.12709124e-07
000160 d6 38 c3 33 80 54 7f 2f a1 7b 6c 3a 47 93 b7 3c
       9.0907335e-08 2.3222135e-10 0.00090211077 0.022409094
000170 d8 c1 3e 32 e2 9d 62 ba 0b e7 8a b6 fe 5f 15 bc
       1.11035305e-08 -0.0008644742 -4.1396174e-06 -0.009117125
000180 34 f0 92 b2 4d 75 f4 b2 5a 49 2a 39 20 57 52 b8
       -1.7105869e-08 -2.845868e-08 0.00016239789 -5.0149043e-05
000190 00 6b a2 bb 17 b1 2e af af 75 dd 3c d2 b7 5d b3
       -0.004956603 -1.5888123e-10 0.027033655 -5.1622756e-08
0001a0 40 c7 92 b0 56 2a 8f 2e 21 b5 82 3a 8a 46 d4 3c
       -1.0679528e-09 6.5104075e-11 0.0009972194 0.025912542
0001b0 55 ac 86 b4 17 57 82 ba 53 2c 25 b6 bb 26 da bc
       -2.5084833e-07 -0.0009944168 -2.4612716e-06 -0.026629796
0001c0 a1 02 9e 33 a9 b9 d9 b2 fb 1f 85 38 3e 21 e5 38
       7.3579265e-08 -2.5346553e-08 6.347891e-05 0.00010925763
0001d0 37 80 66 b8 5c ce 22 b0 d1 bd 81 3c 85 38 50 b4
       -5.4955683e-05 -5.922851e-10 0.015837582 -1.9392071e-07
0001e0 d4 4a 20 b4 0c 2e 86 b0 4b 4c b2 ba 64 6d b3 3c
       -1.4928384e-07 -9.76287e-10 -0.0013603059 0.021902747
0001f0 09 f5 86 34 1f fe 02 3a 32 44 ab 36 9c d1 3f bc
       2.5137732e-07 0.00049969734 5.104136e-06 -0.01170769
000200 07 38 24 34 45 d9 4d b3 3e 03 d6 38 ec 1e c2 38
       1.5294073e-07 -4.7927887e-08 0.00010204919 9.2564005e-05
000210 38 5c ba ba 0f b2 18 af 20 33 ee bc b2 6d 7a 33
       -0.0014218157 -1.3887579e-10 -0.029077113 5.8307428e-08
000220 da 3e 12 34 d2 fc 88 ae b5 32 0f bb 4e 0b ae bc
       1.3620175e-07 -6.229474e-11 -0.0021850292 -0.021245625
000230 91 e6 0e 35 50 ff 5f 3a e2 a5 ff 34 0d 5f 06 3d
       5.323464e-07 0.00085448194 4.7618147e-07 0.03280549
000240 a4 5c c7 34 9a db 35 b3 cf d3 9f 39 03 f4 82 38
       3.7134043e-07 -4.2342073e-08 0.00030484653 6.244334e-05
000250 a6 bc a0 3b f8 59 be af be 2e bf bd b6 cf 4c b4
       0.004905301 -3.4624725e-10 -0.09335087 -1.9074545e-07
000260 68 03 6b b1 d5 1b 4f b0 83 2e d2 ba 7c d4 c7 bd
       -3.4198937e-09 -7.5345713e-10 -0.001603559 -0.09757325
000270 b4 45 3d 35 27 38 00 39 7a 06 07 b6 b9 1b 68 3d
       7.050942e-07 0.0001222795 -2.0120337e-06 0.056667063
000280 95 92 0d 34 3a c6 97 b3 7e a3 1b b9 84 34 fe 38
       1.3184975e-07 -7.0675426e-08 -0.00014842857 0.000121214456
000290 4b d2 43 bb ed 0d 5f b0 2e 53 d0 3a 9e 25 ea b3
       -0.0029879983 -8.1146717e-10 0.001589393 -1.0903317e-07
0002a0 12 c9 ac b3 40 73 8a b0 7f f2 b4 ba 7f 3d d9 bb
       -8.0459486e-08 -1.0073578e-09 -0.001380518 -0.0066296454
0002b0 39 e2 52 35 0f 2a b0 3a 0f 25 c6 36 1f 7f d6 bb
       7.8560294e-07 0.0013440269 5.905174e-06 -0.0065459157
0002c0 b2 bd 42 33 fe 85 0e b3 e8 07 4d 38 59 dd 3f 39
       4.534167e-08 -3.3183817e-08 4.8883172e-05 0.00018297638
0002d0 b8 91 21 3b bd 82 09 b0 8f 7f 51 bc fd 5b 8c 33
       0.0024653506 -5.00261e-10 -0.01278676 6.5359906e-08
0002e0 ab 5e 88 b3 2e 9b 11 b0 f8 f7 25 bb af f3 7a bc
       -6.3502135e-08 -5.2971216e-10 -0.0025324803 -0.015316888
0002f0 11 d2 0b 34 55 f8 ac 3a 14 13 e0 36 a7 33 68 3c
       1.3021806e-07 0.0013196567 6.677941e-06 0.014172471
000300 84 8b d3 b4 52 bd 93 33 b8 20 ad b9 9f a3 a4 b8
       -3.9403324e-07 6.879658e-08 -0.0003302151 -7.850606e-05
000310 b4 58 42 bb bd e3 a2 2f 9a 02 77 3c aa 94 7d 34
       -0.0029654922 2.9629446e-10 0.015076304 2.3616545e-07
000320 d5 33 13 b3 04 12 44 2f 96 7c 82 3a 3d 15 a1 3c
       -3.4273246e-08 1.7832497e-10 0.0009955342 0.019663448
000330 9a 59 26 b3 9a 62 29 39 01 10 e3 35 52 20 59 bc
       -3.873138e-08 0.00016153828 1.6917476e-06 -0.013252335
000340 ee e5 af 31 8e 80 70 b3 66 8d a5 b8 8a c2 16 38
       5.1193103e-09 -5.5996274e-08 -7.8941506e-05 3.5943965e-05
000350 7e a7 10 bb de 1e 16 b0 e0 8c 75 bb 38 5b de 33
       -0.002207249 -5.4613547e-10 -0.0037468001 1.0354273e-07
000360 a5 98 b7 33 61 76 d4 af e9 20 6d b9 2e 1d 96 bc
       8.5493674e-08 -3.864669e-10 -0.00022614341 -0.01832446
000370 95 9d 0a 34 15 df f5 39 e0 da 0a 36 0d cc 21 3b
       1.290958e-07 0.0004689625 2.0691004e-06 0.0024688274
000380 b6 75 4d b4 c1 77 97 33 e8 2c c0 b8 5b 80 20 b9
       -1.9134936e-07 7.0532685e-08 -9.163638e-05 -0.00015306605
000390 f1 5d 15 ba 1e be 38 30 f4 55 7f bc b7 7e e3 33
       -0.0005697897 6.7208983e-10 -0.015584458 1.05935605e-07
0003a0 20 5a 0f b3 1a 3d 2d 30 00 07 03 3b ee 18 06 bc
       -3.337675e-08 6.3023864e-10 0.0019993186 -0.008184655
0003b0 2c aa 37 b4 17 5e 4e ba 5d 0b b9 b6 cc 09 a2 3b
       -1.7105111e-07 -0.0007872297 -5.5147525e-06 0.0049450155
0003c0 24 e9 62 33 50 e7 d6 31 00 de eb 34 3b e4 08 39
       5.2831766e-08 6.254517e-09 4.3933687e-07 0.00013054993
0003d0 5e ca 71 ba b4 d9 7b ae 97 a7 61 bc 7e 7f eb b3
       -0.00092235755 -5.7264152e-11 -0.013772867 -1.0966231e-07
0003e0 a7 6a d9 b3 66 40 0c b0 72 08 e5 ba b8 ae a2 bc
       -1.012425e-07 -5.102322e-10 -0.001747383 -0.019858703
0003f0 5f 4e e4 b2 b3 98 62 3a cc 64 b5 36 20 73 55 3c
       -2.6578332e-08 0.000864397 5.4059547e-06 0.013027936

layers.0.attn.0.gnn_q.bias f4 [16]
000000 6c 87 8f 33 e9 1e 23 b3 08 66 6b b8 3c c5 75 39
       6.6835895e-08 -3.7979508e-08 -5.612339e-05 0.00023438496
000010 27 0e e0 3a f1 75 40 b0 86 82 3a 3e d5 8f b7 b4
       0.0017094061 -7.00168e-10 0.18213853 -3.4191058e-07
000020 0f ff c9 b3 e1 0c c9 af f7 d4 5c bb 4b f4 96 3d
       -9.406187e-08 -3.6570838e-10 -0.0033696273 0.07370814
000030 a4 d8 ba 34 dc 4e 11 3b 6a 77 34 37 1b db 23 be
       3.4802827e-07 0.0022172248 1.0756639e-05 -0.16001551
